1D_time_problem/time_model_weights.pth (torch, 72354 bytes, 11 tensors)

network.0.weight f4 [64, 2]
0.03576282 0.02741539 -0.07152605 0.41756326 0.009846517 -0.26221785 -0.0767527 -0.21302143
-0.033020694 -0.0013023694 0.06606119 0.34403178 0.03541786 -0.09858868 0.09332736 0.10996023
-0.04079801 -0.0946802 0.025060242 0.27116188 -0.16834573 0.46886608 -0.0013393783 -0.25640905
-0.054470528 -0.31596443 -0.12568375 0.2385213 -0.10546552 -0.01565941 -0.10763487 0.07551727
0.13008685 -0.34506878 0.12308912 0.35158208 -0.10795997 -0.39332116 -0.016427811 0.33863577
0.014974009 -0.33125708 0.04118529 -0.3236668 0.06457537 0.10910594 -0.0094556 0.37537614
-0.019780764 0.12472259 0.2501625 -0.5019185 0.07187699 0.21730937 0.009107324 0.41210318
0.07022489 0.36898842 0.10508754 -0.44829765 -0.026695898 -0.3427186 -0.02128719 -0.28911743
-0.112413086 -0.024631461 -0.056371603 -0.1105645 0.010057354 -0.124235526 -0.058002725 0.2569407
-0.13027003 -0.07161133 0.061731465 -0.172745 0.08782402 -0.3029719 -0.15414156 -0.072439805
0.15606375 0.28864604 0.0767491 -0.21001849 0.06315055 0.22176023 -0.18339175 0.40976956
-0.086812444 0.25034663 0.06594233 0.13775128 0.046070825 -0.00119249 -0.05722479 -0.3688817
-0.16910295 0.011612455 0.10255203 -0.41799134 -0.10867244 0.030907376 0.041980606 0.2883493
0.16073218 0.0020376889 0.08563461 0.11877693 0.07277668 0.108579285 0.119760364 0.19274315
0.034438435 -0.08438822 -0.089216545 -0.016695205 0.03358424 -0.0062311515 0.037260722 -0.0001485096
0.020152196 0.25031143 0.096061446 -0.4586855 0.14064565 -0.006382823 -0.049524628 -0.16528468
00000000: 097c 123d 3d96 e03c 407c 92bd daca d53e
00000010: 4953 213c 6b41 86be 8530 9dbd 4a22 5abe
00000020: b540 07bd 44b4 aaba 174b 873d ef24 b03e
00000030: 5112 113d dde8 c9bd 6a22 bf3d d432 e13d
00000040: d01b 27bd b1e7 c1bd 234b cd3c bbd5 8a3e
00000050: d362 2cbe 370f f03e 148e afba 0c48 83be
00000060: 7d1c 5fbd 17c6 a1be 3eb3 00be ed3e 743e
00000070: 4efe d7bd 2a48 80bc ac6f dcbd cca8 9a3d
00000080: 7d35 053e dbac b0be 2616 fc3d 9102 b43e
00000090: 1e1a ddbd 6461 c9be 9e93 86bc ab61 ad3e
000000a0: 8c55 753c 879a a9be e8b1 283d a8b7 a5be
000000b0: 1740 843d ef72 df3d a9eb 1abc 4d31 c03e
000000c0: 450b a2bc 8f6e ff3d 4d15 803e bb7d 00bf
000000d0: 3e34 933d 5986 5e3e e336 153c 30ff d23e
000000e0: 11d2 8f3d 0dec bc3e 2338 d73d 4587 e5be
000000f0: 5bb1 dabc d078 afbe 7962 aebc 3307 94be
00000100: d538 e6bd ebc7 c9bc e9e5 66bd a46f e2bd
00000110: 9ac7 243c 326f febd 4494 6dbd bb8d 833e
00000120: 8265 05be f6a8 92bd 22da 7c3d 11e4 30be
00000130: 14dd b33d 221f 9bbe 49d7 1dbe 525b 94bd
00000140: 2dcf 1f3e 6ac9 933e a22e 9d3d 160f 57be
00000150: 1355 813d 1d15 633e 0ccb 3bbe 51cd d13e
00000160: b9ca b1bd 6f2d 803e c60c 873d ac0e 0d3e
00000170: c3b4 3c3d 534d 9cba 8b64 6abd 10de bcbe
00000180: 5329 2dbe 2b42 3e3c cc06 d23d f602 d6be
00000190: a88f debd 7731 fd3c dbf3 2b3d 85a2 933e
000001a0: fa96 243e bf8a 053b 3361 af3d 5241 f33d
000001b0: f10b 953d d15e de3d ec44 f53d 765e 453e
000001c0: 510f 0d3d bbd3 acbd 2ab7 b6bd 62c4 88bc
000001d0: a18f 093d b02e ccbb b39e 183d 3eb9 1bb9
000001e0: 3816 a53c d228 803e ddbb c43d d3d8 eabe
000001f0: 6a05 103e 0027 d1bb 56da 4abd 6340 29be

network.0.bias f4 [64]
-0.10207541 -0.11284573 0.12556592 0.21210927 0.009812679 -0.16786426 -0.008970885 -0.20982124
0.14965752 -0.16760269 -0.05772186 0.13767928 0.17076418 -0.00061348575 0.2044622 0.13921562
0.004923894 -0.17345986 0.17539488 -0.12171325 0.11693274 0.11083075 -0.17417279 -0.10813847
-0.059698675 0.09058751 -0.22017206 -0.09581735 -0.18265562 0.08719662 0.17239104 0.13284141
0.21060422 0.18764295 0.027694779 -0.07730377 0.27266148 -0.030815478 0.036747776 0.3031504
-0.20346981 0.0077281822 -0.19142853 0.007211374 0.0031399652 -0.21502225 -0.07693238 0.14466839
0.2486016 0.044414323 0.12280276 -0.14740878 -0.26046693 -0.24239786 -0.1964109 -0.26428676
-0.0147525845 0.17437328 -0.04535321 -0.04537293 -0.14631487 0.08170052 -0.2238392 0.19262217
00000000: ea0c d1bd a91b e7bd 5a94 003e 2c33 593e
00000010: 5cc5 203c 9ce4 2bbe 9efa 12bc 61db 56be
00000020: d23f 193e 0aa0 2bbe c26d 6cbd ccfb 0c3e
00000030: cedc 2e3e 55d2 20ba 8a5e 513e 8a8e 0e3e
00000040: 9e58 a13b 769f 31be b79a 333e cc44 f9bd
00000050: 6f7a ef3d 3bfb e23d 5a5a 32be b477 ddbd
00000060: 9986 74bd f285 b93d c974 61be e33b c4bd
00000070: 130a 3bbe 2494 b23d 4787 303e 9407 083e
00000080: a2a8 573e 7925 403e 29e0 e23c 7051 9ebd
00000090: 499a 8b3e be70 fcbc d684 163d 8736 9b3e
000000a0: 645a 50be b13c fd3b d705 44be 644d ec3b
000000b0: e0c7 4d3b cb2e 5cbe b98e 9dbd f323 143e
000000c0: 6b91 7e3e cbeb 353d 0380 fb3d 54f2 16be
000000d0: ec5b 85be 2537 78be f01f 49be 9850 87be
000000e0: d3b4 71bc e98e 323e 4ac4 39bd f7d8 39bd
000000f0: 91d3 15be 9a52 a73d 1a36 65be bf3e 453e

network.2.weight f4 [64, 64]
0.102049984 0.16063166 -0.047852155 -0.110655025 0.18271533 0.26892927 0.052044343 -0.2364809
0.17027211 0.07721734 0.025357874 -0.16638093 0.056248773 0.17356126 0.2707091 0.1729453
0.11083576 0.15602729 0.03091869 0.012171303 0.026665175 -0.077539906 -0.19537075 0.25040573
0.03061709 -0.11522871 -0.13387759 0.13698006 0.04296066 -0.07397549 -0.2487639 -0.023560286
-0.12854967 0.07547693 0.0110927345 -0.17318857 0.06282197 0.15188746 -0.13238811 0.15355787
0.11091638 -0.14070633 -0.017941147 0.055562567 0.1861232 -0.07324153 0.12289858 -0.3229027
0.16465127 -0.22218193 -0.04526324 0.19639167 -0.14562784 0.0011666655 -0.011333028 0.16178268
-0.22451736 -0.075445585 0.11604948 0.10748414 0.04929757 -0.17563644 -0.08394952 -0.0920193
-0.2167302 0.12883021 0.15329985 -0.14713947 0.051173173 -0.12444288 -0.23497042 -0.10946602
-0.08924644 0.13538145 0.01885272 0.12526944 0.20076916 -0.17461398 0.21855533 0.0946605
0.21132287 0.014541767 -0.15200217 0.26992506 -0.00047066138 -0.05159529 0.018469762 -0.06783184
-0.06458236 -0.14504857 0.04791416 0.2009453 -0.10409364 0.06942134 0.048769962 0.19825448
-0.06459442 -0.071857676 0.02171231 -0.14835967 -0.066151775 -0.09563608 0.1842989 0.24980392
-0.12521528 0.06408841 0.007657425 0.17812584 -0.18932457 0.021353416 0.03238526 0.049970564
0.11787272 0.023315124 0.21425954 0.15291734 -0.1056419 -0.0103988135 -0.10086941 0.046420194
0.056512386 0.23530166 0.15208763 -0.057394516 0.22812702 -0.1306045 0.09605105 0.078158
-0.16529758 -0.13279207 0.23786026 0.16363046 -0.22478724 -0.000995171 -0.031943668 -0.076024875
0.076663576 -0.15130088 0.08957203 -0.086897045 -0.05315081 0.037162248 0.16348846 -0.06727029
0.15287106 0.1573546 0.118595414 0.09289127 -0.13464482 0.23108062 -0.42216185 0.1194437
0.061729122 -0.089548185 -0.27271673 0.10437074 0.13250656 0.15236558 0.05668771 0.14172338
0.10529644 0.30950308 -0.07702311 -0.11591033 0.08714109 -0.24098636 -0.004525623 0.45451063
0.10031627 -0.20173533 -0.2673143 -0.14505537 0.15577751 -0.5337745 -0.11958129 -0.111349694
0.23963857 0.1491354 0.06122774 -0.21408163 -0.12685242 -0.2426388 0.16282101 -0.18291065
-0.019535631 0.15685412 0.12125569 -0.15604864 -0.02975945 0.003710037 -0.07170595 0.3851938
-0.10437819 -0.15661378 -0.028502215 -0.047634557 0.2294238 -0.010570361 0.024214696 -0.20200625
-0.054980803 -0.124856286 0.22045028 0.15749477 -0.02939207 -0.12060105 -0.1171758 0.06471589
-0.109862715 -0.15448135 -0.15488227 -0.22297736 -0.118538566 0.15540189 -0.09492004 -0.1818334
-0.10961124 0.03830912 -0.024111211 0.14973827 0.11022417 0.15639906 -0.040999368 0.05948659
0.1492467 -0.020647578 -0.12086798 0.14883603 0.05028025 -0.18110232 -0.063490376 -0.17646667
-0.17473044 -0.1367748 -0.07814169 0.14293297 0.09804779 0.041043453 -0.05342836 -0.14713661
0.21591485 0.15386583 0.009546493 0.030012432 -0.054044172 -0.0162344 0.06820591 -0.17804581
-0.22418255 0.070345126 -0.14257966 -0.07986362 -0.034999024 -0.04793227 -0.117810495 0.21913192
00000000: 95ff d03d a07c 243e 9f00 44bd 1a9f e2bd
00000010: ba19 3b3e 19b1 893e 732c 553d 0d28 72be
00000020: d05b 2e3e 2024 9e3d 51bb cf3c c35f 2abe
00000030: 1d65 663d 0bba 313e 629a 8a3e 9318 313e
00000040: dcfd e23d 9ec5 1f3e 3149 fd3c 256a 473c
00000050: ed70 da3c 3ecd 9ebd 450f 48be 2e35 803e
00000060: b1d0 fa3c 08fd ebbd 3517 09be 8044 0c3e
00000070: 84f7 2f3d 7680 97bd f7bb 7ebe 8001 c1bc
00000080: 86a2 03be a693 9a3d 4dbe 353c 5858 31be
00000090: cea8 803d 6388 1b3e c090 07be 463e 1d3e
000000a0: 2128 e33d 5215 10be 50f9 92bc 9395 633d
000000b0: 1597 3e3e a8ff 95bd 40b2 fb3d 8153 a5be
000000c0: 589a 283e a983 63be f265 39bd e61a 493e
000000d0: 771f 15be ccea 983a 2aae 39bc 5caa 253e
000000e0: e1e7 65be 3783 9abd 5aab ed3d a520 dc3d
000000f0: 40ec 493d 0ada 33be baed abbd 9d74 bcbd
00000100: 86ee 5dbe 11ec 033e a3fa 1c3e bbab 16be
00000110: f69a 513d e9db febd 169c 70be b82f e0bd
00000120: d6c6 b6bd 6fa1 0a3e 0571 9a3c a246 003e
00000130: 6e96 4d3e 02ce 32be f8cc 5f3e 5ddd c13d
00000140: 0665 583e 9740 6e3c 75a6 1bbe 9e33 8a3e
00000150: 1ac3 f6b9 9555 53bd e64d 973c 6beb 8abd
00000160: c243 84bd 9d87 14be a341 443d 9bc4 4d3e
00000170: 0c2f d5bd c72c 8e3d 03c3 473d 3903 4b3e
00000180: 144a 84bd 1e2a 93bd 04de b13c 99eb 17be
00000190: 957a 87bd d9dc c3bd dab8 3c3e 99cc 7f3e
000001a0: 6f38 00be c940 833d 23eb fa3b 9f66 363e
000001b0: 4dde 41be 5ced ae3c 68a6 043d efad 4c3d
000001c0: 4167 f13d 5cff be3c da66 5b3e 5d96 1c3e
000001d0: c85a d8bd c95f 2abc 9f94 cebd 1a23 3e3d
000001e0: 8879 673d ebf2 703e dcbc 1b3e 8316 6bbd
000001f0: 219a 693e 30bd 05be 6ab6 c43d 4d11 a03d
00000200: c543 29be a5fa 07be a491 733e be8e 273e
00000210: a02e 66be 6670 82ba 5dd7 02bd eeb2 9bbd
00000220: cb01 9d3d 9eee 1abe 8a71 b73d 14f7 b1bd
00000230: aab4 59bd 7137 183d 8569 273e 01c5 89bd
00000240: 3b8a 1c3e 9021 213e 27e2 f23d c73d be3d
00000250: 55e0 09be 66a0 6c3e 9925 d8be e69e f43d
00000260: add7 7c3d 0a65 b7bd 87a1 8bbe 54c0 d53d
00000270: cdaf 073e b905 1c3e 5f31 683d ef1f 113e
00000280: a9a5 d73d 3077 9e3e 4bbe 9dbd 6562 edbd
00000290: 0777 b23d 21c5 76be ad4b 94bb 9eb5 e83e
000002a0: 9e72 cd3d b593 4ebe 6cdd 88be 6589 14be
000002b0: 2484 1f3e 72a5 08bf 09e7 f4bd 4f0b e4bd
000002c0: d063 753e f3b6 183e f0c9 7a3d 3738 5bbe
000002d0: 9ae5 01be 4e76 78be 8dba 263e ee4c 3bbe
000002e0: 3009 a0bc 5e9e 203e e754 f83d 37cb 1fbe
000002f0: 17ca f3bc 1824 733b 92da 92bd 1f38 c53e
00000300: 3cc4 d5bd 5d5f 20be 7a7d e9bc 741c 43bd
00000310: 13ee 6a3e 4f2f 2dbc e65d c63c bada 4ebe
00000320: 8d33 61bd a7b4 ffbd b8bd 613e 4f46 213e
00000330: a3c7 f0bc affd f6bd def9 efbd c489 843d
00000340: b4ff e0bd 5c30 1ebe 7599 1ebe 2d54 64be
00000350: 59c4 f2bd ac21 1f3e 7065 c2bd 8932 3abe
00000360: dc7b e0bd 06ea 1c3d e084 c5bc fd54 193e
00000370: 36bd e13d 1327 203e f4ee 27bd 36a8 733d
00000380: 20d4 183e 1c25 a9bc a289 f7bd 7968 183e
00000390: aaf2 4d3d e372 39be 3e07 82bd aeb3 34be
000003a0: 89ec 32be b10e 0cbe c008 a0bd 055d 123e
000003b0: 48cd c83d 2e1d 283d b2d7 5abd fbaa 16be
000003c0: c818 5d3e 018f 1d3e e568 1c3c a2dc f53c
000003d0: 6c5d 5dbd 01fe 84bc 8aaf 8b3d a451 36be
000003e0: 1c90 65be 1b11 903d 6700 12be 8a8f a3bd
000003f0: 235b 0fbd a154 44bd a146 f1bd 1e64 603e

network.2.bias f4 [64]
-0.06710546 -0.05566492 0.17046426 0.046848506 0.0430066 0.037767507 -0.07843341 -0.16404781
0.12386035 -0.041777734 -0.0074842344 -0.067698255 -0.06327719 0.104712516 -0.0037993286 0.1026392
-0.1840185 -0.14015481 0.20394222 0.15764429 -0.19439948 -0.22804457 0.034800004 0.117496245
-0.49513742 0.11175487 -0.08976681 -0.099741966 -0.20329207 -0.13863878 0.14217553 0.09108777
0.11322653 -0.18119699 -0.20518564 -0.13703164 -0.09516988 0.21708071 0.056405637 -0.0147820385
0.022396037 -0.08718409 -0.09522499 0.055744484 -0.109827444 -0.13364793 -0.0175243 -0.28125262
0.0312281 -0.030347921 -0.13209544 0.076060824 0.007208664 -0.49174127 0.1808802 0.06653198
0.15155146 0.09354268 0.10954208 0.033221878 0.0045077344 0.17264244 -0.069727235 -0.040537547
00000000: 966e 89bd e600 64bd 2f8e 2e3e 38e4 3f3d
00000010: b027 303d 1ab2 1a3d b2a1 a0bd 26fc 27be
00000020: 7faa fd3d 211f 2bbd 4f3e f5bb 62a5 8abd
00000030: 7997 81bd 8473 d63d 28fe 78bb 8034 d23d
00000040: 586f 3cbe be84 0fbe 3bd6 503e 816d 213e
00000050: a810 47be 8484 69be 738a 0e3d dfa1 f03d
00000060: a782 fdbe bddf e43d a9d7 b7bd 8445 ccbd
00000070: cc2b 50be 53f7 0dbe 7696 113e 3a8c ba3d
00000080: 50e3 e73d b48b 39be 2f1c 52be 0652 0cbe
00000090: 6de8 c2bd 684a 5e3e 9909 673d 5d30 72bc
000000a0: e577 b73c 928d b2bd 5205 c3bd 5454 643d
000000b0: 36ed e0bd 01db 08be 1f8f 8fbc 5800 90be
000000c0: 13d2 ff3c 349c f8bc 0744 07be c7c5 9b3d
000000d0: a836 ec3b 83c5 fbbe a938 393e eb41 883d
000000e0: 4e30 1b3e 4e93 bf3d 9957 e03d aa13 083d
000000f0: 9eb5 933b 2ec9 303e 27cd 8ebd b30a 26bd

network.4.weight f4 [64, 64]
-0.11586324 -0.005578129 -0.11936242 0.17869224 -0.10706471 0.17553464 0.16879843 0.08728861
0.34228155 0.14434199 -0.0055841617 0.13525584 0.17116912 0.024560904 -0.16998939 -0.15425952
-0.26460317 -0.0609395 0.08339387 0.266824 -0.11642117 -0.19561836 -0.022423275 0.22432967
-0.080264844 0.10996576 0.04848684 -0.05883695 -0.09203655 -0.07079669 0.20878068 0.17242868
-0.08954112 -0.16295254 -0.23975784 -0.0947245 0.12311908 0.4024246 -0.059696093 -0.02794998
0.0336909 0.045437098 0.025720682 -0.15090866 -0.28096527 0.078890815 -0.114406355 0.039091673
-0.020429738 0.124328546 -0.14440122 0.025644992 -0.08348905 0.11214509 0.09344023 0.030596573
-0.045746293 0.19723801 -0.07980273 -0.08690677 0.06924239 -0.0005540959 -0.21163186 -0.014736969
-0.3083911 0.14034003 -0.18356653 0.17135184 0.45280474 0.2898519 0.023885245 -0.16748786
0.054875065 -0.045136455 -0.045492712 0.04010015 0.056901615 0.06824523 0.6762329 -0.13706751
-0.000825133 -0.041024894 -0.10676333 -0.010393736 0.06674275 0.17542915 -0.0951631 0.0047940896
0.24410088 0.09253799 -0.03294588 -0.25300533 0.19546103 -0.124266535 0.022350153 -0.4161164
0.26080516 0.07356962 0.09035324 0.4864643 0.014756762 -0.31439346 0.28839362 0.32453832
-0.029654205 -0.27380738 0.023199517 0.12923492 0.2511513 -0.19222338 0.0055037057 0.2975031
-0.12970622 -0.19243549 -0.23500362 0.14678183 -0.023081463 0.3140557 0.14437836 -0.03639111
-0.11790667 -0.10135383 -0.011377941 0.42142603 -0.35313135 -0.009144675 -0.09236244 -0.024041144
-0.04056253 -0.072345056 -0.129888 -0.10577884 0.15913053 0.044093736 -0.04496097 -0.10467687
0.23951495 -0.16754887 -0.19965261 0.002574061 0.08943146 -0.061788823 -0.0010642306 -0.11881931
0.05142896 -0.18859145 0.09696285 0.35716173 0.072360516 -0.13655588 0.02264405 0.16577178
0.058043078 -0.020951124 -0.18410535 -0.14565703 0.100214064 -0.09643219 0.21728176 -0.055684943
0.15626256 -0.2706146 0.108637266 -0.007594526 -0.0664875 0.036534786 -0.11189897 -0.016253205
-0.089110844 0.08051717 0.12406011 -0.06938511 -0.12885147 0.020469988 -0.04917493 0.0138429
0.026470685 -0.020997582 -0.07289437 -0.11692904 0.209413 0.06317903 -0.039889008 -0.036314532
0.039987344 0.09924923 0.08856872 -0.13930728 0.14581162 0.0021233102 -0.08511206 0.077378534
-0.16256648 -0.016728235 0.08470589 0.17158975 0.21546094 0.10663192 0.0824275 -0.16327496
0.003380421 -0.15086551 0.026137857 -0.15720071 0.09923079 -0.008418381 0.09185079 0.010316179
-0.2870193 -0.24921003 0.6024393 -0.013485212 -0.23005919 -0.24484514 -0.050395966 -0.12296803
-0.18716288 0.031828452 0.023467146 -0.1131572 -0.091238 -0.015625281 0.14113727 -0.10824889
0.002675522 -0.28839624 -0.023810707 -0.16082793 -0.011215535 0.32498243 0.064933114 -0.034058508
-0.013390738 -0.018739214 -0.051090043 0.08837216 -0.17216998 -0.08222396 0.1567048 -0.30015823
-0.05484595 0.051939853 -0.13507321 -0.024715193 -0.07726412 0.00023031041 0.06485552 0.19026424
0.09256504 0.18238565 0.21912791 0.29586533 0.16033323 0.021578357 -0.08111474 0.067892045
00000000: b549 edbd bdc8 b6bb 4974 f4bd 19fb 363e
00000010: be44 dbbd 5abf 333e 7fd9 2c3e 5fc4 b23d
00000020: 873f af3e 63ce 133e 58fb b6bb 8280 0a3e
00000030: f546 2f3e f333 c93c b311 2ebe 35f6 1dbe
00000040: 117a 87be b29b 79bd 68ca aa3d 289d 883e
00000050: 396e eebd 2e50 48be 04b1 b7bc adb6 653e
00000060: e561 a4bd ba35 e13d 239a 463d 04ff 70bd
00000070: a97d bcbd dbfd 90bd 9aca 553e 2591 303e
00000080: 5661 b7bd 08dd 26be 1483 75be ebfe c1bd
00000090: db25 fc3d 990a ce3e e483 74bd 5bf7 e4bc
000000a0: 78ff 093d 401c 3a3d 2eb4 d23c cd87 1abe
000000b0: aeda 8fbe 8291 a13d e14d eabd 971e 203d
000000c0: 445c a7bc f79f fe3d eadd 13be 7215 d23c
000000d0: 4ffc aabd 53ac e53d 975d bf3d aaa5 fa3c
000000e0: 7760 3bbd c3f8 493e 9d6f a3bd 2dfc b1bd
000000f0: f4ce 8d3d bf40 11ba 06b6 58be 5473 71bc
00000100: 70e5 9dbe 4cb5 0f3e ddf8 3bbe db76 2f3e
00000110: 06d6 e73e 7867 943e fdaa c33c f081 2bbe
00000120: adc4 603d 01e1 38bd 9156 3abd 0e40 243d
00000130: ab11 693d 28c4 8b3d 991d 2d3f 6d5b 0cbe
00000140: bd4d 58ba b809 28bd bca6 dabd 7d4a 2abc
00000150: 6cb0 883d b3a3 333e dfe4 c2bd bd17 9d3b
00000160: 95f5 793e 8f84 bd3d 42f2 06bd ea89 81be
00000170: f026 483e 747f febd ab17 b73c 350d d5be
00000180: 4188 853e abab 963d 1f0b b93d d911 f93e
00000190: 59c6 713c 2ef8 a0be 54a8 933e e329 a63e
000001a0: 60ed f2bc 7b30 8cbe ea0c be3c 2956 043e
000001b0: e796 803e 35d6 44be 6e58 b43b 5452 983e
000001c0: b5d1 04be cf0d 45be caa4 70be fa4d 163e
000001d0: 5615 bdbc e9cb a03e ecd7 133e d80e 15bd
000001e0: 0d79 f1bd 9992 cfbd 8b6a 3abc 27c5 d73e
000001f0: a2cd b4be 8cd3 15bc 8528 bdbd eff1 c4bc
00000200: e524 26bd a529 94bd 5c01 05be 94a2 d8bd
00000210: 1df3 223e a29b 343d fe28 38bd d460 d6bd
00000220: 6843 753e ee91 2bbe bc71 4cbe 94b1 283b
00000230: d727 b73d 4716 7dbd a77d 8bba 8a57 f3bd
00000240: 2ca7 523d 1e1e 41be 7594 c63d e7dd b63e
00000250: c031 943d 4ed5 0bbe 0480 b93c 14c0 293e
00000260: 94be 6d3d b1a1 abbc 1d86 3cbe 1e27 15be
00000270: 083d cd3d 3d7e c5bd 1c7f 5e3e e515 64bd
00000280: 4b03 203e ff8d 8abe 377d de3d 80db f8bb
00000290: 992a 88bd 80a5 153d 4a2b e5bd 7125 85bc
000002a0: bf7f b6bd 30e6 a43d 3a13 fe3d c819 8ebd
000002b0: a4f1 03be adb0 a73c a76b 49bd 55cd 623c
000002c0: 0dd9 d83c 1f03 acbc a549 95bd 7e78 efbd
000002d0: 5d70 563e 0264 813d a862 23bd 8cbe 14bd
000002e0: c5c9 233d 2e43 cb3d 8463 b53d 91a6 0ebe
000002f0: a44f 153e 3c27 0b3b 3b4f aebd a378 9e3d
00000300: d477 26be a709 89bc 487a ad3d 39b5 2f3e
00000310: cba1 5c3e d661 da3d c0cf a83d 8d31 27be
00000320: 0e8a 5d3b 7d7c 1abe 0f1f d63c 39f9 20be
00000330: 8339 cb3d 40ed 09bc 441c bc3d 3105 293c
00000340: 32f4 92be ea30 7fbe 7639 1a3f 14f1 5cbc
00000350: a394 6bbe afb8 7abe 006c 4ebd aad6 fbbd
00000360: a0a7 3fbe 8d5e 023d 2c3e c03c f6be e7bd
00000370: fdda babd 9700 80bc 4a86 103e 98b1 ddbd
00000380: cf57 2f3b aca8 93be ac0e c3bc 14b0 24be
00000390: 5dc1 37bc 1964 a63e a7fb 843d ef80 0bbd
000003a0: d364 5bbc fb82 99bc cb43 51bd 77fc b43d
000003b0: 544d 30be 0965 a8bd 3977 203e 57ae 99be
000003c0: 26a6 60bd e2be 543d a250 0abe 8477 cabc
000003d0: a73c 9ebd 7b7f 7139 f9d2 843d a1d4 423e
000003e0: bd92 bd3d 4ec3 3a3e 1163 603e a97b 973e
000003f0: 652e 243e 18c5 b03c 7c1f a6bd fc0a 8b3d

network.4.bias f4 [64]
0.14763497 -0.17139447 0.08057256 0.24264148 -0.06444989 0.16050841 -0.038972124 -0.13481472
-0.04942632 -0.19267738 0.0014722894 -0.06687696 -0.13760266 0.2351209 0.07943124 -0.17222734
0.23048732 -0.006188848 -0.051252373 0.013263178 -0.12951158 -0.09639435 0.12704803 -0.057793524
-0.22715165 0.076652266 -0.0048623946 0.15133183 -0.027089061 0.09627946 0.24064137 -0.019915603
-0.039012723 0.079630315 -0.039921083 0.024698056 0.010097356 0.1639794 0.06257351 -0.053746674
-0.07369119 -0.12037705 0.098070644 0.14808612 -0.0930472 0.12894142 0.106986865 0.119240046
-0.023699531 -0.07947252 -0.13454196 -0.17275022 0.018424049 -0.05296989 0.052978594 -0.043412186
-0.001992527 0.017040072 0.060552828 -0.1393836 0.079633854 0.1271433 0.05671374 -0.02942976
00000000: 9f2d 173e 0882 2fbe 3a03 a53d 0277 783e
00000010: 4efe 83bd 515c 243e 3ca1 1fbd df0c 0abe
00000020: 4173 4abd 384d 45be d6f9 c03a caf6 88bd
00000030: b6e7 0cbe 89c3 703e d9ac a23d 5d5c 30be
00000040: de04 6c3e d2cb cabb 02ee 51bd cd4d 593c
00000050: af9e 04be 676a c5bd e118 023e e7b8 6cbd
00000060: 719a 68be ddfb 9c3d b954 9fbb bbf6 1a3e
00000070: e1e9 ddbc 2a2e c53d b16a 763e 0c26 a3bc
00000080: cecb 1fbd 3815 a33d 4a84 23bd 9453 ca3c
00000090: 616f 253c 37ea 273e 8a26 803d 7925 5cbd
000000a0: 68eb 96bd 3e88 f6bd 43d9 c83d e3a3 173e
000000b0: 888f bebd 3809 043e ee1b db3d 2034 f43d
000000c0: 8525 c2bc 7dc2 a2bd 5ec5 09be 6fe5 30be
000000d0: 08ee 963c f5f6 58bd 1500 593d fad0 31bd
000000e0: 0e95 02bb 9f97 8b3c 3e06 783d 93ba 0ebe
000000f0: 1317 a33d da31 023e ab4c 683d ae16 f1bc

network.6.weight f4 [64, 64]
0.29579303 0.103210054 0.043245535 0.06069484 0.010930487 -0.117109925 -0.03594923 3.626336e-05
0.04608457 -0.304039 0.018835627 -0.11118957 -0.1523176 0.10863546 0.06076936 -0.20786291
-0.014751296 -0.14343062 -0.13829972 0.016552402 0.172168 0.27249017 -0.12878598 0.1351463
0.17746443 -0.056228004 0.24858324 -0.14671455 0.16222584 0.026103003 0.13485686 0.20022283
-0.021994615 -0.094999634 0.2175948 0.16352533 -0.11775624 -0.09291085 -0.22406402 -0.0154294055
0.23943326 -0.043578304 0.18948302 -0.027699165 0.06866819 0.03945979 0.15080978 -0.11603661
0.051602222 0.18191043 0.15666588 -0.022486998 -0.19593394 0.224766 0.043032214 0.1432692
-0.090722635 0.03514406 -0.043164838 -0.18619534 -0.024244737 0.122132786 0.12825213 0.10379834
0.05020548 0.2047446 -0.23605995 -0.09535334 -0.14908053 0.030327965 -0.13608186 0.004680183
0.027569091 0.12178533 0.047722988 0.05801704 0.030481413 0.13237709 -0.08852396 0.008195608
0.18999377 0.009055761 -0.21137194 0.13540058 0.04492061 0.22112237 -0.28461605 -0.12490804
-0.35097784 0.033866275 -0.097528875 -0.071120344 -0.2903112 -0.113197096 -0.22434035 -0.014385073
0.132421 0.01708099 -0.08561625 0.07772843 -0.31767967 -0.10658968 0.12330005 0.1339077
-0.09700186 0.11050506 -0.0119544845 0.21440957 0.12323345 0.1019281 -0.06604238 0.2045922
0.14019695 0.2912916 -0.12564409 -0.2924305 0.1739832 -0.12947316 -0.19604573 -0.12802061
0.08316042 0.24190159 -0.02908453 0.20709813 -0.010573749 -0.11893375 -0.062042598 0.055052217
-0.17610267 -0.062407576 0.1868931 -0.3955265 0.08605865 -0.3230669 0.050503623 0.029433956
-0.30151314 -0.04887843 0.07409195 0.082378015 0.08895773 -0.379951 0.05838083 0.1841031
-0.21350871 -0.1402191 -0.13629307 -0.02633063 0.31923068 0.06620782 -0.42957428 -0.32207015
0.12523624 -0.0024289237 0.032671455 0.061659034 0.033115327 0.40225798 -0.025852257 -0.0230293
0.26319626 -0.32443887 -0.27135858 0.075710215 0.112954296 -0.3818711 -0.122730784 -0.1783685
0.22126693 0.35700935 0.1998544 0.03471648 0.17433643 -0.08894625 -0.11123964 0.015361676
-0.60386735 0.24857068 -0.041342203 -0.16810557 -0.14478284 0.07371297 0.22226274 -0.00947644
-0.1325954 0.04482142 -0.21217582 -0.25870204 0.16756387 0.018154273 -0.016121965 0.28834003
-0.09930926 0.1313709 0.08944067 -0.15226515 -0.27459767 0.2633893 0.07900423 -0.15257733
-0.04217764 0.09844925 0.030341255 0.24107265 -0.2727347 0.21751988 -0.016779602 -0.03407488
0.017966101 -0.22968799 0.18147373 -0.18516366 0.22511886 -0.109579384 -0.019206323 0.038752433
0.2398758 0.07641787 -0.103833005 0.07156607 0.24301332 -0.02666131 -0.27330613 0.018937584
-0.048303854 0.07522003 0.1371407 -0.050440773 -0.07214925 0.0548115 -0.17193142 0.20130596
-0.034496546 -0.096997276 -0.15958476 -0.1626337 -0.09636367 0.001623602 -0.015615517 -0.22358115
0.2303189 -0.18012786 0.084933646 0.2215359 -0.07394617 0.083332896 -0.12884091 0.29018784
-0.14795376 0.13569623 -0.08182261 0.010055249 0.0926154 -0.17058751 -0.046659235 0.15433975
00000000: 2f72 973e cb5f d33d 3b22 313d 279b 783d
00000010: c915 333c 54d7 efbd 803f 13bd 7c19 1838
00000020: 2dc3 3c3d 00ab 9bbe 2c4d 9a3c 5bb7 e3bd
00000030: 25f9 1bbe 457c de3d 4be9 783d 04da 54be
00000040: 6baf 71bc 7adf 12be 719e 0dbe e798 873c
00000050: cf4c 303e d583 8b3e 79e0 03be cb63 0a3e
00000060: 3cb9 353e 564f 66bd 9b8c 7e3e 573c 16be
00000070: 881e 263e f7d5 d53c eb17 0a3e 3707 4d3e
00000080: 0d2e b4bc 2b8f c2bd 2cd1 5e3e 2f73 273e
00000090: 2f2a f1bd 0b48 bebd 0a71 65be 9ecb 7cbc
000000a0: fe2d 753e 2a7f 32bd d607 423e 5ce9 e2bc
000000b0: e8a1 8c3d 97a0 213d e16d 1a3e 9aa4 edbd
000000c0: da5c 533d ba46 3a3e 056d 203e a736 b8bc
000000d0: e8a2 48be 0f29 663e 8c42 303d 29b5 123e
000000e0: cacc b9bd 38f3 0f3d 9dcd 30bd fea9 3ebe
000000f0: e69c c6bc c120 fa3d 8754 033e 3994 d43d
00000100: 43a4 4d3d 92a8 513e b3b9 71be 9d48 c3bd
00000110: 91a8 18be 5a72 f83c 0b59 0bbe 385c 993b
00000120: 93d8 e13c 966a f93d 2e79 433d 47a3 6d3d
00000130: 28b4 f93c dc8d 073e 0d4c b5bd df46 063c
00000140: ba8d 423e 9d5e 143c e371 58be 73a6 0a3e
00000150: acfe 373d e76d 623e 32b9 91be c9cf ffbd
00000160: 5eb3 b3be 5db7 0a3d 38bd c7bd 8ba7 91bd
00000170: aba3 94be e1d3 e7bd 7ab9 65be 5faf 6bbc
00000180: 5f99 073e 6fed 8b3c 9357 afbd 1530 9f3d
00000190: e9a6 a2be b14b dabd bd84 fc3d 1a1f 093e
000001a0: e9a8 c6bd 7a50 e23d bedc 43bc 2f8e 5b3e
000001b0: d261 fc3d aebf d03d 3a41 87bd 9e80 513e
000001c0: ca8f 0f3e 2c24 953e d8a8 00be 73b9 95be
000001d0: a728 323e 9d94 04be 36c0 48be d617 03be
000001e0: 0350 aa3d 0db5 773e ae42 eebc 8811 543e
000001f0: 853d 2dbc 8a93 f3bd 6120 7ebd 6f7e 613d
00000200: 4254 34be 169f 7fbd e860 3f3e 7382 cabe
00000210: 843f b03d 0669 a5be e3dc 4e3d 7b1f f13c
00000220: ee5f 9abe c034 48bd 85bd 973d ceb5 a83d
00000230: 782f b63d f088 c2be bd20 6f3d 8685 3c3e
00000240: 07a2 5abe 9995 0fbe 6990 0bbe 55b3 d7bc
00000250: 3472 a33e f797 873d 29f1 dbbe 61e6 a4be
00000260: ee3d 003e 942e 1fbb 81d2 053d 2f8e 7c3d
00000270: f0a3 073d c2f4 cd3e 1dc8 d3bc f1a7 bcbc
00000280: a9c1 863e da1c a6be 83ef 8abe f50d 9b3d
00000290: 9554 e73d 9c84 c3be 475a fbbd 3ba6 36be
000002a0: cc93 623e eec9 b63e a2a6 4c3e de32 0e3d
000002b0: 4085 323e 7429 b6bd 9cd1 e3bd 8aaf 7b3c
000002c0: 0d97 1abf 5089 7e3e 7156 29bd de23 2cbe
000002d0: f441 14be d3f6 963d d898 633e 1243 1bbc
000002e0: 17c7 07be aa96 373d 9e44 59be 9874 84be
000002f0: dd95 2b3e 45b8 943c 3612 84bc 4ea1 933e
00000300: a762 cbbd 1886 063e ac2c b73d 65eb 1bbe
00000310: 1198 8cbe f6da 863e f8cc a13d 3b3d 1cbe
00000320: 76c2 2cbd c39f c93d 398e f83c c0db 763e
00000330: e2a3 8bbe 88bd 5e3e 6075 89bc 1a92 0bbd
00000340: a52d 933c 5433 6bbe 40d4 393e 8b9b 3dbe
00000350: 8f85 663e 286b e0bd 9456 9dbc dfba 1e3d
00000360: 00a2 753e f980 9c3d 66a6 d4bd 3b91 923d
00000370: 7cd8 783e d268 dabc c8ee 8bbe fe22 9b3c
00000380: 43da 45bd f60c 9a3d 9d6e 0c3e fc9a 4ebd
00000390: fcc2 93bd 0682 603d ca0e 30be 2623 4e3e
000003a0: 404c 0dbd 82a6 c6bd 306a 23be 7389 26be
000003b0: 515a c5bd 0bcf d43a 3ad8 7fbc 75f2 64be
000003c0: b8d8 6b3e 7073 38be b1f1 ad3d 4fda 623e
000003d0: 1771 97bd 70aa aa3d dfee 03be 8093 943e
000003e0: 3181 17be f4f3 0a3e 9d92 a7bd c5be 243c
000003f0: 25ad bd3d 7eae 2ebe c11d 3fbd 3d0b 1e3e

network.6.bias f4 [64]
0.0011091781 0.09143703 -0.07785454 -0.023886476 0.034777336 0.05953367 -0.10728847 -0.07424539
0.037704784 -0.06129203 -0.035921782 0.037377376 0.01646178 -0.072250865 -0.028129851 0.0725136
0.028947633 -0.043824043 -0.08643818 -0.043003622 -0.034838613 0.014311774 0.20168523 0.07282909
-0.14426696 -0.027807908 -0.048998274 -0.13480459 0.0068615917 -0.035387997 0.11266976 0.1783098
-0.071313046 -0.117000185 0.0864506 0.036770355 0.03600013 0.084189564 0.042560324 -0.12212249
0.07243993 -0.047856983 -0.0017546675 -0.112009294 -0.14632219 -0.1174983 -0.08275258 0.054863803
-0.10094159 -0.02968582 -0.040521007 -0.13342111 0.14910148 0.095111154 -0.04657433 0.026778042
-0.09914509 0.024258966 0.08433339 -0.10770971 -0.034002222 0.11918314 0.042924996 0.037968095
00000000: d761 913a 5643 bb3d 3372 9fbd 92ad c3bc
00000010: ae72 0e3d 94d9 733d 0fba dbbd f80d 98bd
00000020: 5570 1a3d 5a0d 7bbd b822 13bd 0519 193d
00000030: dbda 863c 43f8 93bd 9370 e6bc 0382 943d
00000040: 9623 ed3c d780 33bd 8006 b1bd 9124 30bd
00000050: efb2 0ebd ee7b 6a3c 9386 4e3e 6b27 953d
00000060: b8ba 13be 69cd e3bc 6ab2 48bd 370a 0abe
00000070: 34d7 e03b 01f3 10bd 67bf e63d d896 363e
00000080: 930c 92bd cb9d efbd 030d b13d 839c 163d
00000090: df74 133d 946b ac3d bc53 2e3d 5b1b fabd
000000a0: 635b 943d af05 44bd dffc e5ba 2165 e5bd
000000b0: 7cd5 15be f3a2 f0bd 2f7a a9bd deb8 603d
000000c0: 77ba cebd ad2f f3bc 5bf9 25bd 8b9f 08be
000000d0: 0fae 183e a3c9 c23d bac4 3ebd a05d db3c
000000e0: 950c cbbd bdba c63c fcb6 ac3d e996 dcbd
000000f0: ea45 0bbd 4a16 f43d 1fd2 2f3d 6f84 1b3d

network.8.weight f4 [64, 64]
-0.34234557 0.10399343 -0.1780087 0.16065572 0.028663367 0.22140343 0.14371376 0.2571285
-0.2732492 -0.24989438 -0.13537057 -0.11148144 -0.007795747 0.40240982 0.1213833 0.03335581
0.11073394 -0.13095054 -0.31618947 -0.038029 -0.38345847 0.37055725 0.18950461 0.1053559
0.0076594017 0.18640122 -0.121632405 -1.0374864e-05 -0.0072496077 -0.28952914 0.15321723 0.31709972
-0.2868607 -0.20324588 0.17761484 0.18418364 0.02173068 -0.17718284 -0.10482067 -0.15872738
0.35776237 -0.38774103 0.3776557 -0.044606965 -0.12969199 0.06242017 -0.20025857 0.19226971
0.10216305 0.03816196 0.18873101 -0.23870619 0.22924 0.19690277 -0.08677282 0.074845344
-0.20270838 0.5202419 0.38975835 0.29704002 0.073786676 0.15999207 -0.19995259 -0.21679343
-0.14321198 0.17684416 -0.04803723 0.0626253 -0.16961281 0.3291733 -0.11683516 -0.056197036
0.00304359 0.045583017 0.117871925 -0.35097167 0.020922095 -0.07770691 0.016349431 0.24840018
0.21061155 -0.02583752 -0.10507625 0.037721958 0.05728252 0.24542443 -0.19390696 -0.23401424
-0.112031266 0.04925907 0.116890766 -0.09662752 0.0216385 -0.20257406 -0.011887762 0.09273836
0.043212518 -0.017212836 0.11586086 0.05746178 -0.06287222 0.013104083 -0.09149381 -0.10026639
-0.11083008 -0.08107277 0.12901895 0.18379903 -0.30908802 -0.12342107 -0.09764847 0.21400903
0.09832137 0.21145858 0.16828582 -0.09251615 -0.113482095 0.08702472 0.04410156 0.21638407
0.052755125 0.07230683 0.02709458 0.17635952 -0.12985815 0.034976643 0.013775779 -0.22265933
-0.07395745 -0.15278403 0.54099685 0.15131602 -0.29768798 -0.04509964 -0.25244585 0.115446165
-0.041034874 -0.24330305 -0.13487071 -0.3871286 0.1087784 -0.0019335069 0.15901808 -0.0039452035
0.09991577 0.15110159 -0.2680642 0.03598509 0.040343143 0.1369763 0.020542033 0.16573948
-0.10655959 0.063550405 -0.023400338 -0.44034788 0.029841738 -0.3205395 -0.0036277224 -0.18233135
-0.057688296 -0.18641911 -0.034635972 -0.07879989 -0.1439075 -0.15816781 -0.17499188 -0.08319401
-0.05482576 0.43678555 0.17932667 0.17439856 0.07591424 -0.054341093 0.4252128 -0.04004318
-0.082793236 0.28879955 0.2768644 -0.23979993 -0.06971649 0.16048335 -0.093362466 0.18088688
0.20973364 0.23593153 0.15323734 0.2763676 0.13268329 0.30555904 0.05893789 -0.21588726
0.016337117 0.048410602 -0.23130007 -0.26591903 -0.2236803 0.12207632 -0.13096958 -0.16790886
-0.10925659 -0.13017635 -0.26296353 0.16999611 0.022622192 -0.23347948 -0.21119946 0.20337051
-0.055192746 -0.001404105 0.07440375 0.043423787 -0.002850989 0.050415885 0.17005762 -0.07294587
-0.24144995 -0.062238336 -0.17960933 -0.28981605 0.2317952 -0.19685233 0.08827763 0.32822132
0.07096889 -0.17972587 0.0527691 0.30127588 0.08627341 -0.013809012 -0.010428813 -0.24047405
0.034854636 0.08914618 -0.15612276 -0.08941161 -0.34923446 0.03424103 0.104867004 0.11269835
-0.121830106 -0.15139666 -0.20128779 -0.2727984 0.31862488 0.09839544 -0.093220465 0.08819559
0.129919 -0.19485185 0.28368923 -0.12448014 0.068511374 0.13504678 0.18701409 0.25814784
00000000: eb47 afbe 82fa d43d ea47 36be ef82 243e
00000010: 70cf ea3c 95b7 623e b329 133e 59a6 833e
00000020: 52e7 8bbe 50e4 7fbe 959e 0abe 6250 e4bd
00000030: 7773 ffbb a908 ce3e cf97 f83d 1aa0 083d
00000040: 7ac8 e23d e617 06be 96e3 a1be 4cc4 1bbd
00000050: ab54 c4be aeb9 bd3e 7f0d 423e d6c4 d73d
00000060: b8fb fa3b f6df 3e3e 691a f9bd b40f 2eb7
00000070: 1e8e edbb 2a3d 94be fae4 1c3e e55a a23e
00000080: 68df 92be b01f 50be aae0 353e a39a 3c3e
00000090: 8a04 b23c 6b6f 35be 38ac d6bd 6e89 22be
000000a0: a12c b73e fe85 c6be 175c c13e cbb5 36bd
000000b0: facd 04be 4bac 7f3d 9510 4dbe 5ae2 443e
000000c0: dc3a d13d b74f 1c3d b442 413e 656f 74be
000000d0: e4bd 6a3e e1a0 493e f3b5 b1bd 8448 993d
000000e0: c992 4fbe 932e 053f 688e c73e a115 983e
000000f0: 781d 973d f6d4 233e 5fc0 4cbe 19ff 5dbe
00000100: 29a6 12be a316 353e b0c2 44bd b141 803d
00000110: fbae 2dbe 6789 a83e 4647 efbd dd2e 66bd
00000120: f876 473b 42b5 3a3d d666 f13d 8fb2 b3be
00000130: d064 ab3c cd24 9fbd 3eef 853c 9e5c 7e3e
00000140: 8eaa 573e 35a9 d3bc 3832 d7bd 5782 1a3d
00000150: 13a1 6a3d 8b50 7b3e 8c8f 46be 6ea1 6fbe
00000160: a670 e5bd e1c3 493d 6d64 ef3d a6e4 c5bd
00000170: 3943 b13c 936f 4fbe e3c4 42bc 9ced bd3d
00000180: 9cff 303d ef01 8dbc 7548 ed3d 0b5d 6b3d
00000190: 27c3 80bd 82b2 563c 1b61 bbbd 7758 cdbd
000001a0: e2fa e2bd 7b09 a6bd 8b1d 043e d035 3c3e
000001b0: c940 9ebe 30c4 fcbd ecfb c7bd 2f25 5b3e
000001c0: b75c c93d 9988 583e 1e53 2c3e 1b79 bdbd
000001d0: 4d69 e8bd 043a b23d d6a3 343d c993 5d3e
000001e0: c215 583d 9a15 943d 74f5 dd3c 9797 343e
000001f0: 89f9 04be ab43 0f3d ceb3 613c cf00 64be
00000200: 0177 97bd 6b73 1cbe c57e 0a3f 96f2 1a3e
00000210: 8f6a 98be 66ba 38bd 9540 81be 0a6f ec3d
00000220: 2f14 28bd 6f24 79be 8c1b 0abe b835 c6be
00000230: 36c7 de3d ba6d fdba a3d5 223e c446 81bb
00000240: a4a0 cc3d 60ba 1a3e b63f 89be 1a65 133d
00000250: da3e 253d 8443 0c3e c447 a83c 9cb7 293e
00000260: ea3b dabd b726 823d 11b2 bfbc 4775 e1be
00000270: a976 f43c c11d a4be 15bf 6dbb 12b5 3abe
00000280: 904a 6cbd a7e4 3ebe 73de 0dbd d661 a1bd
00000290: 7d5c 13be bef6 21be 1231 33be 9f61 aabd
000002a0: fa90 60bd 5ba2 df3e 69a1 373e 8995 323e
000002b0: ed78 9b3d c494 5ebd 7eb5 d93e 5104 24bd
000002c0: 808f a9bd 89dd 933e 2cc1 8d3e 1d8e 75be
000002d0: 85c7 8ebd bf55 243e d234 bfbd 693a 393e
000002e0: 6ac4 563e 0998 713e 40ea 1c3e 0e80 8d3e
000002f0: 21de 073e 3c72 9c3e db68 713d 8d11 5dbe
00000300: 6bd5 853c 324a 463d edd9 6cbe 8a26 88be
00000310: 730c 65be 2603 fa3d e41c 06be 4df0 2bbe
00000320: ebc1 dfbd f34c 05be 28a3 86be 7613 2e3e
00000330: 2d52 b93c 3f15 6fbe ac44 58be 5c40 503e
00000340: ca11 62bd f209 b8ba fe60 983d 24dd 313d
00000350: a9d7 3abb e380 4e3d 9623 2e3e a564 95bd
00000360: a83e 77be a0ed 7ebd 82eb 37be c562 94be
00000370: b95b 6d3e a893 49be e7ca b43d a00c a83e
00000380: 2358 913d 0f0a 38be 6924 583d d540 9a3e
00000390: 1db0 b03d 323f 62bc 9ddd 2abc d43e 76be
000003a0: bcc3 0e3d 4692 b63d a5de 1fbe 6f1d b7bd
000003b0: dcce b2be 5340 0c3d 83c4 d63d 64ce e63d
000003c0: 1082 f9bd ba07 1bbe 631e 4ebe 3bac 8bbe
000003d0: cd22 a33e 8c83 c93d 5fea bebd e49f b43d
000003e0: 7d09 053e 3e87 47be b73f 913e 72ef febd
000003f0: b14f 8c3d b449 0a3e 9f80 3f3e f42b 843e

network.8.bias f4 [64]
0.037025686 -0.10165903 -0.13928986 0.1957589 0.059561413 0.095819294 0.10031351 0.15749246
0.041390125 -0.10236704 -0.10946397 -0.033079725 0.07487363 -0.002392882 -0.02182839 -0.076603584
0.045100667 -0.07158494 0.058169074 -0.037516087 0.050255824 0.13174537 -0.061022993 0.012883976
-0.1161159 -0.08433363 -0.03779821 0.045180842 -0.18908158 -0.0064037647 0.1590413 -0.16766556
0.04289701 0.092476256 -0.029017631 -0.0009631503 -0.10235298 -0.091883354 0.10091139 0.0069162035
-0.05341467 -0.16137062 0.07218614 0.07251376 -0.040334452 0.027434437 -0.08565082 -0.007068798
-0.03367321 -0.0010795986 -0.031165866 -0.054469615 -0.06583353 0.011708768 0.11999008 -0.15346844
-0.05483349 -0.036360294 0.103539884 -0.021538328 0.3592893 0.07165726 0.0004437187 -0.07573102
00000000: 3fa8 173d 9c32 d0bd 00a2 0ebe 0575 483e
00000010: abf6 733d e83c c43d 2b71 cd3d b445 213e
00000020: b188 293d d0a5 d1bd a52e e0bd 9b7e 07bd
00000030: 5957 993d e6d1 1cbb 74d1 b2bc 57e2 9cbd
00000040: 7abb 383d 209b 92bd b242 6e3d 78aa 19bd
00000050: 0dd9 4d3d 42e8 063e 3ff3 79bd 5017 533c
00000060: 2cce edbd 1cb7 acbd 4cd2 1abd 8c0f 393d
00000070: 9a9e 41be acd6 d1bb b9db 223e 85b0 2bbe
00000080: c6b4 2f3d 3164 bd3d 62b6 edbc ec7b 7cba
00000090: 709e d1bd 572d bcbd a1aa ce3d 52a1 e23b
000000a0: 57c9 5abd 573e 25be 54d6 933d 1882 943d
000000b0: bd35 25bd 2fbe e03c b269 afbd 60a1 e7bb
000000c0: ebec 09bd 5181 8dba 8f4f ffbc 881b 5fbd
000000d0: bbd3 86bd 22d6 3f3c 5cbd f53d d526 1dbe
000000e0: 1599 60bd 88ee 14bd b80c d43d 2671 b0bc
000000f0: c4f4 b73e 0bc1 923d eaa2 e839 dd18 9bbd

network.10.weight f4 [1, 64]
-0.1305878 0.02421447 -0.3637643 0.2112763 0.043318756 -0.27931145 -0.141755 0.01362263
0.19097243 0.31739026 0.15408392 0.09671431 -0.059171293 -0.0006300105 -0.13611701 -0.32759202
-0.15802795 0.010793586 0.23620623 0.002493557 -0.28476563 0.24588442 -0.108669095 0.33121517
0.05634806 0.10316371 -0.06447753 0.078612715 0.3183068 0.24002677 -0.15714553 0.19701728
-0.08876315 -0.10560869 -0.32622916 -0.011072073 -0.05504801 0.09020471 -0.22930288 -0.053386163
0.19723745 -0.3669498 -0.013362006 0.2897532 0.17889509 -0.31229234 -0.30659488 -0.15156572
0.45132318 0.16008675 -0.057612818 0.17730889 0.17031583 -0.18894377 0.037077572 -0.022883294
-0.12254762 0.15779957 -0.052820392 -0.22255659 -0.14343446 0.04049631 0.07151192 -0.18224633
00000000: cfb8 05be 6d5d c63c 503f babe d058 583e
00000010: 026f 313d e901 8fbe 3928 11be 7431 5f3c
00000020: 478e 433e fa80 a23e 2dc8 1d3e 2712 c63d
00000030: 995d 72bd 4a27 25ba 4262 0bbe 24ba a7be
00000040: 14d2 21be 95d7 303c 0ce0 713e f26a 233b
00000050: cdcc 91be 20c9 7b3e e78d debd 0995 a93e
00000060: 39cd 663d 7f47 d33d cc0c 84bd b4ff a03d
00000070: 1cf9 a23e 94c9 753e c2ea 20be e6be 493e
00000080: 74c9 b5bd 5e49 d8bd 8207 a7be a467 35bc
00000090: 067a 61bd 3fbd b83d 60ce 6abe 73ab 5abd
000000a0: 9df8 493e d8e0 bbbe 51ec 5abc 885a 943e
000000b0: 4630 373e c8e4 9fbe 01fa 9cbe 0b34 1bbe
000000c0: d513 e73e c8ed 233e 6bfb 6bbd 7690 353e
000000d0: 4667 2e3e 7a7a 41be a7de 173d bf75 bbbc
000000e0: 3ffa fabd 3696 213e 325a 58bd e0e5 63be
000000f0: 7ce0 12be 75df 253d d774 923d c89e 3abe
