1D_time_problem/time_model_weights.pth (torch, 55314 bytes, 10 tensors)

network.0.weight f4 [64, 2]
00000000: 7ff5 273d 2b77 dfbe 8426 a4be a2ed cebe
00000010: 6a19 98be ef00 103e 4398 8bbe ead7 dd3e
00000020: ca7d f83d 5411 083f a0fb 34bd 7108 073f
00000030: 8bb2 abbe c6ce 3bbe cd51 b8bd 93e9 813e
00000040: 4cf8 22bc 4843 7e3e d108 6fbd 7a4f 15bf
00000050: cedb 2abf b58f 5b3c 7426 a8be 7345 13bf
00000060: 8757 acbe a231 9a37 3e0d 38be 6baf cd3e
00000070: 92cc 22bd 8ea0 11be 195c 2dbe e6e8 4fbd
00000080: cf6a be3e ba86 fb3e 9605 42be 6046 a4bb
00000090: 6f58 cb3d 7e6d 7abe 44a1 3fbe 6ffc 263e
000000a0: 759f 50be 94e9 0abe 4914 023e 6881 243b
000000b0: 531e 6fbe c360 c1be c4b1 e1bd 110f 0ebf
000000c0: ae10 893e 7dfa d23d 91e9 b2be 4599 523f
000000d0: a453 6ebe 7858 c33e 93e2 3c3b 7592 2abe
000000e0: d604 6f3f 008e 933d 1db4 7bbb d624 983e
000000f0: efcd 74bd 65a9 26be 6c2b 953e 8784 02bf
00000100: 107b b6be 3637 463d 40ac 84be 9e1d bb3e
00000110: a38f 90be 9294 4c3f 6afa 413e 6114 203d
00000120: 93f6 f3bd 8854 033f 7a71 223e 0f98 8e3e
00000130: af19 393e 69ee 8cbe 2e67 0f3f 48b4 9dbe
00000140: 2841 1dbe d997 dabe c6eb 0bbf 2a46 a1be
00000150: a143 2a3e 2009 c1be 904f 243f ebd9 24bd
00000160: 9168 773c e101 afbe 0b6f 80be dc2c 0e3f
00000170: 0d3e 35be 7db7 20bf 7026 13be db21 03bf
00000180: 4278 64be 1b23 4d3e 6324 2dbe 47f2 7fbe
00000190: 3ecf e1bd 4c1a 03bf 8adb 83be 30a8 35be
000001a0: 737c 83be 0225 093f fe15 bc3e abae c0bd
000001b0: 0adf 05bc a505 dcbe c724 97be 0076 613c
000001c0: be61 7cbe 7e9d 1a3f 9837 743e 49e2 0ebf
000001d0: f18a 8c3e 246b d93e bd65 7e3c a83b 403d
000001e0: 7c15 aebe 80e9 0b3f 7bbe e3bd 1a6c 66bd
000001f0: c444 6bbd bc3b 9b3d c5fe 8cbf 9f10 d2be
0.041005608 -0.43645605 -0.32060635 -0.40415674 -0.2970689 0.14062856 -0.27264604 0.43328792
0.12133367 0.5315144 -0.04418528 0.52747256 -0.33534655 -0.18340597 -0.08999977 0.25373515
-0.009946894 0.24830353 -0.058358017 -0.58324397 -0.66741645 0.013400962 -0.32841837 -0.57527846
-0.33660528 1.8381343e-05 -0.17973801 0.40172896 -0.039745875 -0.14221403 -0.16929664 -0.05075922
0.37190863 0.49126226 -0.18947443 -0.005013272 0.09928977 -0.2445583 -0.18713862 0.16307233
-0.20373328 -0.13565665 0.1270305 0.0025101546 -0.23351412 -0.37769136 -0.11020234 -0.5549174
0.26770538 0.10301683 -0.34943822 0.8226512 -0.23274094 0.38153434 0.0028821572 -0.16657431
0.93366754 0.07204819 -0.0038406916 0.29715604 -0.059766706 -0.16275556 0.2913469 -0.5098347
-0.35640764 0.048392497 -0.25912666 0.36546034 -0.28234586 0.799142 0.18943182 0.039081935
-0.11912265 0.5130086 0.158636 0.27850387 0.18076204 -0.27525643 0.56016815 -0.30801606
-0.15356886 -0.42693976 -0.54656637 -0.31498843 0.16627361 -0.37702274 0.641839 -0.040246885
0.015100614 -0.3418112 -0.2508472 0.555372 -0.17699452 -0.6277998 -0.14370131 -0.51223534
-0.223115 0.20032923 -0.16908412 -0.24994765 -0.110258564 -0.51212 -0.25753433 -0.1773994
-0.25680885 0.53572094 0.3673553 -0.09408315 -0.008170852 -0.42973056 -0.29520246 0.013761044
-0.2464666 0.60396564 0.23849332 -0.55814034 0.27449754 0.42464554 0.015527186 0.046931893
-0.34000766 0.5465317 -0.11120316 -0.056255437 -0.057438627 0.07579753 -1.101525 -0.41028306

network.0.bias f4 [64]
00000000: 3847 c8be 8eb2 8ebe 96dd 683e 09ce df3d
00000010: 6fb9 98bd 62f5 6dbe a671 553d a75c 573e
00000020: dabd 363c 3e08 8cbd 49ce a139 7421 703f
00000030: be69 1f3b 89b2 863c 92e6 5fbf c2ee e83d
00000040: 5d88 a63c aedc de3e 50c3 e83d 8dae f23d
00000050: 460f d63e 5409 d2be 78fb 86bc 3855 f53d
00000060: d51e 99be 0116 20bd 5292 0dbe d34b a13d
00000070: 9fac 11be 3f8a 04be f13f 8d3e 1808 0b3e
00000080: 3fdc 02bf 0805 d03d 9f6f 80bf cfe7 eebe
00000090: 274c 2f3e 14db 3bbe 8656 38bd 000a 483d
000000a0: 833e 233f b06d 33bd 3a55 4fbe 0ee1 683e
000000b0: af41 ddbe 8b8f 19be 9800 4c3e 74d0 f63d
000000c0: a1d9 903e e6a0 34be 5622 a53d b570 653d
000000d0: b215 de3e 8e55 a9be 78fd 00be 4e1b a23e
000000e0: e123 6e3c 2c9d e83c 4f4d a3be 60f0 b23d
000000f0: a712 63be 5557 80be 802f 963e 7531 08bf
-0.39116836 -0.278706 0.22740778 0.1092797 -0.07457244 -0.23238137 0.052110337 0.21031438
0.011153663 -0.068375096 0.00030862007 0.93801045 0.0024324502 0.016442554 -0.874612 0.113736644
0.020328695 0.4352774 0.11365378 0.11849699 0.41808528 -0.41022742 -0.016477332 0.11979145
-0.29906335 -0.039083485 -0.13825348 0.078757904 -0.14226006 -0.12943362 0.27587846 0.13577306
-0.5111732 0.1015721 -1.0034064 -0.4666123 0.17118894 -0.1834529 -0.04500439 0.04883766
0.6376726 -0.043805778 -0.20247355 0.22742102 -0.43214175 -0.14996164 0.19922101 0.12051478
0.28291038 -0.17639503 0.0806319 0.05601569 0.43375927 -0.33073086 -0.1259669 0.31661457
0.014534921 0.028395258 -0.3189492 0.08737254 -0.22175084 -0.2506663 0.29333115 -0.53200465

network.2.weight f4 [64, 64]
00000000: 5747 1dbd 1763 6abe f015 b83d 2663 5abc
00000010: 6267 35be 3faf 26be 388d bdbc 269b 033e
00000020: 5456 fb3d 7660 4fbe d7a7 26be 4c82 06bc
00000030: d012 703e be35 4a3e b1c7 34be e13b 47be
00000040: 509c 263e 3de1 b0bd d6ed c23d 18d4 2bbe
00000050: bf2e b7bd 12ee e0bd a5a6 4dbe 4494 c7bd
00000060: e7aa b0bd 872e 283d 1201 053e 4c46 3c3d
00000070: ed93 6dbe 25b0 ccbd b53a d23d 9647 d1bd
00000080: 4eed 81be c816 ff3d 95da 86be f324 8ebd
00000090: c63c 2e3e c573 16bd 4ae2 783d 8e0f 7f3d
000000a0: 732a 9abb 0aa2 763d 5ecc b23d e55e 0ebe
000000b0: e72d 61be 5c05 e4bc acdc 173d 5713 3ebe
000000c0: 97dd 76bd 3ad9 173e be4e 2a3e 014e 4e3e
000000d0: 38d3 e03c 0c55 dabd 9daa 3ebe fa4e 563e
000000e0: d528 063e 3524 013e 8774 1ebe a67c 4e3c
000000f0: f86e 033d a1d6 6ebe a5fe 2f3e 7ecb 7d3e
00000100: ef61 c4bc c2e1 6fbe 0544 77bc e9a4 02be
00000110: 52b4 bf3c 2c69 b73a 8694 953d dc10 12be
00000120: b05d f8bd ed0d 013c 95bc 38be 90ac 94bd
00000130: 3967 4abe a7a3 74be 1bf8 cc3d ee06 1cbe
00000140: 6146 d6bd 5165 f83c 02ab acbc 5cb5 6e3e
00000150: d7c7 8f3e d8e3 8bbe f2d7 33be 97ac 2e3e
00000160: d9aa 13be fd44 05be aca1 b43d 9f00 f2bd
00000170: 77a4 113d 78b9 3ebe 9830 34be 6ba9 21be
00000180: ed28 a03b a746 303e 95c0 763d 73ef b0bd
00000190: 03db 2dbe c78c 5fbd 940a ddbc b0d9 39bc
000001a0: 2a4d c4bc f570 263e f6ce 0f3e ea61 e13d
000001b0: e8b7 443e d0f2 d6bd 61f2 35bd c828 2e3e
000001c0: 2aec 6abd 9edb bd3d 9b44 13be 9036 4b3e
000001d0: 82d8 96bd 39d1 16be 280d 763e 9f4b ff3d
000001e0: 492a f3bd bc41 b6bd cb0c 903d 9da0 b1bd
000001f0: 74fc c93d edb0 88bc 4047 aabd f6f0 1bbd
00000200: 234a ee3c 9f55 4c3e c07e 38be afba 2b3e
00000210: 66cc acbe 86e0 d4be cffb 56bd cc13 27be
00000220: 384c 06be e39c 0c3e 2658 a03e 2f50 843e
00000230: f72d 623d c9c2 7cbe c967 693d 8798 963e
00000240: 9f30 c7bd a65d cd3e 68c1 4f3d 3e77 51bd
00000250: da4f f23d 1ec3 cdbe 6bea 583e f1bf e93c
00000260: cf36 423d e46f 02be 0563 15be a51f 17bc
00000270: c02e e9be be0e cbbd 4433 a03d 8ab5 2fbe
00000280: 8469 393e c3f1 3bbd 289d acbc 41e8 89bd
00000290: e646 d7bd 159e 503c 668a 8dbe 0a38 d7bb
000002a0: a87a 40be cf3f 213e 7501 93be 289a 8fbe
000002b0: 654b 1a3e 2220 343e 8a85 fb3c 32a6 21be
000002c0: 5178 abbd 43eb f33d 656d 4b3e 7544 ba3e
000002d0: f6ce 5cbc 56ff 0b3e 61e5 f4bd 70ae 3bbe
000002e0: f7f8 c53c cc0c ecbe f9ca 31bd d413 033d
000002f0: ee34 ba3c c7ac 153e 00f7 b83d ac5a ab3e
00000300: 8561 54bd 12ed 6a3d 6a2e a53c db0c 643d
00000310: 5c26 c3bd 9ccf 6cbe 4370 9d3c a9bb 69be
00000320: a6f5 d93d 85d2 c83d 1b70 013d 89b2 133e
00000330: 8264 703b e88b e9bd fef3 f83d a492 ff3d
00000340: 1ca9 c8bd ff2e 623e fa16 793e 04ae c13d
00000350: 2377 323e 3b3f 63be 9212 0bbe a8da e43d
00000360: 83ab a33d b084 21bd bb2b 71bd ef75 40be
00000370: b1cd 1b3e 3429 1bbe cdb6 423e ae95 013e
00000380: 83ea 3e3e 71fe 813e ceaa e13c 8cba ad3d
00000390: e17b e43d 171f bfbc af6c 2abc 3481 113e
000003a0: b8b1 70be c3eb adbc 6e0d 533d 26a6 80be
000003b0: 73a3 66bd 5b21 3e3e 3964 48be 14b9 43bc
000003c0: 2b32 fabd 2315 a03d 9ff5 923d 4509 803e
000003d0: f0d8 3c3e 4624 1e3e 351e 11be 5da4 b0bd
000003e0: 2143 1cbe 7453 1cbe cd43 523d f4c9 2bbe
000003f0: 6573 9aba abba 3dbe 9b9d 993e 12e2 1b3e
-0.038398113 -0.22889362 0.08988559 -0.013329303 -0.17715219 -0.16277789 -0.023138627 0.12852153
0.12272325 -0.2025164 -0.16274963 -0.008209776 0.23444676 0.19747064 -0.17654301 -0.19456436
0.16270566 -0.08636711 0.0951802 -0.16780126 -0.08944463 -0.10982908 -0.20083101 -0.09745076
-0.08626347 0.041059997 0.1298869 0.045965478 -0.2320096 -0.099945344 0.10265104 -0.10218732
-0.25376362 0.12455517 -0.2633864 -0.06940641 0.1701537 -0.0367315 0.06076268 0.062270693
-0.0047047674 0.060213126 0.08730386 -0.13903387 -0.21990167 -0.027834587 0.037075683 -0.18562065
-0.06026992 0.14828959 0.166316 0.20146944 0.027444467 -0.10660753 -0.18619771 0.20928565
0.13101514 0.12611468 -0.15474139 0.012602961 0.03208825 -0.23324062 0.17186983 0.24784657
-0.02397248 -0.23425964 -0.015091901 -0.1275822 0.023401413 0.0013993136 0.07303719 -0.14264244
-0.121272445 0.007876855 -0.18040688 -0.07259476 -0.19765939 -0.23890553 0.1000826 -0.15237018
-0.104626425 0.030321749 -0.021077637 0.2331137 0.28082153 -0.27322268 -0.17562845 0.17058025
-0.14420642 -0.13014598 0.08819899 -0.11816525 0.035557237 -0.18625438 -0.17596662 -0.15787284
0.0048876912 0.17214452 0.060242254 -0.08639421 -0.16978078 -0.054577615 -0.026982583 -0.011343405
-0.023962576 0.16254027 0.14043793 0.11005004 0.1921078 -0.104955316 -0.044420604 0.17007744
-0.05735413 0.09270404 -0.1438164 0.19845033 -0.07365514 -0.1472825 0.24028456 0.124655955
-0.118733 -0.088992566 0.0703369 -0.08673213 0.09862605 -0.016685927 -0.08314371 -0.038071595
0.029088086 0.19954537 -0.18017101 0.16770433 -0.33749694 -0.41577548 -0.052486237 -0.16316146
-0.13115013 0.13731723 0.31317252 0.25842425 0.055219617 -0.2468368 0.056983743 0.29413244
-0.097260706 0.4011051 0.050721556 -0.05113911 0.11831637 -0.40187925 0.21183173 0.028533908
0.04741555 -0.12737995 -0.14588554 -0.009223853 -0.4554348 -0.09914921 0.07822278 -0.17159095
0.18106657 -0.04588486 -0.021071032 -0.06733752 -0.1051157 0.012733002 -0.27644652 -0.0065679597
-0.1879679 0.15746997 -0.2871205 -0.280473 0.15067823 0.17590383 0.030703325 -0.15786055
-0.08372558 0.11910107 0.1986595 0.36380354 -0.013477078 0.13671622 -0.11957813 -0.18328261
0.024166567 -0.46103513 -0.04340646 0.03200133 0.022730317 0.1461669 0.090314865 0.33467615
-0.051850814 0.057354994 0.020163734 0.055676322 -0.09528801 -0.23126072 0.01921857 -0.22825493
0.10642557 0.098057784 0.031601053 0.14423575 0.0036681 -0.11403638 0.12155913 0.12479141
-0.0979788 0.2208824 0.24325171 0.09457019 0.1742826 -0.2219209 -0.13581303 0.11174518
0.07991698 -0.03943318 -0.058879595 -0.18794988 0.15215184 -0.15152436 0.19015045 0.12654755
0.18644147 0.25389436 0.027547266 0.084828466 0.111564405 -0.023330254 -0.010401889 0.14209443
-0.23505294 -0.021230584 0.05152648 -0.2512676 -0.05630822 0.18567412 -0.19569482 -0.0119459815
-0.122166 0.078165315 0.07175755 0.25007072 0.1844213 0.15443525 -0.1417168 -0.086251
-0.15259983 -0.1526621 0.05133419 -0.16776258 -0.0011783658 -0.1852824 0.30003056 0.15222958

network.2.bias f4 [64]
00000000: 79d7 af3e 1dcb 9bbe 52a3 8abe e627 ef3d
00000010: 04b4 2fbe 6ca1 193e 5941 68be 8923 723d
00000020: 6c3b 863e 960c f03e 6813 a53c 6bab 5d3c
00000030: fe6b fabd 363c e73e 1fe1 113e 7a4b 903d
00000040: 31c8 36be 52f8 b5be 25f3 963e b65a 26bc
00000050: 169d 0cbd 4767 203e ac32 79be 337b febe
00000060: 873d 09bc 58cd d0be aa90 3bbe 7b50 d3bc
00000070: 78da b6be b0f1 d53d 39f3 55be 43b5 ef3e
00000080: 6f77 683e c7d1 a4be ed07 d9bd 234d 03bd
00000090: 8bad 85be a1ce 37bf c723 edbe 108a 42be
000000a0: 5619 8d3e 7331 6bbd 2b5f 9d3d 4f29 b6bd
000000b0: fe0d 34be dcc7 99bd eb0c 70bd 537a 8ebd
000000c0: 26e4 e23c 090e aabe bc28 a43e 5d40 89be
000000d0: f50d a3bd e2de 3f3e 68f9 a83e f2fb 00be
000000e0: e2ed 2ebd 0084 7fbd fa04 123f c420 f53e
000000f0: 6d93 3bbe 181b 863d 7433 963d 7dff 66be
0.3434408 -0.304284 -0.2707773 0.11677532 -0.17158514 0.15002984 -0.22681178 0.05911592
0.2621721 0.46884602 0.020150855 0.013529639 -0.12227629 0.45163125 0.14246033 0.07045646
-0.17849804 -0.35541016 0.2948238 -0.010153463 -0.034329496 0.15664397 -0.24335736 -0.4970337
-0.008376486 -0.40781665 -0.18316904 -0.025795212 -0.35713553 0.10446489 -0.20893563 0.4681798
0.2270181 -0.32191297 -0.10597215 -0.032055985 -0.26108965 -0.71799666 -0.46316358 -0.18997979
0.27558392 -0.057420205 0.076841675 -0.08894598 -0.17583463 -0.07508823 -0.05860607 -0.06956925
0.02769668 -0.33213833 0.32062328 -0.26806918 -0.079616465 0.18737367 0.33002782 -0.1259611
-0.04270733 -0.062381744 0.57038844 0.4787656 -0.18317957 0.065481365 0.07334033 -0.22558399

network.4.weight f4 [64, 64]
00000000: 6a0a 3b3c 17dc 25be 1d8d ec3c cb68 54bc
00000010: 612f 04be 4743 bb3e 3c39 e03e 4529 2a3e
00000020: cbbc acbe 0652 bebe 17bd 2a3d 1067 8abe
00000030: 1851 e9bd 26a2 803d ff30 c4be f368 c2be
00000040: 8dc4 e73d 808d 073e 002b 023e c058 853d
00000050: dba2 d33c 735e 3ebd c6e5 703e 02c6 02be
00000060: a844 8dbe f099 f3be 2381 b1bc 5894 f8bc
00000070: fb12 d73d 0d57 d3be 60f3 633e 5413 a5be
00000080: d38b 9fbd 63bf c8bb 5a71 b7be c4c6 1cbd
00000090: 139f e83d b4e2 233f 86fc c3bd a1c1 863e
000000a0: 20cb f1be d381 9ebd b0d0 eabd 240f 893e
000000b0: f938 a6bd eacd 58bd ef7a 23be 48cf fa3e
000000c0: 2a5b 423d a9ff 84bd 2361 933d 9412 383d
000000d0: afef 9cbe 3553 3cbd 7f86 913e 79d6 c53d
000000e0: 3c89 dc3a 820b 2bbe dbb8 d1be 4d8c c4be
000000f0: 5b71 4b3d 8520 313e 004a 823d 7ab7 783e
00000100: 8803 82be 84bb acbc c256 cbbd bd44 1abe
00000110: 7a9c d03c 6bb8 9b3d 4b87 8c3d 593c 80be
00000120: b831 14bd a6d4 d03e a630 6ebd 95ca 953c
00000130: 2a4c debc 186c 6c3e 0784 203d 9c0b 503e
00000140: a20a 7dbe b723 9bbd dc1b a0bd 02cb 8abe
00000150: 030f 8cbe 4e27 fd3c b5ee 883d 77d8 35be
00000160: 0ae3 dabc f4c8 b03e fdc0 4b3d ebfb aebd
00000170: a8c9 093e 7dd1 42bd 9748 093e a7a5 d63d
00000180: 7e18 f43d 3214 e5bd 68a8 473e 8678 8cbd
00000190: c823 4f3e 3fcf a3bd a252 403e bdc5 5b3d
000001a0: 2c2e afbd 63b2 253e ef0d 533e d9db 71be
000001b0: a449 483e d13d dcbd 776e 323d 66c3 3abe
000001c0: 50ca 1c3e faac 91bd e9d7 07be 5d34 15be
000001d0: 483c 773e 27e3 7cbe 52c1 cdbe 21a7 d4bd
000001e0: fb0a 61bd e0ef 763d 873f 6f3e 7565 3cbd
000001f0: 88f6 8fbd d6b7 ca3d cf36 383b ee00 5b3e
00000200: c9fa 233e ad37 57bd 5d4d 8cbe db16 1e3c
00000210: dc4e 54bd 50a4 a33d 3aee 6ebb c6e2 473e
00000220: 9557 003e 92fe f13d ab38 f1bd f89d 00be
00000230: bbc9 f6bc 463c 2dbd b5de 91be 7630 46bd
00000240: 8e2a dfbc 7d8e 913d f941 443e c049 683d
00000250: 9dc4 203e 6be9 06be f87b 61bd e341 013e
00000260: 9528 7f3e dd42 943d 04e7 9bbc 8a3f 25be
00000270: ba6f 853d 592a be3b 04a4 00be 7f24 923d
00000280: cfe7 9cbd e50f 9ebe bc0b d4bd ad94 9b3c
00000290: b012 2bbe 2894 1d3e eea5 84be 3307 8c3e
000002a0: bf63 1abe 05a0 393e 71e5 1ebe 944d 8e3e
000002b0: 69d4 20be daa5 05be 6b5b 993d 06b1 c2bd
000002c0: 87e2 89be 7734 77bd e824 983e ff35 6c3d
000002d0: 6271 1fbe b9d4 d13d dea0 66bd 4d32 a23d
000002e0: f08c 61bd 348f 94be 0049 b13c 8d5e a3bd
000002f0: 4a4c 8d3e 7d41 a1be 7690 d4bc fb1d aa3d
00000300: 1066 82be 81f9 0f3e 856a 803d 439e 78be
00000310: 0124 8b3e 5e71 31be afa8 2bbe 0759 583c
00000320: ca12 c73d bd32 35bd 56f0 843e 7541 163e
00000330: 726b b0bd 597f 00be 777c 73bc e313 393e
00000340: 47e3 023e 8060 533e fe4b 2ebe 916e 85be
00000350: 8a41 9f3d bd35 0d3e 5c10 ffbd eeca a3bd
00000360: e62b 463e e9b9 a43e e042 46be ccda 7dbd
00000370: 16b3 543d 6f88 aa3c 7f68 41be 473f 533e
00000380: 5508 c23d b1dd 1c3e 5cc8 093e 4c74 ac3d
00000390: 71a6 efbc 0199 493e 3f36 9c3d 8f61 18be
000003a0: 72c9 533d b85d 383e 3f2a 9cbe c521 7b3d
000003b0: 2929 1abd effa 2c3e 6d91 b53d eea1 c5be
000003c0: 852e 163e a204 14be 64b1 aabe 10e5 74be
000003d0: 5a10 503e ad14 52be 5085 84be 325a 5a3b
000003e0: d2a1 8b3e 6c8e 6a3d 0188 20be f8ce 0cbe
000003f0: a4d8 173e 122f 91bc 4d7b 073e abfc 28bd
0.011416057 -0.16197239 0.028875882 -0.012964438 -0.12908699 0.36574766 0.43793666 0.16617306
-0.33737788 -0.37171954 0.041684236 -0.27031755 -0.113924205 0.06280927 -0.3831863 -0.37970695
0.11316786 0.13237572 0.12711716 0.06511068 0.025834491 -0.046476793 0.23525152 -0.12770846
-0.27591443 -0.47578382 -0.021668022 -0.030344173 0.10501667 -0.41277352 0.22260809 -0.3224131
-0.07790341 -0.0061263307 -0.35828668 -0.038275495 0.11358466 0.64017797 -0.095696494 0.26319602
-0.47225285 -0.07739606 -0.11465585 0.26769364 -0.081163354 -0.05293075 -0.15964864 0.48986268
0.047450222 -0.06494076 0.07196262 0.044939592 -0.30651614 -0.04597779 0.28422925 0.09660048
0.0016825567 -0.16703609 -0.40961346 -0.3838829 0.04966865 0.17297561 0.06361771 0.24288741
-0.2539332 -0.021085508 -0.09928657 -0.15065284 0.025465239 0.07603534 0.068617426 -0.25046042
-0.036180228 0.40787238 -0.058151864 0.018285075 -0.027135927 0.2308811 0.03918841 0.20316929
-0.24711087 -0.075751714 -0.07817814 -0.27108008 -0.27355203 0.030902531 0.06686155 -0.17758356
-0.026719589 0.34528315 0.049744595 -0.08544143 0.13455832 -0.047563065 0.13406597 0.104808144
0.11918734 -0.111854926 0.19497836 -0.068589255 0.20228493 -0.079985134 0.18781522 0.053655375
-0.085537285 0.1618133 0.20610784 -0.23619021 0.19559342 -0.10753978 0.04356238 -0.18238601
0.15311551 -0.07113071 -0.13265957 -0.14570756 0.24144089 -0.24696027 -0.40186554 -0.1038344
-0.054942112 0.060287356 0.23364078 -0.045995194 -0.07029444 0.09898345 0.002810884 0.21387073
0.16013636 -0.05254333 -0.27402773 0.009649004 -0.05183302 0.079903245 -0.0036457912 0.19520101
0.1253341 0.118161336 -0.11778387 -0.1256026 -0.03012549 -0.04229381 -0.28490224 -0.04838606
-0.027241971 0.071072556 0.19165792 0.05671096 0.15700002 -0.1317498 -0.055049866 0.1262279
0.24917825 0.07239316 -0.019031055 -0.1613752 0.06515451 0.005803388 -0.12562567 0.07135867
-0.076614015 -0.30871502 -0.10353801 0.018991793 -0.16706347 0.15388548 -0.25907844 0.27349243
-0.15077113 0.18127449 -0.15517212 0.27793562 -0.15706028 -0.13051549 0.0748814 -0.09506421
-0.2693064 -0.06035277 0.29715657 0.057668682 -0.15570596 0.10245652 -0.05630576 0.0791975
-0.05506605 -0.29015505 0.021641254 -0.079770185 0.27597266 -0.31495276 -0.02594779 0.083064996
-0.25468493 0.14060022 0.06270317 -0.24279122 0.27175906 -0.17328402 -0.16763566 0.0132048195
0.097203806 -0.04423784 0.25964612 0.14673407 -0.086142436 -0.1254858 -0.014861218 0.18073992
0.12782012 0.2064228 -0.17021176 -0.26060918 0.077761725 0.13790031 -0.12454292 -0.0799769
0.19352683 0.32173088 -0.19361448 -0.06197624 0.051928602 0.02081701 -0.18887518 0.20629607
0.094742455 0.15318944 0.13455337 0.08420619 -0.02925417 0.19687273 0.07627534 -0.14880966
0.051705785 0.18004501 -0.3050098 0.061311502 -0.03763691 0.16892599 0.088656284 -0.38600105
0.14666183 -0.14454892 -0.33338463 -0.23915505 0.20318738 -0.205157 -0.2588296 0.003331792
0.27271897 0.05726473 -0.15676881 -0.13750827 0.14828736 -0.01772264 0.1323063 -0.041256588

network.4.bias f4 [64]
00000000: 3d82 93bd dae4 613c f4a7 c13d f83c 51be
00000010: 4935 973c 4b16 f3bd 68d4 a7bd ae5e 04bd
00000020: 0e76 55bb 15fa 323d 6e03 963d 7380 70be
00000030: 45f5 be3d 3b1d 9dbd 04a6 9d3e c796 af3d
00000040: c809 763d 94cb 3b3e 16c6 5fbc c38e 95be
00000050: 21c0 ee3c cff8 ad3e 3d72 7a3e ff5c e4bd
00000060: 79aa a9b8 5ace 0b3e 0c6f f43d de1b 773f
00000070: e578 e3bd 0fc2 793d 90dc 60bd a037 88be
00000080: 2892 8c3d b714 fabd cd1d 423e 35c9 6dbe
00000090: 59dd d6be e85d db3d f5d9 d2bd 31b1 b83c
000000a0: d336 cf3d 740c 3c3e 5f72 6c3d b89f adbe
000000b0: 7002 30be d5f2 183d 28b0 63bd ddd3 f1bd
000000c0: 810d f1bd 08d2 3f3e 5749 973e c2a3 1f3e
000000d0: 894c 833e 0fab c53c e463 bb3d 3cdd d03d
000000e0: 0b02 7a3e 0249 32bd e20b 3dbe 8c84 773d
000000f0: 91b3 573d 7651 8e3d 7940 0d3d 57d1 133e
-0.07202575 0.013787473 0.09455863 -0.20433414 0.018458026 -0.118694864 -0.0819481 -0.032316856
-0.0032571587 0.043695528 0.07324873 -0.234865 0.09324125 -0.07671591 0.30790722 0.0857368
0.060067922 0.18339378 -0.013658067 -0.2921048 0.029144349 0.33978888 0.24457641 -0.1115055
-8.090301e-05 0.13652936 0.11935243 0.96526897 -0.11107043 0.060976084 -0.054897845 -0.26604939
0.068638146 -0.12210982 0.1895668 -0.23221286 -0.4196575 0.107112706 -0.10295478 0.022545429
0.10117879 0.18364125 0.05772626 -0.33910918 -0.1718843 0.037340958 -0.055587918 -0.11807988
-0.11770154 0.18732464 0.2954814 0.15589812 0.2564433 0.024129419 0.09149912 0.10198447
0.24414842 -0.043526657 -0.18461564 0.06042914 0.052661482 0.06949131 0.034485314 0.14435326

network.6.weight f4 [64, 64]
00000000: e5f8 3bbe 5617 633e 84a7 833e f216 533c
00000010: 47c0 063e 8314 8b3e 870a 593e c968 0cbe
00000020: b573 f63d d735 ebbc db04 36be d4d0 6c3e
00000030: 831c 77be 3ff4 1abd 93a6 86be e6f0 5b3d
00000040: abce 6fbe ab76 073d 10fc dfbd d8a5 2cbe
00000050: 5335 6b3d 57a0 adbe 07e4 293e d22c 543d
00000060: ce6a a4bc a404 dbbc 6ba0 c83d 14cf cd3a
00000070: 6905 473d bff7 40be 246d 7d3e 30c7 173e
00000080: c974 d4bd c3d6 bd3c b305 393e 4c5a e0bb
00000090: 0038 d4bc 0965 713e befe 093e bca7 10be
000000a0: b652 28be c3b4 f0bd 9dbd 3cbe 8411 90bd
000000b0: 16f7 223e d6f3 6c3c cc12 943d 071d 913d
000000c0: fabe 193e 1992 2ebe aa36 ddbd 8eb1 c6bd
000000d0: b0a7 33be e84a 443d 5940 57bd 5fca 283d
000000e0: 2d71 133e 1347 ad3c da55 e93d d218 0e3e
000000f0: f744 51bd df52 133e dcdd b1bd 64ca e53c
00000100: 0205 91be 2d2a 09be 1a89 7dbe 593a 493e
00000110: e9c3 4cbc c713 d4b9 89b9 28be 72fe 67bc
00000120: 3fcc 743d 27ec e7bd 0f18 853d e1bb 643e
00000130: b15e 84be c644 203e 005d 6ebe f8ce 2e3d
00000140: 21ee 8bbe f48e 023c f839 e33d a025 053e
00000150: 7963 253d 5496 933d 878a bc3d af85 96bd
00000160: e52a 8ebd 2357 1c3e cb98 853e 7d8c b4be
00000170: f6b8 c53e 6521 213e ee63 33be 54a9 2e3e
00000180: ac79 94be aecf 943e 5c4c 24be b2f8 113e
00000190: 09dd 27be 908d b73e 39c0 87bd 0962 b4bc
000001a0: 1e94 67be d4b0 aa3d 3985 54bd e6b7 15be
000001b0: da9c 8bbd c715 933e a804 213d aafc d33d
000001c0: f815 403e 4397 f5bd 7de6 7c3e f18c 54bd
000001d0: cfec ad3c 86dc b5bd 5d74 213e 1782 fd3d
000001e0: 5b03 273d ce4a fc3c db7c c6bd 01aa 383d
000001f0: eda5 b7bd 7d49 a53d 14a2 25be 3766 64bd
00000200: d70c 293e 6f99 6c3d f1ed 3cbd e9e7 023e
00000210: 62f1 553e bd40 7abc 22a5 0cbe 55fc ca3d
00000220: 2343 963d 5a07 afbc 4734 b9bd 09be 313d
00000230: e36b 25be 3104 1cbe 9654 5d3e 509b 29be
00000240: d356 b73b d161 dcbd 9134 dd3d 74e4 b03d
00000250: a069 71be fec2 eabc a2cd 85bd 48a4 063e
00000260: b1cf 463e 783a 173e 08ec f0bd 8cc6 c6bd
00000270: ceac 7abe c21d 223e efd1 f6bd 00e9 f739
00000280: 549d ba3d 2591 e3bd 6d3e a1bd dc42 70be
00000290: eeba e93d 2093 f33d 07f1 7b3e 0ec2 9f3e
000002a0: 434a 82be db12 ab3d b90b 393e 95c2 28be
000002b0: 60fe 8bbe 3175 9d3e 2164 58be 45cc 89bd
000002c0: ddbf 073e fb2d 053e 9e29 8f3e a30a 763e
000002d0: 8907 d53d f039 923d bd75 3fbd b5b4 0c3d
000002e0: ddde 843d 54b2 2a3e f7c5 e33c 1715 12be
000002f0: 177e 23be feef f93c 6686 e13d 1209 d2bd
00000300: a22e e2bd 22e8 d1bd 27f0 4a3d b24f 0d3e
00000310: bc1e b23c 125f 933e 43d4 493e 4f29 b1bb
00000320: 0ba2 623e 3eaa dcbd 9290 293e 9e2a ee3d
00000330: d6e1 37be 9649 1f3e 6809 53be fb5e 763d
00000340: 79f3 39be d3f3 2b3e 02ef ad3d fa24 d83d
00000350: e0bc c53d d8aa 91bd 61ce 893e fad2 47be
00000360: b537 193e 4256 9f3d f910 7cbe bfa5 a9bc
00000370: 604b ab3d 6b7b 55be 481e 10be 2c28 193e
00000380: 5a7f 22be 1b9f a73d 371c 213e 1ab9 de3d
00000390: 95b1 0e3d f330 d63d 3874 52bd ada7 16bd
000003a0: 01c5 3dbe 37aa 33be 0b59 793e 6892 0a3e
000003b0: 59ce 1c3e 132f c93d eaee 853e 4809 c73d
000003c0: 3f41 5fbd adab 8a3d c21f 1fbe 073a 313e
000003d0: f98e c43d 25c4 8b3e 882d 513e c832 683e
000003e0: 5a57 84be fb04 6dbd 6943 eb3a e443 573d
000003f0: 5520 66be 1c42 c8bd 3d2f 6dbe 6a49 c6bd
-0.18356664 0.2217687 0.25713742 0.012883889 0.13159285 0.27164087 0.21195422 -0.13711847
0.12033788 -0.028712196 -0.1777529 0.23126537 -0.2413197 -0.037830587 -0.2629896 0.053696536
-0.23418681 0.033072155 -0.10936749 -0.1686014 0.0574239 -0.33911392 0.16590892 0.051800556
-0.02007046 -0.026735611 0.09796222 0.0015701973 0.048589144 -0.18844508 0.24748665 0.14822078
-0.103738375 0.023173695 0.1806858 -0.0068467017 -0.02590561 0.23573698 0.13476083 -0.14126486
-0.16437802 -0.117532276 -0.18431707 -0.07034591 0.15914568 0.014462432 0.07230148 0.07085615
0.15014258 -0.1704792 -0.10801442 -0.097018346 -0.17544436 0.047923 -0.0525516 0.04120862
0.14398642 0.021152055 0.11393328 0.13876656 -0.05109116 0.14387082 -0.086848944 0.028050609
-0.28324133 -0.13394995 -0.24759331 0.19651164 -0.0124978805 -0.00040450526 -0.16477026 -0.014159786
0.059765097 -0.11324339 0.064987294 0.22337295 -0.25853494 0.15651235 -0.23277664 0.04267785
-0.27330115 0.007968653 0.11095041 0.13002634 0.040378068 0.07206407 0.092061095 -0.07349717
-0.06941775 0.15267615 0.26093134 -0.35263434 0.38617676 0.15735395 -0.17518589 0.17056781
-0.28999078 0.29064697 -0.16044754 0.14255026 -0.16392912 0.3585019 -0.066284604 -0.022019403
-0.22615096 0.083345085 -0.051884864 -0.14620933 -0.068170264 0.28727552 0.03931108 0.10350926
0.1875838 -0.119917415 0.246973 -0.051892225 0.021231083 -0.08879952 0.15767045 0.12378328
0.040774684 0.030797388 -0.09691783 0.045084003 -0.08967195 0.080706574 -0.16175109 -0.055761542
0.16508804 0.057763513 -0.046125356 0.12783779 0.20892861 -0.015274224 -0.13734868 0.0991141
0.07337024 -0.02136581 -0.09043174 0.043394122 -0.16154437 -0.15235974 0.21614298 -0.16563153
0.005595067 -0.107608445 0.10801042 0.08637324 -0.23575449 -0.028657433 -0.06533362 0.13148606
0.19415165 0.14768398 -0.117637694 -0.097058386 -0.24479982 0.15831664 -0.120517604 0.0004728511
0.09112039 -0.111116685 -0.07873235 -0.23463005 0.11412607 0.11893296 0.24603663 0.3120274
-0.25447282 0.08353206 0.18070878 -0.16480477 -0.2734251 0.30753472 -0.21131946 -0.067284144
0.13256784 0.13005821 0.2796144 0.24027495 0.10401828 0.07139957 -0.046743143 0.034352023
0.0648782 0.1666959 0.027804358 -0.14265858 -0.15966068 0.030509945 0.110119626 -0.10255636
-0.11044051 -0.10249354 0.049545433 0.13799933 0.02174317 0.2878347 0.19709878 -0.0054065357
0.22132127 -0.107746586 0.16559055 0.11629222 -0.17957243 0.15555415 -0.20609057 0.060149174
-0.18159284 0.1679223 0.08492853 0.10553928 0.09655166 -0.07112664 0.26915267 -0.19514075
0.14962657 0.07780124 -0.2461585 -0.020708917 0.08363986 -0.20847861 -0.14074051 0.1495673
-0.15868893 0.08184644 0.1573342 0.10875149 0.034837324 0.10458555 -0.051380366 -0.036781
-0.18532182 -0.175454 0.24350373 0.13532412 0.1531309 0.09823432 0.2615884 0.09718567
-0.054505583 0.06771026 -0.15539458 0.17307292 0.09597582 0.27298084 0.20427525 0.22675622
-0.25847894 -0.057866078 0.0017949167 0.05255498 -0.22473271 -0.09778234 -0.23162551 -0.09681971

network.6.bias f4 [64]
00000000: 3d99 50be 31e5 adbd 6506 3dbd 2c02 4fbd
00000010: 725e 793e 9cba b7bd 75b6 203e 4048 b3bc
00000020: 3265 1ebe e944 0b3e 73d6 cebd bed1 843d
00000030: 507d 8c3c 6055 8f3d 809f c63d 122e 65bd
00000040: 2695 86be 3b81 b3be 0788 d3bd 3a1f 003e
00000050: 7cc1 85be ed46 493e 5927 fa3d 148d 86bc
00000060: 6572 b7bd 1359 69be 9296 9bbd ddb6 81be
00000070: 0c89 963d 15fb e5bd df69 4bbe 372d 4c3d
00000080: 0bd0 20bd 27cb c5bd 7b51 dabd 1f42 75bd
00000090: 6d3c 36be 5302 863d 0685 1bbe 7815 233d
000000a0: 5647 90bc d7f2 783d 13ba 74be 269b 393c
000000b0: 5cdd a33d 9d19 e73c 07b2 da3d 2de9 13bc
000000c0: d067 94bd d5dd 523e 7d40 6dbc 1244 64bb
000000d0: 08a8 a8bd 783d 77bb 363f 043e eaf5 b0bd
000000e0: b9cb 603d c596 a53e 658c 713e 1681 26bd
000000f0: 44cb eabd 8e69 50bd c3ac 5ebd ae43 0bbe
-0.20370956 -0.084909804 -0.046148676 -0.05053918 0.24352434 -0.0897114 0.15694602 -0.021885037
-0.1546829 0.13600506 -0.10099497 0.06485318 0.017149597 0.06998706 0.09698391 -0.05595214
-0.26285666 -0.35059533 -0.103286795 0.12511912 -0.2612418 0.19655962 0.12214536 -0.016424693
-0.08957366 -0.22787885 -0.075970784 -0.25334826 0.07350358 -0.11229531 -0.19864605 0.049847808
-0.039260905 -0.09657889 -0.106600724 -0.05987751 -0.17796488 0.06543412 -0.15187463 0.039815396
-0.01761214 0.060778465 -0.23899107 0.011328494 0.08001205 0.028210456 0.10678487 -0.009027761
-0.07246363 0.20592435 -0.014480707 -0.0034830612 -0.082351744 -0.0037725847 0.12914738 -0.086406544
0.054881785 0.3234159 0.23588713 -0.04065045 -0.11464551 -0.050881915 -0.054363977 -0.13600037

network.8.weight f4 [2, 64]
00000000: e566 6e3e 862b 6bbf 3a8a 2ebc 7cce 06be
00000010: 192c 203e 8c6d 93be 1b62 a73f e9a0 ddbe
00000020: d46f 333e 548d d53e 3ac3 263f 5d61 173f
00000030: 592d e2bd 4c4b ecbd 0e48 2e3f ecf3 613e
00000040: fd0b 58bf ca95 333d 1ab1 26bf 04c6 f9be
00000050: 624c 153f e268 0a3e c4e6 133f 2dba fa3c
00000060: 7649 34bf 735e b0be 8ee0 273f b3d0 b7be
00000070: c123 85be 8124 1d3f f56b a63e 0d7b 253f
00000080: d660 083f 56aa fa3e d41a 4e3e 7034 47bf
00000090: 9ba7 51bf 994a cbbe 1cf3 92be 4a21 40be
000000a0: 1eff 50bf 22cb f5be db94 15be 2341 8ebe
000000b0: d0af e2bf 6b26 d5be 1e46 b5be 66ed 8f40
000000c0: 4ec3 4e3e 699a a93f 1400 98be c361 303f
000000d0: 65a0 783f c617 8dbd 8d37 cf3e eae9 00bf
000000e0: 2358 663e cb7f 093c 932f 463f 6fe4 dcbc
000000f0: f25a f83d 8025 ab3e 1e8b 433d 0a63 0bbf
00000100: 29fe 3e3d 8c6a a7be 8815 cb3e f128 acbe
00000110: d5a7 e33c dd62 e1bd 4ee9 a0be bc9e 82bd
00000120: 09a2 d43e 430b 5a3e 5039 b13e 999b 5c3e
00000130: 4b72 3bbd e057 913d cf26 5f3e e9fb 98bd
00000140: 75f1 3abe d0ba 053f dfa8 33bf 9ee1 edbd
00000150: f5ef 9abe a0f5 eabe 5be4 9c3e 96ea b8be
00000160: 71f5 b0bd 99ff 63be f78e 4a3e 7fe5 5dbe
00000170: b92c 05bf 6d58 d83e 7311 10bd e813 043e
00000180: 83fa c63e be7d 9e3e 422a d43e ffd6 94be
00000190: d391 65be a174 0d3e ae6b 043c ee11 e23d
000001a0: e99e 64be 1947 73bd 058b 15be 5208 3bbe
000001b0: 827e fbbe 4245 47bd 2002 b4be 4706 d53d
000001c0: 1030 1c3f 0f0f f73e 045a a2be 4d4f d53e
000001d0: 3b15 863e ecc6 d33d 0128 b43d 3982 8abe
000001e0: 3be7 bf3a 518a 81bb fbc9 773e 6ff2 68be
000001f0: 1da9 2cbd 4177 6b3e 6919 be3e bd1c 30bd
0.23281439 -0.91863286 -0.010653073 -0.13164705 0.15641822 -0.28794515 1.3076814 -0.43286827
0.17523128 0.41709387 0.6514164 0.5913294 -0.11043806 -0.11537799 0.68078697 0.22065705
-0.8439329 0.04384402 -0.65113986 -0.48783886 0.58319676 0.13516572 0.57773995 0.030606354
-0.7042459 -0.3444706 0.6557702 -0.35901412 -0.2600384 0.61383826 0.3250424 0.64640886
0.5327276 0.4895808 0.20127422 -0.7781439 -0.8189637 -0.3970535 -0.28701103 -0.18762699
-0.8163928 -0.4800654 -0.14607565 -0.2778407 -1.7709904 -0.41630873 -0.35405058 4.4977293
0.2019169 1.3250247 -0.2968756 0.6889917 0.9711974 -0.068893 0.4047207 -0.50356925
0.22494559 0.008392285 0.7741634 -0.026964394 0.121267214 0.33427048 0.047740094 -0.54447997
0.046629105 -0.32698476 0.39664865 -0.33624986 0.02778999 -0.11005185 -0.31427997 -0.063779324
0.41529873 0.21293359 0.34614038 0.21543731 -0.045763295 0.07096839 0.21792148 -0.07469923
-0.18256171 0.5223818 -0.7017955 -0.11615299 -0.30261198 -0.45890522 0.3064297 -0.36116475
-0.08640564 -0.22265472 0.197811 -0.21669577 -0.52021366 0.42254964 -0.03517289 0.12898219
0.38863 0.3095531 0.4143849 -0.2907028 -0.22418909 0.13814022 0.008082313 0.11038576
-0.22326244 -0.059393976 -0.14603813 -0.18264893 -0.49119955 -0.048650034 -0.3515787 0.10401588
0.6101084 0.48253676 -0.317093 0.41662064 0.26188073 0.10340676 0.08796693 -0.27052477
0.0014641056 -0.003953256 0.24198143 -0.22748731 -0.042153466 0.2299471 0.3712876 -0.042996157

network.8.bias f4 [2]
00000000: 7342 203f 499f cb3e
0.62601393 0.39769962
