Extra/Transfer/models/train/hole_offset_r10_reference.pth (torch, 73554 bytes, 12 tensors)

network.0.weight f4 [64, 2]
0	0x3eab1ea5	0.33421817
1	0x3e054819	0.13015784
2	0x3e8f6571	0.2800708
3	0x3e41796d	0.18893977
4	0xbebf15f5	-0.3732144
5	0x3d4f3673	0.050589036
6	0xbeb06ab1	-0.344564
7	0x3eed4a93	0.46345958
8	0x3ea23df2	0.31687886
9	0xbef25716	-0.47332066
10	0x3d194b3a	0.037425257
11	0xbf09e15c	-0.53859496
12	0xbdcdf68b	-0.1005679
13	0x3f18af29	0.59642273
14	0xbe7d59d6	-0.24741301
15	0x3f23c8c7	0.63978237
16	0xbee194fa	-0.44058973
17	0x3e97e35f	0.29665658
18	0x3ed988ef	0.42487285
19	0xbf2a8ad7	-0.666181
20	0xbe8b3b58	-0.27193713
21	0xbf2e4672	-0.6807624
22	0xbeb2465f	-0.34819314
23	0x3e43dfaf	0.19128297
24	0xbe8fcb85	-0.2808496
25	0xbcb1b581	-0.021692993
26	0x3ebfeef7	0.37487003
27	0xbf0e4cfd	-0.55586225
28	0x3df8c90b	0.12147721
29	0x3eea7fc1	0.45800593
30	0xbe87edc5	-0.2654859
31	0x3ebea5d7	0.372359
32	0xbe45b661	-0.19307853
33	0x3d9c05b3	0.076182745
34	0xbd460191	-0.048341338
35	0x3e7f9403	0.24958806
36	0x3e504115	0.20337327
37	0xbf09bb70	-0.5380163
38	0x3da74446	0.08167319
39	0x3e6f0f80	0.23345757
40	0xbda16473	-0.07880487
41	0xbeadec4b	-0.3396934
42	0x3e7e4699	0.24831618
43	0x3eb69811	0.35662892
44	0xbea3b2be	-0.31972307
45	0x3ea9f07f	0.33191296
46	0xbe52f866	-0.20602569
47	0x3d814349	0.06311662
48	0xbebebb9f	-0.3725252
49	0xbd173569	-0.03691617
50	0x3e29f8e1	0.16598846
51	0xbe2a9238	-0.1665734
52	0x3d8c0c20	0.0683825
53	0x3edee3fb	0.4353331
54	0x3ed4888f	0.41510436
55	0xbe218f28	-0.15777266
56	0x3de819c0	0.113330364
57	0xbf347680	-0.70493317
58	0x3c44747c	0.011990663
59	0x3f2325a8	0.63729334
60	0xbe0a4f34	-0.13506776
61	0xbdc7acf9	-0.09749789
62	0x3e5caa42	0.21549323
63	0x3eaf8e0e	0.34288067
64	0xbe48ffdb	-0.19628851
65	0x3ebb2844	0.36554158
66	0xbe4c076c	-0.19924706
67	0xbe06f10d	-0.13177891
68	0x3e5d65ff	0.2162094
69	0x3d93370c	0.07188234
70	0x3e5fdd84	0.21861845
71	0xbf191f42	-0.5981332
72	0xbe94768b	-0.2899669
73	0x3f17bdfb	0.5927426
74	0x3dd9460e	0.10609065
75	0xbbe93e4c	-0.007118022
76	0x3e959ff2	0.2922359
77	0x3ec44453	0.38333377
78	0xbeddc533	-0.43314514
79	0xbe80669b	-0.25078282
80	0x3da9b655	0.0828673
81	0x3e62872c	0.22121876
82	0xbea6bbce	-0.3256516
83	0x3e700e67	0.23442994
84	0x3eae4483	0.34036645
85	0xbe28f5e5	-0.16500051
86	0xbd405d81	-0.046964172
87	0x3e77ad6e	0.24187252
88	0x3c876ef0	0.016532391
89	0xbe07f61d	-0.13277479
90	0x3e03e007	0.12878428
91	0xbe02ebd0	-0.12785268
92	0xbe25b1af	-0.16181062
93	0xbe952aa3	-0.29134092
94	0x3e17c4c7	0.14821158
95	0x3ebb29d9	0.36555365
96	0x3e4689b9	0.19388475
97	0x3e8c9044	0.27453816
98	0xbe85f517	-0.2616355
99	0xbed1069a	-0.4082535
100	0x3e8eb299	0.27870634
101	0xbeab11a7	-0.33411905
102	0xbeb01fa0	-0.34399128
103	0x3eeb495f	0.45954415
104	0xbdb55b23	-0.088552736
105	0xbee6a162	-0.45045
106	0x3e7612a3	0.24030547
107	0xbdf9cd5d	-0.12197373
108	0x3eba8472	0.36429173
109	0xbdad2608	-0.084545195
110	0xbe82bd96	-0.25535268
111	0x3d32cb98	0.043651193
112	0xbe737c97	-0.23777996
113	0x3e18898c	0.1489622
114	0xbe82cad4	-0.2554537
115	0x3e09e687	0.13466845
116	0x3bd77023	0.006574647
117	0xbed3f824	-0.41400254
118	0xbeb6eaed	-0.3572611
119	0x3eb29ba3	0.34884366
120	0xbe1f57bf	-0.15560816
121	0xbed69acf	-0.41914985
122	0xbe7a0e32	-0.24419478
123	0x3e172ed4	0.14763957
124	0x3e25fa6e	0.16208813
125	0x3dfaf8c1	0.12254477
126	0xbec9f802	-0.39447027
127	0x3eac676d	0.33672658

network.0.bias f4 [64]
0	0xbf03839f	-0.5137271
1	0xbe8efe01	-0.27928165
2	0x3ebb849c	0.3662461
3	0x3db4181b	0.0879366
4	0xbdaddd26	-0.08489446
5	0x3eeb5c9f	0.45969102
6	0xbe83489a	-0.25641328
7	0xbe9b74f9	-0.3036268
8	0x3ea746b3	0.32671127
9	0xbd1afd06	-0.03783896
10	0x3f26b8d7	0.65125793
11	0x3d9982a5	0.074956216
12	0x3eb5a8fb	0.35480484
13	0xbb47fa4b	-0.0030514176
14	0xbedb572a	-0.42839938
15	0x3d69c11d	0.057068933
16	0xbe1d6562	-0.15370706
17	0xbc381de8	-0.011237599
18	0xbca1e9e4	-0.019764848
19	0xbe52ba96	-0.2057899
20	0x3e29d57e	0.16585347
21	0xbf009692	-0.5022975
22	0x3e411d36	0.188588
23	0x3ebfe9db	0.37483105
24	0x3e952145	0.29126945
25	0xbdfab389	-0.12241275
26	0xbdc92f28	-0.098234475
27	0xbe532d04	-0.20622641
28	0x3e4a9573	0.19783573
29	0xbeeb4cee	-0.4595713
30	0x3e06fa3d	0.13181396
31	0xbdf05dbc	-0.117366284
32	0xbd67148a	-0.056416072
33	0x3e89975f	0.268733
34	0xbe9ea64f	-0.30986258
35	0x3b4b2a77	0.0031000653
36	0xbd3a2611	-0.04544646
37	0xbe055469	-0.13020481
38	0xbeeb2e89	-0.4593394
39	0x3f1343f0	0.5752554
40	0xbe1c056c	-0.15236443
41	0x3de5eb9e	0.11226581
42	0xbe21f87a	-0.15817443
43	0xbd544b9f	-0.05182993
44	0xbd6d16ad	-0.057882953
45	0x3de5a013	0.11212172
46	0x3ea2056a	0.31644756
47	0xbe952962	-0.29133135
48	0xbe61f5c3	-0.22066407
49	0x3eda4c95	0.42636552
50	0xbe4383cd	-0.19093247
51	0xbd0856ee	-0.033286028
52	0x3e477876	0.19479546
53	0xbe6d9279	-0.23200406
54	0xbec811dd	-0.3907613
55	0x3d8183e8	0.06323987
56	0x3dfdea1b	0.12398168
57	0x3e342acd	0.17594452
58	0x3e3b08dd	0.182651
59	0x3e01d50a	0.12678924
60	0x3e591e74	0.21203023
61	0x3cdab4d6	0.026697557
62	0xbe4f4494	-0.20241004
63	0x3d9c7c4e	0.07640897

network.2.weight f4 [64, 64]
0	0x3e400c61	0.18754722
1	0xbc17d946	-0.009268111
2	0x3e184879	0.14871396
3	0xbe0af223	-0.1356893
4	0xbe052648	-0.13002884
5	0xbe01726d	-0.12641306
6	0x3e426671	0.18984391
7	0x3d9eaca0	0.07747769
8	0x3deb8eab	0.11501821
9	0xbc373c45	-0.011183803
10	0x3c289570	0.010289535
11	0x3c822d46	0.015890729
12	0xbdd24cbe	-0.10268544
13	0xbdfd1f47	-0.12359481
14	0x3cf2117d	0.029549355
15	0x3b811cb5	0.0039401897
16	0xbe91e535	-0.28495184
17	0x3d81aada	0.063314155
18	0xbe117d73	-0.14208011
19	0x3dfcaeda	0.12338038
20	0xbe64d422	-0.22346547
21	0xbdc44291	-0.09583009
22	0x3db0a2a2	0.0862477
23	0xbdbe8472	-0.09302606
24	0x3d23cdd6	0.039991222
25	0xbdb2ab37	-0.08724063
26	0x3e311664	0.17293698
27	0xbbb290ac	-0.005449375
28	0x3d201901	0.039086346
29	0x3e6f4548	0.23366272
30	0xbded8464	-0.11597517
31	0x3de1e755	0.11030451
32	0x3d5cd0a9	0.05390993
33	0x3e04305b	0.12909071
34	0x3e55425b	0.20826094
35	0xbd836cb1	-0.064172156
36	0x3ba594b8	0.005053129
37	0x3e0d9aa9	0.1382853
38	0x3bccb8ff	0.006247639
39	0xbcb4217e	-0.021988627
40	0x3d51ac8a	0.051189937
41	0x3cb314b6	0.021860462
42	0x3e24954f	0.16072582
43	0xbe6cdb35	-0.23130496
44	0x3e61028b	0.21973626
45	0xbdb92b55	-0.09041468
46	0x3d2714fa	0.04079149
47	0x3e5a8769	0.21340717
48	0x3c9f7afe	0.019467827
49	0xbe429490	-0.19001985
50	0xbdf00b43	-0.11720898
51	0xbe539645	-0.20662792
52	0xbdda298b	-0.10652455
53	0x3d736f91	0.05943257
54	0x3dcb3330	0.099218726
55	0xbe6c5804	-0.2308045
56	0xbb2bb57f	-0.002620071
57	0x3d97e0f3	0.074159525
58	0x3ce7f016	0.028312724
59	0xbcf16c4f	-0.02947059
60	0xbe7e917a	-0.24860182
61	0xbd549b11	-0.051905695
62	0xbda6b892	-0.08140673
63	0xbe0a3fc5	-0.13500889
64	0x3e8748a9	0.26422623
65	0xbdc4b653	-0.09605088
66	0x3d6fd1d5	0.05854972
67	0x3d398dd4	0.045301273
68	0x3d4e2481	0.05032778
69	0x3e4f5a25	0.20249231
70	0xbcd1f709	-0.02563049
71	0x3c94976b	0.018138608
72	0x3d9282f1	0.07153881
73	0x3d923bf9	0.07140345
74	0x3dba2386	0.09088807
75	0xbd024932	-0.031808086
76	0x3da78d8a	0.08181293
77	0xbe12386a	-0.14279333
78	0xbe56ba00	-0.20969391
79	0xbdc3a286	-0.09552483
80	0xbe2eeb9e	-0.17082068
81	0xbe6e910c	-0.23297518
82	0xbc9e68ad	-0.019337023
83	0xbddb9529	-0.107218094
84	0x3d47dfe6	0.04879751
85	0xbdee6701	-0.1164074
86	0x3de63cd4	0.11242071
87	0xbe04b384	-0.12959105
88	0xbe470103	-0.1943398
89	0x3e3c547f	0.18391608
90	0xbdd25556	-0.10270183
91	0x3e6e20e4	0.23254734
92	0x3e213772	0.15743807
93	0x3e101a99	0.14072646
94	0xbd96f7f7	-0.07371514
95	0x3d50b5a2	0.05095447
96	0xbd9c65e5	-0.07636622
97	0x3dfcb82c	0.123398155
98	0xbbcc379e	-0.006232216
99	0xbd1fc3df	-0.039005157
100	0x3df828a2	0.12117125
101	0x3d280157	0.041016903
102	0x3e228b3c	0.15873426
103	0xbe0e25f5	-0.13881667
104	0x3ce0630b	0.027390977
105	0x3d2a57be	0.041587584
106	0x3e11e6cd	0.142482
107	0xbd7313cd	-0.059345055
108	0x3dc700d7	0.09716957
109	0x3d35f5f9	0.04442403
110	0x3e0d7567	0.13814317
111	0xbe55802b	-0.20849673
112	0x3d900e12	0.07033934
113	0x3e30466d	0.17214365
114	0x3df5ce48	0.12002236
115	0xbcd1902e	-0.025581446
116	0x3e95708d	0.29187432
117	0x3cf1fd51	0.029539736
118	0x3d013118	0.03154096
119	0x3c694477	0.014237515
120	0xbe1edb82	-0.15513423
121	0x3e0bcfc8	0.13653481
122	0x3d8a3c6b	0.06749805
123	0x3d6ed197	0.05830535
124	0x3e403d12	0.18773296
125	0x3dd9e8ce	0.10640107
126	0x3e7e93df	0.24861096
127	0x3e2abbb4	0.16673166
128	0x3d779c32	0.060451694
129	0x3d2d0602	0.042242058
130	0x3e6a0681	0.22854044
131	0x3f007f97	0.50194687
132	0xbed7fa18	-0.42182994
133	0xbef3430b	-0.47512087
134	0x3f19eb32	0.60124505
135	0x3f3ba224	0.7329428
136	0x3e84f7ff	0.25970456
137	0xbf390862	-0.72278416
138	0xbedebb94	-0.43502486
139	0x3e18cc9e	0.14921805
140	0x3e815afd	0.2526473
141	0xbec251ec	-0.37953126
142	0x3e526c0a	0.20549026
143	0x3e009263	0.12555842
144	0xbe096702	-0.134182
145	0x3e06f03a	0.13177577
146	0xbf290492	-0.660226
147	0x3d383ec9	0.04498175
148	0x3c728cac	0.014804047
149	0x3d4d336d	0.05009787
150	0x3e6f8780	0.23391533
151	0x3e0a2fdc	0.1349482
152	0x3e6132c2	0.21992019
153	0xbe90a92e	-0.28254074
154	0x3f00efbc	0.50365806
155	0xbee7a424	-0.45242417
156	0xbee031b2	-0.43787915
157	0x3f0bdf07	0.5463719
158	0x3d8a0c17	0.06740587
159	0x3e5610cf	0.2090485
160	0x3ebb068a	0.36528426
161	0xbe0b9cc5	-0.13634022
162	0x3e39dfff	0.18151854
163	0xbf326f4a	-0.69701064
164	0x3f40a921	0.7525807
165	0xbe2c7e64	-0.16845089
166	0x3e844a0a	0.25837737
167	0x3e3e1a34	0.18564683
168	0x3c84de32	0.016219232
169	0x3ea6c8a5	0.32574955
170	0xbe05ddfb	-0.1307296
171	0x3dfd21a0	0.12359929
172	0xbe8d53b6	-0.2760293
173	0xbca0b329	-0.01961668
174	0xbe81cb8d	-0.2535061
175	0x3ecea10f	0.40357253
176	0x3e1000c2	0.14062789
177	0xbe47b998	-0.19504392
178	0xbebabb7a	-0.36471158
179	0x3f210e22	0.6291219
180	0xbf0c08bf	-0.54700845
181	0xbec00af2	-0.3750835
182	0xbeaf9610	-0.34294176
183	0xbe3a87a3	-0.18215804
184	0x3cceda53	0.02525059
185	0x3e01dab9	0.12681092
186	0xbe53b448	-0.2067424
187	0x3df50f20	0.119657755
188	0xbd0fd29d	-0.035112966
189	0x3d6f69a4	0.058450356
190	0x3d9449bf	0.072406285
191	0x3ed2e04d	0.41186753
192	0xbce488e7	-0.027897311
193	0xbb814b17	-0.003945719
194	0x3e46fbd8	0.19432008
195	0x3e2d12b8	0.16901672
196	0xbe335f83	-0.17516904
197	0xbe70c048	-0.2351085
198	0x3d25a5fd	0.040441502
199	0x3d8875fe	0.0666313
200	0x3e678973	0.22611026
201	0xbd4f6486	-0.050632976
202	0x3e678d9f	0.22612618
203	0x3d3639a9	0.044488583
204	0x3e5421ae	0.20715973
205	0xbe9be7b9	-0.30450228
206	0x3d02db33	0.031947326
207	0x3e386553	0.18007402
208	0x3d962923	0.07332065
209	0xbd2e9506	-0.04262259
210	0xbda57b61	-0.08080173
211	0xbe3a0ae7	-0.18168221
212	0x3db3e13e	0.08783196
213	0xbdd0e6a5	-0.10200242
214	0x3e245dae	0.16051361
215	0x3e399493	0.18123083
216	0xbd838134	-0.06421128
217	0xbe434409	-0.19068922
218	0xbd5ad2ad	-0.053423572
219	0xbe5330d2	-0.20624092
220	0xbe863259	-0.26210287
221	0xbdda3558	-0.10654706
222	0xbc8dddfa	-0.01731776
223	0x3dc278f4	0.09495726
224	0x3eb0aa08	0.34504724
225	0xbe032348	-0.12806427
226	0xbe8e2e1e	-0.2776956
227	0x3d5e60f4	0.05429168
228	0x3e8a8442	0.2705403
229	0xbd9d006d	-0.07666097
230	0xbe38a0de	-0.18030116
231	0x3e80e36a	0.25173503
232	0x3e3ddd6f	0.18541501
233	0xbda42ddb	-0.08016559
234	0xbe409e0e	-0.18810293
235	0x3cb818b0	0.02247271
236	0xbb9b29f5	-0.0047352263
237	0x3de2b92c	0.11070475
238	0x3da0cc71	0.07851494
239	0xbe46ddd1	-0.19420554
240	0x3db2f6a5	0.0873845
241	0xbe04a58a	-0.12953773
242	0xbcbf0efa	-0.023322571
243	0x3d136266	0.035982512
244	0xbd6f1284	-0.058367267
245	0xbe341f71	-0.17590119
246	0xbc33aa2f	-0.010965868
247	0xbdc0548d	-0.09391127
248	0xbdc854f7	-0.09781831
249	0xbdc5b70d	-0.09654055
250	0xbe56962e	-0.20955727
251	0x3e65fe8c	0.22460383
252	0xbe1a7002	-0.1508179
253	0x3e1c1e78	0.15245998
254	0x3cda6762	0.026660625
255	0x3dbd022f	0.09228932

network.2.bias f4 [64]
0	0x3db2ebd0	0.08736384
1	0xbc4411f8	-0.011967175
2	0xbd8be755	-0.068312325
3	0xbd8c4aac	-0.0685018
4	0xbd4f155c	-0.05055748
5	0xbeaa6066	-0.3327667
6	0xbe3074df	-0.17232083
7	0xbe04035a	-0.12891904
8	0xbd1ae10f	-0.03781229
9	0x3e312b44	0.17301661
10	0x3e5d6b90	0.21623063
11	0x3d773301	0.060351375
12	0x3dbd16ad	0.09232841
13	0x3e1db025	0.15399225
14	0x3cb013d1	0.021493824
15	0x3e0eaed4	0.13933879
16	0xbe46f2e5	-0.19428594
17	0xbd3967be	-0.045264952
18	0xbcdea150	-0.02717653
19	0x3dcfced0	0.10146868
20	0xbe68c227	-0.22730313
21	0x3cd3c124	0.025848933
22	0x3da00e8e	0.07815276
23	0xbe3520a3	-0.17688231
24	0xbd98b118	-0.07455653
25	0xbc9dd7a2	-0.01926786
26	0x3df4d1ff	0.11954116
27	0xbac8b0eb	-0.0015311515
28	0xbc2ea1b4	-0.01065867
29	0xbe6ca47e	-0.23109624
30	0xbc9e0ff6	-0.01929472
31	0x3d1c2bee	0.038127832
32	0xbe0b454d	-0.13600655
33	0xbe1b0a70	-0.151407
34	0x3e1fdb74	0.15611058
35	0x3e80bf89	0.2514613
36	0xbdbe9027	-0.09304839
37	0xbd413a73	-0.047174882
38	0x3db8f200	0.09030533
39	0x3e43a05a	0.19104138
40	0xbdc8c614	-0.098034054
41	0x3da33920	0.0796988
42	0x3e1c58dd	0.15268274
43	0xbdd4223a	-0.10358091
44	0xbe3129b4	-0.17301065
45	0x3e611264	0.21979672
46	0x3e0fae67	0.14031373
47	0xbd45bfa1	-0.048278455
48	0xbedf7a9f	-0.4364824
49	0x3cfcac04	0.030843742
50	0x3d0c594e	0.034264855
51	0x3d01b50d	0.031666804
52	0x3e0d284b	0.13784902
53	0x3e33165a	0.17488995
54	0x3dd54dd6	0.10415237
55	0xbde51c91	-0.11187089
56	0xbe4e7a34	-0.20163804
57	0xbe32c3bd	-0.1745748
58	0xbd483a5a	-0.048883773
59	0xbdaf82ab	-0.08569845
60	0x3e040be1	0.12895156
61	0x3e51eb91	0.20500018
62	0x3ce23350	0.027612358
63	0x3df44b36	0.11928408

network.4.weight f4 [64, 64]
0	0xbde08556	-0.10962932
1	0x3cbff96c	0.023434363
2	0xbd493a5f	-0.049127933
3	0xbd0684fb	-0.032841664
4	0xbde31168	-0.11087304
5	0xbdf07dbd	-0.11742733
6	0x3d1986f3	0.037482213
7	0x3e3a4253	0.18189363
8	0x3d509315	0.05092152
9	0x3d6911d8	0.056901783
10	0xbe12fce2	-0.1435428
11	0x3d186466	0.037205122
12	0x3de9532a	0.113928154
13	0x3e29ed1a	0.16594353
14	0xbe5dc11d	-0.21655698
15	0xbd3d5c0d	-0.046230365
16	0x3bf7653d	0.0075499103
17	0x3e2883eb	0.16456573
18	0x3d2e8c96	0.042614542
19	0xbd828eaa	-0.06374867
20	0xbe7b69ee	-0.24552128
21	0xbe2cad05	-0.16862877
22	0x3e19d999	0.15024413
23	0xbe71fa52	-0.23630646
24	0xbe04572b	-0.12923877
25	0xbe418389	-0.18897833
26	0x3d93a799	0.07209701
27	0xbd07e836	-0.033180438
28	0xbdb0de35	-0.08636133
29	0xbd9c8dec	-0.07644257
30	0xbd9b6bfa	-0.07588954
31	0x3e2bc3f4	0.16773969
32	0x3e3ee890	0.18643403
33	0x3e75e6b4	0.24013788
34	0x3dc892a0	0.097935915
35	0x3e7be151	0.2459767
36	0x3d8a98a4	0.06767395
37	0xbc9e9431	-0.019357773
38	0xbe80aab0	-0.25130224
39	0x3e89b975	0.26899305
40	0xbd38fa4c	-0.045160577
41	0xbcec7a5c	-0.02886694
42	0xbcca9996	-0.024731439
43	0xbdcc3478	-0.09970945
44	0x3dc1c1d5	0.09460799
45	0x3e604ed8	0.21905077
46	0x3d1c452e	0.038151912
47	0x3e5edb38	0.21763313
48	0xbd165e09	-0.036710773
49	0xbc46de92	-0.012138026
50	0x3e168f68	0.14703143
51	0xbe278b10	-0.16361642
52	0xbe55526d	-0.20832224
53	0xbd901517	-0.070352726
54	0xbe0df0c7	-0.1386138
55	0xbdbca22a	-0.09210618
56	0x3e025987	0.12729464
57	0xbd97740c	-0.07395181
58	0xbe25ab06	-0.16178522
59	0x3ca0f6a8	0.019648865
60	0xbe7855f2	-0.24251536
61	0x3bf83aa6	0.007575351
62	0xbe1545fc	-0.14577478
63	0x3e077df5	0.13231643
64	0xbe17fd9a	-0.14842835
65	0x3e490d1a	0.19633904
66	0xbdd013fa	-0.1016006
67	0x3b86bcc0	0.004111856
68	0xbd8db9de	-0.06920217
69	0x3da54453	0.080696724
70	0x3d7da318	0.061923116
71	0xbd560063	-0.052246463
72	0xbc83af20	-0.016074717
73	0x3db79952	0.089647904
74	0xbdff0812	-0.12452711
75	0x3ca0a7fa	0.019611347
76	0x3c9f06b4	0.019412376
77	0x3e3f58ae	0.18686172
78	0x3cfa879c	0.030582242
79	0x3c7eedbc	0.01555961
80	0x3e2087e3	0.15676837
81	0x3d277848	0.040886194
82	0xbe242326	-0.16029033
83	0x3d9a5d1e	0.07537292
84	0x3d4d8732	0.05017776
85	0x3d82bed4	0.06384054
86	0x3e01d15f	0.12677525
87	0x3c461022	0.012088807
88	0x3e959150	0.29212427
89	0x3db28669	0.08717043
90	0x3dbed613	0.09318175
91	0xbdba1d7d	-0.09087656
92	0xbdc126ed	-0.09431253
93	0x3dd7cec1	0.10537482
94	0xbd80d6c9	-0.06290967
95	0xbdbcd4a6	-0.09220247
96	0xbdacdfb4	-0.084411055
97	0x3d09b04d	0.0336154
98	0xbd29bc61	-0.041439418
99	0xbe3ad14e	-0.18243906
100	0x3e90b870	0.28265715
101	0x3e821e01	0.25413516
102	0x3eaabcf1	0.33347276
103	0xbe06a6b7	-0.13149534
104	0x3c2d2a55	0.010569175
105	0xbe71727e	-0.23578832
106	0xbe9fe72d	-0.3123106
107	0xbe4ea909	-0.2018167
108	0xbd8f3654	-0.06992784
109	0xbe5912a9	-0.21198525
110	0x3e43715f	0.19086216
111	0x3e2cdc89	0.16881002
112	0x3ebb73d2	0.366118
113	0x3cf5734a	0.0299622
114	0x3c387d28	0.011260308
115	0xbd55a1ad	-0.05215614
116	0x3d437860	0.04772222
117	0xbe48409d	-0.19555898
118	0xbe2bcc0c	-0.16777056
119	0xbd4f5a10	-0.050623
120	0x3dfbd9c7	0.12297397
121	0xbd0df4a8	-0.03465715
122	0x3e96cd7f	0.29453656
123	0xbd064cfa	-0.032788254
124	0xbe4fba6f	-0.20285963
125	0xbd5cd78a	-0.05391649
126	0xbdfa3a7b	-0.122181855
127	0xbe03a2be	-0.1285505
128	0x3bc04ddf	0.005868658
129	0x3c1d7715	0.009610911
130	0x3d5041ad	0.050843883
131	0xbd6ebae5	-0.058283705
132	0xbdb86cf2	-0.09005155
133	0xbbf70771	-0.007538729
134	0xbd5f7a78	-0.054560155
135	0x3e83eb65	0.2576553
136	0x3dbdcc1a	0.09267445
137	0xbd233534	-0.03984566
138	0x3d8f6e6f	0.070034854
139	0xbdb8abba	-0.09017129
140	0x3e3528ea	0.17691389
141	0xbe4aa14f	-0.19788097
142	0xbd7ad781	-0.061240677
143	0x3d52888e	0.05139976
144	0xbe1cf66d	-0.15328379
145	0x3c724ebf	0.014789282
146	0xbe1192f7	-0.14216219
147	0xbe55565b	-0.20833723
148	0x3d6eec80	0.058331013
149	0x3e440d53	0.19145708
150	0x3d91d780	0.071211815
151	0x3e159309	0.1460687
152	0xbe083617	-0.13301884
153	0xbd9e4d7c	-0.07729623
154	0xbc35c18d	-0.011093509
155	0x3e15bd3b	0.14622967
156	0x3e4971e1	0.19672348
157	0xbdd7bf78	-0.10534567
158	0xbd5e2411	-0.054233614
159	0x3e404de4	0.18779713
160	0xbde717d0	-0.11283839
161	0x3d8c42d6	0.068486854
162	0xbdf5b123	-0.11996677
163	0xbe130088	-0.14355671
164	0x3c975db9	0.018477308
165	0x3db94f63	0.09048345
166	0xbdc080b6	-0.0939955
167	0xbdc20042	-0.094727054
168	0x3e998523	0.29984388
169	0x3db6d8ad	0.089280464
170	0xbdb16dcd	-0.08663521
171	0x3c62d85b	0.0138455285
172	0x3e6704fd	0.22560497
173	0xbe130a2b	-0.14359348
174	0xbe449e2d	-0.19200964
175	0xbdb27c1f	-0.087150805
176	0xbbe247fe	-0.006905555
177	0xbe21b1d3	-0.15790491
178	0xbe279198	-0.16364133
179	0x3d3e1818	0.046409696
180	0xbe9b9704	-0.30388653
181	0x3cc5b70f	0.02413514
182	0x3e1ffb2c	0.15623158
183	0xbdca99a3	-0.09892585
184	0x3d74ae6d	0.059736658
185	0xbe26b859	-0.1628126
186	0xbdd1b711	-0.10239995
187	0xbe536eb9	-0.20647706
188	0xbedb5a7f	-0.4284248
189	0x3dc10dd6	0.09426467
190	0xbd0582c0	-0.032595396
191	0x3e0f1553	0.13972978
192	0xbe04a036	-0.1295174
193	0xbe3ffe4d	-0.18749352
194	0x3d0de1a2	0.03463901
195	0xbe81d140	-0.25354958
196	0x3e5cac4a	0.21550098
197	0x3e1fa808	0.15591443
198	0x3e10cc67	0.14140473
199	0x3c6aa607	0.014321811
200	0x3da55c5d	0.080742575
201	0x3d5b8eca	0.05360297
202	0xbe8177c4	-0.25286686
203	0xbd7edb5a	-0.06222091
204	0x3e199962	0.14999917
205	0x3cf475cf	0.029841332
206	0xbdfd4370	-0.12366378
207	0xbe05e1a8	-0.13074362
208	0x3b000f89	0.001954051
209	0x3d019888	0.031639606
210	0xbe696ab2	-0.22794607
211	0x3dcaad73	0.09896364
212	0x3e41ffb3	0.18945198
213	0x3d8c7f52	0.06860222
214	0x3e400fbe	0.18756005
215	0x3e0fbd0c	0.1403696
216	0x3db0a793	0.08625712
217	0xbdb67555	-0.08909098
218	0xbb273ace	-0.0025517228
219	0x3e536232	0.20642927
220	0xbbe2b24f	-0.0069182287
221	0x3dc9c89a	0.09852715
222	0x3d6934f5	0.05693527
223	0xbdc04c09	-0.093895026
224	0x3e10c677	0.14138208
225	0x3e0bf4e5	0.13667639
226	0x3e0cb864	0.13742214
227	0x3db20e8e	0.08694182
228	0xbc811911	-0.015759023
229	0x3e4ad201	0.19806673
230	0x3da8499a	0.082171634
231	0x3dd9bbc2	0.10631515
232	0x3db8c2fd	0.09021566
233	0x3df63008	0.1202088
234	0x3d04040c	0.032230422
235	0x3e153e2c	0.14574498
236	0x3dd03ef8	0.1016826
237	0xbe442b86	-0.19157228
238	0x3dfe5409	0.12418372
239	0xbd1ba042	-0.03799463
240	0xbde12843	-0.109940074
241	0xbdd72dc4	-0.10506776
242	0x3db4d83f	0.08830308
243	0xbd26008c	-0.040527865
244	0xbdf07428	-0.11740905
245	0xbe0bc59a	-0.13649598
246	0xbda0a18f	-0.07843315
247	0x3db4b36b	0.08823284
248	0x3d4d85c0	0.050176382
249	0x3d77015b	0.060304027
250	0xbe15c3bb	-0.14625446
251	0xbd79f9e0	-0.061029315
252	0xbd866604	-0.06562427
253	0xbe22319c	-0.15839237
254	0x3d9c46ed	0.076307155
255	0x3e035802	0.12826541

network.4.bias f4 [64]
0	0xbaced868	-0.0015781047
1	0xbc677ea1	-0.014129312
2	0xbe531614	-0.20613891
3	0xbcde758e	-0.027155664
4	0xbd38bfde	-0.045104854
5	0x3d63d144	0.055619493
6	0x3e265a9b	0.162455
7	0x3e268bf4	0.16264325
8	0x3e915dc0	0.28391838
9	0x3c73a8d7	0.0148717975
10	0xbce55a9f	-0.027997313
11	0xbc6510e0	-0.013981074
12	0xbc990186	-0.018677484
13	0x3e456863	0.19278102
14	0xbd4d2dfb	-0.05009268
15	0x3ea53900	0.3227005
16	0xbec20ba4	-0.37899506
17	0xbd8f32d5	-0.06992117
18	0xbc9602ea	-0.018311936
19	0x3ecea8ea	0.40363246
20	0xbd035ce6	-0.032071017
21	0x3cfe9284	0.031075723
22	0x3e21a8a6	0.1578699
23	0x3c54f2ea	0.012997368
24	0xbd9d2098	-0.076722324
25	0xbe1dd342	-0.1541262
26	0x3d28f9eb	0.041253965
27	0xbdebb913	-0.115099095
28	0xbd95c8a7	-0.07313662
29	0xbd162996	-0.036660753
30	0xbc74420a	-0.014908323
31	0x3da50822	0.08058192
32	0xbe1d5266	-0.15363464
33	0xbdd9c872	-0.10633935
34	0x3e9685e4	0.29399025
35	0xbdc9d55a	-0.09855147
36	0x3def1a33	0.11674919
37	0xbc0e7d08	-0.008696802
38	0xbe105733	-0.14095764
39	0xbdb9c97c	-0.09071633
40	0x3e247d51	0.1606343
41	0xbd0ae584	-0.03391029
42	0x3bcaa83a	0.006184605
43	0x3d3e8f23	0.046523225
44	0x3e6cdd62	0.23131326
45	0xbd74f3ce	-0.059802823
46	0x3c525fc2	0.012840213
47	0x3daf2099	0.085511394
48	0xbcd6130b	-0.026132127
49	0x3daacd75	0.08339969
50	0xbe0291df	-0.12750958
51	0x3ddf03bc	0.10889384
52	0x3d30cfda	0.043166973
53	0x3c8b7940	0.01702559
54	0xbdbed9d9	-0.09318895
55	0x3d3294a3	0.043598782
56	0x3df23c81	0.118279465
57	0x3c95917a	0.018257845
58	0xbdccf6ba	-0.10007997
59	0x3d6093a4	0.0548283
60	0x39342be5	0.0001718249
61	0xbd182579	-0.03714511
62	0x3db26062	0.0870979
63	0x39fdc441	0.0004840214

network.6.weight f4 [64, 64]
0	0xbd45543a	-0.048176028
1	0xbe1769ef	-0.14786504
2	0xbd20524e	-0.039140992
3	0xbe61f50a	-0.22066131
4	0xbe395089	-0.18097128
5	0x3b85b12d	0.004079959
6	0xbc63f03d	-0.013912258
7	0xbe754327	-0.23951398
8	0xbdff7181	-0.12472821
9	0xbe6b0585	-0.22951324
10	0xbdd58bb2	-0.104270354
11	0x3bda2965	0.0066577666
12	0x3dbb7180	0.09152508
13	0x3e04bbd4	0.12962276
14	0x3df644da	0.12024851
15	0x3c34ec46	0.01104266
16	0x3e11371c	0.14181179
17	0xbe3c5c56	-0.18394598
18	0x3dc4cf19	0.09609813
19	0xbe9a0a75	-0.30086103
20	0x3dca5d21	0.09881044
21	0x3d382771	0.04495949
22	0x3d509dae	0.050931625
23	0xbe751213	-0.23932676
24	0x3e016f52	0.12640122
25	0x3e7085d7	0.23488556
26	0xbd899ac2	-0.06718971
27	0x3e0ba2cd	0.13636322
28	0x3da02a87	0.078206114
29	0x3db2c315	0.08728615
30	0x3d657cfa	0.05602739
31	0x3e1769be	0.14786431
32	0xbdbe0734	-0.09278718
33	0xbe017a27	-0.12644254
34	0xbe231253	-0.15924959
35	0xbd4f0f73	-0.050551843
36	0xbc139a10	-0.009008899
37	0x3e3b4c3e	0.18290803
38	0x3d05613d	0.032563437
39	0x3ea25d68	0.31711888
40	0xbd800ce5	-0.062524594
41	0x3cc7f790	0.02441004
42	0x3e9751eb	0.29554686
43	0xbddc2c03	-0.10750582
44	0x3e76fe84	0.24120528
45	0xbe08b184	-0.13348967
46	0xbd49b983	-0.049249183
47	0x3d4fa0ae	0.050690345
48	0x3c1a4545	0.009415929
49	0xbd7085dc	-0.05872141
50	0xbd3ee56a	-0.046605505
51	0x3e3f77d8	0.1869806
52	0xbdba406e	-0.0909432
53	0x3e0eff35	0.13964541
54	0x3e20b7ec	0.1569516
55	0xbde2aa27	-0.1106761
56	0x3e42b3d3	0.1901391
57	0x3e4ef3df	0.20210217
58	0xbe115eaa	-0.14196268
59	0xbe1aa833	-0.15103225
60	0xbdb25cfa	-0.0870914
61	0x3e4155fe	0.1888046
62	0x3d7217c9	0.059104715
63	0xbbd4bd08	-0.006492261
64	0x3e432553	0.19057207
65	0xbe390919	-0.18069877
66	0x3d4b4c75	0.049633462
67	0x3e554d65	0.20830305
68	0x3da6fae0	0.08153319
69	0xbd7568dd	-0.05991446
70	0x3d6ae36f	0.057345804
71	0xbdc2fe5f	-0.09521174
72	0xbd35ef11	-0.044417445
73	0x3d6eca48	0.05829838
74	0x3ea4b48f	0.32169005
75	0x3eb0c540	0.3452549
76	0x3b9d1d6c	0.004794767
77	0x3d04cd11	0.03242213
78	0x3ca20e50	0.019782215
79	0x3dd1e3ed	0.102485515
80	0x3d6c7b21	0.057734612
81	0xbbb14aa0	-0.0054105073
82	0xbd8ac3a4	-0.06775597
83	0xbc8fb38d	-0.017541671
84	0x3e236656	0.15957007
85	0x3e1e3036	0.15448079
86	0xbd9b4bb0	-0.075827956
87	0xbe18d69b	-0.14925615
88	0x3d88ae77	0.066739015
89	0xbe953df8	-0.2914884
90	0x3c4454f1	0.011983142
91	0x3cc07b21	0.023496212
92	0xbe0d2d01	-0.13786699
93	0xbb3f5a59	-0.0029198139
94	0xbd807d34	-0.062738806
95	0xbc34e83e	-0.011041699
96	0xbdd5f795	-0.10447613
97	0xbe0076e4	-0.12545353
98	0x3ba30307	0.004974726
99	0x3e5040de	0.20337245
100	0x3e1eef8f	0.15521072
101	0x3cbd3097	0.023094459
102	0xbcce60f4	-0.025192715
103	0xbdb9caf2	-0.09071912
104	0xbe001dff	-0.12511443
105	0xbaed823d	-0.0018120479
106	0xbe1c0136	-0.15234837
107	0xbd3fba62	-0.046808608
108	0xbe27df01	-0.16393663
109	0x3e211e89	0.15734304
110	0xbcee455f	-0.029085813
111	0xbe2b74c8	-0.16743767
112	0xbd6da23c	-0.058016047
113	0x3cb620ca	0.022232432
114	0x3c15c773	0.009141791
115	0xbb602c2f	-0.0034206023
116	0xbd53a053	-0.05166657
117	0x3d053323	0.03251947
118	0x3e61c73d	0.2204866
119	0xbdbe464b	-0.09290751
120	0x3e9347f9	0.28765848
121	0x3e874296	0.2641799
122	0x3ce2c601	0.027682306
123	0x3e43665f	0.1908202
124	0xbc1c9ce0	-0.009558886
125	0xbdcde7c4	-0.100539714
126	0x3d65ca5e	0.056101196
127	0xbddc1435	-0.10746042
128	0x3dad8e99	0.08474464
129	0xbd50a826	-0.05094161
130	0xbe5fba2a	-0.2184836
131	0x3e58cfa7	0.21172963
132	0x3d231775	0.039817292
133	0x3e87b3f5	0.26504484
134	0x3da47203	0.080295585
135	0x3d82f1eb	0.063937984
136	0x3e55ec0c	0.20890826
137	0x3eb160f5	0.34644285
138	0xbdff5157	-0.12466686
139	0x3dd47b1b	0.10375043
140	0xbe3f8324	-0.1870237
141	0xbe5d964a	-0.21639362
142	0x3eb6c740	0.3569889
143	0xbe061bef	-0.13096593
144	0x3eb3786f	0.3505282
145	0xbe3255d6	-0.17415556
146	0xbe87bb70	-0.2651019
147	0x3e50296b	0.203283
148	0xbe8124a8	-0.2522328
149	0x3e002fc4	0.12518221
150	0x3e1d573b	0.15365307
151	0x3e814853	0.25250491
152	0x3e686935	0.22696383
153	0xbe9d9c03	-0.3078309
154	0x3d94c2a0	0.07263684
155	0x3e3cd22d	0.1843955
156	0xbe009ce3	-0.12559848
157	0x3e0e0e0e	0.13872549
158	0xbdc13fa3	-0.09435966
159	0xbdda6b73	-0.106650256
160	0xbe6f6b9e	-0.23380896
161	0xbbc73e22	-0.006080405
162	0xbd083367	-0.033252146
163	0xbde7400e	-0.11291514
164	0x3e1ffc38	0.15623558
165	0xbe146f63	-0.14495616
166	0xbdb2ecc4	-0.08736566
167	0xbe0077a5	-0.12545641
168	0x3e02089a	0.12698594
169	0xbd86e390	-0.06586373
170	0xbd48b995	-0.04900511
171	0xbe1368e4	-0.14395481
172	0x3e16bb18	0.14719808
173	0xbd00c67c	-0.03143929
174	0x3d9a0210	0.07519925
175	0xbe205c56	-0.15660223
176	0xbe4ceb04	-0.20011526
177	0x3d16645e	0.03671681
178	0xbcc93f11	-0.024566205
179	0xbea3c460	-0.3198576
180	0x3dfd4601	0.12366868
181	0x3ea2c403	0.3179017
182	0x3e3bbe3f	0.18334292
183	0x3e45035e	0.19239566
184	0xbe361033	-0.17779617
185	0x3da0271e	0.07819961
186	0xbd494955	-0.0491422
187	0x3e39a72f	0.18130182
188	0x3dc5953f	0.09647607
189	0xbe568fe2	-0.20953324
190	0xbddbe2e0	-0.10736632
191	0x3e28152b	0.16414325
192	0xbe2e9ee6	-0.17052802
193	0xbde4908c	-0.11160383
194	0x3c4b1343	0.012394729
195	0x3cdecc38	0.027196988
196	0xbe005cc6	-0.1253539
197	0x3d536594	0.051610544
198	0xbe893444	-0.26797688
199	0xbe34df58	-0.17663324
200	0xbed933a4	-0.4242221
201	0x3e96329b	0.29335484
202	0x3dc30f70	0.09524429
203	0x3e8456f3	0.25847587
204	0xbdb09b89	-0.08623416
205	0x3c0889e3	0.008333656
206	0xbd33b0f8	-0.043869942
207	0xbe2b737a	-0.1674327
208	0x3f034f1d	0.5129259
209	0x3e9b7d96	0.30369252
210	0xbd849788	-0.06474215
211	0xbdabc4b6	-0.08387129
212	0xbded4750	-0.115858674
213	0x3e8fe887	0.28107092
214	0xbb670b71	-0.0035254622
215	0x3cb2d170	0.021828383
216	0x3d45c18b	0.04828028
217	0x3e1a38ee	0.1506078
218	0x3e1aa3c2	0.15101531
219	0x3dd0f1d4	0.10202375
220	0x3e315d27	0.17320691
221	0x3dfbc1cb	0.122928225
222	0x3e0f6829	0.14004578
223	0x3e696b6b	0.22794883
224	0x3e5cacbc	0.21550268
225	0x3cd6c770	0.026218146
226	0xbd7a6f65	-0.06114139
227	0x3e19d790	0.15023637
228	0x3e31f572	0.17378786
229	0x3da7e7d8	0.081985176
230	0xbcc4a0ed	-0.024002517
231	0x3d0f4fd9	0.034988258
232	0xbc05d702	-0.008168938
233	0x3cd87b17	0.026425881
234	0xbc6fb980	-0.014631629
235	0xbeafcbd7	-0.34335205
236	0xbda37dd5	-0.07982985
237	0x3e0eb22b	0.13935153
238	0xbd2ee745	-0.042701025
239	0xbe20f8d9	-0.15719928
240	0xbdbce341	-0.09223033
241	0x3d69997c	0.05703114
242	0xbd2c12b1	-0.042010013
243	0x3c32b877	0.010908238
244	0xbc8c1e32	-0.017104242
245	0x3e78f85e	0.24313495
246	0x3d7c209f	0.061554547
247	0x3d36d959	0.044640873
248	0xbd83d53d	-0.06437156
249	0x3d8b1bc7	0.067924075
250	0xbe494c63	-0.19658045
251	0x3dff32b5	0.124608435
252	0xbe243929	-0.1603743
253	0x3e05a663	0.13051753
254	0x3ccb3b8e	0.024808671
255	0x3dbc4d43	0.09194424

network.6.bias f4 [64]
0	0xbe06254c	-0.13100165
1	0x3c950dae	0.018195
2	0xbbc4140a	-0.005983834
3	0xbd919482	-0.07108404
4	0xbdc3c5d3	-0.09559216
5	0xbe042f68	-0.12908709
6	0x3e761e3b	0.2403497
7	0x3d0fe4df	0.035130378
8	0x3dc6e79a	0.09712143
9	0x3b8b54be	0.0042520454
10	0x3e21ae72	0.15789202
11	0xbdea6586	-0.11445145
12	0xbdc43d46	-0.095819995
13	0xbd9a24b0	-0.07526529
14	0x3d8904fc	0.06690404
15	0x3e6ec529	0.23317398
16	0xbab53012	-0.001382353
17	0x3df953e8	0.12174207
18	0xbc65658d	-0.014001262
19	0xbe28ca9c	-0.1648354
20	0x3c12dd75	0.008963932
21	0xbe6466f1	-0.22304894
22	0xbcac8ca5	-0.021063158
23	0x3de9b18c	0.114108175
24	0x3bbaf218	0.0057051294
25	0xbe63d767	-0.22250138
26	0x3df66dd2	0.12032665
27	0xbd5b6d46	-0.05357101
28	0x3e436b62	0.19083932
29	0xbd819f1e	-0.06329177
30	0x3df2257a	0.11823554
31	0x3e112f46	0.1417819
32	0xbe554850	-0.20828366
33	0x3e101e64	0.14074093
34	0x3ca9c669	0.020724492
35	0x3c399afc	0.011328455
36	0xbd9bd09f	-0.07608151
37	0x3e3795a8	0.17928183
38	0xbe4f2f6e	-0.20232937
39	0xbdb8dd86	-0.09026627
40	0x3d8cb3a8	0.06870204
41	0x3ba0838f	0.0048984955
42	0x3d8797e9	0.066207714
43	0xbc4c91f2	-0.012485968
44	0xbe8ecb4c	-0.27889478
45	0x3da884f9	0.082284875
46	0x3df5ba01	0.11998368
47	0xbea77269	-0.32704476
48	0x3c9e0cbb	0.01929318
49	0xbe2c2383	-0.16810422
50	0x3d29607f	0.04135179
51	0xbc88f178	-0.016716704
52	0xbe0d655b	-0.13808195
53	0x3cc92800	0.024555206
54	0x3dfb1290	0.122594
55	0xbdb310da	-0.087434486
56	0xbc119bda	-0.008887256
57	0xbd2f7c57	-0.04284319
58	0xbd0d0feb	-0.03443901
59	0xbe144a7b	-0.14481537
60	0xbcbf3d64	-0.023344703
61	0x3c823626	0.01589496
62	0xbd371c6a	-0.044704832
63	0xbd8f3fc6	-0.06994586

network.8.weight f4 [64, 64]
0	0x3dc288f0	0.09498775
1	0x3d2b4f5c	0.04182373
2	0xbd2c6b4b	-0.04209451
3	0x3d8fd046	0.07022147
4	0xbe0ddabd	-0.13852973
5	0xbd15795e	-0.036492698
6	0x3dbaff34	0.091307074
7	0x3dbbf4ee	0.09177576
8	0x3cdcc88c	0.026951097
9	0xbe215bbf	-0.15757655
10	0xbe04abce	-0.12956163
11	0x3da78c9d	0.08181117
12	0xbe9a26f9	-0.3010786
13	0x3e0fc5c8	0.14040291
14	0x3e2a4893	0.16629247
15	0x3ddc0df5	0.107448496
16	0xbe17e5e6	-0.14833793
17	0xbe445f76	-0.1917704
18	0xbe99b6c1	-0.30022243
19	0xbbd2d549	-0.006434117
20	0xbacf4c96	-0.0015815671
21	0xbe5b9965	-0.21445234
22	0x3d2435d9	0.040090416
23	0xbda28371	-0.07935227
24	0xbd1b141b	-0.03786097
25	0xbd87bb46	-0.066275164
26	0x3e98b90f	0.29828689
27	0x3e6f7303	0.23383717
28	0xbe8a1bf9	-0.26974466
29	0xbe5c70e1	-0.21527435
30	0x3e02f2fc	0.12788004
31	0xbe7e58b4	-0.24838525
32	0xbc9f07d9	-0.019412922
33	0xbe373fff	-0.17895506
34	0xbcbee3a9	-0.023301916
35	0xbe13398f	-0.14377426
36	0xbe51ef80	-0.20501518
37	0xbe1dcdbb	-0.15410511
38	0x3d2d4ff3	0.042312574
39	0xbdf07815	-0.11741654
40	0xbe21844b	-0.15773122
41	0xbe37a576	-0.17934212
42	0x3e354174	0.1770075
43	0x3ce59b0a	0.02802803
44	0x3ac8764a	0.0015294042
45	0x3d2bca2e	0.04194086
46	0x3d01d21d	0.03169452
47	0xbdef6cc1	-0.11690665
48	0xbe0464b8	-0.12929046
49	0x3e80d8de	0.25165457
50	0xbe7448ee	-0.23855945
51	0x39092e9c	0.00013082701
52	0xbe560a62	-0.20902398
53	0x3d4a3cd2	0.04937441
54	0x3dfc4456	0.123177215
55	0x3e0c44d7	0.13698135
56	0x3dba227c	0.090886086
57	0xbe1f6f07	-0.15569697
58	0x3e8e5823	0.27801618
59	0xbdb6bab6	-0.08922331
60	0x3d996ee8	0.07491857
61	0x3e3f1a70	0.18662429
62	0x3de3936b	0.11112102
63	0x3d462887	0.048378494
64	0xbb190a5a	-0.0023352117
65	0xbe3d974f	-0.18514751
66	0x3e40a3df	0.18812512
67	0xbe8e3c63	-0.27780446
68	0x3d0653f4	0.032794908
69	0x3df8e789	0.12153537
70	0x3e170476	0.14747795
71	0x3ce6d452	0.028177414
72	0x3e84e07c	0.25952518
73	0x3e2e6d79	0.17033948
74	0xbc493068	-0.012279607
75	0xbe9a2815	-0.30108705
76	0x3d681456	0.05666002
77	0xbe4bf3f7	-0.19917284
78	0x3c820a63	0.015874093
79	0x3eab7eb5	0.33495107
80	0xbe168814	-0.14700347
81	0x3d036a28	0.03208366
82	0xbeab9eef	-0.33519694
83	0xbe270c50	-0.1631329
84	0xbc615183	-0.013752344
85	0x3e5e0575	0.21681769
86	0xbbbbd9b3	-0.005732739
87	0x3c6841cf	0.014175846
88	0xbe183208	-0.14862835
89	0xbdc6be4d	-0.09704266
90	0x3e32b700	0.17452621
91	0x3f147d6a	0.58003867
92	0xbd9d3895	-0.07676808
93	0x3e279e6e	0.1636903
94	0x3dd8112a	0.10550149
95	0x3d2cccf7	0.042187657
96	0x3d6dbfb5	0.058044154
97	0x3d66c825	0.056343216
98	0xbca85aea	-0.020551164
99	0x3cffe20a	0.031235714
100	0x3e0d7099	0.13812484
101	0x3e6e9587	0.23299228
102	0xbe7eb748	-0.24874604
103	0xbe8c3b1a	-0.2738884
104	0x3ccb6f31	0.024833294
105	0xbcb12efc	-0.02162885
106	0xbd9cd6cd	-0.076581575
107	0xbdce2abb	-0.10066744
108	0x3d021b81	0.03176451
109	0x3d2f3385	0.042773742
110	0xbc7dc430	-0.015488669
111	0xbe63fbea	-0.22264066
112	0xbe78cead	-0.2429759
113	0xbd05d0d0	-0.032669842
114	0x3b5149e4	0.0031934911
115	0x3d745bef	0.059657987
116	0x3d6fc8c2	0.058541067
117	0xbea1dd7b	-0.3161429
118	0xbe1f433c	-0.15552992
119	0xbe3f4e5a	-0.18682232
120	0xbd840480	-0.06446171
121	0x3e0da49e	0.13832328
122	0xbe0c76de	-0.13717219
123	0x3e4bfbef	0.19920324
124	0x3e0d5a4c	0.13803977
125	0x3e21ef1f	0.15813874
126	0xbd3a45f8	-0.045476884
127	0xbeffa3e6	-0.49929732
128	0xbe3065ea	-0.17226377
129	0xbe116136	-0.1419724
130	0x3e97b85a	0.29632837
131	0x3cd057b7	0.02543245
132	0x3e3608fb	0.17776863
133	0xbe8f2561	-0.27958205
134	0x3e0ea6e2	0.13930848
135	0xbe2f3f0b	-0.17113893
136	0x3e667c72	0.2250841
137	0xbe4792be	-0.19489571
138	0xbda40a48	-0.080097735
139	0xbd9a7dab	-0.075435005
140	0xbc7d3074	-0.015453447
141	0x3c8fcf8e	0.017555024
142	0xbdac6940	-0.08418512
143	0xbe49e6ee	-0.19716999
144	0x3c07af06	0.008281475
145	0x3d850701	0.064954765
146	0x3dc81622	0.097698465
147	0x3bb5ce78	0.0055482946
148	0xbd5396fb	-0.051657658
149	0xbdd8c63a	-0.10584684
150	0xbe50e656	-0.20400366
151	0x3df7f9a1	0.1210816
152	0x3e855032	0.26037747
153	0xbe505962	-0.20346597
154	0xbcc108e7	-0.023563815
155	0xbdaf0082	-0.08545019
156	0xbe7ed778	-0.24886882
157	0xbcd148d0	-0.025547415
158	0xbd8e2c8c	-0.069420904
159	0x3e9cfc93	0.3066145
160	0xbe23c083	-0.15991406
161	0x3dfae341	0.122503765
162	0xbe1b9adc	-0.15195793
163	0xbe683eae	-0.2268016
164	0x3da7cb30	0.08193052
165	0xbcc54edc	-0.024085455
166	0xb9d889cc	-0.00041301397
167	0xbe4adb1d	-0.19810148
168	0x3e096ac0	0.13419628
169	0xbda0292a	-0.078203514
170	0x3db034df	0.08603834
171	0xbdf3e2a0	-0.1190846
172	0x3e3d8cc2	0.18510726
173	0x3d239f71	0.039946977
174	0xbc302250	-0.010750368
175	0x3e071d96	0.1319488
176	0xbdf1eebb	-0.11813112
177	0x3d8c90e6	0.06863575
178	0x3d01c232	0.03167934
179	0x3cfa6810	0.030567199
180	0xbb84b670	-0.0040500686
181	0xbe5169ee	-0.20450565
182	0xbd7470ed	-0.059678007
183	0xbb0df4d8	-0.002166083
184	0x3ded37d1	0.11582912
185	0xbe39695c	-0.18106598
186	0xbc63574e	-0.0138757955
187	0xbc87c953	-0.016575491
188	0xbcf7ff88	-0.030273214
189	0xbe5d022d	-0.21582861
190	0x3cf65604	0.030070312
191	0x3948fd3a	0.0001916782
192	0x3dbc5563	0.09195974
193	0xbe5e1494	-0.21687537
194	0x3d82027d	0.06348131
195	0xbc7fbf5a	-0.015609587
196	0xbd24022d	-0.040041137
197	0x3df9f9eb	0.12205871
198	0x3e9d94cd	0.30777588
199	0xbb6ce0f8	-0.0036144834
200	0x3e0d42df	0.1379504
201	0xbe1f7138	-0.15570533
202	0x3e0ae828	0.13565123
203	0x3e214d1c	0.15752071
204	0xbe318de9	-0.1733929
205	0x3cc9609c	0.0245822
206	0x3df0c57a	0.11756416
207	0xbce65869	-0.02811833
208	0xbe33150b	-0.17488496
209	0x3e7a9464	0.24470669
210	0xbeb33e2b	-0.35008368
211	0xbdbd07f9	-0.09230036
212	0xbe134061	-0.14380027
213	0xbec6bfbe	-0.38818163
214	0xbdbbaeee	-0.091642246
215	0xbd654376	-0.05597254
216	0x3dbb836c	0.09155926
217	0xbe017ab0	-0.12644458
218	0x3dbad89d	0.09123347
219	0xbdb4af58	-0.08822507
220	0xbe5c8439	-0.21534814
221	0x3e440cb9	0.19145478
222	0x3e819563	0.25309286
223	0xbd10094f	-0.035165127
224	0xbe581e16	-0.21105227
225	0x3ea20184	0.3164178
226	0x3eae7fc5	0.34081855
227	0x3d6a1e62	0.05715788
228	0x3c86987c	0.016430132
229	0xbe83424a	-0.25636512
230	0x3e32b278	0.17450893
231	0xbe1274cb	-0.14302365
232	0xbdb1ca88	-0.08681208
233	0x3e6185a9	0.22023644
234	0x3d17f51a	0.03709898
235	0x3e107478	0.1410693
236	0x3d66b41f	0.05632412
237	0xbddf2fbf	-0.10897779
238	0x3d75ee56	0.060041748
239	0x3a84b2e1	0.0010124111
240	0x3e819d0d	0.25315133
241	0x3d578f0e	0.052626662
242	0x3c7b41a5	0.015335475
243	0xbe5e5ac1	-0.21714307
244	0x3e037117	0.12836109
245	0xbeff5992	-0.49873024
246	0x3ea9f3f6	0.3319394
247	0x3e8f0a9d	0.27937785
248	0x3eba8a1d	0.36433497
249	0xbc71ec5a	-0.014765823
250	0x3e285c4a	0.16441455
251	0xbe82e921	-0.25568488
252	0xbdeadcb9	-0.11467881
253	0x3e04d9ad	0.12973662
254	0xbe79f1e3	-0.24408679
255	0x3dad257f	0.084544174

network.8.bias f4 [64]
0	0xbd8f0f2a	-0.06985314
1	0x3d904322	0.070440546
2	0x3cae2e35	0.021262268
3	0x3c101b73	0.008795607
4	0xbe0ace15	-0.13555177
5	0xbdad5cb3	-0.084649466
6	0xbdf516c9	-0.119672365
7	0xba142876	-0.0005651781
8	0xbe055f05	-0.13024528
9	0xbd45ceaf	-0.048292812
10	0x3d95b08e	0.07309066
11	0xbd9e1eee	-0.07720743
12	0xbddc6be6	-0.107627675
13	0x3ca65ec1	0.020308854
14	0xba89c652	-0.0010511375
15	0xbd20c305	-0.039248485
16	0xbe76e69d	-0.2411141
17	0x3d2af5ce	0.041738324
18	0xbcf399ca	-0.029736418
19	0x3e12336f	0.14277433
20	0x3d7f8680	0.06238413
21	0x3c2313ca	0.009953449
22	0x3b3f0e3b	0.002915277
23	0xbdcd1749	-0.10014207
24	0x3e39a642	0.18129829
25	0xbc9ab3f5	-0.018884638
26	0x3cf0a461	0.029375257
27	0xbc8a656a	-0.016894061
28	0xbe14511d	-0.14484067
29	0xbc7bc1bc	-0.015366014
30	0xbd59d8db	-0.053185325
31	0xbdfb012e	-0.122560844
32	0xbcf40647	-0.02978815
33	0xbbf617bf	-0.007510155
34	0x3bf9c16c	0.0076219346
35	0xbe4b6fd7	-0.19866882
36	0x3e240d66	0.16020736
37	0x3d29008d	0.04126029
38	0xbdc2790b	-0.09495743
39	0xbdff59db	-0.124683104
40	0xbd46791e	-0.04845535
41	0xbd03a577	-0.03214022
42	0x3d55c2b7	0.052187648
43	0xbde36d90	-0.11104882
44	0xbd745f4a	-0.059661187
45	0xbdf36109	-0.11883742
46	0xbd240000	-0.040039062
47	0x3e55dcb8	0.20884979
48	0x3c4c4096	0.01246657
49	0xbdc38e2c	-0.095486015
50	0xbc1080a2	-0.008819731
51	0xbb382bce	-0.0028102282
52	0x3e789551	0.2427571
53	0x3d4f7558	0.050649017
54	0xbcfcd745	-0.030864367
55	0xbd9dc8c4	-0.07704309
56	0xbc8f3154	-0.017479576
57	0xbd0e115f	-0.034684535
58	0x3db0d5b5	0.086345114
59	0xbd30c172	-0.043153234
60	0x3bec9edc	0.007221086
61	0x3de952f2	0.11392774
62	0x3d54c083	0.051941406
63	0xbd0fa0c7	-0.03506544

network.10.weight f4 [5, 64]
0	0xbd133c92	-0.035946436
1	0x3cc65598	0.024210736
2	0xbd1762c5	-0.03695943
3	0xbe277e65	-0.1635681
4	0x3cbd3c10	0.02309993
5	0xbcd3c568	-0.025850967
6	0xbcd46b0a	-0.025929946
7	0x3e04bd42	0.12962821
8	0xbe263780	-0.16232109
9	0xbdb59332	-0.08865966
10	0xbd1bd0b4	-0.03804083
11	0xbd1b3f19	-0.03790197
12	0xbc309c7a	-0.010779494
13	0x3d501338	0.05079958
14	0xbbb6fbcc	-0.0055842157
15	0x3d0fd151	0.03511173
16	0xbe495994	-0.19663078
17	0xbe2a0b19	-0.16605796
18	0xbd46ace1	-0.048504714
19	0xbef80e8e	-0.48448604
20	0x3d47e166	0.04879894
21	0xbdccb2e9	-0.09995062
22	0xbca347b8	-0.01993166
23	0x3cea9fa6	0.02864058
24	0x3d40649e	0.046970956
25	0x3d70936f	0.058734354
26	0xbcf53ed3	-0.029937183
27	0xbd59be34	-0.053159907
28	0xbe3a09c5	-0.1816779
29	0xbda61c0f	-0.081108205
30	0xbd8c664d	-0.0685545
31	0xbdb1dcc7	-0.08684688
32	0x3c564247	0.013077325
33	0xbd2a68a4	-0.0416037
34	0x3cf92052	0.03041092
35	0xbec2348a	-0.3793071
36	0xbe83a2c4	-0.25710118
37	0x3c8e0a49	0.017338889
38	0xbca052b3	-0.019570684
39	0xbcebf8f1	-0.028805228
40	0xbef2079e	-0.47271436
41	0xbdb457a0	-0.08805776
42	0x3e0bb8df	0.13644741
43	0xbce9ead4	-0.028554358
44	0xbdd3c333	-0.10339966
45	0xbe6aeba7	-0.22941457
46	0xb9c11939	-0.0003683062
47	0x3f36d5ee	0.7142018
48	0x3d200be4	0.03907384
49	0x3c4e8dbd	0.012607035
50	0x3e19da13	0.15024595
51	0xbc5faca9	-0.013652005
52	0x3e2b078f	0.16702102
53	0xbc99f843	-0.018795138
54	0x3ca56777	0.020190937
55	0x3c88c1fe	0.016694065
56	0xbe383483	-0.17988782
57	0xbc1b3662	-0.009473415
58	0x3d86f200	0.065891266
59	0x3d50961a	0.050924398
60	0x3d5252a1	0.051348332
61	0x3cd8121d	0.026375825
62	0x3a4ac52f	0.0007735071
63	0x3a789bf4	0.0009483688
64	0x3d13188c	0.03591208
65	0x3c9e7d30	0.019346803
66	0xbdbeda95	-0.09319035
67	0x3de44732	0.11146392
68	0xbcb3091c	-0.02185493
69	0xbca3e4df	-0.020006595
70	0xbcbe5313	-0.023232972
71	0x3d6b7624	0.057485715
72	0xbdb2abdc	-0.08724186
73	0x3ceede68	0.029158786
74	0x3d0f5936	0.034997188
75	0x3d5f8357	0.054568615
76	0xbdb9f73f	-0.090803616
77	0xbd0e594b	-0.034753125
78	0x3c699e0a	0.014258871
79	0xbb6fd4b9	-0.0036595298
80	0x3e0bbf6c	0.1364724
81	0xbe088399	-0.1333145
82	0xbc56d1e5	-0.013111566
83	0xbd830e71	-0.06399239
84	0x3ce88340	0.028382897
85	0xbd1995df	-0.037496444
86	0x3d304e9f	0.04304373
87	0x3d94098d	0.07228384
88	0xbde5ab4c	-0.11214313
89	0xbe161a90	-0.1465857
90	0xbd10516d	-0.035233904
91	0xbd59dd67	-0.05318966
92	0x3ca0c7e9	0.019626575
93	0xbda25006	-0.079254195
94	0xbc3a3972	-0.011366235
95	0xbd2eda84	-0.04268886
96	0x3b010af1	0.001969036
97	0xbcd38605	-0.025820741
98	0xbd71fec2	-0.059080847
99	0xbe0483d7	-0.12940918
100	0xbebd6be2	-0.3699637
101	0xbb9e571d	-0.004832162
102	0xbd03b4c7	-0.032154825
103	0x3dfd1358	0.12357205
104	0xbe28032b	-0.16407458
105	0x3d41929d	0.047258962
106	0x3da1f3cb	0.07907828
107	0xbdab12fe	-0.08353232
108	0xbddfd270	-0.1092881
109	0x3e166be5	0.14689596
110	0xbbecdd94	-0.0072285626
111	0xbd579880	-0.05263567
112	0x3c0aad3f	0.008464157
113	0xbec4a50c	-0.3840717
114	0x3c8a7f0c	0.016906284
115	0x3d8d4193	0.06897273
116	0x3cbfe222	0.023423258
117	0x3cd3fe83	0.025878197
118	0xbce23d34	-0.027617075
119	0xbc0ba4c0	-0.008523166
120	0xbce6d769	-0.028178887
121	0x3e25308c	0.161318
122	0xbb9ee912	-0.0048495615
123	0x3a4a8013	0.0007724773
124	0x38b1d1a2	8.479065e-05
125	0xbc991007	-0.0186844
126	0x3c152cf9	0.009104961
127	0xbb243cd7	-0.0025060677
128	0xbec9a8ee	-0.39386696
129	0x3f0870e0	0.53297234
130	0xbe1c2409	-0.15248121
131	0xbe31713a	-0.17328349
132	0x3dfcafb3	0.123381995
133	0xbf59d22c	-0.8508632
134	0x3c95f8d2	0.018307123
135	0x3d03c723	0.032172333
136	0x3e160400	0.14649963
137	0x3e9b11d6	0.30287045
138	0x3ec0dd37	0.37668774
139	0x3efc3b3d	0.49263945
140	0x3df45739	0.11930699
141	0xbdb18285	-0.08667473
142	0x3c60642a	0.013695756
143	0x3deeb53b	0.11655661
144	0xbf1ccb9b	-0.6124818
145	0x3e35293b	0.1769151
146	0xbd0018dc	-0.031273708
147	0x3eada2f5	0.3391339
148	0x3f29a246	0.66263235
149	0xbe6f8ea6	-0.2339426
150	0xbf069a0e	-0.5257882
151	0x3e9bf4c2	0.30460173
152	0x3e5c0dbe	0.21489617
153	0xbf01f0d0	-0.50758076
154	0xbdd993a2	-0.10623862
155	0xbe82481c	-0.2544564
156	0x3ed54d56	0.41660565
157	0xbf01e1ac	-0.5073497
158	0x3f064590	0.52449894
159	0xbf001623	-0.5003378
160	0xbe0e6f60	-0.13909674
161	0x3f8e2b41	1.110695
162	0xbdc954a8	-0.098306
163	0xbe55239f	-0.2081437
164	0x3e00f39f	0.12592934
165	0xbe3c097e	-0.18362996
166	0x3e91939c	0.2843293
167	0x3df3a1d6	0.11896102
168	0xbd44fb8d	-0.04809146
169	0x3ec8184d	0.3908104
170	0x3ee33b49	0.44381168
171	0x3f136213	0.57571524
172	0xbd1da4e3	-0.038487326
173	0xbe1dd0b5	-0.15411647
174	0x3ee0b8f2	0.43891102
175	0x3e1e044b	0.15431325
176	0x3e06ec8c	0.13176173
177	0x3dbff884	0.093735725
178	0xbe215bde	-0.15757701
179	0x3e6e1ab6	0.23252377
180	0x3e9f25f0	0.31083632
181	0x3f6a22a4	0.9145911
182	0xbfbf682a	-1.4953663
183	0x3f019e0f	0.50631803
184	0xbeb0bd26	-0.3451931
185	0xbeccfdcc	-0.40037382
186	0x3ed62356	0.41823834
187	0x3f200e6a	0.62521994
188	0x3e3876ab	0.18014018
189	0xbf47d59e	-0.7806033
190	0x3ea77b88	0.32711434
191	0x3fa69024	1.3012738
192	0x3e2d719c	0.1693787
193	0x3e8edbb8	0.27902007
194	0xbd5b7ca6	-0.05358567
195	0xbf316442	-0.69293606
196	0xbf67026c	-0.9023807
197	0xbdd70580	-0.10499096
198	0xbf110568	-0.56648874
199	0x3dd80af8	0.10548967
200	0x3ecde90c	0.40216863
201	0xbe1385a8	-0.14406455
202	0x3e8f2f35	0.27965704
203	0x3e618dba	0.2202672
204	0xbf0d83e8	-0.552794
205	0xbe73e82a	-0.23819032
206	0x3cf163c6	0.029466521
207	0xbd2424dc	-0.040074214
208	0xbe8535ca	-0.260176
209	0xbf2d4c5b	-0.67694634
210	0x3d94489c	0.07240412
211	0x3e113178	0.14179027
212	0xbd483dcc	-0.04888706
213	0xbdc998c2	-0.09843589
214	0x3bf41963	0.0074493154
215	0x3e1128cf	0.14175723
216	0x3e3bcbf9	0.18339528
217	0x3f27493e	0.65346134
218	0x3e00f8a0	0.12594843
219	0x3c9f796f	0.019467084
220	0xbe82818a	-0.25489455
221	0x3cd38260	0.025819004
222	0xbd15ccf8	-0.036572427
223	0x3ea38f6d	0.31945363
224	0x3ed93d83	0.42429742
225	0x3dc5aed2	0.09652485
226	0x3e832c8d	0.25619927
227	0xbd9debdd	-0.07711003
228	0x3e618da6	0.22026691
229	0x3ed6dc3f	0.4196491
230	0xbf2872f8	-0.6580043
231	0x3f2ad7f1	0.6673575
232	0xbd7356d9	-0.059408996
233	0x3e948dda	0.29014474
234	0xbe92f278	-0.28700614
235	0xbdf055d3	-0.1173512
236	0xbe60dbfe	-0.2195892
237	0xbe2da26d	-0.16956492
238	0xbf3d7a94	-0.74015164
239	0xbdb035b5	-0.08603994
240	0x3ad7f3de	0.0016475876
241	0xbe1224cd	-0.14271851
242	0xbd1a2bf4	-0.037639573
243	0xbd60bf84	-0.054870144
244	0x3d582a20	0.05277455
245	0x3e8e2698	0.2776382
246	0xbdaff9be	-0.085925564
247	0x3f241fa0	0.64110756
248	0x3ea403c6	0.3203413
249	0x3c516233	0.01277976
250	0xbe07a2c8	-0.1324569
251	0xbf72580f	-0.94665617
252	0xbd1f50f7	-0.038895573
253	0x3d611547	0.054951932
254	0xbe335eea	-0.17516676
255	0xbc635734	-0.013875771

network.10.bias f4 [5]
0	0x3f1bd6e0	0.6087475
1	0x3e818bb7	0.25301906
2	0x3dd9c0c8	0.10632473
3	0x3e267506	0.16255578
4	0x3e8df52a	0.27726108
