Extra/Transfer/models/train/hole_r10_only_lbfgs.pth (torch, 73394 bytes, 12 tensors)

network.0.weight f4 [64, 2]
0	0xbd10a6dc	-0.03531538
1	0x3ef9afc4	0.4876691
2	0xbeddb5dc	-0.4330281
3	0x3d41c86f	0.04731029
4	0x3ea594ea	0.32340175
5	0xbdbfd857	-0.093674354
6	0x3e940f52	0.28917938
7	0xbe786bd8	-0.24259889
8	0x3ee5f243	0.44911394
9	0xbe3a4ada	-0.18192616
10	0x3ec4b71f	0.3842096
11	0xbdcfdbbe	-0.10149334
12	0xbf318278	-0.69339705
13	0x3ee0b862	0.43890673
14	0x3e758f06	0.2398034
15	0xbef711fa	-0.48255903
16	0xbdc922e9	-0.09821112
17	0xbe6c8665	-0.23098142
18	0xbf163568	-0.5867524
19	0xbe9beb0b	-0.3045276
20	0xbef27276	-0.47352952
21	0xbeb7e0b0	-0.3591361
22	0xbf50c6f1	-0.8155356
23	0x3f2c7bfa	0.67376673
24	0xbf291e7a	-0.6606213
25	0xbf1e7dbd	-0.6191061
26	0x3db00901	0.08595467
27	0x3f0f8641	0.5606423
28	0xbe590392	-0.21192768
29	0xbeb4731c	-0.3524407
30	0xbf18ae6f	-0.59641165
31	0xbe8af1d7	-0.27137634
32	0x3ec1f0ec	0.3787912
33	0x3dace1ef	0.08441531
34	0xbeabdf1e	-0.33568662
35	0xbf297565	-0.66194755
36	0x3e285524	0.16438729
37	0xbe97845b	-0.29593167
38	0x3e826a14	0.25471556
39	0x3e7656ba	0.24056521
40	0x3cdbb0e8	0.026817754
41	0xbf1aea15	-0.6051343
42	0xbf4c2900	-0.7975006
43	0x3f48b9e2	0.78408635
44	0x3f06f952	0.5272418
45	0x3ef21f27	0.47289392
46	0x3ebe53db	0.37173352
47	0xbed78c8f	-0.42099425
48	0x3f24a945	0.64320785
49	0x3e98063d	0.2969226
50	0xbef1c282	-0.4721871
51	0x3ec95275	0.39320722
52	0x3e9e0b18	0.3086784
53	0xbe9ca4d7	-0.30594513
54	0xbf0b56b3	-0.5442917
55	0x3f003159	0.500753
56	0xbef8d763	-0.48601827
57	0xbec67de0	-0.3876791
58	0xbec7bc7e	-0.39010996
59	0xbe83748a	-0.2567485
60	0xbebe4e8f	-0.3716931
61	0x3ea3e17d	0.3200797
62	0xbeaaf146	-0.33387202
63	0xbec4ea6e	-0.38460106
64	0xbe799438	-0.24372947
65	0xbe8d259a	-0.2756775
66	0xbefe9070	-0.49719572
67	0xbd92b552	-0.0716349
68	0xbebb500e	-0.36584514
69	0x3f567f43	0.83787936
70	0xbeb63793	-0.35589275
71	0x3e33c168	0.17554247
72	0x3e5cb066	0.21551666
73	0xbedb255c	-0.4280194
74	0xbe4cbf88	-0.19994938
75	0x3ec4fc52	0.38473755
76	0x3eaf3f68	0.34228063
77	0xbecdaedb	-0.40172467
78	0x3e9de008	0.30834985
79	0x3e36fe25	0.17870386
80	0xbe883165	-0.26600185
81	0xbd92c2f7	-0.07166093
82	0x3ef3f49d	0.47647563
83	0xbf1de8da	-0.6168343
84	0xbe9834cf	-0.2972779
85	0x3e0d90f5	0.13824828
86	0xbe840582	-0.25785452
87	0xbf26c958	-0.65150976
88	0x3cb4036d	0.02197429
89	0xbf0428ea	-0.5162493
90	0xbe8584ec	-0.26077974
91	0x3e816f2b	0.25280127
92	0xbf404eee	-0.7512044
93	0x3f612f27	0.87962574
94	0x3de429ba	0.11140771
95	0x3eb36da9	0.35044602
96	0x3da53ead	0.08068595
97	0x3e9629ba	0.2932871
98	0xbdb134c1	-0.0865264
99	0x3ee4fff0	0.44726515
100	0xbea9e981	-0.33185962
101	0x3d8c313f	0.068453304
102	0xbd9fc5c8	-0.07801396
103	0xbc18a9b8	-0.009317808
104	0xbe8cf2ae	-0.275289
105	0x3ecec0bc	0.4038142
106	0x3e548aad	0.20756026
107	0x3ed7e713	0.42168483
108	0x3eb716ce	0.35759586
109	0xbec1e6a7	-0.37871286
110	0xbeab8f3f	-0.33507726
111	0x3e03a79a	0.12856904
112	0x3ddda83c	0.10823104
113	0x3e9730a9	0.29529312
114	0x3eb82298	0.35963893
115	0x3d332051	0.04373199
116	0xbeeed1ef	-0.46644542
117	0x3de1fced	0.1103457
118	0x3e46e307	0.19422542
119	0x3d4223f8	0.047397584
120	0xbda8e2a8	-0.08246356
121	0x3eab592c	0.3346647
122	0x3f467e35	0.77536327
123	0x3eca3b96	0.39498585
124	0xbd9777d7	-0.073959045
125	0xbc9b3525	-0.01894624
126	0x3e68d3df	0.22737072
127	0x3eb218e1	0.34784606

network.0.bias f4 [64]
0	0xbbe138a0	-0.0068732053
1	0x3ede38db	0.43402752
2	0xbea7e61d	-0.3279275
3	0x3e0a12b7	0.13483702
4	0xbf30c781	-0.6905442
5	0xbd3650bc	-0.044510588
6	0x3efb6d61	0.49106887
7	0x3dd1b331	0.10239256
8	0x3ea029a1	0.3128176
9	0x3f160b82	0.5861131
10	0x3f0899f0	0.5335989
11	0x3ec036cc	0.37541807
12	0x3f369e53	0.71335334
13	0xbdf2057e	-0.11817454
14	0x3e680cd4	0.22661144
15	0x3f222bdd	0.6334818
16	0xbe84a355	-0.25905862
17	0x3eafd790	0.3434415
18	0x3e600ec9	0.2188064
19	0xbe9d80fd	-0.30762473
20	0x3e825263	0.2545348
21	0x3e92379d	0.28558055
22	0xbf28adf9	-0.6589046
23	0xbd59f81b	-0.053215127
24	0xbf1b999e	-0.60781276
25	0x3f224e74	0.6340096
26	0xbe4683d3	-0.19386224
27	0xbdf54a2d	-0.119770385
28	0x3f41fd54	0.75777173
29	0x3ef14051	0.47119382
30	0x3eb3853c	0.35062587
31	0x3ee4452e	0.4458403
32	0x3ea01dba	0.3127268
33	0x3ef83098	0.48474574
34	0xbe8ee2fc	-0.2790755
35	0x3e500c54	0.20317203
36	0xbe4bdad2	-0.19907692
37	0x3c0d0c12	0.008608835
38	0xbe677edd	-0.22606988
39	0xbe340c1b	-0.17582743
40	0x3e65e8c9	0.22452082
41	0x3db0568b	0.08610257
42	0xbd7a7987	-0.061151054
43	0x3ec65d88	0.38743234
44	0x3eacf7df	0.3378286
45	0x3cfa7ed4	0.030578054
46	0x3cff89aa	0.031193573
47	0xbda5cff6	-0.08096306
48	0xbdc23b7f	-0.09484004
49	0xbb8155f7	-0.0039470154
50	0x3e807dd3	0.25095996
51	0xbcffa18f	-0.031204967
52	0x3d54ee31	0.05198497
53	0xbe1d573c	-0.15365309
54	0xbeaaf1db	-0.33387646
55	0x3edcb49b	0.4310654
56	0xbe3cc0ae	-0.18432876
57	0xbe8c201b	-0.27368245
58	0x3f0cfd99	0.5507446
59	0x3e32b275	0.17450888
60	0x3e439116	0.19098315
61	0xbf6bfc52	-0.92181885
62	0x3c5656e1	0.013082237
63	0xbee5ff42	-0.4492131

network.2.weight f4 [64, 64]
0	0x3d3ca589	0.046056304
1	0xbd5fe673	-0.054663133
2	0x3e112865	0.14175566
3	0x3e4c9509	0.19978727
4	0x3e8068a1	0.25079826
5	0xbdf33c0e	-0.11876689
6	0xbe2c009d	-0.16797109
7	0x3d9d7eac	0.07690176
8	0xbe6f7995	-0.23386224
9	0x3d9a3a3b	0.07530638
10	0xbead59b6	-0.33857507
11	0xbe2047c8	-0.15652382
12	0xbe0e0661	-0.13869621
13	0xbdb79277	-0.08963483
14	0xbdf0f4b1	-0.11765421
15	0xbe8b4319	-0.2719963
16	0x3e0a6a45	0.13517101
17	0xbe161d8d	-0.1465971
18	0xbe1d4478	-0.1535815
19	0x3df251f4	0.118320376
20	0x3dcf75c4	0.10129884
21	0xbd1e14fb	-0.038594227
22	0x3e4652e3	0.19367556
23	0xbe1d97b0	-0.15389895
24	0xbd4ef129	-0.050522957
25	0xbe0c72d9	-0.13715686
26	0xbdb589de	-0.08864187
27	0xbe526546	-0.20546445
28	0xbe1cb41b	-0.1530308
29	0xbe06487a	-0.13113585
30	0x3d775de4	0.060392275
31	0xbe749ae6	-0.23887214
32	0xbde44809	-0.11146552
33	0x3ddc08d7	0.107438736
34	0xbc07ee1c	-0.008296516
35	0xbe3ac9b9	-0.18241014
36	0xbe32d170	-0.17462707
37	0xbdb4f4ab	-0.08835729
38	0x3e158d1f	0.14604615
39	0xbdfe1b86	-0.124075934
40	0xbe488e9b	-0.1958565
41	0x3dd11987	0.10209947
42	0xbe2602cd	-0.16212006
43	0xbdbeb030	-0.09310949
44	0xbc861eca	-0.016372103
45	0xbe583834	-0.2111519
46	0x3db80430	0.08985174
47	0x3e114c86	0.14189348
48	0xbe029375	-0.12751563
49	0x3d6de08c	0.058075473
50	0x3dcbe72d	0.09956203
51	0x3d8890ba	0.066682294
52	0x3e17804a	0.14795032
53	0xbd964450	-0.07337248
54	0x3e6da4ef	0.23207448
55	0xbbdd8c61	-0.0067611192
56	0xbd86bd4c	-0.06579074
57	0x3e20835b	0.15675108
58	0xbe4adc55	-0.19810612
59	0x3d0ecdc3	0.0348642
60	0x3e07ac02	0.1324921
61	0x3e8ada76	0.27119797
62	0x3d81dab9	0.06340546
63	0x3e27385b	0.16330092
64	0x3cf6b4af	0.030115454
65	0xbdef430e	-0.116827115
66	0x3e6276ae	0.22115585
67	0x3e1a1d2f	0.15050195
68	0x3e6ea950	0.23306775
69	0xbd87f3c0	-0.066382885
70	0xbd9890e8	-0.07449514
71	0xbd98648c	-0.07441053
72	0xbe345adc	-0.17612785
73	0xbd46aa95	-0.048502523
74	0xbe0222bd	-0.12708564
75	0xbe06b144	-0.13153559
76	0xbdb52047	-0.08844047
77	0xbda6f185	-0.08151535
78	0xbe0155b0	-0.12630343
79	0x3d3da3fb	0.046298962
80	0x3da14e2e	0.0787624
81	0xbbe2c723	-0.0069207116
82	0xbe27d7d8	-0.16390932
83	0xbda30c0c	-0.07961282
84	0x3db2e515	0.087351
85	0x3e38b4d2	0.18037727
86	0x3c7d35b5	0.015454699
87	0x3cbe3563	0.023218816
88	0xbdd875dd	-0.10569356
89	0xbd196bbc	-0.03745626
90	0xbd58b302	-0.05290509
91	0x3e02b3e8	0.12763941
92	0xbd87fb6f	-0.06639754
93	0x3e1fdc57	0.15611397
94	0xbe6536ba	-0.22384158
95	0x3d3f1af2	0.046656556
96	0x3e45c3f9	0.19313039
97	0x3dbb9cec	0.0916079
98	0x3d943b6f	0.072378986
99	0xbe34c511	-0.176533
100	0x3e6b582a	0.2298285
101	0x3e11ddac	0.14244717
102	0x3e182a13	0.148598
103	0x3d09bcfa	0.033627488
104	0x3de2d420	0.11075616
105	0x3dea7e74	0.114499
106	0x3e4377fc	0.19088739
107	0xbd929d21	-0.07158876
108	0x3e3dba3b	0.18528073
109	0xbe3e85bd	-0.18605705
110	0xbe58f05d	-0.21185441
111	0x3e3f9fc2	0.18713287
112	0xbe2bf831	-0.16793896
113	0xbdfb1c2c	-0.12261233
114	0xbe4bb0ae	-0.19891617
115	0x3d0ff30f	0.035143908
116	0xbd7ecd57	-0.062207546
117	0xbbee8960	-0.00727956
118	0x3d35d28f	0.044390257
119	0x3d750f73	0.059829187
120	0x3e497782	0.19674495
121	0xbd24b203	-0.040208828
122	0xbe19f874	-0.15036184
123	0xbe21f036	-0.1581429
124	0xbe11af63	-0.14227061
125	0x3e33bdea	0.17552915
126	0xbe18105b	-0.14849989
127	0xbe0971ef	-0.13422368
128	0xbd52182a	-0.051292576
129	0x3df4df29	0.11956627
130	0xbdc33be2	-0.09532906
131	0x3dcad444	0.09903768
132	0xbe3ba27c	-0.18323702
133	0xbd6895f7	-0.056783643
134	0xbdbe232c	-0.09284052
135	0x3db83deb	0.08996185
136	0x3c4a766c	0.012357336
137	0x3dbaabb9	0.09114785
138	0x3e25dac4	0.16196734
139	0x3e23c797	0.15994106
140	0x3e5de30b	0.21668641
141	0x3b51e655	0.0032028158
142	0x3e0190d7	0.12652908
143	0x3e401d44	0.18761164
144	0xbe2caefc	-0.16863626
145	0xbcb70acb	-0.022344014
146	0xbd556220	-0.052095532
147	0x3d89f497	0.06736105
148	0xbdfb432c	-0.122686714
149	0x3e688c6f	0.22709821
150	0xbd10b9d9	-0.035333488
151	0x3e184aec	0.1487233
152	0xbe512988	-0.20425999
153	0x3cda5637	0.026652439
154	0xbe643127	-0.22284375
155	0xbcfeb157	-0.031090422
156	0x3e819335	0.25307623
157	0x3e58db8e	0.21177503
158	0xbdb81dd8	-0.08990067
159	0xbe2135a9	-0.15743126
160	0x3d132485	0.0359235
161	0x3c0743c7	0.0082559055
162	0xbd1b1d55	-0.03786977
163	0x3c8b0671	0.016970845
164	0x3e2f3072	0.17108324
165	0xbc6bdcbf	-0.014395892
166	0x3dce6366	0.100775525
167	0x3d2d5d3a	0.042325236
168	0xbd1087ec	-0.035285875
169	0x3dc47a6c	0.095936626
170	0xbd2f0d5d	-0.042737354
171	0x3c526773	0.012842047
172	0xbe18b555	-0.14912923
173	0xbe41fc56	-0.18943915
174	0x3e4ca2b3	0.1998394
175	0xbe43478c	-0.19070262
176	0x3e4891e2	0.195869
177	0xbd885a89	-0.06657893
178	0xbd615c4e	-0.05501967
179	0x3e3f44a1	0.18678524
180	0xbd467ef3	-0.048460912
181	0xbc9a22d3	-0.018815434
182	0x3e00177a	0.12508956
183	0xbdab42bc	-0.08362338
184	0xbc951cc7	-0.018202199
185	0xba3433d6	-0.0006874179
186	0xbe3a0c03	-0.18168645
187	0x3d87a824	0.06623867
188	0x3bf2ff20	0.007415667
189	0x3de95852	0.11393799
190	0x3d50b317	0.050952043
191	0xbe2ce886	-0.16885576
192	0xbdde9542	-0.108683124
193	0x3e1d0fb8	0.15338027
194	0x3e370c80	0.17875862
195	0xbe1c59b8	-0.152686
196	0x3e79b787	0.24386416
197	0xbe83de39	-0.2575548
198	0xbd19f58a	-0.03758768
199	0x3e4ff853	0.20309572
200	0xbd4a11b4	-0.04933329
201	0x3cacd513	0.021097695
202	0xbe23b36b	-0.15986411
203	0xbe14a023	-0.14514212
204	0x3e47a13f	0.19495104
205	0x3d442e1b	0.047895532
206	0x3d58e311	0.052950922
207	0xbe0e051e	-0.1386914
208	0xbd4e58b9	-0.05037758
209	0xbdeb1bc5	-0.11479906
210	0x3d8b5a83	0.06804373
211	0x3e4fab95	0.20280297
212	0x3e74cd35	0.23906405
213	0xbd4b8ac1	-0.049692873
214	0xbddee320	-0.108831644
215	0xbd632164	-0.055451766
216	0x3b812f58	0.0039424114
217	0xbd1712cb	-0.036883157
218	0x3daa9fd1	0.08331264
219	0x3e00b908	0.12570584
220	0x3e0476e2	0.12935975
221	0xbd27a5f6	-0.040929757
222	0xbcc1c83b	-0.023655048
223	0x3dacfbfd	0.084465005
224	0xbe308b7f	-0.17240714
225	0x3db25286	0.08707146
226	0xbe48d7e8	-0.19613612
227	0x3c9570d5	0.018242279
228	0x3e67be24	0.22631127
229	0xbe3c1c33	-0.18370132
230	0x3e4c06ef	0.1992452
231	0x3e26dbc8	0.16294777
232	0x3e10e4bc	0.14149755
233	0xbe59cbad	-0.21269102
234	0xbc426f0e	-0.011867298
235	0xbda70182	-0.081545845
236	0x3e41bce3	0.18919711
237	0xbd97b2d8	-0.074071586
238	0xbccf93a6	-0.025338959
239	0xbe2fbe32	-0.17162398
240	0xbd8fd25c	-0.07022545
241	0xbe22fd96	-0.15917048
242	0x3e04136f	0.12898038
243	0xbe004522	-0.12526372
244	0x3e11a8e7	0.14224587
245	0x3d3021dc	0.04300104
246	0xbd931fbe	-0.07183789
247	0xbe346f29	-0.17620529
248	0x3ca2d769	0.019878106
249	0x3cefb879	0.029262768
250	0xbe4b28a2	-0.19839719
251	0xbe244550	-0.16042066
252	0xbe86b5b8	-0.26310515
253	0xbe84d107	-0.25940725
254	0xbd24a052	-0.040191956
255	0x3dcd5e39	0.10027737

network.2.bias f4 [64]
0	0xbe9b01e2	-0.30274874
1	0xbe7d0327	-0.24708234
2	0xbbb738a9	-0.005591471
3	0xbe8b05c1	-0.27152827
4	0xbdfa521d	-0.12222693
5	0x3eb1d047	0.34729216
6	0x3c34a763	0.011026236
7	0xbd9b3bed	-0.07579789
8	0x3d90bafa	0.07066913
9	0xbd82ef42	-0.06393291
10	0xbe83b4e2	-0.2572394
11	0x3e09deb8	0.13463867
12	0x3d077152	0.033067055
13	0x3e59dc29	0.2127539
14	0x3e2fc55c	0.1716513
15	0xbec16c1d	-0.37777796
16	0x3be75114	0.007059226
17	0xbb7d62da	-0.0038663656
18	0xbd454704	-0.04816343
19	0x3d346591	0.044042174
20	0xbcd059e1	-0.025433483
21	0xbccdad70	-0.025107116
22	0xbdec2dd5	-0.11532179
23	0xbf234908	-0.6378331
24	0x3e17c22c	0.14820164
25	0xbd8fcb46	-0.07021193
26	0xbccbdaef	-0.02488467
27	0xbd8cf12c	-0.068819374
28	0xbd5a3fed	-0.05328362
29	0x3d08b11a	0.033372022
30	0xbe116b27	-0.14201032
31	0x3ebf7288	0.37392068
32	0x3e1bcc36	0.15214619
33	0xbf152759	-0.58263165
34	0xbe2a3b54	-0.16624194
35	0xbde1ce2a	-0.11025651
36	0x3c43d973	0.011953699
37	0x3c392294	0.011299748
38	0xbe8a5134	-0.27015078
39	0x3b7c2a71	0.0038477445
40	0x3cf130dc	0.029442243
41	0xbc65d971	-0.014028893
42	0xbd9bb83c	-0.07603499
43	0xbe9e7937	-0.30951855
44	0xbe66fff1	-0.22558571
45	0x3e462d0d	0.19353123
46	0xbc67d810	-0.014150634
47	0x3b7b9064	0.0038385624
48	0xbde0d515	-0.10978142
49	0x3e803907	0.25043508
50	0xbea11f3e	-0.31469148
51	0x3d7c61b4	0.061616614
52	0xbe01eb29	-0.12687363
53	0x3d5d44cb	0.054020684
54	0xbe6edbec	-0.23326081
55	0x3d87d164	0.06631735
56	0xbdf5c8bc	-0.12001178
57	0x3e67c51b	0.22633784
58	0xbd9d6727	-0.076856904
59	0xbe5a7bf0	-0.21336341
60	0x3d8e261a	0.06940861
61	0x3eb22cba	0.3479975
62	0x3e1a7867	0.15084992
63	0xbe3c15ea	-0.18367735

network.4.weight f4 [64, 64]
0	0xbe4627ab	-0.1935107
1	0x3decfff2	0.11572255
2	0xbc6bad77	-0.014384619
3	0x3e44666e	0.19179699
4	0xbdb1ac54	-0.08675447
5	0x3e92f707	0.28704092
6	0x3e4a3ccc	0.19749755
7	0xbe300fce	-0.17193529
8	0x3d8f41d6	0.06994979
9	0xbe2332f5	-0.15937407
10	0x3e0cba7e	0.13743016
11	0x3e49e5ae	0.19716522
12	0x3e00f7af	0.12594484
13	0x3d251d80	0.040311337
14	0x3e3e47b7	0.18582045
15	0x3cef3a53	0.029202616
16	0x3c82fa8a	0.015988607
17	0x3d375a4f	0.04476386
18	0x3df80603	0.12110522
19	0xbd56dae1	-0.052454833
20	0xbe114eb7	-0.14190184
21	0x3e0c30f7	0.13690554
22	0xbe8e0725	-0.27739826
23	0xbe6287e0	-0.22122145
24	0x3da3e79a	0.08003159
25	0xbd022dc3	-0.031781923
26	0xbcf3eab8	-0.029775009
27	0x3de1b982	0.11021711
28	0xbdc4f754	-0.096174866
29	0xbdba2fad	-0.09091125
30	0xbdcc70a5	-0.09982423
31	0x3c6441e5	0.013931726
32	0x3d3e924c	0.04652624
33	0xbe1e5d81	-0.15465356
34	0xbe1356ba	-0.14388552
35	0xbc0e624b	-0.008690427
36	0x3de4ffa2	0.111815706
37	0xbc12e2ce	-0.008965207
38	0xbdcf7695	-0.101300396
39	0xbd02907c	-0.031876072
40	0xbc2cfb99	-0.010558032
41	0x3d7c87f6	0.0616531
42	0xbe166484	-0.14686781
43	0xbd1ef6d0	-0.038809597
44	0xbe67d0e1	-0.22638275
45	0xbd95aa7d	-0.07307909
46	0x3d7e6b9f	0.062114354
47	0xbb7ab87c	-0.0038256934
48	0x3e962d2f	0.29331347
49	0x3cddfac5	0.027097115
50	0x3d8eadd8	0.06966752
51	0xbd165faf	-0.036712345
52	0xbd9139e5	-0.07091121
53	0xbe6a3ca4	-0.22874695
54	0xbd03552c	-0.032063648
55	0x3d32f188	0.043687373
56	0xbe318a95	-0.17338021
57	0x3e375b3b	0.17905895
58	0x3df69d7a	0.12041755
59	0x3ca5feb1	0.020263048
60	0x3e10c70e	0.14138433
61	0xbde50c6e	-0.111840114
62	0x3e903f7c	0.28173435
63	0x3d839d9b	0.06426545
64	0xbddc3baa	-0.107535675
65	0xbe376d6b	-0.17912833
66	0xbe2bc7d5	-0.16775449
67	0xbe7b3277	-0.2453097
68	0x3d091c81	0.03347445
69	0xbe0f91e8	-0.14020503
70	0xbd8cf68c	-0.068829626
71	0x3dbdf998	0.09276122
72	0xbe22493e	-0.15848252
73	0x3e0c8038	0.13720787
74	0x3e86073c	0.26177394
75	0x3d2b00bc	0.041748747
76	0xbc60e710	-0.013726965
77	0xbda36ebf	-0.079801075
78	0xbb5507bb	-0.0032505828
79	0x3e1086f9	0.14113988
80	0x3d73713b	0.059434157
81	0xbe2c6723	-0.16836219
82	0xbe53806f	-0.20654462
83	0x3e0f8202	0.14014438
84	0xbe21eee7	-0.1581379
85	0x3dae2723	0.085035585
86	0xbd677993	-0.056512427
87	0xbdb35c52	-0.08757843
88	0x3e5c89b8	0.2153691
89	0x3e1b299a	0.15152588
90	0xbdb4aeff	-0.0882244
91	0x3dbe5b62	0.09294774
92	0x3de644e6	0.1124361
93	0x3e31182a	0.17294374
94	0x3d89e34e	0.06732808
95	0xbd668ccf	-0.05628663
96	0x3dcff8b5	0.10154859
97	0x3db28922	0.08717562
98	0xbda9d290	-0.08292115
99	0xbe0ec17d	-0.13940997
100	0x3d095538	0.033528537
101	0xbe00c13d	-0.12573715
102	0xbe61f0a5	-0.22064455
103	0xbd8a0fe9	-0.06741316
104	0x3e5cf166	0.21576461
105	0xbe91d479	-0.28482416
106	0xbde92fe2	-0.11386086
107	0x3dff2e42	0.12459995
108	0x3e1ec29c	0.15503925
109	0x3e6b286b	0.22964637
110	0xbdaadadd	-0.08342526
111	0xbe4e4490	-0.20143342
112	0xbc9cc6ef	-0.019137828
113	0xbdcc981c	-0.0998995
114	0x3dcac16a	0.09900172
115	0x3e1e3e66	0.1545349
116	0xbdfdfa79	-0.124012895
117	0xbe74b14b	-0.23895757
118	0xbc0d6e40	-0.008632243
119	0xbe808276	-0.25099534
120	0xbce63455	-0.028101126
121	0xbdd39953	-0.10331979
122	0x3d8d6d33	0.06905594
123	0xbdac34bb	-0.08408495
124	0x3d9cbee1	0.07653595
125	0xbe1ce26d	-0.1532075
126	0xbd9762ef	-0.07391917
127	0xbdb0d112	-0.08633627
128	0x3d835752	0.064131394
129	0x3d6d91ae	0.05800026
130	0x3e4ad5dd	0.19808145
131	0xbe0f6e31	-0.14006878
132	0xbd26dcec	-0.04073803
133	0xbcb75de3	-0.022383636
134	0xbdd46c9a	-0.103722766
135	0xbd8cfb01	-0.06883813
136	0xbc13e0cb	-0.009025763
137	0x3c3a9925	0.011389052
138	0xbe615c7c	-0.22007936
139	0xbd8c06c4	-0.06837228
140	0xbdfe2942	-0.12410213
141	0xbddb24be	-0.107003674
142	0xbe1fdd21	-0.15611698
143	0xbe7471c8	-0.23871529
144	0x3e0c7759	0.13717403
145	0xbe40dc77	-0.188341
146	0xbca12606	-0.019671451
147	0x3b8ef109	0.0043622297
148	0x3e5b0baa	0.21391168
149	0x3e38fac6	0.18064412
150	0xbd907b9f	-0.07054829
151	0xbdb61fb5	-0.088927664
152	0x3e5863b4	0.21131784
153	0x3de1bded	0.110225536
154	0xbdeda7a0	-0.116042376
155	0xbe2d2d7a	-0.16911879
156	0x3dbc3196	0.09189145
157	0x3aa9a15b	0.0012941764
158	0x3d1ba387	0.03799775
159	0xbd10e52d	-0.03537481
160	0x3e1d349a	0.15352097
161	0xbb262e01	-0.002535701
162	0x3d692d4a	0.056927957
163	0xbd4a6e63	-0.04942168
164	0x3de752f3	0.11295118
165	0xbd5fb480	-0.054615498
166	0xbe1a5d58	-0.1507467
167	0x3df71297	0.120640926
168	0xbd2569fc	-0.040384278
169	0x3e52520e	0.20539114
170	0xbe3be738	-0.18349922
171	0xbe515b89	-0.20445074
172	0xbe402b0a	-0.18766418
173	0x3dda9eb8	0.106748044
174	0xbe470c0f	-0.19438194
175	0x3d941d72	0.07232179
176	0xbe693016	-0.2277225
177	0xbdc887d6	-0.09791534
178	0x3d809877	0.0627908
179	0xbe42dbe8	-0.190292
180	0xbe7b00ac	-0.24511975
181	0xbe3477cd	-0.17623825
182	0x3e33ac3b	0.1754617
183	0x3e85b90b	0.2611774
184	0x3c88faa5	0.01672108
185	0xbe19976c	-0.14999169
186	0x3ddca4a0	0.10773587
187	0x3dadcb87	0.084860854
188	0x3e2a2472	0.16615465
189	0xbdf10c9e	-0.11769985
190	0xbd837ad3	-0.06419911
191	0xbe4742fc	-0.19459146
192	0x3d5fdeb1	0.054655734
193	0x3e24f0d2	0.1610749
194	0x3e3f4693	0.18679266
195	0x3d48d733	0.049033355
196	0x3e05236a	0.1300179
197	0xbdfdb912	-0.12388815
198	0x3dccb38b	0.099951826
199	0x3e59a440	0.21254063
200	0x3dac4fcb	0.08413657
201	0xbddad23f	-0.106846325
202	0x3d5c0915	0.0537196
203	0xbdc4ae3b	-0.09603544
204	0x3c21adb2	0.009868072
205	0xbd43e29b	-0.04782353
206	0xbe5893c6	-0.21150121
207	0xbe33ac1d	-0.17546125
208	0x3d9b580c	0.07585153
209	0xbe4e46a0	-0.20144129
210	0xbe3b3154	-0.18280536
211	0x3bf0688c	0.0073366817
212	0xbd697f82	-0.057006367
213	0x3c434f0a	0.0119207
214	0x3ce7a4ea	0.02827688
215	0xbcab96d5	-0.020945946
216	0x3d1c71dc	0.038194522
217	0x3de2acb3	0.11068096
218	0xbe237950	-0.15964246
219	0xbb416881	-0.0029511752
220	0x3d7784b3	0.060429286
221	0x3e5be681	0.21474649
222	0xbdecd129	-0.11563332
223	0xbde126d5	-0.10993735
224	0x3e25743a	0.16157618
225	0xbd09b41b	-0.033619028
226	0x3e385efc	0.18004984
227	0x3d5cefdb	0.05393968
228	0xbe4b489a	-0.19851914
229	0x3d166196	0.03671416
230	0xbddebe1f	-0.108761065
231	0xbdce483a	-0.1007237
232	0xbddf28a9	-0.10896427
233	0xbe661a5f	-0.22470997
234	0x3c8d24fa	0.017229546
235	0x3dc606ae	0.09669243
236	0x3d95d7b1	0.073165305
237	0x3d7926ad	0.0608279
238	0x3dc04181	0.09387494
239	0xbe02e817	-0.12783848
240	0xbc8da009	-0.017288225
241	0x3c874d2e	0.016516294
242	0x3d96d8b2	0.0736555
243	0x3e232671	0.15932633
244	0xbc0d8552	-0.008637743
245	0x3d8f9949	0.07011659
246	0xbe055890	-0.13022065
247	0xbdffbd26	-0.12487249
248	0x3dd668fe	0.104692444
249	0x3d634448	0.05548504
250	0x3e521b08	0.20518124
251	0x3e3da7b4	0.18521005
252	0xbe30584a	-0.1722118
253	0x3e2d1b0b	0.16904847
254	0x3ce4f357	0.027948065
255	0x3e1679da	0.1469492

network.4.bias f4 [64]
0	0x3e00f7fd	0.125946
1	0xbe3ce4dd	-0.1844668
2	0x3d98a49f	0.07453274
3	0x3d9cb64b	0.07651957
4	0x3d4ab286	0.04948666
5	0xbdd56e6d	-0.10421453
6	0x3deff10a	0.117158964
7	0x3d50d816	0.050987326
8	0x3c7593cc	0.014988851
9	0xbd4ed967	-0.0505003
10	0x3df81333	0.12113037
11	0x3eb41dbe	0.3517894
12	0x3e21f98f	0.15817855
13	0xbdab3a36	-0.08360712
14	0xbdbd5218	-0.09244174
15	0x3e77065b	0.24123518
16	0xbc9f3734	-0.019435503
17	0xbd0364f2	-0.03207869
18	0xbe624e95	-0.22100289
19	0xbdad70a8	-0.08468753
20	0xbcd0c8e9	-0.025486426
21	0xbd9876b9	-0.074445195
22	0x3da9fb81	0.08299924
23	0xbd49ac35	-0.049236495
24	0xbe2edf77	-0.17077433
25	0x3e8d5622	0.27604777
26	0x39a255e5	0.00030963044
27	0xbe857883	-0.26068506
28	0x3e35c2a5	0.17750032
29	0xbc837cf2	-0.01605079
30	0xbdecf148	-0.11569458
31	0x3e06533d	0.1311769
32	0x3dbd15ed	0.09232698
33	0x3e160f02	0.14654163
34	0x3d03546a	0.032062925
35	0xbce8a14b	-0.028397223
36	0xbdc8102d	-0.0976871
37	0xbd084eeb	-0.033278387
38	0xbdc6d405	-0.09708408
39	0xbbac9a0f	-0.0052673887
40	0xbddc8c77	-0.10768979
41	0xbd8cb5f7	-0.068706445
42	0x3f14ba8f	0.58097166
43	0xbbd3b058	-0.006460231
44	0x3cd49976	0.025952082
45	0xbd9a576e	-0.07536207
46	0x3e5dabcc	0.21647567
47	0xbd82b258	-0.063816726
48	0x3d1f9411	0.038959567
49	0xbc4e6b7a	-0.012598867
50	0x3df1f621	0.118145235
51	0xbdcf7baa	-0.10131009
52	0x3e3b9b2a	0.18320909
53	0xbd175053	-0.036941838
54	0x3dbf1aba	0.093312696
55	0xbd360811	-0.044441286
56	0x3e2a8d52	0.16655472
57	0xbe806276	-0.2507512
58	0xbe34e6db	-0.1766619
59	0x3e80e100	0.2517166
60	0x3cc57dd4	0.024107851
61	0x3d517ea6	0.051146172
62	0x3dea884a	0.11451776
63	0xbdcf7c3c	-0.10131118

network.6.weight f4 [64, 64]
0	0x3e4d8ad6	0.20072493
1	0x3e2f6108	0.17126858
2	0xbd0c021a	-0.03418169
3	0xbdbadc01	-0.09123994
4	0xbd2f6791	-0.042823378
5	0x3df0b8b7	0.117539816
6	0x3d2a96dc	0.041647777
7	0xbeefd003	-0.46838388
8	0xbddb7781	-0.10716153
9	0x3d9530a0	0.07284665
10	0x3e5d6ea5	0.21624239
11	0x3d0779c8	0.033075124
12	0x3d048749	0.03235558
13	0x3e5ca5ba	0.21547595
14	0xbe5513a3	-0.20808272
15	0x3db14b8d	0.08656988
16	0x3e290ec3	0.16509537
17	0xbd962f85	-0.073332824
18	0xbf6729b3	-0.90298
19	0xbc208eb8	-0.009799652
20	0xbd7b02d1	-0.061281983
21	0xbe8dae67	-0.2767212
22	0x3dfc2b4e	0.12312947
23	0xbc740e1c	-0.014895942
24	0xbc17ed4c	-0.009272885
25	0x3e58cda8	0.21172202
26	0x3be311d3	0.006929615
27	0x3db2ae07	0.08724599
28	0x3e8d850c	0.2764057
29	0x3e0be937	0.13663183
30	0xbde9b841	-0.11412097
31	0x3e022e46	0.12712964
32	0x3cacf866	0.02111454
33	0xbdc92f6e	-0.098234996
34	0x3c95a0da	0.018265177
35	0x3c0cafb5	0.008586814
36	0x3d2268a2	0.039650567
37	0xbe4f0703	-0.20217519
38	0xbe4d182e	-0.20028755
39	0xbd5e43ba	-0.054263808
40	0xbe66f05c	-0.22552627
41	0x3d5beecc	0.05369453
42	0x3e1aa232	0.15100935
43	0xbe8488e5	-0.25885692
44	0xbe3cf4a8	-0.18452704
45	0x3eeefe29	0.46678284
46	0x3f18605e	0.59522045
47	0xbe296d4f	-0.16545604
48	0xbd78c974	-0.060738996
49	0x3dcef9f4	0.101062685
50	0xbddf9069	-0.10916216
51	0xbf247a65	-0.6424926
52	0xbe116538	-0.14198768
53	0x3e88b638	0.26701522
54	0xbe4ec04c	-0.20190543
55	0x3d09936e	0.033587866
56	0x3b606a96	0.0034243218
57	0xbf34e98c	-0.70668864
58	0xbe13f5f8	-0.14449298
59	0xbe6f2ed9	-0.23357715
60	0x3dc4acbb	0.09603258
61	0x3e82008e	0.25391048
62	0x3d96ca19	0.07362766
63	0x3dcb80f4	0.09936705
64	0x3b8d4f6b	0.004312446
65	0xbe080936	-0.13284764
66	0x3da8d0f8	0.082429826
67	0xbcb5c8cd	-0.022190476
68	0xbddc6733	-0.10761871
69	0xbda13439	-0.07871289
70	0xbdf0f20e	-0.11764918
71	0xbe800bcf	-0.2500901
72	0xbe60afcf	-0.21942066
73	0xbc8f6cc2	-0.017507914
74	0xbcaa6a2f	-0.020802585
75	0x3ee57d73	0.44822273
76	0xbb8bd761	-0.0042676185
77	0x3e11f3c4	0.14253145
78	0xbe81337a	-0.25234586
79	0x3e623a44	0.22092539
80	0xbd303537	-0.0430195
81	0x3e37d96a	0.1795403
82	0xbe052572	-0.13002566
83	0xbd859137	-0.06521838
84	0x3e0fa33b	0.14027111
85	0x3e7936dd	0.24337335
86	0x3ee9508c	0.45569265
87	0x3b02ec3d	0.0019977235
88	0xbc5736bf	-0.013135611
89	0x3f3e2503	0.74275225
90	0xbda53976	-0.080676004
91	0xbe07bc7c	-0.13255495
92	0x3e9fa4ae	0.31180328
93	0x3e34c86a	0.17654577
94	0xbe12728a	-0.14301506
95	0x3e45a04f	0.19299434
96	0xbe549178	-0.20758617
97	0x3e2002bf	0.15626048
98	0x3e633ba8	0.22190726
99	0x3d600b3f	0.054698225
100	0x3dcc5e0f	0.09978878
101	0x3dd7e7be	0.10542248
102	0xbe7e202c	-0.2481696
103	0xbe1879a0	-0.14890146
104	0xbb6bb947	-0.0035968588
105	0xbe8d0c96	-0.27548665
106	0xbdfd28eb	-0.1236132
107	0xbe2150b2	-0.15753439
108	0x3dee277b	0.11628624
109	0xbd272bdb	-0.04081331
110	0x3f0ca30a	0.5493628
111	0xbe4b5f17	-0.19860493
112	0xbdd6930f	-0.10477268
113	0x3e432791	0.19058062
114	0xbd5eee16	-0.054426275
115	0xbd1eec0d	-0.038799334
116	0x3d735948	0.059411317
117	0x3e437795	0.19088586
118	0xbe7740b1	-0.24145772
119	0x3e076a24	0.13224083
120	0x3b5a8922	0.0033345898
121	0xbe0eae51	-0.13933684
122	0xbb484802	-0.0030560498
123	0xbcad4e2d	-0.021155441
124	0xbe3ece46	-0.18633375
125	0xbe7fe1d2	-0.24988487
126	0xbe098832	-0.1343086
127	0xbcc73325	-0.02431638
128	0x3ca7444d	0.02041831
129	0xbe3bd886	-0.18344316
130	0xbe82f9a3	-0.25581083
131	0xbe156632	-0.14589766
132	0xbd8070d2	-0.06271519
133	0x3de0a8ab	0.10969671
134	0x3e85cf07	0.26134512
135	0x3cabd890	0.020977288
136	0x3dbe7b53	0.09300866
137	0xbd5ae6f7	-0.05344292
138	0x3e7d64f2	0.24745539
139	0x3d12fbfd	0.035884846
140	0x3d29c226	0.04144492
141	0x3e1dcdcc	0.15410537
142	0x3e550a8c	0.20804805
143	0x3cccca64	0.024998851
144	0x3da46de4	0.080287725
145	0x3d92417e	0.07141398
146	0xbd7ea1f0	-0.062166154
147	0xbe5c25a4	-0.21498734
148	0xbe312f16	-0.17303118
149	0x3dff3999	0.12462158
150	0x3e50b105	0.20380028
151	0x3da228c5	0.079179324
152	0xbe7505c2	-0.23927978
153	0xbdb7672e	-0.08955227
154	0xbe201330	-0.1563232
155	0x3e3c51bd	0.18390556
156	0xbe03e034	-0.12878495
157	0x3e074ca6	0.13212833
158	0xbe248f6d	-0.16070338
159	0xbcf5a7ca	-0.029987235
160	0xbbbe23c6	-0.0058026044
161	0x3cea6cf9	0.028616415
162	0xbdd898c7	-0.10576015
163	0xbdda4169	-0.10657007
164	0x3b256538	0.0025237333
165	0x3e1fedcc	0.15618056
166	0x3e163bbf	0.14671229
167	0xbe512204	-0.20423132
168	0x3e196e09	0.14983381
169	0xbd15bc6f	-0.036556657
170	0x3e27ca3a	0.16385737
171	0xbd6b2fb9	-0.05741856
172	0xbe36bb0b	-0.17844789
173	0xbdced9c6	-0.10100131
174	0xbd4ab60a	-0.049490012
175	0xbe251374	-0.16120702
176	0xbe18eb64	-0.14933544
177	0x3cd46edc	0.025931768
178	0x3e919d8b	0.28440508
179	0x3dbdb8d2	0.09263767
180	0xbd8af38d	-0.06784735
181	0x3e02fb8f	0.12791274
182	0xbdb3cb62	-0.087790266
183	0xbcdc3311	-0.02687982
184	0x3e244120	0.16040468
185	0xbdc053cb	-0.09390982
186	0x3d7e8195	0.062135298
187	0x3e299541	0.16560842
188	0xbe016508	-0.12636197
189	0x3e981c13	0.2970892
190	0xbd989a08	-0.07451254
191	0xbe6035b5	-0.21895488
192	0xbc6445a7	-0.013932622
193	0xbd7d5d20	-0.06185639
194	0xbdfe4797	-0.124159984
195	0xbda8efaf	-0.08248841
196	0x3ca67811	0.020320924
197	0x3df2eb9d	0.11861346
198	0x3c1174c4	0.008877937
199	0xbd9fbcbf	-0.07799672
200	0xbd383d9d	-0.044980634
201	0xbcd5cd36	-0.026098829
202	0xbdad0f01	-0.084501274
203	0x3e877f49	0.26464298
204	0xbe107452	-0.14106873
205	0x3e6dbf5b	0.23217528
206	0xbe1890b2	-0.14898947
207	0xbd45ec4b	-0.04832105
208	0x3e2a43c2	0.1662741
209	0x3e087570	0.13326049
210	0x3e51b584	0.20479399
211	0x3e926a3b	0.28596672
212	0x3d4fb00a	0.050704993
213	0xbdc17a01	-0.094470985
214	0x3d6ddd47	0.058072355
215	0xbe03d79b	-0.12875216
216	0x3df83b4c	0.12120685
217	0x3d06bc9b	0.032894712
218	0x3d26a2d4	0.04068263
219	0xbe26252f	-0.16225122
220	0x3cf66982	0.030079607
221	0x3e0a2554	0.13490802
222	0xbd672ff1	-0.056442205
223	0xbe14b80a	-0.1452333
224	0xbe251690	-0.16121888
225	0xba5075aa	-0.00079521036
226	0x3d0ba9df	0.03409755
227	0x3dbacc43	0.09120991
228	0xbe1891e4	-0.14899403
229	0xbe59e4ce	-0.21278688
230	0xbe2e442c	-0.17018193
231	0xbda830a3	-0.08212402
232	0xbc952188	-0.018204466
233	0x3d926892	0.071488515
234	0xbe012a42	-0.12613776
235	0x3d331943	0.043725263
236	0x3dbfbde7	0.09362393
237	0x3e6120a9	0.21985115
238	0xbf015040	-0.50513077
239	0x3e5f245b	0.21791212
240	0xbd5f5abf	-0.0545299
241	0xbe2d8670	-0.16945815
242	0xbebca5ae	-0.36845154
243	0xbdd64dbd	-0.10464046
244	0xbd99d787	-0.07511812
245	0xbe4dfd7b	-0.20116226
246	0x3cf774cf	0.030207066
247	0xbdd9bdc3	-0.10631897
248	0x3db9505a	0.09048529
249	0x3c141a57	0.009039483
250	0xbd52638a	-0.05136446
251	0xbf035c2c	-0.5131252
252	0xbdac0e1a	-0.08401127
253	0xbe82b0c2	-0.2552548
254	0xbe5776ec	-0.21041459
255	0x3d9a7f94	0.07543865

network.6.bias f4 [64]
0	0x3e482aef	0.19547628
1	0x3e8a0816	0.26959294
2	0x3df48122	0.11938693
3	0x3c456e90	0.012050286
4	0x3ab317f2	0.0013663752
5	0x3dd7def9	0.105405755
6	0xbddec662	-0.10877682
7	0x3e21cd96	0.15801081
8	0xbcce2e71	-0.02516863
9	0x3dbcbddd	0.09215901
10	0xbd84bd4f	-0.0648142
11	0x3d49e85e	0.04929387
12	0x3e304fd6	0.17217955
13	0xbdf08f14	-0.1174604
14	0x3e641b7e	0.22276112
15	0x3d2481d3	0.040162873
16	0x3d8f0383	0.06983092
17	0x3d1b387d	0.03789567
18	0x3db51bf6	0.08843224
19	0x3cfa05b3	0.030520296
20	0xbe5e9637	-0.2173699
21	0xbcfffcd8	-0.031248495
22	0x3d34c2b5	0.044131
23	0x3d6852e6	0.056719683
24	0x3c4d7e21	0.0125422785
25	0x3d124354	0.03570874
26	0xbe40c0bd	-0.18823524
27	0xbd9818ec	-0.074266285
28	0x3e25390a	0.1613504
29	0xbd95cfc5	-0.073150195
30	0xbc6e8675	-0.014558424
31	0x3e353861	0.17697288
32	0x3d84f92f	0.064928405
33	0xbe3c1602	-0.1836777
34	0xbe19430e	-0.14966986
35	0xbd707b86	-0.05871155
36	0xbd6df52e	-0.05809515
37	0xbcafd634	-0.021464445
38	0x3e06c6d7	0.13161789
39	0xbd34ff21	-0.044188622
40	0xbeafbc4f	-0.34323356
41	0xbd061240	-0.03273225
42	0xbd16a655	-0.03677972
43	0x3e00f5d2	0.12593773
44	0xbe04138c	-0.12898082
45	0xbc019109	-0.007908114
46	0x3bf1fc6a	0.0073848264
47	0xbced2a96	-0.02895097
48	0xbe431395	-0.19050439
49	0x3dd7d2fd	0.1053829
50	0xbe417d8a	-0.18895546
51	0x3dbab1ad	0.0911592
52	0x3c022304	0.007942919
53	0xbd5256c0	-0.051352262
54	0x3e2519c5	0.16123112
55	0x3dd000f0	0.10156429
56	0xbdd50524	-0.10401371
57	0x3da0e745	0.07856611
58	0x3d86d2d4	0.06583181
59	0x3e0cd9cc	0.13754958
60	0xbe3cc4d1	-0.18434455
61	0xbdf5a61a	-0.11994572
62	0xbe2f3dcd	-0.17113419
63	0xbd22281d	-0.039589036

network.8.weight f4 [64, 64]
0	0xbf8356b4	-1.0260835
1	0xbf129942	-0.572651
2	0xbc797210	-0.0152249485
3	0xbe32897f	-0.17435263
4	0xbe4590ba	-0.1929349
5	0x3e100937	0.14066015
6	0x3c11fd33	0.008910465
7	0xbd58140b	-0.05275349
8	0x3cae56db	0.02128165
9	0xbe557414	-0.20845062
10	0x3e646864	0.22305447
11	0xbe2ce02e	-0.16882393
12	0x393ae462	0.00017823422
13	0xbe98bb37	-0.29830334
14	0xbbf0f175	-0.0073530027
15	0x3ea96417	0.33084175
16	0xbe29fef5	-0.16601165
17	0x3dd8c5a4	0.10584572
18	0x3b1f75c8	0.0024331678
19	0xbe475436	-0.19465718
20	0x3f2787f5	0.6544183
21	0xbdc06162	-0.09393574
22	0xbe69e962	-0.22842935
23	0xbe660af2	-0.22465113
24	0x3e6ea2e0	0.2330432
25	0x3e7dae7a	0.24773589
26	0xbf80eac1	-1.0071641
27	0x3eae99de	0.34101766
28	0x3db1dce6	0.08684711
29	0xbd0e4b72	-0.03473992
30	0xbd2c5e3e	-0.042082064
31	0xbe8573b4	-0.26064837
32	0x3dcc4e6d	0.09975896
33	0xbe4597ad	-0.19296141
34	0x3e7001a3	0.23438124
35	0x3e1e68cc	0.15469664
36	0x3d83d459	0.064369865
37	0xbe999840	-0.2999897
38	0x3e569381	0.20954706
39	0x3c5dafc7	0.013530678
40	0xbde0f825	-0.1098483
41	0xbe44df38	-0.19225776
42	0xbe527058	-0.20550668
43	0xbe62d17f	-0.22150229
44	0xbe934651	-0.28764585
45	0xbdae7e6a	-0.08520205
46	0x3e2661ff	0.1624832
47	0xbd132b54	-0.035929993
48	0x3deadade	0.11467527
49	0x3ea39e5f	0.31956765
50	0x3e72c469	0.23707737
51	0x3e074cd3	0.132129
52	0x3e4ca246	0.19983777
53	0x3d847e0c	0.06469354
54	0xbd69eacc	-0.057108685
55	0xbdee2b76	-0.11629383
56	0x3e428cf8	0.18999088
57	0xbd8c150c	-0.06839952
58	0xbe8608a5	-0.2617847
59	0xbe859ee0	-0.26097775
60	0x3db4431b	0.08801862
61	0x3ec11b72	0.37716252
62	0x3d3a34b8	0.045460433
63	0x3e498722	0.19680455
64	0x3ed9d6e5	0.42546764
65	0x3e76d7b2	0.24105719
66	0xbe581a35	-0.21103747
67	0xbc2fb1f5	-0.010723581
68	0x3e266e47	0.16253005
69	0xbdba8f71	-0.091093905
70	0xbdaf075b	-0.08546325
71	0x3e3224bf	0.1739683
72	0xbd0d9b69	-0.03457204
73	0xbc8ad9cc	-0.016949557
74	0x3e1bdbcb	0.15220563
75	0xbe18cfef	-0.1492307
76	0xbe2a6d1c	-0.16643184
77	0xbe03923c	-0.12848753
78	0x3cc5cec1	0.02414644
79	0xbd84d4d3	-0.064859055
80	0xbdf269a7	-0.11836558
81	0xbe6dbf70	-0.23217559
82	0xbe430f00	-0.19048691
83	0x3dbd859a	0.09253998
84	0xbd5a071b	-0.053229433
85	0xbe434ee6	-0.19073066
86	0x3e1bf575	0.15230353
87	0xbd21d43a	-0.039509036
88	0x3e1e77cf	0.15475391
89	0x3ddc7233	0.10763969
90	0x3ec7ff93	0.39062175
91	0x3d439950	0.047753632
92	0x3d8aa575	0.0676984
93	0x3e7a5e36	0.24450001
94	0x3d313d7d	0.04327153
95	0x3e145a4b	0.14487569
96	0xbd49fbe5	-0.04931249
97	0x3dd76cd7	0.105188064
98	0xbe528c2c	-0.20561284
99	0xbc8e7a0a	-0.017392177
100	0x3e881d73	0.26584968
101	0xbd9997b5	-0.07499639
102	0xbc2792ae	-0.010227842
103	0xbca5596c	-0.020184241
104	0x3dc3fd72	0.09569825
105	0x3dba6244	0.09100774
106	0x3e9beba7	0.30453226
107	0xbe863efb	-0.26219925
108	0x3dbfb177	0.093600206
109	0xbe4870b3	-0.19574241
110	0xbe0aa0f1	-0.13537957
111	0xbde16eb0	-0.1100744
112	0xbe359484	-0.17732435
113	0x3e78fe8d	0.24315853
114	0x3e20143e	0.15632722
115	0xbde70316	-0.112798855
116	0xbd915ac2	-0.07097389
117	0xbdbd61fb	-0.09247204
118	0xbe6dcf41	-0.23223592
119	0xbc611341	-0.013737501
120	0xbe33aaaa	-0.17545572
121	0x3dd4a575	0.10383121
122	0x3d79b098	0.06095943
123	0x3e372cec	0.1788823
124	0xbe5ba32a	-0.21448961
125	0xbc71be2f	-0.014754816
126	0xbd2bc735	-0.041938026
127	0x3e661f8e	0.22472975
128	0x3df2639b	0.118354045
129	0x3e1d9146	0.15387449
130	0xbde88443	-0.11353352
131	0xbe4da599	-0.20082702
132	0xbb359553	-0.0027707412
133	0x3e799638	0.2437371
134	0xbd371b12	-0.04470355
135	0x3e8c91a5	0.27454868
136	0xbe0e89ba	-0.13919726
137	0x3df49ad3	0.11943593
138	0xbdd38402	-0.10327913
139	0xbe7483e7	-0.23878442
140	0x3daa8acd	0.083272554
141	0x3d3d4a99	0.04621372
142	0xbe2a8a08	-0.16654217
143	0xbe07f092	-0.13275364
144	0x3c154f07	0.00911308
145	0x3e83951a	0.25699693
146	0xbe1631b5	-0.14667399
147	0x3ea04e08	0.31309533
148	0xbe9eb202	-0.30995184
149	0x3db0a8b7	0.0862593
150	0x3e54a62e	0.20766518
151	0xbde53941	-0.11192561
152	0xbd99dbda	-0.075126365
153	0x3d4026be	0.046911947
154	0x3f28b4c4	0.65900826
155	0xbe6b2ca9	-0.22966255
156	0xbd6b7dd4	-0.057493046
157	0x3d96b190	0.07358086
158	0xbde399a3	-0.11113288
159	0x3d3a318a	0.0454574
160	0xbe27043a	-0.16310206
161	0xbe677899	-0.22604598
162	0xbe5549b8	-0.20828903
163	0xbe50ecbd	-0.20402808
164	0xbe1f0240	-0.15528202
165	0x3b069fd9	0.0020542054
166	0xbdf4f86d	-0.11961446
167	0x3e3309f6	0.17484269
168	0x3dce15e3	0.10062768
169	0xbe810bb6	-0.25204247
170	0x3e1595fd	0.14607997
171	0xbdca0b23	-0.098654054
172	0xbd96defa	-0.07366748
173	0x3ce765c4	0.028246768
174	0x3e0aa640	0.13539982
175	0x3e8787e3	0.2647086
176	0x3b493dc5	0.0030706984
177	0x3e0a9271	0.13532425
178	0xbe36e557	-0.17860924
179	0x3d1d46bd	0.03839754
180	0x3e62e0fe	0.2215614
181	0xbe7698d5	-0.24081738
182	0xbdc473b9	-0.09592385
183	0x3d234db4	0.039869025
184	0x3d191361	0.037371997
185	0x3d516e21	0.051130418
186	0x3eb86e80	0.36021805
187	0xbe17a510	-0.1480906
188	0xbcfee97e	-0.031117197
189	0x3cbee0d1	0.02330056
190	0x3e0a084f	0.13479732
191	0x3d2b7b93	0.041865896
192	0x3e23e57f	0.16005515
193	0xbeaffe85	-0.3437387
194	0xbc5abe20	-0.013350993
195	0x3e6ef524	0.23335701
196	0x3df5b544	0.11997464
197	0x3eddc004	0.4331056
198	0xbec789b4	-0.38972247
199	0xbc4f3631	-0.012647198
200	0xbe94e828	-0.2908337
201	0x3f0e8b58	0.5568137
202	0xbec1ad0f	-0.37827346
203	0x3e0385e2	0.12844041
204	0x3e12822f	0.14307474
205	0x3e84378d	0.25823632
206	0x3d956390	0.07294381
207	0xbe2baa1d	-0.16764112
208	0xbe2672e8	-0.16254771
209	0xbd324916	-0.04352673
210	0x3de522fe	0.11188315
211	0xbe156359	-0.1458868
212	0xbe02f469	-0.12788548
213	0x3da6461d	0.08118842
214	0xbd2255b6	-0.03963252
215	0xbd699837	-0.05702993
216	0x3dc0dc3e	0.09417008
217	0x3df2318d	0.11825857
218	0xbd4368c2	-0.047707327
219	0xbd58a9af	-0.052896198
220	0x3db8de0a	0.090267256
221	0xbdbea7e9	-0.0930937
222	0x3daea147	0.08526855
223	0xbe312db4	-0.1730259
224	0xbe25c15b	-0.1618704
225	0x3d4583a6	0.048221253
226	0xbc7dadb9	-0.015483313
227	0xbeb16f0b	-0.34655032
228	0x3e5bdb4c	0.21470374
229	0xbd4b0cd2	-0.049572773
230	0x3e40c785	0.1882611
231	0xbe2b01f2	-0.16699961
232	0xbdacfd7b	-0.08446785
233	0xbc78258c	-0.015145671
234	0xbc8e42d2	-0.017365847
235	0x3cb27c99	0.021787928
236	0xbd07523e	-0.033037417
237	0xbe7596f8	-0.23983371
238	0xbdf0c321	-0.11755968
239	0x3df9b53b	0.1219277
240	0xbdbd1a5e	-0.09233545
241	0x3e8c2630	0.27372885
242	0xbdebb20d	-0.1150857
243	0x3e2f4da3	0.1711946
244	0x3d503b2e	0.05083769
245	0x3df24223	0.11829021
246	0x3e4274a4	0.18989807
247	0x3eafb09d	0.34314433
248	0x3e362601	0.17787935
249	0x3db4f51e	0.08835815
250	0xbf0c28e4	-0.54749894
251	0x3e96a9d8	0.29426455
252	0xbcde688f	-0.027149467
253	0x3e28e20d	0.16492482
254	0x3e171614	0.14754516
255	0x3e152a78	0.14566982

network.8.bias f4 [64]
0	0xbe84e13d	-0.25953093
1	0xbd81e1ef	-0.063419215
2	0xbd1726e4	-0.036902323
3	0x3daa645c	0.08319923
4	0x3e009472	0.12556627
5	0xbdbc3e24	-0.0919154
6	0x3e071619	0.13192023
7	0xbd244154	-0.040101364
8	0xbe08b5a9	-0.13350548
9	0xbc49cbca	-0.0123166535
10	0xbe3adfe3	-0.18249469
11	0xbd976e4a	-0.07394083
12	0x3e166420	0.14686632
13	0x3e18eb6a	0.14933553
14	0xbcc0e259	-0.023545431
15	0xbd29f0f3	-0.041489553
16	0xbe216238	-0.15760124
17	0xbea21858	-0.31659198
18	0x3db6aa2d	0.08919177
19	0xbd850ec7	-0.06496959
20	0x3c8d0f89	0.017219322
21	0xbe2e617c	-0.17029375
22	0x3d851be4	0.0649946
23	0x3d1f25b1	0.038854305
24	0x3c96a289	0.01838805
25	0x3d01124f	0.0315116
26	0xbdc6dc22	-0.09709956
27	0x3e0d0484	0.13771254
28	0x3dc52971	0.09627045
29	0x3e25719f	0.16156624
30	0x3e1b33bc	0.15156454
31	0xbe0e8b50	-0.13920331
32	0xbdbd5853	-0.09245362
33	0xbdb06755	-0.08613459
34	0xbe47e5fe	-0.19521329
35	0xbe27d277	-0.1638888
36	0x3da30ee8	0.079618275
37	0x3e2cda62	0.16880181
38	0xbe2a5758	-0.16634881
39	0x3cdab25d	0.026696378
40	0xbd304bbe	-0.043040983
41	0xbe8dccb8	-0.2769525
42	0xbdbfbebe	-0.09362553
43	0x3e02d9d4	0.12778407
44	0xbe32a4e2	-0.1744571
45	0x3e0bdbcc	0.13658065
46	0x3e86a0a0	0.26294422
47	0x3d9ca7d0	0.07649195
48	0xbd42cc2b	-0.04755799
49	0xbe4e2ba0	-0.20133829
50	0x3e7f34b1	0.24922444
51	0xbe4074dc	-0.18794578
52	0xbddefb1d	-0.1088774
53	0x3e1ac030	0.15112376
54	0x3deefb87	0.11669069
55	0x3d489a3f	0.048975226
56	0x3d60dd68	0.05489865
57	0xbedaa1b9	-0.4270151
58	0xbe2f41e9	-0.17114986
59	0x3dc6f53a	0.09714742
60	0xbd4c2fc2	-0.049850233
61	0xbddf7bbb	-0.109122716
62	0x3dbb3bf7	0.09142297
63	0x3d83ea24	0.06441143

network.10.weight f4 [5, 64]
0	0xbd346d9f	-0.044049855
1	0xbed7d801	-0.42156985
2	0x3e76cdf5	0.24102004
3	0xbdb856cf	-0.090009324
4	0x3ef702fa	0.48244458
5	0x3cc23333	0.023706054
6	0x3e8c2980	0.27375412
7	0xbca03a00	-0.019558907
8	0x3eb37b1c	0.35054862
9	0x3e1b85cb	0.15187757
10	0xbcb02338	-0.021501169
11	0xbe5b8844	-0.214387
12	0xbdac53a2	-0.08414389
13	0x3db7aabb	0.08968111
14	0x3e79b967	0.24387132
15	0xbd8bc317	-0.0682432
16	0x3e4bdafb	0.19907753
17	0xbcf5d81b	-0.030010274
18	0xbc220bf4	-0.009890545
19	0x3e589e28	0.21154082
20	0xbe923b34	-0.28560793
21	0x3e3b8a66	0.18314514
22	0x3e26f364	0.16303784
23	0x3e674c4f	0.22587703
24	0xbe4679df	-0.19382428
25	0xbd836db7	-0.06417411
26	0xbe587410	-0.21138024
27	0x3e6bc01f	0.23022507
28	0xbe2b67d9	-0.16738833
29	0xbe337896	-0.17526469
30	0x3e090d60	0.13384008
31	0xbe30b265	-0.17255552
32	0xbdea5972	-0.114428416
33	0xbb7f0fc6	-0.0038919314
34	0x3e71dcdf	0.23619412
35	0xbe4dbefa	-0.20092383
36	0xbe6709f3	-0.22562389
37	0x3d2dbff0	0.042419374
38	0xbbd5084d	-0.0065012337
39	0xbe67feb2	-0.22655752
40	0xbca5fbfc	-0.020261757
41	0xbdd0719b	-0.101779185
42	0xbf319f2a	-0.6938349
43	0x3c7d2016	0.015449544
44	0xbe3bb2ae	-0.1832988
45	0x3e45a90f	0.19302772
46	0x3d78d08c	0.06074576
47	0x3e27f7ca	0.16403118
48	0x3b4703e1	0.0030367302
49	0x3e105592	0.14095142
50	0xbdf17d1e	-0.11791442
51	0xbcc6516d	-0.024208749
52	0x3ddf524f	0.10904371
53	0x3ed8f14f	0.42371604
54	0xbcee95ed	-0.029124225
55	0x3de8dfce	0.11370812
56	0x3e5738c3	0.21017747
57	0xbf17437c	-0.5908735
58	0x3f2e37e1	0.68054014
59	0x3dd397d7	0.103316955
60	0xbe840512	-0.25785118
61	0xbcb3763e	-0.021906968
62	0x3ec4fce9	0.38474205
63	0xbe4301e6	-0.19043693
64	0x3cf31cc7	0.029676808
65	0x3e979ec1	0.29613307
66	0x3df0ca3d	0.11757324
67	0x3daf610d	0.08563433
68	0xbd26e467	-0.040745165
69	0x3e8993d6	0.26870602
70	0x3e21afbb	0.15789692
71	0x3d2f4df8	0.042798966
72	0x3ddc7379	0.10764212
73	0xbe199877	-0.14999567
74	0x3d0b04b4	0.033940032
75	0xbd9f7363	-0.0778568
76	0xbe7a316c	-0.24432915
77	0xbd4c1289	-0.049822364
78	0xbe0acbc8	-0.13554299
79	0x3dfb026d	0.12256322
80	0xbd3a74f7	-0.045521703
81	0xbb3a835f	-0.002845965
82	0x3bb82711	0.0056198915
83	0x3e0bcfea	0.13653532
84	0xbe4c000c	-0.19921893
85	0x3d325870	0.04354137
86	0x3e234566	0.15944442
87	0x3cd7cead	0.026343668
88	0xbd1275e3	-0.035756957
89	0xbd66998f	-0.05629879
90	0x3ce303c6	0.02771176
91	0x3df54b61	0.11977268
92	0xbd8c5797	-0.06852644
93	0x3d0a889d	0.03382169
94	0xbe841ec8	-0.25804734
95	0xbdaf799d	-0.08568118
96	0xbaef64c4	-0.0018264283
97	0xbe02c0eb	-0.12768905
98	0x3e4e11cb	0.20123975
99	0xbe2b91f4	-0.16754895
100	0xbe7ddbbd	-0.24790855
101	0xbddc6afc	-0.10762593
102	0xbcb55fe2	-0.022140447
103	0xbe66ceb3	-0.22539787
104	0xbe44111a	-0.19147149
105	0xbdfe1c28	-0.12407714
106	0xbcbf25a8	-0.023333386
107	0xbd015055	-0.03157075
108	0x3d9b041e	0.07569145
109	0xbb3dc9ac	-0.0028959317
110	0x3e01ada9	0.12663902
111	0x3eb20827	0.34771845
112	0xbd9bf94d	-0.0761591
113	0xbe88ad12	-0.26694542
114	0x3c7383f5	0.014863004
115	0xbd4d570f	-0.050131854
116	0xbe90baba	-0.2826746
117	0xbc1cb331	-0.009564207
118	0xbd38fa93	-0.04516084
119	0xbc1c7e4b	-0.009551595
120	0x3e154361	0.14576484
121	0xbd8f725b	-0.070042334
122	0x3e950109	0.29102352
123	0xbe0326e9	-0.12807812
124	0x3d48083f	0.04883599
125	0xbd47c813	-0.04877479
126	0xbe0f682d	-0.14004584
127	0x3d9a729d	0.07541392
128	0x3fb4dd52	1.4130042
129	0x3e4dd41c	0.20100445
130	0x3cb9da6c	0.02268716
131	0xbf38e9a4	-0.7223151
132	0x3f2955b0	0.66146374
133	0xbf56a1d5	-0.83840686
134	0x3dda65e4	0.10663965
135	0xbe855185	-0.26038757
136	0xbc9aa666	-0.018878173
137	0x3f59d4ba	0.8509022
138	0xbd3f3197	-0.046678152
139	0x3edd20c4	0.4318906
140	0x3db7f4ae	0.08982216
141	0x3e16952f	0.14705347
142	0xbf08c57c	-0.5342634
143	0xbf2f2412	-0.68414414
144	0x3f2acbb3	0.6671707
145	0xbf608d13	-0.8771526
146	0xbd07f2e3	-0.03319062
147	0xbf40d5b6	-0.75326097
148	0xbecc8671	-0.3994632
149	0x3e9051be	0.28187364
150	0x3eb742f6	0.35793275
151	0xbd58821d	-0.05285846
152	0x3dbdc8b8	0.092668
153	0xbde7123a	-0.11282773
154	0x3e0bf490	0.13667512
155	0x3e840305	0.25783554
156	0x3e275eb1	0.16344716
157	0x3e4b760e	0.19869253
158	0xbea8246e	-0.32840294
159	0xbd13aa88	-0.036051303
160	0x3d7ad0ce	0.061234288
161	0x3dea9521	0.11454225
162	0x3eb856c8	0.3600371
163	0xbc96afdc	-0.018394403
164	0x3f2760a0	0.65381813
165	0x3f6ddaf8	0.92912245
166	0xbf9133c3	-1.1343921
167	0x3d800c96	0.062524006
168	0xbeac64d6	-0.33670682
169	0x3d6715e5	0.056417365
170	0xbef25bd1	-0.47335675
171	0xbeb6581e	-0.35614103
172	0x3d59723f	0.05308747
173	0x3e4369e6	0.19083366
174	0x3ecfbd5b	0.40574154
175	0xbe09ad07	-0.13444911
176	0xbe821422	-0.25405985
177	0xbe8b12e8	-0.27162862
178	0x3f4fa888	0.81116533
179	0xbfcc42cb	-1.5957884
180	0xbe98fd07	-0.29880545
181	0xbf0dd6c2	-0.5540582
182	0xbeceb683	-0.4037362
183	0xbd94a006	-0.072570845
184	0xbe5ba3b2	-0.21449164
185	0xbea86f39	-0.32897356
186	0xbf3c8a37	-0.736484
187	0xbe3b0e3d	-0.1826715
188	0x3f348f41	0.7053109
189	0x3f1e0381	0.61724097
190	0x3ddc0791	0.10743631
191	0xbd5ad436	-0.053425036
192	0xbeb31f01	-0.34984592
193	0x3ec249c6	0.3794691
194	0x3f03bc5e	0.514593
195	0xbf084b46	-0.5323986
196	0xbeb1dea8	-0.34740186
197	0x3dda1875	0.10649196
198	0x3dabd1f9	0.083896585
199	0xbcd1bebf	-0.02560365
200	0x3eef9344	0.46792042
201	0xbe579f7e	-0.21056935
202	0x3e7413be	0.23835656
203	0xbeacaf42	-0.3372746
204	0x3d60fd48	0.054929048
205	0xbe0d0ece	-0.13775179
206	0x3e84a3e1	0.2590628
207	0x3e8210cb	0.25403437
208	0xbf373d91	-0.7157832
209	0xbedc9e15	-0.43089357
210	0x3fa09143	1.254433
211	0x3f104efc	0.5637052
212	0x3e4875ef	0.19576238
213	0xbf1ce2a0	-0.612833
214	0xbf1b7b17	-0.60734695
215	0xbe801e28	-0.25023007
216	0x3ef1990b	0.47187075
217	0xbf7e4c08	-0.99334764
218	0x3f41031e	0.7539538
219	0xbe615c75	-0.22007926
220	0xbf3998a2	-0.72498524
221	0xbe491910	-0.19638467
222	0xbbcaf275	-0.006193454
223	0xbca2ccdb	-0.019873073
224	0xbe14a755	-0.14516957
225	0xbf4e8232	-0.8066741
226	0xbf081e7b	-0.5317151
227	0x3e6bd43d	0.23030181
228	0xbe2d649b	-0.16932909
229	0x3ec4a4f3	0.38407096
230	0x3e218a61	0.15775444
231	0xbd478401	-0.048709873
232	0xbd0c01a6	-0.03418126
233	0xbd2792b2	-0.040911384
234	0xbf69f6bb	-0.91392106
235	0xbc594082	-0.013260009
236	0xbeb65b3b	-0.35616478
237	0x3e25aaef	0.16178487
238	0xbf4ad8ae	-0.79236877
239	0x3ebf767b	0.3739508
240	0x3e9a55c4	0.3014356
241	0x3e54baf4	0.20774442
242	0x3f3927a5	0.7232612
243	0xbe08823c	-0.1333093
244	0x3e883cb4	0.26608813
245	0xbee19c48	-0.44064546
246	0xbef7c303	-0.4839097
247	0xbf346950	-0.70473194
248	0x3e6eed3d	0.23332687
249	0x3e4d0d4c	0.20024604
250	0xbe4e95b1	-0.2017429
251	0x3f13271b	0.57481545
252	0x3f0a749a	0.5408417
253	0xbf304278	-0.68851423
254	0x3ee6899f	0.45026872
255	0xbf438934	-0.7638123

network.10.bias f4 [5]
0	0x3ecb64b0	0.39725256
1	0x3c029f81	0.007972599
2	0x3f02d766	0.5110992
3	0x3d310d82	0.043225773
4	0xbc990c5d	-0.018682653
