2D_sheet_problem/plate_hole.pth (torch, 190434 bytes, 18 tensors)

network.0.weight f4 [80, 2]
00000000: d828 3e3e 05b9 17bd 49ff 853e 1543 2ebe
00000010: bb9e 49be 9e92 fa3d fbf9 803e b589 36be
00000020: 0a04 39be 357c 593e 57be 813e 1341 633e
00000030: e820 e93d c4ac 00bd 44a8 b5bd 85ce b3bd
00000040: 96f6 943d 1ecf 433e 47a3 40be 5ca4 28bd
00000050: 73d8 c3bd 6e47 1bbe f059 973e 7016 9ebd
00000060: 8ff5 abbd 7d49 443d 1322 4d3e 0a7e 13be
00000070: 6c60 873e cc89 79be c2a6 2a3e 0556 b03d
00000080: 50dc 25be a8b4 b9bc 84be 053a 2854 113e
00000090: 517b b7bd 08ab 26be 9ace 7dbe 588b 543e
000000a0: b69f fbbd d069 61bd 727a 8f3d fe0e 8fbe
000000b0: 2ac2 b93d 09c2 643e 4b58 923c 3464 833e
000000c0: 361a 10bd ab62 2ebe 0f0e 473e 54d1 91bd
000000d0: 407e 803c 2940 cc3d 95b6 3f3d 9100 043e
000000e0: 243a 5bbb d956 833d 1e8a a43d ee82 853e
000000f0: 6873 1a3e 718c 033e 944a a83c c6ff 26be
00000100: 2c0b 463e a3a7 0d3e 888b 3fbe 42b0 38be
00000110: aa51 cdbd 1ba5 89be 217a 663e fd58 83be
00000120: 2bc7 afbd cf34 81be 26af 13be d7c1 183e
00000130: 0372 573e fd1c a2bc adb4 6fbe 04e2 583e
00000140: 611c 383d 3028 4cbb a433 1eba c989 763e
00000150: 923d 783e c24f 0dbe 149a 31be 12bd 29be
00000160: fe1f 793e 5621 f03d 4f8e b5bd 2e61 793d
00000170: e71e 483e 1e5d 2e3e 529e 35be ac2b d9bd
00000180: 0e70 5d3e 17b4 223e 37a1 f1bd ea0a cabd
00000190: a551 8d3e e551 f23d 1f20 b13d e66b 71be
000001a0: 9f4a 0f3e 505f 883e 5fab 923d c9c0 6aba
000001b0: 86fb 2fbe 8688 693e ee1e 8c3e 3dbb a4bb
000001c0: b537 03be 32c0 90bc 5755 133e b66b 91bb
000001d0: 6944 843e f7e8 323d 028b 6bbd 22bd 6e3e
000001e0: 0d21 fd3c 1b20 71be a724 4fbe f858 f2bd
000001f0: f2e2 5f3e 8f49 52be 7821 7cbe edc0 c4bd
00000200: 4e77 34be dc08 4f3d 9366 dbbd 088e 733e
00000210: 8a8d 86bd 655c d9bd 757d 97be 26fb b1bd
00000220: 62b1 e8bd fec4 723e b4e3 1c3e 1a02 113d
00000230: 1d67 46bd 280d 02be 2e8c b2bc 9471 d3bc
00000240: 681f 68be 6f46 863a b631 ff3d a685 893e
00000250: da97 f73d 31bf fe3d 30a6 4dbe a4bd 923b
00000260: 00d1 883d 3913 7a3e 11f6 443d 028f 60be
00000270: 0e48 f03d f254 5ebe c519 8b3e 6d34 ec3d
0.18570268 -0.037041683 0.2617133 -0.17017777 -0.19689457 0.12234996 0.2519072 -0.17825969
-0.18067947 0.21238787 0.2534053 0.22192793 0.113832295 -0.031414762 -0.08869985 -0.08779625
0.07273595 0.19121978 -0.18812285 -0.04117237 -0.09562769 -0.15163967 0.29560804 -0.07719123
-0.08396446 0.047921646 0.2003253 -0.14403549 0.26440752 -0.24368972 0.16665176 0.08610157
-0.16197324 -0.022669151 0.00051019364 0.1419226 -0.089590676 -0.1627618 -0.24785843 0.2075628
-0.12286322 -0.05503255 0.070057765 -0.27941126 0.09070237 0.22339644 0.017864367 0.25662386
-0.035181247 -0.17029826 0.19438957 -0.07120004 0.0156852 0.09973175 0.046804983 0.12890841
-0.0033451403 0.06413049 0.08034156 0.26076454 0.15083086 0.12846543 0.020543374 -0.16308507
0.19340199 0.1383348 -0.1870557 -0.18035987 -0.10025342 -0.26883778 0.22507526 -0.2565383
-0.0858291 -0.25235602 -0.14422283 0.14917694 0.21039586 -0.019789213 -0.23408766 0.21179968
0.04494894 -0.0031151883 -0.0006034917 0.24075998 0.24242237 -0.13799956 -0.17343932 -0.16576031
0.2432861 0.11725108 -0.08865034 0.060883693 0.19543038 0.17027709 -0.17736176 -0.10604033
0.21624777 0.15889011 -0.117983274 -0.09865363 0.27601352 0.118320264 0.08648705 -0.23576316
0.1399331 0.26635218 0.07161593 -0.0008955119 -0.17185792 0.22805986 0.27367347 -0.0050272034
-0.1281422 -0.01766977 0.14388023 -0.004437889 0.25833443 0.043679204 -0.057505615 0.23314336
0.030899549 -0.23547404 -0.20228826 -0.11833376 0.21863917 -0.20535873 -0.24622142 -0.0960711
-0.17623636 0.05054556 -0.10712924 0.2378465 -0.06569965 -0.10613326 -0.29587904 -0.08690481
-0.11361958 0.23707959 0.15321237 0.035402395 -0.04843818 -0.12700331 -0.021795359 -0.025810994
-0.2266823 0.001024438 0.124606535 0.26859778 0.1208951 0.124388106 -0.20082927 0.0044781733
0.066804886 0.24421395 0.04808623 -0.21929553 0.11732493 -0.21712092 0.27168098 0.11533437

network.0.bias f4 [80]
00000000: 6eb1 33bd cfbd c3bb 7b08 8a3c 9d35 443b
00000010: e2f9 90b7 bc5d a4bb 7bd6 4ebd 0238 863d
00000020: c552 cdbc 5af0 2c3d 43c3 5d3d 59e9 e13b
00000030: 3994 4d3c 772d 04bd ed80 d4bc 005a 21bd
00000040: e7c5 4cba b679 673c f1f7 243d 1e09 b83c
00000050: dfdf f8bc a634 0c3d f59d 10bd 8c9f 4d3c
00000060: f9ec 123d b111 2d3d 50d1 5bbc d9d3 70bd
00000070: c8a8 97bc 6b42 f3bc 65b1 f2bc 8406 7a3c
00000080: 48a8 36bd 85d8 4f3c 24b7 d83b 11ef 35bd
00000090: ac59 7cbd 560e f6bd 8069 08bd aca0 263c
000000a0: c884 05bc 3a99 d739 e3c0 3dbd f5b2 613d
000000b0: 0efb a1bd 27cf 6b3c 6c8c 5cbd 153d ab3d
000000c0: 6a5e 5cbd 24d4 8e3d 9184 1f3c 9ec8 60bb
000000d0: 00aa bd3b aab8 8bbd b36c cabc 9c37 8e3c
000000e0: d17d 1bbc f43d 6ebd b9a8 48bd 0150 33bd
000000f0: 7ee8 e93d 5378 f33c e58f 17bc 60fe 953c
00000100: fa72 30bd 91e0 51bd 9401 8e3c e17c 68bd
00000110: 7729 3ebd 50f7 e2bb 7b83 dfbb e6b3 ca3d
00000120: 0e0f 373d 1f6c 2fbd a521 a23c 703a 443b
00000130: 9c58 463c 092f e13d 8e40 123c d775 d7bc
-0.043870382 -0.0059735547 0.016849747 0.0029939183 -1.7282498e-05 -0.005016057 -0.050497513 0.065536514
-0.025063882 0.042221405 0.054141294 0.0068942723 0.012547546 -0.03226992 -0.025940383 -0.03939247
-0.0007811472 0.014128139 0.040275518 0.022465285 -0.030380188 0.034229897 -0.03530689 0.012550246
0.035870526 0.0422532 -0.013416603 -0.058795784 -0.018513098 -0.029694756 -0.029625604 0.0152603425
-0.04459408 0.0126859 0.006613629 -0.044417445 -0.061608955 -0.12014453 -0.033303738 0.010170143
-0.008149333 0.00041122158 -0.04632653 0.055102307 -0.07909213 0.014392651 -0.053844854 0.0836126
-0.053800978 0.06974056 0.009736196 -0.0034299265 0.005788088 -0.06822331 -0.024710035 0.017360501
-0.009490446 -0.05816455 -0.04898903 -0.04377747 0.114212975 0.029720461 -0.009250616 0.018309772
-0.0430784 -0.051239554 0.017334737 -0.05675972 -0.046426263 -0.0069264546 -0.0068210936 0.09897594
0.04469209 -0.04282772 0.019791434 0.0029942058 0.012106087 0.10995299 0.008926524 -0.026301308

network.2.weight f4 [80, 80]
00000000: 4385 bb3d ba17 a0bc da6b 193e d5f7 9bbd
00000010: 906c 03bd fd07 05be e3f5 4abe 73bd 0cbe
00000020: aba4 7a3d b7cd debd 35c6 b7ba 5c0f c93c
00000030: 1194 f23d 0847 2b3b bbb9 86be 07f1 20be
00000040: 0ecf 3b3e 6a80 153e cf6e 803d 7825 243d
00000050: 2580 583d 2649 29be d503 2dbe 29d5 153e
00000060: 3b46 8cbc b5f4 14be feb1 fd3d 2b22 f83d
00000070: 8fb6 bb3c 362a 0abe aa79 6cbd 7448 1c3e
00000080: 6a71 b2bd cf69 1a3e e757 263e c033 39be
00000090: 4be5 37be 07ad 303e 43de 49bd 0f8b 513e
000000a0: 284c 3b3c de52 9dbc 7ec2 4bbe ac52 2d3d
000000b0: a3ea 84bd b21b 0a3e 2ced 39bd 5ca9 3e3e
000000c0: 474f 763d 1a1a 313e 7d03 3d3d dc0f 803d
000000d0: c426 2f3e 0552 45be a3b4 153d 62cf 103e
000000e0: e114 5e3d 3d22 18be 1505 063d 1277 30be
000000f0: 4f49 d63c 9ce2 303e 7e08 5cbe ec0a 4cbd
00000100: f2f0 efbd 7f0d e0bd 02ea aebd 4c87 e73d
00000110: b4e0 793c 8704 2b3e d038 c2bd a28f 063e
00000120: 4168 1c3d a96b efbd cc45 2c3e dd36 ab3d
00000130: 834b ebbd 9696 1abd 49c8 b5bd 10ca 243e
00000140: f831 16be ffd2 4dbe 907c 3a3e 13fa 58be
00000150: 9309 b23d 4014 f23d f9f0 2fbd 3a7c 2ebe
00000160: 0f44 823c 861d 0c3d 1b41 f53d e830 243e
00000170: dcda 683e 17a8 69bd d0c4 1dbe 428a 40bc
00000180: fcd9 f0bc 742b 18be 2b2c eb3d 7510 123e
00000190: e90c 12bd 791a 1bbe ecc3 ddbd a876 c2bd
000001a0: 5b8c f33c 5e7b fdbd 5ef6 c13d cdd8 6ebc
000001b0: 54be e13b f21c 163e dd9e 1e3b e6d2 cfbd
000001c0: 491d 423d 67f2 9dbd ba4f 06bc fe12 60be
000001d0: 175f 11be 9478 083e 30d9 bf3d a3c9 513e
000001e0: c238 24be d336 2abe 8bdc 61bd 7f93 103d
000001f0: 3a9a a83d 236c 283e c85e 60bd c845 463e
00000200: d72a c3bc fe40 d4bd 10ae fe3d c82a 09be
00000210: 57d9 00be 44c0 103e bd5c 98bd 27dd 4abe
00000220: dde4 12be ca9a 943d 3b8b 33be 58a6 88bd
00000230: 6330 4fbe 7745 5ebd d89f 69be ae46 61bd
00000240: a04a 483e d0bd 803d b89c e2bd c25f f3bd
00000250: 5753 df3b bfab e43d 0c2b 9a3c d5a6 983d
00000260: df7e 93bd 34f6 9abd 0c62 2ebe cfb3 333e
00000270: 8cfb eabd b7b9 64be 73e0 73bd 0fd5 2cbe
00000280: 448c db3d fdad 31be 81f5 a73b 0698 16be
00000290: ebc1 bfbd 21bb 99bd df18 4d3e 0416 d1bb
000002a0: 1780 1dbe 803f 43be 892d 17bd 41bc 22be
000002b0: fae5 463d fbd6 c73c 3a21 31be d732 5cbd
000002c0: 5f76 09be 9aa4 1abe 39a2 b33d 14c1 fb3d
000002d0: bdc7 28be c241 a1bd 370b 0e3e 9219 85bd
000002e0: bfbc 413d 2e25 04be 979f 103e 81c4 283b
000002f0: aa50 25be 7806 57bd 4fca 7fbd 5f59 5dbd
00000300: 49ee 023b 0136 8fbc 6c23 b5bd 7155 753d
00000310: 71e8 2c3c 9283 543e 7a56 fd3c 6217 5a3e
00000320: b5cb 013e 523d 443d 1d8a 72bc 20e0 423d
00000330: 5166 3f3d 97ab 13be e599 b53d acf9 0cbe
00000340: c67f ae3d b18f 9c3d 3871 de3d f6e1 ad3c
00000350: 3935 8cbd f96e 543e 9600 3d3d be1c 2e3e
00000360: dadf 113e 2f2a 00bd f9d1 b4bd 639f b13d
00000370: 8a6a 7dbe 0985 eabd f1c9 103e e4cd e2bd
00000380: c30c 88bd 18ec f6bd 6900 13bd 3a09 073d
00000390: a971 3dbd 922e 36bb ada6 8dbd 8790 efbb
000003a0: ccad 003e 96e7 293e 40a0 98bd bb73 e13d
000003b0: a367 aabd e0e8 03be 665b abbd f84d bd3d
000003c0: 63ab 623d 6e6f 3d3d 8fab 48be 506b f73d
000003d0: 5ba2 a2bd 8f48 0fbe ce8b e63d 65c2 313e
000003e0: 0a28 1b3e e85d 13bd d578 bb3d dcc4 b5bc
000003f0: f837 233e bc62 543e f9e5 03be 390e 40be
0.09156277 -0.019542564 0.14982548 -0.076156296 -0.032085955 -0.12991329 -0.19820361 -0.13744144
0.061192196 -0.10879081 -0.0014020862 0.024543457 0.11844648 0.0026134867 -0.26313576 -0.15716945
0.18340704 0.14599767 0.06271135 0.040074795 0.052856583 -0.1653181 -0.16895993 0.14632095
-0.017123332 -0.14546473 0.12387465 0.12115892 0.0229142 -0.13492665 -0.057733215 0.15262014
-0.08713038 0.15079425 0.1624447 -0.18086147 -0.17958562 0.17253505 -0.04928423 0.20463203
0.011431731 -0.019204553 -0.19898412 0.04231517 -0.06490066 0.13487127 -0.0453922 0.18619293
0.0601342 0.17295113 0.046145905 0.06253025 0.17104632 -0.19269569 0.03654922 0.1414161
0.05421913 -0.14856811 0.03271969 -0.17232922 0.026158003 0.17273945 -0.21487615 -0.049815103
-0.117158785 -0.10940074 -0.08540727 0.11305103 0.015251327 0.16700946 -0.094834924 0.13140729
0.03818536 -0.116904564 0.168235 0.08360074 -0.11489012 -0.037741266 -0.08876092 0.16092706
-0.14667499 -0.2010002 0.1821158 -0.21189146 0.086932324 0.11820269 -0.04295442 -0.17039576
0.015901593 0.034207843 0.119753085 0.16034281 0.22739738 -0.05704507 -0.1540711 -0.011751713
-0.029400818 -0.14860326 0.11483034 0.1426409 -0.035656843 -0.15146817 -0.10828385 -0.09495288
0.029730013 -0.12377046 0.09470819 -0.0145780565 0.006889144 0.1465948 0.0024203577 -0.101476476
0.04739121 -0.0771225 -0.008197719 -0.21882245 -0.1419643 0.13327247 0.09367597 0.20487075
-0.16037276 -0.16622476 -0.055141967 0.035296913 0.082325414 0.16447501 -0.05477789 0.19362557
-0.023824139 -0.10363959 0.124355435 -0.13395226 -0.12582909 0.14135844 -0.074395634 -0.19810925
-0.14345117 0.07256086 -0.17533581 -0.066723526 -0.20233302 -0.054265466 -0.22814882 -0.054999046
0.19559717 0.06286204 -0.11065048 -0.11883499 0.006815355 0.111655705 0.018819354 0.07453696
-0.07201933 -0.07566491 -0.1702959 0.1754906 -0.1147376 -0.2233647 -0.059540223 -0.1687815
0.10720113 -0.17351528 0.005125702 -0.1470643 -0.09363159 -0.07506395 0.20029019 -0.0063807983
-0.15380894 -0.19067192 -0.03690866 -0.15892126 0.048559166 0.024394503 -0.17297831 -0.053759422
-0.13424061 -0.15101853 0.08771176 0.12292686 -0.16482444 -0.078738704 0.13871466 -0.06499018
0.047299143 -0.12904808 0.14123379 0.002575189 -0.16144052 -0.052496403 -0.062448796 -0.05404031
0.0019978455 -0.017481806 -0.08844647 0.059895936 0.010553465 0.20753315 0.030925024 0.21297982
0.12675364 0.047910042 -0.014803437 0.047577024 0.046728436 -0.14420925 0.08867244 -0.13767117
0.085204646 0.076445945 0.108614385 0.02122591 -0.06846089 0.20745458 0.046143137 0.17003152
0.14245549 -0.03129023 -0.088291116 0.08672979 -0.24747673 -0.11451156 0.14139535 -0.11074427
-0.06643059 -0.1205675 -0.035889063 0.032967784 -0.046250973 -0.0027798754 -0.069165565 -0.00731093
0.12566298 0.1659225 -0.0745244 0.11008402 -0.083205484 -0.12881804 -0.08367042 0.09243387
0.05533923 0.046248846 -0.19596694 0.12081015 -0.07941123 -0.13992523 0.112571344 0.17359312
0.15151992 -0.035978228 0.09153906 -0.022188596 0.15939319 0.20740789 -0.12880696 -0.18755426

network.2.bias f4 [80]
00000000: a602 d33c ccd9 2abc f0dd dcbc c2a4 403c
00000010: d6b1 a0bc ba2a e1ba 928d 72bc 12a3 23bd
00000020: a04f 5e3d 4c63 203d 4f0e d6bc 839e 98bb
00000030: ba5d a83c e73f fbbc 36f5 2d3d c8e6 1e3c
00000040: 2b88 c3bd 95c6 8bbc d093 203c d7eb 29bc
00000050: ed26 27bd 6552 0abd 8234 fc3c 34fe efbc
00000060: b320 06bc 1c6c b93c 46bd cebb 94cd d83c
00000070: e0c5 ee3b 5d08 50bc 9e27 873a 6a12 563a
00000080: 70f4 5f3d 3660 a9bc 67d2 b1bc ef37 e03b
00000090: 911c ccbc b17c 2cbc 4230 efbc 3366 6a3c
000000a0: 07d0 0dbd fafb f53b 3c7d 8cbd a32c b4bc
000000b0: 4d14 a93c 7c0c d93b a2fa 06bd 42de ba3d
000000c0: b520 0a3d 659e 483c df5c 43bc 689e 953c
000000d0: dabb b83c b5be ad3c 673f 333d b2b6 e3bc
000000e0: 6f74 b8ba f573 c13c e39c 9d3c fba4 153c
000000f0: d113 35bc cc6b 82bc 4418 b9bb 0e4b 103c
00000100: ff09 013d 1d57 5abc 61cf e63c edd6 49bd
00000110: 86ad 18bd b3b1 3bbc dd4f 443d 39e2 753c
00000120: bb42 e1bc 65c0 1f3e dae8 9b3b 8e03 003c
00000130: e532 123c 3450 c0bc 4611 fbbb daf0 18bc
0.025758099 -0.010427903 -0.026961297 0.011758031 -0.019616049 -0.0017178871 -0.014804261 -0.039950438
0.054275155 0.039157197 -0.02612987 -0.004657568 0.020552505 -0.03067012 0.04247018 0.009698577
-0.09547456 -0.017062465 0.009800866 -0.01037117 -0.040808607 -0.033769984 0.030786756 -0.029296018
-0.008186507 0.022634558 -0.0063091842 0.026465215 0.007286772 -0.012697306 0.001031149 0.0008166196
0.054676473 -0.02067576 -0.021706773 0.0068426053 -0.024915965 -0.010527776 -0.029197816 0.014306593
-0.03462222 0.0075068446 -0.06859824 -0.02199394 0.020639563 0.0066238027 -0.032953866 0.091244236
0.033722598 0.012244795 -0.011923998 0.01826401 0.022550512 0.0212091 0.043761637 -0.027797077
-0.0014072786 0.023614863 0.019239848 0.009133573 -0.011052088 -0.015920542 -0.0056486446 0.008806957
0.031503674 -0.0133264335 0.028175058 -0.049277235 -0.03727486 -0.011455941 0.047927726 0.015007549
-0.02749764 0.15600736 0.0047579827 0.0078133475 0.008923267 -0.023475744 -0.0076619713 -0.009334767

network.4.weight f4 [80, 80]
00000000: 8da1 4d3e 1a27 6ebd 4045 6f3e 07ab 15be
00000010: 9699 133e 1a7f a43d 9853 023e a400 4b3e
00000020: 1914 e5bd 84ad dcbd 4c3e eabc 5998 4c3e
00000030: 36c7 85bc c9bc 62bd 53f0 1d3e c946 e3bd
00000040: bd84 7c3c df86 c4bd 05ec a23d de6a d2bc
00000050: 10e6 823d d9d5 a0bd b4a1 373e f056 423d
00000060: ad53 523d 906f ce3d 89b4 b73d aa06 013e
00000070: 02d2 40be 4e86 183d 2b93 373e cde7 3c3e
00000080: 458f f9bd 5602 44be 7753 363e e9fc b83d
00000090: 40c3 3f3e dc3a 18be e126 003d 4508 a5bd
000000a0: 6bb4 293e 704b 0d3d 1237 113e 4e61 14be
000000b0: 1484 6dbd 34c8 eb3d 7e00 f83d 32a7 06bd
000000c0: 13bf d43a 424f 2e3e 31d5 1c3e 7564 0fbe
000000d0: 92b2 9c3d 506f 743d ce49 22be a37d b93d
000000e0: 004c c63d 0c8a 47bd 70bc 06be a74d c03d
000000f0: a6bc e5bc b3b0 ed3d 8e58 1fbe 660a 31be
00000100: 7bea 0dbe c6d6 1fbe a12c 903d 7a31 2dbe
00000110: 82b9 e8bd 4ad0 bdbc 79a9 a5bc ec5f 7abd
00000120: b9b1 933d 8678 43be 9d50 583d 5a29 b3bd
00000130: 4482 19be 86d8 e1bb cc7a 1a3e 8095 593e
00000140: 0da7 f53c 4af0 6f3e 042a ddbc ce08 833d
00000150: bf24 20bd 8319 823e 7617 093e da68 403d
00000160: b725 643e fe0d 3c3e 7ae6 8d3d 6c4d 2e3d
00000170: 5f6e 603d 03cc 3d3d 5f91 fabc 700d 83bc
00000180: d9c0 37be 5b53 51be 3d96 303e 96e4 1d3e
00000190: f4ae 7bbe b96a 2dbe beb2 633e 5475 66be
000001a0: 58e8 9d3d ff67 903d 26f7 08be ac60 0e3e
000001b0: acd0 2cbd 290f 55be 777c edbd 2241 98bc
000001c0: ba1a 473e f45c 743d 8a53 1c3e 72bb 333e
000001d0: 1fc1 83be 733c 55be b40b 5a3d 9199 52be
000001e0: 110a 183e bd43 d7bd 04ce d2bd 8cca 143d
000001f0: 04a9 40be 1390 c93c ea6d 7cbc 1785 aa3d
00000200: cc91 383e b81d 3f3c f0b4 093e 8443 1f3e
00000210: c7c9 67bd d968 48be dd01 b63d 0289 11be
00000220: 77f8 ed3c c270 47bc 88a5 e33d 4cde d8bd
00000230: 2d3f 53be 6930 1cbe cc73 b1bd dcc6 083e
00000240: 3e05 11bd b751 4ebe 364e 773e a0e7 0bbe
00000250: 632f 42be e5a0 f0bd 036b 153e aa0c f63d
00000260: d668 cebe 5b13 923e 0fdc 01be 13fa 313a
00000270: b073 223e f40d 32bd c4be b73d 06e5 db3d
00000280: cd68 313e 20f5 383e d453 a93d 1c65 e73b
00000290: 3597 07be af73 4c3e 02ff 0abe bd87 0f3e
000002a0: 8c82 8cbd 3b94 363d 20ea ddbd 9d37 89bd
000002b0: 514b 64be a343 c73b a75f 043e d82a 263d
000002c0: d67e d8bc 89aa dc3c 96ec f33c fea6 1c3d
000002d0: 239e 1fbe 3e1c 363e d614 633c b04e 50be
000002e0: ecc8 20be 5086 69bd 5880 48bc 55d6 393e
000002f0: 788a 87bd f81f 42be 14ca eebc 3ed7 a63b
00000300: fbcb 593e 1349 30be 8d7b b73d 3088 8e3d
00000310: 4d50 143d 8fdf 32be bb53 093e b45a e5bd
00000320: 0e13 01be b361 dcbd d5a4 9bbd ec67 163e
00000330: 8db0 48bd 0bd6 b5bd fc12 06be e82f 563e
00000340: eef6 c03d 09f2 ec3d 08d0 25be ddf9 e5bd
00000350: df54 cd3d 8f65 0d3e 535d 25bd 8005 90bd
00000360: d49c 3bbe 1fc1 e9bd 2cc0 d13d aec2 7a3c
00000370: cf19 273e 651f 30be 93a7 8fba 093a c03c
00000380: 6b22 173d f462 3b3e 8f48 973d 8531 983d
00000390: 19e0 a2bd 9f75 af3d aec6 143e c7dc 29be
000003a0: 51f9 3fbe fb87 e13c 0d29 3bbe be64 bd3d
000003b0: 8bb8 a53d 15b3 d7bd d8ea 1abe a26c 2a3e
000003c0: 6798 363e 4ebc bdbd ca1f 643e 35ff cf3d
000003d0: ea80 313d 591f 203d 64de b73d 0133 d73c
000003e0: 0970 403e 93b1 303e f4b9 bfbd c139 debd
000003f0: c553 333d d05b f23d 6f55 183e 11ae 273d
0.20081158 -0.05814276 0.2336626 -0.14616023 0.14414057 0.08032055 0.12727201 0.19824463
-0.11185474 -0.10775283 -0.028594159 0.19979991 -0.016330343 -0.05535582 0.15423708 -0.110974856
0.015412507 -0.09596037 0.079551734 -0.025685724 0.06391537 -0.07853288 0.17932779 0.04744619
0.05134933 0.100798726 0.08969981 0.12600198 -0.18830112 0.037237458 0.17927234 0.184478
-0.121855296 -0.19141516 0.17805277 0.09032614 0.18726826 -0.14866203 0.031287078 -0.08058218
0.1657273 0.03449577 0.14181164 -0.14490244 -0.057987288 0.11512795 0.12109469 -0.032874294
0.0016231261 0.17022422 0.15315701 -0.14003165 0.07651247 0.05967647 -0.15848467 0.090571664
0.096824646 -0.048715636 -0.1315782 0.09389811 -0.028044056 0.11605968 -0.15561125 -0.17289123
-0.13858978 -0.15609273 0.07039762 -0.16913405 -0.11363508 -0.023170609 -0.020222412 -0.061126634
0.07211632 -0.19088945 0.052811254 -0.087481216 -0.14991099 -0.0068922667 0.15085906 0.21248436
0.029986883 0.23431507 -0.026997574 0.06398164 -0.039097544 0.2541009 0.13387856 0.046974994
0.22280012 0.18364713 0.069287255 0.042554304 0.054792758 0.04633714 -0.030586896 -0.015997618
-0.1794466 -0.20441954 0.17244811 0.1541923 -0.24578458 -0.16935243 0.22236153 -0.22505695
0.07710332 0.07051086 -0.1337553 0.13904065 -0.042191193 -0.20806564 -0.115960054 -0.018585745
0.19443789 0.05965896 0.15266243 0.17551973 -0.25733277 -0.20823841 0.053233817 -0.20566393
0.1484759 -0.10510967 -0.102932006 0.036325976 -0.18814474 0.024604833 -0.015407065 0.08326166
0.18024367 0.0116648 0.13447928 0.15553099 -0.056588914 -0.19571246 0.08887074 -0.1421242
0.029049141 -0.01217288 0.11115557 -0.10589275 -0.20629568 -0.15252842 -0.086646646 0.13357109
-0.03540539 -0.20148359 0.24150929 -0.13662577 -0.18963389 -0.11749438 0.14591603 0.12014134
-0.40314358 0.28530392 -0.12681602 0.0006789278 0.15864444 -0.043470338 0.089719325 0.10737042
0.17325135 0.18062258 0.08267942 0.0070616137 -0.13241275 0.19966005 -0.1357384 0.14016624
-0.06860837 0.044574957 -0.108356714 -0.067000605 -0.22294356 0.006081061 0.12927113 0.040568203
-0.026427668 0.026936786 0.029775899 0.038245194 -0.15587668 0.17784211 0.013859948 -0.20342517
-0.15701646 -0.057012856 -0.012237631 0.18148167 -0.06618208 -0.18957508 -0.029149093 0.005091577
0.21269219 -0.17215376 0.08959112 0.069595695 0.036209393 -0.17468093 0.13410847 -0.11198941
-0.12604925 -0.10760822 -0.075997986 0.1468808 -0.048996497 -0.08878716 -0.1309318 0.20916712
0.09422098 0.11569602 -0.16192639 -0.11229298 0.100259535 0.13808273 -0.040372204 -0.07032299
-0.18321544 -0.11413788 0.10241732 0.015305204 0.16318439 -0.17199476 -0.0010959975 0.023465173
0.036898058 0.18299466 0.07386886 0.0743132 -0.079528995 0.08567356 0.14528915 -0.16588126
-0.1874745 0.02753066 -0.18277378 0.09247731 0.080918394 -0.10532204 -0.15128648 0.16643003
0.17831574 -0.09264432 0.22277752 0.10156099 0.043335833 0.039092395 0.089779645 0.026269438
0.18792738 0.17255239 -0.093616396 -0.108508594 0.04378106 0.11833918 0.1487634 0.040937487

network.4.bias f4 [80]
00000000: efa1 2bbb 0cbe 413c 3e95 9b3b 43ee 653c
00000010: 6289 ad3c acc7 11bc 1235 d13b cf75 00bd
00000020: 689c 4cbb 42d0 633b 0917 b4bc 66d2 1e3c
00000030: ebd7 5dbb 3166 66bb 366b 1dbd 9033 1bbc
00000040: 1d08 d3bc 7a60 023d 043e f93b a58a ebbc
00000050: e19e 523c ddbc 013c 0744 b2bc fa7e 26bc
00000060: cbef f7bc 5787 ac3c 0cfe 4ebc 71f4 493c
00000070: b0cf be3c 5e1f 2839 7145 8fbc 518c 083c
00000080: 3bbd 93bc 240e 853b 674d d2b9 d9f7 323c
00000090: 1abc 4d3c 9d27 b63c b38a 2dbc 5d90 1fbc
000000a0: 0556 9dbb 8286 be3c 4d68 933c bcdc c23b
000000b0: b1d5 9b3c 7962 f2bc 5171 02bd 007b adbb
000000c0: d3c1 9ebc fad7 8fbc 14a9 a7bc b485 f9bc
000000d0: a0a1 f6bb f1b8 6fbd 52b5 14bd 5b58 93bc
000000e0: c234 bebc 5b35 febb 186d 58bd 5d40 3f3c
000000f0: a3b9 a93c 3c2f 6f3c 316c b13b fbb6 693c
00000100: f341 6fbd 1d88 b23c 6134 db3c 6d64 80bb
00000110: 9a0f 833c 8f96 d93b 20e7 413d 28e0 c2bb
00000120: 8e00 76bc fcc4 153d c892 3ebd d012 163c
00000130: 888b 5bbc f6a0 693c 9273 c73c bac0 0bbd
-0.002618905 0.011825096 0.0047480157 0.014033857 0.021183673 -0.008897703 0.0063845003 -0.03136235
-0.0031221155 0.0034761583 -0.02198364 0.009693718 -0.003385062 -0.0035156126 -0.038432322 -0.009472743
-0.025760705 0.03183029 0.00760627 -0.028752634 0.0128552625 0.007918564 -0.021760954 -0.0101621095
-0.03026571 0.021060629 -0.012633812 0.012326346 0.023292392 0.00016033414 -0.017489167 0.008334235
-0.018034568 0.0040605236 -0.0004011199 0.010923349 0.012557054 0.022235686 -0.0105921505 -0.009739009
-0.004801514 0.023257498 0.01799407 0.0059467237 0.019022794 -0.029587971 -0.03184635 -0.0052942038
-0.019379532 -0.01755904 -0.020466365 -0.030459262 -0.0075265914 -0.058525983 -0.036305733 -0.017986467
-0.023218516 -0.0077578253 -0.052838415 0.01167306 0.020718401 0.014598664 0.0054145087 0.014264817
-0.058412503 0.02179342 0.026758375 -0.0039182217 0.01599865 0.0066402624 0.04733956 -0.0059471317
-0.015014781 0.036564812 -0.0465267 0.009159759 -0.013399966 0.0142595675 0.0243471 -0.034119345

network.6.weight f4 [80, 80]
00000000: b37c 32be 4fda 6ebd 3763 223d 1cde 39bc
00000010: 248f be3d 90e0 b13d 27e2 b73d 993f 68bd
00000020: 914c 183e b410 433e e9c4 c93d 9e84 373e
00000030: 0303 e63d 5b36 a6bd d8d1 f03d 2591 803c
00000040: ee21 bb3d ec08 e53d 1b96 b1bd ecd5 c6bd
00000050: b093 d5bd 8d95 5e3d 4572 2b3e bc70 af3d
00000060: 6e2d adbc 6717 8cbd 7241 1d3e 9bbc 383e
00000070: 645b 0a3e 9189 063d d3fd 0fbd 3b51 6ebe
00000080: 1f34 8d3e febd d9bd f960 4f3d 6eed 0bbe
00000090: 0a66 44bd f053 eebd 811e 113e c56e 0bbd
000000a0: 0cd8 de3d 5899 1cbe 5779 a2bd e4ad 883d
000000b0: 09d8 3c3d 95ee 0d3e 9418 8f3b 71ec 123e
000000c0: 8711 c9bd 68fa 303e 7fc5 013e 0dc9 02be
000000d0: 4c58 3c3d c982 053d 0c74 013e aa12 843b
000000e0: 8a20 533e 60b2 353e 0884 09be 6dbc 31be
000000f0: a2f8 f5bd c489 86bc b978 353e 52c5 e3bb
00000100: cae8 3b3e bad8 763d e3ae 883d 5aa6 49be
00000110: ecfb aebc 2b51 3abe a8c5 423d 88c5 40bd
00000120: d84c 8cbd f2e1 4f3d 1d23 1bbe 49b8 4f3e
00000130: b12b 3a3e 5ade 043e 021b 773e 3b89 e93d
00000140: a956 1c3e 2f03 fc3c 8ea6 2cbe f6ab f7bd
00000150: 8eea 1c3e 811d c93d e7f8 b2bd 89b4 63bc
00000160: e342 42be de0e 89bc ab06 153e 606a eebd
00000170: 4432 3dbd 7c95 23be 0469 ca3d d0d7 f63d
00000180: d2b1 2ebc 9c1b f1bd ac27 273d 54f1 c4bd
00000190: 7786 34be 0687 d33d 6efa 2fbe 9dc4 b43d
000001a0: fbcc 22be f7a6 023e 9c71 53bb 2517 b73d
000001b0: 522a 113e b257 eb3d 27d7 3f3e c0e1 8e3d
000001c0: d1ca a2bd 0908 f43c 9e5c 97bd b4a8 c0bd
000001d0: 6c7c 3d3e 31fe 4a3c 6896 8dbd 1384 3ebe
000001e0: d723 dd3d 00ac 07be 72e8 fd3d fd27 f93c
000001f0: 0c12 62bc 728e 0e3e 99fd a23d f588 10be
00000200: f245 37be 1685 ea3d d2c9 bebd 7b3e 3bbd
00000210: c6a4 c7bd 4a22 113e ec54 9dbd dfcc 99bd
00000220: 36df e2bd 38d3 5a3d 575f 97bb ac2c ef3c
00000230: c87e 1dbe a4cf 343e 34f3 1b3e 9027 3abe
00000240: cb59 093d 0715 073e a232 35be 04f8 c73c
00000250: 588b 33bd 5360 553d c51e a73d 70b8 33bd
00000260: 60db 9c3c eade fb3b 9362 d4bd 9fde df3c
00000270: 4e02 a33c 4f59 05be fa26 0f3e 904e df3d
00000280: fb1a 91bd 2077 ca3d 4ad7 cf3d 7c3a 89be
00000290: ece7 f73d a540 54bd a22a 44be 6603 7fbd
000002a0: eee4 213e 2c4f 543e c389 be3b b9dc 323e
000002b0: 2df1 55be b23b c2bc 22fc 413e fc96 bcbd
000002c0: 6f61 7cbe 5a12 eebb 4e94 263d c377 be3c
000002d0: 4693 0fbe bd20 09be 4a7d 4b3e 5c7b 3cbe
000002e0: 6e2c 5dbd 98f1 25be b4d3 5ebe 880d 2b3d
000002f0: 5d4a b83d 41f0 d03d 5353 f1bd e1f4 4fbe
00000300: 3c3a 563e def7 45be 4239 183d c7a8 25be
00000310: 7e1c 9d3d f986 5d3e 67e9 0dbd 4b28 8a3d
00000320: ebcd 86bb bddd 8bbd ccb4 18be 55f5 8cbe
00000330: 4f6e 26bd bfc9 63be 6ec6 6cbe 8401 b03e
00000340: 2fba 16be 81a7 bfb9 c084 e9bd 958a 1d3e
00000350: 1dd6 cc3d c029 18be 386e b13d e7fa 763e
00000360: ad97 22bd bd33 ec3d 2233 1fbe 86e9 7bbe
00000370: b186 44bd 5a0e fb3d 736d 84bc d3b6 4c3e
00000380: 117c be3c a4a4 6dbe 188c 15bc 67cf 6ebe
00000390: 2371 e7bd fff4 703d bf2c 4abe 6445 2bbe
000003a0: 26b7 72bd db6e d0bd 442c aabd 63b9 d23d
000003b0: 9d20 1d3e 6888 00be 7bf0 863e 98e6 fabd
000003c0: 1ca0 2fbe fd9f 86bb 39df 39be 6c30 c73d
000003d0: 0d00 bf3d 42ba 0a3d 6b37 133d 67a8 2cbe
000003e0: 8938 3c3e 3dfe 6fbd 9e57 00be c994 043c
000003f0: 20ca 6d3c 955e b1bd f48c c9bd 3d2e 023e
-0.17430381 -0.058313664 0.0396454 -0.011344459 0.09304646 0.0868541 0.08978682 -0.056701276
0.14872958 0.1904934 0.09852011 0.17921683 0.11231043 -0.08115836 0.117587745 0.01569421
0.09137331 0.11183342 -0.086712085 -0.09708771 -0.1042856 0.05434184 0.16742809 0.08566424
-0.021139827 -0.06840401 0.15356997 0.18040697 0.13511425 0.032846037 -0.035154175 -0.23273174
0.27578828 -0.10631941 0.05062959 -0.13664791 -0.047948875 -0.116371036 0.14171793 -0.034041185
0.108810514 -0.15292871 -0.079333 0.06673792 0.046104465 0.13860543 0.0043669436 0.14348008
-0.09817796 0.17283022 0.12672995 -0.12772007 0.045982644 0.03259543 0.12641925 0.0040305452
0.20617881 0.17743826 -0.13429272 -0.17357035 -0.120103136 -0.016423114 0.17721833 -0.0069510126
0.1835052 0.06026528 0.06673982 -0.19692364 -0.02136036 -0.18195026 0.04755178 -0.04706338
-0.06850594 0.050752588 -0.15150113 0.20285143 0.1818073 0.12975445 0.24131396 0.11403128
0.15267433 0.030763237 -0.1686041 -0.12093346 0.1532385 0.098200805 -0.087388806 -0.013898023
-0.18970828 -0.016730722 0.14553325 -0.11641383 -0.046190515 -0.15974993 0.098833114 0.12052882
-0.010662513 -0.11772844 0.04080932 -0.09616342 -0.1762942 0.10328488 -0.17185375 0.088265635
-0.15898506 0.12759005 -0.0032263761 0.08939961 0.141763 0.11491336 0.18734418 0.06976652
-0.079488404 0.029788988 -0.07390712 -0.094071776 0.18504494 0.0123897055 -0.06913453 -0.1860507
0.107978515 -0.13249207 0.12397851 0.030414576 -0.013798248 0.13921526 0.07958526 -0.14114745
-0.17897776 0.114511654 -0.09315838 -0.045713883 -0.09748225 0.14173236 -0.07682213 -0.07509779
-0.1107773 0.05342409 -0.0046195197 0.029196106 -0.15380394 0.17657334 0.15229493 -0.18179154
0.0335329 0.13191615 -0.17695096 0.024410255 -0.04383406 0.052093815 0.08160166 -0.043877065
0.019147575 0.0076864855 -0.10370364 0.027327834 0.01989856 -0.1302235 0.13979712 0.109036565
-0.07085224 0.098860025 0.10148485 -0.26802433 0.121047825 -0.051819462 -0.19156888 -0.0622591
0.15809986 0.20733327 0.0058147623 0.17467012 -0.20892783 -0.023710106 0.18943837 -0.092084855
-0.24646543 -0.0072653713 0.040668778 0.023250466 -0.14021024 -0.13391395 0.19872013 -0.18406433
-0.05399745 -0.16205442 -0.21760446 0.04176095 0.08998559 0.10202075 -0.11783471 -0.20308258
0.20920652 -0.19332835 0.03716398 -0.16177665 0.0767145 0.21633519 -0.034646418 0.067459665
-0.004113903 -0.068294026 -0.14912719 -0.27530923 -0.040632542 -0.22244929 -0.2312257 0.34376156
-0.14719461 -0.0003655516 -0.11402273 0.15384896 0.10001776 -0.14859676 0.08663601 0.24119149
-0.03969543 0.11533306 -0.1554685 -0.24600801 -0.047980014 0.12258597 -0.01616547 0.19991617
0.023252519 -0.23207337 -0.009127639 -0.23321305 -0.11300876 0.058827396 -0.19743632 -0.16725689
-0.059256695 -0.10177394 -0.08309224 0.10289266 0.15344472 -0.12552035 0.26355347 -0.122510135
-0.1715092 -0.0041084276 -0.18151559 0.097260326 0.093261816 0.033869036 0.035941523 -0.16861115
0.18380941 -0.05859207 -0.12533423 0.008092114 0.014513522 -0.08660618 -0.09841338 0.12712951

network.6.bias f4 [80]
00000000: a5c6 d8bc f423 d03b 60aa 4cbc a7e9 393d
00000010: 912b d93b ca3d ee3b fb47 0d3d 5363 b53b
00000020: 3d5e a1bc 0e1b 983b d307 2ebd e381 e43b
00000030: 68e7 f33b d93f db3b 7c60 883a 1619 aebc
00000040: 57b4 0a3c ca30 653c f00e 5fbb 73ee 3ebc
00000050: 7fb3 383d dd06 cd3c 4edf 903c aab2 17bd
00000060: 265e 2fbd ae7a 9e3c 2788 52bc c6c2 933b
00000070: ef4b cdbc 8fae 5ebc ba67 90bc 7e44 d33c
00000080: 9633 613c 29d0 1b3c 9fdc 553c c413 b73c
00000090: a6ef 493c db8f 033d 25a8 d9bc 5379 ae3c
000000a0: 37c9 ecbb 751b c5bc 5156 03bd 5c95 4ebb
000000b0: 6513 5abb 943b 9fbc fbff 9a3c 6bff 9f3b
000000c0: 7082 49bb 64e6 f3bc 6f41 cc3b e301 393d
000000d0: 3216 51b9 db89 ac3c cabb f7ba 49c7 243d
000000e0: 3293 793d 10a3 52bb 3628 103d 007d fbba
000000f0: 2c14 983a a682 d2bc bdd8 6abc 2367 0a3b
00000100: 090c 7ebc 5df1 35bc 08c3 523a 4e88 c9ba
00000110: 5ce5 b4bb 5b7d 133d 4d65 84ba cb4a efbc
00000120: a5de 683d 3a56 203c f5a9 953b f13e 5dbc
00000130: d388 d439 4953 c8bb 642f 13bb d036 a9bc
-0.026461909 0.006351942 -0.012491792 0.045388844 0.006627508 0.0072705494 0.034492474 0.005535522
-0.019698257 0.004641897 -0.04248793 0.0069734915 0.0074433573 0.006690961 0.0010404731 -0.021252196
0.008465848 0.013988683 -0.0034036003 -0.01165353 0.045093056 0.025027687 0.017684605 -0.03703562
-0.042814396 0.019345608 -0.012849844 0.004509303 -0.025060622 -0.013591423 -0.017627586 0.025789496
0.013745209 0.0095100785 0.013053088 0.022348292 0.012325203 0.032119613 -0.026569435 0.021298086
-0.007226135 -0.024060944 -0.03206474 -0.003152213 -0.003327572 -0.019437589 0.01892089 0.004882743
-0.0030747913 -0.029772945 0.006233386 0.045167815 -0.00019940062 0.021061828 -0.001890057 0.040229116
0.060931392 -0.003214065 0.0351946 -0.0019187033 0.0011602691 -0.025697064 -0.014333901 0.0021118603
-0.015505799 -0.011104909 0.0008039926 -0.0015375705 -0.005520506 0.03600822 -0.0010100991 -0.029210469
0.056852955 0.009786183 0.0045673796 -0.013503776 0.00040537733 -0.006113444 -0.0022458667 -0.02065602

network.8.weight f4 [80, 80]
00000000: 7584 22be 1aa3 12be 161b 233e 5d2f 4fbe
00000010: eafc 0abd a768 1d3e 2362 0ebd 2ba7 06bc
00000020: fc52 083e 742b 2c3e 206a 9ebc 9a7e 2d3e
00000030: a4eb 8bbe b505 3a3d 6880 ddbd 4b66 debd
00000040: 42a5 0b3d 2448 6e3c bc22 553e 30e7 4b3e
00000050: 7919 ac3d 3e1f 56bd 4ab5 313e 340f afbd
00000060: 2681 afbd deb2 a5bd 235b e0bd ab4a ccbd
00000070: 05ee 0a3e 3d34 d9bd 833f 603e 1508 2cbe
00000080: 6dd3 edbd 97f9 8f3c 0d71 163d a8e8 c0bd
00000090: 4c4b d5bd fe14 0f3e a6ad d2bd 0005 b7bc
000000a0: 5952 023e 4fc8 5b3d 58d0 863d a0cc aabd
000000b0: dbf3 fdbd 5039 ed3d 8ebf 06bd d2bc ff3d
000000c0: caa2 1c3e a11e 233e 6d6e 963d f89e 04be
000000d0: 3c73 203d f8a8 0cbe b1a7 973d 9da1 dabd
000000e0: 99ab 933d da63 72bd f7d0 1ebe b3f2 4ebd
000000f0: 4787 ee3d 32f9 dcbc cb64 203e d5fb 6abd
00000100: 6af8 8dbd 92fb 1d3e 95bc e13d f582 233d
00000110: c05b 51be 838c b53d 4db8 91bd 811b cd3d
00000120: 4b96 ab3c fbc3 133d 08cf 273e c786 db3d
00000130: 36a1 b3bd 9d92 d6bd 368c 64be b2b2 073e
00000140: 45ff d93c d12b babd 81fe 813c bdd8 ed3d
00000150: 576c d13d de12 ebba 0b75 0b3e 00db 48be
00000160: 388b f5bd c3ac 3abe 1acf 09be 0bfa 163d
00000170: fccc 0b3d 3921 49bd c33d ec3c 4bb3 0f3e
00000180: 0ec0 b1bd 1245 2cbe 2f6f 493e 5796 a2bc
00000190: 3921 293e 6bcd 693d 8171 033e 3421 c53d
000001a0: aefb 82bd e189 ec3d 3382 0c3e 28fd acbc
000001b0: 5eab 463e 56f6 fc3d 5b93 8e3d 0011 7a3d
000001c0: 65bf 0dbe 7d06 243e c6b8 bd3d ca83 e8bc
000001d0: 0d1d 67bd 94da eebc 9e87 40be e91b 2abe
000001e0: 2fb6 c9bc 2028 563d 4ece 4f3e 98d9 95bd
000001f0: 56b7 6bbd b3f1 f7bb 0e36 9bbd 9cd0 0b3e
00000200: 77fa e63d 7f51 2fbe d96a 663c d464 e63c
00000210: 4cb2 233d 8b8d 01be 520e 253c cfd3 d3bd
00000220: d0be b63c 1e37 f83d cbbd df3c 1f38 953d
00000230: 216d d8bd 4879 353e a9eb 4c3e 6f8b eabd
00000240: 5229 46bd 6815 353d db84 a0bd 3748 6c3d
00000250: 9309 733d acd3 e8bd e23e 28be 9cdd 06be
00000260: 97ae c43d 35e2 6dbe fc04 133d a83f 183e
00000270: 88fb 523e c7ae 69bd d00a 1a3e e98f df3b
00000280: 8bc6 4ebe ad4e 443d 7b9e ad3d e768 103e
00000290: b0ac 143d 8a6d 8a3e 7cbb 03be f1ec f9bd
000002a0: d7bb d5bd eb10 733e d2ff aabc e0d4 753e
000002b0: 52af 813d 3e65 26bd e1f8 33be 585f 89bd
000002c0: 70a7 643e be7a 1f3d c3c4 0a3e 354e 283d
000002d0: 0d07 983d 0337 0f3e 39fd 6d3d 0469 5ebd
000002e0: aebb 17bd ad9c cf3c 5635 7ebd c876 5e3e
000002f0: 1315 0cbc 00f7 8e3e 16cc 54bd da8b 0abe
00000300: 6b9c 11be 4263 2d3e 9c3f 113e cab7 fabd
00000310: dc91 2f3e 9d89 efbd 61c1 053e e5db a3bc
00000320: 8d0a 023e 8735 0e3e cabd 54be d4e7 6ebe
00000330: 1d20 2cbc 53f0 543e 0d13 26be 84d7 4dbd
00000340: ecad 453e aadf 1abe 43ab 003e e26d 653d
00000350: 571f dc3c aa0c 1bbd 6305 d7bd fbe3 2cbe
00000360: bdb1 b63d a779 393e 38e1 103d 0d83 19be
00000370: e3f7 65be 75fe 1c3e 45f9 1dbe 56f4 87be
00000380: 250c 693e 3026 dd3d 84da 5f3e f162 263d
00000390: aaa3 4fbd 435f d0bb 2db7 ac3d 239f 1e3c
000003a0: fbe4 6e3e 5e33 0cbe bf8e 303b bd4d 20bc
000003b0: 5b65 28be 2ef2 32bd c7ee 85bd 2281 1fbd
000003c0: 4e79 02bd 8c09 4bbd 89d7 44be f394 143e
000003d0: 72ed 1f3e e001 093e a4e8 35be 1ee2 0cbe
000003e0: 5e03 083d 7ccc 44be 0919 4d3d 4e78 013e
000003f0: b6f9 773d 447c d2bd c8ba 5c3e 7df8 22bd
-0.15870841 -0.14320031 0.15928301 -0.20232911 -0.033932604 0.15371953 -0.03476156 -0.008218567
0.13312906 0.16813451 -0.019337714 0.16942826 -0.27328217 0.0454156 -0.10815507 -0.108593546
0.03409315 0.014543567 0.20814031 0.1991241 0.08403296 -0.05227589 0.17354313 -0.08547822
-0.08569555 -0.08090757 -0.10954883 -0.09975179 0.1356736 -0.10605667 0.21899228 -0.16799958
-0.11612592 0.017575068 0.036728907 -0.09419376 -0.10414752 0.13972852 -0.10287027 -0.022341251
0.12726726 0.053657826 0.06582707 -0.0833981 -0.12400027 0.11583197 -0.032897525 0.124871865
0.15296474 0.15929653 0.07345281 -0.12951267 0.039172396 -0.13736331 0.074050315 -0.106753565
0.07210464 -0.059177257 -0.15509401 -0.050524425 0.11646896 -0.026974294 0.1566345 -0.057369072
-0.06932147 0.15427998 0.11022297 0.039919812 -0.20445156 0.08864691 -0.07115231 0.100150116
0.020945689 0.036075573 0.1638757 0.10719066 -0.08770983 -0.10477183 -0.22319111 0.1325176
0.02661098 -0.090903886 0.015868427 0.11613605 0.10225742 -0.00179347 0.13618867 -0.19614792
-0.119894445 -0.18229966 -0.13457909 0.036859553 0.034131035 -0.04910395 0.028838044 0.14033239
-0.0867921 -0.16823223 0.1967132 -0.019847078 0.1651658 0.057080667 0.12836267 0.096254736
-0.0639566 0.11549736 0.13721542 -0.021116808 0.19401309 0.12351672 0.069616996 0.06105137
-0.13842542 0.160181 0.09263758 -0.028383154 -0.05642419 -0.02915696 -0.18801734 -0.1661221
-0.024623005 0.05228436 0.20293543 -0.07316893 -0.05754789 -0.0075666546 -0.075786695 0.13653797
0.11278241 -0.17120932 0.01406356 0.02812425 0.03996496 -0.1265165 0.010074215 -0.10343134
0.022307783 0.12119888 0.02731218 0.07286095 -0.1056769 0.17722046 0.20011772 -0.11452376
-0.04837925 0.044209868 -0.0783784 0.057686057 0.059335303 -0.11368498 -0.16430238 -0.13170475
0.09603613 -0.23230822 0.035893425 0.14868033 0.20603764 -0.057051446 0.15043187 0.0068225753
-0.20192926 0.047926594 0.084774934 0.14102517 0.0362975 0.27036697 -0.12864488 -0.12203396
-0.10436218 0.23736922 -0.020873938 0.24006987 0.06332268 -0.040623896 -0.17575409 -0.067076385
0.22329497 0.038935415 0.13551621 0.04109021 0.0742322 0.13985829 0.05810282 -0.05429937
-0.03704422 0.025343264 -0.062062584 0.21724999 -0.008549946 0.2792282 -0.051952444 -0.13529912
-0.14219825 0.16932395 0.14184421 -0.12242086 0.17145485 -0.116961695 0.1306205 -0.020002315
0.12699337 0.13887607 -0.20775524 -0.23330623 -0.010505703 0.20794801 -0.16218205 -0.05025436
0.19304627 -0.15124384 0.12565331 0.056012996 0.026870413 -0.037853874 -0.10499074 -0.16883843
0.0892062 0.18112813 0.035371035 -0.14991398 -0.22457843 0.15331443 -0.1542712 -0.265536
0.22758539 0.10798299 0.21860701 0.0406217 -0.05069319 -0.0063590123 0.084333755 0.009681496
0.23329537 -0.1369147 0.0026940552 -0.009784159 -0.16444914 -0.04368799 -0.06539684 -0.03894151
-0.031853966 -0.04956965 -0.19222845 0.14509945 0.15617922 0.13379622 -0.17764527 -0.13758132
0.033206336 -0.1921863 0.050072704 0.12643549 0.060540877 -0.10277608 0.21555626 -0.03978776

network.8.bias f4 [80]
00000000: 2e62 9abb 4e9b 5aba 54ec f53c 2828 ae3b
00000010: c397 74bb 09a9 373c 8270 6c3d 71e2 08bd
00000020: 259a 96bc ac75 00bc 15aa 4e3c d00e ae39
00000030: a627 8a3c 1dd7 02bc 1d0a dc3c b03e 333b
00000040: 41df c03b 8318 2f3c fb08 303c aa62 fd3c
00000050: 4b64 773c ea42 d8bc 03bd d2bc 5a11 0cbc
00000060: 3550 383b f2d6 fd3c ddc2 d53c 6f34 b7bc
00000070: 2219 27bd dd06 22bc 77c4 7a3b b2dc fdbc
00000080: 73ee c7b9 299d 8bbc c1b3 dabc 5b8d 0bba
00000090: 6424 dc3b cd94 14bd 0bae 303c 8b38 5d3c
000000a0: 72c1 83bb 0563 a7bb 9db9 45bc 8e28 44bc
000000b0: fe83 babc 40c6 14bc d72a ac3c 27c3 d6bc
000000c0: b3a9 b73b ff72 c6bc 31b0 583c 8733 bd3c
000000d0: 748c 19bc 8667 8438 5fb9 79bc cbd5 4ebb
000000e0: 20af 49bb cac7 b73b f38e 803c 4a44 acbb
000000f0: d78a 3abd 1728 3a3d 7ec9 dcbb 3b00 3abc
00000100: fa0b e83a 0cfb 8fba edb9 4c3c 1d9d f33c
00000110: 37e4 40bc 3b95 9b3c 8701 833c d5eb 8bbc
00000120: 45aa 28bc 1101 8c3c 7693 26bc 24a6 f13c
00000130: 0d5d 35bb 8bc8 5e3c 9472 273c 18d7 883c
-0.004711411 -0.0008339182 0.030019917 0.0053148456 -0.0037321902 0.011209735 0.057724483 -0.033419076
-0.018384049 -0.007840555 0.012613793 0.00033198902 0.016864609 -0.007985857 0.026860291 0.0027350597
0.005885989 0.010686996 0.010744329 0.030930836 0.015099595 -0.026399095 -0.025724893 -0.008549059
0.002812398 0.030986283 0.026093895 -0.02236387 -0.040795453 -0.009889332 0.0038264075 -0.030989025
-0.00038133896 -0.017042713 -0.026697041 -0.0005323493 0.0067182053 -0.03627472 0.010783683 0.01350225
-0.004020863 -0.0051082396 -0.012068179 -0.01197256 -0.022768017 -0.00908047 0.021016521 -0.026216103
0.0056049465 -0.024224756 0.013225601 0.02309586 -0.009371866 6.313533e-05 -0.01524195 -0.0031560536
-0.0030774549 0.0056085335 0.015693163 -0.005257164 -0.045542564 0.04544839 -0.006737887 -0.011352594
0.0017703765 -0.0010984852 0.0124955 0.029738003 -0.011773161 0.018992057 0.01599194 -0.017080227
-0.010294502 0.017090352 -0.010166993 0.029498167 -0.002767387 0.013597618 0.010220189 0.016704127

network.10.weight f4 [80, 80]
00000000: 957a 08be 75e6 b6bc 93bb bf3d 24d1 10bd
00000010: 37c8 38be 25fb a2bc 8744 a93c 0e82 1f3d
00000020: 67b0 08bd 18d6 39bc b55e b0bd c176 47be
00000030: bd08 1ebe 5d3c 823d 323d 25bd 7ce4 12be
00000040: 1269 463e e77e 60be d666 09be a89c 963d
00000050: c02e 213e a528 0c3e ef8a a5bd 7ec0 b8bd
00000060: 1824 433e 93a1 45bd d444 14bd 0a12 213c
00000070: c679 583d 302b 0d3e 0984 19be b60e 3a3e
00000080: 6122 29be 0bc8 8d3d d136 01bd 79ed 433e
00000090: f89c 283d 0dd3 153e 0e55 0bbe 0285 e23d
000000a0: af8b 1b3e 3870 33be a749 b3bd 6a41 48bd
000000b0: aeba 403d 640d e6bd 7430 aebd ba06 273d
000000c0: cf1a 2dbc 4558 023e 84ff db3d 984c efbd
000000d0: d1a8 9b3d 5d92 e43d 4e4b a83d 128a 243b
000000e0: 1697 07be 8b21 00be d3e4 b9bd 9a11 913c
000000f0: 0b6a 8b3c 7083 9d3c aadb 3c3e a150 383e
00000100: 4137 433e b7b9 6abd 3a19 65bc e56e 28be
00000110: 24a2 333d 523a c43c 5271 e93d 3108 693d
00000120: 0c3c 81bd 1be4 933d 73cb 203e c7cd 9a3c
00000130: 56dc ff3d eb9a a1bd 534d e2bd a6ab e7bd
00000140: 128d ac3c a0dc a3bd a6c4 ca3d b885 4f3e
00000150: f567 91bc 0bb5 443e 11cf 5b3e 4695 f9ba
00000160: 5a3e 643d fd20 e4bd 34e0 fc3d 1ce9 d53c
00000170: 100b d63d 0768 60bc b8c8 4e3e 6678 fa3d
00000180: 551e 0a3e 4388 143e 67db 083e 725a 9e3d
00000190: e290 8abd 352e 3bbe 07b0 063d b739 413d
000001a0: 3861 de3c ab80 ccbd 26a5 22bd b458 0bbd
000001b0: 3a99 f53d 14cc 083e 14f0 46bd b4f9 10be
000001c0: a7c1 9abc 6697 cf3d ebb1 0bbd 49d0 50be
000001d0: e6ab c1bc 49ba 0fbe 58a7 9d3d b881 383e
000001e0: 8203 d2bd 6a36 a0bd b10f 293e 02f4 c8bc
000001f0: e2b3 473d 5e2b f6bd afec b83d 5ea7 25bd
00000200: 56bc d73d 1471 923d 5498 063e 4cee 5c3e
00000210: b534 c8bd 3351 e93d 4f0a 93bc 3e99 21be
00000220: d834 2bbe 6fd1 da3d 192f b9bd d482 0c3e
00000230: 6ad2 75be f077 1b3e a567 3bbe 11f2 49bd
00000240: 6bdb 14be b2f0 d73d 6e5d 52be 6e07 28bd
00000250: 17bf 3b3e 2f45 4a3e 1721 043e 0e48 853d
00000260: 5d5d 1dbe 353f 1c3b 3554 3fbd e3c8 d63b
00000270: 847c 1d3e 2cac 93bd 463c 833d d1cd 41be
00000280: d0ff 5d3a 84ce 893d d397 c43d 63b2 6c3e
00000290: f642 60bc 65a6 723e f511 b0bd 4d6d 693d
000002a0: 6f81 84bb 6f59 b03d 23a1 60be 2c91 51be
000002b0: 7635 5cbe 312a 693e e22a 5e3e 3519 123e
000002c0: 3609 da3d e3f2 233e 5f3a 363d 8002 68bd
000002d0: a354 703d d823 43be 43ea 06be 5ff5 cdbb
000002e0: ade8 953c b7d3 2d3e 5a2b 4b3e 2e23 d33d
000002f0: 62ba d83d a8bc 633d 78f4 303e f752 0f3e
00000300: b7fc 17be 948a 04be ca77 08be d41b 8bbd
00000310: fea2 6ebd 7e88 3cbe 6f9b a3bc 63e5 ab3d
00000320: 1ef2 cd3c 6149 4d3e 7165 7abc 0b0c ebbd
00000330: 017b 53be b7f3 803c cf82 ef3d cb5d c2bc
00000340: 4ac1 f83d 7516 593d 6357 0fbe 8ae1 933d
00000350: 3f09 72be 34ee b23d a9ec 17be 9cbb 0dbd
00000360: 8f1e f7bd 5451 b43c 5a28 083e 37bb 0fbe
00000370: a0ef 723d a299 86bc cdba 8abd 929c 01be
00000380: d9b2 28be 1439 e4ba c028 eb38 9a9f 883e
00000390: 2985 883d c587 1bbd aca0 1cbe 340e 6fbd
000003a0: 1d5a 0fbc 471a c63b 3ee0 953c 224d e73d
000003b0: 8432 c93d a43d 41bb d93d 87bc deec 19bd
000003c0: 2f88 47bd 4510 9cbd 2873 90bd 4ea6 ddbd
000003d0: 496f e63d 5bf0 cbbd 748b ba3c 3084 4e3d
000003e0: a870 55be 48f7 4b3e aaf4 bcba 543b 143e
000003f0: 4112 b9bd 081f fc3d 525d 0abe 2451 6e3d
-0.13328011 -0.022326687 0.09361949 -0.035355702 -0.18045126 -0.019895146 0.02066256 0.03894239
-0.033371355 -0.011342548 -0.08611814 -0.19478895 -0.15433021 0.0635917 -0.040341564 -0.14344972
0.19376019 -0.2192341 -0.13418135 0.073540986 0.1574049 0.1368738 -0.0808314 -0.0902109
0.19056737 -0.048249792 -0.036198452 0.009830961 0.052850507 0.13786006 -0.14991774 0.18169674
-0.16517021 0.06922921 -0.031546418 0.19133557 0.041165322 0.1463129 -0.13606665 0.110605255
0.15190004 -0.17523277 -0.087542824 -0.04889051 0.04705303 -0.11233023 -0.085053355 0.0407779
-0.010565474 0.12728985 0.10742095 -0.11684531 0.076005585 0.11160729 0.08217488 0.002510671
-0.13241228 -0.12512796 -0.09076848 0.017708588 0.017018339 0.019227713 0.1844317 0.17999507
0.19064046 -0.057306018 -0.013983065 -0.16448553 0.0438558 0.02395359 0.11398567 0.056892578
-0.06310281 0.07221242 0.1570261 0.01889695 0.124931976 -0.078908764 -0.11049905 -0.11312036
0.021063361 -0.08001065 0.09900789 0.20265853 -0.017749766 0.19209687 0.21465708 -0.0019041679
0.055723526 -0.111391045 0.12347451 0.026112132 0.10451329 -0.013696677 0.20193756 0.122299954
0.13488133 0.14505105 0.13364945 0.07732095 -0.067659155 -0.18279345 0.032882717 0.04717418
0.027145967 -0.09985479 -0.03970828 -0.03402014 0.11992116 0.133591 -0.0485688 -0.14157754
-0.018891169 0.10136299 -0.034105223 -0.20391954 -0.023641538 -0.14035906 0.07697934 0.18018234
-0.10254575 -0.07822879 0.16509892 -0.024530414 0.048755534 -0.120199904 0.09029519 -0.040442817
0.10533969 0.07150474 0.13144046 0.21575278 -0.09775678 0.11392441 -0.017949251 -0.15781114
-0.16719377 0.106844775 -0.09042186 0.13721782 -0.24006048 0.15182471 -0.18301256 -0.04930312
-0.14536826 0.10543956 -0.20543453 -0.04102271 0.18334614 0.19752954 0.12903248 0.06507884
-0.15367647 0.0023841385 -0.046711165 0.0065547093 0.1537953 -0.072105736 0.064079806 -0.18926169
0.00084686 0.06728843 0.09599271 0.23114924 -0.01368784 0.23696287 -0.08597175 0.056989003
-0.00404375 0.08610808 -0.21936469 -0.20465535 -0.21504769 0.22770001 0.21696046 0.14267428
0.10646288 0.16010623 0.04448926 -0.05664301 0.058674466 -0.19056642 -0.13175301 -0.006285354
0.018299425 0.16975294 0.19840756 0.10309444 0.10582425 0.05559984 0.17280757 0.13996492
-0.14842497 -0.12943488 -0.13326946 -0.06792417 -0.05826091 -0.18411443 -0.019971577 0.083933614
0.025139865 0.20047523 -0.015282975 -0.114769064 -0.20652391 0.015741212 0.11694872 -0.023726365
0.12146242 0.052999932 -0.13998179 0.072207525 -0.2363634 0.0873684 -0.14836372 -0.034602746
-0.120663755 0.022011437 0.13296643 -0.1403626 0.059310555 -0.01643068 -0.06773911 -0.12657383
-0.16474475 -0.001741203 0.000112132635 0.26684266 0.06666023 -0.037971277 -0.15295666 -0.058363155
-0.008749512 0.006045613 0.018295404 0.11294009 0.09824088 -0.0029486204 -0.016508983 -0.03757941
-0.04871386 -0.07620291 -0.07053214 -0.10822736 0.11251695 -0.099579535 0.022771575 0.050419033
-0.20843756 0.19918549 -0.0014416177 0.14475757 -0.09036685 0.12310606 -0.13512161 0.05818285

network.10.bias f4 [80]
00000000: 1434 46bc 1025 783d 8232 2e3c fb9a ba3c
00000010: eccf 8d3c 2f09 d63c e1c9 eb3c 721b 19bd
00000020: ab5d e3bc 2d48 21bd c57c a4bb 4dfe 2b3d
00000030: bec7 d73c 3406 bcbc c52d 0b3d 9807 0fbc
00000040: bbc8 a6bb 1048 a8ba 3628 0b3b d38d 893c
00000050: 17b3 41bc 4154 e73c 78d1 18bd a2f2 3a3c
00000060: d1bd 243c 46c6 1b3d eb29 babb d932 be3c
00000070: 2fdc a2bc b5ec 613c 4a11 4b3c 18d2 08bb
00000080: 476e 013d da67 7b3c 3911 20bb 987b 9e3c
00000090: 698a 643c 55d7 19bd 4665 49bc a344 ddbc
000000a0: 7f83 f03b 8691 dfbc cec3 b83c 2fcc 6e3b
000000b0: f1a4 533c 2424 15bd 957a 8a3c c5d7 3abc
000000c0: b31c c5bb e2f6 e0bb 5ce3 b53c 87af 74bc
000000d0: d56b 9dbc c96a aabc 97bd b03b 0a02 a0bc
000000e0: b0c6 83bc 35c1 5bbd 9078 103b 2e1c 8db8
000000f0: 70d4 a03c 0c5c 14bb b520 8fbc cfe7 703c
00000100: 8f6a 4cbc 9ddb bd3b 365a 4a3b 9bd1 1f3d
00000110: 9e57 2d3c 359d 93bc e150 20bd 3112 963c
00000120: 1bdc 683c 38f0 cebc c7a8 e939 879d 0d3c
00000130: 3204 983c 3ab2 0a3b 884b cc3b 75ad 5cba
-0.012097377 0.06058222 0.010632159 0.022778979 0.017311059 0.026127426 0.028782787 -0.03737969
-0.027754625 -0.039375473 -0.0050197565 0.041990567 0.026340362 -0.022952177 0.033979196 -0.008729838
-0.005089847 -0.0012838859 0.0021233684 0.01679126 -0.0118224835 0.028238418 -0.03730914 0.011410387
0.010055021 0.038030885 -0.0056812665 0.023217605 -0.019880382 0.0137893455 0.012394259 -0.0020877179
0.03159931 0.015344584 -0.0024424328 0.019346043 0.013949015 -0.037558872 -0.012292212 -0.027010268
0.0073398943 -0.02729107 0.022554304 0.003643762 0.012917743 -0.03641142 0.016904155 -0.0114039825
-0.006015384 -0.006865368 0.02220314 -0.014934427 -0.019216457 -0.020802872 0.0053936946 -0.019532222
-0.016085953 -0.053651053 0.0022044517 -6.728653e-05 0.019632548 -0.0022637872 -0.01747165 0.014703705
-0.012476577 0.005794002 0.0030876524 0.039018255 0.010579972 -0.018019298 -0.039139632 0.018319221
0.0142126335 -0.02526103 0.00044566972 0.0086435145 0.018556688 0.002116336 0.00623459 -0.0008418181
