2D_sheet_problem/models/plate_2hole_1.pth (torch, 73234 bytes, 12 tensors)

network.0.weight f4 [64, 2]
000000 f6 55 9e be e8 36 61 3e f5 63 e9 bd 83 af 27 3f
       -0.30924958 0.21993601 -0.113960184 0.65502185
000010 a2 59 89 3e 8b 3f 0a bf 0d ce f7 3e 14 13 af be
       0.26826197 -0.5400321 0.48399392 -0.34194243
000020 5c cb 70 3e d9 c9 c4 bd 8e c3 22 be be 71 df be
       0.23515075 -0.09608812 -0.1589491 -0.43641466
000030 6b 88 b7 be c7 2e 98 3e ea d9 d5 be 68 6c c2 3e
       -0.35846266 0.29723188 -0.41767818 0.37973332
000040 5b 1f 8d be 99 0a a6 3e 20 f0 d6 be d4 20 4d be
       -0.27562985 0.3242996 -0.41980076 -0.20032054
000050 a8 eb cf 3e 2a b9 a8 be b2 55 33 be 5b ba ce be
       0.4060948 -0.3295377 -0.17513159 -0.40376553
000060 9c d2 7d be 53 3d 3d bd 5d 0f c6 be 78 3a b2 3e
       -0.24787372 -0.04620106 -0.38683596 0.34810233
000070 6e 0e 63 3e 9e d0 f3 3e 17 5c 39 be 76 26 82 be
       0.22173473 0.476201 -0.18101536 -0.25419968
000080 fe a2 21 be 41 88 f5 be 98 f0 7f 3c d7 62 b6 be
       -0.15784833 -0.47955516 0.015621327 -0.35622284
000090 f2 19 a2 3e bb 85 1a bf 08 9a ff 3d 2a 8c 36 bf
       0.3166042 -0.60360307 0.12480551 -0.71307623
0000a0 8e 8b c0 3c 4f 84 79 bf 3c 05 9f 3d c4 fc 54 3d
       0.023504045 -0.9746751 0.0776467 0.05199887
0000b0 86 de 4d 3e 30 79 fc 3e 80 04 ae 3e 00 df 65 3e
       0.20104417 0.4931121 0.33987808 0.22448349
0000c0 79 3f 3f 3e 74 42 b3 be 07 64 b4 3d 94 1f 0c bf
       0.18676557 -0.35011637 0.08808141 -0.54735684
0000d0 71 ae 02 3e a1 02 a0 3e ca 42 36 3e 8f 5a 7d 3e
       0.12761857 0.31252006 0.17798916 0.24741577
0000e0 2e f7 17 3e 18 b5 a1 3c e5 bf f7 3d f2 1d e3 3e
       0.14840385 0.019739673 0.12097148 0.44358784
0000f0 fa 4b 4f be 4b d6 94 be e7 69 ed 3d 6c 5c fb be
       -0.20243827 -0.29069743 0.11592465 -0.4909395
000100 cd 4b 2d 3e 71 58 ca bd 01 fa 43 be 9f 19 10 3e
       0.16923447 -0.0988015 -0.19138338 0.14072274
000110 ee c6 20 be 9f 5a a6 3e f2 c0 8d 3e c2 f8 d7 bc
       -0.15700886 0.32491013 0.27686268 -0.026363734
000120 6d 87 90 3e b1 3c d4 bd 11 cb b1 3e 65 cd 77 3e
       0.28228322 -0.103631385 0.3472524 0.24199446
000130 26 cd 81 3e ad 98 2d 3e 4a 0d 94 3e f8 14 c2 3d
       0.25351828 0.16952772 0.2891639 0.09476656
000140 f2 d6 84 be 65 ac 12 3e a4 0f bf bd 26 9a d5 be
       -0.2594524 0.14323576 -0.09329155 -0.41719168
000150 55 d7 6c 3e e5 84 b0 be 2c be 43 3e 06 07 89 3d
       0.23129018 -0.3447639 0.19115514 0.06690793
000160 44 22 a1 be 22 31 87 be a3 a0 3a be 37 bc 43 be
       -0.31471455 -0.26404673 -0.1822534 -0.19114767
000170 99 4f aa 3e 5a 0d 73 be 73 72 c4 3d 7e 77 cd 3d
       0.33263853 -0.23735562 0.09592142 0.10032557
000180 6a 8f 82 3e 75 08 fd be 7f 55 22 3e b2 37 ff be
       0.2550004 -0.49420515 0.15852927 -0.4984718
000190 b4 0c 8d be 71 52 2f 3e 9f a2 15 be 55 68 b4 3e
       -0.27548754 0.17121293 -0.14612816 0.3523585
0001a0 e3 f1 4e 3d 67 ff 1e 3f cd 6f 23 3d cf f5 22 3f
       0.05052365 0.62108463 0.039901543 0.63656324
0001b0 2f e2 1c bd 1b cf b2 be 0d 1e 11 bd d9 7f de be
       -0.038301643 -0.34923634 -0.03542905 -0.43456915
0001c0 50 94 b4 3e 2c 9b 12 bf 3c 00 01 be d2 0a de 3e
       0.35269403 -0.57268023 -0.12597746 0.4336763
0001d0 29 2c 2e 3d 61 1d c1 3e 54 a8 30 3e 32 8f e6 3c
       0.042522583 0.37717727 0.17251712 0.028144453
0001e0 b2 d4 79 3d d6 9d 2e 3e 47 cd 7d be 8c a9 4a be
       0.060993858 0.17052397 -0.24785338 -0.1979124
0001f0 05 e3 a6 be b0 e8 6f bd 2a b1 8b bd 00 1c a9 be
       -0.32595077 -0.058571517 -0.06820901 -0.33029175

network.0.bias f4 [64]
000000 eb 5b 1f bd 73 d2 87 be 55 be 22 be ef fb a2 3d
       -0.03890602 -0.26527748 -0.15892918 0.07958209
000010 ca 8e 62 be 5c de f7 3e a9 de 1d 3d 48 c4 a6 3d
       -0.22124782 0.48411834 0.038542423 0.081429064
000020 84 ed 2d 3e 0b ab 80 3d 54 dd 1e 3c d2 5b 84 3e
       0.16985136 0.06282624 0.009696323 0.25851303
000030 37 ac 88 3e c1 95 a4 3e 4a f0 01 bf ac f6 bf 3e
       0.2669389 0.32145503 -0.50757277 0.37492883
000040 28 db bb 3e 5c 2c 91 3e 45 62 ad be b1 69 c7 3e
       0.3669064 0.28354156 -0.33864036 0.38947824
000050 2b d9 66 3e 4a fc 46 be b1 f5 ed be 04 7f af be
       0.2254378 -0.19432178 -0.4647651 -0.34276593
000060 d8 a8 ca ba d9 ef 91 3e 17 dd 11 be 73 c7 4f be
       -0.0015461696 0.28503302 -0.14244495 -0.20290928
000070 f1 66 93 be bb 81 81 be 20 52 65 3e b9 13 03 3e
       -0.28789476 -0.2529429 0.2239461 0.12800492
000080 af 3a 8f be 8b ab 23 3e 81 4a 6c 3e c7 b2 45 be
       -0.2797446 0.15983407 0.23075296 -0.1930648
000090 60 50 18 be 0d 49 15 bf 50 c6 d8 be de 51 4b be
       -0.1487441 -0.5831459 -0.423388 -0.19855449
0000a0 43 2f 98 3e 95 91 a2 3e fb 98 13 be b0 ae 1f be
       0.29723558 0.31751695 -0.14413826 -0.15593982
0000b0 6c 76 48 3e 58 d9 6f 3d 60 dc cd be c9 07 33 be
       0.19576424 0.058556885 -0.40207195 -0.17483439
0000c0 d7 71 3f bd c9 3f 97 bd 14 10 5f 3e a7 52 14 be
       -0.046739426 -0.07385213 0.21783477 -0.14484654
0000d0 ff 4e 90 be 31 b2 c3 be 93 fa a9 3e a9 8c 46 3e
       -0.2818527 -0.38221887 0.33198985 0.19389595
0000e0 54 7c 62 be 58 84 d7 be 1e b9 e6 bd bc 64 a3 be
       -0.2211774 -0.42093158 -0.11265777 -0.31912792
0000f0 24 b3 2b bc fb 43 71 3e 1b 2d 26 3e c2 64 89 3e
       -0.010479722 0.23561089 0.16228144 0.26834685

network.2.weight f4 [64, 64]
000000 43 ca e6 bd fd e5 51 bd ed 98 1e 3e 46 72 10 3e
       -0.11269047 -0.051244725 0.15488024 0.14106092
000010 f2 e1 46 be 00 c4 e8 b8 99 7e 9a bd 6e 15 d5 bd
       -0.19422129 -0.0001109913 -0.07543678 -0.10404478
000020 f6 40 b8 3c eb e8 bf 3d 2a 0b 24 bd cb 57 74 3b
       0.022491913 0.093705975 -0.04004971 0.0037283774
000030 1e 96 13 3e 18 23 06 3e e7 61 cf 3d 9e 9d 29 be
       0.14412734 0.13099325 0.10126095 -0.16564032
000040 3b 61 0c be 37 15 a3 3c 84 20 3a 3d f9 22 1e be
       -0.13708965 0.019907577 0.045441166 -0.15443029
000050 5f eb a6 bd ad d9 29 bc c5 56 83 3d 3e e7 6b bd
       -0.08150362 -0.010366839 0.06413034 -0.057593577
000060 ac db b3 bd 89 42 78 bc c3 9b 24 3e 2a e5 86 bc
       -0.087821335 -0.015152582 0.16075043 -0.016466696
000070 8d 14 9e 3c 9b 14 f0 3d 23 6b d6 bd cc 41 2d bd
       0.019296909 0.1172268 -0.104696535 -0.042299077
000080 d7 a9 e7 bd 73 0c 23 be 89 4c 85 bd 28 63 3b be
       -0.11311691 -0.15922718 -0.065087385 -0.18299544
000090 5e 56 ac 3c b3 13 2c be d0 b4 8c bd bc f2 a5 bd
       0.021037277 -0.1680439 -0.06870425 -0.081029385
0000a0 ff 23 9c 3d ed d8 99 3b 87 a9 5a 3d 91 4b 4b 3e
       0.07624053 0.004695049 0.05338433 0.19853045
0000b0 11 aa a6 3c 6d dc 27 3e be 53 15 3e ab 89 6b 3c
       0.020344766 0.1639268 0.14582726 0.014376084
0000c0 ed 2c 41 3e c9 f3 ca 3c 81 53 47 3e 18 0f 0c be
       0.18864794 0.024774449 0.19465448 -0.13677633
0000d0 a5 90 0c 3e 62 4d fb 3d 7d 0d 44 3d dd d2 2a bd
       0.13727053 0.12270619 0.047864426 -0.041705
0000e0 b4 ff 44 3e 1f f8 14 be 83 dd 03 be 7f e7 e3 3d
       0.19238168 -0.14547776 -0.12877469 0.11128139
0000f0 7a ae 8b be d8 33 da bd cd 26 1b 3e bf c5 4c 3e
       -0.27281553 -0.1065442 0.1515152 0.19997309
000100 23 af 72 bd 64 1e 18 bf ad 59 b4 3d 5a 9e bb 3d
       -0.059249055 -0.5942137 0.08806167 0.091610625
000110 23 d4 ad bb d5 a9 fc 3e 15 d2 19 3e f1 48 ce bd
       -0.0053048297 0.49348322 0.15021546 -0.10072506
000120 59 78 88 3e 77 3b 73 3e 18 93 4b be cb cb 89 bc
       0.26654318 0.23753153 -0.1988033 -0.016820809
000130 a8 9f 0f 3e d9 18 d5 3e f3 e4 bd be b4 a4 2a 3e
       0.14025748 0.4162052 -0.37088737 0.16664392
000140 5f 05 f7 3d 57 89 5e 3e 47 57 20 be 48 54 d5 3e
       0.12061571 0.21732078 -0.15658294 0.41665864
000150 a6 0c 1c 3f 5e 9d b7 bd 09 02 d2 be 45 be a8 be
       0.609568 -0.08965562 -0.41017178 -0.32957664
000160 f4 99 2a 3c 40 5d 5e 3e c2 19 a0 bc 82 fd 6f bd
       0.010412682 0.2171526 -0.019543532 -0.058591373
000170 90 75 c6 bd 7d f8 9d be 47 46 ee 3b 48 5d f4 3d
       -0.09690392 -0.30853644 0.0072715613 0.119318545
000180 63 5e cc be 1b c5 e5 3d f0 b9 ed 3d a6 72 3e be
       -0.3991576 0.112192355 0.116077304 -0.18598422
000190 05 2c 97 bd 6e 7c 27 bf df 18 ee bd df ab a5 be
       -0.07381443 -0.6542424 -0.116258375 -0.3235769
0001a0 d1 0a a6 3e be fd 9d 3c e0 82 6b 3d 53 df 8b be
       0.32430127 0.019286033 0.05749786 -0.2731882
0001b0 e9 27 60 3e aa d4 40 3d 20 e8 64 be 14 96 c4 be
       0.21890225 0.047077812 -0.22354174 -0.3839575
0001c0 45 50 28 3e 58 58 17 3e 1b 42 b8 3e 67 5d be 3d
       0.1643687 0.14779794 0.35987934 0.09295159
0001d0 72 47 0f be 3f 99 13 bf 0e c7 d1 3e 62 8e 16 3e
       -0.13992098 -0.5765571 0.4097218 0.14702752
0001e0 3c e0 ae bd 12 c1 14 be f1 d8 fb 3c f4 62 df bd
       -0.08538863 -0.14526775 0.030743094 -0.10907546
0001f0 a2 ca 70 be 21 63 81 3e 2e 1c 61 bd 84 c9 a2 3c
       -0.23514798 0.25270942 -0.054958515 0.01987148
000200 44 57 8d bd 35 39 d9 be 16 63 c0 3e b1 a6 92 bd
       -0.0690141 -0.42426458 0.37575597 -0.071607
000210 26 39 7e 3e 43 8f 11 be e0 ae 1c be 45 f1 51 bc
       0.24826488 -0.14214806 -0.15301085 -0.012813871
000220 7d 59 91 be 19 0a 35 3e cd 0c 90 3d f1 f9 44 bd
       -0.28388587 0.17679633 0.070336916 -0.048089925
000230 cc 70 97 3d c7 98 74 be 83 03 87 3d 4f a0 6f 3e
       0.07394561 -0.23886405 0.06592467 0.23400997
000240 5b 26 f6 3d 1c 87 03 bc 13 e4 96 3e 46 e5 8e 3e
       0.120190345 -0.008027818 0.29470882 0.27909297
000250 83 73 29 3f b7 8e 33 3d ca 48 a9 3d 51 2c 96 3d
       0.6619188 0.043837275 0.082658365 0.073326714
000260 c1 af 8f 3e fc d0 af 3e 4b 37 12 bd 71 87 4f bd
       0.28063777 0.3433913 -0.035697263 -0.050666276
000270 fe 4b 3a be ff b8 e4 bd 15 17 e6 3d 07 2e 88 3e
       -0.18193051 -0.11168098 0.11234871 0.26597616
000280 56 90 39 bd 15 23 74 bd 97 cc 7c bb 2f 12 53 3e
       -0.045303665 -0.05960377 -0.0038574093 0.20612405
000290 ee 4e 0c 3e 37 8d cb bb 3c 1c 44 3e 86 e9 ae bd
       0.13701984 -0.0062119025 0.19151396 -0.08540635
0002a0 86 88 47 bd 1c 31 8d bc 89 f4 47 3e e0 0b bb bd
       -0.048714183 -0.017235331 0.19526877 -0.09133124
0002b0 ad da a7 3c 50 19 35 bd 50 20 6b 3e d6 f5 73 3d
       0.020490015 -0.044213593 0.22961545 0.05956062
0002c0 9f d1 94 3e 43 75 b7 3e b9 7a 30 be bd 85 a7 bd
       0.29066178 0.3583165 -0.17234315 -0.081798054
0002d0 59 a1 66 be 71 0d 9a be 6f e1 a2 bc 85 62 55 3e
       -0.22522487 -0.3008838 -0.019882886 0.20838363
0002e0 03 6d cb 3e e5 5a 4d bd e3 93 53 bd 7e 51 23 be
       0.39731607 -0.050135512 -0.051654708 -0.15949056
0002f0 8c 1e bd bd 84 fd ba bd 60 23 1e 3d fc f2 1a 3e
       -0.09234342 -0.091303855 0.038607955 0.15131754
000300 fd 44 7a bd b9 b6 89 be 4e 60 fb bc 82 18 cb 3d
       -0.06110095 -0.2689722 -0.03068557 0.09916784
000310 33 83 2b 3e a5 2e 16 3e a8 9f 38 3e e4 47 21 3e
       0.16749267 0.14666231 0.18029654 0.1575008
000320 a9 cc 61 be a9 18 c5 3d e7 69 f3 3d 14 72 70 3e
       -0.22050728 0.09623844 0.11885434 0.23481017
000330 55 3f 15 be de 94 88 bd 74 4f 9a be 57 48 b1 bd
       -0.1457494 -0.06669019 -0.30138743 -0.08656376
000340 72 20 95 3e 0e da 29 bd 2b 06 f0 3d 9e 92 85 3e
       0.29126316 -0.04146772 0.117199264 0.26088423
000350 5a 79 fa 3e bb b4 41 3e 61 f0 96 be bc 8c f3 bb
       0.4892071 0.189166 -0.2948027 -0.0074325483
000360 e8 98 76 3e 2e 30 2b 3e a3 a3 96 bd f8 8a 3d 3d
       0.24081767 0.16717598 -0.0735543 0.04627511
000370 62 b1 9c 3d 7c f9 ae be 62 7c 6d bd d6 e5 78 bd
       0.076510206 -0.34174716 -0.05797995 -0.060766064
000380 4a 01 11 be f0 18 ff ba 0b f6 69 be 35 b1 08 be
       -0.14160648 -0.0019462388 -0.22847764 -0.13348849
000390 48 25 10 be e6 6c 9f be 97 8b 52 be 51 c7 0a be
       -0.14076722 -0.3113777 -0.20561062 -0.13552596
0003a0 cd 20 a7 ba 84 42 87 bd 21 60 be bd bb ae ec bd
       -0.0012750864 -0.06604484 -0.09295679 -0.11556765
0003b0 5e 0c bf bb 35 79 8b 3e 2f b8 4e bd 24 5c 18 3d
       -0.0058303317 0.2724091 -0.05046862 0.037197247
0003c0 68 9f 8d 3e 0e f3 de 3c 0d 56 23 3e 2f 1d 8a 3c
       0.2766068 0.027215507 0.15950795 0.016859619
0003d0 8b ed 5d be 68 6e d7 be 8e db 62 bd ff 72 c0 ba
       -0.21672647 -0.4207642 -0.055385165 -0.0014682709
0003e0 3b d1 09 3d 68 ac bd be 10 66 30 bd 6e 57 c0 bc
       0.033646803 -0.37045598 -0.043066084 -0.02347919
0003f0 84 08 99 be c5 e9 80 bd 7b d3 9c 3d d7 25 28 bd
       -0.2988931 -0.06294588 0.07657524 -0.041051712

network.2.bias f4 [64]
000000 0d 7b d1 bd 94 2d 04 3e a1 2b 0b be 8c 4e d6 bc
       -0.10228548 0.12908012 -0.13590862 -0.026160501
000010 cd e4 36 bc 8a df 1d be 8e 17 04 3e 6b 9f 4f bd
       -0.011162949 -0.15417305 0.1289961 -0.050689142
000020 ea 24 a7 3e 71 cb f3 bd 9b 44 7c 3e 58 28 8c 3e
       0.3264535 -0.11904038 0.24635546 0.2737453
000030 b4 34 35 3e 9c 40 3d bd 77 f9 a0 3b 24 34 a2 bc
       0.17695886 -0.046204194 0.004912551 -0.019800253
000040 3c 43 13 be 33 b9 ca 3d 62 8d f9 3d 77 a0 de bd
       -0.14381117 0.09898605 0.1218517 -0.1087045
000050 a2 c6 b4 bc aa 6b 0e 3d 80 0d 8c bd e2 da f9 bd
       -0.022067372 0.034770645 -0.068385124 -0.12199952
000060 ac a7 9f 3d 61 d7 48 3d e0 04 26 3c 37 8f e7 3c
       0.07795653 0.049033526 0.010132998 0.028266532
000070 b6 ae 59 3e 66 88 b5 3c 56 a7 c0 3d 0b e1 46 3c
       0.21258053 0.022159766 0.09406917 0.012138615
000080 51 de 83 3e d9 8c e7 bd 5d b2 1b 3e ad 98 f0 bd
       0.2575555 -0.113061614 0.15204759 -0.117478706
000090 aa 8a 55 3e 7b b4 25 bd fc 7b 5f bd f9 ab 40 3e
       0.20853677 -0.040455323 -0.0545616 0.18815602
0000a0 29 cf 37 bd 25 3b 0d be 96 a8 20 3d fc 10 bf 3d
       -0.044875298 -0.13792093 0.039223276 0.093294114
0000b0 f8 90 da bd 06 85 b7 3d 30 a2 2e 3e ed b5 df 3d
       -0.10672182 0.08960919 0.17054057 0.109233715
0000c0 07 c8 de 3c a9 36 c4 3c 78 49 11 3d 8a 36 0c 3e
       0.02719499 0.023951845 0.035470456 0.1369268
0000d0 bd d4 37 bc 42 ce a7 bc 19 59 91 3b 2d 4f 55 bd
       -0.011220154 -0.020484094 0.00443567 -0.05207746
0000e0 b4 ef 35 be 49 b5 6f bd 26 b1 95 bd 83 44 e4 bc
       -0.1776722 -0.058522496 -0.07309179 -0.0278647
0000f0 69 33 d4 bc da 24 f6 3c 6e 1c 28 be dd d6 85 bd
       -0.02590342 0.03004687 -0.16417095 -0.065351225

network.4.weight f4 [64, 64]
000000 fa 13 82 bd 77 4e 33 be c4 b4 8e be 66 68 a6 be
       -0.063514665 -0.175104 -0.27872288 -0.32501525
000010 ec bd 0f be 7f 05 21 be 17 cf cc bd c1 7b 95 be
       -0.14037293 -0.15724753 -0.10000437 -0.2919598
000020 4a 8f 89 3f 6f cd a3 be 2f 45 0b 3e b7 2e e4 3b
       1.0746853 -0.3199267 0.1360061 0.0069635767
000030 6b cf 05 bd ad 5f e5 bd a8 91 f8 bd da 17 4b be
       -0.032668512 -0.11199889 -0.12137157 -0.19833317
000040 6e 5b cd bd bd 43 be be 38 5e e4 3e 5c 0c 2f 3d
       -0.100272045 -0.37161055 0.44603133 0.042736396
000050 0c c3 72 3d b0 56 b3 3a 86 fb 05 3e f7 ba 5f be
       0.059268042 0.0013682451 0.1308423 -0.21848665
000060 ce 89 e7 bd a3 eb 1d be 30 5b 7b be de 55 a4 be
       -0.11305581 -0.1542192 -0.24546504 -0.3209676
000070 05 1d 86 3f 24 bf 9c 3e 7c c8 84 3d bb e5 a2 be
       1.0477606 0.3061458 0.06483552 -0.31815895
000080 ae 83 27 3e 7f eb a8 be 2e bd d8 3e 77 5b 6e be
       0.16358826 -0.3299217 0.42331833 -0.23277079
000090 94 d6 f1 bd 7d 97 12 3d 90 fd de bd d6 d9 53 3e
       -0.11808506 0.035789 -0.10888207 0.20688567
0000a0 01 c2 17 bd 26 da 86 bd 5b fa 96 3b 16 0f 4a 3e
       -0.03705025 -0.06584577 0.0046074814 0.19732317
0000b0 53 c8 2a 3e a2 bf 06 3f fd 9e 08 3f 04 66 b4 3e
       0.1667798 0.5263616 0.53367597 0.35234082
0000c0 d3 f8 42 be f3 15 e9 bd 8e 99 37 3f 14 84 93 be
       -0.19040231 -0.113811396 0.7171868 -0.28811705
0000d0 6d e1 a0 3e 3d d6 2c 3f 22 6e 5f 3d e0 29 0c 3c
       0.31421986 0.675144 0.05454839 0.008554906
0000e0 1c a9 a7 be 75 e2 86 be 67 53 4d 3e 42 ba 34 be
       -0.32746208 -0.26344648 0.20051347 -0.17649177
0000f0 cd 90 a7 bc 04 35 47 be 3e 60 81 bd 9e 72 1b 3e
       -0.020454789 -0.19453818 -0.06317185 0.15180442
000100 16 e5 12 3e bb 2e b2 bc 43 f8 e8 3d 13 22 41 3e
       0.14345202 -0.021750798 0.11375477 0.18860655
000110 fb 80 1e be 1b ef 4d 3e 03 12 34 3d ea 9f 33 bd
       -0.1547889 0.20110743 0.04396249 -0.043853678
000120 03 03 5c 3e 72 2f 53 3d f7 ee 3b 3e c2 2d 32 3e
       0.21485524 0.05155892 0.18352877 0.17400268
000130 f5 ca 3f be ff fd 1a 3e 78 5e 01 3d a5 ef 2e 3e
       -0.18729766 0.15135954 0.031584233 0.17083605
000140 df b1 b4 bc 1a 1a 23 3e b7 aa 4a be e1 a9 b0 bb
       -0.022057472 0.15927926 -0.19791685 -0.005391345
000150 72 e8 11 be c4 d5 44 3e 62 32 d7 3d 36 23 d8 bd
       -0.14248827 0.1922217 0.10507657 -0.10553591
000160 8e 4d 03 3e 6b fa 61 3d 60 64 08 3e 4e 32 bb be
       0.12822554 0.055170458 0.1331954 -0.36561817
000170 a1 8f 28 3e bb f2 f0 3d d7 ee 1a be 24 14 36 bd
       0.1646104 0.11765047 -0.15130173 -0.0444528
000180 62 25 34 3e e2 8b 2c be 5a 89 82 3e b9 40 10 3e
       0.17592385 -0.16850236 0.25495416 0.1408719
000190 08 e2 2f be 65 a8 b8 3b c6 f2 48 3e 31 5a df 3d
       -0.17176068 0.0056353086 0.1962386 0.109058745
0001a0 75 a5 1c bd a6 97 07 3e 5b d1 9c bd 4b 05 0b 3c
       -0.03824373 0.13241443 -0.07657119 0.008485149
0001b0 83 d8 7d 3e 55 ca a9 bd e2 39 8c 3e a3 dd 27 be
       0.24789624 -0.08290545 0.2738791 -0.16393141
0001c0 00 4a cd 3d 4f 75 25 be 91 92 80 bc 0d c2 00 3d
       0.1002388 -0.16158031 -0.015694888 0.03143506
0001d0 f1 2d 5d 3d f4 b7 84 3d f1 bd 34 bd 75 4c 00 be
       0.05399889 0.06480399 -0.044126455 -0.12529166
0001e0 f2 fc e3 3d 34 a8 a6 3c 00 ee 38 be 72 a6 15 be
       0.1113223 0.020343877 -0.1805954 -0.14614275
0001f0 4d 8b 3a 3e 4f fd 2b 3e c0 06 9f be 9a d2 10 be
       0.18217202 0.16795848 -0.31059837 -0.14142838
000200 85 a2 72 3e a1 1c b8 bd 6d 5f 8e be 00 65 96 be
       0.23694809 -0.089898355 -0.2780718 -0.29373932
000210 ea dc e2 bd 58 46 90 be 8d d3 36 3e 38 b5 d7 3c
       -0.11077292 -0.28178668 0.17854138 0.026331529
000220 03 f8 72 3f 8b b4 92 be cf 77 92 3e 72 a9 36 3e
       0.94909686 -0.28653368 0.28607032 0.17838076
000230 1b 86 34 3e 45 1a a4 bd d8 62 98 be 5f 1a 3f be
       0.17629282 -0.08012823 -0.29762912 -0.18662404
000240 83 94 51 3e d4 46 de be 2e 01 75 3e 96 2e 9a 3c
       0.20466809 -0.43413413 0.23926231 0.018821042
000250 0b d2 c2 bd 5e b4 9a 3d e1 31 5d 3e 09 65 3a be
       -0.09512719 0.075539336 0.21601059 -0.18202604
000260 d0 f5 85 bd f5 d6 01 be 5c 4d 9d be 0c f2 91 be
       -0.06541026 -0.12679656 -0.30723083 -0.2850498
000270 27 5a 88 3f 68 81 9a bb 52 a3 9d be df c5 55 be
       1.0652512 -0.0047151335 -0.30788666 -0.20876263
000280 cc b4 d6 be bc 4f 2c 3c d8 ad 7d 3e ad 31 11 bc
       -0.41934812 0.010517057 0.24773347 -0.008861941
000290 6a fa b6 3d 89 0d 50 3e f0 e1 6b 3e 20 d7 16 3d
       0.089344814 0.20317663 0.23035407 0.036826253
0002a0 ff 37 bd bd 39 4e 50 bd 7f 0a 03 3e a6 1d db 3d
       -0.09239196 -0.05085585 0.12796973 0.10699014
0002b0 ed 4c 30 be a2 f7 cf 3e 9c 67 b4 3e 5b e9 f0 3e
       -0.17216845 0.40618616 0.35235298 0.47053036
0002c0 03 a6 78 3c 11 41 61 3e f9 70 5e 3f ac bc 05 bf
       0.015176299 0.21997477 0.8689113 -0.52241015
0002d0 ee a1 d9 3e 95 bd ea 3e c6 23 40 bd 5e a4 42 bd
       0.42506355 0.45847765 -0.046909116 -0.047520034
0002e0 9f c9 61 be 69 b0 f8 bd 43 2c d0 3e d9 d6 d0 bd
       -0.22049569 -0.121430226 0.4065877 -0.10197229
0002f0 e5 86 57 be c9 42 28 bd 73 1e cb be e3 23 d4 3d
       -0.21047552 -0.041079316 -0.39671668 0.10358407
000300 c5 09 18 be fe 7f 81 3d 97 a8 b7 3c 11 38 b2 bd
       -0.14847477 0.06323241 0.022419257 -0.087021
000310 e9 c9 6d 3d d4 49 df 3c c6 25 55 3d 58 74 43 3e
       0.058053885 0.027256884 0.052037977 0.1908735
000320 2a 0f f1 be dd 8b 43 3e 56 15 e2 bd 3a f3 61 be
       -0.47081882 0.19096322 -0.11039226 -0.2206544
000330 19 6c 5e 3e 6a 15 0c be c3 de 23 3e 07 0a 85 3d
       0.21720923 -0.13680044 0.16002946 0.06496053
000340 98 c5 03 be 2b c7 b5 3c 4b 87 78 bd 19 0f 06 3c
       -0.12868345 0.022189697 -0.0606759 0.0081823105
000350 83 31 11 be de 76 99 bb a5 78 1f 3e 94 ff 92 bd
       -0.14179043 -0.0046833595 0.15573366 -0.07177654
000360 61 71 bf bd 08 47 95 bd c5 fe 92 3d 2f cf 8e 3c
       -0.09347797 -0.07288939 0.071775 0.017432777
000370 1a 8c a8 3d 00 a4 8d be 67 b6 45 be be 79 25 3e
       0.08229847 -0.27664185 -0.19307862 0.16159722
000380 a0 67 c8 3d 01 a3 ad 3c 3b dd 5a be ea 4e 18 bd
       0.0978539 0.02119589 -0.21373455 -0.037184633
000390 10 d1 0f be 8d 93 82 be ca 1e 7b be 64 fe 43 be
       -0.14044595 -0.25503197 -0.24523464 -0.19140011
0003a0 c8 5e 24 bd f9 60 29 bd 01 63 45 3d c5 76 ba 3b
       -0.040129453 -0.041352246 0.04819012 0.005690428
0003b0 f6 69 2b bd ea 0f d0 be 29 59 aa 3c 79 a0 d8 be
       -0.0418491 -0.4063714 0.020794468 -0.4230993
0003c0 1e 4e 91 3d f6 93 b8 bc 1c ad b9 3d 58 68 72 3c
       0.07094978 -0.02253149 0.09066221 0.014795385
0003d0 98 a5 f4 bd 3d 29 83 be ab 10 06 be 3a 2b 62 3e
       -0.11945647 -0.256174 -0.13092296 0.22086802
0003e0 f3 02 45 3e 3c f7 85 3e bf 0f 80 be c9 98 a4 3c
       0.19239406 0.26165187 -0.25012013 0.020092385
0003f0 5d b2 4d 3e cb e9 29 be 32 be 54 be dd 79 2a 3e
       0.20087571 -0.16593091 -0.20775679 0.1664805

network.4.bias f4 [64]
000000 13 87 fb 3d 8f 75 bd bd bc ef 88 3c b9 5a 4d bd
       0.12281623 -0.09250938 0.016715877 -0.050135348
000010 7a 3d 75 bd 76 64 a4 3c 8b e6 b2 3d 39 bf a2 3d
       -0.05987308 0.020067435 0.08735379 0.07946629
000020 c2 5f 10 bc bc 79 d2 3d 6c f8 b8 3b 8a 23 0c 3e
       -0.008811893 0.10277125 0.0056448486 0.13685432
000030 f2 b8 bf bc da bc ba 3c dd b9 4e be 65 b0 2c bd
       -0.023403618 0.02279513 -0.20188089 -0.04216041
000040 da ec 1d 3e b9 8a 28 3e f4 1c 3d bd db a3 37 bd
       0.15422383 0.16459168 -0.04617019 -0.044834
000050 d6 be aa bd 4c cc 0d 3e 2a 96 01 3d 30 4d 29 bd
       -0.0833718 0.13847464 0.03163735 -0.041333377
000060 30 fc 5d 3d 80 d2 95 be b1 7a a9 be 8c b9 78 3e
       0.054195583 -0.2926216 -0.3310142 0.2428953
000070 b8 c3 16 3e f4 db 9e bc 14 f3 e7 3d d8 0b 76 bd
       0.14723098 -0.019391991 0.1132566 -0.06006989
000080 8e 9c 13 3e 68 95 71 3c fc 30 43 3e a5 29 1f 3d
       0.1441519 0.014745094 0.19061655 0.038858075
000090 6d 04 c5 bd 11 39 b1 bc c0 03 e1 3c 3c e4 9a 3c
       -0.09619985 -0.021633657 0.027467608 0.018907659
0000a0 40 1a 8d 3d 62 2f a4 bc 5c 98 18 b9 9e b7 c6 bd
       0.068897724 -0.020042125 -0.00014552608 -0.09702991
0000b0 6c 8c 59 3d 9f 89 63 3d 29 b8 9a bd f3 b8 8d bc
       0.053112432 0.055551168 -0.07554657 -0.017300105
0000c0 af 97 a4 bc d0 32 9a 3d 01 98 13 bc 91 89 d5 bd
       -0.02009186 0.07529223 -0.0090084085 -0.10426629
0000d0 50 2d 01 be 47 74 39 bd e1 aa ab bd 11 4c 87 3b
       -0.12614942 -0.045276906 -0.08382202 0.004128941
0000e0 a3 8d b7 bd 24 71 51 3d 3e df d7 bc 26 d2 31 3d
       -0.08962562 0.05113329 -0.026351567 0.043413304
0000f0 f2 81 a2 bd 96 05 c8 3c 4b c1 08 bd 55 2c f0 3b
       -0.07934941 0.024416726 -0.033387464 0.0073295035

network.6.weight f4 [64, 64]
000000 cd 46 85 3e d5 36 9e bd 36 44 f7 3d 6a 01 a1 3b
       0.2603058 -0.07725302 0.12073557 0.0049134986
000010 c1 0f 9b 3e 7f 4a 9c bb 43 af 82 be 1d c1 52 be
       0.30285457 -0.004769623 -0.2552434 -0.2058148
000020 99 b6 36 bd 06 07 28 3e ad 06 0d 3e f4 59 a9 3e
       -0.044607732 0.16408929 0.13772078 0.3307644
000030 25 d8 14 bd 8f 6d bd bd de d0 9d 3c bb c6 22 bd
       -0.036338944 -0.09249412 0.019264635 -0.039740305
000040 0a 9d e0 bd d1 26 cd 3d 23 24 5a 3e 2e 85 5d 3e
       -0.10967453 0.10017169 0.21302848 0.21632835
000050 96 9a 0d 3e cc 7d 15 3d 9e 88 6e bd e8 ad e5 3d
       0.13828501 0.036496922 -0.058235757 0.112148106
000060 e6 66 3b 3d ce 9c 50 bd c1 29 5d 3e a1 73 af bc
       0.04575243 -0.05093079 0.21597959 -0.02141744
000070 14 ea 13 3e 6c 0d 16 be 7a 7b b7 3d f8 3c 62 3e
       0.14444762 -0.14653558 0.08959098 0.2209357
000080 de 5d d4 3e 0a c9 25 3d 96 2c 8f 3e 14 12 66 bd
       0.41477865 0.04047493 0.27963704 -0.056169584
000090 06 e9 21 3e cd c8 ac 3d bd 64 0d be 4b d5 8f 3e
       0.15811548 0.08436737 -0.1380796 0.28092417
0000a0 4e b8 85 bc 69 a9 9c bc 78 4d d4 bc 97 2e 75 3e
       -0.016323235 -0.01912375 -0.025915846 0.23943554
0000b0 20 9a 99 3e 4e 6d 3b be 0c c3 b0 bd 9d 2d 0e 3e
       0.300004 -0.18303415 -0.08630952 0.13884588
0000c0 4a 0a cd bd a3 fc a5 bc 15 d9 cb bd 44 0c 87 3e
       -0.10011728 -0.020262068 -0.099535145 0.26376545
0000d0 6e c0 c0 bc d1 61 be 3d b8 23 1b 3d 1a 3f 1c be
       -0.023529258 0.09296001 0.03787586 -0.15258446
0000e0 6c 7d 19 3e 7f 95 1a 3e ac 47 0a 3e f2 fd 3d 3e
       0.14989251 0.1509609 0.13503903 0.18553904
0000f0 80 df 02 3e b1 29 c5 38 3d b6 27 3e 96 ea d2 bd
       0.12780571 9.401458e-05 0.16378112 -0.1029865
000100 98 49 31 bf e4 6b fa bd 5d ef eb be 01 37 b7 3d
       -0.6925292 -0.1222761 -0.46081057 0.08946038
000110 a0 89 6d 3e e6 19 5d 3d 9f f5 d6 be e6 c1 19 3e
       0.23197031 0.053979777 -0.4198427 0.15015373
000120 53 53 38 bd af 57 96 be 97 4e 4b bd c3 25 e5 3d
       -0.04500134 -0.29363772 -0.049635496 0.11188843
000130 5f c8 e9 3c d1 f3 a4 be 65 b3 f7 bd 52 0c 9e 3d
       0.028537927 -0.32217267 -0.12094764 0.07717194
000140 8c 12 c6 bd bc 6f a5 be 3c e2 48 bc a5 f9 03 be
       -0.09671506 -0.3231181 -0.01226097 -0.128882
000150 37 8a b4 3d 4e 1a ca be c7 55 47 be fc 4e e8 be
       0.08815425 -0.39473194 -0.19466315 -0.4537276
000160 0a 1f 3e be 1a aa 15 3e fd 79 33 3c 3b 69 40 be
       -0.18566528 0.1461567 0.010954377 -0.18790142
000170 7a c2 90 be 75 b2 fc 3d 39 f4 fa bd 2d d4 38 3e
       -0.28273374 0.123387255 -0.12253613 0.18049689
000180 3d 23 81 be 87 10 0a 3e 60 ad 41 3b 40 d8 4f bd
       -0.25222197 0.13482867 0.0029552802 -0.05074334
000190 d5 06 d6 3d fa 61 29 be 13 90 8b bd 43 8c 58 bd
       0.10450522 -0.16541281 -0.06814589 -0.05286814
0001a0 48 39 7c 3e 35 7a e5 bc 75 f1 20 3c c9 18 a7 3d
       0.24631226 -0.028012374 0.009823193 0.08159024
0001b0 d5 d6 53 be 75 9a 45 3e c5 5b 88 be e8 40 5a be
       -0.2068742 0.19297202 -0.26632515 -0.21313822
0001c0 e7 63 77 3e 77 89 b5 3e 63 6a 9e be 47 68 f7 3d
       0.24159203 0.3545644 -0.30940542 0.12080436
0001d0 bf 08 56 3c cd 1c b0 3e 79 8f 4f 3e fc 2a 38 3d
       0.013063609 0.34396973 0.20269574 0.044962868
0001e0 ed a8 41 3e f5 91 6e 3e bf 61 c8 bc 55 2b 3a be
       0.18912096 0.23297866 -0.024460671 -0.18180592
0001f0 62 e8 12 3c 95 64 d5 bd c3 85 d2 3d c6 bd 31 3e
       0.008966537 -0.10419575 0.10279419 0.17357549
000200 48 b7 6d be f4 77 5f be 89 97 3f bf e6 8f 04 3e
       -0.23214447 -0.21823102 -0.748406 0.12945518
000210 1c ce 56 bd 1c 6a e0 3d 21 77 06 bf f1 4f e0 bd
       -0.052442655 0.10957739 -0.52525526 -0.109527476
000220 bb c3 0c be 7b ad 1f 3d c4 c3 1d 3e 6a e5 a3 be
       -0.1374654 0.038983803 0.1540671 -0.32010967
000230 19 c0 24 bd a5 e0 96 be cb f9 7c be de ea 6b 3d
       -0.04022226 -0.29468265 -0.24704663 0.057597034
000240 1e 3f 1f be 0a 3e d7 3c f8 87 e0 bd 77 2a 1c be
       -0.15551421 0.0262747 -0.10963434 -0.15250574
000250 73 fe ed bb 50 1c 83 bc 02 92 59 3e fb 8b 8b be
       -0.0072629987 -0.016004711 0.21247104 -0.27255234
000260 b8 93 8f bb 79 c8 a0 be 5b 65 f1 bd eb db 66 3e
       -0.004381623 -0.31402948 -0.1178691 0.2254483
000270 38 1e 0c 3e d9 e6 87 be b7 1d 4e be 5a 08 05 be
       0.13683403 -0.2654331 -0.20128523 -0.12991467
000280 c1 e6 0d be e9 77 45 bd bf 02 16 3d 45 2c b5 bd
       -0.13857557 -0.04821006 0.036623713 -0.08846334
000290 3f f3 b7 bd 05 ba 62 bd b7 60 e3 bc 27 ae 18 bd
       -0.089819424 -0.055353183 -0.027756078 -0.03727546
0002a0 28 2d 34 be 9b 4c 06 3e eb 78 19 3e ec bd cb bd
       -0.1759535 0.1311516 0.14987533 -0.09948334
0002b0 36 5c fd 3d 79 35 ae bc b6 a1 2f be 66 51 00 be
       0.123711035 -0.021265732 -0.17151532 -0.12531051
0002c0 fd 88 21 bf d6 1a 2a be de 93 06 3d b2 8b a9 3d
       -0.6309965 -0.166118 0.03285586 0.08278598
0002d0 18 7c 04 be 11 6b 87 3e f7 a2 86 3e 9a b1 a5 bd
       -0.12937963 0.26448873 0.26296207 -0.080905154
0002e0 20 5e 8f 3e 8f b3 67 be 63 f9 0c 3e e5 5a 5c 3e
       0.280015 -0.2262709 0.13767008 0.21519049
0002f0 9f f1 2c be 61 cb d8 3a 50 cf 9d bd 40 4e ad 3c
       -0.16889046 0.0016540104 -0.07705557 0.021155477
000300 c1 81 cb be 59 18 5d 3e 69 27 ef be 2c 4c 2b be
       -0.39747432 0.21591319 -0.46709755 -0.16728276
000310 08 fe 06 be dd 8f d4 3d 97 9d 4c 3e 4b 9a de bd
       -0.13182843 0.10379002 0.19981991 -0.10869273
000320 54 b6 c6 bd 6c bf 13 3e d1 06 b8 bd f2 15 2a bc
       -0.09702745 0.1442849 -0.08985675 -0.010381209
000330 21 57 03 3d 99 8d 23 3e b5 d0 f0 be eb 82 a0 3e
       0.032065514 0.15971984 -0.4703423 0.31349882
000340 b3 fa fe 3d d7 1f 99 be 4e d6 2c be af 87 1d 3d
       0.12450161 -0.29907104 -0.16878626 0.038459476
000350 40 88 aa bd da e4 05 be 82 16 77 bd 17 15 99 be
       -0.08326769 -0.13075581 -0.0603242 -0.29898903
000360 5f 15 b6 3c 72 40 c4 3e c7 c7 a0 be 56 6d 52 3e
       0.022226987 0.38330418 -0.31402418 0.20549521
000370 02 6c 04 be e3 e4 ed bd f8 c5 2d 3e 2c dd 90 3e
       -0.12931827 -0.11615922 0.1697005 0.2829374
000380 4c 9c af bd 98 1f e0 3e 3c 16 48 3e b8 db 90 3b
       -0.08574733 0.43774104 0.19539732 0.0044207238
000390 a2 02 bb 3d 40 00 09 3b 33 2c b1 bd 1b 4a 06 3e
       0.091313615 0.002090469 -0.086510085 0.13114206
0003a0 b3 d9 3c 3e 1c ec 00 3e 3f cf 90 3e 03 bf 41 bd
       0.1844242 0.12590069 0.28283116 -0.047301304
0003b0 54 f6 f0 bb d9 6c 37 3e b8 c5 b7 bc bd d4 30 be
       -0.0073535834 0.17912616 -0.022433147 -0.17268653
0003c0 b2 ac da 3d f0 30 87 bd 1d da b6 3e 24 5d ad 3d
       0.1067747 -0.06601131 0.35713282 0.08465031
0003d0 a7 81 a4 bd 3a e4 1c 3e 89 49 12 3e 00 04 1d 3d
       -0.08032542 0.15321437 0.14285864 0.038333893
0003e0 a0 b4 c8 be 5a cd a3 3d 70 ea e0 bd 47 84 19 bd
       -0.39200306 0.07998152 -0.109822154 -0.037479665
0003f0 c3 39 53 be 4f 4e c7 bd ba a2 b3 bd 81 35 78 be
       -0.20627503 -0.09731733 -0.08771272 -0.2423916

network.6.bias f4 [64]
000000 69 dc 09 bd fb 18 67 be 7c 7a e6 3d e9 72 26 3e
       -0.033657465 -0.22568123 0.11253831 0.16254772
000010 d5 a3 bc bd a1 87 42 bd 6f 37 7a 3d 7f 10 08 bd
       -0.09210936 -0.047492627 0.06108802 -0.033218857
000020 37 6a 15 3d ff 1b 7d bd 7d c9 2e bd 89 3c 87 bc
       0.036478247 -0.061794277 -0.042672623 -0.016508358
000030 15 79 13 be 6a 09 5a be 36 c7 07 3e 5a cf 39 3d
       -0.14401658 -0.21292654 0.13259587 0.04536376
000040 a0 bb e2 bd 5d 3a ec 3a b0 86 74 ba 3a 74 25 be
       -0.11070943 0.0018022765 -0.00093279313 -0.16157618
000050 88 3d 04 bd 3e 7d d9 3c 53 bc aa 3c 82 57 33 bd
       -0.032285243 0.026548978 0.020841753 -0.043784626
000060 c9 9b 81 3d 65 7e 0e bd d8 04 eb 3d 13 d8 06 be
       0.06328542 -0.034788508 0.11475533 -0.13168363
000070 10 ca b6 bd 99 db 29 be 06 1c 3f be 5f 0f bd bd
       -0.08925259 -0.16587676 -0.18663034 -0.092314474
000080 24 29 03 bd c0 58 cb 3d c4 e7 1f 3d 3b cd 17 be
       -0.032021657 0.09929037 0.03903939 -0.14824383
000090 69 ad ef bd 84 25 bf bd e5 a3 0f be 70 86 27 3e
       -0.11702997 -0.093333274 -0.14027365 0.16359878
0000a0 fc 4b ef 3d fa 4f 62 bc d6 7c dd 3c 9b 06 c2 3c
       0.11684415 -0.013813013 0.027037065 0.02368479
0000b0 f9 2c 16 be 9d 30 13 3e e0 fd e5 3c 9c 11 cc 3d
       -0.14665593 0.14374013 0.028075159 0.09964296
0000c0 72 3e b4 bd 7e c6 d3 bd 07 2d 05 be 99 1c f2 3d
       -0.08800973 -0.10340594 -0.13005458 0.11821861
0000d0 48 ad 29 3a 7a 5b ec 3d 76 9e 8a bc 30 1d 54 3e
       0.00064726593 0.11540885 -0.016921263 0.20714259
0000e0 1b 25 8b 3d 00 3a 12 bd d9 f1 24 be 91 16 e0 3d
       0.06794187 -0.035699844 -0.16107883 0.10941804
0000f0 3d cc 4b 3d 41 c8 14 bd ca 16 92 bb 1c c9 01 bd
       0.049755324 -0.03632379 -0.004458283 -0.031685933

network.8.weight f4 [64, 64]
000000 13 ce 0d bd b9 2e 9e be 8d f9 b7 3b 4d 68 2d be
       -0.034620356 -0.30895022 0.0056144656 -0.16934319
000010 2b c2 34 be 34 68 b1 bc 74 91 8e 3e 38 73 18 be
       -0.17652194 -0.021656133 0.27845347 -0.14887702
000020 a6 e5 b8 bd 81 fd 22 be 46 d2 56 be 74 b7 93 bd
       -0.09028177 -0.15917017 -0.2097865 -0.07212725
000030 30 a9 7d 3e 25 e4 c9 3d e5 06 a7 3e a0 39 26 bd
       0.24771571 0.09857968 0.32622448 -0.0405823
000040 a4 50 a4 be ce a1 6d 3e 66 98 a0 be 33 39 1f 3e
       -0.32092774 0.23206255 -0.3136627 0.15549164
000050 0c 19 65 bd d9 a8 39 be b1 8d d3 bc 09 30 e1 3d
       -0.05593209 -0.18130817 -0.0258244 0.1099549
000060 fd b1 2d 3f c1 11 2e be 64 32 83 3e 13 c8 66 3e
       0.67849714 -0.1699896 0.25624382 0.2253726
000070 af 75 4f 3c 26 75 22 be a1 54 fb 3d 40 5d 20 3e
       0.012662335 -0.15865001 0.12272001 0.15660572
000080 6a ee 88 be 8c 3d a4 3e 01 f0 e7 bd 16 7e 81 be
       -0.26744395 0.32078207 -0.11325074 -0.25291508
000090 d5 d1 bb bd a8 48 81 be 3b 94 a5 3d c6 e1 00 be
       -0.09170882 -0.25250745 0.08084913 -0.12586126
0000a0 98 7d 8e 3e 2f 81 4f be e9 1f e5 3d d0 4a 34 3d
       0.27830195 -0.20264123 0.11187727 0.04401666
0000b0 70 c3 03 bf cb 4f 41 be e3 55 51 be a5 c6 3d 3e
       -0.5147009 -0.18878095 -0.2044292 0.18532808
0000c0 56 ac 5c 3e c7 33 ff bd 52 4e d2 3c 20 f7 89 3d
       0.21550116 -0.124610476 0.025672112 0.067365885
0000d0 5b 06 92 3e f0 25 be bc 81 ca 44 3d 11 a3 27 3d
       0.28520474 -0.02321145 0.048044685 0.040926997
0000e0 db 89 51 3d 72 a1 78 3e 9f e7 85 be 0a 35 02 3d
       0.05115686 0.24280336 -0.26153275 0.031788863
0000f0 86 00 38 3e 91 97 a1 bd 1f cb be be 1b c3 34 3e
       0.1796895 -0.07890237 -0.37264344 0.17652552
000100 42 3f d5 3d f7 29 7b 3d 95 34 c1 3d 56 fe ce be
       0.10412456 0.061319318 0.09433857 -0.40428418
000110 9f 74 fe 3e 95 6f 17 be ab 25 10 3d 0d 2b 43 3e
       0.4969835 -0.14788659 0.035192173 0.19059391
000120 33 6f 50 bd 06 73 9c be a6 a1 b9 3d ab d7 fa be
       -0.050887298 -0.30556506 0.09064035 -0.48992667
000130 5b 48 69 3d ca f1 b6 bc 86 d4 ab be 74 35 0e 3f
       0.05695377 -0.02233209 -0.3356058 0.55550313
000140 56 e9 dd 3d f0 ba 16 3f 13 37 05 be 1e 13 9e 3c
       0.10835521 0.58878994 -0.1300929 0.019296225
000150 26 8b 92 3d 37 3d c1 3d da 4a 97 bd b8 03 35 3d
       0.07155447 0.09435504 -0.07387324 0.044193
000160 bc 4c 85 3e 9d 2b a6 be c3 ed 70 3c e7 4f 51 3e
       0.26035106 -0.3245515 0.014705124 0.20440637
000170 76 c1 39 be 1d 77 e2 3d 55 c8 16 3e 62 2f 84 bc
       -0.18140206 0.11057875 0.14724858 -0.016135875
000180 b7 93 65 3e 54 74 16 3e 23 13 dd be 27 43 cc 3d
       0.2241963 0.14692813 -0.43178663 0.09973746
000190 ef 77 af 3e 4a be 2e be ef 73 40 3c 89 44 c5 3e
       0.3427119 -0.17064777 0.011746391 0.3852885
0001a0 18 a7 24 3e ee d5 f8 bd 84 97 d8 bd a4 88 d3 bd
       0.16079366 -0.12150179 -0.10575774 -0.103287965
0001b0 da 8b 40 3d 2e 52 9d 3d d1 7d 6e 3e c0 fc 56 bd
       0.047008373 0.0768169 0.23290183 -0.052487135
0001c0 b1 5a ea be 86 95 bc bd 41 a1 16 bd 3b 5f ed be
       -0.45772317 -0.09208207 -0.036774877 -0.46361718
0001d0 9f 42 fa 3e 02 84 af bd 99 9d 36 be 8c f1 b3 be
       0.48878953 -0.085701 -0.17833556 -0.35145223
0001e0 f6 de fe bd a7 a8 e5 3d 45 26 99 3e 24 89 b9 3d
       -0.1244487 0.112138085 0.2991201 0.090593606
0001f0 57 4e aa be 25 bd 48 3e 72 b0 a7 3d cc ad 57 3e
       -0.33262894 0.19603403 0.08187951 0.21062392
000200 16 02 a0 bd 36 0f a6 3c 04 28 d6 be 02 99 99 3d
       -0.07812898 0.020270925 -0.41827404 0.07499887
000210 8f c2 5e be 62 06 0d 3e c4 5f 51 be ee 4c ca 3d
       -0.21753906 0.13771966 -0.20446688 0.098779544
000220 c7 67 e3 3c d5 06 26 3d 35 f0 8a 3e 8b 0a 57 bd
       0.027759446 0.04053386 0.27136388 -0.05250029
000230 d5 d1 c2 3d 8f f8 8c bd 81 02 82 be 75 a5 c7 3c
       0.095126785 -0.06883346 -0.25392535 0.024370888
000240 5d 8f 51 3e a1 be 89 3e bf 95 cb be 1d 53 8c be
       0.20464845 0.2690325 -0.39762685 -0.2740716
000250 b8 7d e5 3d 66 89 cf 3b 91 0f b9 3d d1 45 b8 3e
       0.112056196 0.006333518 0.09036172 0.35990766
000260 1b 58 b0 3e c7 a4 45 be d3 2e a4 3e f4 d0 83 be
       0.3444222 -0.19301139 0.32066974 -0.25745356
000270 80 5b d2 3d ef 28 21 be df 0d 6e 3c 65 60 d5 3d
       0.102713585 -0.15738271 0.014529674 0.104187764
000280 ad 74 5b 3c bf 06 d8 be bc 96 d5 3b 07 05 8a 3e
       0.013394517 -0.42192647 0.006518213 0.2695696
000290 69 8d 84 3d 3c 7f 29 3e 50 3a 28 be be 49 02 bd
       0.06472284 0.16552442 -0.16428494 -0.031808607
0002a0 01 17 8c be 68 bc 9d bd b6 04 30 be d0 aa 00 bb
       -0.273613 -0.07701951 -0.17189297 -0.0019633062
0002b0 69 7a b5 be 7b 4e 49 be 10 f9 d7 3e b8 5b 6c 3c
       -0.35444954 -0.19658844 0.42182207 0.014426164
0002c0 c4 bb 6a bb 16 f0 72 3d de 7d 55 3e d3 b9 52 bd
       -0.0035817483 0.059310995 0.20848796 -0.051446747
0002d0 d6 3b c1 3d 24 a5 e2 be 7a fd 42 bd 15 2c 27 bd
       0.09435241 -0.44266617 -0.047605015 -0.040813524
0002e0 41 63 f5 bd 20 38 3d bd 0b ad 95 3d 51 4c 85 bd
       -0.11981822 -0.046196103 0.07308396 -0.06508697
0002f0 58 df d4 3c 62 52 42 bd ce 38 15 3f c6 47 4e 3e
       0.025985405 -0.047441848 0.582898 0.20144567
000300 e4 b8 16 3d 2a ec a5 bd 4f 10 87 be fc c9 4d be
       0.03679742 -0.08101685 -0.2637963 -0.20096582
000310 e6 65 11 be 89 30 61 bd 31 a8 81 3d ff a9 3c 3d
       -0.14199027 -0.054977927 0.06330908 0.04606056
000320 1a 25 94 3e cf 0a 0b 3d 7a d1 25 bd 16 2d f7 3c
       0.28934556 0.033945855 -0.040482976 0.030172866
000330 7a 5e 15 3e b7 c3 a6 3d 00 c9 f3 3d d9 ab 72 3c
       0.14586821 0.081427984 0.11903572 0.0148114795
000340 a6 b3 10 be e9 9a 8e bd 02 8c 96 3e ee 85 36 3e
       -0.1413103 -0.069631405 0.29403692 0.17824528
000350 a8 86 bf 3d 82 55 a4 3d 82 b6 e4 bb 5b 31 92 bd
       0.093518555 0.08024122 -0.0069797644 -0.0713832
000360 28 00 cb 3e a9 b2 2e be 8a 70 11 3d 29 d1 50 3d
       0.39648557 -0.17060341 0.035507716 0.05098072
000370 ac 6a d2 bd 9d 57 69 3e 27 1e 21 3e d5 63 e7 be
       -0.10274252 0.22787328 0.15734158 -0.45193353
000380 c8 f4 d7 bb 66 3f 3b bc 9b 81 38 3e fe 10 34 be
       -0.0065904595 -0.01142869 0.1801819 -0.17584607
000390 6b 71 1d be b1 70 4b 3d 67 93 b1 bd d7 b0 8f be
       -0.15375297 0.049668018 -0.08670693 -0.28064606
0003a0 cd aa eb be 01 56 6c 3c 40 a8 df be e6 86 b3 bc
       -0.46028748 0.014424802 -0.43683052 -0.02191491
0003b0 6a 75 0a 3e bd cd a1 3d 0b f1 61 3d 7c d7 18 bb
       0.13521352 0.079005696 0.055161517 -0.0023321798
0003c0 42 a4 af be d6 fa 57 3e 98 71 40 3e 0f 83 43 3e
       -0.34305006 0.2109178 0.18793333 0.19092964
0003d0 3e 80 94 bb 37 2c 29 3e 36 e6 01 be 30 43 52 be
       -0.004531889 0.16520773 -0.12685475 -0.20533442
0003e0 fd 18 59 3b 61 66 ff 3e 37 89 18 3d 13 de 79 3e
       0.0033126466 0.49882796 0.037240233 0.24401121
0003f0 3e a4 f9 3d 94 bb 0e 3c 0c 30 50 3d ad c5 87 3d
       0.1218953 0.008711714 0.05082707 0.066295005

network.8.bias f4 [64]
000000 05 cc 8c b9 70 fc 3b be f7 77 48 be d6 76 aa bd
       -0.00026854887 -0.18358016 -0.19577013 -0.083234474
000010 7e 5e 5d be 8a 51 77 bc fc 78 03 3d 18 2e 05 3e
       -0.21618077 -0.015095124 0.0320978 0.13005865
000020 f8 1e 67 3d cf 3b 03 3e af 15 28 3e 02 7b ad 3c
       0.05642602 0.12815784 0.16414522 0.021176819
000030 cd 50 05 3d 1f 52 07 3e e1 b9 6c 3e 88 58 19 3d
       0.03254776 0.1321492 0.23117782 0.037437946
000040 c9 05 e0 bd 81 be 30 bd bd f7 36 3b 42 26 d0 bc
       -0.109386034 -0.04315043 0.002791866 -0.025408868
000050 49 ef 00 3e 00 11 78 bb 7a 82 18 3d dc 0d 1b be
       0.1259128 -0.003785193 0.037233807 -0.15142006
000060 69 0a 19 bd 14 28 02 3d 4d d2 72 3d ca d7 b7 bc
       -0.037363444 0.031776503 0.05928259 -0.022441763
000070 87 00 20 bd 28 4d 71 be c7 99 ac 3d 74 36 8a bb
       -0.039063003 -0.23564589 0.08427768 -0.004217917
000080 da c6 94 3c c9 3f bd bc 98 cd 1e 3c d3 be d3 3d
       0.018161226 -0.023101704 0.009692572 0.10339131
000090 b5 d1 8d bd 75 78 77 3d 98 f0 bd 3d 85 4e 50 bc
       -0.06924764 0.06041761 0.09274405 -0.012714033
0000a0 86 41 aa bc ef 70 92 3e 71 44 9d bb 37 64 31 3d
       -0.020783197 0.28601786 -0.0047994186 0.043308463
0000b0 eb 52 69 bc ed eb cc 3c 3f 11 41 3e bd 1a c8 3d
       -0.014240961 0.025014842 0.18854235 0.09770725
0000c0 ae be 31 be 6f e9 1a 3b 2b 90 4a be 24 0c 62 bd
       -0.17357895 0.0023637672 -0.19781558 -0.05518736
0000d0 6a 21 d7 3c ee 15 d1 3d 73 4e ce 3d 53 9f c7 3c
       0.02626105 0.10209261 0.10073557 0.024367964
0000e0 ad f4 61 3d 93 13 0f be b8 f3 1c bd 24 d8 9d bd
       0.05516498 -0.1397231 -0.038318366 -0.07707241
0000f0 a0 87 ab bd 76 9c 1d be c1 5c 80 be 1f d3 c7 3d
       -0.08375478 -0.15391716 -0.25070766 0.09757065

network.10.weight f4 [5, 64]
000000 9b ba 39 bc 7f cb e7 3c c8 46 4d 3e 12 2f 41 bd
       -0.011335994 0.028295277 0.20046532 -0.04716403
000010 92 ce c7 be 7c e1 3f bd a8 59 1a be d4 32 a3 3b
       -0.39024788 -0.046845898 -0.15073264 0.0049804244
000020 54 1e 81 3d ca e5 33 3d fb 56 2e bb b7 ec 6c bd
       0.06304613 0.043920316 -0.0026602137 -0.057842936
000030 e5 c7 6e 3d 2b df 86 bc bf 15 8a 3c d3 7e 37 be
       0.058296103 -0.016463837 0.016856072 -0.17919473
000040 ba 09 b0 3d ee 25 4b 3d 70 b5 d2 bb dc 4c 8c 3c
       0.08595605 0.04959672 -0.0064303204 0.017126493
000050 43 5c 86 bc 29 51 45 bd c5 9c 4a be 67 b9 54 3d
       -0.016401416 -0.048173103 -0.19786365 0.051934626
000060 01 3f e4 bc 4f 11 7f 3c 75 81 33 3d 66 4e f2 3d
       -0.027862074 0.0155680915 0.04382463 0.118313596
000070 d2 08 c9 bd 90 c8 27 3d bf 47 7f 3d 9e 3f 11 3d
       -0.098161355 0.040962756 0.06232428 0.03546106
000080 56 14 27 3c 9b 88 5e bd 16 8a ee bc 9f f9 c6 bc
       0.01019772 -0.054329496 -0.029118579 -0.02428895
000090 f8 c1 9c 3d bc a1 13 bd c2 83 13 3e a5 24 a4 bb
       0.07654184 -0.036042914 0.1440573 -0.005009251
0000a0 9b 85 3b 3d 20 fe 38 3e 9d 12 46 bd 82 44 d4 3d
       0.045781713 0.18065691 -0.048357595 0.10364629
0000b0 e8 5b c1 bc d6 ee d5 3d d9 4a ef 3e e7 79 d9 3c
       -0.023603395 0.10445945 0.46736792 0.026547385
0000c0 85 77 a8 3c 39 35 01 3c ea 12 09 be 9f 51 43 bd
       0.020564804 0.007886224 -0.13386121 -0.04768526
0000d0 0b b3 6d bd 44 0b 3a 3e be 46 46 3d 59 a5 88 bd
       -0.058032077 0.1816836 0.04840731 -0.066721626
0000e0 c5 b5 5a be 4c d9 7a bc 95 d1 8f bc 4d 0f 88 bd
       -0.21358402 -0.015310597 -0.017555991 -0.066435434
0000f0 a4 64 08 bd 6c 77 4b bd a5 4b b0 bc b1 cc 2a bd
       -0.033299103 -0.049674436 -0.021520445 -0.041699115
000100 10 d7 0c 3d 81 e4 cb bc 23 6f 19 3e 47 c8 bd 3d
       0.034384787 -0.024889233 0.14983802 0.092667155
000110 d9 d1 16 3e 5a f6 90 bc 4a e5 0d bd ab 56 4d bc
       0.14728488 -0.017695595 -0.034642495 -0.01253287
000120 b6 52 3b bd dd 31 93 bd d8 bd 0c bc d1 6f 82 bc
       -0.045733176 -0.07187245 -0.008590184 -0.015922459
000130 ab 7f 0b be 04 2a 68 bb 75 87 9a 3d 80 97 50 3d
       -0.1362292 -0.0035425434 0.07545368 0.05092573
000140 0c 03 6e 3d d2 8a c6 bd 74 51 38 bd ef 07 6b bd
       0.058108374 -0.096944466 -0.044999555 -0.057380613
000150 2d b3 da 3b 14 1f e8 bc e0 c0 68 3b aa b2 72 3d
       0.0066741914 -0.028335132 0.0035515353 0.05925242
000160 ee 86 63 3d 4a 79 5d bd 95 87 72 bd 8a 1b 01 be
       0.0555486 -0.05407075 -0.059211332 -0.12608162
000170 88 39 f8 bd 5c 0a 80 3d 5b b7 0a bd 43 9f de 3d
       -0.12120348 0.06251976 -0.033866268 0.108702205
000180 25 05 50 3d 95 52 91 bd 11 12 a9 bc 94 40 06 bc
       0.050786156 -0.070958294 -0.020638498 -0.008194108
000190 8c d7 da 3c 0e fe c5 3d 05 b7 27 3e a1 7a 14 3d
       0.026714109 0.09667598 0.1637841 0.03624976
0001a0 84 31 c3 bd a0 59 52 bd e8 8c 35 bd c9 1e dd bb
       -0.09530929 -0.051355004 -0.04432383 -0.0067480546
0001b0 de 60 e9 bc e5 4c 9a bd e4 86 25 3e 4b 2b f5 bb
       -0.028488573 -0.07534198 0.16164738 -0.0074819676
0001c0 b7 8b 8f bc 48 83 72 3c d5 84 6b bc 4f 71 34 3c
       -0.017522676 0.014801808 -0.014374931 0.011013343
0001d0 0f 3c 45 3c 90 27 88 bd ad eb a5 3d d4 38 8c bd
       0.012038245 -0.06648171 0.08101592 -0.068467766
0001e0 59 36 1b 3c de b5 9c bc 03 2b f5 3b 49 35 d6 3d
       0.009473407 -0.01912969 0.007481934 0.10459382
0001f0 8a 07 fd 3c 7e 1f 28 3e 4c 9f 8a 3c a5 ef 10 bd
       0.030887384 0.16418263 0.016921662 -0.035384793
000200 91 b9 38 bf 1a 37 7a bf 89 28 bc 3e a1 b2 a3 be
       -0.7215815 -0.9774033 0.36749676 -0.3197222
000210 af e2 37 3d 47 8b c8 3e 8e 5c a7 3d b3 8e 37 3f
       0.044893917 0.3916876 0.0817195 0.71702117
000220 9b 57 fb 3d 79 5b 95 3d 10 1c 6d 3f 51 03 fe bc
       0.12272569 0.07292838 0.92620945 -0.03100744
000230 a4 33 a3 3e b3 29 74 3f a9 2a c0 3e 56 4e bf be
       0.31875336 0.9537613 0.37532547 -0.37364453
000240 01 f2 d6 bd 89 d9 80 bf 7d 78 49 bf 59 91 5c 3f
       -0.10495377 -1.0066386 -0.78699476 0.8615928
000250 df 43 42 3f ce 57 64 bf a5 cb 65 3e ee 36 8a 3e
       0.75884813 -0.8919648 0.22440965 0.26995033
000260 52 b3 cd 3d 58 2e e0 3c 5b 02 09 bf bb 12 13 bd
       0.10043968 0.027365848 -0.5351922 -0.035906535
000270 6d df b4 3e b1 d8 05 bf 2b da 4c be 56 77 e7 3e
       0.3532671 -0.5228377 -0.200051 0.45208234
000280 1a fa 64 3f 2e a0 58 3e d1 bd 66 3f 8c ce 88 3f
       0.89444125 0.21154854 0.90133387 1.0688033
000290 90 18 8f be 0a 3a 4c bd 3a 34 28 3e c3 38 f7 3f
       -0.27948427 -0.049860038 0.16426173 1.9314197
0002a0 30 90 fc 3e e3 25 fd 3e c0 83 2c 3f 56 11 ca 3e
       0.49328756 0.49442968 0.67388535 0.3946635
0002b0 f5 e7 7e be 2a 61 c1 3e 14 3d f9 3d 9b 1b 09 bf
       -0.24893172 0.37769443 0.12169853 -0.5355775
0002c0 25 9f 88 3d e0 d7 37 bc 31 22 32 bf f4 e8 8f be
       0.066709794 -0.011220902 -0.6958342 -0.28107417
0002d0 54 02 11 3f d1 8d 2e be 68 49 eb 3e a0 64 29 3d
       0.5664418 -0.17046286 0.45954442 0.04135573
0002e0 24 81 35 be b9 b2 e5 be f4 18 b8 bd 5f 76 af bd
       -0.17725044 -0.44862917 -0.089891344 -0.08567499
0002f0 e6 b1 9a 3e f2 72 bb bb 43 3e 66 be de f3 ff 3f
       0.3021385 -0.0057204897 -0.22484688 1.9996297
000300 95 ff 83 3e 13 81 49 3d 35 71 21 bf e4 8a 6b be
       0.2578093 0.04919536 -0.63063365 -0.23002201
000310 3a 3b 8c bd 3a bc 3c 3f e3 e6 c0 3e ed 56 37 3d
       -0.06847234 0.7372471 0.37676153 0.044760633
000320 1e bf 05 bf f2 51 dc 3e 53 b6 9d 3d b5 6d 11 bf
       -0.52244747 0.4303127 0.07700791 -0.56808025
000330 47 7b cb bc 1a a6 e4 3d 97 71 6d bf a8 5a 43 3f
       -0.024839057 0.11164494 -0.9275145 0.76310205
000340 f8 ab af bb 27 09 2e 3f a5 eb d3 bc 0c f6 cc be
       -0.0053610764 0.67982715 -0.0258692 -0.4003147
000350 6e c9 47 be 8d b7 01 bf 7b 19 fa 3e b3 3c ef 3e
       -0.19510433 -0.506707 0.48847565 0.46725997
000360 c5 78 53 3e a5 a2 28 bf 69 a8 10 3d 90 8a 08 3a
       0.20651539 -0.65873176 0.03531686 0.00052086357
000370 57 03 f3 be 03 37 74 3e 38 a0 f8 3e e9 22 d5 be
       -0.47463486 0.2384911 0.48559737 -0.41628197
000380 a2 17 c1 3e c9 0c 9b bf 86 cf ba be 25 80 7c 3b
       0.37713343 -1.2113277 -0.36486453 0.0038528529
000390 2b 01 31 3e 8c a0 b2 3f 57 3d 68 3c d0 c8 82 bc
       0.17285602 1.3955245 0.014174781 -0.015964895
0003a0 87 c1 b2 be 1b bf 7d be bc 87 07 bf 04 ae af be
       -0.34913275 -0.24779932 -0.5294149 -0.3431245
0003b0 61 d6 0b 3f d9 b1 21 3e 91 86 02 3d fc 25 a4 bd
       0.5462399 0.157905 0.031866614 -0.080150574
0003c0 1f a9 97 bf c8 2b 30 bf d5 b9 89 be 43 c6 45 3f
       -1.1848487 -0.68816805 -0.2689959 0.7725565
0003d0 4d be b4 bf 93 e5 78 3e 45 9c 7b be be b8 33 bd
       -1.4120575 0.24306326 -0.24571331 -0.043877356
0003e0 ff 30 65 be 32 a5 7a be 41 3c 45 bc 74 a7 cd 3e
       -0.22381972 -0.2447708 -0.012038291 0.4016682
0003f0 f5 03 dd bc eb 82 83 be ad 9e e1 be c9 8f 16 be
       -0.026979426 -0.2568582 -0.44066373 -0.14703287

network.10.bias f4 [5]
000000 00 d2 07 3f 71 28 db 3d 8d db 94 3e 56 d3 b0 3c
       0.5305481 0.10701073 0.29073754 0.021585148
000010 f5 09 65 bd
       -0.0559177
