2D_sheet_problem/models/plate_hole_lbfgs.pth (torch, 190566 bytes, 18 tensors)

network.0.weight f4 [80, 2]
0	0xbe24f1da	-0.16107884
1	0xbd6c7d71	-0.057736818
2	0x3c93a68a	0.018023748
3	0xbe9f2e7e	-0.31090158
4	0xbe9a22d1	-0.30104688
5	0x3e3df463	0.18550257
6	0xbec330e9	-0.38123253
7	0x3c61c6c6	0.013780301
8	0xbe80c218	-0.25148082
9	0x3d45bc3e	0.048275225
10	0x3e7202bc	0.23633856
11	0x3e22ac9d	0.15886159
12	0xbe928a70	-0.28621244
13	0x3dc1e343	0.09467175
14	0xbefe4550	-0.49662256
15	0xbeaef636	-0.3417222
16	0x3e90c94c	0.28278577
17	0x3ecf55e3	0.40495214
18	0xbe0d80ff	-0.1381874
19	0xbe8d24f0	-0.27567244
20	0xbeb391b7	-0.3507211
21	0x3e48f509	0.19624723
22	0x3e9c9a66	0.30586547
23	0xbecc057b	-0.3984793
24	0xbe8eb7a9	-0.27874497
25	0xbf1a484f	-0.60266584
26	0xbd845233	-0.06460991
27	0x3e79b416	0.24385104
28	0x3eb99e67	0.36253664
29	0x3daf83b0	0.08570039
30	0x3ec0cdaf	0.37656924
31	0x3d16a3d3	0.03677733
32	0x3e55233c	0.20814222
33	0xbe9ddc92	-0.30832344
34	0x3e665c50	0.22496152
35	0x3e59eec2	0.21282485
36	0xbe85a044	-0.26098835
37	0x3cb71e2d	0.022353256
38	0xbe5632f0	-0.20917869
39	0x3cbe33f1	0.023218127
40	0x3eb18ad9	0.34676245
41	0xbe8adfed	-0.27123967
42	0x3d0fb4c7	0.035084512
43	0xbed6bc6a	-0.41940624
44	0x3dcb19b8	0.09917015
45	0x3e0733ec	0.132034
46	0xbdac3f73	-0.084105395
47	0x3e6a6af4	0.22892362
48	0x3e29c27b	0.16578095
49	0xbe233623	-0.1593862
50	0x3cf3f79d	0.029781157
51	0x3e1318ed	0.14364977
52	0x3e10c7a2	0.14138654
53	0x3bea7084	0.007154526
54	0xbd3383a9	-0.043826733
55	0x3ea9fe73	0.33201942
56	0x3ee1a02a	0.44067508
57	0xbb9678bf	-0.004592031
58	0xbdc15ffb	-0.09442135
59	0x3dc4c2bc	0.09607455
60	0x3e551291	0.20807864
61	0xbe325235	-0.17414172
62	0xbea87468	-0.3290131
63	0x3e8b7e6a	0.27244884
64	0x3c7386e5	0.014863704
65	0x3d84af32	0.06478728
66	0xbea092f2	-0.3136211
67	0x3e4e74b4	0.20161706
68	0xbd1e27c3	-0.03861214
69	0xbe80bec5	-0.25145546
70	0x3d67e0e4	0.056610957
71	0x3e9d7c3d	0.3075885
72	0x3e7da8f7	0.24771486
73	0x3e06e8e7	0.13174783
74	0xbe24d8f3	-0.16098385
75	0xbe3b907e	-0.18316838
76	0xbd34f234	-0.044176295
77	0x3c94e9f1	0.018177958
78	0xbe8f4948	-0.27985597
79	0x3eb1a372	0.3469501
80	0x3c672e3f	0.014110147
81	0xbe2917ca	-0.16512981
82	0xbd57e01b	-0.052703958
83	0x3e45161e	0.19246718
84	0x3eb21b4d	0.34786454
85	0x3ebfa3a2	0.3742953
86	0xbdf0c405	-0.11756138
87	0xbec3dae4	-0.38252938
88	0x3d0dd27e	0.03462457
89	0xbecdb48c	-0.4017681
90	0x3d23e453	0.04001267
91	0xbc86b5e7	-0.01644416
92	0xbe2dca6c	-0.16971749
93	0x3d604bca	0.054759778
94	0xbe2d2291	-0.16907717
95	0xbdf6aaad	-0.120442726
96	0x3d5510b7	0.052017894
97	0x3ec85b12	0.3913198
98	0x3edc7b8a	0.43063003
99	0x3cbc56af	0.022990553
100	0x3da071df	0.07834219
101	0x3eae445c	0.3403653
102	0x3ea917cd	0.3302597
103	0x3eb8c2e4	0.3608619
104	0x3c202af3	0.009775865
105	0x3e426442	0.18983558
106	0xbdab4338	-0.0836243
107	0x3d2dfac6	0.042475484
108	0xbea4229d	-0.32057658
109	0x3e414a85	0.18876083
110	0x3eda15de	0.42594808
111	0xbd9b2c9a	-0.075768664
112	0x3eba86ad	0.36430874
113	0xbe347750	-0.17623639
114	0x3d8fedf2	0.07027806
115	0xbdabed00	-0.083948135
116	0x3e778ae7	0.24174081
117	0xbf09d85b	-0.5384576
118	0xbe4c1cd7	-0.19932877
119	0xbd8a36a3	-0.067487024
120	0x3e4310ac	0.19049329
121	0xbf1593e3	-0.5842878
122	0xbd2251f0	-0.039628923
123	0x3ee74f3b	0.45177636
124	0x3e4f53fb	0.2024688
125	0x3d085a6d	0.03328936
126	0xbe2edbe6	-0.17076072
127	0x3deffcf8	0.11718172
128	0x3e239033	0.15972976
129	0x3de669a7	0.1125062
130	0xbcdc0cfc	-0.02686166
131	0xbe4dcbd3	-0.20097284
132	0x3c1ec108	0.009689577
133	0xbf03778a	-0.5135428
134	0xbef3c1f7	-0.4760892
135	0x3e61365a	0.2199339
136	0xbe391855	-0.18075688
137	0xbe0545e2	-0.1301494
138	0xbe2ad124	-0.16681343
139	0xbea4b859	-0.32171896
140	0xbe58e2c7	-0.21180259
141	0xbe91b8cb	-0.28461298
142	0xbdce2993	-0.100665234
143	0x3bd3484c	0.0064478274
144	0x3e99a63a	0.30009633
145	0xbf0c1f01	-0.5473481
146	0x3e813b85	0.25240722
147	0xbe25f2ed	-0.1620595
148	0xbd0a6eb4	-0.03379698
149	0xbe8f425a	-0.2798031
150	0x3e5a661c	0.21328014
151	0x3dcda832	0.10041846
152	0xbd92a2d2	-0.07159962
153	0xbe8a12f6	-0.2696759
154	0x3e817e3c	0.25291622
155	0x3db69a82	0.08916189
156	0xbe09693a	-0.13419047
157	0x3e1183e0	0.14210463
158	0x3eabdb35	0.3356568
159	0x3e678061	0.22607566

network.0.bias f4 [80]
0	0x3e8184fc	0.25296772
1	0x3c7398e3	0.014867994
2	0x3cabdae5	0.0209784
3	0x3e61970b	0.22030275
4	0x3e1c9b37	0.15293585
5	0xbe0295ee	-0.12752506
6	0x3c9e6f59	0.019340204
7	0x3e8133c0	0.25234795
8	0x3ba62f2c	0.0050715413
9	0x3cf8a943	0.030354148
10	0xbcacd5bc	-0.02109801
11	0x3d03ae0c	0.032148406
12	0x3e1ba05e	0.15197894
13	0x3d95c1b8	0.073123395
14	0xbe4ef5d4	-0.20210963
15	0xbe30ca10	-0.1726458
16	0x3e1a5522	0.15071538
17	0xbec51455	-0.38492075
18	0xbbbb8458	-0.0057225637
19	0x3ddb314d	0.10702763
20	0xbdab2991	-0.083575375
21	0x3e5213aa	0.20515314
22	0xbd3f318c	-0.04667811
23	0x3b8f6ba4	0.0043768454
24	0xbbfb16c5	-0.0076626264
25	0x3dd54056	0.10412662
26	0x3d5ecd63	0.05439509
27	0xbd60dc9e	-0.054897897
28	0xbe83371a	-0.25627977
29	0x3e2a268e	0.1661627
30	0x3dd8c2ec	0.105840534
31	0x3d1d47de	0.038398616
32	0x3d97bf75	0.074095644
33	0x3e518df9	0.20464315
34	0x3c13e963	0.009027812
35	0xbe0a59ac	-0.1351077
36	0xbdac1863	-0.08403089
37	0x3e1e553f	0.15462206
38	0x3dbf21fd	0.093326546
39	0xbce9c2f2	-0.02853534
40	0x3e0c7164	0.1371513
41	0x3cc0b51c	0.02352386
42	0x3d27bbc3	0.040950548
43	0x3e6f26b1	0.23354603
44	0x3e3c8949	0.18411745
45	0xbd973099	-0.07382316
46	0x3da0bc24	0.07848385
47	0x3d53febb	0.0517566
48	0xbe3d7147	-0.18500243
49	0xbdbab806	-0.09117131
50	0xbb42de65	-0.0029734608
51	0xbe908a34	-0.2823044
52	0xbd922cf3	-0.0713748
53	0x3e040e9a	0.12896195
54	0xbd11e226	-0.035616063
55	0xbe15229c	-0.14563984
56	0xbd02db28	-0.031947285
57	0x3d6c59b8	0.05770275
58	0x3e65d134	0.22443086
59	0x3df44931	0.11928023
60	0x3ea985bb	0.3310984
61	0xbea51fdc	-0.3225087
62	0xbda5e8e1	-0.08101059
63	0x3d04bbb5	0.032405574
64	0x3d7d1b62	0.061793692
65	0xbd33f8a3	-0.04393829
66	0x3da0ca9c	0.07851145
67	0x3d151740	0.036399126
68	0x3de84677	0.11341565
69	0x3e7d56eb	0.24740188
70	0x3dcd04e2	0.10010697
71	0xbbdde122	-0.0067712227
72	0x3e878808	0.2647097
73	0x3dd1cafb	0.102437936
74	0x3e0d5bab	0.138045
75	0xbe1e4aa3	-0.15458159
76	0x3dbfa642	0.09357883
77	0xbd45da3a	-0.04830382
78	0x3c862c2d	0.016378487
79	0xbe243e12	-0.16039303

network.2.weight f4 [80, 80]
0	0xbd9b0bd8	-0.075706184
1	0xbe1e2a3d	-0.154458
2	0x3d805682	0.062665
3	0x3e533471	0.20625474
4	0xbd5c658f	-0.05380779
5	0x3e060e21	0.13091327
6	0xbdfe6070	-0.12420738
7	0xbd49fbe7	-0.0493125
8	0x3df5d28d	0.1200305
9	0xbde58d0c	-0.11208543
10	0xbde51ff2	-0.11187734
11	0xbe1d7564	-0.15376812
12	0xbdbd8270	-0.092533946
13	0x39b0f045	0.0003374835
14	0xbe411b50	-0.18858075
15	0xbddf7150	-0.109102845
16	0xbdf4285f	-0.11921763
17	0xbddce2fd	-0.10785482
18	0x3e002722	0.12514928
19	0xbdb83c4f	-0.08995878
20	0xbe12ee96	-0.14348826
21	0x3d1cd3d8	0.038287967
22	0xbddbd0a4	-0.107331544
23	0x3d9ee9c8	0.07759434
24	0x3debbe2f	0.11510884
25	0xbdf538a8	-0.11973697
26	0x3cf656aa	0.030070622
27	0x3c500a08	0.012697704
28	0xbd5118aa	-0.051048912
29	0xbdf68ebd	-0.12038944
30	0xbe02fa3d	-0.12790771
31	0xbc0add63	-0.008475634
32	0xbe0f4a99	-0.139933
33	0x3d877cb9	0.06615586
34	0x3e207801	0.15670778
35	0xbda7f2c7	-0.08200603
36	0x3e0dafbc	0.13836569
37	0xbe0815e2	-0.13289598
38	0xbdcfa8b1	-0.10139597
39	0x3d2aed94	0.04173048
40	0x3b0e466b	0.0021709453
41	0x3e186e9d	0.14885946
42	0xbb22d67b	-0.0024847079
43	0xbd2f9cd7	-0.042874184
44	0xbe2380da	-0.15967122
45	0x3dd99eaf	0.106259696
46	0xbdec4f9c	-0.11538622
47	0xbca4d560	-0.020121276
48	0x3de339f3	0.11095037
49	0xbe45be57	-0.1931089
50	0x3d6efb04	0.058344856
51	0x3e34767d	0.17623325
52	0xbcd6a7d4	-0.026203074
53	0xbe0389fb	-0.12845604
54	0x3dbbbe83	0.091671966
55	0xbdbb173d	-0.09135292
56	0xbdf6d0b5	-0.120515265
57	0x3d5cbfca	0.05389384
58	0x3db4ae85	0.088223495
59	0xbe214f54	-0.15752918
60	0xbe8472de	-0.25868887
61	0x3e6002b4	0.21876031
62	0x3daebafc	0.08531758
63	0x3e08ebf0	0.13371253
64	0x3e3580c0	0.17724895
65	0x3dfd6535	0.12372819
66	0xbe623f02	-0.22094348
67	0x3e031300	0.12800217
68	0x3e13d866	0.14438018
69	0xbe06162d	-0.13094397
70	0xbda3480c	-0.07972726
71	0xbd5f7531	-0.05455512
72	0xbe3c5424	-0.18391472
73	0xbe4e398a	-0.20139137
74	0xbcaa9629	-0.020823555
75	0x3e4acd9b	0.19804995
76	0x3d1dc215	0.03851517
77	0xbe4f78c0	-0.20260906
78	0x3d774ba0	0.060374856
79	0xbe03f8fe	-0.12887952
80	0xbe3f171a	-0.18661156
81	0x3d371b61	0.044703845
82	0xbbc1722e	-0.005903504
83	0xbdfe030d	-0.12402926
84	0x3d76f304	0.06029035
85	0x3cd2d337	0.02573548
86	0x3e01780d	0.12643452
87	0xbd475fa3	-0.04867519
88	0xbe711178	-0.2354182
89	0x3d9061b5	0.07049886
90	0xbd4f0fe7	-0.050552275
91	0xbd11c624	-0.035589352
92	0x3e6b24a2	0.22963193
93	0xbe0725b6	-0.1319798
94	0xbd6d71d8	-0.057969898
95	0x3dbbe83a	0.09175153
96	0x3ded332d	0.11582027
97	0x3e22e6a1	0.1590829
98	0x3e03a48a	0.12855735
99	0xbdc00074	-0.093750864
100	0x3cc54d84	0.024084814
101	0x3e0d73ee	0.13813755
102	0x3e27a4f8	0.16371524
103	0x3d0011b7	0.031266894
104	0x3c56e65d	0.013116446
105	0x3e05f2a3	0.1308084
106	0xbe4bc503	-0.19899373
107	0xbc697e06	-0.014251238
108	0x3d853072	0.06503381
109	0x3d710eac	0.058851883
110	0xbcde552d	-0.027140224
111	0x3c64f95f	0.01397547
112	0xbc607e03	-0.013701919
113	0xbd4d6e21	-0.050153855
114	0xbe316be6	-0.17326316
115	0xbe31747a	-0.17329589
116	0xbd2d6b3e	-0.042338602
117	0x3c977a4e	0.018490937
118	0x3e1aec08	0.15129101
119	0x3e11df9c	0.14245456
120	0x3cfcb07d	0.030845875
121	0xbdeb62bf	-0.11493444
122	0x3ca3bb48	0.019986764
123	0x3d7fbb25	0.062434334
124	0xbab0488f	-0.0013449359
125	0x3ca6cc5f	0.020361124
126	0x3cf693dc	0.030099802
127	0x3d9fdd9e	0.07805942
128	0x3df4a3ec	0.11945328
129	0xbe071bb0	-0.13194156
130	0xbe2b1d10	-0.16710305
131	0xbd885d0b	-0.066583715
132	0x3e177e5b	0.14794295
133	0xbc6a81a6	-0.014313137
134	0x3d612a9d	0.05497228
135	0xbdd0ed87	-0.10201555
136	0xbe144f10	-0.14483285
137	0xbcf719e4	-0.030163713
138	0x3d6d4398	0.05792579
139	0xbe3df4c0	-0.18550396
140	0x3e2a4507	0.16627894
141	0xbe475b08	-0.1946832
142	0x3e20a578	0.15688121
143	0xbd8dc7b4	-0.06922856
144	0xbe30d2d9	-0.17267932
145	0xbdf9769a	-0.121808246
146	0x3d7ae497	0.061253157
147	0xbe1cdec9	-0.15319361
148	0xbde991ad	-0.114047386
149	0x3e279094	0.16363746
150	0xbe1d5fc4	-0.15368563
151	0x3e1f0794	0.15530235
152	0xbda70227	-0.081547074
153	0x3e31a1d8	0.17346895
154	0xbd63a837	-0.055580344
155	0xbca6fc6d	-0.020384038
156	0xbe04bbdd	-0.12962289
157	0x3e3751a4	0.17902237
158	0xbd481a6c	-0.048853323
159	0x3e43dcff	0.19127272
160	0x3cd516dd	0.026011879
161	0xbe1eb9ea	-0.15500608
162	0x3dbfdcc2	0.09368278
163	0x3c366cdc	0.011134353
164	0x3e0fadcb	0.1403114
165	0x3e0f70cf	0.14007877
166	0x3e097ada	0.1342577
167	0x3ddab053	0.106781624
168	0x3e256dc2	0.1615515
169	0x3d84fcd9	0.06493539
170	0x3d22706d	0.039658
171	0x3da3d627	0.07999831
172	0xbdcba8a7	-0.09944277
173	0xbd801207	-0.062534384
174	0x3ddda41e	0.108223185
175	0xbdaf73c4	-0.085670024
176	0xbc2278d0	-0.009916499
177	0xbe2981cd	-0.16553421
178	0xbcb0e363	-0.021592801
179	0x3e30df67	0.17272721
180	0x3e197816	0.14987215
181	0xbcd3cabb	-0.025853505
182	0x3d9af7a3	0.07566764
183	0x3d0e9f7f	0.034820076
184	0x3e14f1c0	0.14545345
185	0x3e46a01e	0.19397017
186	0x3e0d9f0b	0.13830201
187	0xbdca169d	-0.098675944
188	0xbe1305a1	-0.14357616
189	0x3d5b4df3	0.053541135
190	0xbd904790	-0.070448995
191	0x3d7f7f4a	0.06237725
192	0xbe036a11	-0.1283343
193	0xbcbbc1e0	-0.022919595
194	0xbde82b27	-0.11336356
195	0x3d667885	0.05626728
196	0x3de4dc97	0.11174887
197	0x3de2db5e	0.11076997
198	0xbe194ca4	-0.14970642
199	0x3da2edda	0.07955523
200	0x3e2ee0c0	0.17077923
201	0x3da7097c	0.08156106
202	0x3df68a9f	0.120381586
203	0x3d32dcc5	0.043667573
204	0x3df68c90	0.12038529
205	0xbd99c383	-0.07507994
206	0xbc17e235	-0.009270241
207	0x3e1a80f7	0.15088259
208	0xbcf64648	-0.03006281
209	0xbbab4608	-0.0052268542
210	0x3e40227e	0.18763158
211	0xbe09106b	-0.13385169
212	0x3e336b89	0.1752149
213	0x3d970f57	0.07375973
214	0xbdd0715c	-0.101778716
215	0xbd4eff45	-0.050536413
216	0xbc3e9f1f	-0.011634617
217	0xbdc4f15f	-0.096163504
218	0x3999bece	0.00029324595
219	0xbd5d114a	-0.053971566
220	0xbe0df643	-0.13863473
221	0x3def25b0	0.1167711
222	0xbdd49f02	-0.10381891
223	0x3e48a596	0.19594416
224	0x3d1a2e8c	0.037642047
225	0x3d5bcbb2	0.053661056
226	0xbe16d1ec	-0.14728516
227	0x3b9bb1a1	0.0047513996
228	0xbd9bcf1a	-0.07607861
229	0xbe1ed616	-0.15511355
230	0x3b6991e2	0.0035639931
231	0x3de65b00	0.112478256
232	0xbe437494	-0.1908744
233	0x3de49196	0.11160581
234	0xbd65e93f	-0.056130644
235	0x3d9aaf92	0.07553019
236	0xbe140ff9	-0.14459218
237	0x3e34e031	0.17663647
238	0x3d307839	0.043083403
239	0x3df3a50e	0.11896716
240	0x3dc629d4	0.09675947
241	0xbd6f9ba5	-0.058498044
242	0x3db54747	0.08851486
243	0xbde23353	-0.110449456
244	0x3dc37da8	0.095454514
245	0x3d03530e	0.03206163
246	0x3c5e1ee9	0.013557174
247	0x3a536e66	0.0008065462
248	0xbd4be6d4	-0.04978068
249	0x3e17fe5b	0.14843123
250	0xbd8615ae	-0.06547104
251	0x3e4cf88f	0.20016693
252	0x3dfc7a7a	0.12328048
253	0x3d529382	0.051410206
254	0x3cfb3b78	0.030668005
255	0xbdc06120	-0.09393525

network.2.bias f4 [80]
0	0xbd4ae897	-0.04953822
1	0xbd7f2c83	-0.06229831
2	0x3bd42434	0.0064740423
3	0xbdb4bd36	-0.088251516
4	0xbc9a7715	-0.01885561
5	0xbd6a2cdc	-0.057171687
6	0xbce81b30	-0.028333277
7	0xbe3d7183	-0.18500333
8	0xbd68ccaa	-0.056835808
9	0xbd8e7711	-0.06956304
10	0xbc3a3fb9	-0.011367732
11	0x3e2e9a3a	0.1705102
12	0xbe12d953	-0.14340715
13	0x3e15e5f0	0.14638495
14	0xbd60f0b8	-0.054917067
15	0xbcaec0dd	-0.021332199
16	0x3dfc0c02	0.12306978
17	0x3e0690ae	0.13141128
18	0x3e17cbcd	0.14823838
19	0xbdb72daf	-0.0894426
20	0xbd479beb	-0.04873268
21	0xbdfa0429	-0.12207825
22	0xbdcc4531	-0.09974135
23	0xbbb2d377	-0.0054573375
24	0xbdf6dc95	-0.120537914
25	0x3e4af67c	0.19820589
26	0xbc86d176	-0.0164573
27	0xbe227e91	-0.15868594
28	0xbd8540a9	-0.065064736
29	0x3d38a0ad	0.045075107
30	0x3c548a98	0.012972496
31	0x3d787746	0.060660623
32	0xbd8e500c	-0.069488615
33	0x3e3897a1	0.18026592
34	0xbe14125f	-0.14460133
35	0x3d30df23	0.04318155
36	0xbc187a5e	-0.009306518
37	0xbdda1fca	-0.106505945
38	0xbaa89e1c	-0.0012864503
39	0xbe0666e8	-0.13125193
40	0x3dad3cfd	0.08458898
41	0x3e08d170	0.13361144
42	0xbe3effbf	-0.18652247
43	0xbc803ee3	-0.015654987
44	0x3dc99f1e	0.09844802
45	0xbc901ae2	-0.017590944
46	0xbdf2031b	-0.118169986
47	0x3d01951a	0.031636335
48	0xbc2b9824	-0.010473285
49	0x3d8e0ab5	0.06935636
50	0xbd093970	-0.033502042
51	0x3dd094e8	0.101846516
52	0xbe3d4213	-0.18482237
53	0x3b9b653b	0.004742292
54	0xbd1bf54b	-0.038075726
55	0xbc185dea	-0.009299735
56	0x3dadfa77	0.08495038
57	0xbbac4492	-0.0052571977
58	0xbde6357b	-0.11240669
59	0xbdc2170e	-0.094770536
60	0xbddd5ffa	-0.10809322
61	0xbd446287	-0.047945525
62	0x3e0a9e2c	0.135369
63	0xba817c26	-0.0009878918
64	0xbdbd607a	-0.09246917
65	0x3d8a2ea2	0.06747176
66	0x3c6929a6	0.014231121
67	0x3dc9548a	0.09830578
68	0x3d55ea99	0.052225683
69	0xbd018770	-0.031623304
70	0x3db65aab	0.08904012
71	0x3e3dabf9	0.18522634
72	0xbd1782db	-0.036990028
73	0xbdeda237	-0.11603206
74	0xbdaac473	-0.08338251
75	0x3e52e356	0.20594534
76	0xbdca7ece	-0.09887467
77	0x3e01ba78	0.12668788
78	0xbd9994e7	-0.07499104
79	0x3b7b1f04	0.0038318047

network.4.weight f4 [80, 80]
0	0x3cb00b20	0.02148968
1	0x3dcd97d8	0.100387275
2	0xbdf12d9b	-0.11776277
3	0x3dfea693	0.12434115
4	0x3e3a929c	0.1821999
5	0x3ddbc9f5	0.107318796
6	0x3e2c95bb	0.16853993
7	0xbe47efff	-0.19525145
8	0xbdf46784	-0.119338065
9	0x3e24848c	0.16066188
10	0xbe57744c	-0.21040457
11	0x3d98a63b	0.07453581
12	0xbd2630db	-0.040573936
13	0xbe08538c	-0.1331312
14	0xbe1311b2	-0.14362219
15	0xbd4c90c6	-0.049942754
16	0x3da34164	0.07971457
17	0x3e11aafb	0.1422538
18	0x3cb1d215	0.02170662
19	0xbd020a18	-0.031747907
20	0xbd734634	-0.059393123
21	0x3d88f64d	0.06687603
22	0x3d188ba7	0.037242558
23	0xbe0708f1	-0.13187005
24	0x3dcd53f1	0.10025776
25	0x3e26f973	0.16306095
26	0x3e04d8e3	0.1297336
27	0xbdcf46f7	-0.10120957
28	0x3e0fa338	0.14027107
29	0x3ddc4eee	0.10757242
30	0x3de64eec	0.11245522
31	0xbe32677e	-0.17422292
32	0x3cc3a380	0.023881674
33	0x3e2952f1	0.16535546
34	0xbdfe6d55	-0.12423197
35	0x3d9f1624	0.07767895
36	0xbdfa8184	-0.122317344
37	0xbe3fb529	-0.18721451
38	0x3c53cfc4	0.012927953
39	0x3d2b121e	0.041765325
40	0x3e266cb8	0.1625241
41	0xbd0fb656	-0.035086
42	0xbcf2bbd0	-0.029630572
43	0xbe06f303	-0.13178639
44	0xbdacc196	-0.08435361
45	0xbd0a5cc7	-0.033779886
46	0xbd51a156	-0.051179253
47	0xbbfcec76	-0.007718618
48	0x3d4b269a	0.04959736
49	0x3d87d7e1	0.066329725
50	0x3db7a289	0.08966548
51	0x3bc6579b	0.006052924
52	0x3d7be5df	0.06149852
53	0xbda31117	-0.07962244
54	0xbd050187	-0.03247216
55	0xbdda7404	-0.106666595
56	0xbcf860ec	-0.030319653
57	0x3d0184f9	0.031620953
58	0x3cd5de2b	0.026106915
59	0xbe1e3679	-0.15450467
60	0xbe25e59b	-0.16200869
61	0x3d05bfb0	0.03265351
62	0xbd817195	-0.06320492
63	0xbddb8c04	-0.10720065
64	0x3dec47f4	0.115371615
65	0xbe205160	-0.15656042
66	0xbe1dd7de	-0.15414378
67	0x3d5fe6cc	0.054663464
68	0xbe111ee0	-0.14171934
69	0xbe22f1e5	-0.15912588
70	0xbd9765b5	-0.07392446
71	0xbd59ef5d	-0.05320679
72	0xbddd3e57	-0.10802906
73	0x3d071ac2	0.032984503
74	0x3dd9ae5e	0.10628961
75	0xbe1df946	-0.15427122
76	0x3d912074	0.07086268
77	0x3e4fd876	0.20297417
78	0x3e0c9d85	0.13731964
79	0x3e23617d	0.15955158
80	0x3d6c5de5	0.057706732
81	0xbdfc486d	-0.123185016
82	0x3e4bc439	0.19899072
83	0x3e0dde4d	0.13854332
84	0xbdc9e277	-0.09857648
85	0x39bc3854	0.00035900122
86	0x3e27159f	0.16316842
87	0xbe1c8f9c	-0.15289158
88	0xbda7a14c	-0.08185062
89	0xbdd7ad1c	-0.10531065
90	0xbccbaef4	-0.024863698
91	0xbd8b1d54	-0.06792703
92	0x3e366bfa	0.17814627
93	0xbe06c7c6	-0.13162145
94	0x3df3e99b	0.11909791
95	0xbde7d011	-0.113189824
96	0xbdb92cf2	-0.09041776
97	0x3c85246a	0.016252715
98	0x3d8e8433	0.06958809
99	0x3c95dd42	0.01829398
100	0x3e1f1223	0.15534262
101	0x3de766bf	0.11298894
102	0xbd4d6577	-0.050145593
103	0xbdb7c550	-0.08973181
104	0xbd8a5de7	-0.06756192
105	0x3d44e37e	0.048068516
106	0x3e01acdc	0.12663597
107	0x3d77fe32	0.060545154
108	0xbdee136e	-0.116248
109	0x3d77cf27	0.06050029
110	0x3d8860bb	0.06659075
111	0x3e2f0668	0.17092288
112	0x3dd36426	0.10321836
113	0x3d1d4f2e	0.03840559
114	0xbdede45d	-0.116158225
115	0x3d84f78f	0.064925306
116	0xbe048939	-0.12942971
117	0x3e1df746	0.15426359
118	0xbd5f6067	-0.054535296
119	0x3d8986c7	0.0671516
120	0x3e015473	0.12629871
121	0x3b6edd89	0.0036447963
122	0xbd574c3a	-0.05256293
123	0x3e0bb806	0.13644418
124	0x3e1a6f30	0.15081477
125	0x3e0b8722	0.13625768
126	0xbdd01f68	-0.1016224
127	0x3c956c44	0.018240102
128	0x3d0680b4	0.032837585
129	0xbd2d0cd5	-0.042248566
130	0xbd136989	-0.035989318
131	0xbdb79548	-0.0896402
132	0xbc90257a	-0.017595995
133	0x3a6d2ff6	0.0009047979
134	0xbd41eea6	-0.047346734
135	0x3e317b81	0.17332269
136	0x3d13d9f6	0.036096536
137	0xbd2b412c	-0.0418102
138	0xbd5c9bf3	-0.053859662
139	0x3d59ff2f	0.053221878
140	0xbdb99193	-0.09060969
141	0x3c983031	0.018577667
142	0x3dd217e8	0.10258466
143	0x3bda57fe	0.0066633215
144	0xbd41efd8	-0.047347873
145	0x3c8e976a	0.017406184
146	0xbe1b5472	-0.15168932
147	0x3e214f29	0.15752853
148	0xbe04a71e	-0.12954375
149	0xbdbf50e7	-0.09341603
150	0xbc6e1b1f	-0.014532833
151	0x3dac366e	0.08408819
152	0x3c0a83d6	0.008454284
153	0x3c08b790	0.008344546
154	0xbd4b741f	-0.04967129
155	0x3c8e81de	0.01739591
156	0xbd458ef5	-0.048232038
157	0x3db1aa7d	0.08675096
158	0x3c9f75c7	0.01946534
159	0x3da4752b	0.080301605
160	0xbd17fe0f	-0.037107524
161	0xbdb4647c	-0.088082284
162	0x3d3ebad4	0.046564892
163	0xbdb877bb	-0.09007212
164	0xbd8afb0e	-0.06786166
165	0xbdb0b034	-0.08627358
166	0x3e3c44ca	0.18385616
167	0x3dd5dae5	0.104421414
168	0xbab0640b	-0.001345755
169	0xbbc7feee	-0.006103388
170	0x3c85e025	0.016342232
171	0x3e5eaf62	0.2174659
172	0xbd9075a5	-0.07053689
173	0x3daf664b	0.08564433
174	0x3e0d0689	0.13772024
175	0x3d2fdfcc	0.04293804
176	0x3dc17be8	0.09447461
177	0x3e09b46b	0.1344773
178	0x3e25af8f	0.16180252
179	0xbd923281	-0.07138539
180	0x3d819805	0.063278235
181	0xbe411217	-0.18854557
182	0x3d487c82	0.048946865
183	0xbd018275	-0.031618554
184	0xbe35912e	-0.17731163
185	0x3cdf41b3	0.027253008
186	0x3e2d84bd	0.16945167
187	0xbd4129dc	-0.04715906
188	0x3da56115	0.080751576
189	0x3e1b11ce	0.1514351
190	0xbd96b0a0	-0.07357907
191	0x3c4bc77b	0.012437697
192	0x3dc89205	0.09793476
193	0x3deb9d0d	0.115045644
194	0xbdc720dc	-0.09723064
195	0xbd80ffc6	-0.06298785
196	0x3d809ab5	0.06279508
197	0xbd1f36e4	-0.038870707
198	0xbda31d20	-0.079645395
199	0x3d832724	0.0640395
200	0xbe1e1af7	-0.15439974
201	0x3e0a5f3a	0.13512889
202	0xbe2f273d	-0.17104812
203	0x3e137365	0.14399488
204	0x3e3c0215	0.18360169
205	0xbdf5675c	-0.11982605
206	0xbd32a373	-0.04361291
207	0x3e03aeb7	0.12859617
208	0x3cd93320	0.026513636
209	0xbd0ca7b1	-0.03433961
210	0xbe1b20bd	-0.15149207
211	0x3e014e08	0.12627423
212	0xbd8a317a	-0.06747718
213	0xbe1fb7e4	-0.15597492
214	0xbd9bd89a	-0.07609673
215	0xbe039877	-0.1285113
216	0xbe2e086f	-0.16995405
217	0xbdc0d5d8	-0.094157875
218	0xbe4526a8	-0.19253027
219	0xbdc97a62	-0.09837796
220	0x3d4bfa82	0.04979945
221	0xbd9285f9	-0.071544595
222	0x3dc643fb	0.09680935
223	0xbd44431d	-0.047915567
224	0x3cf4566a	0.029826362
225	0x3d1ef6f0	0.038809717
226	0xbd8a2f69	-0.06747324
227	0xbae3acfd	-0.001737028
228	0x3dfff9a3	0.12498786
229	0x3bf1d69f	0.007380321
230	0x3c2695f5	0.0101675885
231	0x3e0a54e6	0.13508949
232	0xbe2b2c4c	-0.16716117
233	0xbe213395	-0.15742333
234	0xbd9713f1	-0.073768504
235	0x3e40909e	0.18805167
236	0xbd5e26c6	-0.054236196
237	0xbd3f4dd0	-0.046705067
238	0x3dbe3218	0.092868984
239	0xbe292e1f	-0.165215
240	0x3daee7b3	0.08540287
241	0x3da7d874	0.08195582
242	0xbddd8167	-0.10815697
243	0x3e49ec56	0.19719061
244	0xbc240105	-0.010010009
245	0xbe02e62a	-0.12783113
246	0xbde87563	-0.11350515
247	0x3df5156b	0.11966976
248	0x3cd73a47	0.026272906
249	0xbe3395a1	-0.17537548
250	0x3e31f1d9	0.17377414
251	0x3e124baa	0.14286676
252	0xba3b4d88	-0.0007145037
253	0xbe439061	-0.19098045
254	0xbe1d59c8	-0.1536628
255	0xbbf7058a	-0.007538502

network.4.bias f4 [80]
0	0xbacc01e0	-0.0015564524
1	0x3dbae175	0.09125034
2	0x3e03b597	0.1286224
3	0xbe1c16c0	-0.15243053
4	0x3d2096f4	0.03920646
5	0x3dba9683	0.09110739
6	0xbd8c6dc3	-0.06856873
7	0x3e82e157	0.25562546
8	0x3d325377	0.04353663
9	0xbd3201c6	-0.043458723
10	0x3dc578ae	0.096421584
11	0xbbed65d9	-0.007244807
12	0xbd9b48ad	-0.07582221
13	0xbd065a7a	-0.03280113
14	0xbdfc5098	-0.123200595
15	0x3d3a6270	0.045504034
16	0xbcf41f18	-0.029799983
17	0xb9e5343a	-0.00043717196
18	0x3c852d07	0.016256822
19	0x3d68360b	0.056692164
20	0xbdc81f82	-0.09771635
21	0x3daf0730	0.08546293
22	0x3d5a4a8c	0.05329375
23	0xbd77f501	-0.06053639
24	0xbd44c5a7	-0.04804006
25	0xbdd772ac	-0.10519919
26	0xbd7f6d87	-0.062360313
27	0x3cbcb34d	0.023034716
28	0x3d8d356d	0.06894956
29	0xbc590fb6	-0.013248375
30	0x3e016aa1	0.12638332
31	0x3e2d56d4	0.16927654
32	0xbdcf8f4e	-0.10134755
33	0xbdd2013d	-0.102541424
34	0x3d8ed657	0.06974476
35	0xbdb52a74	-0.08845988
36	0xbd692d7e	-0.05692815
37	0xbc8a0318	-0.016847178
38	0xbdd00a27	-0.101581864
39	0x3d6f6faa	0.0584561
40	0x3da455bd	0.08024166
41	0x3c07f599	0.008298301
42	0x3d806452	0.062691346
43	0xbd83354c	-0.0640665
44	0x3d8de66a	0.069287136
45	0xbdbafbf8	-0.091300905
46	0xbd31f904	-0.04345037
47	0x3dcc92e3	0.09988954
48	0x3d444617	0.047918405
49	0xbdbeb261	-0.09311367
50	0x3e2ffa1c	0.17185253
51	0xbd289a0b	-0.04116253
52	0x3d5dce86	0.054152034
53	0x3e72f845	0.2372752
54	0x3ce0d37a	0.02744459
55	0xbb817053	-0.0039501577
56	0x3e169064	0.14703518
57	0x3d3cdcb6	0.046108924
58	0xbe41aeb1	-0.18914296
59	0xbda61faf	-0.08111512
60	0x3d5761b8	0.052583426
61	0xbddb81fd	-0.10718153
62	0x3ce53c10	0.027982742
63	0xbd8d811e	-0.06909393
64	0x3d825df9	0.0636558
65	0x3db9a832	0.09065284
66	0x3d7e32ef	0.062060293
67	0xbd4d0e47	-0.050062444
68	0xbd28612b	-0.04110829
69	0x3dc478d2	0.09593357
70	0x3d30e4d4	0.043186978
71	0x3e195a74	0.14975911
72	0xbbefcd02	-0.00731814
73	0x3ba9872f	0.005173586
74	0xbdb25196	-0.087069675
75	0x3cc05aa9	0.02348073
76	0xbdc08cfa	-0.09401889
77	0x3e21874c	0.15774268
78	0xbd9ec454	-0.0775229
79	0x3e19785d	0.14987321

network.6.weight f4 [80, 80]
0	0x3da6951a	0.081339076
1	0xbb5642b9	-0.0032693578
2	0xbc2a2852	-0.01038559
3	0x3d8f3b16	0.069936916
4	0x3c7827be	0.015146194
5	0xbe4a1943	-0.19736199
6	0xbc1c8768	-0.009553768
7	0xbe973e5e	-0.2953977
8	0x3d81a99f	0.06331181
9	0xbdf7114e	-0.120638475
10	0xbc8aef0d	-0.016959691
11	0xbe053fd0	-0.13012624
12	0x3d26c560	0.040715575
13	0x3e4ff043	0.20306496
14	0xbdc600c8	-0.09668118
15	0x3e34bbf6	0.17649826
16	0x3c4948e9	0.01228545
17	0x3c997a1e	0.018734988
18	0x3df44160	0.11926532
19	0x3d194360	0.03741777
20	0x3daaf4e0	0.083474874
21	0xbd954f3d	-0.07290504
22	0xbce1bc23	-0.02755553
23	0x3ce95b4c	0.028485917
24	0x3e6025bb	0.21889393
25	0x3dd0ec24	0.1020129
26	0x3e19d17c	0.15021318
27	0x3dc34ad9	0.095357604
28	0xbe1e0e5b	-0.15435164
29	0x3d8b6667	0.06806641
30	0x3dc87da3	0.09789588
31	0x3dd78ffd	0.105255105
32	0x3dfee661	0.12446285
33	0x3daa58fd	0.083177544
34	0xbe3d5390	-0.18488908
35	0xbc1ab6dc	-0.009443011
36	0xbdaf853d	-0.08570335
37	0x3e02ca83	0.12772565
38	0x3de2d7a6	0.11076288
39	0xbdfed6d8	-0.12443322
40	0x3d82fc91	0.063958295
41	0x3e39c8d6	0.18143019
42	0xbc913b87	-0.01772858
43	0x3e38ff90	0.1806624
44	0x3e3446a7	0.17605077
45	0xbd4b66e4	-0.04965867
46	0xbd055ec5	-0.032561082
47	0xbdbb5c80	-0.09148502
48	0x3e40bfaa	0.18823114
49	0x3c4bbd2e	0.012435241
50	0xbdcfdc03	-0.10149386
51	0xbcbdb78f	-0.023158817
52	0x3ca463a0	0.020067036
53	0xbdb7402d	-0.089477874
54	0xbdbdaa2d	-0.09260974
55	0x3e1cf1d8	0.15326631
56	0x3d178d7a	0.037000157
57	0x3dbc5545	0.09195951
58	0xbe2c5ec6	-0.16833028
59	0xbcec48d6	-0.028843325
60	0xbd0abcb8	-0.033871382
61	0x3e3b4332	0.18287352
62	0x3cd7c850	0.026340634
63	0x3d5998c2	0.053124197
64	0xbd13ef10	-0.03611666
65	0xbe117552	-0.1420491
66	0xbc176541	-0.009240449
67	0x3dbbe926	0.09175329
68	0xbcf5e064	-0.030014224
69	0xbdd771a5	-0.10519723
70	0xbe3ec11c	-0.18628353
71	0xbe18f97c	-0.1493892
72	0xbe3c59e4	-0.18393666
73	0xbd5192f9	-0.051165555
74	0xbe2fa3aa	-0.17152277
75	0x3e2c628a	0.16834465
76	0x3cd23ed5	0.025664726
77	0xbe0e521f	-0.13898514
78	0xbdb472ae	-0.08810936
79	0x3c7ac503	0.01530576
80	0xbd9177e4	-0.071029454
81	0xbe288f85	-0.16460998
82	0xbc0f879a	-0.008760357
83	0x3d56f3d8	0.05247864
84	0xbe440b60	-0.19144964
85	0xbd607876	-0.05480238
86	0x3e43dc39	0.19126977
87	0xbd3edc26	-0.04659667
88	0x3d4471e3	0.047960173
89	0xbe406cb5	-0.18791468
90	0x3db1d019	0.086822696
91	0x3d9b02f3	0.07568922
92	0x3e312cb9	0.17302217
93	0x3dab0d4e	0.08352147
94	0x3bc3cbba	0.005975214
95	0xbd3b85be	-0.045781843
96	0x3e2e612b	0.17029254
97	0xbe176fa9	-0.14788689
98	0x3dfe9028	0.124298394
99	0xbc17fa71	-0.0092760185
100	0x3c9302c7	0.01794566
101	0x3c9f6080	0.019455194
102	0xbdbcbb2d	-0.092153884
103	0xbe1538cb	-0.14572446
104	0x3dffa12a	0.124819115
105	0xbcf4c9ec	-0.02988144
106	0xbda037ed	-0.07823167
107	0xbe659a40	-0.22422123
108	0x3e50d8ca	0.20395198
109	0x3dd0991e	0.10185455
110	0x3d393fe3	0.045226943
111	0xbe5e8807	-0.21731578
112	0xbe2cbfa6	-0.16869983
113	0xbd129229	-0.03578392
114	0x3e0d3771	0.1379068
115	0xbddb9f6b	-0.10723766
116	0x3e387dcb	0.18016736
117	0x3d5907c5	0.052985925
118	0xbe2c1979	-0.16806592
119	0xbdae64b3	-0.085153006
120	0x3d4ed510	0.05049616
121	0xbe0eed29	-0.13957657
122	0x3b9af0ab	0.004728397
123	0x3d700030	0.05859393
124	0x3d80eb63	0.062948965
125	0x3a89a0b6	0.0010500166
126	0xbe0b0ca8	-0.13579047
127	0x3d4604bd	0.048344363
128	0x3d39f3a9	0.045398388
129	0x3dd1f664	0.102520734
130	0xbc835687	-0.01603247
131	0x3c6b4e1f	0.014361887
132	0xbe374f68	-0.17901385
133	0x3e13880e	0.1440737
134	0xbd5e51e4	-0.054277316
135	0xbd886f39	-0.06661839
136	0x3e334b72	0.17509249
137	0xbe3b1456	-0.18269476
138	0xbe13d501	-0.14436723
139	0xbe11e348	-0.14246857
140	0xbe22dbfb	-0.15904228
141	0xbb87479d	-0.00412841
142	0xbd08cc1f	-0.03339779
143	0xbc7096fd	-0.014684436
144	0xbd22cefc	-0.039748177
145	0xbd8df9c5	-0.069324054
146	0xbe2a02b3	-0.16602592
147	0xbe07eea1	-0.13274623
148	0xbd9d7708	-0.07688719
149	0x3d2e6018	0.04257211
150	0x3db757a0	0.0895226
151	0xbdca74a6	-0.0988553
152	0xbd476526	-0.048680447
153	0xbc27403a	-0.010208184
154	0xbe07ffd4	-0.13281184
155	0x3dbe4dc7	0.092921786
156	0xbdd9a1ba	-0.1062655
157	0x3e749c01	0.23887636
158	0x3db7934f	0.08963644
159	0x3c8e4c56	0.017370384
160	0xbde80ad5	-0.11330191
161	0x3d702b05	0.058634777
162	0xbdcd8439	-0.10034985
163	0x3d8d513e	0.06900261
164	0xbe6c80b3	-0.2309597
165	0xbe2ce5da	-0.16884556
166	0xbb8b64be	-0.0042539528
167	0xbe48b171	-0.19598939
168	0xbd8141bc	-0.06311366
169	0xbd4fe9fb	-0.05076025
170	0xbd494f53	-0.049147915
171	0x3e660be0	0.22465467
172	0xbbc7df25	-0.006099599
173	0xbd903564	-0.070414335
174	0x3d9e8669	0.077404805
175	0xbe22957e	-0.15877339
176	0x3dcc18b5	0.0996565
177	0xbe535270	-0.20636916
178	0xbd57bb5a	-0.052668907
179	0x3d6a1f86	0.05715897
180	0xbd6af269	-0.057360087
181	0xbd0b7739	-0.034049246
182	0xbd0abf30	-0.033873737
183	0x3e133916	0.14377245
184	0xbe67180a	-0.22567764
185	0x3cd87fd7	0.026428146
186	0xbe3731e6	-0.17890128
187	0xbde5572d	-0.11198268
188	0x3e5c3c79	0.21507443
189	0xbc06743f	-0.008206426
190	0xbe840ab2	-0.2578941
191	0xbe170260	-0.14747
192	0xbd84a28d	-0.064763166
193	0xbd8a7d65	-0.06762198
194	0x3e204df8	0.15654743
195	0xbe154b74	-0.14579564
196	0x3e3ae2ef	0.18250631
197	0x3d991e90	0.074765325
198	0x3e1c5d60	0.15269995
199	0x3c3783d1	0.011200861
200	0x3dd1ddb8	0.102473676
201	0x3df7b652	0.12095322
202	0xbe26a345	-0.1627322
203	0x3d2e9e0e	0.0426312
204	0xbc1a79cc	-0.009428453
205	0x3e4c8ff3	0.19976787
206	0x3d2d5885	0.042320747
207	0xbd48ef2c	-0.049056217
208	0x3e763222	0.24042562
209	0xbd87c4a4	-0.06629303
210	0xbe4c37a8	-0.19943106
211	0xbc09d60a	-0.008412847
212	0x3db3301d	0.08749411
213	0x3d63f420	0.055652738
214	0x3d8e4369	0.06946451
215	0xbd585235	-0.052812774
216	0x3d903c2b	0.07042726
217	0x3e1a5fff	0.15075682
218	0x3e736ac7	0.23771201
219	0x3dfbcee7	0.12295323
220	0xbe3fd6dd	-0.18734308
221	0xbda0a9f3	-0.07844915
222	0xbe0aa9cb	-0.13541333
223	0x3dba8b8e	0.09108649
224	0x3e06d26f	0.13166212
225	0x3e042c17	0.12907444
226	0xbdbdab5e	-0.09261201
227	0x3e5c3621	0.21505024
228	0x3ca91611	0.020640405
229	0xbdfad41b	-0.12247487
230	0x3d2a54e7	0.041584875
231	0x3de03bbb	0.10948893
232	0x3c4a6fc0	0.012355745
233	0xbc27074c	-0.010194611
234	0xbcb9cd8b	-0.022681018
235	0xbdcd52bc	-0.10025546
236	0xbded36ad	-0.11582694
237	0x3dd9886f	0.10621726
238	0x3b13ed37	0.002257181
239	0xbe25be5b	-0.16185896
240	0xbd52f098	-0.05149898
241	0x3e30566e	0.1722047
242	0xbe027803	-0.12741093
243	0xbdd297e8	-0.1028288
244	0x3d845875	0.06462184
245	0x3dca71a1	0.09884954
246	0xbd6dedd5	-0.058088142
247	0x3b99c9a0	0.004693225
248	0x3e0bade3	0.13640551
249	0x3de4d23d	0.11172912
250	0xbd53c201	-0.05169869
251	0xbcdf240a	-0.027238864
252	0xbe00bfd2	-0.12573174
253	0xbd5456be	-0.051840536
254	0xbe153502	-0.14571002
255	0x3d3e0ba9	0.04639784

network.6.bias f4 [80]
0	0xbe5098b9	-0.20370759
1	0xbca18f7e	-0.019721743
2	0xbdfc2e44	-0.12313512
3	0x3de4a0f7	0.11163514
4	0x3d6a38d0	0.057183087
5	0x3db2e5e4	0.087352544
6	0x3d325861	0.043541316
7	0xbd9b36de	-0.075788245
8	0x3e3d7c7f	0.18504523
9	0xbddada3e	-0.10686158
10	0xbd83f130	-0.06442487
11	0x3d4b3db9	0.04961941
12	0x3e546b4b	0.20744054
13	0xbdc47bcb	-0.09593924
14	0x3cbc0952	0.022953663
15	0x3e23144b	0.1592571
16	0xbd6ab571	-0.057301942
17	0xbd8662d6	-0.0656182
18	0xbd0d348b	-0.034473937
19	0xbdc86aa7	-0.09785967
20	0x3d314d97	0.043286886
21	0x3dbc0aa1	0.09181715
22	0x3c2a7cff	0.010405778
23	0xbd66dcb0	-0.056362808
24	0x3c2da548	0.010598488
25	0x3e624935	0.22098239
26	0x3d1c616a	0.03817884
27	0xbd8df060	-0.069306135
28	0xbdadf136	-0.08493273
29	0x3d5d8cd6	0.05408939
30	0x3dd19ef7	0.10235398
31	0x3c0d74ff	0.008633851
32	0x3ceda202	0.029007915
33	0x3e1709f5	0.14749892
34	0xbd305461	-0.04304922
35	0xbdcc9062	-0.09988476
36	0xbd3f571f	-0.046713945
37	0xbd5ebe9d	-0.054381
38	0xbdfa66a1	-0.12226606
39	0x3e3dcd32	0.18535307
40	0xbd36cf3e	-0.044631235
41	0xbc48bdd3	-0.012252289
42	0x3c5cc779	0.013475292
43	0x3e64343b	0.2228555
44	0x3bd3806e	0.006454519
45	0x3cace76f	0.02110645
46	0x3d4c5087	0.049881484
47	0x3cdd8745	0.02704204
48	0xbe1d1fc6	-0.15344152
49	0xbde7ac0e	-0.11312114
50	0x3d907ae9	0.07054693
51	0x3d3a65ea	0.04550735
52	0xbe0718de	-0.1319308
53	0xbd9793e2	-0.07401253
54	0x3e25a228	0.16175139
55	0x3d0ad767	0.03389683
56	0x3d300653	0.04297478
57	0x3dc2c243	0.09509709
58	0xbd5736e6	-0.05254259
59	0xbdb89441	-0.09012652
60	0x3cf75677	0.030192597
61	0xbde718ac	-0.11284003
62	0xbdd6d20b	-0.10489281
63	0x3d8fc853	0.07020631
64	0xbdf2acd2	-0.11849369
65	0xbe07cd64	-0.13261944
66	0xbe024aeb	-0.12723891
67	0x3c96dd8f	0.018416194
68	0xbd8c7195	-0.068576016
69	0x3d109b18	0.03530416
70	0xbc154542	-0.009110751
71	0x3e3a5d12	0.18199566
72	0xbe3c5304	-0.18391043
73	0xbb4bb9ac	-0.003108601
74	0x3d945f9c	0.072447985
75	0x3c8b445e	0.017000373
76	0x3e025e78	0.1273135
77	0xbd21ed8b	-0.03953318
78	0x39b1fa14	0.00033946394
79	0x3dc0fdc6	0.094234034

network.8.weight f4 [80, 80]
0	0x3dd8616e	0.10565458
1	0xbe2efa79	-0.17087735
2	0xbe21a852	-0.15786865
3	0xbdc08ce4	-0.09401873
4	0xbe08f07c	-0.13372988
5	0x3df970b2	0.12179698
6	0x3df169da	0.11787768
7	0xbd74cc07	-0.05976489
8	0x3d7a87be	0.06116461
9	0xbd51ae44	-0.051191583
10	0x3e417661	0.18892814
11	0xbd20905f	-0.039200183
12	0x3e394ae2	0.18094972
13	0xbe21a0a1	-0.15783931
14	0xbd810c60	-0.063011885
15	0xbe4b27c5	-0.1983939
16	0xbcc3ec70	-0.023916453
17	0xbe234e04	-0.1594773
18	0xbce7115c	-0.02820652
19	0xbd9fa7af	-0.07795655
20	0xbd15fef6	-0.036620103
21	0x3d80788e	0.06272994
22	0xbdfe342d	-0.124122955
23	0xbd982729	-0.07429344
24	0x3e233b10	0.159405
25	0xbda43e95	-0.08019749
26	0x3dc2ae7c	0.095059365
27	0x3dd20670	0.10255134
28	0xbc542f3c	-0.012950715
29	0x3dc2c5bd	0.09510372
30	0x3e237dda	0.15965977
31	0xbdeb641d	-0.114937045
32	0x3a110144	0.00055314996
33	0x3e31fa09	0.17380537
34	0xbddd5684	-0.10807517
35	0x3e0667e2	0.13125566
36	0xbd095574	-0.03352876
37	0xbe101481	-0.14070322
38	0xbe45080e	-0.19241354
39	0xbe6103c5	-0.21974094
40	0xbe57e467	-0.21083222
41	0xbbe317d0	-0.006930329
42	0xbda36345	-0.079779185
43	0x3d38eb9a	0.045146562
44	0x3e340c86	0.17582902
45	0xbd4f22b6	-0.050570212
46	0x3d9d7cc4	0.07689813
47	0xbe16851d	-0.14699216
48	0xbd97acb0	-0.074059844
49	0x3d1d5dea	0.03841964
50	0xbdb72101	-0.08941842
51	0xbdedcae7	-0.11610966
52	0xbc8920c9	-0.016739266
53	0xbd9a2e7a	-0.07528396
54	0xbd2b8506	-0.041874908
55	0xbe0a8820	-0.1352849
56	0xbdd909bc	-0.1059756
57	0xbd0b6c04	-0.03403856
58	0x3c27bf86	0.010238534
59	0xbc518867	-0.0127888685
60	0x3dd1fb12	0.10252966
61	0xbe2f2ce4	-0.17106968
62	0xbd2eaa96	-0.042643152
63	0x3e2c2117	0.16809498
64	0xbd54e33e	-0.051974528
65	0x3d0365a4	0.032079354
66	0x3d951fd1	0.07281459
67	0xbd6f06c5	-0.058356065
68	0xbe3172bb	-0.17328922
69	0xbd9863e7	-0.0744093
70	0x3d5ead88	0.05436471
71	0x3e39d7b8	0.18148696
72	0xbd3c8c8d	-0.046032477
73	0x3d179e0f	0.03701597
74	0xbc974a16	-0.018467944
75	0x3d201189	0.039079223
76	0xbd270db2	-0.040784545
77	0xba2678de	-0.0006350408
78	0xbe4b70dd	-0.19867273
79	0x3de0ee35	0.109829344
80	0x3e0c646c	0.13710183
81	0xbdb303cb	-0.08740958
82	0x3cb28a74	0.021794535
83	0xbd3d8734	-0.046271518
84	0x3e4bf63b	0.19918148
85	0x3d76de40	0.060270548
86	0xbe406c62	-0.18791345
87	0x3d705d02	0.05868245
88	0x3d142ea7	0.036177304
89	0x3e1722c0	0.1475935
90	0xbde46446	-0.11151938
91	0x3d509b80	0.050929546
92	0xbe2d5273	-0.16925983
93	0xbdecc99c	-0.115618914
94	0x3e2d5f32	0.16930845
95	0xbda06c1b	-0.078331195
96	0x3e524cc9	0.20537104
97	0xbdb99101	-0.090608604
98	0xbd4f00af	-0.05053776
99	0xbc12864d	-0.008943153
100	0xbd8e9bd3	-0.06963315
101	0x3d64ebb9	0.055888865
102	0x3d3651ad	0.044511486
103	0xbd2e9180	-0.04261923
104	0xbcd0283b	-0.025409808
105	0xbcfb5797	-0.030681415
106	0xbe0b8045	-0.1362315
107	0xbe35fdb3	-0.1777256
108	0x3da2c5e6	0.079479024
109	0x3c6d8965	0.014498089
110	0x3cd6c34e	0.026216175
111	0x3d0cc48c	0.03436713
112	0x3e5c66aa	0.21523538
113	0xbd7bf982	-0.061517246
114	0x3e034698	0.12819898
115	0x3e6759d4	0.2259286
116	0x3c4e53ca	0.012593219
117	0x3ca3886a	0.019962508
118	0x3e2a8d06	0.16655359
119	0x3cb19b0b	0.021680376
120	0x3e515d70	0.204458
121	0x3b15d11c	0.0022860235
122	0xbca11f70	-0.01966831
123	0x3d2c4f9b	0.042068105
124	0x3d48a86f	0.048988756
125	0x3e51c5c9	0.20485605
126	0x3d95e1b4	0.0731844
127	0x3e5f986c	0.21835488
128	0xbe0dd622	-0.13851216
129	0x3d652703	0.055945408
130	0xbd766ced	-0.060162473
131	0xbcb9f86a	-0.02270146
132	0xbd83f63f	-0.06443452
133	0x3daf2494	0.085518986
134	0x3e103984	0.1408444
135	0x3dd65a28	0.10466415
136	0x3e1e58aa	0.1546351
137	0x3e028dfe	0.12749478
138	0x3cf3e950	0.029774338
139	0xbe0ad392	-0.1355727
140	0x3d80d39f	0.062903635
141	0x3be39841	0.0069456403
142	0x3e3eff73	0.18652134
143	0x3dbf4a36	0.093403265
144	0xbe1e3f11	-0.15453745
145	0x3d739306	0.059466384
146	0xbe0efd4b	-0.13963811
147	0x3e02883f	0.12747286
148	0x3e150e22	0.14556172
149	0x3cd7df9e	0.026351746
150	0x3e45f606	0.19332132
151	0xbc408c64	-0.011752222
152	0xbe260aaf	-0.16215013
153	0x3e3d677f	0.18496512
154	0xbe18f1ea	-0.14936033
155	0x3d4b15ff	0.049581524
156	0xbda6579c	-0.08122179
157	0xbe0d3934	-0.13791353
158	0xbdf7e273	-0.12103739
159	0x3e0ff2bf	0.14057444
160	0xbdb30943	-0.08742001
161	0x3d216811	0.039405886
162	0xbc80bc93	-0.01571492
163	0xbe38a67f	-0.18032263
164	0x3e56768a	0.20943657
165	0xbd508f5f	-0.05091798
166	0x3aedf234	0.0018153847
167	0x3e08b000	0.13348389
168	0x3d229e8d	0.039701987
169	0x3e32ac71	0.17448594
170	0x3dcaf3bf	0.09909772
171	0xbd154b26	-0.03644862
172	0xbe0cd07f	-0.1375141
173	0x3d1fa0af	0.0389716
174	0xbe1cae2a	-0.15300813
175	0xbe18f41c	-0.1493687
176	0xbdd073ad	-0.101783134
177	0x3cb0aefb	0.021567812
178	0xbc769a9c	-0.01505151
179	0x3e3b3d38	0.18285072
180	0x3dbf105e	0.09329294
181	0x3e23ac46	0.15983686
182	0x3e18627d	0.1488132
183	0xbe506e2c	-0.20354527
184	0x3c5a7995	0.0133346515
185	0x3a9a2358	0.0011759801
186	0xbde069de	-0.109576926
187	0x3dc8d604	0.09806445
188	0x3d14a36f	0.036288675
189	0xbd7bfd74	-0.06152101
190	0xbb729419	-0.0037014543
191	0x3d9c6049	0.076355524
192	0x3e5f365f	0.21798085
193	0x3d541577	0.051778283
194	0x3d1f4f24	0.038893834
195	0xbd4bd8f9	-0.049767468
196	0xbe38ff6a	-0.18066183
197	0x3d194a4c	0.03742437
198	0x3cb35549	0.021891253
199	0xbe2c693b	-0.16837017
200	0xbe0ba3ab	-0.13636653
201	0x3c1d6e6d	0.009608847
202	0x3e0d5b9d	0.13804479
203	0x3d83b0af	0.06430184
204	0xbd613944	-0.054986253
205	0x3da96ccd	0.08272705
206	0xbd9c5b2b	-0.076345764
207	0xbe265d54	-0.1624654
208	0xbc5c9dba	-0.013465339
209	0x3e0f6ba9	0.14005913
210	0x3e04826d	0.12940378
211	0x3e1c3ec8	0.15258324
212	0x3e132ee8	0.14373362
213	0x3dc51d0e	0.09624682
214	0x3c41f449	0.011838027
215	0xbd2946ee	-0.04132741
216	0x3e3a5288	0.18195546
217	0x3c1fdc70	0.009757146
218	0xbd877ac7	-0.06615215
219	0xbdc8e355	-0.09808985
220	0xbd4d59a8	-0.05013433
221	0xbc09f8df	-0.008421152
222	0xbd66f9db	-0.056390624
223	0x3e23b6cd	0.15987702
224	0xbe086423	-0.13319449
225	0x3dd1989e	0.102341875
226	0x3d47ed7a	0.04881046
227	0xbdc3cbfc	-0.09560391
228	0x3d51b79f	0.051200505
229	0x3e7504ef	0.23927663
230	0x3e3f565c	0.18685287
231	0xbe084446	-0.13307294
232	0x3dc1e6d6	0.094678566
233	0xbe142b2c	-0.14469594
234	0x3d716d9a	0.058942415
235	0x3e1da263	0.15393977
236	0xbe2b9bf5	-0.16758712
237	0x3ddb999f	0.1072266
238	0xbdc54bd5	-0.096336044
239	0xbd6c110d	-0.05763345
240	0x3dc6d124	0.09707859
241	0x3dd3cca4	0.103417665
242	0x38ef2acd	0.0001140438
243	0x3d52ba27	0.05144706
244	0x3d51f5a5	0.051259656
245	0xbda10f9c	-0.078643054
246	0x3beb977f	0.0071896906
247	0x3d0158d8	0.03157887
248	0x3d9c656a	0.07636531
249	0xba09fe56	-0.0005264034
250	0xbdf438c8	-0.11924893
251	0xbd81c54c	-0.063364595
252	0xbe2c3161	-0.16815712
253	0xbd94f44f	-0.07273161
254	0x3bc10dfe	0.0058915606
255	0xbd882739	-0.06648106

network.8.bias f4 [80]
0	0x3dbc0358	0.09180325
1	0x3d61524a	0.055010118
2	0x3d1fea5b	0.03904186
3	0x3c0c9094	0.008579392
4	0xbe04ab04	-0.12955862
5	0x3e09e3d0	0.1346581
6	0xbe37ea04	-0.17960364
7	0x3dfeb557	0.124369316
8	0xbcc112f4	-0.023568608
9	0x3c18dfe5	0.009330724
10	0x3d04f38f	0.032458838
11	0xbcdf1977	-0.027233822
12	0xbb85a966	-0.0040790318
13	0xbd7394e9	-0.059468184
14	0xbd70200d	-0.058624316
15	0x3da5a694	0.08088413
16	0x3dcb9ef1	0.09942425
17	0x3d0a7232	0.03380031
18	0xbda4de81	-0.08050252
19	0x3c692648	0.014230318
20	0x3c975214	0.018471755
21	0x3e4303cb	0.19044416
22	0x3c925b9a	0.017865945
23	0x3c7e5515	0.015523215
24	0x3d432c22	0.04764951
25	0xbc642597	-0.013924978
26	0x3c619658	0.013768755
27	0xbd10ee0b	-0.035383265
28	0xbe6feb0d	-0.23429509
29	0xbe0e4dfb	-0.13896935
30	0x3e18e1ad	0.14929838
31	0x3d8bab9c	0.06819841
32	0x3dbaea6b	0.09126743
33	0x3e59d254	0.2127164
34	0xbc96c8c0	-0.018406272
35	0xbc2b7c9c	-0.010466721
36	0xbe3420fc	-0.17590708
37	0x3e4a261b	0.19741099
38	0x3d59a119	0.05313215
39	0x3da1b18e	0.07895194
40	0xbc914033	-0.017730808
41	0xbd01e2b3	-0.031710338
42	0xbd561b13	-0.052271914
43	0x3de35431	0.111000426
44	0x3e23aa4b	0.1598293
45	0xbce0e284	-0.027451761
46	0xbc85ff28	-0.01635702
47	0xbc646b88	-0.013941653
48	0xbd1d6f1a	-0.038436033
49	0xbd955446	-0.072914645
50	0xbbf3404a	-0.0074234353
51	0x3dd4866e	0.10377203
52	0xbd8af801	-0.06785584
53	0xbe01bf9c	-0.1267075
54	0xbcd06b43	-0.025441771
55	0x3ddde990	0.10835564
56	0x3cddb9c9	0.027066128
57	0x3d1e2565	0.03860988
58	0x3d103e71	0.0352158
59	0xbd8279b5	-0.0637087
60	0xbec7d660	-0.39030743
61	0x3de52435	0.111885466
62	0xbd442353	-0.04788525
63	0xbdba3343	-0.09091809
64	0xbdd41835	-0.103561796
65	0xbd1ad6fd	-0.037802685
66	0xbdc24ce6	-0.094873235
67	0x3c895c17	0.016767545
68	0xbcce4680	-0.025180101
69	0xbdda2f07	-0.10653501
70	0xbd67af96	-0.056563936
71	0x3d670b81	0.056407455
72	0x3dbc3364	0.091894895
73	0x3d1fe160	0.039033294
74	0x3c84822f	0.016175358
75	0x3cce0a8e	0.025151517
76	0x3ddfc6e1	0.10926605
77	0xbe18a6e7	-0.14907418
78	0x3cb4691f	0.022022782
79	0xbd079dcb	-0.033109467

network.10.weight f4 [80, 80]
0	0xbdafc371	-0.08582199
1	0xbd409cf6	-0.04702469
2	0x3dcb1637	0.099163465
3	0x3dea0e54	0.11428514
4	0x3c2b58c5	0.010458176
5	0x3e0180c1	0.12646772
6	0xbdd08e2d	-0.10183368
7	0xbe27a2cf	-0.163707
8	0xbdf7bcee	-0.12096582
9	0x3cfb1ad3	0.03065244
10	0x3d0b80de	0.034058444
11	0x3e0159b4	0.12631875
12	0x3e082bdf	0.13297985
13	0x3d61cb5d	0.055125583
14	0xbe374147	-0.17895995
15	0xbe9b7b4d	-0.3036751
16	0xbe649c19	-0.22325172
17	0x3e1c1c23	0.15245108
18	0x3d4a544c	0.049396798
19	0x3d17c92c	0.037057087
20	0x3e0c3fe9	0.13696255
21	0x3cccb5e4	0.024989076
22	0x3e26ef7c	0.16302294
23	0xbd996e39	-0.074917264
24	0xbd281a97	-0.041040983
25	0x3d3e2889	0.046425376
26	0xbd9946fb	-0.074842416
27	0x3d28a7e4	0.041175738
28	0xbdae4cca	-0.0851074
29	0x3d33ca5c	0.043894157
30	0x3e147428	0.14497435
31	0xbdf22f1f	-0.11825394
32	0xbd85984f	-0.06523191
33	0x3e37b0b2	0.17938498
34	0x3d1e9b42	0.038722284
35	0x3cd09a71	0.025464268
36	0xbdd49d7d	-0.10381601
37	0xbd767960	-0.060174346
38	0xbe4236de	-0.18966243
39	0xbe3da52e	-0.18520042
40	0xbdf6858c	-0.12037191
41	0x3a8b4fe3	0.0010628666
42	0x3d87f562	0.066386
43	0x3e17d1fe	0.148262
44	0xbdfa1374	-0.12210742
45	0xbe14e8ed	-0.14541979
46	0xbd10885b	-0.03528629
47	0x3d3ea4ed	0.046544004
48	0x3e067730	0.13131404
49	0xbdf08b80	-0.117453575
50	0x3d638761	0.05554903
51	0x3c9a1202	0.018807415
52	0x3d92123e	0.07132386
53	0xbe0a595b	-0.13510649
54	0x3e2ec893	0.170687
55	0x3d9aa1a7	0.07550364
56	0xbddb84d2	-0.10718693
57	0xbe2b4d59	-0.16728725
58	0xbe2b4454	-0.16725284
59	0xbd179c6c	-0.03701441
60	0x3df6e948	0.120562136
61	0xbdeabd88	-0.114619315
62	0x3e4870e4	0.19574314
63	0xbe0172e1	-0.12641479
64	0xbe205e17	-0.15660892
65	0xbdd11bf8	-0.10210413
66	0xbe17444b	-0.14772145
67	0x3c074861	0.008257003
68	0x3e454675	0.19265158
69	0x3dd77b36	0.105215475
70	0xbe58582a	-0.21127382
71	0x3d8b9e5e	0.068173155
72	0x3e1db563	0.15401225
73	0x3e2690c4	0.16266161
74	0xbc3dcb3c	-0.011584099
75	0xbc4e2204	-0.012581352
76	0xbcd082f1	-0.025453063
77	0xbd065907	-0.032799747
78	0x3d88e964	0.06685141
79	0xbe32d9e9	-0.17465939
80	0x3e0357fc	0.12826532
81	0x3da10b60	0.07863498
82	0x3d822577	0.06354802
83	0xbdb282fc	-0.087163895
84	0xbdd86d72	-0.1056775
85	0x3d9dcd15	0.07705132
86	0xbe11b4bd	-0.14229102
87	0x3e344eca	0.1760818
88	0x3e17bddf	0.14818524
89	0x3d9d90cb	0.07693633
90	0xbdd3d53a	-0.10343404
91	0x3e0498ed	0.12948962
92	0x3de66fd5	0.11251799
93	0x3e10f9a6	0.14157733
94	0xbe204395	-0.1565078
95	0x3e3ed9f2	0.18637827
96	0x3e37fb22	0.17966893
97	0xbd316e05	-0.043317813
98	0xbd6336a3	-0.055472028
99	0xbbf13f6e	-0.0073622977
100	0x3e79454f	0.24342845
101	0x3c7ca543	0.015420261
102	0xbcc59e60	-0.02412337
103	0xbe260dfc	-0.16216272
104	0x3d0ca731	0.034339134
105	0xbd0df63e	-0.034658663
106	0xbc64c10f	-0.013962044
107	0xbe0b49a9	-0.13602318
108	0x3b55d800	0.0032629967
109	0x3e224a68	0.15848696
110	0xbd1983f5	-0.03747936
111	0xbe1f4ac8	-0.1555587
112	0x3e33ee85	0.17571457
113	0x3da0074e	0.07813893
114	0x3c7d6722	0.015466483
115	0xbda2c06c	-0.07946858
116	0x3d3fefe6	0.046859644
117	0xbd065b2b	-0.03280179
118	0x3b964f88	0.0045871176
119	0x3e2b8e17	0.16753422
120	0x3d25203c	0.040313944
121	0xbcf12f48	-0.02944149
122	0xbe500c27	-0.20317136
123	0x3d5550e3	0.052079093
124	0xbd892e0a	-0.066982344
125	0x3e481756	0.19540152
126	0xbdfb9eee	-0.12286173
127	0xbd3ccfeb	-0.046096724
128	0x3dfdb023	0.12387111
129	0xbe144ea8	-0.1448313
130	0xbcd3622b	-0.025803646
131	0x3e1e605f	0.1546645
132	0x3c62d54f	0.013844802
133	0xbe46bf11	-0.19408824
134	0x3e427ba3	0.18992476
135	0xbd9fe859	-0.07807989
136	0xbb85994a	-0.0040771114
137	0xbe0ba354	-0.13636523
138	0x3e5a975c	0.21346802
139	0x3d43e6a5	0.04782738
140	0x3da3f10f	0.08004963
141	0xbda9b243	-0.08285954
142	0xbca7c8b9	-0.020481454
143	0xbe160230	-0.14649272
144	0xbd9426eb	-0.072339855
145	0xbd9db2e3	-0.077001356
146	0x3e20c522	0.157002
147	0x3d718495	0.05896433
148	0x3d41ec2c	0.04734437
149	0xbdacbfb7	-0.08435004
150	0xbd694d0d	-0.056958247
151	0x3cb062c7	0.021531476
152	0xbcc50b4e	-0.024053242
153	0x3e0b9e55	0.13634618
154	0x3d5b783b	0.053581458
155	0x3d99d327	0.07510977
156	0xbd07d552	-0.033162422
157	0x3de17880	0.11009312
158	0x3dad8d21	0.08474184
159	0xbe45baf6	-0.19309601
160	0x3dfa9f23	0.12237384
161	0x3d8e8b2e	0.0696014
162	0x3d986222	0.07440592
163	0x3d9a1c87	0.075249724
164	0x3c07c183	0.008285883
165	0x3d40b7fe	0.04705047
166	0xbd7bff31	-0.061522666
167	0x3d7cc4dc	0.061711177
168	0xbe050356	-0.12989554
169	0xbcb09898	-0.021557137
170	0x3e0a3832	0.13498
171	0xbdb1716e	-0.08664213
172	0x3e16cb76	0.14726052
173	0xbe1141d3	-0.14185266
174	0x3d7809fb	0.060556393
175	0xbd28ab82	-0.041179188
176	0x3b45779b	0.0030131105
177	0x3e209280	0.15680885
178	0x3dd51feb	0.104064785
179	0x3d907cf6	0.070550844
180	0xbe147887	-0.14499103
181	0x3e487897	0.19577251
182	0x3e603934	0.21896821
183	0xbe00bd9e	-0.12572333
184	0xbd86cf0d	-0.065824606
185	0x3e080638	0.13283622
186	0xbb9ce124	-0.004787581
187	0x3d03ba09	0.03215984
188	0x3e2d1ba2	0.16905072
189	0x3e0a183c	0.13485807
190	0xbe4086d1	-0.18801428
191	0x3e0ce7f8	0.13760364
192	0x3d70b218	0.058763593
193	0xbe0a38a5	-0.1349817
194	0xbdf2358d	-0.1182662
195	0x3daabb3c	0.083364934
196	0x3d9e1b01	0.07719994
197	0x3e2b444e	0.16725275
198	0x3d5db1b2	0.05412454
199	0xbd3786d0	-0.0448063
200	0x3dd30345	0.10303358
201	0xbded68ad	-0.11592231
202	0x3de26c33	0.110557936
203	0x3b246267	0.0025083066
204	0xbd37261e	-0.044714086
205	0xbdb866d7	-0.0900399
206	0x3da7e9c6	0.081988856
207	0xbe2f0e80	-0.17095375
208	0xbe019851	-0.1265576
209	0xbcefa3cc	-0.02925291
210	0x3d60beed	0.05486958
211	0xbe03898a	-0.12845436
212	0x3da17009	0.07882697
213	0xbe0d015d	-0.13770051
214	0xbe11b61b	-0.14229624
215	0x3dcc4680	0.09974384
216	0x3dda5f18	0.10662669
217	0xbe29edb1	-0.16594578
218	0x3d8760b4	0.066102415
219	0x3d05571c	0.032553777
220	0xbd794f27	-0.0608665
221	0x3d16b238	0.036791056
222	0x3e110905	0.14163597
223	0x3df504a4	0.11963776
224	0x3d8dac95	0.06917683
225	0xbd14f006	-0.036361717
226	0xbc3a88ae	-0.011385126
227	0xbdad02d8	-0.08447808
228	0xbcc074ce	-0.023493197
229	0xbd222f84	-0.039596096
230	0xbe3207d0	-0.17385793
231	0xbe0c6132	-0.13708952
232	0xbdbd8984	-0.09254745
233	0x3e4b13a9	0.19831719
234	0x3e37c83d	0.17947479
235	0xbe29978c	-0.16561717
236	0x3db37845	0.08763174
237	0xbe58ce69	-0.21172489
238	0xbdc34f6d	-0.09536634
239	0x3d8535b9	0.065043874
240	0xbd93085b	-0.07179328
241	0x3e02f31a	0.12788048
242	0xbe11c4fa	-0.14235297
243	0xbe506f15	-0.20354874
244	0xbdebe233	-0.115177535
245	0x3dba1f66	0.0908802
246	0x3e34a8f7	0.1764258
247	0xbdf66faf	-0.12033021
248	0x3e52a0e0	0.20569181
249	0xbc9f15df	-0.019419609
250	0x3d6c609e	0.05770933
251	0x3c76af53	0.015056449
252	0x3df96f52	0.12179436
253	0x3d998233	0.07495537
254	0xbe1f604e	-0.15564081
255	0x3e0ad7dd	0.13558908
