2D_sheet_problem/models/plate_hole_update2.pth (torch, 90610 bytes, 14 tensors)

network.0.weight f4 [64, 2]
00000000: de3e 723e 3bfe 803d 0490 f23d 20b1 223e
00000010: f005 aebd 554f 2dbe 8b98 84be 0c8f 3e3a
00000020: 9ef0 8b3e 559a 8b3e 45b2 c73d 09d3 cfbd
00000030: 4663 07be 857a c9be b6a6 08bd df10 793e
00000040: b97e 873e 71d9 e1bd 87d6 82be 02a9 f33d
00000050: 4bdc 60ba 1564 d7be 71af b7bd f3f1 4abd
00000060: 9c78 a5be 73b8 413d 732f ac3e 5843 e43d
00000070: afd6 82be 5350 063f c781 1a3e 2a98 c0be
00000080: 4197 47be 3ed8 9b3e 409c fb3d e316 dbbd
00000090: 9b9a 0f3e 19b4 ac3d 2e77 83be d759 32bb
000000a0: d9d6 27bc 86be a9bc ea79 0b3d 2bb9 5abe
000000b0: fc85 91be cfbd eebd b94e cb3e 63f7 e53b
000000c0: 4c47 93bc 0cef 2fbe a4a9 753e ccbb b43d
000000d0: 7039 c3be ac34 9bbd 68c7 753e d561 7d3d
000000e0: eeb4 8c3e 4be7 653e b211 193d c57b 33bd
000000f0: 0ce9 cc3c d2ab c6be 932a 79bd 9fcc 94be
00000100: 7714 bcbe 166c e73d 7459 a63e 74a1 c5bd
00000110: 0611 bbbe b0c4 7d3e 27e6 8fbe 3d0c 56be
00000120: a70b 833e 478b a13e d7a5 2ebe 6cab 12be
00000130: 823b 9f3e 0467 f1be 2221 6bbe 1d55 db3d
00000140: 5ee5 d2bc 284c 883d 9f36 1abe fe88 8ebe
00000150: 0ac0 b93d 7eb9 753e 16e9 0f3e 27e5 1b3e
00000160: 2781 a33e e0ac 9dbc 7910 03be 864d cabd
00000170: f14a 90be 149e 703e 3fb7 443e 7c23 cb3d
00000180: a49c 133e c3bb 9f3e 2d41 b5bd ab8f 9ebe
00000190: 95c6 1fbd cfab a5be 88e4 42be f114 193d
000001a0: da77 9abd bbc9 c93d 813a 8f3e 463c c1bd
000001b0: c64f 76be 0cec 9cbd 4d01 c53d cde4 1c3e
000001c0: dede 6a3e cca2 153e 51e8 83be e3f9 8e3d
000001d0: 76b1 a1bd 3c2f 8a3e 2d80 db3d 701d ebbd
000001e0: 45c7 b8be 66d3 27bb dd0c d2bc 38f3 093f
000001f0: 6d59 49be e1a9 12be 9b63 703e 1849 4ebe
0.23656794 0.062984906 0.11843875 0.1588788 -0.08497226 -0.16924794 -0.2589763 0.00072692405
0.27332014 0.27266183 0.09750799 -0.10147674 -0.13221464 -0.39351287 -0.033362113 0.24322842
0.2646387 -0.11027802 -0.25554296 0.1189747 -0.0008577748 -0.42068544 -0.0896901 -0.049547147
-0.3231858 0.047295045 0.3362995 0.11145657 -0.25554416 0.52466315 0.15088569 -0.37616092
-0.19491293 0.30438417 0.12285662 -0.10697725 0.14023821 0.084327884 -0.25676864 -0.0027214193
-0.010244095 -0.020720731 0.034051813 -0.21359698 -0.28422534 -0.11657297 0.39708498 0.007018016
-0.017978333 -0.17181033 0.23990494 0.08824882 -0.3812976 -0.07578406 0.24001849 0.061860878
0.27481788 0.22451513 0.03737039 -0.043819208 0.02501347 -0.38802963 -0.060831618 -0.29062364
-0.36734363 0.11299913 0.32490122 -0.09649935 -0.36536425 0.24782062 -0.2810528 -0.20903106
0.25594828 0.31551573 -0.1705545 -0.14323205 0.31100088 -0.47148907 -0.22961858 0.107095934
-0.025744136 0.06655151 -0.15059899 -0.27838892 0.09069832 0.23996541 0.14053759 0.15224133
0.31934473 -0.019247472 -0.12799253 -0.09878068 -0.28182176 0.23497802 0.19210528 0.099188775
0.14415222 0.31197938 -0.08850322 -0.30968985 -0.039007742 -0.32357642 -0.1903249 0.037373487
-0.07542391 0.0985293 0.27974322 -0.09435324 -0.24053869 -0.0766221 0.09619389 0.15321656
0.2293658 0.14612883 -0.2576318 0.06981256 -0.07895176 0.26989162 0.10717807 -0.11480224
-0.3608953 -0.002560818 -0.0256409 0.5388675 -0.1966302 -0.14322616 0.23475496 -0.2014507

network.0.bias f4 [64]
00000000: ed40 c4bd c52e 4cbd d093 493e 85e5 f73d
00000010: ce5e 7ebe d4e3 13be db45 6c3e e76b e5bd
00000020: 1198 43be 3318 4e3e 8431 e83d 28d3 a13d
00000030: d3e2 a23d 9e3c 3fbe 0840 17bd b071 013e
00000040: b2dd 3abe ea25 63bd e622 f0bd 5064 063e
00000050: 1e92 4d3c 076e 103e 71c5 fc3d 76f6 aabe
00000060: 0979 a63d 1b0b bbbd 366b 1c3e 1f5f e7bd
00000070: 91af 3bbe 835d 2cbd 43aa 693e 631a 2f3e
00000080: 59d7 273d c43f e8bd 061b 6cbc ca4b 5c3d
00000090: d188 14be 221d 343e 5563 043e b50c 5c3e
000000a0: 2e9e c4bc d7ed 583e 5baf 44be 446e e0bd
000000b0: 3138 00be 9aa3 f43d 9f82 8c3d f9d1 86be
000000c0: b760 1bbe 5338 5b3e dbc6 db3d 76b3 053d
000000d0: 0953 2b3e ff19 abbd 18e0 4b3e 14fa 07be
000000e0: a8df 74be f643 613e e2f8 bebd bf77 08be
000000f0: e7d1 483d 3182 a4be e82e 843e 295a c4bd
-0.09582696 -0.04984929 0.19685292 0.12104324 -0.24840853 -0.14442378 0.23073523 -0.11202221
-0.19100977 0.20126419 0.11337569 0.07901603 0.079534195 -0.18675467 -0.0369263 0.12641025
-0.18248633 -0.05545608 -0.11725406 0.13124204 0.012547044 0.14104472 0.123423465 -0.3339116
0.081285544 -0.091329776 0.15275273 -0.1129744 -0.18328692 -0.042081367 0.22818856 0.1709991
0.040976856 -0.11340287 -0.01441074 0.053783216 -0.14505316 0.17589238 0.12928517 0.21489222
-0.024001207 0.21184479 -0.19207518 -0.109585315 -0.12521435 0.11945267 0.068608515 -0.2633207
-0.15173613 0.21408205 0.10731288 0.03264185 0.16730894 -0.08354568 0.19909704 -0.13278991
-0.23913443 0.21998581 -0.093248144 -0.1332693 0.049028303 -0.32130578 0.25817037 -0.09587509

network.2.weight f4 [64, 64]
00000000: 4d77 2ebe 9d83 3bbe 2f90 173e 29c1 073d
00000010: d565 143e a6c4 923c c65b 413d f63b 22bd
00000020: d62d 6ebe 3f1a a33d 61fa 29be 72d6 483e
00000030: 1977 1dbd f647 bebd e2f7 863e d5f9 be3d
00000040: 14da ba3c fdf5 78be ca1b 3abe 8b44 91bd
00000050: a506 8c3d 3989 1fbe 801d 0a3e b9ab 81bd
00000060: 2791 d53d c5d7 efbd 8a70 1bbe 9aa9 dabd
00000070: 8e41 673e bdab 43be 2d71 56be ba82 333d
00000080: 8409 aebd c55a 093e 4945 ae3d fde9 02be
00000090: dc7c f33d f6b0 893e 7271 bdbd f6d6 0d3e
000000a0: 14b1 e33c 587b 213e 57ec ad3d 334b c43b
000000b0: b639 0dbe 0c79 453e dcd4 443e b0c2 33be
000000c0: b0f9 41be 8b7f 01be c4e6 61be cbd8 cbbd
000000d0: 7bd5 c43d 3e97 d4be d06e 9d3e c689 0e3e
000000e0: 7b56 e1bd 8b7f 233e 36d3 583e 28cf 213e
000000f0: 10c7 293e e87d 7f3e b7f4 833d 1bbd 2bbe
00000100: f0d0 a73e 45ae 833e 7ad6 1b3c 81d1 b73d
00000110: edf8 9c3e 5f29 c8bd 5d1b 89be b451 8f3d
00000120: 6194 f33d 87f1 68be 52c6 c8bc 16d9 333c
00000130: d64f 083d e551 193d ea7c 8e3d f2be 82be
00000140: d93d 073e 71cc ce3d 7f1b fbbd 4dd4 573d
00000150: 7482 0dbe 6e4c acbe 9c21 55be 2310 813e
00000160: be61 25be 2e10 1abd dd5e 763d f69e 77bc
00000170: aae8 b83d 9466 893d 6e5e a93c 5042 95be
00000180: 10f6 88be aa58 a4bd f4f4 0abe ace7 9fbd
00000190: 17f6 1e3d ec13 5ebe bfe3 59be 0409 4ebd
000001a0: 847a dc3d a3f2 d3be bb1b 633e 3637 623e
000001b0: d03a 323e 24bb 8fbe 6785 57be cda4 e3bd
000001c0: e431 b53d 4cfd 2abe cde6 a4be b5ce b03d
000001d0: 12a0 77be d24a 8f3e b137 31be 7d3a 873e
000001e0: 0a74 443e 1bdd 37bd e261 5a3e 91d6 ae3d
000001f0: 127b cdbe 8040 573e b7ad 0cbe 50c1 493d
00000200: 07aa 3fbd b48a 003e a118 533d 636a 373c
00000210: 005a d03d 269c 8cbd 8bdb 41be 9400 363e
00000220: 5d00 73be 3e2d b43d 1196 fdbe d7fd f8bd
00000230: c47f 603e 3f56 353e a101 203f d001 b8be
00000240: 77ae fd3e ffee 9ebd 8687 7abd 0f96 b13d
00000250: da9e 7cbd 9daa 06be 61b8 2a3e 6cfe 52be
00000260: 3a93 45be 118f ed3d 810c 823e 8f38 d8bd
00000270: 5187 87bd a417 b63d 5da5 abbe 83b4 c4bc
00000280: b02e 923d 359d 9dbe 8eee fe3e abcd 46bd
00000290: eb28 9abd 5453 8abe 22dc 22bf dd55 883d
000002a0: f15a dd3c 81d5 d1bd 6aca 64bd 4c9a df3b
000002b0: cf5e 343d 2ee3 f8bc 0745 123e 097b d1bd
000002c0: c46f 063e f716 f2be bb8a 48be 7c4c 783e
000002d0: fa68 383e 850f 4e3c 12bd 1b3e 57fd 05be
000002e0: 3718 78bd 730b 653e f5a6 ef3e 40d4 3dbc
000002f0: ebc5 1ebc 609f 203f cc51 70be 9612 0ebe
00000300: 4a77 8dbd 4036 87bd e16f 53bd b3a6 8e3d
00000310: 708b f6bd ee20 c8bd 39f0 ebbc 052a e3bd
00000320: 6b34 57be 5fa2 383d 7351 68be 5e04 853c
00000330: 2208 b93d cad3 4f3d 2472 a13d 4279 64be
00000340: ad98 8fbe 4eda 533b 8b1a c9bd 8efb 3d3e
00000350: 2bce aabc 2bb8 65be 06d5 353d 446a 4ebe
00000360: 3001 36bd 7a65 36be f95c acbd ce29 4fbd
00000370: c993 93bd e0e3 77bd bc05 87be d39b c83c
00000380: 4da2 5c3d 849a b63c c4bf 8f3d ec60 f33c
00000390: e5c9 38bd 3102 f2bb 70ac b7bd 5d0c c53c
000003a0: 1d8f 4e3e 9f95 89bb 9313 d93d afec e1bd
000003b0: 2d92 4cbd 0a75 2dbe 6807 f33d 4144 f43d
000003c0: 3642 11be 7e50 6dbd e321 96be 75d5 533c
000003d0: 0755 643d cab9 99bc b374 1fbd cf1f 25be
000003e0: 1f53 62bd cb97 d7bd 2b47 a8bd 984b 85bd
000003f0: 8287 04bd 6ecc 563e 15a0 1cbd 58e0 973d
-0.17037697 -0.18311925 0.14801095 0.033143196 0.14491971 0.017916035 0.047206663 -0.039607964
-0.23259673 0.079639904 -0.16599418 0.19613054 -0.03844366 -0.09291069 0.26360995 0.093249954
0.022809066 -0.24312587 -0.18174663 -0.07093152 0.06837205 -0.1557969 0.13487816 -0.063315816
0.10428076 -0.11711077 -0.15179649 -0.1067688 0.22583601 -0.19108482 -0.2094161 0.043825842
-0.08497909 0.13413532 0.08509309 -0.12784572 0.118890494 0.26892823 -0.092501536 0.13851532
0.027794398 0.15769708 0.08492344 0.0059904098 -0.13791546 0.19284457 0.19221824 -0.17554736
-0.18942904 -0.1264631 -0.22060686 -0.09953459 0.09611031 -0.4152164 0.30748606 0.13919744
-0.11002823 0.15966623 0.2117432 0.1580168 0.16579843 0.24950373 0.0644316 -0.16771357
0.32776594 0.25718895 0.009511584 0.089755066 0.30658665 -0.09773516 -0.2677869 0.069980055
0.118935354 -0.22748385 -0.024508629 0.01097705 0.033279262 0.037431616 0.06957419 -0.25536305
0.13207187 0.10097588 -0.12261104 0.0526927 -0.13819295 -0.3365206 -0.20813602 0.25207624
-0.16150567 -0.037613086 0.060149062 -0.015113583 0.09028752 0.06709018 0.02067491 -0.29152155
-0.2675023 -0.08024724 -0.13570005 -0.0780786 0.03880891 -0.21687287 -0.21278284 -0.050301567
0.107655555 -0.41396055 0.22178547 0.22091374 0.17405248 -0.28072464 -0.21046983 -0.11115418
0.088474065 -0.16698188 -0.32207337 0.08633176 -0.24182156 0.2798677 -0.17306401 0.2641181
0.1918489 -0.044888597 0.21326402 0.08537019 -0.40132958 0.21020699 -0.13738142 0.049256623
-0.04679301 0.12552911 0.05153716 0.011194798 0.10173416 -0.068657205 -0.18931405 0.17773658
-0.23730607 0.08797692 -0.49528554 -0.12157791 0.21923739 0.17708682 0.62502486 -0.35938883
0.4954717 -0.07760429 -0.0611644 0.086711995 -0.06167493 -0.13151021 0.16671897 -0.20604867
-0.19294444 0.115995534 0.25400165 -0.10557663 -0.066176064 0.08891228 -0.335246 -0.024011856
0.07137811 -0.30784002 0.49791378 -0.048535984 -0.07527336 -0.270167 -0.63617146 0.06657002
0.027020903 -0.10245801 -0.0558571 0.0068238135 0.04403573 -0.030381765 0.14284144 -0.10228545
0.13128573 -0.47283146 -0.19584171 0.24247926 0.18008795 0.012576942 0.15208843 -0.13084923
-0.060569968 0.22367649 0.46807066 -0.011586249 -0.009690742 0.62743187 -0.23468703 -0.13874277
-0.06907518 -0.06602144 -0.051620368 0.06965389 -0.12038314 -0.09771906 -0.02880107 -0.11091999
-0.2101609 0.045076724 -0.2268732 0.016237434 0.09034754 0.050739087 0.07883099 -0.22311881
-0.2804617 0.0032326165 -0.09819516 0.18552992 -0.020850262 -0.22433536 0.044392608 -0.20157725
-0.044434726 -0.17812148 -0.084161706 -0.050576977 -0.07205922 -0.060520053 -0.26371562 0.024488365
0.05386572 0.022290476 0.07018998 0.029709302 -0.045114417 -0.007385515 -0.08968437 0.024053747
0.20171781 -0.0041987444 0.105994366 -0.11031472 -0.04994409 -0.16939178 0.11866647 0.11927081
-0.14185414 -0.05793809 -0.2932273 0.01292931 0.05574515 -0.018765349 -0.038929652 -0.16125415
-0.05525505 -0.10526999 -0.08216699 -0.06508559 -0.032355793 0.20976421 -0.038238604 0.07415837

network.2.bias f4 [64]
00000000: c823 a13d 65e6 7ebc 2e29 f93a 2120 6ebc
00000010: 09d1 98bd c09e 8d3d 0a80 54bd cdb5 b0bd
00000020: be7a 7f3d b07d 39bd 9957 923d 1a33 23be
00000030: 1b8a 84bd b6d5 99bd e7e6 5e3d efd2 aa3d
00000040: 7404 ef3c 6c47 803d a9a2 2fbd 430b 92bd
00000050: 27d1 3cbd 20bc ed3d b54d cd3d d8d8 b93b
00000060: 45c1 133e 11bf c3bd 94e3 0c3d 2b64 233d
00000070: fa4d a1bd 54cf f43c 439b 1fbc 31b2 b43d
00000080: ecf7 15bd 5f19 db3b 58b1 c9bd ff96 993d
00000090: 7980 60bd f84c 1cbe 91b6 81bd 5166 18be
000000a0: 6c66 393d a55d f2bd 949c 96bc d290 c4bd
000000b0: f515 ab3a adbe 84bd 818e b2bd febd 59bb
000000c0: 9a51 44bb 6afa 533c bf5d 633d 4d19 8b3d
000000d0: 70cf 8b3d 4d97 ab3d 647f a2bc 3191 0c3d
000000e0: 2517 f83d 847b d0bc 2c29 f4bc 6cae 8a3c
000000f0: aebd 0f3d b916 6f3d d1ec 37bd 4119 c53c
0.07868153 -0.01555786 0.0019009465 -0.014534027 -0.07461745 0.06915045 -0.05187992 -0.08628426
0.062372915 -0.04528588 0.07145614 -0.15937462 -0.06471654 -0.07511465 0.054419424 0.08341014
0.029176928 0.06263623 -0.042879734 -0.07131054 -0.0460979 0.116081476 0.10024587 0.0056716017
0.14429195 -0.095579274 0.034396723 0.03989045 -0.07876201 0.029884018 -0.009741607 0.0882305
-0.03661339 0.006686374 -0.09848279 0.07499503 -0.05481002 -0.15263736 -0.0633365 -0.1488278
0.045263693 -0.118342675 -0.01838521 -0.09597935 0.0013052808 -0.06481681 -0.08718587 -0.0033224816
-0.0029955865 0.012938121 0.055509325 0.06791935 0.06826675 0.08378468 -0.019836135 0.034318153
0.121137895 -0.025449522 -0.029804789 0.016928874 0.035093002 0.05837128 -0.04490358 0.024059894

network.4.weight f4 [64, 64]
00000000: 5ca4 333b d94e 903d ac72 ccbd 9b73 a53b
00000010: a199 363e d902 44bd f4fc a43c 869b 88be
00000020: a9f9 c1bd b5e9 8e3d e7f1 a1bc db07 7e3c
00000030: 1b7a 863d 622b 6fbd 1303 3ebc b2df 743e
00000040: ee7f 053e 1f73 3f3d 0add 1d3e 2d70 08bd
00000050: 66bc 163e b018 cf3c d83a 06be 3e5b 05bd
00000060: 97a9 41bd 05c6 00be 4b72 5abd ad7b bbbd
00000070: 2eed fabd 5f25 ff3d 27b1 63be e420 f2bd
00000080: 912b a33d 51c4 76bd 3800 0c3d 8c5d 38be
00000090: 419c 62be 9c07 a6bc 4ee0 253d 2748 d83d
000000a0: 1e42 52bd 8f91 143e 18dc 983d 5f00 c3bd
000000b0: de66 cbbd 4837 fd3c 863f 8c3d 527e eabc
000000c0: 478b 493c c0c7 0dbc 74f4 523e 7a59 ec3d
000000d0: a2f2 1d3e 9861 29be d258 b43c 04a9 b53d
000000e0: 1924 e63d c0f1 9a3d 88f8 513d 96c1 49be
000000f0: 7163 b7bd 63e1 d0bc 3f85 77be e4a8 cdbd
00000100: 6fd1 7d3e 9e47 99be 81f0 7a3e fd86 683e
00000110: 63a9 85be 2e94 57bd 85d1 7d3e fe77 f3bd
00000120: 3547 ac3c 2a23 aa3e 385a d53d 7382 8f3d
00000130: 74d3 c23c 866e d5be ef2b d7bc b815 bfbd
00000140: 3d4c 51be 5a8f 2f3c 7e0b 543d c042 113e
00000150: b4b8 043e 791e cf3d 3a7f 443e bf43 78be
00000160: 5994 dfbd d120 11be 89f4 d73d fc95 c4bd
00000170: 55f5 8e3e 50a1 55be a15a 9b3d caf5 bc3e
00000180: b1ec 83be 7efb d8bd 6aa3 553e f7aa 8dbe
00000190: c747 cd3e 93d5 54be d21e b9be b92f 863e
000001a0: 8d0c 4abe 0a9a dbbd c5fe 353d 49d9 0bbe
000001b0: 96f7 063f e52d b7be c62b 9ebd 82bf 2f3c
000001c0: 9970 ad3c 9a3e 163f d235 d6be ed6d 593e
000001d0: 64ee 24be e829 0c3e 4d51 37be 1976 873e
000001e0: cc7d bc3e 4e2f cebe 0680 d1bd 0f3a 1cbd
000001f0: b3ca d53e 14b5 34bd 148d eabd f6f0 db3e
00000200: 2af4 b7bd 063d d83d 6fae 303e d3ec 283d
00000210: 2ebf 90be e172 45be 6dff d63e 903a cfbd
00000220: d7e6 0ebe cd13 4b3e d542 3b3d 0dd7 753e
00000230: 7497 d23e 24bd 1bbe 593c 87bd 9827 28bd
00000240: ecd1 b93d 4b7f a63d c410 a5bd 840f ca3e
00000250: c7c7 203e c648 ebbd bc48 53bc 301e f9bd
00000260: 1a27 c5bd 137b 8c3e f0d3 903d 6ddd 84bd
00000270: 462e cb3e c8ba b1bd 4e9d 80bd ec25 a1bd
00000280: 16c5 bbbd c061 53be adba 1c3f ab3d 1bbe
00000290: 3a9d 23be 380f 0a3e 0b40 9f3d c507 1c3f
000002a0: 997b a2be 902c 43be e708 df3c 7dd9 943d
000002b0: 9027 823e 5a24 6abc e2d5 52bd 64f4 cf3e
000002c0: 3826 323c 85f7 233e a380 ccbc b016 c8bc
000002d0: 2b2a 083e a392 71be b959 0a3e 5f1a fc3d
000002e0: 3955 03bc a09b dbbe ac09 d2be f4d1 8bbe
000002f0: 19cc c8bd 794e 233d 4d48 583e 6aa7 7f3e
00000300: 6f8f 78bd 608e ae3d 98b9 1dbe 46f4 d83d
00000310: c2dd 883d 27b7 6d3e 150d cabc d50f c3bd
00000320: 0e40 20bd 572a 91bd fa0a 81be 60f2 13be
00000330: 14e9 d9bc c5e0 683d 0fb2 5d3d 9004 31be
00000340: 3ade 293c 4687 29be b859 873e 00d0 39be
00000350: f296 933d 593d 20be 96fa 873d b553 cebc
00000360: c4e6 58be 259f 8639 3144 e7bd 4213 94be
00000370: 8961 10bc e8e4 2bbe bee8 303e 46a7 8e3d
00000380: a9c4 a5bd 3b3d 113d a4a8 d0be 5bf1 6b3d
00000390: 92ad a6bd 6d25 293e b00b 8d3d e524 e0be
000003a0: 47ef d33d 0d71 c3bd 0381 dc3d f7e2 26bd
000003b0: 84b1 84be 9147 98bd bd48 f7bd 5200 31bd
000003c0: 0dd5 c8bd aa53 1ebe bd71 083e 607c d0bd
000003d0: d757 5d3e 7ed3 cd3d e353 a8bd afff 733d
000003e0: f7a2 d6bc 201a 573e c4e2 373e b2eb 9f3d
000003f0: 1b18 353c 6106 9b3d f5b3 83bd 6d1a 0ebe
0.0027411198 0.07046289 -0.099828094 0.0050491816 0.17832042 -0.04785428 0.020140149 -0.26681155
-0.09471447 0.0697817 -0.019768668 0.015504803 0.065662585 -0.058390982 -0.011597413 0.23913458
0.13037083 0.046740647 0.15416351 -0.033310104 0.14720306 0.025280327 -0.13108385 -0.03255772
-0.047280874 -0.12575538 -0.053331655 -0.09154449 -0.1225227 0.124583 -0.22235547 -0.1182268
0.07967294 -0.060245816 0.034179896 -0.18004435 -0.22129919 -0.0202673 0.040497117 0.10560637
-0.051332586 0.14508651 0.074638546 -0.09521555 -0.0993173 0.03091015 0.06848054 -0.028624687
0.012301273 -0.008653581 0.20601064 0.11540504 0.15424588 -0.16541135 0.02201501 0.08870128
0.11237354 0.075656414 0.05126241 -0.19702753 -0.08954514 -0.025498098 -0.24171923 -0.10041979
0.24786924 -0.29937452 0.24505807 0.22707744 -0.26105794 -0.05263155 0.24786957 -0.11888121
0.021030048 0.33229953 0.104175985 0.07007303 0.02378247 -0.41685885 -0.026266066 -0.093303144
-0.20439239 0.01071533 0.051768772 0.1418562 0.12961084 0.10113234 0.19189158 -0.24244593
-0.10916967 -0.14172675 0.10544688 -0.0959892 0.27921548 -0.20862317 0.075856455 0.36906272
-0.2576652 -0.10594843 0.20863119 -0.27669498 0.40093824 -0.20784597 -0.36156327 0.26208284
-0.1973135 -0.1072274 0.04443242 -0.13657106 0.52721536 -0.35777202 -0.07723193 0.010726811
0.021171855 0.5868927 -0.41837937 0.2123334 -0.16106564 0.13687861 -0.17902108 0.2645729
0.36814725 -0.40270466 -0.10229497 -0.038141306 0.4175621 -0.044118002 -0.1145269 0.42957276
-0.089821175 0.10558514 0.17254041 0.04124148 -0.2827086 -0.19282104 0.4199175 -0.10118592
-0.13955246 0.19831772 0.045718033 0.24007817 0.41131175 -0.1520887 -0.06603307 -0.041053385
0.090732425 0.08129748 -0.080598384 0.39464962 0.15701209 -0.1148849 -0.012895759 -0.12163961
-0.09626599 0.27437648 0.07071674 -0.06487546 0.3968374 -0.08678204 -0.062800035 -0.07868561
-0.091684505 -0.20642757 0.61222345 -0.15160243 -0.15977946 0.13482368 0.07775887 0.60949355
-0.31734923 -0.19059968 0.027225925 0.07268045 0.2542081 -0.014290893 -0.051473506 0.40616143
0.01087337 0.1601239 -0.024963683 -0.02442488 0.13297336 -0.23591094 0.13510789 0.123097174
-0.008015924 -0.4289217 -0.41023004 -0.2730862 -0.098045535 0.03986976 0.2112133 0.24966207
-0.060683664 0.085232496 -0.1540283 0.105934665 0.06682922 0.23214398 -0.024664441 -0.09524504
-0.039123587 -0.07088154 -0.25203687 -0.14447927 -0.026600398 0.056854982 0.054124888 -0.17286897
0.010367924 -0.16555509 0.26435637 -0.18145752 0.07206525 -0.15648402 0.06639592 -0.025186399
-0.2118178 0.00025677044 -0.11292303 -0.28920943 -0.008812317 -0.1678654 0.17276284 0.069654986
-0.080941506 0.035458785 -0.40753663 0.05760322 -0.08138575 0.16518183 0.06886995 -0.43778148
0.10348373 -0.09543047 0.107667945 -0.040743794 -0.25916684 -0.07435525 -0.120744206 -0.043213196
-0.09806261 -0.15461603 0.13324638 -0.10179973 0.2161554 0.100501046 -0.08219125 0.05957001
-0.026200755 0.2100606 0.17957598 0.07808627 0.0110531105 0.07569576 -0.064308085 -0.13877268

network.4.bias f4 [64]
00000000: 860d a53d 4adb 86bd 80c0 55be 78a5 453d
00000010: aea8 a93c a775 c93d 0514 a33b 5add 82bd
00000020: b6c7 e23c 3bf3 4a3a e8cd 993d 2878 3e3c
00000030: e9ae 233d f574 e83d bda9 bd3c 345e 123d
00000040: a3db 343d 794c ae3d 2b60 f13c 0f4f d53d
00000050: 199a c63d f59f d43c f57f 9d3c 0ff0 c9bd
00000060: a183 71bd da16 993d 428f c2bd 5bf0 99bd
00000070: f35e 883d f17a ae3c 9d07 ff3b 6bea 493e
00000080: 9606 52bd 3c19 afba c9e3 1abe 2c12 e93c
00000090: 186d 18be ff01 1f3a bbc3 173c e927 323d
000000a0: c1ee 0fbd 8016 d1bd 78a8 c33d 68be fabc
000000b0: e6f8 80bd 5a4f 253c 91bb 573e c820 c13c
000000c0: 88e0 b9bd 7cb8 d93c f6eb 2dbc 0fa2 a73d
000000d0: abdc ecbd d916 3dbe fdff a7bd 2561 8a3d
000000e0: 3eff 19bd 9444 13be f1d7 123b 7818 6e3e
000000f0: 5b36 943c c820 3cbd 4dfa c7bd 6eb5 0abe
0.0805922 -0.06584795 -0.20874214 0.048253506 0.020710316 0.098368935 0.0049767517 -0.06389876
0.02768312 0.00077419326 0.075099766 0.011625327 0.03996173 0.11350433 0.023152227 0.03573437
0.044154774 0.0851068 0.029464802 0.1041547 0.096973605 0.02595518 0.019226054 -0.09860241
-0.05896342 0.07475062 -0.094999805 -0.07516547 0.06658735 0.021298857 0.00778289 0.1971833
-0.051275812 -0.0013358961 -0.15125956 0.028451048 -0.14885366 0.0006065666 0.009262974 0.043495093
-0.035139803 -0.1020937 0.09553617 -0.03060837 -0.062974736 0.01008972 0.21067645 0.023575202
-0.09076029 0.026577227 -0.0106153395 0.08185207 -0.115655266 -0.18465747 -0.08203123 0.0675681
-0.037596934 -0.14381629 0.0022406543 0.23251522 0.018092325 -0.0459297 -0.09764538 -0.13545772

network.6.weight f4 [64, 64]
00000000: adfd d43c 011a 4f3d ecdc a9be 290f 623e
00000010: 884a d03d 4853 723e cc8a 4dbe 066f bab8
00000020: 3ff4 293e 5ae6 1bbe a37a 423e 545e 6e3c
00000030: 3094 d2bd 89e7 533e 94a7 aebd 0673 603d
00000040: bde1 e5bd 1dc1 32bd 8905 293c c512 0d3e
00000050: 1a85 923e 80fd 4b3d c906 e0bc 4208 c7be
00000060: 952a 1fbe 8755 c83e b615 663e 6774 0abe
00000070: 655e 08bd fa6f 4abe ad3b 96bd dc19 7f3e
00000080: 619d 8bbe 3503 ba3c 898b 05be 1294 0b3e
00000090: f9ee e3bd 5003 0dbd 1a6d 35be 952d b9bd
000000a0: c693 06be c7c4 e6bd 4e98 293e d846 d43d
000000b0: 8e14 70be 3f38 5fbe 0838 373e 4168 3abd
000000c0: c7de 78be c732 263e 4d3b e23d 1737 0fbd
000000d0: c77c 3dbe 65fe 43bd 29e4 76be 79fa 253e
000000e0: c75b 193e 5839 4ebe e0cb 6b3d 601f 403e
000000f0: 1b3a fd3d cbd5 97bd 9a83 adbe 808d 39be
00000100: e7f3 17bd 320b 02bf 3e0a fe3a 3b0f 723e
00000110: fc8a 583d ff56 dabe 4544 35be 76c1 17be
00000120: 1667 93bd 2bbd 74be 2e96 9c3e c069 fa3d
00000130: 1d42 dabd e629 183e 12b5 5b3e 698e cfbd
00000140: 7466 a4bd aeff ea3d dae0 c9bd 0f89 98be
00000150: 5dd1 c83e 763e b4bc c0fc fc3d d083 183d
00000160: 243f da3e 22a3 aa3e e7f4 0a3e 86f3 0a3e
00000170: 02b0 abbd 7d48 44bd 5393 77be fd9c b63d
00000180: 97cb 963d 4584 a0be a8c3 463d 21e2 50bc
00000190: 94af fb3c da2e a2bd ea5c 9c3e 03de 54be
000001a0: ba0d 5abb 9707 1dbe 6ffa d03d c3ee 213e
000001b0: f3ee 1abe 1072 d4bd 78ad 1bbc 2e10 343e
000001c0: 8b35 b83e 3445 b0bd f291 ce3e 15b2 40be
000001d0: 1116 7a3e 509e e03c 1098 31be a31f a93e
000001e0: 7145 983e 42be 793e cd84 37bd 0536 87be
000001f0: de52 89be da84 443e 20eb 3c3e ba62 2bbe
00000200: 22a9 cc3c ed4d cb3e d15b babd 5701 e7be
00000210: 482a 3bbe 5fda f33e 6263 983e 3e8b 533d
00000220: 29a7 1c3e 62b9 273e f8e9 4dbe d234 32be
00000230: b078 3a3e 1d78 a7be 7577 c3bd a742 153e
00000240: 0549 96bd 6e97 463e 4edc d5bd 8b74 063e
00000250: 4a18 1cbe dd02 e03c e5c5 2abe 10b7 dfbe
00000260: 7523 3ebf bd18 c6be df3e 53be 4709 133d
00000270: 47a6 31be 4ae1 1cbd 23f0 4d3e eb79 3f3d
00000280: d658 b1be 6b96 9b3d b85d 5bbe 6564 b7bc
00000290: e0c2 00be 93a7 a83e 12fc 85bd 0ef5 393d
000002a0: 0a38 b43d bb66 ed3d c64e c13d bbbd 2a3d
000002b0: 0038 89be 65fc f13d 1c41 87bd 8032 8cbd
000002c0: 5633 9bbd 7274 8b3e e5a8 0c3e 38ef 013e
000002d0: 414b 85be 5756 1b3e 25c3 9d3d ea64 a1bd
000002e0: 12ca 74bd 1f08 b2bd 9e0a 2e3e 3868 f13d
000002f0: 30bf 22bc 77ee ea3d 428a 5abe 6e3a 4dbe
00000300: 9cad e5bc 9a33 d23e c048 51bc 72a1 9d3d
00000310: bc75 45be 85c5 4f3d d121 8ebd 9394 c5bd
00000320: a9f5 07be 0b85 bf3d 91e6 84bb 969c 49be
00000330: 42d7 003d 9681 243e 25de cabd b9b3 06be
00000340: 334f 8d3d 209e c73c 39a9 e23d e147 3c3c
00000350: e628 4d3e d88f a73d 1022 05bd 006e 36bd
00000360: 8fe1 403c a49b 6e3b 3761 30be 9f5f 4ebe
00000370: 11b1 5e3e d31c 02be 3b26 c23d e588 2dbe
00000380: 7772 c4bb 08c2 183d 8c82 7d3e 5d59 343d
00000390: 3fc7 183e c56d 20bc 9395 38be 1eaf 1b3e
000003a0: 6401 8a3e cd71 b23c 1ef2 8cbd 4e2b 06bd
000003b0: 66c2 b43c d064 8c3d 814b 823e 23bc d9bb
000003c0: ebf4 983e 44e5 343d 3f27 473e d1ef 0dbd
000003d0: 6ac9 043e 71c9 9b3d b933 f43d 6fb8 4bbd
000003e0: 6b70 2ebd b3ea 75be 4481 1e3e 3e7f 1dbe
000003f0: ca18 47be 3e8f 3abb 6631 27be 71a1 a9bd
0.025999868 0.05056191 -0.33176363 0.22076096 0.10170466 0.23664582 -0.20072478 -8.889851e-05
0.16597079 -0.15224591 0.18992095 0.014548857 -0.10282171 0.20693792 -0.08528057 0.054797195
-0.11224697 -0.0436412 0.010316261 0.13776691 0.28617173 0.049802303 -0.027346985 -0.38873488
-0.15543588 0.39127752 0.2246922 -0.13520966 -0.033293147 -0.19769278 -0.07335601 0.24912208
-0.27268508 0.022706607 -0.1304151 0.13630703 -0.11129565 -0.034426987 -0.177174 -0.09041897
-0.13142309 -0.11268001 0.16562006 0.10365075 -0.23445341 -0.217988 0.17892468 -0.04550958
-0.24303733 0.16230308 0.11046467 -0.034964647 -0.1850463 -0.04785003 -0.24110474 0.16208829
0.14976417 -0.20139062 0.057567477 0.18761969 0.12364598 -0.07413825 -0.33889467 -0.18120384
-0.037097838 -0.5079833 0.0019381715 0.23638622 0.05286692 -0.42644498 -0.17701824 -0.14819893
-0.071973965 -0.23900287 0.30583328 0.122272015 -0.10657141 0.14859733 0.21455792 -0.101345845
-0.08027354 0.11474548 -0.0985734 -0.29792067 0.39222232 -0.02200244 0.12352896 0.03723508
0.42626297 0.33327585 0.13569985 0.1356946 -0.0838318 -0.047920693 -0.24177293 0.08916662
0.073630504 -0.31350914 0.048526436 -0.012749226 0.03072337 -0.079190925 0.30539638 -0.20787816
-0.0033272342 -0.15334927 0.102040164 0.15813737 -0.15130214 -0.10373318 -0.009501807 0.17584297
0.3597835 -0.086069494 0.40345722 -0.18817933 0.2442248 0.02741924 -0.17343163 0.3303195
0.2974048 0.24388984 -0.044804383 -0.264084 -0.26821035 0.19191304 0.18449068 -0.1673688
0.024982993 0.3970789 -0.09099544 -0.4511821 -0.18277848 0.4762754 0.29763323 0.051646464
0.15298142 0.16379312 -0.20108783 -0.17402962 0.18210101 -0.32708827 -0.09544269 0.14576207
-0.07338146 0.19393703 -0.104424104 0.13130395 -0.1524364 0.027345115 -0.16677053 -0.43694353
-0.74272853 -0.3869075 -0.20629452 0.03589752 -0.17348586 -0.03830079 0.20111136 0.04674713
-0.3463809 0.07597049 -0.2142247 -0.022386739 -0.12574339 0.3294035 -0.06542219 0.045399718
0.08799751 0.1159186 0.09438853 0.041684847 -0.26800537 0.118157186 -0.066042155 -0.068455696
-0.07578151 0.27237278 0.13736303 0.12688911 -0.26033977 0.15169655 0.077032365 -0.07880576
-0.05976302 -0.08692955 0.16996238 0.11787456 -0.009933278 0.11471265 -0.21341804 -0.2004182
-0.028036885 0.41054994 -0.012773693 0.07696809 -0.19283193 0.05072548 -0.06940044 -0.09647479
-0.13277306 0.09351548 -0.004055806 -0.19688639 0.031455286 0.16065058 -0.09905652 -0.13154496
0.06899872 0.024367392 0.11067433 0.011491747 0.20035133 0.08181733 -0.032503188 -0.044538498
0.011772527 0.0036408687 -0.17224585 -0.20153664 0.21747233 -0.12706308 0.09479948 -0.16946752
-0.0059950906 0.037294418 0.24756831 0.044030536 0.14919756 -0.009791796 -0.18025808 0.1520352
0.26954186 0.02178278 -0.06882118 -0.032756142 0.022065353 0.06855166 0.2544823 -0.006644742
0.29874358 0.044163957 0.19448565 -0.034652535 0.12967458 0.07606781 0.11923928 -0.049736436
-0.04258768 -0.24015312 0.15478998 -0.1538057 -0.1944305 -0.0028466727 -0.16327438 -0.08282746

network.6.bias f4 [64]
00000000: 4b93 1e3e 9604 febd ff05 a53d f264 04bd
00000010: 0b1d 2e3d ba2e 793b 1666 77bd f8d2 dfbc
00000020: ee33 4b3d 7bef 5e3e fef6 ed3d 0840 34be
00000030: d9d7 a3bd 80b0 023e 98ab 9bbd 2f18 853d
00000040: 2736 0bbe 9a4c 24bd 2351 fe3d e722 ce3c
00000050: 9820 1c3e b4f8 a33d 10d8 633d c6dc 733d
00000060: a5f1 e6bc e716 423e e497 c9bd 3eee cabd
00000070: 0972 c0bd 2191 a83b beb9 cf3d c934 4fbd
00000080: 2e16 393d 8e01 033d 36cf 003e 4f12 57bd
00000090: 9332 043d 8770 893d ac21 f23c c256 393e
000000a0: 05cb 2ebd 9890 a4bd ad20 c5bd 73e9 793d
000000b0: 8a73 863b c6a3 0dbe 1cfc 2f3d 38bf dc3d
000000c0: 1c0a 99bd 7d66 d93d 371a 693c 66c1 263e
000000d0: 536e 1b3e 07ee d7bc 4b78 1f3d 1ff7 ce3d
000000e0: dbdb 973c 3b62 2abd 656e 2e3d c767 19bd
000000f0: 890a 9f39 c1cb 8b3d 778b 813c 199e 303a
0.15485875 -0.124032184 0.08057784 -0.03232283 0.042508166 0.0038022236 -0.06040009 -0.027322277
0.04961007 0.21771042 0.11619376 -0.17602551 -0.08000154 0.12762642 -0.07601088 0.06498753
-0.13594876 -0.040112115 0.12417819 0.025163127 0.15246809 0.08006421 0.055625975 0.059536718
-0.028191397 0.18954049 -0.09843424 -0.09908722 -0.093967505 0.005144254 0.101428494 -0.05058745
0.045187168 0.031983905 0.12579045 -0.052507695 0.032274794 0.06710916 0.029557072 0.18099502
-0.042674083 -0.080353916 -0.09625373 0.06101365 0.004103129 -0.13832006 0.04296504 0.107786596
-0.07472631 0.10615251 0.0142274415 0.16284713 0.15178804 -0.026358617 0.03893308 0.10105728
0.018537452 -0.041597586 0.04258575 -0.037452485 0.00030334693 0.06825972 0.015813572 0.00067374256

network.8.weight f4 [64, 64]
00000000: 5743 f43e da3c 543d 58db c5bc d300 fc3d
00000010: ac71 ab3e ffc0 9f3b 565a 023d 5bee dcbd
00000020: 976d a3bc 1714 bfbd 9071 2b3e 79a1 f7bd
00000030: ed78 23be 5b1c 343e fd35 09be fd84 843d
00000040: 57b3 cabd 0562 383e afc5 013e 90e3 be3d
00000050: 8be0 8c3e 960d 763e d659 4c3e 53aa 21bd
00000060: 2752 5cbd bcb8 8ebc 0f29 c8bd 9898 17bd
00000070: 8f54 0ebe 1e84 50be 52bc 91bc 004c 263c
00000080: 8122 4d3e e3d0 803e 4a89 f73d df3c 943d
00000090: 8ec2 b83c 2420 00bd 37d3 6e3d 58ad 153e
000000a0: 4e15 283d 43f6 24be 8ff9 6f3b a76f 02be
000000b0: b220 67bd ccba 14be 11ae 4e3e a022 8e3e
000000c0: b5ec d93d 8ed2 163e dc9a a83d 465a cebd
000000d0: f112 71bd a60f 57bd 449a 933e b35d a5bd
000000e0: 4be3 c03d bc29 86be df54 8c3e 616f 75bd
000000f0: 12b4 243e 154d 113e 97b0 df3c a8b2 8fbc
00000100: 0493 413e 4b70 00be a091 40be 69c9 663d
00000110: 6f68 a43d 588b eabc faa1 3abe d853 2fbe
00000120: 59b2 d63d 91d3 a83d 0ed6 243e a4fd 373d
00000130: c91a f2bd 88f7 763c 7e2d 14be 47d0 933d
00000140: fa81 853d 5c14 aa3d fda7 82bd 0907 803d
00000150: c1ec 173e 6963 623e 9b1c a0bd dfbc c93d
00000160: c95c 8dbe 7d05 fcbd 3206 ac3d 8498 693d
00000170: c7aa 5cbe a425 adbd 90cb 9c3d d6a5 abbd
00000180: d7ec 483e d79b 3c3e 4b56 bc3d 5fa5 433d
00000190: 7f63 94bd 1f11 523e 7069 1ebe 8b9b 49be
000001a0: 5cde 0b3e 9c75 e9bd 958a 0bbe 8aea 5dbd
000001b0: 1c0b 9cbd 7457 65bd e195 ccbd 1bd5 e0b9
000001c0: 2bc8 413d 728c cd3c 058d a63c eae3 2b3d
000001d0: 3e53 0bbe e1aa af3d b889 8fbd f13e a43d
000001e0: 8d41 b0b8 16e4 92bd a780 8dbd 6364 743e
000001f0: 4891 ecbc 3ca1 2ebe 6e93 05be aa4e ce3d
00000200: 9324 a93d 4a98 1a3e 6058 5cbe 3d02 91be
00000210: fbf7 2b3d ad9b ca3d e84e d33d 28a4 ac3d
00000220: 4fae 6bbd bf86 863e aa86 81bc 5a35 0abe
00000230: 418f 863d bd05 d6bd 3147 7e3d 6863 d83d
00000240: eb81 7bbd 892b 143e b35c 13be 935f 47be
00000250: d9da c33d dc81 39be 8246 63bd 74b9 50be
00000260: e497 99bc ef09 7e3e 91b9 4abe 2598 f2bd
00000270: f254 8abe aeaa 223e 9599 f8bd 9d29 e33d
00000280: 1e60 253e 439e 3cbc cdb5 dabd b290 32be
00000290: 8823 8e3e 83d9 40be 9dd3 393d 1e5e 5bbd
000002a0: 59b8 893d 0f17 1f3d f77a 30bd 51d7 d03d
000002b0: dd53 513d 62b0 63bc 680b e3bd f58c fdbd
000002c0: 0f5c 093d 1c3a a33d 1161 2d3e 1dd4 263d
000002d0: f587 58bc d0e7 4ebe a2c8 443e 96f3 2dbe
000002e0: 744f 563e f2e8 2abd 7182 20be 16d1 0cbe
000002f0: 8a65 173e a164 033c 12ea d73e 7ee0 0abe
00000300: e601 bdbe aef6 57be fc88 393e e706 97bd
00000310: 0184 4fbe 2143 933d 8a83 18bc 94eb c3be
00000320: 6269 64bd 44d9 90be af8a 99bd 08e2 91bc
00000330: 7d4d 493e 4c4c dd3d 3750 b7bc ccf8 143e
00000340: f1a7 0fbe f2ec 133d 00fa 63be 34df 49be
00000350: 68ae 4a3d 8790 683d a1ec 76be 527a 36be
00000360: d31e f1bc c7b2 e7bd f83e 09be f4b9 ac3d
00000370: 76fc 0abd 6e0f e7bd 585b e0bd 18f4 12bd
00000380: d1fb 203e 3bda b9bd 87c0 7ebe 9081 a8bd
00000390: ec21 813e 64f0 1a3e 350e edbd b19d bd3d
000003a0: e82f 4d3b cdef a4be e471 92be 757e 75bd
000003b0: 4463 a6bd 84f4 de3c 25fa e63d b5f2 60bd
000003c0: 9133 0cbd cebf fd3d 9cad 7a3e f9e7 6abd
000003d0: dbed ab3d e53e f7bc 3046 113e 8288 613d
000003e0: c8e2 383e d216 1cbe 6eca a7bd 76b8 24be
000003f0: ea60 06be b191 033d e23a 3dbd 443b 82bd
0.47707626 0.051815845 -0.024152443 0.12304845 0.33485162 0.004875302 0.031824432 -0.1078765
-0.019949717 -0.09330004 0.1674254 -0.12091345 -0.15964098 0.17588942 -0.13399501 0.06470678
-0.098974876 0.18006141 0.12673067 0.09320748 0.27515063 0.2402862 0.19956145 -0.039469074
-0.053789284 -0.017422073 -0.09773456 -0.03701076 -0.13899444 -0.20362899 -0.017789993 0.010149956
0.20032693 0.25159368 0.12086733 0.07238173 0.022553708 -0.03128065 0.0583069 0.14616907
0.041035943 -0.16109566 0.0036617254 -0.12737904 -0.056427665 -0.14524382 0.20183589 0.27760792
0.106408514 0.14728758 0.08232662 -0.10075812 -0.058855955 -0.052505158 0.28828633 -0.08074512
0.09418353 -0.26203716 0.27408502 -0.059920672 0.16084316 0.1418956 0.027305884 -0.017541245
0.18903738 -0.12542836 -0.18805552 0.056344423 0.080277316 -0.028630897 -0.18225852 -0.17121828
0.10483236 0.08243478 0.1609728 0.044919625 -0.11821515 0.0150736645 -0.14470479 0.0721746
0.06518932 0.083046645 -0.063796975 0.06251342 0.14836408 0.22108234 -0.07817956 0.098504774
-0.27609852 -0.12305734 0.08399619 0.057030216 -0.21549521 -0.08454445 0.07656014 -0.0838124
0.19621597 0.18418823 0.091961466 0.047765132 -0.0724554 0.20514344 -0.15469909 -0.19688241
0.13659042 -0.11399385 -0.13627084 -0.054178752 -0.076193064 -0.055991605 -0.09989525 -0.00042883385
0.047310036 0.025091384 0.020330915 0.041965403 -0.13605973 0.085775144 -0.0700869 0.080198176
-8.404544e-05 -0.0717241 -0.06909304 0.2386642 -0.02887787 -0.17053694 -0.13044521 0.10073598
0.08258929 0.15097156 -0.21518087 -0.2832202 0.04198454 0.09892974 0.103177845 0.08429748
-0.05753928 0.26274678 -0.015811283 -0.13496915 0.06570292 -0.10450313 0.062079612 0.10565835
-0.061403196 0.14469732 -0.1439083 -0.19470052 0.09563226 -0.18115944 -0.055487163 -0.20383245
-0.018749185 0.24808477 -0.1979735 -0.118454255 -0.27017933 0.15885422 -0.121386684 0.110919215
0.16149947 -0.011512342 -0.10679207 -0.1743801 0.27761483 -0.18832974 0.045367826 -0.053556554
0.06724615 0.03884035 -0.04308602 0.10197318 0.05110537 -0.013897033 -0.1108616 -0.12380401
0.03353506 0.07970068 0.16931559 0.04072963 -0.013216008 -0.20205617 0.1921716 -0.16987452
0.20928746 -0.04172606 -0.1567476 -0.13751635 0.14784828 0.008019597 0.4217077 -0.135622
-0.3691551 -0.21090195 0.18118662 -0.073743634 -0.20265199 0.07190538 -0.009308705 -0.3826567
-0.055764563 -0.2829076 -0.07497155 -0.017807975 0.19658466 0.10805568 -0.022377117 0.14548033
-0.14028908 0.03611464 -0.22263336 -0.19714051 0.049482733 0.056778457 -0.24113704 -0.17820099
-0.029433643 -0.11313396 -0.13402927 0.08433905 -0.03393217 -0.1128224 -0.109549224 -0.035877317
0.1572106 -0.09074827 -0.24878131 -0.08227837 0.25221193 0.15130764 -0.115749754 0.09258593
0.0031309072 -0.32214203 -0.28602517 -0.059935052 -0.08124402 0.027216204 0.1127818 -0.054918963
-0.034228865 0.123900995 0.24480289 -0.057350133 0.08394977 -0.030181358 0.1418693 0.055061825
0.1805526 -0.1524308 -0.08192907 -0.16085991 -0.13122907 0.032121364 -0.046198733 -0.0635896

network.8.bias f4 [64]
00000000: a2cd 283e 37f1 413b a308 943d e91f 073d
00000010: 726c 2abd 58b9 0fbc 5740 4f3d 19eb 97bc
00000020: 7c0c 51bd 5210 4a3d 505a d03d 73f7 3a3d
00000030: 4d8f 373e c6f4 753d 42e5 d83b c6b3 a3bd
00000040: 67fb 43bd 7f03 5f3d 365c 933d de5c 26bd
00000050: 3530 98bd 8495 6b3d be3e 91bd 721a f73d
00000060: 0bc5 ca3d e9d5 653e c852 003d e5f9 f23d
00000070: 6bbe 423c aadc 113d 6924 ecba f187 c43d
00000080: 0ff3 5cbd 2519 1cbd 0197 12bd eb1c b5bd
00000090: 3557 c4bc 4346 783d e856 09be 678f 6a3e
000000a0: e584 e5bd 766c ddbc 8e6e 1ebd 2dc8 fdbd
000000b0: ad75 95bd 5ef4 423d 0c2c 083c 8b27 07be
000000c0: 55c6 1a3d cc18 7b3d cef2 23bd e64b 4bbd
000000d0: e3cc a93c 3f17 be3c 83a0 bebd 0af7 2d3d
000000e0: 321a 1ebd 5ba1 033e d6b6 1d3e b202 8b3d
000000f0: cb05 d4bd 8a03 dcbc 4f3e 97bd ad95 8f3d
0.16484693 0.0029593238 0.0722821 0.032989416 -0.041607328 -0.008772217 0.05059847 -0.01854472
-0.051037297 0.04933197 0.10173476 0.045646142 0.17925759 0.060047887 0.0066191265 -0.079932734
-0.047847178 0.054446694 0.07195322 -0.04061591 -0.0743107 0.057515636 -0.07092045 0.12065591
0.09900864 0.22444881 0.031328946 0.1186407 0.0118862195 0.035610832 -0.0018016222 0.09596241
-0.053942736 -0.038109917 -0.03578854 -0.08843406 -0.023967365 0.06061388 -0.13412058 0.22906266
-0.11206988 -0.027029257 -0.038679652 -0.12391696 -0.072978355 0.047596328 0.008311283 -0.13198678
0.0377868 0.061302945 -0.04002648 -0.04963293 0.02072758 0.023204444 -0.09307959 0.042471923
-0.0385992 0.12854521 0.15401778 0.067876235 -0.103526674 -0.026857156 -0.07384931 0.0701097

network.10.weight f4 [64, 64]
00000000: 776b 363e 49e5 a13d 4165 afbc a90c 183e
00000010: 00a4 163d 1717 4abe c31d dabd c00c 113d
00000020: 90cc 47be 3c79 703e 6b66 aa3d 52c7 89bd
00000030: 4526 523d 620e fabd 80d1 523e e9fd 513e
00000040: 65d4 82be dac6 963e 5ef7 11be d727 90be
00000050: 8ed1 aabd 06a0 4bbe c962 803d b119 59be
00000060: ede5 99bd ecd8 0c3f 866f 65be dd19 343e
00000070: 1458 84bd 8c9c 53bc 6807 aabd 3907 483e
00000080: b5df bbbd ea87 553e cd6c 98bd 4edf 613e
00000090: 4c0b 513c fe0f 003d bc01 fbbd fadb 34be
000000a0: 960d b63d a38e 983c 8ecd 1a3f e9b2 44be
000000b0: 2557 a53d fe12 883e a7e3 583e ea00 63be
000000c0: df3a 183e d53a babd 8200 babd aabb 4c3d
000000d0: c9b0 abbd 3755 823e 91d3 543e 5c41 dabd
000000e0: f9f7 383e f7cc 4cbb 0c5b b6bd 8fd3 0fbe
000000f0: a0c5 2ebe 505c 273d 7f47 e93b 81c5 a5be
00000100: b762 393e d130 17be dbad e83c 04ea 343e
00000110: a945 aebe 9655 833e 305b 983e 871b 75be
00000120: 6cc3 16be e041 893d 263c 38be a1fb f93d
00000130: ba94 be3d cd1b ea3b dfe8 3e3e 338a 4c3e
00000140: 1336 213e fcff 3cbe 0ef9 b53e 5568 bebd
00000150: 02e9 39bd 9ed7 ee3d 274b 6abe 60d3 823b
00000160: 99d4 83be d4ef 733e 640c 253e 2272 863e
00000170: 7d90 acbe dd35 0a3e 68b5 dd3d d419 073e
00000180: d82a d23d 4e45 fb3d f863 8b3a 6592 fdbd
00000190: fb53 ff3d cdd5 73be d694 d93d 008c dabd
000001a0: ad63 97bc 6195 98bd 03f1 403e 93f2 2abd
000001b0: d22d 6d3e afbb 413e 6be0 e23c b88a 82bd
000001c0: 13ae bf3d 725a 913d 4acc 6c3c 9bf4 263e
000001d0: e2d6 553d 2db1 b4bd 413d 353d 5340 6cbe
000001e0: a07f 56be 0b0c 3c3e 9999 65be 0be5 9abd
000001f0: 3e18 543e d28f 113e a34b d0bd 65ed a3be
00000200: 3c55 fc3d 1ce1 15be a54f 163e e294 57bd
00000210: adea 41be fb10 923b 9e7f 5d3e 3757 23be
00000220: 9061 9d3d bd88 07be f233 a03a e4e6 383e
00000230: 4daa 70bc 7516 ecbd de5e 06bd c457 22be
00000240: 9f76 a13d 7a5e 87bd ef6a c93d d5fe 563d
00000250: 0e9e b7bd e62a 24bc cb0b 233c babd a6bc
00000260: cdb6 923e 9271 83be 0cc8 783d 586c 38be
00000270: 6b1e 4c3e 607a 4abe 47a0 373e 3a83 0fbc
00000280: c23f 043e f99b 583e 64de 19be d7ff b8bd
00000290: 4e68 99be c0ba 203e 9c80 073e 7c66 bc3c
000002a0: 76bc 153d 64e9 a5bd 5a6b a0bd f708 b33d
000002b0: dfca c43c fb27 283e 2f13 85bd 9588 25bd
000002c0: 5fab 023e 14b9 19bd 7910 ec3d 7e43 403e
000002d0: a547 ea3d 6a40 473e 0828 053d 1682 47be
000002e0: 1ee3 de3d d9e1 fdbd 95ce 44be cbde 003e
000002f0: b5ac 74bd 60e8 a1bd 51a6 923d f72b 3b3e
00000300: 9955 b6bd 1323 a8bd 6eb0 463e 7748 b53e
00000310: 3e64 f13c 9f84 66bd 89cf 233e ba3a a1be
00000320: e3b0 ca3d d3ea 96bd 086b 4c3e ecec 7fbe
00000330: 08d9 a8bc 302f b33d 63ce 60be aaa8 833c
00000340: bb45 bf3e aa46 e8bd 1e60 283e f731 aabc
00000350: 92d1 43be 30e3 2e3e f327 0bbd a72c 643d
00000360: a72b 97bc c492 71bd 811e 433e 50b1 2a3e
00000370: 6eb4 b7bd 0724 083e f912 743d bb02 1b3e
00000380: 902e ba3d 2ee8 d4bd b276 0d3e 302b 9bbd
00000390: cc11 3fbe a375 153e 1848 123e 0d8a 4f3e
000003a0: 8a28 7bbc 7fe5 a4bd 63e4 a33d 9968 983d
000003b0: 7036 9ebe 641e 13be 8cfe 3d3e 5555 ec3d
000003c0: 23ff 773e 13fa 633e 9086 a5bd f2a4 7a3d
000003d0: 527c c8be e8fd d93c c343 ff3d 4769 c2be
000003e0: 0615 c2bc 48e8 ab3d d00c d3be d287 b0bd
000003f0: 03a5 a53c 029b fb3c e086 643c 5678 563d
0.17814432 0.07905061 -0.021410586 0.1484858 0.036777496 -0.1973537 -0.10650208 0.03541255
-0.19511628 0.23483747 0.08320316 -0.067274705 0.051306028 -0.122097746 0.2058773 0.20507015
-0.2555267 0.29448587 -0.1425452 -0.28155395 -0.08340751 -0.19885263 0.06268842 -0.21201207
-0.07514558 0.55018497 -0.22405824 0.17587991 -0.06462112 -0.012915742 -0.08302194 0.19534005
-0.09173528 0.20852628 -0.07442627 0.2205784 0.012759041 0.03126525 -0.1225619 -0.1766204
0.0888931 0.018622702 0.604699 -0.19208874 0.08073262 0.2657699 0.21180592 -0.22168317
0.14866208 -0.090932526 -0.09082128 0.049983658 -0.083833285 0.2545564 0.20783831 -0.106569976
0.18063344 -0.0031250098 -0.089040846 -0.14045547 -0.17067575 0.04085952 0.0071191187 -0.32377246
0.18104063 -0.14764716 0.028403213 0.17667395 -0.3403752 0.25651234 0.2975707 -0.23936282
-0.14722985 0.06702018 -0.17991695 0.122061975 0.09305711 0.0071444274 0.18643521 0.19974594
0.15743284 -0.18457025 0.35541576 -0.092972435 -0.04538823 0.116622195 -0.22880231 0.003992483
-0.25748137 0.23821956 0.16118008 0.2625895 -0.33703986 0.1349711 0.10825616 0.13193446
0.10262078 0.12269078 0.0010634651 -0.12381438 0.1246719 -0.23812027 0.10624091 -0.10671234
-0.018480146 -0.07450367 0.18841939 -0.041735243 0.2316201 0.18919252 0.027694901 -0.06374115
0.09359374 0.07097329 0.014453003 0.16304247 0.05220688 -0.08822856 0.04424787 -0.23071413
-0.20947123 0.18363969 -0.22421874 -0.07563218 0.20712373 0.1421502 -0.101706766 -0.32017055
0.12320945 -0.14636654 0.1467882 -0.05263222 -0.18937178 0.0044575906 0.21630713 -0.15951239
0.07684624 -0.13235755 0.0012222512 0.18056828 -0.01468904 -0.11527721 -0.032805316 -0.15853792
0.07883953 -0.06609817 0.09834849 0.05248912 -0.089656934 -0.010019993 0.009951542 -0.02035414
0.2865509 -0.25672585 0.060737655 -0.1801008 0.19933479 -0.19773245 0.17932235 -0.008759314
0.12914947 0.21153249 -0.15026242 -0.090331726 -0.2996239 0.1569624 0.13232654 0.022998087
0.036556683 -0.08101156 -0.07832976 0.08741944 0.024022518 0.16421501 -0.064977996 -0.040413458
0.12760685 -0.03753002 0.115265794 0.18775746 0.11439446 0.19458166 0.03250888 -0.19483218
0.10883163 -0.12396593 -0.1921943 0.12584989 -0.05973502 -0.0790565 0.071606286 0.1827849
-0.08903045 -0.08209815 0.1940324 0.3540685 0.029466745 -0.05627882 0.15997137 -0.31490117
0.0989702 -0.07369008 0.19962704 -0.24992722 -0.020611301 0.08749235 -0.2195373 0.016071636
0.37357888 -0.11341603 0.16442916 -0.020775778 -0.19122913 0.17078853 -0.033973645 0.055706646
-0.018453432 -0.058977857 0.19054605 0.16669202 -0.08969961 0.13294993 0.059588406 0.1513776
0.09090912 -0.10395847 0.1381481 -0.07576597 -0.18659133 0.14595656 0.14285314 0.20267506
-0.0153294895 -0.080515854 0.08002546 0.074418254 -0.30900908 -0.14367062 0.18554133 0.11539713
0.2421842 0.22263364 -0.080823064 0.06119246 -0.3915735 0.02661033 0.124640964 -0.37970945
-0.023691665 0.083939135 -0.41220713 -0.08619656 0.020220285 0.030713562 0.013948172 0.052360855

network.10.bias f4 [64]
00000000: 0c09 84bd e1d7 61bd 294d 36bd 86f1 df3c
00000010: e291 14bd 4b9f 3fbe 11e8 50bd 0e94 39bc
00000020: e8e1 0c3e 64eb ccbd 0083 db3c 144d cabc
00000030: f9ab 99bd bd04 04be 6945 2bbd a416 a0bd
00000040: f1e2 c13d 793f 723c 1e2e 11bd bfb7 533d
00000050: ed77 febc 60d6 06be 5d2f afbd f156 a6bd
00000060: 4f41 203c 0f40 e3bd ed1e 39bd 38a2 7dbd
00000070: 0f69 42bd 001e 73bd 0d4f 24bd c558 e23b
00000080: cd40 38be 6f8c 03bb b1ff d9bc aa99 d93d
00000090: d633 b2bd 0f35 473c cb2a febd 214a b3bd
000000a0: 3bd8 01be 4541 b63c 52a6 51be f19e c9bc
000000b0: 967a 6a3b a895 92bc 3386 253d 3cb3 113d
000000c0: fb8b 08be edb1 b53c 0aee d03c 0961 c73c
000000d0: 1708 073e d62f 593e 567c 9fbd 1aa9 8f3e
000000e0: 998b 1cbe b1b4 32bc 1b19 21be b254 193e
000000f0: 5044 20bd cc8b 023d a954 7a3c 4d3b 9f3d
-0.06447038 -0.05513752 -0.04450718 0.027336847 -0.036271937 -0.18713109 -0.051002566 -0.011326803
0.13758051 -0.10005835 0.026795864 -0.024694957 -0.07503504 -0.12892433 -0.04181424 -0.07816818
0.09467114 0.014785641 -0.03544437 0.051688906 -0.031063044 -0.13167715 -0.08553956 -0.081220515
0.009781196 -0.110962026 -0.04519551 -0.061922282 -0.047463473 -0.059354782 -0.04011445 0.006907555
-0.1799347 -0.0020072719 -0.026611181 0.10625012 -0.08701293 0.012158646 -0.12410506 -0.08754373
-0.12680142 0.02224792 -0.20473602 -0.024611922 0.0035778633 -0.017893627 0.040411185 0.03557132
-0.13334648 0.022179568 0.02550413 0.024338262 0.1318668 0.21209654 -0.07787387 0.28058702
-0.15287627 -0.010907338 -0.15732233 0.14973715 -0.039127648 0.031871602 0.015278974 0.077749826

network.12.weight f4 [5, 64]
00000000: 38fc b0bd e3ac ccbc 7613 783d 8013 a5bc
00000010: 457d 1e3d 9f6e 86ba 6887 b8bd dd87 ebbc
00000020: 6d72 173b 6345 13bd bb68 3fbd d8f3 653d
00000030: 6b25 9b3c 7931 72bb cf41 e6bc d380 2dbe
00000040: 8bb6 6a3e 8524 89bd d50f 9fbd c879 053e
00000050: 33b4 d63c 46d4 33bd b923 a9bb d731 de3c
00000060: 40a0 1dbd 5e79 14be 52a8 523e 9e0d fbbb
00000070: 5aa4 033b 0d85 26be 0aa5 9b3e 81d9 f13c
00000080: 62ab b83c 105c e7bc 96c4 adbc 1620 753b
00000090: cf0b 73bd 8b18 e93b a40f bdbd 0353 3abe
000000a0: 4a70 533d 2106 0ebd 30bc 953d 9b28 78bd
000000b0: 240c 163d 7e77 91bc e74d d9bc 7187 07be
000000c0: 838e d1bb a0c7 6cbc 09e0 92bc ac1e 9a3e
000000d0: 93be fcbc 60d8 683e 90eb 9fbc 62f3 3f3e
000000e0: 4dc7 403c cea9 99bc d58d 26be 416c dbbc
000000f0: 1bf0 a33d b999 463e 28cf 853e 60cc 42bc
00000100: f286 dd3c 0897 923c 58f1 523c ccc5 1f3e
00000110: 1e62 c3bc 13ee 093d ac35 11ba 6294 a63d
00000120: 7056 de3b 05a0 96bd eecf cb3a e543 6f3d
00000130: 6da9 4abc 6f59 1d3c 53af 1a3c ffaa 7f3d
00000140: 94c3 56be e970 d8bc cfe9 993c c7f4 793c
00000150: d267 ba3b 63df 5ebb 3559 003b fd14 96bc
00000160: 9d17 01bd f936 133e 69cc 5fbe 3022 f7bb
00000170: dc17 a9bc 1f14 cdbc 65d5 14bd a74b b73d
00000180: 9828 58bb d116 b23b fbd8 3dbd 789c e43c
00000190: fbe9 b5bc df6f b3bc 9f3f 673d 424f 5a3c
000001a0: d184 843c 3e78 6dbd 1f94 713c 22ba 89bc
000001b0: 5ff8 ae3c 53f5 0b3a d9e5 b13c 65eb 5fbd
000001c0: cdc1 31bb afc2 82bc fa40 103c fc2c 9fbc
000001d0: e30f 203e 640a c5bb 6aea 983d 263c c93d
000001e0: d2eb 48bd 71de 803d 10a4 a8bc 1852 29bd
000001f0: b424 edbc c1d0 143d c72f 623e 33ac 12bb
00000200: 2f27 3fbf 645b d9be 59cb dd3e 8127 553e
00000210: 9587 403e 8396 e4be 4c28 09bf cf79 1f3e
00000220: 57ec 4b3e 3d9b 28be e914 5cbd 383a 99be
00000230: 42ca 46be 8738 e7be 7e68 4a3d 2932 0c3e
00000240: 81c1 86be cea0 c6bb eda3 823b 4ead 0e3f
00000250: 41f5 21bf 486d 68be 5dec 03bf d5b0 0dbe
00000260: 6644 423e f101 d8bd cd32 1ebe 1dc3 f8be
00000270: abfa 083b 5ba7 79bd f839 f4bd 9428 a33d
00000280: f183 67bf 2f6a e23e 06f4 0abe f860 1cbf
00000290: 9381 3e3f d882 cdbe 57fc 59bd 6cf3 68be
000002a0: 7115 ed3e cbe2 0abe 404b 04bf 68d0 53be
000002b0: d148 1ebf c88e 323f cb83 4a3e 1f1e 613e
000002c0: 4b6d 2fbf 47dc 99be 7830 f53e ea8e 3fbe
000002d0: c8a4 8d3c f2e1 1d3e d0a6 3f3e 4416 9d3e
000002e0: 8cdb c7be ab4a fb3e dffc f5bd 8a9d 023e
000002f0: d075 8f3e 2df5 e3be 2099 d4bc bd0c a43e
00000300: 13e5 6abe 1e6e 1abf 269c c1bd acc0 aabe
00000310: a947 89be fa7a 793e 0bf3 93bc 05df 74be
00000320: bebe 293f ca51 8e3e 07cb 3d3e fa87 a23e
00000330: 57e7 b4be 0d3b 8fbe 277f 023f 0e05 cf3c
00000340: 2991 963d fb57 0cbf caaf 9a3e eb09 4dbe
00000350: dcdf 943e c3b1 023f df0b 79be 3343 46bf
00000360: 25c3 a3be b624 35bd bb55 90bd d24b 24be
00000370: 8ecc 49bf 8245 5e3d 7329 bd3d d429 9cbb
00000380: 503a 05bc 7b5f 47bd 5292 6dbe b6cf 263e
00000390: af80 b5be da19 62be 68cf aebe 8a49 4f3e
000003a0: 3cdc 5fbd 07b7 0c3f 56c5 bcbd e55a f53e
000003b0: f437 dc3d 88c4 02bf 8d04 32be 7f8d 53be
000003c0: 2d92 493d c89d d73e 78ac e1be 43ff 33be
000003d0: bdd9 89bd 261c e7bc 5e8d e7bd 80e4 283e
000003e0: ae5f a0be 36b4 6bbe 7647 a43d 77d3 f03d
000003f0: c7eb ee3c e7f7 853e 4e53 17be 220f d03e
-0.08641857 -0.024984783 0.060565434 -0.0201509 0.038693685 -0.0010256356 -0.09010202 -0.028751308
0.0023108975 -0.035954844 -0.046730738 0.05614075 0.01893874 -0.0036955758 -0.028107552 -0.16943674
0.22921197 -0.06696419 -0.077666916 0.13034737 0.026208973 -0.04390361 -0.005161729 0.027123375
-0.038482904 -0.14499423 0.20572022 -0.0076615354 0.0020086975 -0.16261692 0.30399352 0.02952266
0.02254266 -0.028242141 -0.021211904 0.0037403158 -0.059337433 0.0071135215 -0.09231499 -0.18195729
0.05162076 -0.034673814 0.073112845 -0.0605856 0.036632672 -0.017757174 -0.026526405 -0.1323526
-0.0063951625 -0.014451891 -0.017929094 0.30101526 -0.030852592 0.2273879 -0.019521505 0.18745187
0.011766267 -0.018757727 -0.16265042 -0.026785018 0.08004781 0.19394578 0.2613461 -0.011889547
0.027041886 0.017894283 0.012874924 0.15602797 -0.023850497 0.03367431 -0.0005539309 0.081337705
0.0067852065 -0.0735474 0.0015549639 0.05841436 -0.012369496 0.009603842 0.009441215 0.062418934
-0.20973045 -0.026421027 0.018788246 0.015256113 0.005688646 -0.003400766 0.0019584422 -0.018320555
-0.03151666 0.14376439 -0.2185532 -0.0075419173 -0.02064126 -0.025034009 -0.03633632 0.089499764
-0.003298318 0.005434849 -0.046349507 0.027906641 -0.022206297 -0.02190393 0.05645716 0.013324561
0.016176613 -0.057976 0.0147447875 -0.016812388 0.021358667 0.00053389854 0.021716045 -0.05466785
-0.002712357 -0.015961973 0.008804554 -0.01943063 0.1563106 -0.0060132015 0.07466586 0.098259255
-0.04905302 0.06292427 -0.020586044 -0.041338056 -0.028948165 0.036331896 0.22088538 -0.002238047
-0.74669164 -0.42452538 0.43319204 0.20815851 0.1880172 -0.4464608 -0.53577113 0.1557381
0.19914375 -0.16465469 -0.05373088 -0.2992723 -0.19413093 -0.45160314 0.049416058 0.1369101
-0.26319507 -0.00606165 0.0039868266 0.5573319 -0.6326485 -0.22697937 -0.51532537 -0.13836987
0.18971404 -0.10547245 -0.15449066 -0.4858636 0.0020901363 -0.06095062 -0.11925119 0.07966724
-0.904357 0.44221637 -0.1356965 -0.6108546 0.74416465 -0.40138888 -0.053219166 -0.22749108
0.4630542 -0.13563077 -0.5167732 -0.2068497 -0.6182986 0.69749117 0.19776838 0.21984147
-0.6852614 -0.3005087 0.4788854 -0.18706861 0.017290488 0.15418223 0.18715978 0.3068105
-0.39034688 0.49080405 -0.12011122 0.12755409 0.2801957 -0.44522992 -0.025951922 0.3204097
-0.22938947 -0.60324275 -0.09453611 -0.33350122 -0.26812485 0.24363318 -0.018060228 -0.239132
0.66306674 0.27796775 0.1853448 0.31744367 -0.35332748 -0.2797474 0.5097527 0.025270965
0.07351906 -0.5482175 0.3021224 -0.20023315 0.2907704 0.5105249 -0.24320935 -0.7744629
-0.3198482 -0.044224463 -0.07047602 -0.16044548 -0.7882775 0.054265507 0.092364214 -0.0047657285
-0.008131579 -0.04867504 -0.23200348 0.16290173 -0.3544974 -0.22080174 -0.34142613 0.20242897
-0.05465339 0.5496678 -0.09217326 0.4792091 0.1075286 -0.5108113 -0.17384548 -0.20659445
0.04921167 0.42112565 -0.44076896 -0.17577843 -0.067309834 -0.028211664 -0.113062605 0.16493416
-0.31322998 -0.23017964 0.080214426 0.11759084 0.029165162 0.26165697 -0.14777872 0.40636545

network.12.bias f4 [5]
00000000: 1f91 973e 914b b2bd 88a0 3d3e 3784 043e
00000010: 82d6 e9bb
0.29602906 -0.087058194 0.18518269 0.12941061 -0.007136167
