2D_sheet_problem/models/plate_hole_good.pth (torch, 90664 bytes, 14 tensors)

network.0.weight f4 [64, 2]
0.005746582 0.28878498 0.0051656016 -0.12918694 0.15900676 0.3438058 -0.047141515 0.19707932
0.13633585 -0.25259954 0.2981843 0.2616102 0.10534757 0.3377134 0.19056378 -0.28794095
0.20330016 -0.120474584 0.038668822 0.27808186 0.1611883 -0.046227146 0.08490303 0.28888148
0.2926854 -0.17747621 0.14127474 -0.06358538 0.31698966 -0.12053298 -0.121656485 -0.16651314
-0.049471304 -0.1286612 0.053142257 0.23562711 -0.11403692 0.20277935 0.21064582 -0.13637365
0.13973652 0.15053114 -0.02233192 -0.09499886 0.0626255 -0.054409947 -0.037902232 -0.21583234
-0.018111976 0.3541839 0.3114121 -0.14658087 -0.014359888 0.26061937 -0.32505372 0.11823104
0.06212587 -0.22216439 -0.16942374 0.1912394 -0.13844159 0.274919 -0.26953253 0.4048595
-0.25072348 -0.048228722 -0.14208373 0.2323212 -0.049797576 0.041054573 -0.08137875 -0.30174655
0.19265403 -0.25362068 -0.10240423 -0.040370114 -0.06996218 0.31748515 -0.023355395 0.17670234
0.1611583 -0.14774519 0.02285177 -0.26165566 -0.12989117 -0.25808483 -0.44156134 0.072403125
-0.19642635 -0.4413204 0.10767123 -0.29837394 -0.10145782 0.16619195 -0.22246432 0.20981973
0.18449679 -0.30447352 -0.21093841 0.14909436 0.36760998 -0.20814265 -0.010872966 0.02581229
-0.034851935 0.26451197 -0.2577214 -0.035816584 0.32643843 0.059149984 0.1078842 -0.10680137
0.049963523 -0.21617778 0.2059164 -0.24016933 0.06736979 0.19682685 -0.37595397 0.22119197
0.04455941 0.3564869 -0.042516846 0.05707524 -0.3038392 0.03991812 -0.19975086 -0.2076468
00000000: d34d bc3b a0db 933e 3544 a93b 9549 04be
00000010: abd2 223e 5007 b03e 7617 41bd 29cf 493e
00000020: a09b 0b3e ba54 81be 9dab 983e c6f1 853e
00000030: 77c0 d73d c5e8 ac3e 2723 433e ff6c 93be
00000040: eb2d 503e 61bb f6bd 3363 1e3d bf60 8e3e
00000050: 8c0e 253e ad58 3dbd a4e1 ad3d 46e8 933e
00000060: dcda 953e 53bc 35be 53aa 103e 0d39 82bd
00000070: 784c a23e ffd9 f6bd 0927 f9bd 6c82 2abe
00000080: 6ca2 4abd c3bf 03be b2ab 593d 3c48 713e
00000090: 308c e9bd 64a5 4f3e 8ab3 573e 89a5 0bbe
000000a0: 1717 0f3e d624 1a3e 6ef1 b6bc c38e c2bd
000000b0: cc41 803d f7dc 5ebd 5f3f 1bbd 2703 5dbe
000000c0: 915f 94bc 9857 b53e 6871 9f3e 4c19 16be
000000d0: bc45 6bbc e76f 853e 716d a6be 1e23 f23d
000000e0: b277 7e3d 107f 63be 6b7d 2dbe 43d4 433e
000000f0: a2c3 0dbe 2fc2 8c3e 2b00 8abe bf49 cf3e
00000100: d45e 80be 7b8b 45bd 667e 11be 9ce5 6d3e
00000110: 8bf8 4bbd d728 283d e7a9 a6bd 867e 9abe
00000120: 1947 453e 92da 81be 4fb9 d1bd 225b 25bd
00000130: 5548 8fbd 6a8d a23e d053 bfbc 75f1 343e
00000140: ae06 253e 844a 17be a333 bb3c bbf7 85be
00000150: 3102 05be b223 84be 5414 e2be 1748 943d
00000160: fd23 49be bff4 e1be bc82 dc3d 78c4 98be
00000170: 1ec9 cfbd 392e 2a3e b0cd 63be fcda 563e
00000180: baec 3c3e f4e3 9bbe 3d00 58be 31ac 183e
00000190: 6037 bc3e 5923 55be 8624 32bc 4c74 d33c
000001a0: e7c0 0ebd 1d6e 873e 0ff4 83be 69b4 12bd
000001b0: f022 a73e 4147 723d 64f2 dc3d adba dabd
000001c0: 8da6 4c3d b55d 5dbe c0db 523e f3ee 75be
000001d0: 2cf9 893d fa8c 493e 0a7d c0be 2680 623e
000001e0: ee83 363d 7385 b63e 2526 2ebd bac7 693d
000001f0: d090 9bbe 2f81 233d 7d8b 4cbe 5da1 54be

network.0.bias f4 [64]
-0.056391336 0.033212677 -0.26498032 -0.12727134 0.034090932 -0.22185779 -0.23572333 0.06222963
0.086627424 -0.21410573 -0.036832307 -0.24165545 -0.042582277 0.03564008 -0.020411799 0.12734108
0.0528453 -0.068595044 -0.080352165 -0.02711971 -0.04325882 0.08904068 -0.09802948 0.1263186
-0.15940684 -0.07603388 -0.10522751 0.14668901 0.05104937 0.13026628 0.03202629 0.09055443
0.019191347 -0.046371434 0.077193566 0.037954953 0.00719781 0.0126534095 -0.058481954 -0.048987325
-0.1772619 0.104021996 0.15027408 0.14413333 0.3774123 0.0394396 -0.010323954 0.06786215
0.08052333 0.12607874 0.0037171456 -0.040079087 -0.028153017 -0.04401832 -0.18716858 -0.0012449463
0.02260531 0.020022491 -0.07850909 0.13351336 -0.18706354 -0.027946299 0.06762013 0.17643899
00000000: 9afa 66bd 040a 083d 80ab 87be 6b53 02be
00000010: efa2 0b3d b02e 63be 7561 71be 7fe4 7e3d
00000020: b869 b13d 883e 5bbe 79dd 16bd 8774 77be
00000030: c16a 2ebd 55fb 113d a536 a7bc b365 023e
00000040: 5074 583d 8f7b 8cbd ad8f a4bd 272a debc
00000050: 2930 31bd f65a b63d aec3 c8bd aa59 013e
00000060: 8c3b 23be a7b7 9bbd 8581 d7bd a535 163e
00000070: 2519 513d 8664 053e 002e 033d 9a74 b93d
00000080: 2c37 9d3c f9ef 3dbd a917 9e3d a776 1b3d
00000090: 9bdb eb3b 3f50 4f3c c68a 6fbd efa6 48bd
000000a0: 2584 35be 7c09 d53d 73e1 193e b097 133e
000000b0: 2f3c c13e 6b8b 213d cd25 29bc 50fb 8a3d
000000c0: 6ae9 a43d c91a 013e 5b9b 733b f829 24bd
000000d0: 28a1 e6bc 8e4c 34bd 1fa9 3fbe 772d a3ba
000000e0: c52e b93c 3506 a43c 60c9 a0bd bab7 083e
000000f0: 968d 3fbe a3ef e4bc 6c7c 8a3d 6cac 343e

network.2.weight f4 [64, 64]
-0.043037858 -0.19818415 0.45727676 0.027440835 0.09642954 0.5316775 0.5339216 0.17454411
0.15808241 0.16922379 0.10015957 0.24163848 0.043665554 0.14071096 0.31841856 -0.34453282
-0.16287242 0.0140786925 -0.067850284 0.26424098 0.05371279 -0.117740974 0.038611453 -0.14138342
0.053601872 0.14498635 0.10751118 -0.20573147 0.00726518 -0.10477388 0.0010595603 0.048725326
-0.27107754 0.06984642 -0.0058308155 -0.19632846 0.21266192 0.06399648 -0.005821954 0.049075775
0.13445161 -0.15464921 -0.14883481 -0.27675435 -0.30089322 -0.1901068 0.039544106 0.029233402
-0.16416062 -0.096631825 0.28420246 -0.12230271 0.09248312 -0.25721863 0.24057232 0.08018222
-0.10033465 0.053060237 0.21055676 -0.18116678 0.2929115 0.009831522 0.005442752 -0.12972414
0.10658894 0.16197127 -0.45110464 -0.039731793 -0.1738135 -0.26036105 -0.4047198 0.12591943
-0.01501035 -0.18217331 -0.23731406 -0.023528194 -0.005085713 -0.060835272 0.04609239 0.05012224
0.18379727 -0.22844109 -0.17536432 -0.22164738 -0.09000329 0.12478627 0.06241967 -0.057386443
-0.17706597 -0.061588947 -0.0748051 0.18956693 -0.1741682 -0.05165091 -0.19190909 -0.10376945
0.20288154 0.08085863 0.17401034 0.29783288 -0.13902688 -0.051425606 -0.00049075054 -0.1851468
-0.078868106 0.06935933 0.21241678 0.25156933 0.10692185 0.07440411 -0.10484581 0.105288595
0.16182028 -0.0058836825 -0.12053006 0.029981427 -0.13992167 -0.14921513 -0.16666918 0.20110838
0.16253287 0.106229916 0.14430241 -0.0654948 -0.17619027 0.08532385 0.1388639 0.18257211
0.14005885 -0.10792194 -0.06306449 0.068526134 0.14190094 0.21199185 0.0291747 0.1525018
0.15056662 0.069903314 0.13461821 0.17957386 0.11197025 0.11840356 -0.060417913 -0.24137264
0.25402737 0.08526885 -0.048876245 0.091209546 0.008650798 -0.0035650996 -0.014245898 -0.06892415
0.06828429 -0.029898394 -0.17017242 -0.042460512 -0.105881855 -0.12035213 -0.011791724 0.060325272
-0.1942691 -0.17194302 -0.1633304 0.28539023 0.012708965 0.15246475 0.10047113 0.06508173
-0.00026748798 0.08093012 0.1035287 0.09727109 -0.15008347 -0.17549747 -0.21202439 -0.20575653
0.046139482 0.023795374 -0.0917021 0.1958972 0.009740037 0.16566753 0.169517 -0.04638813
-0.08608064 -0.054361634 -0.12686886 1.2388843e-05 -0.07562166 0.029707987 0.08570844 0.11379821
0.21073073 0.18717204 0.026252458 0.011608437 0.112442315 0.12728986 0.26374733 -0.0021414573
-0.19990763 0.1537593 0.09488861 0.21700469 0.13421328 0.17985134 0.2183019 -0.11623392
-0.071437195 -0.0003173496 -0.09544593 -0.07443015 -0.032238126 -0.20187585 -0.079406284 -0.11158293
0.05306806 0.02316107 0.10848119 -0.13802439 0.01006232 0.02011085 -0.08958354 0.20815302
-0.08806677 0.035439003 -0.019350782 -0.20412004 0.062286966 -0.048019197 -0.049291056 0.12621462
-0.18150282 0.040769577 -0.05341913 -0.20030524 -0.10416492 -0.19741721 0.06863107 -0.1601551
-0.043647546 0.18553981 -0.10988171 -0.14891666 -0.07462488 -0.2308212 -0.013682479 -0.14263834
-0.14960252 -0.12001368 -0.10183262 -0.0059191226 -0.119715445 0.050968923 -0.0009222751 -0.18002704
00000000: 7748 30bd c9f0 4abe 2e20 ea3e 9acb e03c
00000010: da7c c53d 041c 083f 16af 083f b1bb 323e
00000020: 5be0 213e 0049 2d3e 7620 cd3d 1470 773e
00000030: a7da 323d 8916 103e c207 a33e 9b66 b0be
00000040: 07c8 26be 51aa 663c 17f5 8abd 984a 873e
00000050: f101 5c3d 2e22 f1bd 0b27 1e3d d1c6 10be
00000060: a38d 5b3d 4d77 143e d22e dc3d 45ab 52be
00000070: bf10 ee3b b093 d6bd f2e0 8a3a 3594 473d
00000080: adca 8abe a40b 8f3d 6d10 bfbb 540a 49be
00000090: 0cc4 593e 9610 833d 17c6 bebb ae03 493d
000000a0: afad 093e 5d5c 1ebe 2768 18be bfb2 8dbe
000000b0: ad0e 9abe 5bab 42be 00f9 213d e37a ef3c
000000c0: b919 28be e8e6 c5bd fc82 913e d879 fabd
000000d0: ca67 bd3d 29b2 83be 9758 763e 9336 a43d
000000e0: 417c cdbd b155 593d 319c 573e c983 39be
000000f0: 7ff8 953e 6414 213c 1d59 b23b 68d6 04be
00000100: 4d4b da3d ccdb 253e 30f7 e6be cebd 22bd
00000110: 2bfc 31be 0b4e 85be 6f37 cfbe 06f1 003e
00000120: f9ed 75bc a48b 3abe 7502 73be 33be c0bc
00000130: 0ea6 a6bb 682e 79bd 60cb 3c3d fa4c 4d3d
00000140: 5a35 3c3e 76ec 69be b492 33be 88f7 62be
00000150: a553 b8bd f28f ff3d c5ab 7f3d 0c0e 6bbd
00000160: c850 35be b144 7cbd 6b33 99bd d51d 423e
00000170: 2659 32be e88f 53bd d183 44be 1485 d4bd
00000180: 2ec0 4f3e 3699 a53d c42f 323e 8d7d 983e
00000190: 105d 0ebe a8a3 52bd b6a5 00ba 1f97 3dbe
000001a0: 9a85 a1bd 440c 8e3d c983 593e b2cd 803e
000001b0: d8f9 da3d 2f61 983d 66b9 d6bd 8ca1 d73d
000001c0: 37b4 253e e8cb c0bb 77d8 f6bd 9c9b f53c
000001d0: a047 0fbe dacb 18be 53ab 2abe 5bef 4d3e
000001e0: 046f 263e 128f d93d 03c4 133e 2322 86bd
000001f0: 396b 34be 45be ae3d 5732 0e3e 2ff4 3a3e
00000200: 966b 0f3e 2e06 ddbd f527 81bd 6e57 8c3d
00000210: 7b4e 113e 6414 593e c8ff ee3c 6f29 1c3e
00000220: 232e 1a3e 7829 8f3d 5bd9 093e 36e2 373e
00000230: a950 e53d 917d f23d c678 77bd 642a 77be
00000240: e00f 823e 6fa1 ae3d 7532 48bd 12cc ba3d
00000250: 14bc 0d3c 72a4 69bb a167 69bc 1b28 8dbd
00000260: a2d8 8b3d 7aed f4bc ae41 2ebe 13eb 2dbd
00000270: 96d8 d8bd 2d7b f6bd 1332 41bc a217 773d
00000280: 7bee 46be d511 30be 1640 27be ab1e 923e
00000290: 4339 503c b81f 1c3e cfc3 cd3d 9249 853d
000002a0: a13d 8cb9 b1be a53d db06 d43d 1136 c73d
000002b0: 7baf 19be 9cb5 33be ec1c 59be d7b1 52be
000002c0: c1fc 3c3d 84ee c23c 50ce bbbd 4799 483e
000002d0: ad94 1f3c c0a4 293e dd95 2d3e 7b01 3ebd
000002e0: 0c4b b0bd 4eaa 5ebd e9e9 01be add9 4f37
000002f0: 87df 9abd 2a5e f33c e887 af3d 090f e93d
00000300: ccc9 573e 07aa 3f3e 650f d73c 5031 3e3c
00000310: 2848 e63d 4658 023e e409 873e b157 0cbb
00000320: 96b4 4cbe 1473 1d3e f654 c23d 7a36 5e3e
00000330: 356f 093e f32a 383e 898a 5f3e 0d0c eebd
00000340: aa4d 92bd f161 a6b9 2879 c3bd d66e 98bd
00000350: 200c 04bd 8bb8 4ebe c39f a2bd 9785 e4bd
00000360: e55d 593d 49bc bd3c 632b de3d 4456 0dbe
00000370: 6edc 243c 82bf a43c 9377 b7bd 1126 553e
00000380: 5a5c b4bd 7d28 113d 8885 9ebc d804 51be
00000390: 9e20 7f3d c7af 44bd 6be5 49bd 683e 013e
000003a0: e0db 39be 00fe 263d 05ce 5abd d11c 4dbe
000003b0: 6b54 d5bd bd27 4abe 728e 8c3d b3ff 23be
000003c0: c5c7 32bd 26fe 3d3e a909 e1bd 9c7d 18be
000003d0: eed4 98bd 655c 6cbe 7a2c 60bc c90f 12be
000003e0: 6731 19be bbc9 f5bd 9f8d d0bd 33f5 c1bb
000003f0: 5f2d f5bd cac4 503d d6c4 71ba 0259 38be

network.2.bias f4 [64]
-0.122474395 0.084722295 -0.11443645 0.023431636 -0.024584973 -0.13087949 -0.07965965 0.016718421
-0.08627417 -0.13417143 0.035514668 -0.02738859 -0.04386851 0.11663072 -0.053048402 0.077858925
0.06473735 -0.021684233 -0.012775481 0.12301324 0.034873214 -0.046936907 -0.17872001 0.015828684
-0.025934828 0.105556235 -0.059800018 -0.0963009 -0.079170406 0.00021405068 0.01884993 -0.25633815
0.1989197 -0.047488693 -0.04842777 -0.055011526 0.015238643 -0.12098828 -0.13501953 0.10859524
-0.0057445127 0.06928825 0.050447334 0.048278872 -0.18874885 0.009406185 0.28526455 -0.05691341
-0.10531317 0.059448715 -0.08562079 0.049986977 -0.11550445 0.03812808 -0.10242069 0.08472945
0.105382316 -0.01491209 -0.005646196 -0.010734122 -0.15084954 0.027653532 -0.06801782 0.12317964
00000000: dbd3 fabd e282 ad3d a85d eabd b4f3 bf3c
00000010: 6d66 c9bc 4605 06be 9924 a3bd 12f5 883c
00000020: 83b0 b0bd 3c64 09be d477 113d 095e e0bc
00000030: 77af 33bd 16dc ee3d 4849 59bd 8074 9f3d
00000040: 0495 843d 22a3 b1bc 4050 51bc 5eee fb3d
00000050: 37d7 0e3d ea40 40bd 6102 37be 28ab 813c
00000060: 4775 d4bc de2d d83d ddf0 74bd 6839 c5bd
00000070: 1824 a2bd cb72 6039 2b6b 9a3c c13e 83be
00000080: 9bb1 4b3e 8183 42bd 335c 46bd c453 61bd
00000090: 80ab 793c b4c8 f7bd 8f42 0abe 2e67 de3d
000000a0: 773c bcbb ffe6 8d3d dda1 4e3d 11c0 453d
000000b0: 6147 41be 661c 1a3c 320e 923e 091e 69bd
000000c0: 6eae d7bd 7f80 733d f459 afbd 25bf 4c3d
000000d0: 998d ecbd 312c 1c3d f0c1 d1bd a286 ad3d
000000e0: afd2 d73d d751 74bc ba03 b9bb 2cde 2fbc
000000f0: 4d78 1abe a989 e23c ed4c 8bbd 9b45 fc3d

network.4.weight f4 [64, 64]
0.06040933 -0.022638865 -0.011591378 0.11647941 -0.0221505 -0.20321426 0.0065544774 0.012344468
-0.10615411 0.054515872 -0.20213206 -0.25062448 0.11723738 -0.29658884 -0.03153641 0.052815832
0.00696223 -0.026934095 -0.14928222 -0.12966955 -0.079067096 0.28321207 0.06309352 0.29445088
0.20136932 0.20499791 -0.043866355 -0.051157407 -0.10683959 -0.095790066 0.30033112 -0.2232237
-0.19419959 0.2769534 0.2799234 0.05525098 -0.029621743 -0.09301989 -0.12738596 0.0025186697
-0.05467571 -0.12963326 0.032656018 -0.13010988 0.32602203 0.16426386 0.025404898 0.1691005
-0.092978284 0.1260801 0.1001966 -0.0022528775 0.07205083 -0.124708064 -0.097427055 0.1858157
0.060699087 -0.038545117 -0.008736515 0.06104936 0.06450604 -0.069898546 0.0978492 0.09661989
-0.06849595 -0.089693256 0.032851107 -0.1684835 -0.20095965 0.25215715 -0.15210117 -0.32506457
0.03462008 0.0059158234 0.14149581 0.3273195 -0.1749805 0.093198344 0.21438114 0.25858405
0.06400251 -0.12882265 0.49539694 0.22162922 -0.25712636 0.10075108 -0.10659621 -0.26173192
0.08271202 -0.1619871 0.19360214 -0.19378287 0.18854928 0.15479718 -0.10926635 0.10890324
0.06726452 -0.19634886 -0.29164645 -0.02391742 -0.09009299 0.024533954 0.20632805 -0.2392315
0.0021380205 0.1424747 0.26930135 0.35355905 -0.32936198 -0.18019521 0.22340406 -0.09109986
-0.026356325 -0.2210879 -0.09349583 0.034805734 -0.22450271 0.14957222 -0.2385256 -0.27294135
0.00049724296 0.030340659 -0.03758483 -0.2669392 -0.11312027 0.24607886 0.13834967 -0.079170436
0.17082328 -0.14032505 -0.037904263 0.044088636 0.018484017 0.15703763 -0.00034759572 -0.23930103
0.015918463 -0.13906088 0.18420973 0.14252195 -0.07548856 0.14959003 0.11341019 0.10575831
-0.008756528 -0.20511849 0.464725 0.2031732 0.022520188 -0.17642751 -0.18275107 0.022295156
-0.17765486 -0.16920976 -0.072494425 -0.0948514 0.13963631 0.031377573 0.09854628 0.1587562
0.022666266 -0.11993577 -0.24899594 -0.009955772 -0.08611648 -0.036592107 0.10698645 0.050341662
-0.21592827 -0.07099575 0.07697675 0.12085566 -0.23375249 -0.03308054 -0.15610743 -0.17442894
0.059258953 -0.115716234 0.033647288 0.080206804 -0.069061734 0.17861843 -0.24425253 0.04814081
-0.0017372024 0.23754562 0.08152115 -0.14082909 0.11077727 0.1547264 0.125007 -0.113289155
0.30266437 -0.109675385 -0.30412266 0.1433 -0.053563315 0.23867726 0.08606194 -0.42812005
0.22698836 -0.12346835 0.18892752 0.11593334 0.23311333 -0.40294254 0.044986967 -0.07915536
-0.035412915 -0.17798454 -0.055779405 0.04197513 -0.23004557 0.054849986 -0.38036534 -0.14312491
0.09705494 0.043048356 -0.05065154 -0.1613721 0.22012264 0.3240485 0.04647245 0.07547014
-0.31542227 0.070600316 -0.22938101 0.030315397 -0.28979364 0.026033876 0.13579412 -0.21788418
-0.1627066 -0.21198511 0.09300633 0.046809312 0.052849904 0.022539727 0.21659367 -0.11699158
0.2258591 -0.00014589938 0.343137 -0.08583605 0.11754489 0.013063479 0.020969335 0.0021759283
-0.06331131 -0.09962125 0.0073342705 0.05290645 -0.2473247 0.19575682 0.24649215 -0.068492204
00000000: c66f 773d 2475 b9bc c3e9 3dbc c28c ee3d
00000010: f774 b5bc 6617 50be f1c6 d63b 7440 4a3c
00000020: 5367 d9bd 094c 5f3d b5fb 4ebe da51 80be
00000030: 271a f03d 7eda 97be 532c 01bd 6a55 583d
00000040: 6b23 e43b e4a4 dcbc 70dd 18be 18c8 04be
00000050: eeed a1bd 2c01 913e 2d37 813d 44c2 963e
00000060: c233 4e3e f9ea 513e 35ad 33bd 6e8a 51bd
00000070: b7ce dabd 952d c4bd 00c5 993e c194 64be
00000080: 42dc 46be d6cc 8d3e 1f52 8f3e da4e 623d
00000090: 4ca9 f2bc 3681 bebd 7771 02be 4410 253b
000000a0: a3f3 5fbd 95be 04be 51c2 053d 863b 05be
000000b0: 5cec a63e c934 283e ef1d d03c ae28 2d3e
000000c0: 666b bebd 241b 013e e033 cd3d 03a5 13bb
000000d0: 638f 933d f166 ffbd d687 c7bd 7946 3e3e
000000e0: 9b9f 783d 7ce1 1dbd 9a23 0fbc e50e 7a3d
000000f0: be1b 843d f826 8fbd 2965 c83d a6e0 c53d
00000100: 9b47 8cbd 19b1 b7bd e28e 063d f086 2cbe
00000110: 5ec8 4dbe be1a 813e 69c0 1bbe dd6e a6be
00000120: c9cd 0d3d 86d9 c13b 47e4 103e 6c96 a73e
00000130: 172e 33be c6de be3d bb86 5b3e 2165 843e
00000140: bf13 833d 16ea 03be aba4 fd3e c5f2 623e
00000150: 11a6 83be 9556 ce3d 1d4f dabd ba01 86be
00000160: eb64 a93d f2df 25be a43f 463e 046f 46be
00000170: 1013 413e 2783 1e3e 09c7 dfbd a908 df3d
00000180: fbc1 893d ad0f 49be af52 95be 77ee c3bc
00000190: ac82 b8bd 6efb c83c a947 533e 1af9 74be
000001a0: 081e 0c3b e3e4 113e dee1 893e b105 b53e
000001b0: 22a2 a8be 1885 38be 09c4 643e 9092 babd
000001c0: 38e9 d7bc de64 62be be7a bfbd 7590 0e3d
000001d0: 0ae4 65be 7629 193e 0e40 74be f8be 8bbe
000001e0: 6959 023a f98c f83c 8df2 19bd 41ac 88be
000001f0: 9aab e7bd 19fc 7b3e 89ab 0d3e 1c24 a2bd
00000200: 4cec 2e3e 5fb1 0fbe 8041 1bbd 4996 343d
00000210: cb6b 973c 79ce 203e 823d b6b9 540b 75be
00000220: 7067 823c fa65 0ebe 7aa1 3c3e 46f1 113e
00000230: bf99 9abd 212e 193e 9a43 e83d d097 d83d
00000240: 8a77 0fbc 950a 52be 6ff0 ed3e a30c 503e
00000250: 427c b83c 6aa9 34be 1923 3bbe 55a4 b63c
00000260: 28eb 35be 5345 2dbe f577 94bd 7341 c2bd
00000270: d2fc 0e3e c585 003d a2d2 c93d fc90 223e
00000280: 9bae b93c e3a0 f5bd cbf8 7ebe 891d 23bc
00000290: d65d b0bd 9be1 15bd b61b db3d 0f33 4e3d
000002a0: 4d1c 5dbe 3866 91bd fca5 9d3d 2c83 f73d
000002b0: d05c 6fbe 767f 07bd a0da 1fbe 809d 32be
000002c0: 84b9 723d a2fc ecbd bdd1 093d 7743 a43d
000002d0: 3d70 8dbd c0e7 363e 561d 7abe 4c2f 453d
000002e0: d7b2 e3ba 293f 733e 90f4 a63d 8035 10be
000002f0: 31df e23d 9970 1e3e d601 003e 2504 e8bd
00000300: d3f6 9a3e 7d9d e0bd f7b5 9bbe 3cbd 123e
00000310: 3565 5bbd d067 743e 3e41 b03d 8d32 dbbe
00000320: a36f 683e f9dc fcbd 3776 413e 756e ed3d
00000330: 43b5 6e3e 7c4e cebe 4144 383d 351c a2bd
00000340: 220d 11bd 9441 36be f278 64bd 1dee 2b3d
00000350: 1191 6bbe 61aa 603d 3fbf c2be 568f 12be
00000360: bec4 c63d 7953 303d fd77 4fbd ba3e 25be
00000370: d467 613e afe9 a53e e559 3e3d 1790 9a3d
00000380: 077f a1be e696 903d dbe2 6abe ff57 f83c
00000390: d55f 94be ff44 d53c 9d0d 0b3e 081d 5fbe
000003a0: 8f9c 26be a012 59be 1a7a be3d 1fbb 3f3d
000003b0: 2479 583d 3ca5 b83c bbca 5d3e 4899 efbd
000003c0: 9c47 673e 91fc 18b9 a7af af3e d0ca afbd
000003d0: 60bb f03d 3408 563c e2c7 ab3c 059a 0e3b
000003e0: 5ca9 81bd 3a06 ccbd 5254 f03b 6fb4 583d
000003f0: b042 7dbe 7a74 483e 7068 7c3e a445 8cbd

network.4.bias f4 [64]
-0.031562995 -0.09804934 0.057518438 -0.009783794 0.036730725 -0.036362592 -0.11235593 0.008783743
-0.08453632 -0.032270737 0.05186036 -0.018675875 0.13828136 0.11073604 0.14462265 0.012691553
0.14186993 0.07381102 -0.28429055 -0.09302429 0.04192629 -0.12800165 -0.1515648 -0.07608635
-0.15133649 0.2532767 0.099406086 -0.0067398534 -0.054596953 0.09759493 0.07042594 0.029184835
-0.21553469 0.07082712 0.10464599 -0.040454444 0.069923505 0.027994951 0.0065842546 -0.056317072
0.020929622 0.0193373 0.059340343 -0.10780436 -0.10450082 0.035868507 -0.26626793 -0.13830899
0.06796427 -0.019210901 -0.086753845 0.0636294 -0.093430035 0.044651996 -0.017581107 0.09720757
-0.114026114 -0.13774334 -0.005547414 -0.13353685 0.17700247 0.0010860766 0.141175 -0.1017509
00000000: 3348 01bd 18ce c8bd 7498 6b3d 354c 20bc
00000010: f572 163d f1f0 14bd de1a e6bd b0e9 0f3c
00000020: 6121 adbd 522e 04bd 876b 543d 26fe 98bc
00000030: a199 0d3e 94c9 e23d f617 143e 3bf0 4f3c
00000040: 5a46 113e 3b2a 973d 888e 91be 8583 bebd
00000050: e7ba 2b3d dd12 03be ce33 1bbe 29d3 9bbd
00000060: f4f7 1abe 7cad 813e 6b95 cb3d fdd9 dcbb
00000070: 0ea1 5fbd dadf c73d 7a3b 903d 0915 ef3c
00000080: 20b5 5cbe cf0d 913d a350 d63d 8fb3 25bd
00000090: 0e34 8f3d ab55 e53c bbc0 d73b bbac 66bd
000000a0: 9974 ab3c 4269 9e3c dc0e 733d 88c8 dcbd
000000b0: 8704 d6bd dbea 123d 4554 88be dfa0 0dbe
000000c0: da30 8b3d 2e60 9dbc 00ac b1bd 2250 823d
000000d0: 3f58 bfbd 03e5 363d 4106 90bc c314 c73d
000000e0: 8686 e9bd 970c 0dbe 15c7 b5bb e2bd 08be
000000f0: 2340 353e af5a 8e3a 2e90 103e c762 d0bd

network.6.weight f4 [64, 64]
0.08560359 -0.17813464 0.0151767945 0.016232992 0.00016508884 -0.004731097 -0.0028541696 -0.066337965
-0.104733005 -0.07753367 0.054194912 -0.10534422 0.17670108 0.016840471 0.14061853 0.070792
-0.10288438 0.067003414 -0.24901819 -0.012920079 -0.14155085 -0.0067461357 -0.049275376 0.22541167
-0.03247717 0.27135 -0.12792161 0.023923434 0.03072995 0.19185556 -0.2065377 0.047600262
0.058405127 0.10559188 0.11527866 0.10845663 0.08050848 0.006164236 -0.2113405 0.060491838
0.05394051 -0.13839142 -0.2506019 -0.15821536 0.12205789 0.07918561 -0.09075829 -0.28826928
0.04752087 -0.07412306 -0.046413705 -0.121556215 -0.18079852 -0.24250884 0.123876885 -0.0019843196
-0.20083722 -0.31360793 0.24188921 -0.05689116 0.19851658 0.028835587 0.30384287 -0.07084062
-0.05819234 0.17175338 0.20543669 -0.08980901 0.013671711 -0.014025415 -0.07563916 0.2000182
-0.09530595 -0.13793398 -0.26347804 0.2521777 0.23912139 0.069800995 0.19126254 -0.10379131
-0.19549578 0.024948554 -0.20806555 -0.11860701 0.05517314 -0.026180131 -0.24279286 -0.3133886
0.026029002 0.049246788 0.016013252 0.08563417 0.13193725 -0.035294168 0.11512768 0.24232027
-0.107374445 0.08742642 -0.0638245 -0.11185216 -0.001899108 0.26647106 0.20777561 0.17148265
-0.053263534 0.05062179 0.18098925 0.01832114 0.08858768 -0.076934025 -0.16331637 -0.17983161
-0.08410048 -0.21244015 -0.15772057 0.030756712 0.10878675 0.14888331 -0.13929921 0.21529645
-0.017654188 -0.06442203 -0.004669638 -0.33117914 0.0038912261 0.16020083 0.17965215 -0.061386302
0.01877484 0.17987478 0.010290368 0.01923941 0.099168174 -0.01967707 0.071853496 0.41959664
0.07327979 -0.14370143 0.03423568 0.06682004 -0.23422387 -0.08597037 0.16295323 0.13976574
0.017927386 -0.06946251 0.22967592 0.16707197 0.10715856 0.2126464 0.1955147 -0.15225181
-0.08295886 -0.065349355 0.0052935104 0.21370389 0.10168145 0.12901685 0.072509944 -0.09968481
0.13595448 -0.2120779 0.04121141 -0.12292235 -0.08939992 -0.069178596 0.22012019 -0.21045576
-0.2235292 -0.05445988 0.22831258 -0.033841807 -0.018522799 -0.17539006 -0.078333795 0.020563843
0.1068781 0.23673594 -0.007411284 -0.09310311 0.16626385 0.3485809 0.04552345 0.08602525
0.023711758 0.072694026 -0.08440835 0.13400577 -0.20132785 -0.13159427 -0.22175053 0.03633934
-0.21970494 0.070299484 -0.015844528 0.17042765 -0.09882155 0.04077941 0.019428091 0.23827308
-0.25386763 -0.12537108 -0.099481314 0.08599683 0.1752432 -0.016590737 0.07754715 0.20554084
-0.23628421 0.065188296 0.1519779 0.30601138 0.11206103 -0.1787607 -0.0808126 0.029359145
0.08602186 0.23770754 0.11364944 0.11102917 0.21479802 -0.14474618 -0.11962771 0.011413361
0.007217684 0.27537116 0.06714738 -0.11077115 -0.021981627 0.024122393 0.077355504 -0.011223454
-0.021586688 0.05579624 0.014220607 0.062388666 -0.16849582 -0.1735215 0.12041185 0.22534452
0.05430382 -0.0035171763 -0.1328736 0.07604093 -0.111164026 0.12393662 -0.03927507 -0.057638057
-0.12497447 0.2661491 -0.06548548 0.032478847 -0.02572553 0.15828969 -0.17980115 -0.17551957
00000000: ef50 af3d ed68 36be 17a8 783c 0dfb 843c
00000010: b31b 2d39 5107 9bbb 050d 3bbb 33dc 87bd
00000020: 427e d6bd f9c9 9ebd 7cfb 5d3d b6be d7bd
00000030: 21f1 343e 07f5 893c 4efe 0f3e 65fb 903d
00000040: 0cb5 d2bd 1639 893d a0fe 7ebe bdae 53bc
00000050: b5f2 10be b00e ddbb fad4 49bd 51d2 663e
00000060: c806 05bd 63ee 8a3e e2fd 02be 14fb c33c
00000070: 60bd fb3c c975 443e 9e7e 53be 7ef8 423d
00000080: 373a 6f3d 8e40 d83d 3817 ec3d 821e de3d
00000090: a1e1 a43d 5cfd c93b a569 58be 4ac6 773d
000000a0: b9f0 5c3d 7bb6 0dbe e44e 80be 3503 22be
000000b0: 7df9 f93d 112c a23d 7bdf b9bd 0898 93be
000000c0: 3ea5 423d d5cd 97bd 4c1c 3ebd 77f2 f8bd
000000d0: 3f23 39be 3d54 78be 2ab3 fd3d 5c0b 02bb
000000e0: 46a8 4dbe 3891 a0be ceb1 773e b406 69bd
000000f0: ee47 4b3e 9c38 ec3c 4b91 9b3e e314 91bd
00000100: 175b 6ebd 1ee0 2f3e ff5d 523e c9ed b7bd
00000110: 50ff 5f3c dbca 65bc b4e8 9abd 92d1 4c3e
00000120: c42f c3bd 913e 0dbe 98e6 86be 6f1d 813e
00000130: 3ddc 743e d3f3 8e3d 54da 433e 8a90 d4bd
00000140: 0c30 48be e960 cc3c 230f 55be 3be8 f2bd
00000150: 3bfd 613d b777 d6bc b19e 78be 7874 a0be
00000160: c63a d53c 00b7 493d 392e 833c f860 af3d
00000170: 8f1a 073e 9e90 10bd 10c8 eb3d ce22 783e
00000180: 22e7 dbbd 9f0c b33d 6bb6 82bd bf12 e5bd
00000190: 7eeb f8ba e56e 883e 21c3 543e 2699 2f3e
000001a0: dd2a 5abd cb58 4f3d 3f55 393e 3716 963c
000001b0: 756d b53d 968f 9dbd 683c 27be c725 38be
000001c0: df3c acbd e989 59be 8081 21be 80f5 fb3c
000001d0: 96cb de3d de74 183e 74a4 0ebe ac76 5c3e
000001e0: 849f 90bc b2ef 83bd c303 99bb 5090 a9be
000001f0: f103 7f3b b00b 243e bcf6 373e 3470 7bbd
00000200: b1cd 993c 1831 383e ef98 283c f89b 9d3c
00000210: af18 cb3d cf31 a1bc ed27 933d 5fd5 d63e
00000220: b713 963d 7826 13be b63a 0c3d f2d8 883d
00000230: 62d8 6fbe 3c11 b0bd 36dd 263e c01e 0f3e
00000240: 74dc 923c 5c42 8ebd 2a30 6b3e ea14 2b3e
00000250: f275 db3d fabf 593e 0135 483e e6e7 1bbe
00000260: 56e6 a9bd e2d5 85bd 2f75 ad3b 31d5 5a3e
00000270: 5d3e d03d fe1c 043e 1880 943d 8d27 ccbd
00000280: a737 0b3e f32a 59be 4ccd 283d b7be fbbd
00000290: 4e17 b7bd 82ad 8dbd 3067 613e b781 57be
000002a0: d7e4 64be 5311 5fbd c6ca 693e b59d 0abd
000002b0: 20bd 97bc 7499 33be 786d a0bd 8175 a83c
000002c0: e8e2 da3d e86a 723e 5bda f2bb d8ac bebd
000002d0: 1241 2a3e 3279 b23e cc76 3a3d 022e b03d
000002e0: 293f c23c 9be0 943d 49de acbd cf38 093e
000002f0: e328 4ebe a6c0 06be 9212 63be 8fd8 143d
00000300: 55fa 60be 2df9 8f3d 62cc 81bc 9684 2e3e
00000310: f462 cabd 5008 273d a927 9f3c dcfd 733e
00000320: f0fa 81be 4761 00be dcbc cbbd 1b1f b03d
00000330: f472 333e 4ce9 87bc 0ad1 9e3d 4c79 523e
00000340: 7df4 71be 7181 853d 18a0 1b3e 86ad 9c3e
00000350: 4180 e53d 0c0d 37be 1481 a5bd 9782 f03c
00000360: 3b2c b03d 9b69 733e 0ac1 e83d 4363 e33d
00000370: 03f4 5b3e 5838 14be 5fff f4bd 1bff 3a3c
00000380: 5282 ec3b 73fd 8c3e 9184 893d fcdb e2bd
00000390: d012 b4bc 539c c53c 906c 9e3d 94e2 37bc
000003a0: 91d6 b0bc 998a 643d 8cfd 683c 428b 7f3d
000003b0: 2b8a 2cbe 9faf 31be 7d9a f63d b7c0 663e
000003c0: af6d 5e3d 6d80 66bb 0410 08be 59bb 9b3d
000003d0: f7a9 e3bd 7cd2 fd3d e5de 20bd e215 6cbd
000003e0: 9df2 ffbd b244 883e 401d 86bd 8a08 053d
000003f0: 59be d2bc b116 223e cb1d 38be 67bb 33be

network.6.bias f4 [64]
0.13315013 0.14760733 -0.0010238382 -0.03542386 0.07385867 0.030752739 0.04289455 0.041924044
0.03772905 0.11655597 -0.09684592 0.08999647 0.036902424 -0.03572345 -0.06962351 -0.11112201
0.1143457 0.18853088 0.006046605 0.090175845 0.052535247 -0.026822083 0.08078238 -0.18674354
0.03240084 0.04971891 -0.025991108 -0.054958247 -0.17226334 -0.05764864 0.031595934 -0.017755153
0.08018192 -0.25690952 0.074048184 -0.042054374 0.019753233 -0.06752921 -0.008544493 0.20923956
0.078436874 0.06602993 0.07860599 0.06727844 0.10855968 -0.010467824 0.017884662 0.011822461
0.05066545 -0.011844109 -0.17912959 -0.046699736 0.05679551 -0.019095786 0.004911267 0.0132483505
0.06048665 0.022491444 -0.033710178 -0.09039558 -0.019747237 0.025322638 0.03681988 -0.25825083
00000000: 8258 083e 6026 173e 4f32 86ba 9c18 11bd
00000010: 3743 973d 2bed fb3c 32b2 2f3d 8cb8 2b3d
00000020: c789 1a3d e5b4 ee3d 2757 c6bd 1250 b83d
00000030: ff26 173d c152 12bd c596 8ebd f093 e3bd
00000040: 142e ea3d 3d0e 413e 9922 c63b 1dae b83d
00000050: 332f 573d fcb9 dbbc 3c71 a53d b339 3fbe
00000060: beb6 043d 0ea6 4b3d 4eeb d4bc e61b 61bd
00000070: cd65 30be fb20 6cbd bd6a 013d 4173 91bc
00000080: 6b36 a43d a589 83be 93a6 973d 3541 2cbd
00000090: 88d1 a13c c14c 8abd 33fe 0bbc e542 563e
000000a0: 83a3 a03d b33a 873d 2dfc a03d 47c9 893d
000000b0: 8a54 de3d 3c81 2bbc db82 923c ffb2 413c
000000c0: 9386 4f3d cb0d 42bc bf6d 37be 3948 3fbd
000000d0: 69a2 683d c46e 9cbc b2ee a03b 9c0f 593c
000000e0: d9c0 773d fa3f b83c af13 0abd 5121 b9bd
000000f0: f5c4 a1bc 6c71 cf3c 71d0 163d 7439 84be

network.8.weight f4 [64, 64]
-0.07087389 -0.18440257 -0.03570352 0.22331007 0.24328296 -0.055724435 -0.045064945 0.20296958
-0.089748025 -0.00480108 0.005219699 -0.13666427 0.18185374 -0.035488185 -0.05303512 -0.13608164
-0.124800436 0.06746967 0.024353726 -0.008353709 -0.20780408 0.13768531 0.33915925 0.02865398
0.21752448 0.12741861 -0.12083805 -0.045436207 0.21152669 -0.33347747 -0.11666535 -0.053016335
-0.0053645335 -0.17578112 -0.04901809 -0.10416136 -0.20213911 -0.124051966 0.13960165 0.31469652
0.16337487 0.011619081 -0.15222791 -0.13274556 0.26454368 -0.2152929 -0.046638653 -0.0987957
-0.10663923 -0.13333164 -0.12320754 -0.013686033 -0.073428385 -0.06485751 0.046941884 -0.16265754
-0.019938163 -0.06053391 -0.2847361 0.17046812 0.08496398 -0.1943797 0.05284033 -0.26677716
-0.12583154 0.18678859 0.010691068 0.21367021 0.20088921 0.17045893 -0.021795753 0.023224395
-0.04109611 -0.252564 -0.03234732 0.28552267 0.09722201 -0.07198581 0.0029845724 0.18268766
0.1061513 -0.094375074 -0.00012517204 0.08433579 0.0043776697 0.04682337 -0.3296795 -0.04766092
-0.31487152 0.15061219 0.16577147 -0.051178228 0.06218347 0.0626373 0.13061462 -0.09283587
0.20261654 0.27901572 0.033544786 -0.0007519838 0.060178325 0.00980559 -0.024987092 -0.09247491
-0.24172887 -0.11824372 -0.119036496 0.082953274 -0.093466714 0.029068477 -0.0093518095 0.01457623
0.2032121 0.17873651 -0.0061978353 0.07159738 -0.016212245 0.05302241 0.08816079 0.17177191
-0.19955173 0.040346447 0.08831349 -0.21333608 -0.046460066 0.2641264 0.12772699 0.007458651
-0.21758795 -0.034867745 0.026600892 0.07912551 -0.11447393 0.17911677 -0.019828381 0.068164654
0.23414889 0.2596274 0.19476058 0.16061719 0.13425045 0.008947392 -0.018018145 0.22324137
0.049149804 0.31735897 0.13372244 0.33909047 0.13700555 0.12305218 0.06921695 -0.3702803
0.13319999 -0.11796173 0.096203536 0.057473958 0.011366496 -0.13858528 0.071321964 0.061173543
0.06980922 -0.06484668 -0.28608316 -0.2761383 0.0789814 -0.18732731 0.12334155 -0.044357732
-0.059348088 -0.10487435 -0.25254604 -0.086361334 -0.22077201 -0.1859733 0.07803963 0.14404182
0.12628457 -0.18994379 -0.10777327 -0.0042198584 -0.1826056 -0.1807336 -0.043868173 -0.16591746
-0.11145284 0.040425293 -0.052581426 0.13946612 -0.09093998 0.15549192 0.12853552 -0.19644083
0.17005076 -0.1383158 0.04829366 0.034687 -0.17334726 -0.091560364 -0.005537055 0.096513845
0.12791848 0.006023331 0.06244471 -0.0739936 0.21954565 -0.04074464 -0.005144204 -0.15004344
-0.26678717 0.21158755 -0.21072434 -0.015312836 0.06758553 -0.16088784 -0.13021342 -0.010669837
0.023554089 -0.19798003 -0.15213707 -0.12154079 0.053762775 0.10757021 0.05357944 -0.122741744
-0.1733365 0.06381336 -0.2245448 0.10613856 0.0638596 -0.17493872 0.17381321 0.089093976
0.11410951 -0.19742814 0.18264759 0.035778914 0.08423828 -0.07169986 -0.14964494 -0.11348725
0.0067397314 0.07992717 0.15513663 0.08063981 0.033425372 -0.047447782 -0.14392109 0.3019906
-0.2465308 -0.09656421 -0.1917303 -0.08169753 0.054464553 0.17229438 0.009850024 0.22638088
00000000: 5426 91bd 07d4 3cbe db3d 12bd 65ab 643e
00000010: 2b1f 793e 4e3f 64bd 0596 38bd 42d7 4f3e
00000020: d0cd b7bd 6152 9dbb 020a ab3b b8f1 0bbe
00000030: de37 3a3e 0f5c 11bd 5b3b 59bd fc58 0bbe
00000040: 5f97 ffbd 8a2d 8a3d 7781 c73c ffdd 08bc
00000050: 98ca 54be 61fd 0c3e 48a6 ad3e c0bb ea3c
00000060: bdbe 5e3e 067a 023e f179 f7bd 511b 3abd
00000070: 749a 583e 8fbd aabe 3eee eebd a827 59bd
00000080: f8c8 afbb f7ff 33be 31c7 48bd 8d52 d5bd
00000090: 8efd 4ebe f50e febd bcf3 0e3e e71f a13e
000000a0: be4b 273e f55d 3e3c a2e1 1bbe 74ee 07be
000000b0: 4572 873e be75 5cbe 2c08 3fbd 6655 cabd
000000c0: ab65 dabd 1788 08be 3c54 fcbd 623b 60bc
000000d0: 9f61 96bd 04d4 84bd 2246 403d b38f 26be
000000e0: 5c55 a3bc 68f2 77bd eec8 91be 328f 2e3e
000000f0: 9801 ae3d 790b 47be 1a6f 583d 0497 88be
00000100: fcd9 00be 8245 3f3e 9729 2f3c 5dcc 5a3e
00000110: e7b5 4d3e c98c 2e3e 028d b2bc 1641 be3c
00000120: 6554 28bd 1250 81be a07e 04bd 0730 923e
00000130: 551c c73d 4c6d 93bd d198 433b 7912 3b3e
00000140: da65 d93d b847 c1bd 9d40 03b9 3eb8 ac3d
00000150: 8e72 8f3b ddc9 3f3d c0cb a8be 1938 43bd
00000160: d736 a1be 153a 1a3e ffbf 293e 43a0 51bd
00000170: 18b4 7e3d fc47 803d d7bf 053e bc20 bebd
00000180: b67a 4f3e 26db 8e3e 4266 093d c720 45ba
00000190: 8c7d 763d a0a7 203c bbb1 ccbc 7c63 bdbd
000001a0: c687 77be c329 f2bd 68c9 f3bd 68e3 a93d
000001b0: 7a6b bfbd 0421 ee3c 5538 19bc 24d1 6e3c
000001c0: d516 503e b406 373e 3617 cbbb a6a1 923d
000001d0: 8bcf 84bc 072e 593d a58d b43d fae4 2f3e
000001e0: 4a57 4cbe 5142 253d b4dd b43d c674 5abe
000001f0: e94c 3ebd 933b 873e ddca 023e b367 f43b
00000200: 60cf 5ebe 7bd1 0ebd 1dea d93c 8e0c a23d
00000210: 4f71 eabd 636a 373e 216f a2bc e999 8b3d
00000220: bac4 6f3e e2ed 843e 516f 473e d578 243e
00000230: f378 093e 1598 123c ca9a 93bc 6399 643e
00000240: 4e51 493d e07c a23e 89ee 083e 449d ad3e
00000250: 2f4b 0c3e c802 fc3d 9ec1 8d3d 6195 bdbe
00000260: 9465 083e eb95 f1bd 5c06 c53d d069 6b3d
00000270: 8a3a 3a3c 4de9 0dbe 4011 923d 1c91 7a3d
00000280: 23f8 8e3d 56ce 84bd 7e79 92be 0062 8dbe
00000290: 00c1 a13d bbd2 3fbe 7f9a fc3d 74b0 35bd
000002a0: fb16 73bd 5dc8 d6bd b74d 81be 36de b0bd
000002b0: 0f12 62be c96f 3ebe 3ed3 9f3d b37f 133e
000002c0: be50 013e a080 42be 3bb8 dcbd bd46 8abb
000002d0: f6fc 3abe 3b12 39be 1daf 33bd 44e6 29be
000002e0: 6341 e4bd fe94 253d 9f5f 57bd 35d0 0e3e
000002f0: bd3e babd 4639 1f3e d19e 033e c927 49be
00000300: c921 2e3e a8a2 0dbe 93cf 453d f513 0e3d
00000310: f281 31be 0084 bbbd 2f70 b5bb 0da9 c53d
00000320: 10fd 023e 5d5f c53b 06c6 7f3d f589 97bd
00000330: 93d0 603e dae3 26bd b690 a8bb fda4 19be
00000340: 5498 88be 68aa 583e 1fc8 57be b0e2 7abc
00000350: 486a 8a3d c8bf 24be ab56 05be 8ad0 2ebc
00000360: 81f4 c03c 47bb 4abe d2c9 1bbe 61ea f8bd
00000370: 5b36 5c3d c54d dc3d 1d76 5b3d 0660 fbbd
00000380: 207f 31be 94b0 823d 12ef 65be 2c5f d93d
00000390: d2c8 823d 2323 33be 17fc 313e e776 b63d
000003a0: 3fb2 e93d 9a2a 4abe f807 3b3e e98c 123d
000003b0: 1f85 ac3d 60d7 92bd 863c 19be 016c e8bd
000003c0: f7d8 dc3b dbb0 a33d 23dc 1e3e 7c26 a53d
000003d0: 0be9 083d 9b58 42bd 0d60 13be 839e 9a3e
000003e0: 9272 7cbe 75c3 c5bd f354 44be 0951 a7bd
000003f0: 3916 5f3d f06d 303e ff61 213c 64d0 673e

network.8.bias f4 [64]
0.11706981 -0.09944247 0.025865316 -0.04542139 0.06961522 -0.1539569 0.07966778 0.16060692
-0.00570312 0.043149445 0.077834174 -0.028215364 -0.040737417 -0.25726682 0.033601023 -0.038987156
0.06753823 -0.00018705195 -0.27658328 -0.037247736 0.14693771 -0.06452705 -0.123167224 -0.00931428
-0.18219008 -0.061431665 0.10982813 0.050977405 0.2322258 0.012350721 0.06571353 0.062256474
-0.10714067 0.041997213 -0.025685351 0.092293225 -0.056621548 0.04240962 -0.058442004 0.0764476
0.013850414 -0.035709955 0.029562645 0.036482114 0.036455825 0.11848427 0.053469818 -0.12246168
0.118762575 -0.19170138 -0.06295078 -0.017527012 0.031886104 0.16078003 0.03609614 0.030197786
-0.10565831 0.014257886 0.050277453 0.013985436 -0.09700654 -0.014042731 0.008798186 -0.0060569993
00000000: 4cc2 ef3d 7ea8 cbbd 80e3 d33c c80b 3abd
00000010: 6d92 8e3d e1a6 1dbe dc28 a33d 2476 243e
00000020: 3de1 babb 79bd 303d 8667 9f3d e823 e7bc
00000030: 47dc 26bd 7ab8 83be 3aa1 093d ffb0 1fbd
00000040: 7c51 8a3d 6023 44b9 539c 8dbe 1591 18bd
00000050: d776 163e c226 84bd 193f fcbd ec9a 18bc
00000060: 0990 3abe c59f 7bbd 92ed e03d afcd 503d
00000070: 9acc 6d3e ae5a 4a3c d194 863d a500 7f3d
00000080: 916c dbbd 4505 2c3d 166a d2bc 3b04 bd3d
00000090: ffeb 67bd b6b5 2d3d e260 6fbd 8f90 9c3d
000000a0: d9ec 623c 9a44 12bd 5c2d f23c 456e 153d
000000b0: b452 153d e2a7 f23d 2b03 5b3d 30cd fabd
000000c0: cb39 f33d 5e4d 44be 57ec 80bd cf94 8fbc
000000d0: 019b 023d 85a3 243e 8cd9 133d 5961 f73c
000000e0: 6263 d8bd e999 693c bbef 4d3d 2c23 653c
000000f0: 5dab c6bd 7c13 66bc 4426 103c cb79 c6bb

network.10.weight f4 [64, 64]
0.14853272 0.15553126 -0.08540548 -0.13345636 0.26517406 -0.014833133 -0.1003821 -0.16962107
0.017702147 -0.037390128 0.07201573 -0.03126801 0.11675785 0.047278803 0.07532081 -0.070665345
-0.17343837 0.1367387 0.18483038 -0.051692586 -0.11645795 0.2515352 0.10662187 -0.11440806
-0.16223963 -0.04796682 -0.033864412 -0.048482876 0.0022771447 0.21983083 0.0925348 -0.0904691
0.095533654 -0.17394087 0.072231844 0.2565838 0.16918465 0.2869239 0.11309906 0.11198083
0.0489364 0.15465596 0.34006262 -0.15934455 -0.0076284907 0.11359971 -0.020036237 0.043379445
-0.006515767 0.054609768 -0.011337562 -0.17818557 0.15063955 -0.13179548 0.19200811 0.046990495
-0.21135436 0.14059383 -0.07275736 -0.090135574 -0.075991854 0.09717152 0.17352621 -0.07402236
-0.022867808 0.21991326 -0.00048049126 0.060491163 0.13507234 0.026393738 0.017727174 0.069360234
-0.025320547 0.10255166 -0.25836134 -0.04337665 0.055762473 0.111348875 -0.12458737 0.025692042
-0.079334065 0.14558849 0.22954987 0.16974986 -0.057510823 -0.11923366 -0.032668885 0.22487077
0.024116045 -0.019256841 0.17975432 0.14860453 -0.014161721 0.10872721 -0.0065095443 0.1686568
0.13067397 -0.06686417 -0.021384101 -0.0922285 -0.039613962 0.12337927 -0.013160154 -0.15252633
0.00026911122 -0.14269659 -0.03631922 -0.09123411 -0.06301075 0.21046099 0.2606247 0.1663359
0.16026914 -0.029650688 0.09101913 -0.10468094 0.18914746 -0.07068869 0.16079047 0.13354646
-0.089128666 0.1775912 -0.058819108 0.040681217 -0.17179792 0.0972109 0.11774615 0.23427199
-0.13639611 0.011597685 -0.08412872 -0.07226154 0.1277642 0.10440052 -0.36543298 0.2699571
-0.034903422 -0.027702535 -0.25826424 0.18891159 0.0802998 -0.17292762 0.04169266 0.24758615
-0.15291533 -0.3046137 0.07968377 0.17859432 -0.15048023 -0.10511029 -0.13790238 0.14794353
-0.016083987 -0.23963858 0.13515495 -0.20122021 0.15161704 -0.0022586419 -0.26880223 -0.38028616
-0.33883867 0.057001896 0.14714523 -0.16472815 -0.013019454 -0.44723514 -0.008461106 0.26567385
0.20664129 0.040222846 0.3311839 -0.17569195 0.06646765 -0.35912108 -0.05211912 -0.34290892
0.077271774 0.01045696 -0.02996044 -0.1822955 0.02538473 0.3742509 0.04761011 -0.030593738
-0.009923351 0.0063784663 0.10642096 0.33684838 -0.14159228 0.0060533895 -0.41847286 -0.2600253
0.044220034 -0.22529566 0.06770447 0.13956156 0.048401684 0.12871473 -0.2034146 -0.11530161
-0.18025453 -0.052813414 0.1333417 0.08444168 0.14368515 -0.1542774 -0.26480028 -0.042683452
-0.1124389 0.18893181 -0.11570992 0.21607006 0.059724092 0.02990086 -0.088152185 -0.35504386
-0.20039907 0.09959449 -0.037286203 -0.10771612 -0.12885273 -0.0094278045 0.14498879 0.101744846
0.10120045 -0.13063575 0.13116133 -0.25833112 -0.19626023 -0.06714741 -0.23814856 -0.19168554
0.08993378 -0.056658104 0.14549208 0.17769788 0.06353582 0.12409422 -0.28969696 -0.04804223
0.06696995 -0.05835031 -0.037748743 0.3308072 0.034633204 -0.059067816 0.28000173 0.25611028
0.18196811 -0.12341114 -0.037638564 -0.032558206 0.067518644 -0.18267205 0.07451462 0.07562567
00000000: f618 183e 9643 1f3e 11e9 aebd c9a8 08be
00000010: e5c4 873e ab06 73bc 2195 cdbd 25b1 2dbe
00000020: 1804 913c 6426 19bd fc7c 933d e312 00bd
00000030: bd1e ef3d 6ba7 413d cc41 9a3d feb8 90bd
00000040: d499 31be 3b05 0c3e 2d44 3d3e 9bbb 53bd
00000050: 8181 eebd 39c9 803e 915c da3d c64e eabd
00000060: 2522 26be db78 44bd 69b5 0abd fb95 46bd
00000070: 263c 153b 551b 613e e382 bd3d dd47 b9bd
00000080: 26a7 c33d 8e1d 32be 4aee 933d f45e 833e
00000090: be3e 2d3e b0e7 923e 7ba0 e73d 3556 e53d
000000a0: 8971 483d 225e 1e3e b01c ae3e 382b 23be
000000b0: 6bf8 f9bb f7a6 e83d 0923 a4bc a5ae 313d
000000c0: 3782 d5bb 7eae 5f3d 2fc1 39bc 4776 36be
000000d0: 4141 1a3e 65f5 06be c69d 443e 1b79 403d
000000e0: 476d 58be d4f7 0f3e d001 95bd 0099 b8bd
000000f0: 9ea1 9bbd dd01 c73d dbb0 313e 0999 97bd
00000100: 4555 bbbc f130 613e 72ea fbb9 95c5 773d
00000110: 6750 0a3e ae37 d83c 9438 913c bd0c 8e3d
00000120: 096d cfbc 9b06 d23d f047 84be b7ab 31bd
00000130: 3167 643d e10a e43d aa27 ffbd 1e78 d23c
00000140: e679 a2bd 2615 153e 1f0f 6b3e e8d2 2d3e
00000150: 7890 6bbd c730 f4bd cfcf 05bd 8644 663e
00000160: 038f c53c 86c0 9dbc 8411 383e c92b 183e
00000170: 9006 68bc 5fac de3d 044e d5bb 5eb4 2c3e
00000180: 66cf 053e 15f0 88bd b62d afbc 4ce2 bcbd
00000190: 4042 22bd 45ae fc3d b09d 57bc dd2f 1cbe
000001a0: 7f17 8d39 0e1f 12be 76c3 14bd f3d8 babd
000001b0: c80b 81bd 1683 573e 9a70 853e f553 2a3e
000001c0: 981d 243e 00e6 f2bc 3d68 ba3d f662 d6bd
000001d0: dfaf 413e 3bc5 90bd 42a6 243e 67c0 083e
000001e0: 1789 b6bd 78da 353e 4eec 70bd 59a1 263d
000001f0: cbeb 2fbe 8216 c73d e524 f13d ffe4 6f3e
00000200: 6cab 0bbe 3704 3e3c ae4b acbd dcfd 93bd
00000210: 9ed4 023e f1cf d53d 081a bbbe d137 8a3e
00000220: e4f6 0ebd 6df0 e2bc 363b 84be 0a72 413e
00000230: 3974 a43d f013 31be ecc5 2a3d 3987 7d3e
00000240: d695 1cbe 54f6 9bbe 3f31 a33d 6ee1 363e
00000250: 7d17 1abe 1044 d7bd 4836 0dbe 827e 173e
00000260: 91c2 83bc d163 75be 0f66 0a3e ac0c 4ebe
00000270: 7f41 1b3e b905 14bb 72a0 89be deb4 c2be
00000280: 437c adbe d27a 693d 3dad 163e 7fae 28be
00000290: 8c4f 55bc 01fc e4be 73a0 0abc 6706 883e
000002a0: c699 533e b6c0 243d f090 a93e 97e8 33be
000002b0: 3120 883d b8de b7be dc7a 55bd c291 afbe
000002c0: aa40 9e3d ab53 2b3c 996f f5bc acab 3abe
000002d0: a3f3 cf3c d09d bf3e d202 433d b89f fabc
000002e0: 8d95 22bc 7402 d13b 3bf3 d93d 6477 ac3e
000002f0: 91fd 10be 835b c63b 1342 d6be 0922 85be
00000300: 1120 353d e8b3 66be a4a8 8a3d 3ae9 0e3e
00000310: d840 463d cbcd 033e eb4b 50be 4023 ecbd
00000320: a594 38be e152 58bd ba8a 083e c2ef ac3d
00000330: 3322 133e e5fa 1dbe e793 87be d8d4 2ebd
00000340: 5e46 e6bd 5777 413e 53f9 ecbd 7841 5d3e
00000350: 40a1 743d a6f2 f43c 2289 b4bd 4fc8 b5be
00000360: 6a35 4dbe 32f8 cb3d 6bb9 18bd 459a dcbd
00000370: f8f1 03be 1477 1abc f177 143e 9a5f d03d
00000380: 2e42 cf3d 61c5 05be 284f 063e fa43 84be
00000390: 71f8 48be 9584 89bd 37dd 73be 3749 44be
000003a0: 342f b83d 5412 68bd e0fb 143e 6ff6 353e
000003b0: 111f 823d 1c25 fe3d 2953 94be eec7 44bd
000003c0: 8b27 893d bc00 6fbd 6d9e 1abd 905f a93e
000003d0: 8cdb 0d3d 18f1 71bd 635c 8f3e e320 833e
000003e0: d955 3a3e fbbe fcbd e52a 1abd c15b 05bd
000003f0: 3747 8a3d 620e 3bbe 1f9b 983d a2e1 9a3d

network.10.bias f4 [64]
0.009198661 -0.099137336 0.061092634 -0.100771874 -0.10928221 -0.12176224 0.012661478 0.2630345
-0.18807623 -0.05330917 0.10881514 -0.0022005958 0.084386475 0.003957841 0.1275566 0.012048987
-0.06303465 -0.020393392 -0.08561333 -0.24005684 -0.13148959 0.14045277 -0.123734064 0.06768095
0.1095274 -0.025096726 -0.033772923 -0.030148348 -0.035185084 -0.030351533 -0.03351216 0.09185528
-0.15065272 -0.07420499 -0.082038224 0.07807997 -0.03236812 0.18642692 0.21147077 0.15513287
0.16977441 -0.10763194 0.073505506 -0.3454314 0.03239916 -0.03866807 0.030840527 -0.023317194
-0.13964602 -0.100192 -0.22176881 0.049903832 0.09248113 0.002336478 -0.18857896 -0.01327444
-0.012325368 0.16870031 -0.070452474 -0.033843763 -0.033578616 0.033757184 0.07101248 -0.2600624
00000000: fbb5 163c 8408 cbbd 453c 7a3d 7c61 cebd
00000010: 5acf dfbd 7b5e f9bd 1672 4f3c 75ac 863e
00000020: 0e97 40be b75a 5abd 79da de3d df37 10bb
00000030: d1d2 ac3d c7b0 813b 339e 023e 1d69 453c
00000040: 5018 81bd 0b10 a7bc 0b56 afbd 76d1 75be
00000050: 35a5 06be dad2 0f3e 4968 fdbd 4f9c 8a3d
00000060: e74f e03d a697 cdbc 7a55 0abd abf9 f6bc
00000070: 3c1e 10bd c7a3 f8bc 0c44 09bd 9f1e bc3d
00000080: b544 1abe c9f8 97bd a803 a8bd 64e8 9f3d
00000090: 6f94 04bd b3e6 3e3e cb8b 583e 27db 1e3e
000000a0: 58d9 2d3e 226e dcbd 0e8a 963d 62dc b0be
000000b0: fbb4 043d 6962 1ebd 46a5 fc3c b303 bfbc
000000c0: 5eff 0ebe 7731 cdbd 5d17 63be f667 4c3d
000000d0: bf66 bd3d 991f 193b d81a 41be 097d 59bc
000000e0: 57f0 49bc c6bf 2c3e 6349 90bd c29f 0abd
000000f0: bb89 09bd f944 0a3d fe6e 913d e626 85be

network.12.weight f4 [5, 64]
0.209654 0.012725772 0.005614809 -0.14303806 0.07747409 0.17449689 0.0721212 -0.023822336
-0.013757902 -0.03787767 0.09724573 0.04061227 0.0333714 -0.032886922 0.00975877 0.05019355
-0.03510896 -0.23825327 0.023144038 0.0010182859 0.0066097225 0.053884324 -0.041095488 0.019221954
0.1118325 0.021509973 0.055934187 -0.0037363367 0.007820818 0.11709902 -0.011067948 -0.169212
0.011354523 0.0027059128 -0.10873496 0.09994868 -0.42689323 -0.034007315 0.061565164 0.06256764
0.009088031 -0.101728894 0.052444104 -0.30231237 -0.043147698 0.010592786 -0.027385177 0.00577401
0.013929208 -0.014017086 -0.36432132 -0.07277648 0.022493543 0.09648266 0.017058268 -0.048110895
0.069385976 -0.0734154 -0.00070052384 -0.17144252 -0.016940743 -0.0020517656 0.020173315 0.002056852
-0.15420376 0.088692546 0.0029171938 -0.085060924 -0.0049373806 0.07746997 -0.04945719 0.011038721
0.02056142 0.027027061 0.008232351 0.035626862 0.12307296 -0.07316564 -0.08282543 0.049304213
-0.05494317 0.069562666 0.00903116 0.017427037 -0.009658247 -0.053460974 -0.0127003165 -0.06904131
-0.060580004 0.003963129 -0.007318009 -0.014413917 0.0016207028 -0.044635206 0.0032472808 0.08143988
-0.025605422 -0.011743052 0.16479772 -0.12930764 -0.033538964 -0.107446715 -0.080838844 -0.06606613
0.022487089 0.14072947 -0.0073130694 0.0353661 0.021635832 -0.15106158 -0.043423653 0.0015180599
0.011272738 -0.046390146 -0.29695404 0.095332384 -0.02613487 -0.0955349 -0.062495165 0.06302893
0.12182336 -0.06554263 0.21532151 0.0776287 -0.07447545 -0.021626763 -0.02133011 -0.031508517
-0.32209158 0.1313665 -0.5295654 -0.020345684 -0.19288097 0.22021492 -0.09696327 0.3410558
0.3573109 -0.115263715 0.29504207 -0.57716405 0.08132155 0.12025355 0.07252143 0.43911818
0.16134879 -0.28049648 -0.034556344 -0.47723696 1.1250193 -0.18823406 -0.002118201 0.11997608
-0.19469032 -0.6821501 -0.1202386 -1.1507533 0.11808524 0.78267056 -0.6142704 0.015193199
0.51492107 1.4400148 -0.36455616 -0.42607394 -0.23529854 -0.08295141 0.21905988 -0.03189466
0.20025876 -0.31284374 0.58741033 -0.2936121 0.5803221 -0.11534154 -0.026581379 -0.25489923
-0.69669807 0.20498922 0.053082794 0.38093957 -0.13249162 -0.14080694 -0.4164694 0.3159935
-0.17274952 -0.009496073 -0.103625484 -0.058023766 -0.24399312 0.5377406 0.033491395 -0.6944917
0.12989792 0.071367994 -0.13373826 -0.30122674 -0.103253104 0.0054758172 -0.22281218 0.25861153
-0.31847945 0.69887936 -0.193484 0.3651378 0.07364347 -0.14648755 -0.6200555 0.09122439
-0.24743019 -0.29413316 0.7438847 -0.19124924 -0.012108118 -0.24248597 0.63425624 -0.3743439
-0.082886994 -0.28365403 0.16983216 -0.0565901 -0.80289865 0.21496964 -0.07172308 -0.0888022
-0.12885316 -0.0353896 -0.00892703 -0.24179529 0.04891994 0.23359403 0.027600214 0.18199807
0.5810705 0.0534522 0.088797845 -0.19357748 -0.09873925 0.023640221 0.45486876 0.005894805
-0.03610567 -0.21605271 -0.17633438 -0.05048398 0.18611452 0.28624108 -0.47512487 -0.08422256
-0.4040124 0.21758696 -0.103679635 -0.04163449 0.16398343 -0.7065418 -0.20061645 0.13468839
00000000: 8aaf 563e c27f 503c 6ffc b73b 9278 12be
00000010: bcaa 9e3d 50af 323e 48b4 933d 0f27 c3bc
00000020: d368 61bc 9e25 1bbd c528 c73d 0d59 263d
00000030: 73b0 083d 70b4 06bd 3fe3 1f3c c097 4d3d
00000040: 6ace 0fbd aaf8 73be 9198 bd3c 0178 853a
00000050: 5f96 d83b cfb5 5c3d be53 28bd 5c77 9d3c
00000060: 7008 e53d af35 b03c 3f1b 653d 54dd 74bb
00000070: e322 003c 9cd1 ef3d 5756 35bc e945 2dbe
00000080: 5208 3a3c af55 313b 6fb0 debd e5b1 cc3d
00000090: c091 dabe 414b 0bbd c12b 7c3d 7623 803d
000000a0: f7e5 143c 3d57 d0bd a1cf 563d b0c8 9abe
000000b0: a4bb 30bd 5d8d 2d3c e156 e0bc e833 bd3b
000000c0: 5537 643c eba7 65bc 5388 babe d60b 95bd
000000d0: 6144 b83c b398 c53d c8bd 8b3c ee0f 45bd
000000e0: 3c1a 8e3d d05a 96bd 5ca3 37ba a18e 2fbe
000000f0: 50c7 8abc ea76 06bb 8242 a53c 40cc 063b
00000100: 97e7 1dbe 70a4 b53d 642e 3f3b 6c34 aebd
00000110: c0c9 a1bb 93a8 9e3d 9f93 4abd c0db 343c
00000120: 6c70 a83c db67 dd3c fce0 063c 79ed 113d
00000130: ad0d fc3d ded7 95bd 61a0 a9bd 37f3 493d
00000140: 170c 61bd df76 8e3d 6ef7 133c 25c3 8e3c
00000150: a03d 1ebc e5f9 5abd fd14 50bc 8865 8dbd
00000160: bd22 78bd 23dd 813b e9cb efbb 5a28 6cbc
00000170: c36d d43a 68d3 36bd 55d0 543b f4c9 a63d
00000180: 76c2 d1bc ee65 40bc bcc0 283e 3969 04be
00000190: 2760 09bd 060d dcbd d68e a5bd ae4d 87bd
000001a0: d836 b83c 631b 103e 79a2 efbb 0bdc 103d
000001b0: a13d b13c e3af 1abe 00dd 31bd a3f9 c63a
000001c0: 4ab1 383c 9803 3ebd 5c0a 98be a03d c33d
000001d0: cb18 d6bc cda7 c3bd eefa 7fbd 5015 813d
000001e0: 877e f93d 373b 86bd 3e7d 5c3e ccfb 9e3d
000001f0: 9686 98bd 9c2a b1bc 7cbc aebc 130f 01bd
00000200: 30e9 a4be f184 063e 9991 07bf feab a6bc
00000210: 9782 45be 0580 613e ae94 c6bd de9e ae3e
00000220: 74f1 b63e 620f ecbd c10f 973e 06c1 13bf
00000230: ea8b a63d 7e47 f63d 1e86 943d 19d4 e03e
00000240: 9e38 253e 3c9d 8fbe f48a 0dbd 6758 f4be
00000250: a200 903f 6ec0 40be 84d1 0abb 05b6 f53d
00000260: e65c 47be 64a1 2ebf a83f f6bd e24b 93bf
00000270: add6 f13d 195d 483f d340 1dbf e5ec 783c
00000280: ded1 033f 6852 b83f 1ba7 babe 5d26 dabe
00000290: 1af2 70be 6ee2 a9bd 3c51 603e faa3 02bd
000002a0: a210 4d3e 0e2d a0be 8660 163f 5354 96be
000002b0: fd8f 143f 2f38 ecbd 31c1 d9bc 2782 82be
000002c0: ce5a 32bf b2e8 513e 586d 593d 830a c33e
000002d0: e2ab 07be b22f 10be 7a3b d5be e6c9 a13e
000002e0: 40e5 30be 6b95 1bbc 9939 d4bd 54aa 6dbd
000002f0: 55d9 79be 5ea9 093f 462e 093d 35ca 31bf
00000300: f603 053e 6229 923d aff2 08be 643a 9abe
00000310: 5d76 d3bd 7c6e b33b e028 64be bb68 843e
00000320: bd0f a3be c2e9 323f ab20 46be 57f3 ba3e
00000330: 63d2 963d d500 16be f5bb 1ebf dad3 ba3d
00000340: 575e 7dbe 9f98 96be 3a6f 3e3f d7d6 43be
00000350: 2161 46bc 3e4e 78be 9e5e 223f 01aa bfbe
00000360: a8c0 a9bd 1a3b 91be 7be8 2d3e 05cb 67bd
00000370: c48a 4dbf 0021 5c3e 8de3 92bd eedd b5bd
00000380: 15f2 03be aff4 10bd ad42 12bc 2f99 77be
00000390: 4660 483d 4633 6f3e d819 e23c b45d 3a3e
000003a0: 09c1 143f b2f0 5a3d a5db b53d 2d39 46be
000003b0: ce37 cabd 23a9 c13c 8fe4 e83e 3529 c13b
000003c0: 8ae3 13bd ec3c 5dbe 0091 34be 4ac8 4ebd
000003d0: ce94 3e3e 318e 923e 9143 f3be e17c acbd
000003e0: b7da cebe 1ecf 5e3e fd55 d4bd ed88 2abd
000003f0: 46eb 273e ecdf 34bf 666e 4dbe c1eb 093e

network.12.bias f4 [5]
0.31723097 -0.09671312 0.32082632 0.15324183 -0.013202199
00000000: 196c a23e 8711 c6bd 5943 a43e 6deb 1c3e
00000010: 094e 58bc
