2D_sheet_problem/models/plate_hole_update2.pth (torch, 90610 bytes, 14 tensors)

network.0.weight f4 [64, 2]
000000 2c e4 ac be e1 8c cd 3d be ca 89 3e 66 3d fe 3d
       -0.3376783 0.10036636 0.26912493 0.124140546
000010 44 a2 7c be c4 13 8e 3c 14 4b 85 3d 09 88 36 be
       -0.24671274 0.01734341 0.06508461 -0.17825331
000020 a4 f4 3e bb 3c 31 d8 3e c0 db bb 3e 9a ec d4 3e
       -0.0029137516 0.42225063 0.36691093 0.41586763
000030 32 67 cb 3c bd 56 0e 3f 77 c8 e3 3d f3 4c 13 3e
       0.02482948 0.556011 0.1112222 0.14384823
000040 f5 51 89 3e dd 43 9c be 82 df 16 be c8 84 bc 3e
       0.2682034 -0.30520526 -0.14733699 0.36820054
000050 a5 58 a0 3e ee 34 05 be 8b f0 13 be 33 1c b5 3e
       0.3131763 -0.13008472 -0.14447229 0.35373077
000060 48 72 fa bd dd 96 a8 bd 3c f8 85 bd 7e 5e f7 be
       -0.12228829 -0.082319 -0.065414876 -0.4831428
000070 b1 fa d5 be d7 9b df 3d eb 0a 8a be 41 6d ea bd
       -0.41792825 0.10918396 -0.26961455 -0.1144662
000080 50 7d 87 be 1a 44 ae bd c9 92 53 3e ec 61 c1 bd
       -0.26462793 -0.08509083 0.20661463 -0.09442505
000090 73 56 65 3e 1a d1 5f 3e 04 1d 9f 3e 10 e1 90 3d
       0.22396259 0.2185711 0.31076825 0.07074177
0000a0 5a d3 b5 3d 6e 36 7a be 33 e5 fa be 42 34 1a 3e
       0.08878203 -0.24434826 -0.4900299 0.15058997
0000b0 be ba 40 3e bb b3 f3 bd b2 a0 ab be e7 db 94 3e
       0.18821236 -0.11899515 -0.33521038 0.29074022
0000c0 c6 6e 58 3e af db 1a 3e 4a 34 aa be 8d 70 b2 bd
       0.21136007 0.15122865 -0.33243018 -0.087128736
0000d0 2e 82 af be 77 1e 96 be 2f 06 cf 3d 57 02 b7 3e
       -0.34279007 -0.29320118 0.10108601 0.35743973
0000e0 61 f1 a2 3e 57 ff ab be 39 49 3e be ba 6d 14 3f
       0.31824782 -0.33593246 -0.1858262 0.5797993
0000f0 b2 2c 1b 3d ef 8e 59 3e 86 8c 88 be 17 f3 b4 be
       0.03788442 0.21245931 -0.2666971 -0.35341713
000100 db 10 a8 3d 4b c3 16 bf 51 52 94 be 37 c1 21 3f
       0.0820634 -0.58891743 -0.28969052 0.6318545
000110 f1 0e 97 3e c8 fd 90 3e 1a dd ee bd 50 4f 2e 3d
       0.29503587 0.2831862 -0.116632655 0.042556107
000120 f1 c2 a3 be 8a 85 ac bd f7 1f 07 be b7 af 0d be
       -0.31984666 -0.08423908 -0.13195787 -0.13836561
000130 d4 98 d5 3e e4 9d cd be bb bb cd bd 92 0e fb 3e
       0.4171816 -0.40159523 -0.10045572 0.49034554
000140 40 a8 7b 3e 13 2b 70 3c 09 f0 78 be d7 f7 50 be
       0.24575901 0.014658707 -0.24310316 -0.20407043
000150 53 16 db 3e cb 3d b7 bd 44 39 81 3e 10 dc d9 be
       0.4279047 -0.08947333 0.25239003 -0.42550707
000160 4e 06 3b 3e e2 9a 67 3e 58 2b 55 be e9 cb 8e bd
       0.18264124 0.22617677 -0.20817316 -0.069724865
000170 5b 6d c0 3e 44 99 d8 bd 84 7e a6 3e b6 8e b6 3d
       0.37583432 -0.10576108 0.325184 0.08913939
000180 11 60 6f 3e 47 4a 07 be da 29 03 be 01 6b 98 be
       0.2337649 -0.13211928 -0.12808934 -0.29769138
000190 0f 2c dd be 0a e0 aa bd 1c 7d 46 be 5d 9e 7c bd
       -0.43197677 -0.08343513 -0.19383663 -0.061674464
0001a0 69 2e 05 3f 46 3b a6 be 76 ca 74 be 85 a0 aa be
       0.5202394 -0.32467097 -0.23905358 -0.33325592
0001b0 f1 48 94 be ab c7 1c be 55 89 e2 be 85 cf 17 3e
       -0.289619 -0.15310542 -0.442454 0.14825256
0001c0 e1 d5 f2 3d eb ed 07 bf 8e 1a 24 3d f8 93 a9 be
       0.118572004 -0.5309741 0.040064387 -0.33120704
0001d0 1a 29 6a be 3d d4 60 3e b0 82 a7 be 55 82 49 3d
       -0.22867242 0.21955962 -0.32716894 0.04919656
0001e0 df e2 61 3e bf d9 0f bf a1 ef 94 be 10 6c ef 3e
       0.220592 -0.5619163 -0.29089072 0.46762133
0001f0 19 ed 13 3d e4 11 62 3d 91 35 d6 3e fa 24 dd be
       0.036114786 0.055192843 0.41837743 -0.43192273

network.0.bias f4 [64]
000000 a6 a6 45 3e 39 69 19 be 85 0c 15 3e 16 eb 1b 3d
       0.19301853 -0.14981546 0.14555557 0.038065992
000010 2f fb 10 be 0e 32 b5 be b5 34 63 be 9b 23 ce bd
       -0.14158319 -0.3538975 -0.22188075 -0.10065385
000020 4f 37 18 bc f3 2f 2f be 67 61 0f bd fa 9e 00 be
       -0.00929053 -0.17108135 -0.035005 -0.12560645
000030 8b 43 09 3e f5 34 fb 3d 26 04 70 3e f0 73 6b 3d
       0.13404672 0.1226596 0.23439083 0.057483613
000040 3e 3b 49 3e c0 34 8f bd 95 29 9f bd 27 73 82 be
       0.19651505 -0.06992483 -0.07771603 -0.2547848
000050 48 55 8c 3d d3 8e 29 3e d0 02 d6 bd b3 4c 97 bc
       0.068522036 0.1655839 -0.10449755 -0.01846919
000060 5d ff e3 bd 27 6d 8f 3e db c4 ad 3e 62 01 45 be
       -0.11132691 0.28012964 0.3393925 -0.19238809
000070 81 d4 e1 b8 49 d9 3d be a7 fc 57 be 09 66 0c 3e
       -0.00010768418 -0.18539919 -0.21092473 0.13710798
000080 3a 7b 9d 3e 4a f5 6c be ae 25 a9 bd 0f 25 4d 3e
       0.30758077 -0.23140445 -0.0825914 0.20033668
000090 26 15 86 3e 0e 62 33 3e c7 15 7b bc 1d 0c 55 be
       0.2618801 0.17517874 -0.015325016 -0.20805402
0000a0 5d 7e b1 bd 34 86 93 3d cf 55 1c be 04 ba 89 bc
       -0.0866668 0.072033316 -0.15267108 -0.016812332
0000b0 f7 f8 1d be e4 95 f7 3d e8 5b 4e bd 90 8e e9 bd
       -0.15427004 0.12089136 -0.050380617 -0.11404145
0000c0 91 b5 0f be a9 14 2d 3e 3c 8c 2e 3e 3e ea 1a 3e
       -0.14034106 0.16902412 0.17045683 0.15128419
0000d0 fc 7e 20 bd f7 c4 9d 3e a9 9b a1 3d d2 ee 46 3e
       -0.0391836 0.30814335 0.07891018 0.1942704
0000e0 6d fc 55 3e fd e6 45 3e 65 9d ad bd ad f6 ea 3d
       0.20897074 0.19326396 -0.08477286 0.11472831
0000f0 40 68 81 3e 05 2e f8 bd 23 ad 8b bd 8e c0 46 bd
       0.2527485 -0.121181525 -0.068201326 -0.04852348

network.2.weight f4 [64, 64]
000000 0a 23 4b 3e 27 ab 72 be dc 53 38 3e a7 27 63 3e
       0.19837585 -0.23698102 0.1800074 0.22183095
000010 89 2e bd be d3 66 e0 be 15 d4 e4 bd 33 ac ff 3c
       -0.36949566 -0.4382845 -0.11173264 0.03121004
000020 dc 72 79 bd a6 d1 17 bf 99 d7 99 3d cb bd e8 bd
       -0.060900554 -0.59304273 0.07511825 -0.11364325
000030 44 55 f2 bc bd dc e1 3e 5e 31 1a 3b 0a 7f 83 3e
       -0.029581673 0.44113722 0.002352796 0.2568286
000040 e5 3f ae 3e a7 10 18 be 88 c7 59 be 30 bb e7 bd
       0.34033123 -0.14850102 -0.21267521 -0.11315
000050 c5 71 b8 3e e8 9c 8a 3c 94 d2 30 3e 31 2a 68 be
       0.360243 0.016920522 0.17267829 -0.22672345
000060 14 8b a5 3d 37 67 90 3e 36 96 0d 3e df 74 b0 be
       0.08083168 0.28203747 0.13826832 -0.34464166
000070 a5 bf 34 3e 0a 2e 46 bf 60 93 49 bd 02 13 64 3e
       0.17651232 -0.77414 -0.049212813 0.22272876
000080 74 81 36 3f f2 5d 0f bf 32 12 01 be e2 8e e0 3d
       0.7129128 -0.56002724 -0.12604597 0.10964753
000090 2b d9 27 3e ec 90 a5 3e 3d ef 1b bd 46 a7 03 bf
       0.16391437 0.3233713 -0.038069952 -0.51427114
0000a0 17 27 f4 3d 69 51 61 3e f9 dc 88 be b8 86 89 3e
       0.11921518 0.22003712 -0.2673109 0.26860595
0000b0 82 cc ac be 5c 4e 90 3e d6 5d 9b bc 7b 7d 9b be
       -0.33749777 0.28184783 -0.018965643 -0.30369172
0000c0 cf e4 9e 3d e3 3c f7 3e 65 95 8b bd 2d 90 f5 3c
       0.077584855 0.4828864 -0.06815604 0.029975975
0000d0 0d 2d db 3d be cf 38 3d 67 aa 1f 3d e5 00 70 3d
       0.10701952 0.045119993 0.038980868 0.058594603
0000e0 e2 f3 f8 3e 7a 6f 1b 3f 0f e1 a7 be 4a 4b 3a 3e
       0.48623568 0.60716975 -0.32788894 0.18192783
0000f0 28 36 ad 3e 66 a1 d2 be f3 e1 5c bd 5f a3 b3 3d
       0.3383038 -0.41138762 -0.05392642 0.08771395
000100 83 4e 02 be f6 69 dd 3d 9b 54 1a 3b 9c e7 f2 3d
       -0.12725262 0.10811226 0.0023548964 0.11860582
000110 a0 d6 ec 3d 77 d2 e5 3d cb 1e 0f 3e 65 90 f1 bd
       0.11564374 0.112217836 0.1397659 -0.11795119
000120 ec aa 63 be d4 cf 65 3e 0d 7d 57 3e 85 f2 7c 3e
       -0.2223317 0.22442561 0.21043797 0.24701889
000130 a0 17 3d be 47 7e 34 bd 56 50 ff 3c 1b 20 53 bd
       -0.18466043 -0.04406574 0.031166237 -0.05154429
000140 ce a7 b9 3c 98 e6 8c bd 9f 87 a9 3d cb a7 90 3d
       0.022663023 -0.0687992 0.08277821 0.07063254
000150 49 17 1d 3e c4 b0 fe bd 7c dd 21 3d 52 45 42 3e
       0.15340914 -0.12436059 0.039517865 0.18971756
000160 98 95 e7 bd 24 79 70 be 54 e4 f1 3c 73 6c 4c 3d
       -0.113078296 -0.23483711 0.02952782 0.049908113
000170 54 8f 2d be 44 33 29 3e c4 32 14 3b 6c 59 30 be
       -0.16949207 0.16523463 0.0022613266 -0.17221612
000180 33 26 21 be 24 d9 00 3d d8 9c 02 3d 69 19 ee 3b
       -0.15737228 0.03145708 0.03188786 0.0072662127
000190 de cb 80 be 10 e8 96 bd 56 40 61 be 48 d0 7e bd
       -0.25155538 -0.07368481 -0.21997198 -0.06221035
0001a0 be 60 0f 3e f0 24 25 3e 4f 5c 81 3b 7d 6e bb bd
       0.14001748 0.16127372 0.0039477716 -0.09151933
0001b0 64 22 40 3a 17 ce 31 be 1e 6f df 3b 15 61 7e 3e
       0.00073293434 -0.17363773 0.006818666 0.24841721
0001c0 53 f1 5f 3e 24 a7 56 3d c7 e4 e0 bb 84 08 52 be
       0.21869402 0.05240549 -0.00686321 -0.20511061
0001d0 e7 75 05 3e 9f 92 a3 3c 25 6c d4 3c e7 99 6f 3d
       0.13033257 0.019967375 0.025930474 0.058496382
0001e0 98 60 28 be cd 79 23 3d f0 2c 9e bb fa d1 1e 3e
       -0.16443098 0.03991108 -0.0048271343 0.15509787
0001f0 3f c9 70 3d 21 71 61 bd 42 45 6f 3d 59 52 29 3e
       0.058785673 -0.05503953 0.05841566 0.1653532
000200 cd 10 3c 3e 69 62 c4 bd 06 ac 0a 3d bc 73 e0 bd
       0.18365784 -0.09589083 0.03385546 -0.109595746
000210 83 d5 46 3e cb 25 52 3e 93 f7 12 3e 8f a5 9b 3d
       0.19417386 0.2052223 0.14352255 0.07599937
000220 31 23 97 3d e1 c2 5f bb 6e 44 2e be fc cb 16 be
       0.07379759 -0.0034143256 -0.17018291 -0.14726251
000230 1b e7 09 3e 9e c5 93 be fd e6 0c be 88 a1 d9 bd
       0.13467066 -0.28861707 -0.1375999 -0.10626513
000240 d3 18 b7 bd 71 b5 7a 3d 25 0f e6 3d dd 16 fa 3d
       -0.08940282 0.061208192 0.11233357 0.12211392
000250 86 97 e1 3d 51 bf 40 be f5 ff 3e be 31 04 8b 3e
       0.11015229 -0.18822981 -0.18652327 0.27151635
000260 23 14 38 3d 64 7c 9e 3d 7b 16 95 bd 9f 30 04 3c
       0.04494108 0.077385694 -0.072796784 0.008068233
000270 c0 7a f0 bd 62 1e 03 3d f6 41 59 bc ab 95 0a be
       -0.11742163 0.032011397 -0.013260355 -0.13533656
000280 f5 25 47 be 7d 2c 09 be 63 a8 a2 3b e8 72 3c 3e
       -0.19448073 -0.13395877 0.004963921 0.18403208
000290 5a 3e c1 bd d4 33 00 3e c4 9f 1a 3e 69 8d 80 3d
       -0.09435721 0.12519771 0.15100008 0.06276972
0002a0 43 e4 d6 bd 90 27 dc bd 11 dc 6f 3e 53 08 76 3c
       -0.10492756 -0.107497334 0.23423792 0.015016633
0002b0 3e ee 37 bd 5d d1 0a bd b4 fa 73 3d d3 aa ed 3d
       -0.04490494 -0.03389107 0.05956526 0.11604848
0002c0 c6 35 e7 bc 4c 08 34 be 3d b6 d0 3c 8f 25 18 3e
       -0.028223883 -0.1758129 0.025477523 0.14858077
0002d0 10 6f 13 3d 24 2d 24 3e 3c 26 ba bd f8 a6 e7 bd
       0.03599459 0.16032845 -0.09089324 -0.11311144
0002e0 4f 37 24 3d f6 d5 1d be 19 b6 e2 bd 8c 83 4c be
       0.04009181 -0.15413651 -0.110698886 -0.19972056
0002f0 d5 93 a2 bd dc d4 48 3e b4 e1 c1 bd 85 a3 fd 3d
       -0.07938353 0.1961245 -0.094668776 0.123847045
000300 1a 1f 90 bd 74 e4 84 3d 6a 8d d7 bd 63 5b 87 be
       -0.07037182 0.064888865 -0.105250195 -0.2643691
000310 49 b1 0d 3d 07 1f e0 3d d3 ca 93 3d 26 b6 2c 3e
       0.0345929 0.10943418 0.0721642 0.16866359
000320 5a 6e 2f be 33 f4 e3 bc a9 12 96 bd 51 28 77 3e
       -0.1713194 -0.027826404 -0.07327778 0.24136473
000330 59 4e 5b bd 5d 2b 2e be 05 29 80 3e 8e 97 64 be
       -0.053541515 -0.1700873 0.25031295 -0.22323439
000340 72 dd ac 3c 37 25 3f be c6 c6 02 3e b0 ae 7a 3d
       0.021101687 -0.1866654 0.12771139 0.06120175
000350 8a b5 66 bd 5c 98 fa 3d 5f 17 be 3d fb 13 7f bd
       -0.056325473 0.122360915 0.092818014 -0.062274914
000360 6e 1d 21 3c ba da 2f 3d 10 02 be 3d 35 8e 44 bc
       0.009833677 0.042933203 0.09277737 -0.011996795
000370 37 73 b1 bd fc 9f fd 3d b0 11 a2 3d 1c 32 2a be
       -0.086645536 0.1238403 0.0791353 -0.16620678
000380 7f 95 91 bd c5 a2 3f 3e 01 f8 8e 3e 90 f6 51 3e
       -0.07108592 0.18714435 0.27923587 0.20504212
000390 d3 f8 21 3b d2 c2 99 bc c0 18 77 be ca 58 9b 3e
       0.0024714961 -0.018769655 -0.24130535 0.30341178
0003a0 70 f1 29 be 7d 1a 24 3d be 5c c9 bd 12 a9 6f be
       -0.16596007 0.040064324 -0.09832142 -0.23404339
0003b0 83 43 8a 3e db b9 45 be 05 75 99 3c e5 cf f0 bd
       0.27004632 -0.1930918 0.018732557 -0.11758403
0003c0 65 42 27 be 8b f1 e0 3d a7 62 2e bd 19 d6 d7 3b
       -0.16333921 0.10983571 -0.04257455 0.0065868017
0003d0 2e d6 51 be a5 a0 c7 bd ab 9d 31 be 9a 88 6d 3e
       -0.2049186 -0.097474374 -0.17345302 0.2319664
0003e0 80 61 1a be e1 78 8b bd 30 36 eb bd 2b 3a 5d 3e
       -0.15076256 -0.06810165 -0.11484945 0.2160422
0003f0 4e b8 79 be 26 08 25 3e 2f 34 68 bd 1e 80 44 3d
       -0.24386713 0.1611639 -0.05669039 0.047973745

network.2.bias f4 [64]
000000 d2 f6 17 3e e4 0e f4 3c ba 5e a6 3d 89 f6 b3 3d
       0.14840248 0.029792257 0.081235364 0.08787257
000010 38 01 30 bc 50 9d 81 bd cb 14 a4 bd 61 66 b4 3c
       -0.010742478 -0.06328833 -0.080117784 0.022021474
000020 4f 25 78 3c 41 ed ef 3c 02 23 21 bd 27 fd e6 bd
       0.015145614 0.029287936 -0.039340027 -0.11278754
000030 39 31 27 3d d9 05 0a bc 66 15 15 3e 89 b9 84 3d
       0.040818427 -0.008424246 0.14558944 0.064807005
000040 14 13 cf 3c fb 9c d2 3d cb 5c 8a bd b3 31 02 bc
       0.025277652 0.10283848 -0.0675598 -0.0079464195
000050 0a 6c c1 bd 31 66 33 bd 83 35 f6 bb 69 20 01 3d
       -0.09444435 -0.04379863 -0.0075137033 0.03152505
000060 d3 88 91 3d 3c ac 50 bd 7b 0f be bd 6a de 99 3d
       0.07106175 -0.050945505 -0.092802964 0.07513125
000070 ea 26 5c bd 98 d7 7f 3d cb c0 06 bd 53 2e 50 bd
       -0.05374805 0.062461466 -0.032898705 -0.05082543
000080 51 d3 d1 3d 01 03 22 bd 80 29 19 bd 67 9f 83 3c
       0.102453835 -0.039553646 -0.037393093 0.01606722
000090 37 de 06 3d 70 b3 bd 3d 23 d8 cc bc 16 55 40 3c
       0.032926764 0.092627406 -0.025005406 0.011739036
0000a0 e7 9b 16 3d a6 3d 17 bc d7 70 c9 3c ea 4a 1b 3e
       0.036769774 -0.009231007 0.024589939 0.15165296
0000b0 7d d7 6f bd e6 1b 18 3c 46 de 3d 3d 2b 65 73 3d
       -0.058555115 0.009283995 0.046354555 0.059422653
0000c0 cb 22 a4 bd 65 7b de bd 69 47 1a 3c 76 12 38 3d
       -0.08014449 -0.108633794 0.00941644 0.04493948
0000d0 8f ef 30 be 14 56 c4 bd 93 a2 3c bd 9e 00 82 3c
       -0.17278884 -0.095867306 -0.04605348 0.015869435
0000e0 ae 95 45 bd d9 aa 33 bb 6e 7b 3c bd e5 5e 07 3d
       -0.04823845 -0.0027415066 -0.04601615 0.033049483
0000f0 7a bf c9 3d 1e f9 27 bd 5b 54 b2 3d 63 f4 85 3b
       0.098509744 -0.04100906 0.08707496 0.004087971

network.4.weight f4 [64, 64]
000000 68 c3 1c be 2a 70 0f bd 2e e6 f7 bd bd 3e d8 bc
       -0.15308917 -0.035019077 -0.1210445 -0.026397103
000010 72 af 50 3e cd 2a 7e be a5 6b 04 3e 69 79 85 3d
       0.20379427 -0.24821015 0.12931688 0.06517298
000020 44 00 5e be d8 8a 0f 3d 52 a9 b5 3b 20 ad 53 3e
       -0.21679789 0.03504452 0.005543866 0.2067151
000030 da fd ac bd 57 4c 16 3d e6 ed aa bd 40 75 9f 3d
       -0.08446856 0.036693897 -0.08346157 0.077860355
000040 5f f7 08 be 96 af d7 bd 82 54 79 3e 33 3d 00 be
       -0.13375615 -0.10531537 0.24348643 -0.12523346
000050 f1 da ac 39 fc 59 be 3b 18 50 59 3d a6 af 47 be
       0.0003296952 0.005809067 0.0530549 -0.19500598
000060 dd a2 37 3a 00 d0 3d 3c d1 a0 18 3e c7 5a eb bd
       0.00070051645 0.011585236 0.14905097 -0.11491924
000070 ba 90 12 3e 2e b3 18 3d 25 3e 38 bd a2 15 10 3e
       0.14313021 0.037280254 -0.04498114 0.14070752
000080 1c 31 07 be 22 e5 cc bd 4e 82 40 be 79 34 07 be
       -0.13202327 -0.10004641 -0.18799707 -0.1320361
000090 3f 83 58 bd f0 f9 29 be da 78 2c be 2d 3b 10 3d
       -0.05285954 -0.1659925 -0.16842976 0.035212684
0000a0 f6 e6 8c 3d ef 38 60 3e 04 57 eb bd 90 2c 3d 3e
       0.0687999 0.21896718 -0.11491206 0.1847403
0000b0 d1 ea 5f bc 63 e0 5b 3d 04 21 1d be 64 9e d5 3d
       -0.013666824 0.05368079 -0.15344626 0.10430601
0000c0 3f 33 19 3e bf bb f7 3d ec 6c 38 3d ae 5d 01 3c
       0.14960955 0.120963566 0.04502575 0.00789587
0000d0 eb ce 81 bd 0c c2 ff 3d 5c 0e ba 3d 92 97 f5 bd
       -0.063382946 0.124881834 0.0908477 -0.119918
0000e0 9c ae 99 3d 46 c5 bf bd 87 26 89 3d 4e ea 3c be
       0.07504007 -0.09363799 0.06696802 -0.18448755
0000f0 dc ab 44 3e da 65 ab 3a 8c 41 0f 3d 66 fd 40 be
       0.19206184 0.0013076619 0.03497462 -0.18846664
000100 37 3f 7f be 22 ba 11 3e 3a 5c 29 3e 19 88 25 3e
       -0.24926458 0.1423116 0.16539088 0.16165198
000110 71 dc 5a 3c 1a 27 f1 bd 9d 3b 65 3e cb ed 17 be
       0.013358221 -0.11775036 0.22386022 -0.14836805
000120 a1 f4 80 bd 36 ed ee 3e e9 8f 25 bc a5 64 05 be
       -0.06296659 0.46665353 -0.010105112 -0.13026674
000130 39 54 d5 3d 1f ea 2b be 39 8d ad be 77 a4 bc bb
       0.10416455 -0.16788529 -0.33896807 -0.0057569104
000140 52 c3 07 3e c6 56 25 3e 13 9f e8 3e 12 8c 7b 3e
       0.13258103 0.16146383 0.45433864 0.24565151
000150 8e 5d d8 bd ff 54 84 3e a0 ef 18 be 75 dd cf bd
       -0.10564719 0.25846097 -0.1493516 -0.101496615
000160 45 7e 25 3e 36 04 d6 bc 27 2b 86 3e 5c 13 1d 3e
       0.16161449 -0.026125055 0.26204798 0.15339416
000170 5f e4 40 3e 8c 2c 10 bd 78 5d eb 3d 91 6b 19 3e
       0.18837117 -0.035198733 0.11492437 0.1498244
000180 ab 76 97 be 47 53 bf 3c 42 36 af 3e 5a 09 a6 bd
       -0.29582724 0.02335514 0.34221083 -0.081072524
000190 0f dc 05 3c 75 34 3e be b1 24 b3 3e 6e 79 8b 3d
       0.008170142 -0.18574698 0.3498893 0.0681027
0001a0 f1 5f b5 be 92 e8 67 3d 4a 5c 3f bd b6 61 1c 3e
       -0.3542476 0.05661828 -0.046718873 0.15271649
0001b0 7a 2a df 3d b9 0a b1 be 9c 62 a7 bd af 05 56 be
       0.10896774 -0.34578493 -0.08173105 -0.20900606
0001c0 40 b6 16 3e 45 a2 98 3e 78 2a db 3d cd a4 fb 3d
       0.1471796 0.29811302 0.1070146 0.12287293
0001d0 7d eb f3 be d7 d5 73 3e 59 7e 3b 3d 17 05 38 3d
       -0.476406 0.23812042 0.04577479 0.04492673
0001e0 c5 31 50 bd 9a 5e f3 bc d3 3b 4f 3e ef 0c a3 3d
       -0.050828714 -0.029708195 0.20237665 0.07961451
0001f0 5d c0 8f bd bd 89 19 be be ce c9 bd 70 ce ac 3d
       -0.07019112 -0.14993949 -0.09853886 0.08437812
000200 0a 53 a0 be 41 c7 91 3e 3d 95 03 3d 4a 1e 99 3e
       -0.31313354 0.2847233 0.032124747 0.2990592
000210 78 00 1c 3d d6 e6 18 3e 4c 49 32 3e 6b 81 63 3e
       0.038086385 0.14931807 0.17410773 0.22217338
000220 5c d6 11 3e 8d 3b ad 3e 7e d1 db ba 26 fb 35 be
       0.14241928 0.33834496 -0.0016770808 -0.17771587
000230 f6 b9 8f 3d e0 7d 6e be f5 62 8e bd 8d 69 c6 3c
       0.07017891 -0.23290205 -0.06952468 0.024220252
000240 4e ae 87 3e 29 b4 67 3e 16 08 ad 3e 8c 03 8f 3e
       0.2650017 0.2262732 0.33795232 0.27932394
000250 be d2 9c bd a1 d3 9a 3e 02 07 90 bd 12 fb 9e 3e
       -0.076573834 0.30239585 -0.07032587 0.31050926
000260 9f dd 95 3e 75 01 90 be 28 28 4f 3e 29 1e 00 3e
       0.29270646 -0.28126112 0.20230162 0.12511505
000270 46 9d e9 3d 7e cb fd bd 8f e8 46 3d 3f 47 83 3b
       0.11406951 -0.12392329 0.04856163 0.004006296
000280 ca 22 a1 be f5 77 5e 3e 8a 44 9f 3e d7 d8 92 3e
       -0.31471854 0.21725447 0.3110698 0.2868106
000290 c6 b0 ae 3e f6 88 8c bd 5c 28 69 3e 37 cc 18 3e
       0.34119242 -0.06862061 0.22769302 0.14921652
0002a0 8b 3e 9a be 31 3e 63 be 38 7c 7f 3d 09 00 30 be
       -0.30125841 -0.22191693 0.062374324 -0.17187513
0002b0 bf d2 62 be 84 a7 99 be 31 54 5c 3c 6a 72 93 be
       -0.22150706 -0.30010617 0.013447807 -0.28798229
0002c0 86 34 8d 3e b0 85 20 3e c7 bb cc bd ef f7 20 3e
       0.27579135 0.15675998 -0.09996753 0.15719579
0002d0 51 68 a4 be ae 8f a8 3e c0 7f 96 be b8 b8 4f 3e
       -0.32110837 0.3292212 -0.2939434 0.20285308
0002e0 03 e1 6d 3c 0c df a8 be de e8 0c bd 89 8a e8 3b
       0.014518979 -0.3298267 -0.034401767 0.007096593
0002f0 c4 ee 05 be fc 11 aa 3d 06 91 bb bd a5 2e 16 bc
       -0.13079363 0.083042115 -0.091585204 -0.009166394
000300 1e f2 25 be d7 4a fa bd b0 c5 e6 3d 3d 7c 33 3d
       -0.16205642 -0.12221306 0.11268175 0.043819655
000310 35 12 30 3d 49 4a ba 3d 05 5e 67 be ed 17 ba 3d
       0.042986114 0.090962 -0.2259446 0.09086595
000320 8d b4 89 3d d6 ae e9 3c 2f c4 22 3e 96 f0 97 bd
       0.067238905 0.028525751 0.1589515 -0.07418935
000330 08 3c 6b bc 67 18 d9 3c 18 15 ce 3d 5a 8d 3c be
       -0.014357574 0.026500894 0.10062617 -0.18413296
000340 68 78 2d be 79 90 8e bd 3d 07 1e 3e c3 f1 00 3d
       -0.16940463 -0.0696115 0.15432449 0.031480562
000350 2d 76 4a 3d 25 84 1b bd 3c fc 61 3d 79 95 25 3e
       0.049429107 -0.03796782 0.05517219 0.161703
000360 75 b1 1b be 64 bc d7 3b 28 bf 14 be cd c9 58 bd
       -0.15204413 0.006583737 -0.14526045 -0.052926827
000370 61 74 1c 3e c0 4a 49 be 33 e0 96 3d 3f 16 a8 3d
       0.1527877 -0.19657421 0.07366981 0.08207368
000380 66 ef a3 bc 2c 91 bf bd ae 77 d6 3c ff 9f ad bd
       -0.020011615 -0.09353861 0.026180115 -0.084777825
000390 e1 76 b0 bd 9b a3 fc bc cf cc 4f 3d af 8a b1 3d
       -0.08616424 -0.030839732 0.05073243 0.0866903
0003a0 5b 34 29 bd f8 4b 0f bd 84 19 46 be 4c eb 49 be
       -0.041309696 -0.03498456 -0.19345671 -0.19718665
0003b0 b1 6f 9c 3d 9d 92 8f bd 92 d4 c9 3d 29 d8 2f be
       0.07638491 -0.07010386 0.09854998 -0.17172302
0003c0 27 ed 91 3d 2b c5 7c 3d 9b 29 28 bd 0a 66 89 3c
       0.07125311 0.06171147 -0.041055303 0.016772289
0003d0 35 d8 f9 bc 65 55 c4 bd 6c 44 ad bd 48 82 fa bd
       -0.030498603 -0.095866 -0.08460316 -0.122318804
0003e0 3b 32 aa 3a 7d e8 53 3e 12 a8 75 bd 6d 0f d6 3c
       0.001298494 0.20694156 -0.059974737 0.026130402
0003f0 bf b4 64 be 57 ff 8d 3d 78 bb 8a 3e 40 3c ff bd
       -0.22334574 0.06933468 0.27096152 -0.12462664

network.4.bias f4 [64]
000000 9c 1c ec bc d5 4f d0 bd a7 64 e8 bd a1 71 95 3c
       -0.028822236 -0.10171477 -0.11347323 0.018242659
000010 fe 24 a3 3c 79 6f db 3c 9f d1 4d bd 4e 70 0d 3e
       0.0199151 0.026786553 -0.05024874 0.13812372
000020 e0 90 78 3d f4 64 87 bd 39 85 05 3b 0d c9 72 3d
       0.06068504 -0.06611052 0.0020373596 0.05927377
000030 4f 06 ac bd a1 4d 27 3d 18 e4 a4 3d a7 63 ed 3d
       -0.08399641 0.040845517 0.08051318 0.11591273
000040 bf 21 86 3c 95 f6 55 3d 3a eb 33 bc 0e b8 99 3b
       0.016373513 0.052237112 -0.010981375 0.0046911305
000050 da d5 b7 3c 85 d5 4e 3e 19 54 10 3e 59 b8 4a bd
       0.02244084 0.20198639 0.1409458 -0.049492214
000060 54 ce 2f 3c 99 8c 08 be f0 13 36 3c dc 0c 15 bd
       0.010730345 -0.13334884 0.011113152 -0.036389217
000070 ac e4 e5 bc c8 36 8f 3c 37 d2 df bc 52 30 02 be
       -0.02806314 0.017482176 -0.027321918 -0.12713745
000080 c0 58 0d 3d 59 5c 05 be 1b ad 3d bd 31 4e 13 3d
       0.034508467 -0.13023509 -0.046307664 0.03596324
000090 6c 06 33 3d ad b5 35 3c 1a 3f 90 ba 44 90 a9 3c
       0.043707296 0.011090678 -0.0011005134 0.020698674
0000a0 fe 83 f2 3b 10 1f dd bc 17 7f bb bd 1e 6c 3a 3a
       0.0074009886 -0.02699235 -0.091551 0.00071114476
0000b0 11 29 83 3e 1e 35 94 bd 9e d2 2c 3d 53 1d 9c 3d
       0.2561727 -0.07236694 0.042193048 0.07622781
0000c0 fb e8 da 3d 1e cc c7 bd df f7 c6 bd e4 3f 0d 3d
       0.10688969 -0.09755729 -0.097152464 0.03448476
0000d0 b7 81 e0 3c d5 29 d5 bd 46 de 8e 3c 14 86 2a be
       0.027405603 -0.104083695 0.017439973 -0.16652709
0000e0 86 c5 e8 bd b5 12 44 be 01 ff 4e 3c b2 02 d5 bd
       -0.113657996 -0.19147761 0.01263404 -0.10400905
0000f0 f8 14 48 bd c3 9d 9b bd 50 eb 40 3d 95 5c 0f 3c
       -0.048848122 -0.0759845 0.04709941 0.008750101

network.6.weight f4 [64, 64]
000000 09 66 bd 3d 08 81 41 3e 42 c9 ca 3d 4d 1b 82 3e
       0.09247977 0.18896878 0.09901668 0.25411454
000010 27 ef fa 3d 2d 94 a0 bc 25 51 34 3d 0f e6 a6 3c
       0.12252646 -0.019601906 0.044022698 0.020373372
000020 a7 6d 3b be 8d e3 da 38 0a 2c 7f bd be c6 3f 3e
       -0.18303548 0.00010437435 -0.06229786 0.18728158
000030 0a e4 0f be ca dd f5 bd 25 6a 61 3e 4f 40 ca bd
       -0.14051834 -0.120051935 0.22013147 -0.09875547
000040 0f c7 12 be 64 41 39 bc f0 fa 73 3d 55 6a b2 bd
       -0.14333747 -0.011307094 0.059565485 -0.087116875
000050 b0 40 55 be b9 0f cd 3d 32 eb 21 be d5 12 92 3e
       -0.20825458 0.100127645 -0.15812376 0.28529993
000060 a0 cf e9 3d d1 a4 69 3e a8 4f 3d bd f4 94 47 be
       0.114165545 0.22816779 -0.046218544 -0.19490415
000070 a9 c1 1c 3d 74 88 8b be 31 a8 01 3e 18 43 1b be
       0.038270626 -0.27252543 0.12661816 -0.15162313
000080 b4 c8 f4 bd 47 02 c6 3d 32 4a 72 be 42 e6 4f bd
       -0.119523436 0.09668403 -0.23661116 -0.0507567
000090 c9 67 f1 bd f8 a1 32 3d 06 87 78 bd c0 26 59 bd
       -0.117873736 0.043611497 -0.060675643 -0.05301547
0000a0 9d 8c e0 bd 6a a1 e0 3d c5 3d 94 bd ee c9 8b 3d
       -0.1096432 0.10968287 -0.07238344 0.068256244
0000b0 38 37 5d be 49 fa b5 bd 16 bf 68 bd 29 b0 af bc
       -0.21603096 -0.08885629 -0.05682286 -0.021446304
0000c0 52 fe 01 bc a1 d5 6a 3e 8c 45 07 3d a7 03 84 bd
       -0.00793417 0.22933055 0.03302531 -0.06446009
0000d0 1f ce 54 be e6 45 29 3d 13 bd 81 3e 47 e3 7f 3e
       -0.20781754 0.041326426 0.25339565 0.24989043
0000e0 8a 87 1f 3e 20 09 9f 3c 99 57 81 be 5e c1 c5 bd
       0.15579048 0.01941353 -0.25262144 -0.096560225
0000f0 4e c5 22 3e 45 be 5b 3e bc 04 a6 3c 56 0e ce 3d
       0.15895578 0.21459301 0.02026593 0.10061328
000100 2f eb 14 3e 6a 78 a4 be 6c b2 a9 bd d2 29 93 bd
       0.1454284 -0.3212312 -0.082859844 -0.07185711
000110 57 f6 3c 3c dc 66 9a 3e 94 f3 84 be 92 17 2a 3d
       0.011533341 0.301566 -0.25967085 0.041526385
000120 99 b9 27 bd 28 d2 88 bd 33 7d 71 be 3e d2 58 be
       -0.040948484 -0.06680709 -0.23582916 -0.21173951
000130 8c d7 9a 3e 4b b6 27 3e b1 01 7b 3e c0 ce 76 3e
       0.30242574 0.16378133 0.24512364 0.24102306
000140 0f 18 97 be e3 61 a6 3e ea 0e 14 3e e3 f7 e4 bc
       -0.29510543 0.32496557 0.14458814 -0.027950233
000150 77 54 f9 bd ce 91 c3 be 90 ec 99 3e a7 b7 10 be
       -0.121743135 -0.38197178 0.30063295 -0.14132558
000160 88 4f 10 3e e9 57 64 bd 08 db 55 3d 67 73 b4 3e
       0.14092839 -0.0557479 0.052210838 0.35244295
000170 75 d9 d6 be 40 6e 6a 3e 5e f8 bb bc a4 b0 25 3c
       -0.41962782 0.2289362 -0.02294558 0.010112915
000180 09 4a 4b 3d 65 2d 31 3e c5 7b d2 bd e6 17 1f be
       0.049631152 0.17302473 -0.102775134 -0.1553646
000190 a2 63 36 be 96 1f 38 3d b5 99 63 3e 9a 71 12 be
       -0.17811444 0.044951998 0.22226603 -0.14301148
0001a0 50 5b 1c 3e 21 b4 22 3e e2 54 31 3f e5 2c 82 3e
       0.15269208 0.15889026 0.69270146 0.25424877
0001b0 e9 bb 17 be f2 c9 03 be 8d 02 2b 3e 3c d6 ee 3e
       -0.14817776 -0.12870005 0.16700192 0.46647823
0001c0 54 2a 3c be bd f8 34 bd b2 80 69 3e 60 cc 1e be
       -0.18375522 -0.044182528 0.22803 -0.1550765
0001d0 13 d3 ab be 06 8a 59 be 81 bb 67 bd df e3 49 be
       -0.33559474 -0.21244058 -0.056575302 -0.19715832
0001e0 36 b3 b6 3e 54 f2 a9 3e 03 9f cb 3e d5 44 38 be
       0.35683602 0.33192694 0.39769754 -0.17995007
0001f0 06 70 39 3e a5 ef d7 be 84 1c 0d 3e 42 73 ba be
       0.1810914 -0.42175022 0.13780409 -0.3641606
000200 30 f0 8f bd 8c af 22 3e 3c a6 9b 3e eb ff af bc
       -0.07028234 0.15887278 0.30400264 -0.021484336
000210 f6 72 94 bc 92 db a7 3d ff d5 3b 3e cb 17 bb bc
       -0.018121224 0.081961766 0.18343352 -0.022838494
000220 aa 94 74 3d 8a e5 5e 3e 26 59 36 3e 6a eb a7 3d
       0.05971209 0.2176725 0.17807445 0.081991985
000230 6c df 3f be e6 11 df bd cb 8a 95 3c 99 f1 b0 bd
       -0.18737572 -0.10892086 0.018254658 -0.08639831
000240 14 00 89 3d 84 f0 25 3d 25 16 c8 be 52 db 20 be
       0.06689468 0.040512577 -0.39079395 -0.15708664
000250 da 60 13 be 72 23 59 bd ff d7 43 be 22 18 04 3e
       -0.14392415 -0.05301232 -0.19125365 0.12899831
000260 b4 69 1a bd 52 4d 1a 3e b9 c4 a4 be ff fa e4 bd
       -0.037698463 0.15068558 -0.32181337 -0.11180686
000270 e6 1a c5 3c cb 2f 33 be 3e b9 34 bd 48 14 40 bb
       0.024060678 -0.174987 -0.044121973 -0.0029308964
000280 b0 d8 d4 3d 0d 30 f3 3d 56 37 b5 bc 51 ec 80 3c
       0.10392892 0.11874399 -0.022121113 0.015737684
000290 64 83 f1 bc 18 29 8a 3d 31 72 dd bd a6 4b 1c bb
       -0.029481597 0.06746119 -0.10812796 -0.00238488
0002a0 16 a8 29 bb 7b 5a 3a 3e 04 1d 2a 3e 26 a0 39 bc
       -0.002588754 0.18198578 0.16612631 -0.011329686
0002b0 09 e1 5b bd 50 c4 9e 3d 46 8c a0 3d f0 af c2 3d
       -0.053681407 0.077522874 0.07839255 0.09506214
0002c0 05 db 38 be ab 93 e5 bb 72 02 42 be e4 df 8c bc
       -0.180523 -0.007006129 -0.18946245 -0.017196603
0002d0 ab f7 c4 bd 8f 12 0b bc f6 01 a4 bd 23 ac bf 3d
       -0.096175514 -0.008488311 -0.080081865 0.09359004
0002e0 0a 91 2c 3e 15 40 43 be 5e 69 87 be 86 5a e8 bd
       0.16852203 -0.19067414 -0.26447576 -0.11345391
0002f0 0a ef 84 be 50 e1 a7 bd f3 6a 29 bc 04 fb 1d 3e
       -0.25963622 -0.08197272 -0.01034044 0.15427786
000300 86 5e d3 bc 0b aa 81 be 4d fa f9 be 48 f8 04 3e
       -0.025801908 -0.25325045 -0.48823777 0.12985337
000310 44 ef 34 be a7 43 a9 3d a0 e8 47 3e d5 fe e8 bc
       -0.17669398 0.08264857 0.19522333 -0.028441826
000320 38 fe 77 be 9f f4 43 bd 25 a9 30 3e 1b c3 c4 be
       -0.2421807 -0.04784071 0.17252024 -0.38430104
000330 23 1c ea 3c a1 c8 42 be 1c da 20 3d 52 b0 f3 3d
       0.02857787 -0.19021846 0.039270505 0.11898865
000340 8d 76 04 be 0a 47 10 3e 83 9e 9f bd 75 0c 42 3d
       -0.12935849 0.14089599 -0.077939056 0.04737516
000350 df fe 2e 3e 49 fd 18 3e 34 88 d6 3d 04 e4 48 be
       0.17089413 0.1494037 0.104751974 -0.19618231
000360 52 fb a0 bd f3 45 05 be a1 e7 46 3c 55 7c 2b 3d
       -0.078604355 -0.13014965 0.012140186 0.04186662
000370 33 e8 0b bd 8c 8a 2c bc e5 c6 8b 3e 0f a6 a7 3e
       -0.03415699 -0.010531079 0.27300182 0.3274388
000380 e5 4a e3 3d 59 73 14 3d bf e7 90 3e f5 92 2a bd
       0.110982694 0.036242817 0.28301808 -0.041644055
000390 a7 33 f2 bd 2d dd fc bd b1 05 66 3e 01 6e 55 be
       -0.11826258 -0.123468734 0.22463109 -0.20842744
0003a0 15 12 60 be d3 4a 36 bc 87 a5 3b be 63 9c 80 3e
       -0.21881898 -0.011126238 -0.18324862 0.25119314
0003b0 e4 45 0b be 1c c8 30 3e 83 65 ab bb 91 cc 24 3e
       -0.1360088 0.17263836 -0.005230607 0.16093661
0003c0 cf bb b7 3d 14 80 b2 3d 30 93 07 be 75 73 84 be
       0.089713685 0.08715835 -0.13239741 -0.25869337
0003d0 fe f4 dd 3d 99 72 35 3c de 4c 48 3e e5 0b 79 bd
       0.10837744 0.0110746855 0.19560573 -0.06080236
0003e0 17 da ef bd a3 63 08 3e 0e 4e f3 3c a5 3a 7c be
       -0.11711519 0.13319258 0.029700305 -0.24631746
0003f0 19 ee f0 bd bc ea 9b 3d b5 59 84 3d 76 49 d2 bd
       -0.117641635 0.076131314 0.06462423 -0.10267918

network.6.bias f4 [64]
000000 1a 59 bd bd 90 5b ab 3b 3f 2d a5 bd 48 67 a3 bc
       -0.092455104 0.005229421 -0.08065271 -0.01994671
000010 f5 1b f3 3d a0 c3 18 3e 92 8d 74 bd 05 35 9f 3d
       0.11870567 0.14918375 -0.059705324 0.077737845
000020 9f d7 f4 3d 53 51 a4 bd 97 41 0d 3d ab 6c 26 3b
       0.11955189 -0.08023324 0.03448638 0.002539436
000030 61 3f ff bd b0 da 69 bd 8d 39 05 3c 89 94 dc 3c
       -0.124632604 -0.057093322 0.008131397 0.026926296
000040 93 0e 83 3c 83 01 2e 3e da 41 b4 3d 22 e0 be 3d
       0.01599816 0.16992764 0.08801623 0.09320094
000050 58 53 d6 bd 3b 5d 60 be 80 a1 91 3e 6d 59 62 be
       -0.10465115 -0.21910565 0.28443527 -0.22104426
000060 bf 4e 24 bd 12 51 c7 3b 77 07 00 bb 03 fe 0e bd
       -0.04011416 0.0060826624 -0.00195357 -0.034910213
000070 be 72 ab 3d 69 be bc 3c d6 82 3a 3e 49 30 a9 3b
       0.08371495 0.023040013 0.18213972 0.0051632267
000080 26 97 c1 3d 99 d8 cd 3c d6 8b d2 bd 9d 4b e1 bc
       0.094526574 0.025127696 -0.10280578 -0.027501876
000090 f8 78 4d 3e 58 fd 01 bd 63 cc 52 3d 74 a2 0b 3c
       0.20065677 -0.031735748 0.05146445 0.008522619
0000a0 d9 1c 9a bd 05 90 e3 3d d0 e8 16 3d 91 cd 7d 3d
       -0.075250335 0.11111454 0.03684312 0.06196362
0000b0 53 89 98 bd 56 6c eb 3d dc 3e bd 3d ba 78 ef bd
       -0.074480675 0.11495273 0.09240505 -0.11692949
0000c0 1e d9 b3 3d 5c 84 a2 bd b1 62 c5 3d 31 24 89 bc
       0.08781646 -0.07935402 0.096379645 -0.01674089
0000d0 41 66 be 3b 29 84 ca 3d 63 d0 07 3e 46 73 f4 bb
       0.0058105295 0.09888489 0.13263087 -0.0074600307
0000e0 cb 75 34 3b 95 fd 90 bd 0e 3f 3e 3d 26 47 74 bc
       0.002753603 -0.07079617 0.046446852 -0.014909541
0000f0 07 49 49 3d b1 88 04 bc 11 ca 4f bb 41 bd 48 3d
       0.04914191 -0.00808923 -0.0031706134 0.04900861

network.8.weight f4 [64, 64]
000000 cb 42 2f be f3 4f 3d be 99 7e 66 be f9 dd 56 3e
       -0.17115323 -0.1848753 -0.2250923 0.20983113
000010 4e d4 06 3d 0a 24 05 3d 26 98 23 3e 33 ee 14 3e
       0.032917313 0.032505073 0.15976009 0.14543991
000020 cc c5 4d be 01 92 94 3d 4e 57 9d 3d 8f 0b 9f bd
       -0.20094985 0.072544105 0.07682668 -0.077658765
000030 ab db 74 3d 37 71 16 be 07 5d 91 bd 27 3b f2 3d
       0.059779804 -0.14691626 -0.07097822 0.11827689
000040 f5 74 9b 3d 67 e1 e2 3d 13 c9 05 3d bf f2 a6 3d
       0.07590667 0.11078148 0.032662462 0.08151769
000050 d5 ae 9a 3c 00 1b 1b bb d1 a4 23 3e 91 92 cb 3d
       0.018882195 -0.0023667216 0.15980841 0.09940065
000060 1f 90 08 3e 6d 59 3b be 06 c8 8b 3c f6 55 44 bd
       0.13336228 -0.18295832 0.017063152 -0.04793354
000070 c3 30 ed 3d f7 54 0e be 92 8f 74 bd ea a5 48 3e
       0.11581566 -0.13899599 -0.05970723 0.19594541
000080 31 fd 8a 3d eb d7 0b be a9 96 15 bc 25 02 db bc
       0.06786574 -0.13656585 -0.009130158 -0.026734421
000090 9a cf fa 3d cb 25 e9 bd d6 9a 46 3e 6d 56 3c 3e
       0.12246628 -0.113841616 0.19395003 0.18392344
0000a0 b1 05 88 be c8 bc 0a 3d d0 db 06 be 6c d0 05 3e
       -0.26566842 0.033871442 -0.1316979 0.13067788
0000b0 9d 64 eb 3d e6 75 74 3e 82 80 67 3e dc 65 43 3b
       0.114938 0.238731 0.22607616 0.0029815352
0000c0 9f c0 57 be d2 bb fe bd d2 d2 30 be 85 3e 3d bc
       -0.21069573 -0.12438168 -0.17267922 -0.01155055
0000d0 85 0b cf bd a7 08 41 3d 0a 29 e8 bc 02 a4 4e bc
       -0.10109619 0.047127392 -0.028339881 -0.012612345
0000e0 a4 e0 72 be 2d 2e 09 be c1 58 1f 3e a0 78 3f be
       -0.23718506 -0.13396521 0.155612 -0.18698359
0000f0 a7 01 5a 3c 58 51 91 3d 83 52 44 bd c6 43 75 bd
       0.013306058 0.07095593 -0.04793025 -0.059879087
000100 90 ae 43 be af 1a 0f 3d c8 45 48 be 54 cf 93 3e
       -0.19109559 0.034937557 -0.1955787 0.28869116
000110 4f 19 b5 3d 13 5c 38 3e 44 f2 19 3d f6 58 5d bd
       0.08842718 0.18003874 0.037584558 -0.054039918
000120 8f 9d 13 3e 39 29 e2 bc 7e 71 4f 3d b4 11 3f 3d
       0.14415573 -0.027607547 0.050645344 0.046647742
000130 6c 54 ff bd 0a ff 08 bd c1 72 03 3e 33 8d c5 bd
       -0.12467274 -0.03344635 0.12836744 -0.09646072
000140 11 75 84 3e 92 7c 2a 3e 4a 3d 82 3e bb ce bc bd
       0.25870565 0.16649082 0.25437385 -0.09219118
000150 6e dc 39 3d 48 1b 35 be 6f c3 10 3e 2e 00 c3 3d
       0.045376234 -0.17686188 0.14137052 0.09521519
000160 e8 a8 aa bd 50 d1 6f 3e 56 73 5c 3d 7f b5 c2 bd
       -0.083329976 0.2341969 0.05382093 -0.09507274
000170 16 7b 85 bc c5 80 ca bd 75 14 78 3d 3e 07 4a be
       -0.016294044 -0.09887842 0.060566384 -0.19729325
000180 fd 8e e2 ba 76 c7 6e be 43 45 44 bc 73 44 60 be
       -0.0017285045 -0.23318276 -0.011979404 -0.21901111
000190 dc 1a 7a 3e f8 9f 31 be 46 9c 20 bd b3 81 c5 bd
       0.24424309 -0.1734618 -0.039211534 -0.09643879
0001a0 82 b9 b1 3d 64 3d 1e 3e f6 1e 04 3f 61 2a 9f 3e
       0.08677961 0.15453106 0.5160974 0.3108702
0001b0 4c 76 a6 be 8d e2 31 3e 37 2c 31 3d 43 96 11 3c
       -0.32512128 0.17371579 0.043255057 0.008885923
0001c0 a8 86 21 be 53 9c 74 be c6 52 14 3e 64 aa 3d bc
       -0.15774024 -0.23887758 0.144847 -0.011576269
0001d0 70 05 4f bd fa b7 1a 3e 12 71 0d 3e 84 70 63 3e
       -0.050542295 0.15109244 0.13812664 0.2221089
0001e0 50 cc 80 3e 09 3d 47 be d3 a7 1f 3e 53 be 9a 3e
       0.25155878 -0.19456877 0.15591364 0.3022333
0001f0 96 28 b2 bc 51 e5 d3 bd da 40 e2 3d 96 94 5c bd
       -0.021747869 -0.10346473 0.11047526 -0.05385264
000200 9a a4 84 3a 74 c5 28 3d d0 69 0c 3d c6 f0 50 be
       0.0010119856 0.04120393 0.0342806 -0.20404348
000210 ea 2e a7 3e 2c 5d 42 be 00 2e 64 3e a3 47 47 3e
       0.3265298 -0.18980855 0.22283173 0.19460921
000220 b7 0e d4 3d 81 a5 c3 bd e0 02 98 3c 57 f9 02 be
       0.10354369 -0.09553052 0.018556058 -0.12790428
000230 fa ee 94 3c d5 37 72 bd 29 11 21 bb cf 22 66 bd
       0.01818036 -0.059135277 -0.0024576879 -0.05618554
000240 48 8b 18 be 96 fc 82 3c 20 a8 27 3e 96 9b 22 be
       -0.14896882 0.015989583 0.16372728 -0.15879664
000250 a8 d4 1b bd 42 1b fb bd 0c f8 8a bd e5 6b 49 be
       -0.0380446 -0.122610584 -0.067855924 -0.19670065
000260 e1 25 e4 bc 7f 5a ed bd 23 27 87 be 47 22 44 3d
       -0.027850093 -0.115895264 -0.26397046 0.047884252
000270 4d 51 12 be 35 d4 e0 bd 54 a4 47 be 51 10 8d 3e
       -0.14288826 -0.10977975 -0.1949628 0.2755151
000280 0b 51 01 be 75 56 29 3d dd 89 44 3e 55 47 3d bc
       -0.12628572 0.041342217 0.19193216 -0.011552651
000290 40 1f 5a be d8 6a ad 3c 45 30 00 be 10 ba ad bc
       -0.21300983 0.021169111 -0.12518413 -0.021206886
0002a0 0a be d5 3b 74 e5 bb bd 67 26 d2 bd 57 1e 1a 3e
       0.0065228986 -0.09174624 -0.10261231 0.15050636
0002b0 7f 52 f8 3c 26 39 37 be 4e c3 0e be 9a 3c 91 3d
       0.030312775 -0.17892894 -0.1394169 0.07091637
0002c0 23 44 23 bd 0b 5d 94 bd da 9c 40 be 95 c4 f1 3c
       -0.039859902 -0.07244309 -0.18809834 0.029512683
0002d0 a1 6b 1e 3e 89 c9 ad be f6 b3 7a be 9d 97 13 bd
       0.15470745 -0.33942822 -0.24482712 -0.03603326
0002e0 61 90 89 be e1 ea db 3d 23 83 01 3d 42 54 18 bd
       -0.26867965 0.10738159 0.031619202 -0.03718973
0002f0 d3 cf a9 be 48 cb ae 3d e2 d6 aa bb bc 75 e9 bd
       -0.3316637 0.085348666 -0.0052136043 -0.11399409
000300 ae d2 bc bd 92 03 33 bd ea 83 8d 3d 81 d2 01 be
       -0.092198715 -0.043704577 0.06909926 -0.12677957
000310 7f 03 5a be 4b fb 48 be 49 79 f3 bd 75 fd e6 bc
       -0.21290396 -0.1962711 -0.11888368 -0.02819703
000320 f6 7d c3 bc bf 42 87 bd a9 3d 85 be c7 38 5a 3d
       -0.023863774 -0.06604528 -0.26023605 0.053276803
000330 57 f6 16 bd 6e fd ca 3a 7a 99 64 3c 87 31 66 bd
       -0.03685602 0.0015486905 0.013952607 -0.056199577
000340 32 29 9b be 3f e4 60 be 41 64 d3 3c 1e 06 03 3d
       -0.30304867 -0.21962069 0.02580464 0.031988256
000350 ad b9 5b 3e 0e 94 35 3e 58 f1 19 be 4f 84 31 3e
       0.21457548 0.1773226 -0.15033472 0.17335628
000360 3d 17 1b be 6d 59 92 3e 7f f3 12 be fb e9 c8 3c
       -0.15145583 0.2858385 -0.14350699 0.024525633
000370 8e 90 62 be 0b c2 40 3d 3c a2 8a 3c e6 06 0f 3b
       -0.22125456 0.047060054 0.016923063 0.002182418
000380 8e 73 bf 3d c4 da 47 3e e2 53 91 3e 7a 57 7a bc
       0.09348212 0.19517046 0.2838431 -0.015279645
000390 d3 78 26 be 8e ad ac 3d 73 d0 28 3e c8 85 fa 3d
       -0.16257028 0.084315404 0.16485767 0.12232548
0003a0 8c cb bc 3e 5a 5d 6c be d8 b2 95 be c1 22 53 be
       0.36874044 -0.23082486 -0.2923801 -0.20618726
0003b0 8e c9 34 3d e7 42 f5 bd ec 97 e9 bb e2 62 a9 39
       0.04413753 -0.11975651 -0.007128706 0.00032307865
0003c0 7e db 1a 3e 78 b3 a0 bc 7f 5c 08 3e dd 21 25 3d
       0.15122792 -0.019616827 0.13316534 0.040315498
0003d0 ef 3e d3 bd d2 21 19 be 49 61 23 3e 8e 5e 46 be
       -0.10314738 -0.14954308 0.1595508 -0.19372007
0003e0 65 a9 88 3e 77 7c 36 3e d7 4e 88 bd 83 31 94 bd
       0.26691738 0.17820917 -0.066556625 -0.07236006
0003f0 71 c8 04 be eb 2f 3b 3e 09 78 4f bc 76 f8 06 bd
       -0.12967087 0.18279998 -0.012662896 -0.032951795

network.8.bias f4 [64]
000000 ee 42 c9 3d fb 6e 19 3e d8 e3 f1 bd e9 9a da bd
       0.09827219 0.14983742 -0.11811036 -0.10674078
000010 3a c3 ca 3d 4c 71 c8 bd de 7d 37 be bc b5 36 3d
       0.09900518 -0.09787235 -0.17919108 0.04460691
000020 24 65 95 3c 68 29 86 bb 90 6b cd b8 06 f0 d7 bc
       0.018236704 -0.0040942915 -9.795197e-05 -0.02635957
000030 ec 9d d1 3c bb 23 00 3e d1 5c 18 3e 26 a1 92 bc
       0.025587998 0.1251363 0.14879157 -0.017899107
000040 bc 84 34 bb 27 a3 c7 3d 79 00 a9 bd 14 f5 2e bd
       -0.0027544936 0.09747916 -0.08252043 -0.042714193
000050 ba d2 f8 bd ff 93 11 bc 0c 03 88 bb bd e1 35 bd
       -0.12149568 -0.008885383 -0.004150754 -0.044404734
000060 2b 89 4a be 86 51 13 bd 07 d7 01 3e 0f c8 9f be
       -0.19778888 -0.03596642 0.12679683 -0.3120732
000070 cf 1c 8e 3d 14 7f 09 bd 25 a9 a9 39 95 50 0f bc
       0.069390886 -0.033568457 0.00032360214 -0.00874724
000080 80 c8 2a 3e 50 1b 99 bd 12 8a 0c 3d 78 bc b1 bd
       0.16678047 -0.074759126 0.03431136 -0.08678526
000090 b4 8d 91 3d 33 63 8f bd 6c 56 a7 bd 5c d8 9a be
       0.07107106 -0.070013426 -0.081707805 -0.30243194
0000a0 a3 81 23 3e 37 f1 9a 3c a5 69 eb bd 90 fa ac bd
       0.15967421 0.018913848 -0.114947595 -0.084462285
0000b0 06 b1 8b bd 1d a4 14 bd fb b6 67 be 7d 7c 97 3b
       -0.06820874 -0.036289323 -0.22628395 0.0046229945
0000c0 4d e4 b6 3c 6d 30 e6 bd ed 76 a6 bd 30 d7 4f bd
       0.02232566 -0.11239705 -0.08128152 -0.05074233
0000d0 7e 8e 2b 3c 00 16 a6 3d bd dd 94 bd 08 a4 85 bb
       0.0104709845 0.08109665 -0.07268856 -0.004078392
0000e0 3c 6b 26 3e ad 38 03 be f4 47 af bd 6e 62 5d 3d
       0.16251844 -0.12814589 -0.08558646 0.054048948
0000f0 e7 42 18 be 3e 18 03 bb 0b 24 7d be 8b 4a ed 3d
       -0.14869271 -0.0020003463 -0.2472078 0.115864836

network.10.weight f4 [64, 64]
000000 e5 0d b0 bc 8e d4 88 be 6b 3c c3 bd 2d 35 83 3d
       -0.021491 -0.26724666 -0.09533008 0.06406627
000010 97 d5 ff 3d d2 2c 2d 3d e9 32 12 3e 86 d6 60 3d
       0.12491911 0.042279072 0.14277233 0.054892085
000020 36 c0 4d 3d 53 f3 45 3d 8a 14 5e 3d 79 05 80 bc
       0.050232135 0.048327755 0.054218806 -0.01562761
000030 c6 82 ac 3e 58 96 9d bd e0 0c 26 3c 46 44 9a bd
       0.33693522 -0.076946914 0.010134906 -0.075325534
000040 c9 a8 92 bd 80 d1 74 3d 91 9e 04 bd 86 c9 cb be
       -0.071610995 0.059770107 -0.032377783 -0.39802188
000050 6f 0c bb 3e 5c d2 9d 3e c2 f0 02 3e c4 e1 d4 3c
       0.36532924 0.30824554 0.12787154 0.02598656
000060 74 0f c7 3d 5a 0e 13 3e 99 e7 30 3e 5c 6c 52 3e
       0.09719744 0.14360943 0.17275847 0.20549148
000070 dd 7c c8 3d 24 c0 64 3e 6c 38 f7 be b3 29 46 bd
       0.09789441 0.22338921 -0.48285234 -0.04837961
000080 d2 9e ef bc 8b 3a 40 3e 1d 66 48 be 95 0e 5b 3e
       -0.029250536 0.18772332 -0.19570203 0.21392281
000090 64 a9 de bd 7b 45 92 be 29 da 1b bd 42 f5 24 3e
       -0.108721524 -0.28568634 -0.03804985 0.16109183
0000a0 6b 82 44 be bc 18 60 be 3b 2d 36 3c fa 35 1f bd
       -0.19190376 -0.21884435 0.011119182 -0.038869835
0000b0 87 43 78 3e 6c 12 74 3e 87 7a 29 be 67 dd b4 bd
       0.2424451 0.23835152 -0.16550647 -0.08831292
0000c0 24 1a fb 3b fe bb 37 3d 04 1b 08 be fd 97 54 be
       0.0076630283 0.044857018 -0.13291556 -0.20761104
0000d0 d4 95 dc bb 72 7f 4a be f2 fc e5 bd a4 d4 17 3e
       -0.006731728 -0.19775179 -0.11229886 0.1482721
0000e0 fa f3 d0 bb 3f e0 9b 3d 2f 1f 80 3e 74 04 c6 bd
       -0.0063767405 0.07611131 0.2502379 -0.09668818
0000f0 cf 1e e4 bd 6b 5a 25 3c 18 12 a1 3d 10 10 24 be
       -0.11138689 0.010092358 0.07864779 -0.16021752
000100 62 8b 63 3e ca 77 b9 bd c3 f1 40 3d 39 8b 0a 3e
       0.22221139 -0.09056051 0.047105562 0.13529672
000110 14 38 20 3f bd bf d1 3b fe 67 84 be 0d b0 26 3e
       0.6258557 0.006401031 -0.2586059 0.16278096
000120 93 c3 12 3c ae 64 9c 3d 85 9c 05 3e cf cc b0 bd
       0.008957761 0.076363906 0.13047989 -0.08632814
000130 ad 12 6a be 5f 64 9c 3e 62 5b ee ba 12 0d ac bd
       -0.22858687 0.30545327 -0.0018185193 -0.084009305
000140 49 9f 34 3e fa 3d 1b 3e 0b 98 a7 3d 47 6a 4c bc
       0.17638887 0.15160361 0.08183297 -0.01247651
000150 9c 92 a9 bc 39 3b 30 3d 96 67 d1 be 5c 3e 25 3e
       -0.020699792 0.04302523 -0.40899342 0.1613707
000160 68 f5 48 be f8 e7 a2 3d 30 bf 68 3e 4e 32 b1 be
       -0.19624865 0.07954401 0.22729182 -0.34608692
000170 57 9c ee 3c d7 1a 08 3e f7 ac 59 3e 43 5b df 3c
       0.029127283 0.13291489 0.21257387 0.027265197
000180 55 86 a8 3e 5e 7d 3f 3e 09 72 33 bc 45 b3 0e be
       0.32914987 0.18700168 -0.010952481 -0.13935573
000190 2d 24 73 3e 43 a0 15 be 5c 92 f6 ba f9 5b 97 be
       0.23744269 -0.14611916 -0.0018811929 -0.29562357
0001a0 8c 0a a1 bd 5b ce bb 3e fe ec 36 bd f5 26 71 bd
       -0.0786334 0.36680874 -0.044659607 -0.058875043
0001b0 cf 92 f0 3d 53 0c 5f be 94 ab c3 bc 29 33 88 3c
       0.117467515 -0.21782045 -0.023885526 0.016625958
0001c0 f3 20 08 bd 02 44 76 bd 5b 72 8f 3e c2 81 56 be
       -0.033234548 -0.06012345 0.28016934 -0.20947936
0001d0 78 f0 e5 3d 2a 16 0f be b8 95 13 3e 15 5a 31 3e
       0.112275064 -0.13973299 0.14412582 0.1731952
0001e0 c7 b8 bb 3e 4d 24 2b 3e a8 7a 74 bc 71 24 b6 3e
       0.3666441 0.16713066 -0.014921822 0.35574678
0001f0 10 b0 5a be 33 19 3d be fe 73 c0 be 81 10 37 3d
       -0.21356225 -0.18466644 -0.37588495 0.044693474
000200 8e a0 4b bd ea 35 3c be 9e 67 24 3d 4a 70 2b be
       -0.049713664 -0.18379942 0.04013788 -0.16742054
000210 01 1b a8 3d 99 53 4f bc 99 6b a2 bc 93 c5 2d 3e
       0.082082756 -0.012654209 -0.019826697 0.169699
000220 87 77 fd 3c 13 25 2a be 54 5a 2a be 10 06 45 3e
       0.030940784 -0.16615705 -0.1663602 0.19240594
000230 6f b6 c1 3e c5 33 3d bc 92 56 c9 3d bd 19 73 be
       0.37834498 -0.011547987 0.09830965 -0.23740287
000240 c9 aa 02 be 61 bf 5f be 90 18 52 bc 1f 12 b2 3d
       -0.12760462 -0.21850349 -0.012823239 0.086948626
000250 da ba 17 be ec cb 61 bc 36 d6 38 3d fc 74 ef bc
       -0.14817372 -0.013781529 0.045126162 -0.029230587
000260 ea 4b 07 be 4a f8 50 3d 09 96 21 bc 7a 9c 39 3e
       -0.13212553 0.051018037 -0.009862431 0.18126097
000270 1c 20 b5 3d 16 b9 07 3e 15 d6 28 be 60 60 23 be
       0.08844015 0.13254198 -0.16487916 -0.15954733
000280 da e1 24 be 88 f6 c4 bd d3 df 86 bb 76 a6 90 be
       -0.1610178 -0.096173346 -0.0041160374 -0.28252
000290 63 8d 8f 3d 7b b9 91 be 86 a4 75 bd 7a 70 38 be
       0.07009389 -0.28461823 -0.059971355 -0.18011656
0002a0 77 4e 88 bd 49 c3 9d be bc 51 11 be 69 3e 37 bd
       -0.06655591 -0.30813053 -0.14191335 -0.044737253
0002b0 51 8f 51 be 91 f6 0b 3e bc bf 93 3d fc 13 3f be
       -0.20464827 0.13668276 0.07214305 -0.18659967
0002c0 47 d2 6c be df 91 a2 3d 52 17 05 be ac 63 e3 bd
       -0.2312709 0.07937979 -0.12997177 -0.11102995
0002d0 24 3e 9e 3d 03 a5 3d 3e 79 2a 28 3e 21 87 cd bd
       0.07726696 0.18519978 0.16422452 -0.100355394
0002e0 6e cc 07 3d dc 54 95 be 58 d6 33 3e ba f6 34 3c
       0.033153944 -0.29166305 0.17562234 0.011045152
0002f0 8d 4f 8b bd 5f f3 4b be 61 de 92 bd 0d 83 47 3d
       -0.068022825 -0.19917057 -0.07171322 0.048708964
000300 6a 47 68 3e 9f a5 8d bd b6 02 00 3d f6 6d cb be
       0.22683492 -0.06916355 0.031252585 -0.3973233
000310 38 b5 88 bd e7 7a a5 bd df 70 b4 be 2c 41 e1 3b
       -0.0667519 -0.080800824 -0.35242364 0.006874224
000320 58 e0 a3 3c dd 31 56 be 12 76 66 3e e6 41 00 be
       0.020004436 -0.20917459 0.22505978 -0.12525138
000330 07 2e a5 be c4 b7 00 3e 8b 1b 4b 3e d9 56 84 be
       -0.3226168 0.12570101 0.19834726 -0.2584751
000340 a6 b3 d1 3d bf 0f 48 bd 19 dc b6 bb cc 4d 6f 3d
       0.10239343 -0.04884314 -0.005580437 0.058423802
000350 be 64 c8 3d 7c fc 0a 3e e9 19 92 be 3b 59 d3 bc
       0.0978484 0.13572878 -0.28535393 -0.025799384
000360 03 04 a6 be db 3a af bd 79 d7 94 bd 59 ab c5 3d
       -0.32424936 -0.08556148 -0.07267661 0.096518226
000370 51 b2 44 3e 34 5e b2 3d b6 60 db bd fb da b3 3e
       0.19208647 0.08709374 -0.107118055 0.35128006
000380 28 d1 44 3e 5a c5 84 bd eb 57 77 be 4e 4b d0 3d
       0.19220412 -0.06482954 -0.24154632 0.10170613
000390 c2 18 19 be 0c 7f 93 be f7 e0 29 3e 0d 6f e4 3d
       -0.1495085 -0.28807867 0.16589724 0.11153994
0003a0 b6 f9 2d 3e 1a 74 0e be 13 cb af bb 0e 8c 80 bd
       0.16989788 -0.13911477 -0.0053647845 -0.06276713
0003b0 61 ba 66 be ae d5 83 3c 41 a0 f0 bd 72 11 7f 3e
       -0.22532035 0.016093101 -0.11749316 0.24908999
0003c0 66 1b dc 3d c2 47 ad bd 8f 54 0c be 3b 19 23 bd
       0.10747413 -0.08460952 -0.13704132 -0.039818984
0003d0 11 7f 26 bd 57 cc f7 bd a8 d3 9c be 8f b9 ba bd
       -0.040648524 -0.120995216 -0.3063023 -0.09117424
0003e0 e5 ae 47 bd 6f 83 ba bd b6 c7 da 3c 94 f7 2e 3d
       -0.048750777 -0.091071 0.026706558 0.042716578
0003f0 7a 5f bd 3c 61 1b 23 3d f2 b1 fa 3d a7 9f 04 be
       0.023116816 0.039821032 0.122409716 -0.12951528

network.10.bias f4 [64]
000000 f7 6a 6e 3d 3d 33 7f bd 71 44 e9 3d d3 64 e8 bc
       0.05820748 -0.062304724 0.11390007 -0.02836839
000010 38 c6 67 be 30 f9 37 bd 2c 24 3e 3c 8d 4b af bb
       -0.22634208 -0.044915378 0.011605304 -0.0053495825
000020 7d 8c 41 bd 40 37 16 3e 2c 1b 2c be ae 0e 16 3e
       -0.04725312 0.14669514 -0.1680724 0.14654037
000030 7a c3 ba 3c 32 39 1c bd 0d e4 8b bd f3 2a e2 3c
       0.022798289 -0.038140483 -0.068306066 0.02760837
000040 c7 6a de 3d 03 be a2 3d 04 0f 8e bb ed 94 3f 3e
       0.1086021 0.07946398 -0.004335286 0.18709154
000050 f9 e9 3d bd 23 1b 12 3a c3 3a e9 bc 27 59 80 bd
       -0.04636571 0.00055735017 -0.028470403 -0.062670045
000060 b9 e8 44 bd d2 a4 54 3e 77 2a f3 bc d0 1e b4 3d
       -0.048073504 0.20765999 -0.029683335 0.087949395
000070 fc 81 90 3d 58 cc 8d bc 39 bf 1c 3e 2e 97 93 bc
       0.070560426 -0.017309353 0.1530732 -0.018016424
000080 14 e9 da 3d 2e 68 1f be ef 4a 1c 3c 48 c8 42 3e
       0.106889874 -0.15567085 0.00953935 0.19021714
000090 5c 07 c1 bc b5 55 08 3d 6a 7c 94 3d e1 a5 97 3d
       -0.02356308 0.03328486 0.072502926 0.07404686
0000a0 5c 63 0d be fa 4d 04 be df de a0 3c 98 d3 aa 3b
       -0.13807434 -0.1292037 0.019637523 0.005213212
0000b0 99 07 a4 3d f4 46 9f bd ce 28 ab bd 1d 8b 97 bd
       0.08009262 -0.07777205 -0.08357392 -0.07399581
0000c0 ab df 6b 3d 14 7c 04 bd 71 ad 3e 3d 78 47 89 bd
       0.057586353 -0.032344893 0.046552125 -0.06703085
0000d0 bc 42 e7 3d f3 4f 69 bd c5 7f 59 3c 4f cb e8 bc
       0.112920254 -0.05696101 0.013275092 -0.028417258
0000e0 af 63 96 3d fd 35 89 bb 16 b3 a9 bd 8e 77 8c 3d
       0.07343232 -0.004187344 -0.08286111 0.06858741
0000f0 06 52 eb 3b d5 67 f6 3c c3 df c6 3b 82 eb b8 3d
       0.007181409 0.030078808 0.006069155 0.090292946
