2D_sheet_problem/models/plate_hole_update2.pth (torch, 90610 bytes, 14 tensors)

network.0.weight f4 [64, 2]
-0.020559847 0.043231428 0.24474615 0.22635943 -0.25397813 0.15958849 0.18224093 0.10434839
0.0056055486 0.257137 0.049829036 -0.08665605 0.18691927 -0.17495301 0.20792371 -0.05215165
0.033745795 -0.17993703 0.28073108 0.1692977 -0.20156536 0.02402541 0.017498076 0.3007499
0.04100308 -0.16921993 -0.0121454 -0.030770034 0.1100333 -0.26569402 -0.0070232153 -0.15943888
-0.16567269 -0.1898526 0.012595952 0.12795773 -0.0068449974 -0.01751113 -0.18894157 0.27399623
0.08438125 -0.13838015 0.13312128 0.10377097 0.24898213 0.11675769 -0.14349969 -0.2875356
-0.1108021 -0.042574793 0.060895383 0.21408743 -0.10553092 -0.30111516 0.08501378 -0.21732408
-0.044095725 -0.20553833 0.10513723 0.119178414 -0.015903175 0.15931296 0.017924786 0.27947176
0.26227826 -0.060062513 -0.20102552 0.26300657 0.26458508 -0.12185146 -0.09645672 0.23077363
-0.022085786 -0.081794694 -0.24582723 0.16324678 0.27734762 -0.1983055 0.017581433 0.29797703
0.06649765 0.2023384 -0.20341857 -0.12279612 0.08309257 -0.11889818 -0.18626203 -0.05348739
-0.16544013 -0.09058078 -0.25612986 0.05534801 0.2875663 0.024817199 -0.10408619 -0.030599266
-0.19586217 0.24145103 -0.2731973 0.2305243 -0.12082806 0.11341563 0.26897782 0.12866423
-0.26175353 0.11941266 0.05049503 0.019480467 0.010585099 0.18812934 0.14559376 -0.12941867
-0.2021927 0.04297903 0.28755975 0.20459867 0.15713191 -0.14944656 -0.06893115 0.18619579
-0.09876509 0.29960805 0.29816157 0.18613419 0.19449958 0.29138905 0.10292962 0.1693458
00000000: 206d a8bc 7013 313d bc9e 7a3e c4ca 673e
00000010: 6c09 82be 2a6b 233e 5e9d 3a3e 9cb4 d53d
00000020: c0ae b73b 76a7 833e 8819 4c3d ba78 b1bd
00000030: c467 3f3e e226 33be f4e9 543e f89c 55bd
00000040: 0839 0a3d 6a41 38be fcbb 8f3e 605c 2d3e
00000050: 2667 4ebe f0d0 c43c 2058 8f3c e4fb 993e
00000060: d8f2 273d fd47 2dbe 80fd 46bc 7011 fcbc
00000070: 2459 e13d 0c09 88be 0023 e6bb f243 23be
00000080: 1aa6 29be b868 42be 405f 4e3c 5a07 033e
00000090: 004c e0bb 8073 8fbc e679 41be 3c49 8c3e
000000a0: 14d0 ac3d 87b3 0dbe f250 083e e085 d43d
000000b0: 2cf5 7e3e a81e ef3d 95f1 12be de37 93be
000000c0: 36ec e2bd e862 2ebd 706d 793d bc39 5b3e
000000d0: 9820 d8bd c42b 9abe b41b ae3d 348a 5ebe
000000e0: b89d 34bd a478 52be 3052 d73d d013 f43d
000000f0: 6047 82bc f022 233e 00d7 923c ec16 8f3e
00000100: 5649 863e 1c04 76bd a2d9 4dbe cca8 863e
00000110: b277 873e 428d f9bd 1a8b c5bd ec4f 6c3e
00000120: 40ed b4bc fa83 a7bd 22ba 7bbe 2a2a 273e
00000130: 8200 8e3e 9910 4bbe f006 903c 7290 983e
00000140: ec2f 883d cc31 4f3e f54c 50be 887c fbbd
00000150: 702c aa3d e480 f3bd 79bb 3ebe 9815 5bbd
00000160: 2369 29be 6a82 b9bd 7423 83be 98b4 623d
00000170: e43b 933e 704d cb3c 242b d5bd 50ab fabc
00000180: 1890 48be f03e 773e 84e0 8bbe 900e 6c3e
00000190: b474 f7bd 7446 e83d 76b7 893e 8ec0 033e
000001a0: 8f04 86be a08e f43d e0d3 4e3d 8095 9f3c
000001b0: 206d 2d3c faa4 403e 8816 153e 5486 04be
000001c0: 9a0b 4fbe c80a 303d 083b 933e 5082 513e
000001d0: 30e7 203e 8508 19be c62b 8dbd 1caa 3e3e
000001e0: 5a45 cabd 3a66 993e a2a8 983e f699 3e3e
000001f0: e62a 473e f230 953e c4cc d23d fc68 2d3e

network.0.bias f4 [64]
0.0 0.0 0.0 0.0 0.0 0.0 0.0 0.0
0.0 0.0 0.0 0.0 0.0 0.0 0.0 0.0
0.0 0.0 0.0 0.0 0.0 0.0 0.0 0.0
0.0 0.0 0.0 0.0 0.0 0.0 0.0 0.0
0.0 0.0 0.0 0.0 0.0 0.0 0.0 0.0
0.0 0.0 0.0 0.0 0.0 0.0 0.0 0.0
0.0 0.0 0.0 0.0 0.0 0.0 0.0 0.0
0.0 0.0 0.0 0.0 0.0 0.0 0.0 0.0
00000000: 0000 0000 0000 0000 0000 0000 0000 0000
00000010: 0000 0000 0000 0000 0000 0000 0000 0000
00000020: 0000 0000 0000 0000 0000 0000 0000 0000
00000030: 0000 0000 0000 0000 0000 0000 0000 0000
00000040: 0000 0000 0000 0000 0000 0000 0000 0000
00000050: 0000 0000 0000 0000 0000 0000 0000 0000
00000060: 0000 0000 0000 0000 0000 0000 0000 0000
00000070: 0000 0000 0000 0000 0000 0000 0000 0000
00000080: 0000 0000 0000 0000 0000 0000 0000 0000
00000090: 0000 0000 0000 0000 0000 0000 0000 0000
000000a0: 0000 0000 0000 0000 0000 0000 0000 0000
000000b0: 0000 0000 0000 0000 0000 0000 0000 0000
000000c0: 0000 0000 0000 0000 0000 0000 0000 0000
000000d0: 0000 0000 0000 0000 0000 0000 0000 0000
000000e0: 0000 0000 0000 0000 0000 0000 0000 0000
000000f0: 0000 0000 0000 0000 0000 0000 0000 0000

network.2.weight f4 [64, 64]
-0.18315035 0.18287538 0.015447542 0.117561564 -0.18249314 0.015947938 -0.19225846 0.055981025
-0.09100132 -0.042739168 -0.11630532 0.14831148 -0.11135427 -0.10641742 0.21044253 -0.028650627
-0.008709982 0.15293185 -0.14396809 -0.09878223 -0.015268862 0.05565591 -0.11745227 0.05599408
0.08518724 -0.105855025 0.08524378 0.2070985 0.18182273 -0.097314484 0.02871786 0.057126626
-0.13237761 0.118321285 -0.1085002 0.08434625 0.030241042 -0.039561167 -0.19831547 -0.17141546
0.017088056 0.070818976 -0.19255084 0.10127719 0.0646414 0.10636856 0.16625263 0.15610601
0.15296568 -0.19175074 -0.14420035 0.0983191 -0.17821272 -0.18929102 -0.117018 0.15995137
0.11487387 -0.18615206 -0.09070997 0.053404436 0.18440448 -0.13833025 -0.11541063 -0.13242406
-0.12834772 0.14747299 0.16166444 -0.0741193 0.16035752 0.13960509 -0.05490996 -0.122678556
-0.027919054 0.11785014 0.09912436 0.10872708 -0.038663223 0.07621564 0.016463146 0.09435557
0.12293999 -0.19249485 -0.052687347 -0.05407913 -0.18812928 -0.097135626 0.017078623 -0.022180349
0.0054505914 0.14525141 0.18800344 -0.020947143 0.1313421 -0.20386769 -0.20605133 -0.1818825
-0.025126189 -0.07768817 -0.124208726 -0.05892606 0.07522212 0.07092716 -0.12673597 0.18854617
-0.060652643 0.06497072 -0.1918236 -0.11411592 0.0066483915 -0.0001308769 0.08579458 0.035133466
-0.1700275 -0.052932218 0.21076114 -0.12539145 0.019272566 0.18481474 -0.17467745 0.07961579
-0.08936961 0.17171948 0.044790193 0.045942232 -0.07005997 -0.033284515 -0.15287358 -0.029938653
-0.14629 -0.054981068 -0.07024619 -0.13182363 0.025998726 -0.11552649 0.016705573 0.07575421
0.104744956 -0.06025803 -0.053439543 -0.054368347 0.061461672 0.08670707 -0.123612165 -0.13440257
0.14025582 0.10662584 0.11595036 -0.13526636 0.19457446 -0.11609412 -0.07825513 -0.21103795
-0.013921171 -0.19315775 0.13733442 -0.06754811 0.13816704 -0.20370668 0.080547795 0.08291642
-0.21244353 -0.13818985 0.13468333 0.16568343 -0.059319288 -0.15814322 0.0057634115 0.05426143
-0.20915751 -0.061938956 -0.0092493445 0.055466577 0.1918781 0.007886365 0.0006467849 -0.15176326
0.042906746 0.13250597 -0.15460244 -0.04312536 -0.06178248 -0.2160405 -0.168357 0.21004008
-0.17298757 -0.06137143 -0.21611157 0.065685615 -0.16420738 -0.05774483 -0.1913819 0.20092665
0.001867786 -0.20432669 0.1419305 0.073065564 -0.07049298 -0.038128167 -0.21363212 0.020655572
0.030301645 -0.16190763 -0.16569038 0.04630308 0.15564968 -0.076753944 -0.18030748 -0.18685949
-0.085201904 0.114442125 -0.080289125 -0.13506785 -0.15687703 -0.06529926 0.1558642 0.05002512
0.16882055 0.064215645 0.10587825 0.12405865 0.118182585 0.1766075 -0.099221945 0.20953052
-0.20617802 -0.10181046 0.09208922 -0.030119762 -0.20590465 -0.16082174 -0.09114429 -0.19297656
0.0038654953 0.016498536 -0.047181517 0.10277365 -0.19710638 -0.071489334 -0.030662537 -0.01743558
-0.1321079 -0.16489139 -0.09059122 0.08586554 0.063460544 0.12990056 0.16330786 0.1515402
-0.15613247 0.07262878 0.11430763 0.1362568 -0.050014764 0.021121487 0.14383529 0.13444223
00000000: c48b 3bbe af43 3b3e b017 7d3c 1ec4 f03d
00000010: 7bdf 3abe 40a5 823c 67df 44be 5c4c 653d
00000020: e65e babd 440f 2fbd 7c31 eebd f7de 173e
00000030: b50d e4bd 60f1 d9bd 3f7e 573e b8b4 eabc
00000040: 50b4 0ebc 2b9a 1c3e 5f6c 13be 564e cabd
00000050: 402a 7abc 74f7 633d d18a f0bd 0c5a 653d
00000060: a676 ae3d 85ca d8bd 4a94 ae3d a111 543e
00000070: bd2f 3a3e d14c c7bd b841 eb3c 9cfd 693d
00000080: ff8d 07be 6e52 f23d 5a35 debd babd ac3d
00000090: 10bc f73c e40a 22bd 3613 4bbe 8987 2fbe
000000a0: 40fc 8b3c 8a09 913d 0c2c 45be 6a6a cf3d
000000b0: b662 843d c2d7 d93d 213e 2a3e 41da 1f3e
000000c0: 09a3 1c3e 4e5a 44be 42a9 13be 865b c93d
000000d0: 657d 36be 81d5 41be 22a7 efbd 4bca 233e
000000e0: fe42 eb3d a59e 3ebe 26c6 b9bd 9cbe 5a3d
000000f0: 87d4 3c3e 72a6 0dbe 695c ecbd 2c9a 07be
00000100: 966d 03be 2903 173e 5d8b 253e dccb 97bd
00000110: c334 243e a3f4 0e3e 44e9 60bd e53e fbbd
00000120: 80b6 e4bc 6a5b f13d b601 cb3d 4eac de3d
00000130: 545d 1ebd f216 9c3d b8dd 863c 7e3d c13d
00000140: f6c7 fb3d 5f1d 45be b0ce 57bd 1482 5dbd
00000150: f6a4 40be 0bef c6bd 78e8 8b3c 90b3 b5bc
00000160: e09a b23b c9bc 143e f983 403e 5899 abbc
00000170: 8b7e 063e b1c2 50be 1fff 52be 683f 3abe
00000180: 70d5 cdbc fa1a 9fbd 2561 febd 745c 71bd
00000190: 0e0e 9a3d 4242 913d 13c7 01be 3f12 413e
000001a0: e86e 78bd 5e0f 853d 686d 44be 9cb5 e9bd
000001b0: c0da d93b 003c 09b9 12b5 af3d 1ce8 0f3d
000001c0: b01b 2ebe 74cf 58bd c5d1 573e 9e66 00be
000001d0: 80e1 9d3c 1340 3d3e a5de 32be 9a0d a33d
000001e0: 6a07 b7bd 3bd7 2f3e ec75 373d ec2d 3c3d
000001f0: 9a7b 8fbd 5855 08bd e48a 1cbe e841 f5bc
00000200: 0ccd 15be d433 61bd 3cdd 8fbd c6fc 06be
00000210: 48fb d43c 2799 ecbd 20da 883c 0625 9b3d
00000220: 8684 d63d 20d1 76bd 6ce3 5abd 58b1 5ebd
00000230: 3cbf 7b3d 7a93 b13d 6028 fdbd d4a0 09be
00000240: 399f 0f3e a65e da3d 6277 ed3d 4483 0abe
00000250: 873e 473e c1c2 edbd 3a44 a0bd 551a 58be
00000260: a015 64bc 25cb 45be 65a1 0c3e aa56 8abd
00000270: a97b 0d3e 7c98 50be 3ef6 a43d 16d0 a93d
00000280: cc8a 59be a481 0dbe 6dea 093e eba8 293e
00000290: c8f8 72bd 4cf0 21be 00db bc3b 3c41 5e3d
000002a0: 632d 56be b4b3 7dbd 908a 17bc ec30 633d
000002b0: b17b 443e d035 013c 008d 293a d467 1bbe
000002c0: fcbe 2f3d a5af 073e 1a50 1ebe 38a4 30bd
000002d0: a00f 7dbd b939 5dbe c765 2cbe bf14 573e
000002e0: a723 31be 9c60 7bbd 5a4c 5dbe 2e86 863d
000002f0: fb25 28be d885 6cbd 9ef9 43be b7bf 4d3e
00000300: 80d0 f43a 043b 51be 3b56 113e 66a3 953d
00000310: a05e 90bd 482c 1cbd 61c2 5abe e035 a93c
00000320: 283b f83c 1dcb 25be bdaa 29be 4ca8 3d3d
00000330: a162 1f3e 2c31 9dbd 86a2 38be 1858 3fbe
00000340: 567e aebd a260 ea3d a06e a4bd 3a4f 0abe
00000350: 5fa4 20be 9ebb 85bd dd9a 1f3e 24e7 4c3d
00000360: 4bdf 2c3e 7e83 833d b2d6 d83d 7612 fe3d
00000370: b609 f23d 99d8 343e e034 cbbd 2b8f 563e
00000380: 5520 53be 0182 d0bd 4699 bc3d b8bd f6bc
00000390: abd8 52be 74ae 24be dca9 babd a69b 45be
000003a0: 4054 7d3b f027 873c 6841 41bd fe7a d23d
000003b0: 41d6 49be 0069 92bd 0030 fbbc 10d5 8ebc
000003c0: 4b47 07be 4ad9 28be e487 b9bd 46da af3d
000003d0: 9af7 813d a704 053e 2d3a 273e 5b2d 1b3e
000003e0: 31e1 1fbe 66be 943d 1e1a ea3d e786 0b3e
000003f0: 48dc 4cbd f806 ad3c 8f49 133e 39ab 093e

network.2.bias f4 [64]
0.0 0.0 0.0 0.0 0.0 0.0 0.0 0.0
0.0 0.0 0.0 0.0 0.0 0.0 0.0 0.0
0.0 0.0 0.0 0.0 0.0 0.0 0.0 0.0
0.0 0.0 0.0 0.0 0.0 0.0 0.0 0.0
0.0 0.0 0.0 0.0 0.0 0.0 0.0 0.0
0.0 0.0 0.0 0.0 0.0 0.0 0.0 0.0
0.0 0.0 0.0 0.0 0.0 0.0 0.0 0.0
0.0 0.0 0.0 0.0 0.0 0.0 0.0 0.0
00000000: 0000 0000 0000 0000 0000 0000 0000 0000
00000010: 0000 0000 0000 0000 0000 0000 0000 0000
00000020: 0000 0000 0000 0000 0000 0000 0000 0000
00000030: 0000 0000 0000 0000 0000 0000 0000 0000
00000040: 0000 0000 0000 0000 0000 0000 0000 0000
00000050: 0000 0000 0000 0000 0000 0000 0000 0000
00000060: 0000 0000 0000 0000 0000 0000 0000 0000
00000070: 0000 0000 0000 0000 0000 0000 0000 0000
00000080: 0000 0000 0000 0000 0000 0000 0000 0000
00000090: 0000 0000 0000 0000 0000 0000 0000 0000
000000a0: 0000 0000 0000 0000 0000 0000 0000 0000
000000b0: 0000 0000 0000 0000 0000 0000 0000 0000
000000c0: 0000 0000 0000 0000 0000 0000 0000 0000
000000d0: 0000 0000 0000 0000 0000 0000 0000 0000
000000e0: 0000 0000 0000 0000 0000 0000 0000 0000
000000f0: 0000 0000 0000 0000 0000 0000 0000 0000

network.4.weight f4 [64, 64]
0.011137962 -0.13251269 -0.060699373 0.08573897 0.06808616 -0.1924975 -0.100622855 0.10096662
0.1490515 -0.06656273 0.052685246 -0.06373115 0.051817432 -0.21136287 -0.12843166 0.04062389
0.04299207 0.10146691 0.13052125 0.08614193 0.09848456 0.15071617 0.03451179 -0.1591317
0.038346604 -0.13163282 0.026287794 0.03833531 0.16166942 0.10122813 0.1930864 -0.16808894
-0.017837405 0.041862056 0.03724511 0.21569015 0.16657977 0.042457566 -0.13198844 0.08131729
-0.15731223 0.14726041 -0.2018573 -0.051707223 0.20838891 -0.091801435 0.21579038 -0.11315704
0.14842485 -0.11964443 0.09742035 0.1910537 0.07787956 -0.19270565 0.18664835 -0.10189682
-0.010843679 -0.13193493 -0.05402699 -0.12433971 -0.055875465 0.16154425 -0.1373432 0.05411057
-0.110130616 -0.16458195 0.02111137 0.21161602 0.19485082 0.07966305 0.14953627 -0.007775441
0.1509373 0.002120182 0.05096449 0.20964234 -0.15722793 -0.20393856 0.15901019 -0.18769369
0.17178078 -0.034804285 0.11199497 -0.050306454 -0.025049657 -0.06599201 -0.04869117 -0.13774711
-0.14850539 -0.17338906 -0.17792763 -0.08060251 -0.16359621 -0.19034913 -0.0936367 -0.14477134
-0.12861352 0.056136027 0.11738165 0.17549835 -0.21436405 0.08464928 0.057062104 0.1166303
0.107691035 -0.04553877 -0.0554246 0.16095088 0.010080472 -0.08671971 -0.12728336 0.054223135
-0.015530631 0.02825448 -0.08002974 -0.14042231 -0.028018564 -0.06738107 0.14704879 0.007015586
-0.2011871 0.18320777 -0.035414338 0.06737746 0.1899318 0.13297276 0.1704431 -0.21535197
0.118074074 -0.15582196 0.18176071 0.050099 -0.044061378 -0.1272631 -0.104110196 -0.012130544
-0.08490011 0.17548187 0.016313896 0.08459 0.21604206 0.14793803 0.18051635 -0.033345625
0.15771346 0.099528536 -0.04316792 -0.21276587 -0.18892999 -0.1759782 0.07051341 -0.11633286
0.024328128 -0.06784654 -0.12897652 -0.059509143 -0.20187178 0.07723071 0.121240094 -0.11433401
-0.121586345 0.09387188 -0.1898303 -0.21449165 0.06524174 0.07774727 -0.06412344 -0.2142328
0.00046510994 0.16637884 -0.1375221 0.16913821 -0.1807189 0.1872933 0.1430567 -0.1329081
-0.023277834 0.17873885 -0.043859854 0.11174594 0.013107359 -0.18871367 0.028078794 0.19306512
-0.12628615 0.114994004 -0.031009182 0.091504976 0.02856934 0.07727943 0.17006724 0.21115254
-0.10511917 0.17199652 0.02014476 -0.05451089 -0.16146238 -0.0052424967 -0.102541514 0.17550041
-0.09995215 -0.17286476 -0.09851455 -0.005585313 -0.12688288 -0.013468459 0.17140378 0.09390183
-0.10491331 0.106418684 -0.002267778 0.0019100904 -0.03606288 -0.17096436 0.2072296 0.12129511
-0.032433435 0.16282876 0.021665022 -0.10857868 0.01578477 -0.11041842 0.19857983 -0.18455261
-0.03214115 0.037214383 0.21167298 0.118399486 0.07933076 -0.105999485 0.12644286 0.17006956
0.18308274 0.16765557 -0.10139474 -0.020219788 0.032934964 0.19283505 0.17503221 -0.06469408
-0.067793936 0.18114878 0.13121362 -0.20833148 -0.14968543 0.016329631 0.047667757 0.16224302
0.09890281 0.08172165 -0.16438624 -0.08303867 -0.21173131 -0.18129696 -0.15569766 -0.07229474
00000000: 007c 363c 68b1 07be e89f 78bd ea97 af3d
00000010: c270 8b3d 111e 45be 5b13 cebd 96c7 ce3d
00000020: f5a0 183e 0a52 88bd 7ccc 573d 7a85 82bd
00000030: 843e 543d 826f 58be 9783 03be 3c65 263d
00000040: 7418 303d e2cd cf3d 5da7 053e 2e6b b03d
00000050: 46b2 c93d 5755 1a3e 3c5c 0d3d 6cf3 22be
00000060: 5411 1d3d c1ca 06be 8059 d73c 7c05 1d3d
00000070: ab8c 253e b250 cf3d 71b8 453e 821f 2cbe
00000080: c01f 92bc 8c77 2b3d 548e 183d e1dd 5c3e
00000090: e393 2a3e fce7 2d3d fa27 07be ae89 a63d
000000a0: 7516 21be 6fcb 163e aeb3 4ebe f4ca 53bd
000000b0: e763 553e 6402 bcbd 27f8 5c3e e1be e7bd
000000c0: affc 173e 2408 f5bd 5284 c73d 95a3 433e
000000d0: 527f 9f3d a154 45be bf20 3f3e 48af d0bd
000000e0: b0a9 31bc f319 07be 684b 5dbd d1a5 febd
000000f0: acdd 64bd db6b 253e b2a3 0cbe 0ca3 5d3d
00000100: 298c e1bd 2c88 28be c0f1 ac3c dfb1 583e
00000110: f986 473e 6226 a33d 0920 193e 20c9 febb
00000120: 4f8f 1a3e c0f2 0a3b 24c0 503d 7bac 563e
00000130: 5c00 21be 45d5 50be 91d3 223e c632 40be
00000140: 4de7 2f3e f08e 0ebd 9e5d e53d 240e 4ebd
00000150: f034 cdbc d226 87bd 6470 47bd 940d 0dbe
00000160: cc11 18be e78c 31be a932 36be ee12 a5bd
00000170: c485 27be e2ea 42be 99c4 bfbd f03e 14be
00000180: 43b3 03be e4ee 653d ca65 f03d d7b5 333e
00000190: 4082 5bbe 9a5c ad3d f4b9 693d dedb ee3d
000001a0: 1e8d dc3d dc86 3abd e804 63bd 4fd0 243e
000001b0: 9028 253c 1a9a b1bd 9256 02be 1419 5e3d
000001c0: 3074 7ebc f075 e73c a2e6 a3bd deca 0fbe
000001d0: 3087 e5bc 16ff 89bd f593 163e 00e3 e53b
000001e0: fe03 4ebe d19a 3b3e a00e 11bd 32fd 893d
000001f0: 7b7d 423e 032a 083e a388 2e3e 3a85 5cbe
00000200: d2d0 f13d cb8f 1fbe 7b1f 3a3e 9c34 4d3d
00000210: b479 34bd 4251 02be ba37 d5bd 30bf 46bc
00000220: 1ce0 adbd 85b1 333e b8a4 853c 863d ad3d
00000230: 213a 5d3e 117d 173e 47d9 383e 6c95 08bd
00000240: a37f 213e 9ed5 cb3d d8d0 30bd 4cdf 59be
00000250: dd76 41be a133 34be 5669 903d ec3f eebd
00000260: c84b c73c 20f3 8abd 6c12 04be dcbf 73bd
00000270: 7ab7 4ebe 222b 9e3d ba4c f83d f327 eabd
00000280: 4302 f9bd e63f c03d e062 42be b3a3 5bbe
00000290: 769d 853d f639 9f3d 2653 83bd d85f 5bbe
000002a0: 00da f339 375f 2a3e 98d2 0cbe 9132 2d3e
000002b0: 600e 39be d1c9 3f3e 757d 123e 1019 08be
000002c0: 28b1 bebc 5107 373e 64a6 33bd 0edb e43d
000002d0: 40c0 563c 283e 41be 8005 e63c ddb2 453e
000002e0: 2851 01be fa81 eb3d f806 febc f666 bb3d
000002f0: 400a ea3c ae44 9e3d 1b26 2e3e 5f38 583e
00000300: b848 d7bd db1f 303e a006 a53c d046 5fbd
00000310: 6556 25be 40c9 abbb 4901 d2bd 61b6 333e
00000320: b6b3 ccbd 7603 31be ffc1 c9bd 0005 b7bb
00000330: 96ed 01be d0aa 5cbc 7984 2f3e 9a4f c03d
00000340: cadc d6bd 0af2 d93d 009f 14bb 005c fa3a
00000350: acb6 13bd 4811 2fbe ff33 543e 9269 f83d
00000360: ecd8 04bd 95bc 263e d87a b13c 805e debd
00000370: 104f 813c 0d23 e2bd 8358 4b3e 5cfb 3cbe
00000380: 70a6 03bd 1c6e 183d cdc0 583e 6e7b f23d
00000390: 2a78 a23d 4216 d9bd 3d7a 013e b726 2e3e
000003a0: 0b7a 3b3e e7ad 2b3e 0ca8 cfbd f8a3 a5bc
000003b0: d0e6 063d 8d76 453e a53b 333e 547e 84bd
000003c0: 8cd7 8abd 117f 393e dd5c 063e d954 55be
000003d0: 2347 19be b8c5 853c 443f 433d 0923 263e
000003e0: 8e8d ca3d ae5d a73d de54 28be 2e10 aabd
000003f0: 18d0 58be e9a5 39be 356f 1fbe 440f 94bd

network.4.bias f4 [64]
0.0 0.0 0.0 0.0 0.0 0.0 0.0 0.0
0.0 0.0 0.0 0.0 0.0 0.0 0.0 0.0
0.0 0.0 0.0 0.0 0.0 0.0 0.0 0.0
0.0 0.0 0.0 0.0 0.0 0.0 0.0 0.0
0.0 0.0 0.0 0.0 0.0 0.0 0.0 0.0
0.0 0.0 0.0 0.0 0.0 0.0 0.0 0.0
0.0 0.0 0.0 0.0 0.0 0.0 0.0 0.0
0.0 0.0 0.0 0.0 0.0 0.0 0.0 0.0
00000000: 0000 0000 0000 0000 0000 0000 0000 0000
00000010: 0000 0000 0000 0000 0000 0000 0000 0000
00000020: 0000 0000 0000 0000 0000 0000 0000 0000
00000030: 0000 0000 0000 0000 0000 0000 0000 0000
00000040: 0000 0000 0000 0000 0000 0000 0000 0000
00000050: 0000 0000 0000 0000 0000 0000 0000 0000
00000060: 0000 0000 0000 0000 0000 0000 0000 0000
00000070: 0000 0000 0000 0000 0000 0000 0000 0000
00000080: 0000 0000 0000 0000 0000 0000 0000 0000
00000090: 0000 0000 0000 0000 0000 0000 0000 0000
000000a0: 0000 0000 0000 0000 0000 0000 0000 0000
000000b0: 0000 0000 0000 0000 0000 0000 0000 0000
000000c0: 0000 0000 0000 0000 0000 0000 0000 0000
000000d0: 0000 0000 0000 0000 0000 0000 0000 0000
000000e0: 0000 0000 0000 0000 0000 0000 0000 0000
000000f0: 0000 0000 0000 0000 0000 0000 0000 0000

network.6.weight f4 [64, 64]
-0.17263697 0.04893364 -0.024356052 0.15573253 0.15337585 0.10975121 -0.20631242 0.014589533
0.0011111498 -0.087794036 0.18851183 0.03028296 0.08296387 0.108729735 0.21245839 0.20710774
-0.187734 -0.11535576 -0.017460153 0.08125819 -0.026087746 -0.03964971 0.20929281 0.14842103
-0.14858964 -0.08055866 0.12235464 0.07990788 -0.062651694 -0.05675526 -0.012424052 -0.1130139
-0.16835985 -0.100996345 0.11788611 -0.133583 0.20973526 0.13201265 0.09969191 -0.038852125
0.04467009 -0.06481314 0.16068824 -0.20936282 -0.03948696 -0.093348816 -0.10442789 0.11783762
0.19672023 -0.18602039 -0.15407881 0.05548276 0.18848346 -0.08466406 -0.096587636 -0.2020444
0.15072252 0.21478514 -0.1478771 0.10828762 0.11861126 -0.1572776 0.16575034 0.12827902
0.1567656 0.057127252 0.13806237 0.1600485 -0.04467866 -0.06293395 -0.09396827 0.20512368
-0.07978584 0.14227106 -0.18745577 -0.04606104 -0.19109873 -0.1988654 -0.14883567 -0.17575851
0.07617359 0.19439612 0.023338065 0.030486152 -0.14389461 -0.19406521 0.04164289 0.17540805
0.026597977 -0.01755774 -0.043602273 -0.092534706 -0.11780545 -0.10615256 0.19845761 0.2131295
-0.0007125288 0.057507887 0.07377003 -0.18521746 -0.1227709 0.0012207478 0.084511176 -0.061911196
0.08997442 0.022209212 -0.17914209 -0.18321325 -0.21284565 0.11142592 -0.044812202 -0.014947489
-0.08388434 -0.20920902 0.04447697 -0.17852174 0.020344853 -0.21202514 -0.17984125 -0.028081015
0.21259914 0.04155375 0.14761062 -0.18432215 -0.19160107 0.060722277 -0.19616301 -0.21598262
0.009084091 0.044997707 0.04821025 -0.008404389 -0.1364507 -0.038533613 -0.13023056 0.0504923
0.20997168 -0.15403615 0.21067886 -0.17802955 -0.18559286 0.14730702 -0.06016551 -0.09939164
-0.042997688 -0.18100846 -0.19580704 -0.11396452 0.21231546 -0.077865034 0.07498436 0.18318509
-0.12310565 -0.1433776 0.055245712 0.1643308 0.20287557 0.052694514 0.029395238 -0.1290678
0.052294627 -0.13758482 -0.19133237 0.14587043 -0.09041211 0.0902314 0.15697254 -0.09745649
-0.006638691 0.12836029 -0.10870582 0.14433302 0.20309968 0.18706025 0.0022599846 -0.17407736
-0.0007966608 0.20206992 0.20626898 -0.036456972 0.20782681 -0.13342364 -0.0050243437 0.027269274
-0.20184597 0.09671681 0.06479134 -0.10627613 0.11676915 -0.14514957 -0.07659908 0.10261653
0.03326401 -0.00026129186 0.09221293 0.03903781 0.17886265 0.057717487 -0.036328673 0.0072910488
0.15522258 -0.08201912 0.20876835 -0.05223608 -0.0068198442 -0.10716138 -0.1181045 -0.16312662
0.1917391 0.0550818 -0.09031135 0.1956469 -0.049912557 0.096830234 0.109729424 0.15357311
0.14511038 0.19005628 -0.21410576 0.015013531 0.022492826 0.13733254 0.08032067 -0.14934084
-0.15553093 -0.21108912 0.14559923 -0.021595076 -0.11226145 0.0840867 -0.11496539 -0.20877649
-0.20385829 0.06161903 0.05436693 -0.011323944 0.14049478 0.17874278 0.042033836 0.020143315
-0.0503944 -0.12847193 0.19284119 -0.12670244 -0.17786628 -0.16875328 0.20228605 -0.20554577
0.13677366 0.019214481 0.071913674 -0.15766701 -0.08596966 -0.07471356 -0.09455439 -0.018254742
00000000: bfc7 30be a46e 483d 5886 c7bc 5978 1f3e
00000010: 8f0e 1d3e 3ec5 e03d 9043 53be f008 6f3c
00000020: 00a4 913a 5ccd b3bd 3f09 413e f813 f83c
00000030: f6e8 a93d b2ad de3d b18e 593e 0d14 543e
00000040: 573d 40be a43f ecbd 9808 8fbc b26a a63d
00000050: f8b5 d5bc bc67 22bd db50 563e affb 173e
00000060: e227 18be f0fb a4bd 1295 fa3d bea6 a33d
00000070: 884f 80bd 3478 68bd 408e 4bbc d573 e7bd
00000080: 8666 2cbe 2cd7 cebd 466e f13d fbc9 08be
00000090: d7c4 563e 532e 073e 462b cc3d 6823 1fbd
000000a0: fcf7 363d c0bc 84bd 758b 243e 3563 56be
000000b0: 14bd 21bd aa2d bfbd 4ade d5bd da54 f13d
000000c0: 0771 493e 217c 3ebe d6c6 1dbe e441 633d
000000d0: cf01 413e 5a64 adbd bdcf c5bd bae4 4ebe
000000e0: 0157 1a3e a3f0 5b3e 186d 17be e6c5 dd3d
000000f0: 76ea f23d 610d 21be 75ba 293e 935b 033e
00000100: 2987 203e 44fe 693d 3960 0d3e c1e3 233e
00000110: f800 37bd 84e3 80bd 7072 c0bd f10b 523e
00000120: c266 a3bd 81af 113e 68f4 3fbe 80aa 3cbd
00000130: 63af 43be 5fa3 4bbe 6168 18be 0afa 33be
00000140: e600 9c3d c70f 473e 782f bf3c 18be f93c
00000150: 1c59 13be 08b9 46be bc91 2a3d 2b9e 333e
00000160: 00e4 d93c 40d5 8fbc 4c98 32bd d682 bdbd
00000170: fc43 f1bd 8366 d9bd 7938 4b3e 9f3e 5a3e
00000180: 00c9 3aba 648d 6b3d be14 973d a5a9 3dbe
00000190: 4f6f fbbd 8001 a03a 3214 ad3d 9896 7dbd
000001a0: 8244 b83d 18f0 b53c 0671 37be 419c 3bbe
000001b0: 36f4 59be 4633 e43d 008d 37bd 50e6 74bc
000001c0: 8ecb abbd e43a 56be 7c2d 363d 67ce 36be
000001d0: 40aa a63c 1e1d 59be 4e28 38be 280a e6bc
000001e0: 97b3 593e 4434 2a3d 3d27 173e f2be 3cbe
000001f0: 1233 44be ecb7 783d f5de 48be 8c2a 5dbe
00000200: 70d5 143c 844f 383d 1c78 453d 90b2 09bc
00000210: bbb9 0bbe 6cd5 1dbd 295b 05be 04d1 4e3d
00000220: d102 573e a7bb 1dbe 33bc 573e 614d 36be
00000230: 0e0c 3ebe a7d7 163e 1c70 76bd d88d cbbd
00000240: 581e 30bd 485a 39be a481 48be 3b66 e9bd
00000250: 3969 593e b477 9fbd 6691 993d df94 3b3e
00000260: d11e fcbd 94d1 12be 5449 623d 5546 283e
00000270: 9dbe 4f3e 34d6 573d 48ce f03c 592a 04be
00000280: e432 563d 09e3 0cbe a2ec 43be 0f5f 153e
00000290: fc29 b9bd 3ecb b83d 69bd 203e 4597 c7bd
000002a0: 6089 d9bb e170 033e 28a1 debd 09cc 133e
000002b0: 5df9 4f3e b98c 3f3e 401c 143b 5641 32be
000002c0: 00d7 50ba 6beb 4e3e 2d38 533e e853 15bd
000002d0: 8dd0 543e 35a0 08be 40a3 a4bb d063 df3c
000002e0: b6b0 4ebe 7613 c63d 52b1 843d 4da7 d9bd
000002f0: aa24 ef3d 17a2 14be fadf 9cbd 9e28 d23d
00000300: d83f 083d 00fe 88b9 22da bc3d 1ce6 1f3d
00000310: c527 373e 2c69 6c3d 60cd 14bd c0e9 ee3b
00000320: abf2 1e3e a4f9 a7bd 5fc7 553e 80f5 55bd
00000330: 0079 dfbb 6d77 dbbd c6e0 f1bd aa0a 27be
00000340: 4157 443e 749d 613d 28f5 b8bd a957 483e
00000350: 1c71 4cbd ee4e c63d d2b9 e03d 4542 1d3e
00000360: d197 143e 1d9e 423e 8a3e 5bbe 50fb 753c
00000370: e042 b83c e7a0 0c3e 2a7f a43d ceec 18be
00000380: 8043 1fbe bf27 58be f717 153e 28e8 b0bc
00000390: 55e9 e5bd a635 ac3d f972 ebbd 81c9 55be
000003a0: 3ac0 50be 3c64 7c3d dcaf 5e3d 1088 39bc
000003b0: dddd 0f3e 5908 373e ac2b 2c3d 9803 a53c
000003c0: 5c6a 4ebd 258e 03be 2978 453e 49be 01be
000003d0: 9422 36be a9cd 2cbe 1324 4f3e 977a 52be
000003e0: 650e 0c3e b067 9d3c 7a47 933d 7673 21be
000003f0: dc10 b0bd 6c03 99bd bba5 c1bd f88a 95bc

network.6.bias f4 [64]
0.0 0.0 0.0 0.0 0.0 0.0 0.0 0.0
0.0 0.0 0.0 0.0 0.0 0.0 0.0 0.0
0.0 0.0 0.0 0.0 0.0 0.0 0.0 0.0
0.0 0.0 0.0 0.0 0.0 0.0 0.0 0.0
0.0 0.0 0.0 0.0 0.0 0.0 0.0 0.0
0.0 0.0 0.0 0.0 0.0 0.0 0.0 0.0
0.0 0.0 0.0 0.0 0.0 0.0 0.0 0.0
0.0 0.0 0.0 0.0 0.0 0.0 0.0 0.0
00000000: 0000 0000 0000 0000 0000 0000 0000 0000
00000010: 0000 0000 0000 0000 0000 0000 0000 0000
00000020: 0000 0000 0000 0000 0000 0000 0000 0000
00000030: 0000 0000 0000 0000 0000 0000 0000 0000
00000040: 0000 0000 0000 0000 0000 0000 0000 0000
00000050: 0000 0000 0000 0000 0000 0000 0000 0000
00000060: 0000 0000 0000 0000 0000 0000 0000 0000
00000070: 0000 0000 0000 0000 0000 0000 0000 0000
00000080: 0000 0000 0000 0000 0000 0000 0000 0000
00000090: 0000 0000 0000 0000 0000 0000 0000 0000
000000a0: 0000 0000 0000 0000 0000 0000 0000 0000
000000b0: 0000 0000 0000 0000 0000 0000 0000 0000
000000c0: 0000 0000 0000 0000 0000 0000 0000 0000
000000d0: 0000 0000 0000 0000 0000 0000 0000 0000
000000e0: 0000 0000 0000 0000 0000 0000 0000 0000
000000f0: 0000 0000 0000 0000 0000 0000 0000 0000

network.8.weight f4 [64, 64]
-0.00089626014 0.15605174 0.17998113 0.18890886 -0.1921163 -0.012708664 -0.048576504 0.10419072
-0.185288 -0.20984828 0.209929 0.19028832 -0.09063035 -0.08052978 0.15052073 -0.062706664
-0.109325945 0.105229184 -0.12881795 0.11107026 -0.18846178 -0.0076322258 0.20899983 -0.14063382
0.2054617 0.112524495 -0.10669402 -0.09262223 -0.12413473 0.19211023 -0.06457208 -0.00023931265
0.20553933 0.11885686 -0.13614456 -0.01625809 -0.041817978 0.17581321 -0.037692264 0.0041951686
-0.006309688 -0.055774525 -0.15858772 0.0684153 -0.193939 -0.18310177 0.16405 -0.05438806
-0.062010348 -0.15777358 -0.1540937 -0.030264765 0.12181832 -0.12070025 0.040803 -0.086033866
0.14603908 0.0012760758 0.20327996 0.042988345 0.03299807 -0.16699252 0.21596308 0.10711162
0.21538268 -0.20151311 -0.045087114 -0.14964978 0.10214634 0.079261735 0.08545424 0.1572514
-0.050902814 0.10087319 0.21179675 -0.15961857 -0.05792126 0.027246252 -0.21123451 0.16222365
0.1094832 -0.10488861 0.09975551 0.21259008 0.17462154 0.021075651 -0.07580623 0.08917309
-0.02400148 -0.045084134 -0.2164327 -0.16524684 -0.12759736 0.15127395 0.08918996 -0.049115628
0.10442583 0.0027451813 0.033705994 -0.04449314 0.20352145 0.14942513 0.15465872 0.14437573
-0.21390699 0.20490982 0.0693465 -0.06735435 0.15089236 0.14537649 -0.011669919 0.14708658
0.19997768 -0.208035 0.009374782 -0.0059295744 0.047942266 0.15210675 -0.10266778 -0.07450846
0.19786881 -0.14207762 -0.000104635954 0.13324903 -0.12832159 0.20306213 -0.055689692 -0.17759855
0.17574628 0.10018335 0.15337987 0.10082643 0.08276756 0.039278463 -0.09372481 0.09566079
0.009305224 0.13648926 -0.0021708459 -0.14251062 -0.18405119 -0.05733046 0.004560441 -0.08963196
0.13507007 0.037473574 -0.06750761 0.024096534 0.026126206 0.09645347 0.2051829 0.13483383
0.19068785 -0.07604346 0.07982285 -0.1015136 0.15263371 0.19316374 0.17897232 -0.20073342
0.0768681 -0.14246053 0.071820244 -0.15020931 0.054597214 0.08006494 0.14936496 0.20408912
0.07161103 -0.206956 0.086831495 -0.19643727 -0.01090844 0.054690972 0.04925005 0.044471458
0.19935025 -0.0033880025 0.1611322 -0.1502985 0.20343123 0.10705285 0.14660375 0.16640632
0.07774879 -0.030889481 0.07987012 0.15757321 0.112833455 -0.05986625 0.064233825 -0.040491953
-0.14415127 0.20569728 -0.091763206 0.053781733 0.025260031 -0.12726054 0.090944454 -0.113262065
-0.17571107 0.068029806 -0.05090612 -0.14136553 -0.076643184 0.15219365 -0.20007458 0.1836312
-0.052334115 0.13969399 -0.060703233 -0.1656713 0.17702301 0.14003582 0.049405023 0.1685495
0.18101995 0.066146985 0.04679604 0.20967497 0.05337198 0.12375797 0.055202946 0.045845762
0.07554354 -0.104630314 -0.0012695789 0.08948125 0.093371466 0.19607405 -0.053556427 0.045177504
-0.20236608 -0.1852307 -0.16909274 -0.21046263 0.14230596 0.1597793 -0.08608745 0.099599555
0.03825803 -0.1049791 0.022244781 0.07738812 -0.15922084 0.16803868 -0.13080266 -0.019665658
0.16804715 0.08267592 0.059437886 -0.024307728 0.025398448 -0.0594687 0.05974303 -0.18385732
00000000: 00f3 6aba 07cc 1f3e f94c 383e 5371 413e
00000010: 23ba 44be 0038 50bc 28f8 46bd f261 d53d
00000020: 23bc 3dbe 78e2 56be a1f7 563e f1da 423e
00000030: 689c b9bd ccec a4bd 1b22 1a3e 5a6c 80bd
00000040: 48e6 dfbd 6682 d73d dae8 03be ce78 e33d
00000050: 20fc 40be c017 fabb 0d04 563e 5002 10be
00000060: 8d64 523e 3e73 e63d 6582 dabd b9b0 bdbd
00000070: 593a febd 8bb8 443e 5e3e 84bd 00f0 7ab9
00000080: e778 523e 3a6b f33d 7b69 0bbe b02f 85bc
00000090: 5449 2bbd 6108 343e 3463 1abd a077 893b
000000a0: 80c1 cebb d473 64bd d264 22be 521d 8c3d
000000b0: f297 46be 087f 3bbe b9fc 273e 04c6 5ebd
000000c0: 90fe 7dbd 668f 21be bdca 1dbe d0ed f7bc
000000d0: e27b f93d b131 f7bd 0c21 273d 8632 b0bd
000000e0: 458b 153e 0042 a73a 9f28 503e 8c14 303d
000000f0: fc28 073d 1600 2bbe 6d25 5d3e 565d db3d
00000100: 478d 5c3e 7459 4ebe 44ad 38bd cb3d 19be
00000110: 1a32 d13d fa53 a23d a202 af3d 8306 213e
00000120: 787f 50bd 9a96 ce3d 3fe1 583e 0d73 23be
00000130: d83e 6dbd 8833 df3c dc4d 58be f51d 263e
00000140: ba38 e03d d7cf d6bd 9e4c cc3d 37b1 593e
00000150: fdcf 323e d8a6 ac3c 4c40 9bbd 62a0 b63d
00000160: c09e c4bc 24aa 38bd 89a0 5dbe 7836 29be
00000170: e2a8 02be 8fe7 1a3e 3aa9 b63d 782d 49bd
00000180: 36dd d53d 80e8 333b 4c0f 0a3d 703e 36bd
00000190: ed67 503e e702 193e db5e 1e3e 3bd7 133e
000001a0: 6f0a 5bbe e1d3 513e 8a05 8e3d 14f1 89bd
000001b0: 8783 1a3e 93dd 143e 3033 3fbc dd9d 163e
000001c0: f3c6 4c3e 2107 55be b098 193c e04c c2bb
000001d0: 1c5f 443d dfc1 1b3e 7c43 d2bd e497 98bd
000001e0: 1f9e 4a3e cc7c 11be 0070 dbb8 6f72 083e
000001f0: bc66 03be 85ef 4f3e e01a 64bd 65dc 35be
00000200: d5f6 333e ee2c cd3d 9d0f 1d3e 167e ce3d
00000210: 0a82 a93d 74e2 203d cbf2 bfbd cee9 c33d
00000220: f074 183c d7c3 0b3e c044 0ebb 4eee 11be
00000230: ea77 3cbe 58d3 6abd c06f 953b f690 b7bd
00000240: cf4f 0a3e e47d 193d 6e41 8abd 1866 c53c
00000250: a006 d63c 6689 c53d 771b 523e e111 0a3e
00000260: ad43 433e acbc 9bbd 2a7a a33d 5de6 cfbd
00000270: 034c 1c3e b7cc 453e 8544 373e 108d 4dbe
00000280: 066d 9d3d 2ce1 11be 7e16 933d 78d0 19be
00000290: 54a1 5f3d 16f9 a33d 21f3 183e bdfc 503e
000002a0: cea8 923d 46ec 53be b6d4 b13d da26 49be
000002b0: 50b9 32bc a403 603d 6cba 493d b427 363d
000002c0: 7922 4c3e 4009 5ebb d7ff 243e dae7 19be
000002d0: 4750 503e 863e db3d 4b1f 163e 6b66 2a3e
000002e0: c23a 9f3d f00b fdbc f292 a33d df5a 213e
000002f0: 3a15 e73d 5036 75bd 068d 833d e4da 25bd
00000300: 649c 13be 4fa2 523e 59ee bbbd 3c4a 5c3d
00000310: 20ee ce3c 9650 02be 1641 ba3d f1f5 e7bd
00000320: 9aed 33be 3653 8b3d f082 50bd 20c2 10be
00000330: 1af7 9cbd a7d8 1b3e 5ae0 4cbe d109 3c3e
00000340: 4c5c 56bd f10b 0f3e f4a3 78bd bda5 29be
00000350: 8545 353e 8d65 0f3e ec5c 4a3d 3d98 2c3e
00000360: 4b5d 393e 1278 873d 34ad 3f3d 09b5 563e
00000370: 949c 5a3d d274 fd3d 7c1c 623d c4c8 3b3d
00000380: 92b6 9a3d 6b48 d6bd 0068 a6ba f241 b73d
00000390: 8a39 bf3d a3c7 483e fc5d 5bbd 0c0c 393d
000003a0: 0e39 4fbe 1ead 3dbe a626 2dbe 8483 57be
000003b0: a7b8 113e 2f9d 233e 9e4e b0bd dafa cb3d
000003c0: 74b4 1c3d 48ff d6bd b03a b63c aa7d 9e3d
000003d0: ca0a 23be 5512 2c3e 22f1 05be e019 a1bc
000003e0: 8d14 2c3e fe51 a93d 2475 733d 0021 c7bc
000003f0: 6810 d03c 7495 73bd 1cb5 743d 1845 3cbe

network.8.bias f4 [64]
0.0 0.0 0.0 0.0 0.0 0.0 0.0 0.0
0.0 0.0 0.0 0.0 0.0 0.0 0.0 0.0
0.0 0.0 0.0 0.0 0.0 0.0 0.0 0.0
0.0 0.0 0.0 0.0 0.0 0.0 0.0 0.0
0.0 0.0 0.0 0.0 0.0 0.0 0.0 0.0
0.0 0.0 0.0 0.0 0.0 0.0 0.0 0.0
0.0 0.0 0.0 0.0 0.0 0.0 0.0 0.0
0.0 0.0 0.0 0.0 0.0 0.0 0.0 0.0
00000000: 0000 0000 0000 0000 0000 0000 0000 0000
00000010: 0000 0000 0000 0000 0000 0000 0000 0000
00000020: 0000 0000 0000 0000 0000 0000 0000 0000
00000030: 0000 0000 0000 0000 0000 0000 0000 0000
00000040: 0000 0000 0000 0000 0000 0000 0000 0000
00000050: 0000 0000 0000 0000 0000 0000 0000 0000
00000060: 0000 0000 0000 0000 0000 0000 0000 0000
00000070: 0000 0000 0000 0000 0000 0000 0000 0000
00000080: 0000 0000 0000 0000 0000 0000 0000 0000
00000090: 0000 0000 0000 0000 0000 0000 0000 0000
000000a0: 0000 0000 0000 0000 0000 0000 0000 0000
000000b0: 0000 0000 0000 0000 0000 0000 0000 0000
000000c0: 0000 0000 0000 0000 0000 0000 0000 0000
000000d0: 0000 0000 0000 0000 0000 0000 0000 0000
000000e0: 0000 0000 0000 0000 0000 0000 0000 0000
000000f0: 0000 0000 0000 0000 0000 0000 0000 0000

network.10.weight f4 [64, 64]
0.20516233 0.1260543 0.19812037 -0.016758308 -0.1936273 0.02500251 -0.014227569 -0.18419977
0.08099963 0.17523487 0.19054501 -0.097706325 -0.053074688 -0.06623781 0.08452837 0.06519292
-0.1381858 0.08441369 0.17944033 -0.15816236 0.049781695 0.13898827 -0.07474232 -0.18325686
-0.085840866 0.07796319 0.04943447 0.13714392 -0.016315624 -0.052253664 -0.0674236 -0.12745419
-0.14606184 -0.15960996 -0.14974304 -0.19372171 0.060710892 0.08699651 0.18623142 0.11671077
0.20467652 0.023545831 -0.17096849 -0.17607039 -0.091877826 0.20825265 -0.083326116 -0.09853166
0.19779672 0.19982336 0.057808623 0.15993689 0.1370637 -0.017809898 0.18972667 0.0662169
-0.1248216 0.035183474 0.12675612 -0.2147382 0.21160074 -0.13015631 -0.21207276 0.051085576
-0.12296117 0.103180245 -0.13220927 0.13737224 0.06380515 0.09444259 -0.016000673 0.18996911
-0.21037865 0.033799037 0.19974728 -0.15689284 -0.08124539 0.006431356 0.1912279 0.18069081
0.13252611 0.07836451 -0.07409522 -0.043208957 0.19168912 0.2129169 -0.15568058 0.024528176
0.14936964 -0.016650498 0.11647032 5.120039e-05 -0.013897285 0.19304357 0.012057021 -0.20435096
-0.1429658 0.19876967 0.06547414 -0.14453931 0.09040479 -0.17239237 -0.06622021 0.1720327
0.11958657 -0.1399101 -0.06973861 0.10968606 -0.20828716 -0.1141152 0.19759543 -0.21101613
-0.05442056 -0.17686975 0.18825252 0.1949421 -0.13722047 0.06732626 0.029548183 0.047289357
-0.16641338 -0.015056998 0.1235864 -0.18596242 -0.060169697 -0.054980084 0.18466325 -0.20725106
-0.12968567 0.15623589 0.15713577 0.1513098 0.16446234 -0.21163735 0.042263284 0.11574985
0.07427092 -0.05786492 -0.086524695 -0.042182952 0.19916405 -0.029683635 0.13097446 -0.004395351
0.044693395 0.07279767 -0.10778468 0.17544265 0.1708984 0.11180405 -0.08308087 -0.06874043
0.20992894 0.08196972 0.11481656 -0.05700113 0.018865809 0.12477474 -0.06380355 0.0009775907
0.090658024 -0.07505526 0.18364759 -0.079664916 0.067693934 0.024379537 0.1938758 -0.018343717
0.07031785 0.056442067 -0.17063302 0.13530605 0.13906278 0.054445848 -0.007640511 -0.115136355
0.16911758 0.20496653 -0.0787317 0.121288404 -0.087340355 0.20172225 0.0636348 -0.033638224
-0.12337219 -0.19215135 -0.053326562 -0.061248913 -0.15519792 -0.05009857 0.09492876 -0.2095642
-0.1007723 0.036734983 0.12373178 0.014174104 0.05274348 -0.14737718 -0.09133862 0.05874504
-0.13980767 0.0051074773 0.18762381 -0.15086666 0.100160554 0.10592617 0.013067156 -0.05907516
0.057434157 0.027635202 -0.2018804 0.042369828 -0.18625368 -0.157716 -0.029069081 0.16185774
0.20188181 -0.14191473 0.009171069 -0.06661898 0.031026766 0.16571407 -0.055576846 0.18209128
0.13792981 -0.05956219 -0.06774673 0.1583559 -0.0647808 0.082447514 0.1283968 0.19236405
0.11755173 0.048949435 -0.01996474 -0.046218455 -0.0046078116 -0.15543108 -0.21137871 0.109569445
0.09726311 -0.078318894 -0.029956236 -0.21177821 0.03958763 -0.16875103 0.10692926 -0.21563604
0.16660567 0.06815146 0.07380663 -0.07599665 -0.021928638 -0.16388804 -0.069884434 0.04663612
00000000: 1316 523e 6114 013e 11e0 4a3e b848 89bc
00000010: 3c46 46be 10d2 cc3c c01a 69bc dd9e 3cbe
00000020: 22e3 a53d c570 333e 3b1e 433e 411a c8bd
00000030: d864 59bd b0a7 87bd 361d ad3d de83 853d
00000040: 9480 0dbe 16e1 ac3d 35bf 373e 50f5 21be
00000050: e4e7 4b3d f152 0e3e 8012 99bd b0a7 3bbe
00000060: 56cd afbd 2aab 9f3d cc7b 4a3d 756f 0c3e
00000070: 58a8 85bc f007 56bd 6215 8abd 5a83 02be
00000080: 3c91 15be cb70 23be 3d56 19be fc5e 46be
00000090: fcab 783d 3a2b b23d 73b3 3e3e 0e06 ef3d
000000a0: b996 513e 30e3 c03c 5d12 2fbe cc4b 34be
000000b0: 712a bcbd 2f40 553e e2a6 aabd f8ca c9bd
000000c0: 398b 4a3e 7f9e 4c3e bcc8 6c3d 7fc6 233e
000000d0: 6d5a 0c3e 10e6 91bc b547 423e ba9c 873d
000000e0: 78a2 ffbd 8c1c 103d 5bcc 013e 55e4 5bbe
000000f0: ddad 583e b247 05be 9a29 59be 1c3f 513d
00000100: 11d3 fbbd 2a50 d33d de61 07be 4fab 0c3e
00000110: 46ac 823d 1e6b c13d d813 83bc 4387 423e
00000120: 806d 57be dc70 0a3d 8d8a 4c3e 84a8 20be
00000130: fc63 a6bd 20be d23b 3fd1 433e 0307 393e
00000140: edb4 073e 927d a03d 3cbf 97bd e0fb 30bd
00000150: 274a 443e e306 5a3e bb6a 1fbe 50ef c83c
00000160: 5bf4 183e a066 88bc fe87 ee3d 00c0 5638
00000170: 70b1 63bc 37ad 453e d08a 453c 6141 51be
00000180: a065 12be 478a 4b3e 4e17 863d 1d02 14be
00000190: 2626 b93d a087 30be 769e 87bd 5729 303e
000001a0: cee9 f43d 9844 0fbe 1ed3 8ebd 16a3 e03d
000001b0: 3b49 55be 3bb5 e9bd 7556 4a3e 9d14 58be
000001c0: 18e8 5ebd 581d 35be 45c5 403e e79e 473e
000001d0: 8683 0cbe 5ae2 893d 080f f23c 7cb2 413d
000001e0: 4568 2abe a0b1 76bc de1a fd3d ef6c 3ebe
000001f0: 8074 76bd cc32 61bd 5d18 3d3e 9f39 54be
00000200: 52cc 04be 4dfc 1f3e 33e8 203e f5f0 1a3e
00000210: d168 283e 76b7 58be 441c 2d3d 420e ed3d
00000220: 5a1b 983d c403 6dbd dc33 b1bd 08c8 2cbd
00000230: a9f1 4b3e 182b f3bc 2b1e 063e e006 90bb
00000240: 6c10 373d f216 953d 37be dcbd 3da7 333e
00000250: fdff 2e3e 86f9 e43d 4e26 aabd c8c7 8cbd
00000260: 9df7 563e bedf a73d f224 eb3d 047a 69bd
00000270: 788c 9a3c e689 ff3d 70ab 82bd 8022 803a
00000280: eaaa b93d 92b6 99bd 1d0e 3c3e 5c27 a3bd
00000290: 1ea3 8a3d 98b7 c73c 6187 463e 9045 96bc
000002a0: ce02 903d cc2f 673d 6cba 2ebe ab8d 0a3e
000002b0: 7966 0e3e 9c02 5f3d 405d fabb 9ccc ebbd
000002c0: 292d 2d3e bfe2 513e 163e a1bd 0e66 f83d
000002d0: 80df b2bd 4790 4e3e f652 823d 3cc8 09bd
000002e0: 8faa fcbd 53c3 44be f46c 5abd 24e0 7abd
000002f0: 34ec 1ebe 2834 4dbd 026a c23d ff97 56be
00000300: b561 cebd 6c77 163d 1667 fd3d 803a 683c
00000310: 8c09 583d 0bea 16be be0f bbbd a49e 703d
00000320: be29 0fbe a05c a73b 7520 403e ca7c 1abe
00000330: fa20 cd3d d2ef d83d a017 563c ccf8 71bd
00000340: 1440 6b3d 3863 e23c bcb9 4ebe fc8b 2d3d
00000350: 49b9 3ebe 4e80 21be 4822 eebc 09be 253e
00000360: 1bba 4e3e 1852 11be 4042 163c 886f 88bd
00000370: d82b fe3c f3b0 293e 8ca4 63bd 2376 3a3e
00000380: 793d 0d3e 7cf7 73bd ccbe 8abd 0d28 223e
00000390: ccab 84bd 3eda a83d 737a 033e 15fb 443e
000003a0: f6be f03d 347f 483d 188d a3bc 904f 3dbd
000003b0: 20fd 96bb 5329 1fbe a973 58be f265 e03d
000003c0: e231 c73d a865 a0bd c866 f5bc 63dc 58be
000003d0: a426 223d 12cd 2cbe bafd da3d b2cf 5cbe
000003e0: ad9a 2a3e fe92 8b3d ee27 973d 22a4 9bbd
000003f0: b0a3 b3bc 44d2 27be 921f 8fbd 8405 3f3d

network.10.bias f4 [64]
0.0 0.0 0.0 0.0 0.0 0.0 0.0 0.0
0.0 0.0 0.0 0.0 0.0 0.0 0.0 0.0
0.0 0.0 0.0 0.0 0.0 0.0 0.0 0.0
0.0 0.0 0.0 0.0 0.0 0.0 0.0 0.0
0.0 0.0 0.0 0.0 0.0 0.0 0.0 0.0
0.0 0.0 0.0 0.0 0.0 0.0 0.0 0.0
0.0 0.0 0.0 0.0 0.0 0.0 0.0 0.0
0.0 0.0 0.0 0.0 0.0 0.0 0.0 0.0
00000000: 0000 0000 0000 0000 0000 0000 0000 0000
00000010: 0000 0000 0000 0000 0000 0000 0000 0000
00000020: 0000 0000 0000 0000 0000 0000 0000 0000
00000030: 0000 0000 0000 0000 0000 0000 0000 0000
00000040: 0000 0000 0000 0000 0000 0000 0000 0000
00000050: 0000 0000 0000 0000 0000 0000 0000 0000
00000060: 0000 0000 0000 0000 0000 0000 0000 0000
00000070: 0000 0000 0000 0000 0000 0000 0000 0000
00000080: 0000 0000 0000 0000 0000 0000 0000 0000
00000090: 0000 0000 0000 0000 0000 0000 0000 0000
000000a0: 0000 0000 0000 0000 0000 0000 0000 0000
000000b0: 0000 0000 0000 0000 0000 0000 0000 0000
000000c0: 0000 0000 0000 0000 0000 0000 0000 0000
000000d0: 0000 0000 0000 0000 0000 0000 0000 0000
000000e0: 0000 0000 0000 0000 0000 0000 0000 0000
000000f0: 0000 0000 0000 0000 0000 0000 0000 0000

network.12.weight f4 [5, 64]
0.09523481 0.14747086 -0.023091674 0.23080313 0.24813819 -0.16632707 0.22050852 0.16885859
-0.05835484 0.29000223 -0.14694911 -0.20067157 -0.056011647 0.22606534 0.02218324 -0.04873155
-0.013082713 0.2550928 0.22536856 -0.046555102 0.21177113 -0.029147804 -0.1463417 -0.19205403
-0.2583118 0.044080317 0.252572 -0.17707011 -0.030411184 -0.04033053 0.035350382 0.08994329
0.21145576 -0.24212313 0.2877766 0.11150351 -0.24849856 -0.07664798 -0.1074208 -0.26876065
-0.02501446 -0.11063862 -0.256441 0.09887153 -0.17869887 0.14993784 -0.12120217 -0.2829204
0.044431686 -0.08799885 0.1868138 0.19689178 0.20115888 0.12228504 0.2789107 0.23322046
0.049198627 -0.0702793 0.08040118 -0.23204556 0.0040161014 -0.18991087 0.121290565 0.21469355
-0.2652413 0.23817182 -0.004943371 0.115887165 -0.2226719 -0.23298088 -0.10849851 0.17288074
0.29241598 0.07383302 -0.0061264336 0.11827633 -0.18923834 0.14103752 -0.27065414 0.07793167
-0.045398608 0.23879296 -0.057759866 0.024879366 -0.05881256 -0.12096216 -0.17103651 0.11673069
0.26573592 -0.032504797 -0.28815183 0.101258665 -0.2532193 0.23588097 0.16833997 -0.24542645
0.015656114 0.058700234 -0.16311245 0.18793973 0.015168816 0.09507343 0.27224237 -0.044525057
0.028350592 -0.0032784045 0.2940327 0.09870285 0.23628366 -0.28106064 0.15400252 -0.17483728
0.07633424 0.20559788 0.2777208 -0.29085657 -0.005135834 0.15912688 -0.20698449 0.04749477
0.19909975 -0.12193413 -0.05679661 -0.1774297 -0.2442528 -0.24381047 -0.14556092 0.098778814
-0.2659511 -0.02036637 0.27551013 0.06590131 0.18893296 -0.08785392 0.26221865 0.16705483
0.075739235 -0.07728323 0.08676711 0.09291038 0.28383088 -0.2688076 0.19088534 -0.004637569
-0.104009 0.26447827 -0.23774709 0.1013276 -0.27068728 0.22774923 -0.10016391 -0.19602218
0.14432779 0.13189337 -0.056182772 0.14724907 -0.13689521 -0.11552945 0.054328978 0.042266488
0.04894194 0.28971553 0.009215474 0.1573832 -0.037518263 0.16279694 0.23747885 -0.06522189
-0.06251986 0.23404914 -0.0472603 -0.0055585504 0.07446653 0.077944905 -0.18563253 -0.15489605
-0.069297716 -0.2333425 -0.22549662 -0.17002295 0.18688187 0.01835537 -0.092345715 -0.22744271
0.15147293 -0.24809617 0.15753594 -0.17673442 0.14939758 0.10256693 -0.056799248 0.25924236
0.16000578 -0.1260666 0.21912348 0.13385573 -0.13834114 0.0645099 -0.056169942 0.24512601
-0.057893097 -0.15586364 0.026943862 -0.13318679 -0.19888112 0.017690629 0.09452608 0.013052434
-0.29175678 0.06379491 -0.02369988 -0.053491533 -0.16226853 0.26937217 -0.08157463 -0.21846575
-0.18476048 0.14985731 -0.2454834 -0.0070678294 -0.037352353 -0.22082792 -0.08981876 -0.046600476
0.16275975 0.27347434 -0.19370806 0.014378279 0.015464544 -0.13824746 0.03279254 0.24070913
0.23421663 -0.16898826 -0.027771026 0.1620731 -0.10452968 0.11657107 -0.0071779788 -0.08512285
0.017808735 -0.2811042 0.045613527 -0.21088193 -0.26242858 -0.037751257 -0.16979963 -0.23551622
0.108629465 -0.084434345 -0.05955562 -0.23716302 0.062285393 -0.22786279 0.03081429 0.13568982
00000000: 780a c33d 9a02 173e c02a bdbc a857 6c3e
00000010: f017 7e3e a551 2abe fccc 613e 44e9 2c3e
00000020: 7c05 6fbd 2c7b 943e d479 16be d97c 4dbe
00000030: 786c 65bd ac7d 673e a0b9 b53c bc9a 47bd
00000040: e058 56bc 869b 823e 04c7 663e 90b0 3ebd
00000050: 88da 583e 60c7 eebc 99da 15be d0a9 44be
00000060: 7241 84be 908d 343d 1e51 813e de51 35be
00000070: e020 f9bc a031 25bd 90cb 103d 3034 b83d
00000080: dc87 583e 20ef 77be 7457 933e f45b e43d
00000090: 6876 7ebe 9ef9 9cbd 70ff dbbd ff9a 89be
000000a0: 20eb ccbc 8096 e2bd 3c4c 83be 287d ca3d
000000b0: d6fc 36be 4e89 193e d838 f8bd f1da 90be
000000c0: 00fe 353d be38 b4bd 1e4c 3f3e 009e 493e
000000d0: 98fc 4d3e 9470 fa3d 62cd 8e3e 58d1 6e3e
000000e0: 8084 493d 98ee 8fbd 60a9 a43d 5a9d 6dbe
000000f0: 8099 833b ff77 42be 3067 f83d a0d8 5b3e
00000100: b5cd 87be 50e3 733e 00fc a1bb 4056 ed3d
00000110: 1a04 64be 8a92 6ebe 7834 debd a607 313e
00000120: 8cb7 953e c435 973d 40c0 c8bb dc3a f23d
00000130: b2c7 41be 246c 103e 2e93 8abe a49a 9f3d
00000140: e4f3 39bd 2486 743e 9c95 6cbd d0cf cb3c
00000150: 70e5 70bd 02bb f7bd 3224 2fbe 8010 ef3d
00000160: 8a0e 883e c023 05bd a388 93be b460 cf3d
00000170: f6a5 81be c88a 713e 5061 2c3e 1251 7bbe
00000180: 4041 803c a86f 703d f306 27be 4673 403e
00000190: a086 783c dcb5 c23d 5a63 8b3e e85f 36bd
000001a0: 803f e83c 80da 56bb 748b 963e b824 ca3d
000001b0: 58f4 713e 2ee7 8fbe d6b2 1d3e 8b08 33be
000001c0: 2055 9c3d 4088 523e 6c31 8e3e 27eb 94be
000001d0: 804a a8bb 28f2 223e bef3 53be e089 423d
000001e0: cee0 4b3e 9ab8 f9bd 90a3 68bd 22b0 35be
000001f0: 681d 7abe 74a9 79be ec0d 15be 8c4c ca3d
00000200: be2a 88be 60d7 a6bc aa0f 8d3e 44f7 863d
00000210: a477 413e c2ec b3bd 8641 863e 6c10 2b3e
00000220: 2c1d 9b3d ac46 9ebd f4b2 b13d cc47 be3d
00000230: 4852 913e 26a1 89be 7277 433e c0f6 97bb
00000240: ac02 d5bd b269 873e f973 73be d884 cf3d
00000250: 8697 8abe 1837 693e bc22 cdbd 0aba 48be
00000260: aaca 133e 0e0f 073e e81f 66bd 76c8 163e
00000270: 422e 0cbe b49a ecbd 1088 5e3d a01f 2d3d
00000280: 5877 483d 9855 943e 80fc 163c 1029 213e
00000290: c0ac 19bd 3eb4 263e a82d 733e 0e93 85bd
000002a0: 6a0a 80bd 94aa 6f3e 0494 41bd 8024 b6bb
000002b0: e881 983d 94a1 9f3d 7416 3ebe 129d 1ebe
000002c0: f6eb 8dbd 56f1 6ebe 96e8 66be 7f1a 2ebe
000002d0: f65d 3f3e 005e 963c c01f bdbd bee6 68be
000002e0: b81b 1b3e ec0c 7ebe 1a51 213e def9 34be
000002f0: aefb 183e 9c0e d23d 54a6 68bd 6abb 843e
00000300: 8ed8 233e 9a17 01be e861 603e 7a11 093e
00000310: 4da9 0dbe c41d 843d 7412 66bd 5002 7b3e
00000320: 5021 6dbd b89a 1fbe 60b9 dc3c 1e62 08be
00000330: 7ea7 4bbe f0eb 903c e496 c13d e0d9 553c
00000340: 2561 95be e8a6 823d 4026 c2bc f019 5bbd
00000350: b929 26be 26eb 893e 9a10 a7bd 7cb5 5fbe
00000360: da31 3dbe 3274 193e 0060 7bbe 4099 e7bb
00000370: c8fe 18bd b720 62be e6f2 b7bd 24e0 3ebd
00000380: 7eaa 263e d404 8c3e 685b 46be e092 6b3c
00000390: 005f 7d3c be90 0dbe 7851 063d 747c 763e
000003a0: 7cd6 6f3e 420b 2dbe 1080 e3bc 7ef6 253e
000003b0: a813 d6bd d0bc ee3d 4035 ebbb e454 aebd
000003c0: a0e3 913c e4ec 8fbe 40d5 3a3d 6ff1 57be
000003d0: 0a5d 86be 10a1 1abd f4df 2dbe 2a2b 71be
000003e0: 2079 de3d eaeb acbd 98f0 73bd ddda 72be
000003f0: f81e 7f3d dd54 69be 406e fc3c 46f2 0a3e

network.12.bias f4 [5]
0.0 0.0 0.0 0.0 0.0
00000000: 0000 0000 0000 0000 0000 0000 0000 0000
00000010: 0000 0000
