2D_sheet_problem/models/plate_hole_2.pth (torch, 73218 bytes, 12 tensors)

network.0.weight f4 [64, 2]
0	0xbe7d235e	-0.24720523
1	0x3eacc5c3	0.3374463
2	0x3e4f7ca8	0.20262396
3	0x3ea3e765	0.32012478
4	0x3ea16ba3	0.31527433
5	0x3e4ca830	0.19986033
6	0xbea2dcfd	-0.31809226
7	0x3f2dcc1c	0.6788957
8	0xbd888b3c	-0.06667182
9	0x3e93ac0c	0.288422
10	0xbef00364	-0.46877587
11	0x3f13ee9e	0.57785976
12	0xbe19b90b	-0.15011995
13	0x3ec7e70f	0.3904347
14	0x3ebed3d7	0.37270996
15	0xbf030546	-0.5117992
16	0x3edba352	0.4289804
17	0xbe81768a	-0.2528575
18	0xbe356d3d	-0.17717452
19	0x3f24ce30	0.6437712
20	0x3e20f268	0.1571747
21	0x3ee6b1ce	0.4505753
22	0xbe0e693c	-0.13907331
23	0xbeb44994	-0.35212386
24	0x3e8f4a70	0.2798648
25	0x3ecc828c	0.3994335
26	0x3cf454ec	0.02982565
27	0xbf0fda15	-0.5619214
28	0xbe8cd407	-0.27505514
29	0x3f33f854	0.70300794
30	0xbe604c6b	-0.21904151
31	0xbd2ee373	-0.04269738
32	0xbe425ddd	-0.18981119
33	0xbf056433	-0.52106017
34	0x3ebf3d90	0.37351656
35	0xbf15811d	-0.58400136
36	0xbea09c32	-0.31369168
37	0xbd2ba11e	-0.0419017
38	0x3e35cf86	0.17754945
39	0x3e653185	0.22382171
40	0xbd9e0135	-0.07715074
41	0x3f06ed9b	0.5270631
42	0xbf051c99	-0.5199676
43	0x3f3015c0	0.6878319
44	0xbc6a7d9c	-0.014312174
45	0x3e2ccfb1	0.16876103
46	0xbe0acdfc	-0.1355514
47	0xbe404ae1	-0.18778564
48	0xbe9b58f3	-0.303413
49	0xbeca6073	-0.3952671
50	0x3ed8bb3c	0.42330348
51	0xbf3efc01	-0.7460328
52	0xbe5a6891	-0.21328951
53	0x3ec05051	0.37561277
54	0xbe6c6499	-0.2308525
55	0xbda6f799	-0.08152694
56	0x3e88dd6a	0.26731426
57	0x3e02479d	0.12722631
58	0x3de5ec63	0.11226728
59	0xbf16236a	-0.5864779
60	0xbe3943bf	-0.1809225
61	0xbe831006	-0.25598162
62	0x3ed102af	0.4082236
63	0xbd7f5496	-0.062336527
64	0x3ecd419c	0.40089118
65	0x3f11e581	0.5699082
66	0xbe795076	-0.243471
67	0x3e6ecaf1	0.23319604
68	0xbe2c2909	-0.16812529
69	0xbe9e7af1	-0.30953172
70	0x3ea29258	0.31752276
71	0x3e0d960d	0.13826771
72	0x3e40fd8d	0.18846722
73	0x3ec8f252	0.39247376
74	0xbecd7bff	-0.40133664
75	0x3f09caa8	0.53824854
76	0xbe52ce7a	-0.20586577
77	0xbed7b6b1	-0.4213157
78	0x3db4efb9	0.08834786
79	0x3e8b8e7a	0.27257138
80	0xbd2efb8f	-0.042720374
81	0x3f241f06	0.6410984
82	0xbe6e9384	-0.2329846
83	0x3f2019c7	0.62539333
84	0x3e3822b2	0.17981985
85	0x3ddbda8d	0.10735045
86	0xbeac0b18	-0.33602214
87	0xbe55f2d5	-0.20893414
88	0x3ea100ba	0.31445867
89	0xbe8a0500	-0.2695694
90	0x3bfbe30b	0.0076869777
91	0x3d10ab8b	0.035319846
92	0xbea4946e	-0.32144493
93	0xbe1f7dcc	-0.15575331
94	0x3e4b62e7	0.19861947
95	0xbec9d941	-0.39423564
96	0x3e20370b	0.15645997
97	0x3e84cb3d	0.25936309
98	0x3e5d9076	0.21637139
99	0x3e0bdc35	0.13658221
100	0xbeb40203	-0.35157785
101	0x3de27013	0.11056533
102	0xbe971224	-0.29506028
103	0xbdec6713	-0.11543097
104	0x3d1c0224	0.03808798
105	0x3f14690e	0.579728
106	0xbe92d946	-0.2868139
107	0x3dddd15a	0.10830946
108	0x3e2f60d6	0.17126784
109	0x3f1cf346	0.61308706
110	0x3d8c6701	0.06855584
111	0x3e8f24f7	0.2795789
112	0xbe5fd279	-0.21857633
113	0x3f0dd248	0.5539899
114	0xbec49859	-0.38397482
115	0x3e004970	0.12528014
116	0x3dd6c828	0.104873955
117	0xbea54374	-0.32278025
118	0x3e6fadb4	0.23406106
119	0xbe66ac78	-0.22526729
120	0x3e40ac3a	0.18815699
121	0x3e8c82b7	0.27443478
122	0x3e5bfeee	0.21483967
123	0xbe3ad34d	-0.18244667
124	0x3e90164f	0.2814202
125	0x3df3949c	0.11893579
126	0x3e5fff91	0.21874835
127	0x3e9e9305	0.30971542

network.0.bias f4 [64]
0	0x3c6647b9	0.014055186
1	0xbec8682f	-0.39141986
2	0xbe8ec6c5	-0.27886024
3	0xbda6f1ed	-0.081516124
4	0xbe34f362	-0.17670968
5	0x3e621a04	0.22080237
6	0x3d49b7a8	0.049247414
7	0xbde406d4	-0.11134115
8	0xbea9ab9b	-0.33138737
9	0xbe676bd6	-0.2259973
10	0xbeccbb96	-0.39986867
11	0x3e99450b	0.29935488
12	0xbec5b5be	-0.3861522
13	0x3ea8c5de	0.3296346
14	0xbe41a9c3	-0.18912415
15	0x3e790a39	0.24320306
16	0x3e8bc6bf	0.2730007
17	0xbdfad2cd	-0.12247238
18	0x3edae27f	0.42750928
19	0xbe2e1540	-0.17000294
20	0xbe67c6fc	-0.226345
21	0x3e04e29a	0.12977067
22	0xbddd77a2	-0.10813834
23	0x3e182e5c	0.14861435
24	0x3ed63265	0.41835323
25	0xbe13240c	-0.1436922
26	0x3d85d92f	0.06535565
27	0x3e806855	0.250796
28	0xbe81f31e	-0.25380796
29	0x3dcb8d76	0.09939091
30	0x3e988ca9	0.29794815
31	0xbec400da	-0.382819
32	0xbf1a8409	-0.6035772
33	0x3e0ee09a	0.13952866
34	0x3e9d6193	0.30738506
35	0xbece113c	-0.40247524
36	0xbe5da73b	-0.21645825
37	0x3e24505b	0.16046278
38	0x3ebe6db6	0.37193078
39	0xbe4416f1	-0.19149376
40	0xbdd82acf	-0.1055504
41	0xbd725700	-0.059165
42	0xbe9c2250	-0.30494928
43	0x3eb1cfc2	0.3472882
44	0xbe851c31	-0.2599807
45	0x3c9884ca	0.018618006
46	0x3e9ede9c	0.31029212
47	0x3e4c27c8	0.1993705
48	0xbe687f91	-0.22704913
49	0xbe690990	-0.22757554
50	0x3ec9baf5	0.3940045
51	0x3e76d626	0.24105129
52	0xbecd4a89	-0.40095928
53	0x3e34e2f9	0.17664708
54	0xbecead3b	-0.4036654
55	0xbdba310e	-0.09091388
56	0xbd8a0993	-0.067401074
57	0x3ed370fd	0.4129714
58	0x3d013485	0.031544227
59	0xbd90a1fb	-0.07062145
60	0xbeb10e5e	-0.34581274
61	0xbdc374fb	-0.09543797
62	0xbea6d2cd	-0.32582703
63	0xbe9fa13e	-0.31177706

network.2.weight f4 [64, 64]
0	0xbe7f03a4	-0.24903733
1	0xbe89cfba	-0.26916295
2	0x3e213bcd	0.15745468
3	0xbe5d97e7	-0.21639977
4	0xbc62587c	-0.013815042
5	0xbe742466	-0.2384201
6	0x3e1b0eea	0.15142408
7	0x3d28621a	0.041109182
8	0x3e39cd55	0.18144734
9	0xbe5d4ccf	-0.21611331
10	0xbe9284bb	-0.2861689
11	0x3dc4b5a2	0.09604956
12	0xbe7c2624	-0.24623924
13	0x3ea496b7	0.32146236
14	0xbe8ce709	-0.27520016
15	0x3d92be66	0.07165222
16	0x3c026568	0.007958747
17	0xbdc9a133	-0.098451994
18	0x3b4001db	0.002929798
19	0x3d16f1ce	0.036851697
20	0xba746cc2	-0.00093240675
21	0xbcc8900e	-0.024482753
22	0xbdac97f3	-0.084274195
23	0xbe090637	-0.13381277
24	0x3e3e9f85	0.1861554
25	0x3d55c8d2	0.05219347
26	0xbddf76f8	-0.10911363
27	0x3d9f533d	0.07779548
28	0x3e06a84b	0.13150136
29	0x3d38c1a7	0.045106556
30	0x3dfc357f	0.12314891
31	0x3d6ea954	0.058266953
32	0xbecf53f2	-0.40493733
33	0xbe82e171	-0.25562623
34	0x3e63e370	0.2225473
35	0xbe586bc4	-0.2113486
36	0x3c6739f2	0.014112936
37	0x3df075d4	0.11741224
38	0x3e68dc99	0.22740401
39	0xbd8a2aa7	-0.067464165
40	0xbd332a55	-0.043741543
41	0x3dbf1a66	0.09331207
42	0xbe262d61	-0.16228248
43	0xbcd730d4	-0.0262684
44	0x3d9466b1	0.07246149
45	0x3de05ea4	0.10955551
46	0x3d3a0e5e	0.045423858
47	0x3e42d1f5	0.19025405
48	0xbe17e90f	-0.14834999
49	0xbdd6202b	-0.10455354
50	0x3e005595	0.12532647
51	0x3d515e79	0.051115487
52	0xbe5404d6	-0.2070497
53	0xbe656456	-0.22401556
54	0xbe945a5d	-0.28975192
55	0xbe1aca17	-0.15116154
56	0x3df24ecb	0.11831435
57	0xbdb33094	-0.087495
58	0x3e7e5a52	0.24839142
59	0x3e0a00fe	0.13476941
60	0xbe195d53	-0.14977007
61	0x3e17ff6f	0.14843534
62	0xbe2c4d2b	-0.16826312
63	0xbdfcbdb7	-0.12340873
64	0x3d8f25aa	0.06989606
65	0xbe78a5b4	-0.2428196
66	0xbd8d7e63	-0.06908872
67	0x3e3d07a0	0.1845994
68	0xbdc8e4c3	-0.09809258
69	0xbe21fa1a	-0.15818062
70	0x3e3e661a	0.18593636
71	0x3d6fa8fd	0.05851077
72	0x3dd1f909	0.10252578
73	0xbd4cbc22	-0.049984105
74	0x3cb45916	0.022015136
75	0xbd3b15c8	-0.04567507
76	0x3cdca6ce	0.026935007
77	0xbddfad88	-0.1092177
78	0xbe812a8b	-0.2522777
79	0xbe124482	-0.14283946
80	0xbe09c835	-0.13455279
81	0x3dacfaa4	0.084462434
82	0xbdb9136e	-0.09036909
83	0xbe7c6445	-0.24647625
84	0xbe47b92d	-0.19504233
85	0x3d42730f	0.04747301
86	0xbe03d404	-0.12873846
87	0xbdbac358	-0.0911929
88	0x3e7ba9c5	0.2457648
89	0xbe292ce3	-0.16521029
90	0xbdc24eff	-0.094877236
91	0x3d77bdf8	0.060483903
92	0xbdff5bd2	-0.12468685
93	0x3d7d9dd7	0.061918106
94	0xbdcf6b80	-0.10127926
95	0xbdb97c74	-0.09056941
96	0xbd5b74a0	-0.05357802
97	0x3dd20a2f	0.102558486
98	0xbd051bec	-0.03249733
99	0xbd3b105d	-0.045669902
100	0x3d297642	0.041372545
101	0x3d5d3dc9	0.054014
102	0xbd8635b4	-0.06553212
103	0x39d15bad	0.0003993189
104	0x3cdc311a	0.026878882
105	0xbc1cfc73	-0.009581673
106	0x3cde92f6	0.027169686
107	0xbd811b34	-0.06304017
108	0xbe32c5d7	-0.17458282
109	0xbbb8adcc	-0.0056359526
110	0x3d8469c5	0.064654864
111	0xbe3ff210	-0.18744683
112	0x3e24a185	0.1607724
113	0x3d3949fc	0.045236573
114	0x3ce37c34	0.027769186
115	0xbe2fc6e2	-0.17165712
116	0xbe7028b5	-0.23453029
117	0xbc97677d	-0.018481964
118	0xbe5954f8	-0.2122382
119	0x3d735a95	0.059412558
120	0xbda1a1af	-0.07892167
121	0x3da6b13a	0.08139272
122	0x3e6deace	0.23234102
123	0xbd8b8221	-0.068119295
124	0x3e1877d1	0.14889456
125	0xbe23cb2f	-0.15995477
126	0x3d2d35f7	0.042287793
127	0xbdbde244	-0.09271672
128	0x3e5e0551	0.21681716
129	0x3d8d1f35	0.06890718
130	0x3d5fbda5	0.05462422
131	0x3f380f93	0.71898764
132	0x3cdddc1f	0.027082501
133	0x3ead58ed	0.33856907
134	0x3d5b8610	0.05359465
135	0xbdaae82d	-0.08345065
136	0xbe81b0dd	-0.25330248
137	0x3f0e6393	0.5562069
138	0xbda8e088	-0.08245951
139	0xbe307f1a	-0.17235985
140	0xbd8cf592	-0.06882776
141	0xbe85688a	-0.2605632
142	0x3f3e0e26	0.7424034
143	0x3e93988d	0.28827325
144	0xbd13453a	-0.03595469
145	0xbeaae964	-0.33381188
146	0x3d7d2c21	0.061809663
147	0xbcab36a1	-0.020900073
148	0x3e88e0a5	0.2673389
149	0x3f14e889	0.5816732
150	0x3d75c3a9	0.06000105
151	0x3c4f28f1	0.012644039
152	0xbdadd992	-0.08488764
153	0xbec5cea0	-0.38634205
154	0x3ea4fc4e	0.32223743
155	0x3e51aff6	0.2047728
156	0xbc38b83b	-0.011274393
157	0xbecc85bb	-0.39945778
158	0xbe2270e5	-0.15863378
159	0xbdad6fcc	-0.08468589
160	0x3e085212	0.13312557
161	0x3eb6aa73	0.35676917
162	0x3e668673	0.22512226
163	0xbe90e2e0	-0.28298092
164	0xbdee0763	-0.11622503
165	0x3ea26935	0.31720892
166	0xbe5b47ed	-0.21414156
167	0xbe10cecd	-0.14141388
168	0x3eb9a8bb	0.36261544
169	0x3ed70016	0.41992253
170	0xbe4a188c	-0.19735926
171	0x3e3fff28	0.18749678
172	0xbe9aa70f	-0.3020558
173	0x3d39a17f	0.04532003
174	0x3e888ed1	0.2667146
175	0xbde779f2	-0.11302556
176	0xbe2ff5b6	-0.17183575
177	0xbe689fa2	-0.22717145
178	0x3b76afd8	0.0037641432
179	0x3e6ccd0f	0.23125099
180	0x3c96dc7f	0.018415688
181	0x3de797b4	0.11308232
182	0x3e6b7b6f	0.22996305
183	0xbdc4140f	-0.095741384
184	0x3f108b23	0.56462306
185	0x3cdc8a41	0.026921393
186	0xbdf55cbc	-0.11980578
187	0xbdbea078	-0.09307951
188	0x3db3c16f	0.08777129
189	0xbe4fab02	-0.20280078
190	0xbe40862a	-0.1880118
191	0xbe58a9d2	-0.21158531
192	0xbe516af1	-0.20450951
193	0x39883ead	0.00025986639
194	0x3daca9f8	0.084308565
195	0xbeac27de	-0.33624166
196	0xbe168230	-0.146981
197	0xbe38719b	-0.18012087
198	0x3e1d405a	0.1535658
199	0x3e834667	0.2563965
200	0x3e2050ee	0.15655872
201	0xbd97676f	-0.07392775
202	0xbdacb2d0	-0.08432543
203	0x3e1ae049	0.1512462
204	0xbdb29a5a	-0.087208465
205	0x3e4f2068	0.20227206
206	0xbeab88fd	-0.3350295
207	0x3db3dd3c	0.087824315
208	0x3e7288fc	0.23685068
209	0x3e40db9d	0.18833776
210	0xbd146d8c	-0.036237285
211	0x3e31e6a2	0.17373136
212	0xbe716987	-0.23575412
213	0xbea0978e	-0.31365627
214	0x3dce5495	0.100747265
215	0x3dc51a5b	0.096241675
216	0x3e100761	0.14065315
217	0xbd8d340c	-0.06894693
218	0xbe3b18ed	-0.18271227
219	0xbce8a2f9	-0.028398024
220	0x3d9935b4	0.07480946
221	0x3e820cb1	0.25400308
222	0xbdc15d10	-0.094415784
223	0x3e1441a7	0.1447817
224	0xbe01058c	-0.12599772
225	0xbe00568c	-0.12533015
226	0x3c47ce74	0.012195218
227	0xbe194fc6	-0.14971837
228	0xbe7ff146	-0.24994382
229	0xbe6a56a0	-0.22884607
230	0x3e974b3b	0.29549584
231	0xbd605c26	-0.05477538
232	0xbcc5e137	-0.024155242
233	0x3d43b4f4	0.047779992
234	0xbe3c326d	-0.18378611
235	0xbdedf8aa	-0.116196945
236	0xbe265a65	-0.1624542
237	0xbe600bf9	-0.21879567
238	0xbd928b4e	-0.071554765
239	0x3e8842b3	0.26613387
240	0xbd40fa9b	-0.047113996
241	0x3e1d7c6a	0.15379491
242	0x3e17e0df	0.14831875
243	0x3d49a6ec	0.049231455
244	0xbea54031	-0.32275537
245	0xbe2d424a	-0.16919819
246	0xbe2803c9	-0.16407694
247	0x3e1e439e	0.15455481
248	0x3ac071ef	0.0014682392
249	0xbc649185	-0.01395071
250	0x3dfaeb22	0.12251879
251	0x3dd08fc6	0.101836726
252	0xbc89ce90	-0.01682213
253	0x3d9c5cea	0.076349095
254	0xbdef4079	-0.11682219
255	0x3e280c2e	0.16410896

network.2.bias f4 [64]
0	0x3e5c8934	0.21536714
1	0x3ddb619d	0.10711978
2	0xbd82e54e	-0.06391393
3	0x3dd00f0a	0.101591185
4	0x3d678b0f	0.0565291
5	0x3df700ea	0.12060721
6	0xbcf45338	-0.029824838
7	0xbde9b646	-0.11411719
8	0xbcc4000a	-0.0239258
9	0xbe36700d	-0.17816181
10	0xbda67fda	-0.081298545
11	0xbc45f2aa	-0.012081781
12	0x39c9e5fb	0.00038509056
13	0x3d51782f	0.051140007
14	0x3ae7ba8f	0.00176795
15	0x3cf6293f	0.030048965
16	0xbe18d9d6	-0.14926848
17	0x3e9c2f22	0.3050471
18	0x3e0ada3e	0.13559815
19	0x3de5a4cc	0.11213073
20	0xbe09b185	-0.13446625
21	0xbcd73696	-0.026271146
22	0x3d8112d4	0.06302419
23	0x3e0205f2	0.1269758
24	0x3e120fec	0.14263886
25	0x3d9aa115	0.07550255
26	0x3d2ca8f0	0.0421533
27	0x3d7b48b8	0.061348647
28	0x3df83af6	0.12120621
29	0xba5c84b0	-0.0008412106
30	0x3b5e1204	0.003388525
31	0xbdec747e	-0.115456566
32	0x3e88839f	0.2666292
33	0x3c1e91e9	0.009678342
34	0xbd4f51a9	-0.050614987
35	0x3de9363f	0.113873
36	0xbe58fdec	-0.21190614
37	0xbd10626b	-0.03525011
38	0x3db7cc6d	0.08974538
39	0x3d336cc6	0.043804906
40	0xbc1f576f	-0.009725436
41	0x3d101a4e	0.035181336
42	0xbe033ecb	-0.12816922
43	0xbdc9530b	-0.09830292
44	0x3de203e1	0.11035896
45	0x3e2e7567	0.17036973
46	0x3db1cd8d	0.08681784
47	0xbedd1e33	-0.43187103
48	0xbdbf0f9c	-0.09329149
49	0xbe5ec10c	-0.21753329
50	0x3bb9f6e6	0.0056751845
51	0x3d671cc7	0.05642393
52	0xbd07ec42	-0.033184297
53	0xbc89106d	-0.016731465
54	0x3c133f04	0.008987192
55	0x3c953dae	0.018217888
56	0xbe9262d7	-0.28591034
57	0x3e06375a	0.13107052
58	0xbcd1746e	-0.025568213
59	0xbe521f71	-0.20519806
60	0x3d77b9e9	0.060480032
61	0x3da4ad4e	0.08040868
62	0xbd636d6c	-0.055524275
63	0xbda7bccd	-0.08190308

network.4.weight f4 [64, 64]
0	0xbe47199c	-0.19443363
1	0xbe0ba4f1	-0.13637139
2	0x3ea6af73	0.32555732
3	0xbe54744a	-0.20747486
4	0xbc0a6ee0	-0.008449286
5	0xbe6d5d31	-0.23180081
6	0xbdb7f5a5	-0.089824
7	0x3e087aa9	0.13328041
8	0x3d810635	0.06300012
9	0x3cfc2a26	0.030781817
10	0x3d8debb1	0.0692972
11	0x3e3228d2	0.17398384
12	0x3e7fb493	0.24971227
13	0xbe4621cf	-0.19348834
14	0xbe4ad1aa	-0.19806543
15	0xbe599946	-0.21249875
16	0x3dd00b3c	0.10158393
17	0xbea4c3d0	-0.32180643
18	0xbe5a4246	-0.21314344
19	0xbe001208	-0.12506878
20	0x3eaf906a	0.34289867
21	0x3e115e80	0.14196205
22	0xbd75add1	-0.059980217
23	0xbd24de23	-0.04025091
24	0xbe80f80a	-0.2518924
25	0x3df346c1	0.118787296
26	0x3db6b7f4	0.08921805
27	0xbe5debb5	-0.21671946
28	0x3e046c62	0.1293197
29	0x3d9d225f	0.076725714
30	0xbde6a92e	-0.11262737
31	0xbe11c8c6	-0.14236745
32	0xbef33a0e	-0.4750523
33	0xbdc31d1b	-0.09527036
34	0x3e34456e	0.1760461
35	0xbed922e4	-0.42409432
36	0x3e8c73a9	0.27431992
37	0x3c653927	0.013990677
38	0x3d45d33d	0.048297156
39	0x3d203513	0.039113116
40	0x3e08c5e3	0.13356738
41	0x3d9e4434	0.077278525
42	0xbd1e2f56	-0.03861936
43	0x3eb15504	0.34635174
44	0xbc61dcad	-0.013785523
45	0xbe20661b	-0.1566395
46	0xbe8abdff	-0.2709808
47	0x3e6e1331	0.23249508
48	0xbb9f2849	-0.0048570973
49	0x3e9442c1	0.2895718
50	0x3e3b0ef4	0.18267423
51	0xbbc1b931	-0.005911969
52	0x3e0b2e08	0.13591778
53	0xbdb346e4	-0.08753756
54	0x3e5a184a	0.21298328
55	0xbe11c83d	-0.14236541
56	0xbdef6d4f	-0.11690771
57	0x3d86fbd8	0.06591004
58	0x3e71eb76	0.23624977
59	0xbd066fe3	-0.032821547
60	0xbe93eb64	-0.28890526
61	0x3dc42c15	0.095787205
62	0x3d3ef212	0.046617575
63	0x3e15ca3a	0.14627925
64	0xbe0c9885	-0.13730057
65	0xbe8c284b	-0.2737449
66	0xbe3e275a	-0.18569699
67	0x3dbbc354	0.09168115
68	0xbd1c26b6	-0.038122855
69	0xbe180f6f	-0.14849637
70	0x3d929f77	0.07159322
71	0x3e37e7ce	0.1795952
72	0x3c10582b	0.008810083
73	0x3ea16c19	0.31527784
74	0x3e34751e	0.17622802
75	0xbd95dfdc	-0.073180884
76	0x3e6a49cf	0.22879718
77	0xbdedda7b	-0.116139375
78	0x3e57d3cb	0.21076886
79	0x3d0f8c50	0.03504592
80	0x3e61d01d	0.22052045
81	0x3db4bfab	0.0882562
82	0xbe225a75	-0.15854819
83	0x3e3e6772	0.18594149
84	0x3dfcd5bc	0.12345454
85	0xbd816421	-0.06317926
86	0xbdf3e422	-0.11908747
87	0x3dbee3a3	0.09320762
88	0xbc1570b5	-0.00912111
89	0x3dd5d784	0.10441497
90	0xbe59bc2a	-0.21263185
91	0xbe5ebd28	-0.21751845
92	0xbd1e8e91	-0.03871018
93	0x3dba2931	0.09089888
94	0xbe3f3f83	-0.18676572
95	0x3d0f75ab	0.035024326
96	0xbe935727	-0.2877743
97	0x3b8a1f27	0.0042151394
98	0x3e89f054	0.26941168
99	0xbec8d1c9	-0.39222553
100	0x3ec77bba	0.38961583
101	0x3c918036	0.017761331
102	0xbda55387	-0.08072572
103	0xbdb628a0	-0.08894467
104	0x3e05f710	0.13082528
105	0xbdac3ff1	-0.08410633
106	0xbe03f059	-0.12884654
107	0x3e12cce0	0.14335966
108	0xbcd7a649	-0.026324408
109	0xbe25a92c	-0.16177815
110	0xbe5747e9	-0.21023525
111	0x3f0ae38b	0.54253453
112	0x3dddc8e5	0.10829333
113	0xbdfea4ab	-0.12433752
114	0x3d72e3cf	0.059299286
115	0xbd97c87a	-0.07411285
116	0xbdb2d6a8	-0.08732349
117	0x3db8b398	0.0901863
118	0x3c471233	0.012150335
119	0xbd2402e5	-0.040041823
120	0x3d873ad1	0.06603015
121	0xbcba2aae	-0.02272543
122	0x3ddf4bae	0.10903107
123	0x3e9b8363	0.30373678
124	0x3cadd84f	0.021221308
125	0xbd6b4897	-0.057442274
126	0x3e83b11e	0.25721067
127	0x3e5af941	0.21384145
128	0xbe3bd209	-0.18341841
129	0x3e09ecb0	0.13469195
130	0xbce37791	-0.027766975
131	0xbd599a3a	-0.053125598
132	0xbc7dd70f	-0.0154931685
133	0x3d91f0cb	0.07126006
134	0xbca97abb	-0.020688405
135	0x3e32b79c	0.17452854
136	0x3c38e3a7	0.011284745
137	0xbd41819b	-0.047242742
138	0xbdfa4760	-0.12220645
139	0xbe19fc18	-0.15037572
140	0xbe543e19	-0.20726813
141	0x3e14e50e	0.14540502
142	0xbc833a15	-0.016018907
143	0x3e3c08b7	0.183627
144	0xbdaffe53	-0.0859343
145	0xbe8fb128	-0.28064847
146	0x3e382874	0.17984182
147	0xbe121602	-0.14266208
148	0x3e3b8f37	0.18316351
149	0x3e5fcc9e	0.21855399
150	0xbdfa0078	-0.12207121
151	0xbce70150	-0.028198868
152	0xbdb6fac4	-0.089345485
153	0xbe4b3d38	-0.19847572
154	0xbe02dbfc	-0.1277923
155	0x3daac474	0.08338252
156	0xbe12c748	-0.14333832
157	0xbc942c8d	-0.01808765
158	0xbe489b28	-0.19590437
159	0x3e5da0cb	0.21643369
160	0xbbe45697	-0.00696833
161	0xbc968027	-0.018371655
162	0xbcc5c711	-0.024142774
163	0xbdd6c8ea	-0.1048754
164	0xbdd0ea4b	-0.10200938
165	0xbe12430c	-0.14283389
166	0x3cb57e94	0.022155084
167	0xbe5121b6	-0.20423016
168	0x3deb00f6	0.11474793
169	0xbde4917f	-0.11160564
170	0x3e87654f	0.2644448
171	0xbd3e2cbc	-0.04642938
172	0xbe8aa6d3	-0.27080402
173	0xbe073968	-0.13205492
174	0x3e38a7fc	0.18032831
175	0xbe0ca2d4	-0.13733989
176	0x3ddc336e	0.10751997
177	0x3ce8340c	0.02834513
178	0x3df7d003	0.12100222
179	0xbdf9c6ba	-0.12196107
180	0x3e058b45	0.13041408
181	0x3bb117fa	0.0054044696
182	0xbda69a38	-0.08134884
183	0xbe4954e1	-0.19661285
184	0x3cb9ffce	0.022704985
185	0xbe89dbeb	-0.26925597
186	0xbece7d21	-0.4032984
187	0xbd51b9f0	-0.051202714
188	0xbdade5c7	-0.08491092
189	0xbe54321f	-0.20722245
190	0xbc382445	-0.011239116
191	0x3e811773	0.25213203
192	0x3dda9b02	0.10674097
193	0xbd153fd5	-0.036437828
194	0xbe34ed0c	-0.17668551
195	0x3e0c2f85	0.13690002
196	0x3bf1e6bc	0.007382242
197	0x3dc2cc70	0.095116496
198	0x3d60b199	0.05485687
199	0xbdd7d980	-0.10539532
200	0x3e6c48af	0.23074602
201	0x3e45755c	0.1928305
202	0x3e0ae7aa	0.13564935
203	0x3b2aa169	0.002603615
204	0xbc6e1cbd	-0.014533219
205	0x3e0063bb	0.12538044
206	0x3e1e7cf0	0.15477347
207	0x3ddca814	0.10774246
208	0xbd611e99	-0.05496082
209	0xba252a15	-0.0006300521
210	0x3c9f91ab	0.01947864
211	0xbd83c15c	-0.06433365
212	0x3df781b1	0.120852835
213	0xbd344040	-0.044006586
214	0xbe47ddea	-0.19518247
215	0x3e2be11f	0.16785096
216	0x3d7c2c7e	0.06156587
217	0xbe535265	-0.206369
218	0xbd584b80	-0.052806377
219	0x3d8b325e	0.06796716
220	0x3e405d68	0.18785632
221	0xbe5768e1	-0.21036102
222	0x3e4a6dce	0.1976845
223	0x3d9b68c7	0.07588344
224	0xbdf118b0	-0.11772287
225	0x3cebd4f3	0.028788066
226	0xbd3af898	-0.045647234
227	0xbe1a8568	-0.15089953
228	0xbd6af201	-0.0573597
229	0x3d9f37f9	0.07774348
230	0xbe19c89a	-0.1501793
231	0x3df58893	0.1198894
232	0xbd922427	-0.07135802
233	0x3da24104	0.07922557
234	0xbe368209	-0.17823042
235	0xbd2166c0	-0.03940463
236	0x3c34ac02	0.011027338
237	0x3bfa8cd4	0.0076461826
238	0xbd90a632	-0.07062949
239	0x3cd9b3cd	0.026574994
240	0xbd7ec76f	-0.062201913
241	0x3e35bd17	0.17747913
242	0x3a9a3cd5	0.0011767397
243	0xbddf1028	-0.108917534
244	0xbe7ad82b	-0.24496524
245	0x3de757b8	0.11296028
246	0xbe6976e8	-0.22799265
247	0x3d6c5457	0.05769762
248	0x3e65aa39	0.22428216
249	0x3e95f2bc	0.29286754
250	0x3e3b4574	0.18288213
251	0xbcc3431f	-0.023835717
252	0x3ca28ef3	0.019843554
253	0xbe7689e9	-0.24076046
254	0xbdab89f2	-0.0837592
255	0x3da95485	0.08268074

network.4.bias f4 [64]
0	0xbdd50466	-0.104012296
1	0xbdeab008	-0.114593565
2	0xbe6a7fe6	-0.22900352
3	0x3e1fc4c6	0.15602407
4	0x3dcf1e47	0.10113197
5	0x3d8604e4	0.065439016
6	0x3e1da6b4	0.15395623
7	0x3e2d3d29	0.16917862
8	0x3e63b2f0	0.22236228
9	0xbd72fcf6	-0.059323274
10	0x3e6a8e98	0.22905958
11	0x3c3adcbd	0.011405167
12	0xbda79025	-0.0818179
13	0xbd138d74	-0.036023572
14	0xbd0315b2	-0.032003112
15	0x3cfd61a0	0.03093034
16	0x3d554256	0.052065216
17	0xbe460101	-0.1933632
18	0xbe2cde2a	-0.16881624
19	0xbd12f892	-0.035881586
20	0xbe92b366	-0.28652495
21	0x3e0a9947	0.13535033
22	0x3e8c616d	0.2741808
23	0x3cd542de	0.026032861
24	0x3cc0dd06	0.023542892
25	0xbe1cee6e	-0.15325329
26	0xbe099f02	-0.13439563
27	0x3e03d9b8	0.12876022
28	0xbb6630a6	-0.0035124212
29	0xbdba2f28	-0.090910256
30	0xbd56836a	-0.05237142
31	0xbc0bf762	-0.008542867
32	0xbe20417c	-0.1564998
33	0x3d680e70	0.056654394
34	0xbd115379	-0.035479996
35	0xbeb10297	-0.34572288
36	0xbe88b78b	-0.26702532
37	0xbd77fee0	-0.060545802
38	0xbe542bfb	-0.20719902
39	0x3d236ec5	0.03990056
40	0xbd5fcd4a	-0.05463914
41	0x3dc2e14d	0.09515629
42	0x3c98f31b	0.01867061
43	0xbe448294	-0.19190437
44	0xbd934e8e	-0.071927175
45	0xbcc80d5e	-0.024420436
46	0x3d8f986e	0.070114955
47	0x3dab3dab	0.083613716
48	0x3d6061da	0.05478082
49	0xbe8eccd4	-0.27890646
50	0xbd43b5b3	-0.047780704
51	0xbdd52fe3	-0.10409524
52	0x3ccbc975	0.024876336
53	0xbd362d99	-0.04447708
54	0x3e19e4bd	0.15028663
55	0x3d9bc3ff	0.07605743
56	0xbdcdca5a	-0.10048361
57	0xbcc45907	-0.023968233
58	0xbe078224	-0.13233238
59	0xbbca155a	-0.006167096
60	0xbe245cb9	-0.16050996
61	0x3e40d722	0.18832067
62	0x3e2e7ab5	0.17038997
63	0xbacaf8dc	-0.0015485543

network.6.weight f4 [64, 64]
0	0xbdfa3c1d	-0.12218497
1	0x3ddea948	0.108721316
2	0x3d7ad4ac	0.061237976
3	0xbe18a96a	-0.14908376
4	0xbd99abfa	-0.07503505
5	0xbe0fa5e9	-0.14028133
6	0x3d993ccb	0.074822985
7	0xbe805c88	-0.25070596
8	0xbea593f2	-0.32339436
9	0xbd990cc2	-0.074731365
10	0xbda7994c	-0.08183536
11	0xbe36c533	-0.17848663
12	0xbe25d1ec	-0.1619336
13	0x3db246e1	0.08704925
14	0x3cfe9411	0.031076463
15	0xbd8e9ce0	-0.06963515
16	0x3df6562c	0.12028155
17	0x3e7dd26b	0.247873
18	0x3e15fe53	0.14647798
19	0xbe7d0971	-0.24710633
20	0xbea40c29	-0.32040527
21	0xbe5d9d34	-0.21642
22	0xbee6404d	-0.44970933
23	0xbdc92ab8	-0.09822601
24	0xbe2f9d4c	-0.17149848
25	0x3e35ec00	0.17765808
26	0x3e4a3b46	0.19749174
27	0xbe4ef352	-0.20210007
28	0x3ca29318	0.01984553
29	0x3e2e6cd7	0.17033707
30	0xbde8ce7c	-0.11367509
31	0xbdea1880	-0.11430454
32	0x39270e0c	0.00015931594
33	0x3c944d11	0.018103154
34	0x3e826962	0.25471026
35	0x3c86f052	0.016472016
36	0x3e66643b	0.22499172
37	0x3e29c4e9	0.16579022
38	0x3e13048e	0.14357206
39	0x3da7ec28	0.0819934
40	0xbe38c889	-0.18045248
41	0xbdcaf1d9	-0.0990941
42	0xbe31fdf5	-0.17382033
43	0x3e7e3847	0.24826156
44	0xbe61f2fa	-0.22065344
45	0xbdf8108f	-0.12112533
46	0x3dfc07f3	0.12306204
47	0xbd636853	-0.055519413
48	0xbd0444a2	-0.032292016
49	0xbe463feb	-0.1936032
50	0x3e42f210	0.19037652
51	0x3d7737e7	0.060356047
52	0xbe4c8967	-0.1997429
53	0xbe013ee1	-0.12621643
54	0xbd775ca0	-0.06039107
55	0x3d4d1f21	0.050078515
56	0x3cbb4127	0.022858215
57	0xbcacda29	-0.02110012
58	0xbe046442	-0.1292887
59	0xbe03d8d5	-0.12875684
60	0x3d263235	0.040575225
61	0xbe63fc49	-0.22264208
62	0x3c7431ab	0.01490442
63	0xbd178ae0	-0.036997676
64	0xbd8d2e62	-0.068936124
65	0xbde65a1c	-0.11247656
66	0x3d0606eb	0.03272144
67	0x3d7e6956	0.062112175
68	0x3d9bd582	0.07609083
69	0xbcecdd3d	-0.028914088
70	0x3d832646	0.064037845
71	0x3e98070d	0.2969288
72	0x3dce1e5c	0.10064384
73	0x3dac055e	0.08399461
74	0xbe2932ea	-0.16523328
75	0x3d4f3a4c	0.050592706
76	0x3d630a14	0.055429533
77	0x3c4db09b	0.012554313
78	0xbdea08cb	-0.114274584
79	0x3dbfa720	0.093580484
80	0xbe4bbaf8	-0.19895542
81	0x3dd2d5c8	0.10294682
82	0xbdc88b92	-0.09792246
83	0x3dc34ae0	0.09535766
84	0xbcbcc331	-0.023042293
85	0xbe8b4886	-0.27203768
86	0x3e1459d1	0.14487387
87	0x3c8cdc71	0.017194958
88	0x3d4ec2bc	0.050478682
89	0x3b8ada5d	0.0042374567
90	0xbd6169d0	-0.05503255
91	0x3e5befdf	0.21478222
92	0x3c7850b0	0.015155956
93	0xbec8486c	-0.39117754
94	0xbe0a53bb	-0.13508503
95	0x3e04c96e	0.12967464
96	0xbe67b350	-0.22626996
97	0x3dfc8f84	0.12332061
98	0xbe2ff5ac	-0.1718356
99	0xbe42ca9a	-0.19022599
100	0xbdc32831	-0.0952915
101	0x3b333653	0.0027345612
102	0xbe0f2c35	-0.13981707
103	0xbdc19268	-0.09451753
104	0xbdedca63	-0.11610868
105	0x3e086363	0.13319163
106	0xbc0d056d	-0.008607251
107	0xbe768b92	-0.2407668
108	0xbe7b7d1c	-0.24559444
109	0xbe01fe47	-0.12694655
110	0xbdc9a9a6	-0.09846811
111	0xbb59dccf	-0.0033243184
112	0x3d94136c	0.07230267
113	0xbe4105f8	-0.18849933
114	0x3e133558	0.14375818
115	0xbc0fe3f5	-0.008782377
116	0xbd243685	-0.040091056
117	0xbe22988a	-0.15878502
118	0x3da0d6b7	0.078534536
119	0xbd5d3d23	-0.054013383
120	0xbe748041	-0.2387705
121	0x3e237ac7	0.15964805
122	0x3ca8411e	0.020538863
123	0xbe5c7196	-0.21527705
124	0x3da14d39	0.07876057
125	0x3cbe3b8a	0.02322175
126	0x3df01c16	0.11724107
127	0xbd5dc196	-0.054139696
128	0x3e602fcb	0.21893232
129	0x3e64b2d6	0.22333845
130	0xbd42949c	-0.047505006
131	0xbe608fb4	-0.21929818
132	0xbe2282cd	-0.15870209
133	0xbdb7f3ec	-0.08982071
134	0x3bb45512	0.0055033052
135	0xbd16788d	-0.03673606
136	0xbe5edf30	-0.21764827
137	0x3e0097b8	0.12557876
138	0xbe28b167	-0.16473924
139	0x3d0c6077	0.034271684
140	0x3da1b5ac	0.07895979
141	0x3d274c85	0.04084446
142	0xbdf0dff4	-0.11761466
143	0xbe618920	-0.22024965
144	0xbe68119b	-0.22662966
145	0xbc87af34	-0.016563036
146	0xbe40f2c6	-0.1884261
147	0xbdfd81b9	-0.12378258
148	0x3db767ee	0.0895537
149	0x3ecf85dc	0.40531814
150	0xbec8fd42	-0.3925572
151	0xbe0c9bce	-0.1373131
152	0xbbc042e3	-0.0058673485
153	0x3dee0963	0.11622884
154	0xbe05ea54	-0.1307767
155	0xbe37ba89	-0.17942251
156	0x3d251501	0.040303234
157	0xbd4bbbed	-0.049739767
158	0x3dc824ca	0.09772642
159	0x3d95b4b0	0.07309854
160	0x3e133fcb	0.14379804
161	0xbc72cdc4	-0.014819566
162	0xbe4d143c	-0.2002725
163	0x3cf34850	0.029697567
164	0xbe3c9238	-0.18415153
165	0x3d00ac04	0.031414047
166	0x3df3ea14	0.11909881
167	0x3b167d64	0.0022962922
168	0xbe65e151	-0.22449233
169	0xbb22ad69	-0.0024822599
170	0x3e0027d5	0.12515195
171	0xbc8a5a80	-0.016888857
172	0x3d5527c0	0.05203986
173	0x3da56de7	0.08077603
174	0x3e94918f	0.29017302
175	0xbeb0171c	-0.3439263
176	0xbe2f110d	-0.17096348
177	0x3e7e48b5	0.24832423
178	0x3e1711c9	0.14752878
179	0x3d5659b6	0.05233165
180	0xbe78ba12	-0.2428973
181	0x3d6c0151	0.057618443
182	0x3c9cf1e5	0.019158313
183	0x3d80a618	0.0628168
184	0x3e5ab903	0.21359639
185	0x3d22da6f	0.039759096
186	0xbdab4873	-0.08363428
187	0x3e31cb7a	0.17362776
188	0xbdd74304	-0.10510829
189	0xbe00de5b	-0.12584822
190	0xbdc12d5a	-0.09432478
191	0xbe1b8895	-0.1518882
192	0x3e2d7aae	0.1694133
193	0x3e000ead	0.12505598
194	0xbc6b5bdc	-0.014365163
195	0x3e9f0a4e	0.3106255
196	0x3e475f81	0.19470026
197	0x3ca016e9	0.019542174
198	0x3ce01bda	0.02735703
199	0x3d951eb7	0.07281249
200	0x3e1d489a	0.15359727
201	0xbc98c2be	-0.018647548
202	0xbe39f6d2	-0.1816056
203	0x3d41e2d5	0.047335465
204	0x3e5ef833	0.21774368
205	0x3ee38d88	0.44443917
206	0xbe7e125e	-0.24811694
207	0x3e02fdd2	0.12792137
208	0xbe0f7dbf	-0.14012812
209	0xbdaab211	-0.08334745
210	0x3d486d8f	0.04893261
211	0xbca2b0c9	-0.019859688
212	0x3da130ee	0.07870661
213	0x3e0b9edd	0.1363482
214	0xbc91bce6	-0.01779027
215	0x3d296464	0.041355506
216	0xbd764d82	-0.06013251
217	0xbe81d738	-0.2535951
218	0x3e0f891a	0.14017144
219	0xbcae718d	-0.02129438
220	0xbd775252	-0.06038124
221	0xba713494	-0.0009201255
222	0xbd89cac2	-0.06728126
223	0x3e12ebbc	0.14347738
224	0xbd800256	-0.062504455
225	0x3b9a5873	0.004710251
226	0xbd8b5fcd	-0.06805382
227	0xbd8c0b25	-0.06838063
228	0x3e076f8b	0.13226144
229	0x3ea0e8db	0.31427655
230	0x3dca89f9	0.098895974
231	0x3e4abc04	0.19798285
232	0x3e0e7292	0.13910893
233	0x3c78c6c5	0.015184109
234	0x3e85a95c	0.26105773
235	0x3dea7e27	0.11449843
236	0xbd1ccb81	-0.038280014
237	0xbe57e609	-0.21083845
238	0xbe2e7188	-0.17035496
239	0x3ea19244	0.31556904
240	0xbe971d6a	-0.2951463
241	0xbe6bb5f2	-0.23018625
242	0x3e3a6297	0.18201672
243	0x3de20236	0.11035578
244	0x3db7ec7e	0.08980654
245	0xbe68fdd5	-0.22753079
246	0x3e04b8e9	0.12961163
247	0x3e2fea32	0.17179182
248	0xbd13f1ea	-0.03611938
249	0x3d570363	0.052493464
250	0xbe0bd112	-0.13653973
251	0x3ecdffc1	0.40234187
252	0xbdc590a7	-0.09646731
253	0xbde79dd8	-0.11309403
254	0x3b0e4437	0.002170814
255	0x3e0e5c53	0.13902406

network.6.bias f4 [64]
0	0x3d706e07	0.05869868
1	0x3e25cb99	0.16190948
2	0x3ccc33c1	0.024927022
3	0xbcaf7669	-0.021418767
4	0xbe26e6b1	-0.1629894
5	0x3e5526bb	0.20815556
6	0x3d410200	0.047121048
7	0x3d5842e9	0.052798185
8	0xbd898b6e	-0.06716047
9	0xbca0fd00	-0.01965189
10	0x3c2df7ef	0.010618194
11	0xbb8319c0	-0.0040008724
12	0x3deeea11	0.116657384
13	0x3c1650f8	0.009174578
14	0x3e43eb5e	0.19132754
15	0x3c159d38	0.009131722
16	0xbc1f9697	-0.009740493
17	0xbdde10a8	-0.10843021
18	0x3e3ae148	0.1825
19	0xbd72121b	-0.059099298
20	0xbe17ce0a	-0.14824691
21	0xbeaf046a	-0.34183055
22	0xbbc0a09b	-0.0058785207
23	0x3d4298cf	0.04750901
24	0xbe1e56ab	-0.15462749
25	0x3dc3f63f	0.09568452
26	0x3e69cf9c	0.22833103
27	0xbe898ad2	-0.26863724
28	0xbcc441bc	-0.023957126
29	0xbd95e061	-0.073181875
30	0xbe756154	-0.23962909
31	0xbea69920	-0.325387
32	0x3c4e947c	0.012608644
33	0x3e975874	0.29559672
34	0xbe69f9e2	-0.22849229
35	0xbdf9b66e	-0.12192999
36	0xbc27d876	-0.010244479
37	0xbe1c6ab2	-0.15275076
38	0xbda81a04	-0.08208087
39	0xbe68051b	-0.22658198
40	0x3c8c6982	0.017140154
41	0xbe0a6a23	-0.1351705
42	0xbe3a3581	-0.18184473
43	0x3e0a2010	0.13488793
44	0xbdce2f9d	-0.10067675
45	0x3d9191d7	0.07107895
46	0x3d584cf5	0.052807767
47	0xbd46aab2	-0.04850263
48	0x3d869f8f	0.06573402
49	0xbe1083d8	-0.14112794
50	0xbe28169c	-0.16414875
51	0xbd8a8470	-0.06763542
52	0xbd402dae	-0.046918564
53	0x3dc197b2	0.09452762
54	0xbbf74704	-0.0075463075
55	0x3e9f8f30	0.3116393
56	0x3d3e981c	0.04653178
57	0x3dfc1ee3	0.12310579
58	0x3ac970f1	0.0015368742
59	0xbd1d798f	-0.038446005
60	0xbe634029	-0.22192444
61	0x3df1ac05	0.11800388
62	0x3c80b37b	0.015710583
63	0xbe52391b	-0.20529597

network.8.weight f4 [64, 64]
0	0xbea2cc77	-0.3179662
1	0xbdd97bf9	-0.10619349
2	0x3e00f834	0.12594682
3	0x3e84cbd1	0.2593675
4	0xbe16d9b5	-0.14731486
5	0xbe0d0715	-0.13772233
6	0xbce17898	-0.027523324
7	0x3eec84ad	0.46194974
8	0xbcee368d	-0.029078746
9	0xbe171371	-0.1475351
10	0xbe23957a	-0.1597499
11	0xbe8c5289	-0.2740672
12	0xbdde0d7f	-0.10842418
13	0xbe1b245b	-0.15150587
14	0xbecb55f5	-0.39714018
15	0x3e93f7fb	0.28900132
16	0x3e479a96	0.19492564
17	0x3e8fb3de	0.28066915
18	0x3e5750a7	0.2102686
19	0x3de262b0	0.110539794
20	0x3c7d455d	0.015458432
21	0x3ddc5965	0.10759238
22	0x3e2bb542	0.16768363
23	0x3e51a674	0.20473653
24	0xbdaaca21	-0.08339334
25	0xbe0c7146	-0.13715085
26	0xbeda5670	-0.42644072
27	0xbdf5c282	-0.1199999
28	0x3d791bc5	0.0608175
29	0x3de8618c	0.113467306
30	0xbd3010f7	-0.04298493
31	0xbecddd52	-0.40207916
32	0x3e5a44e7	0.21315347
33	0xbd2de5ce	-0.042455487
34	0x3d0b4244	0.033998743
35	0x3c9425c7	0.01808442
36	0xbd4d2260	-0.05008161
37	0xbe37b7e8	-0.17941248
38	0x3d47817a	0.048707463
39	0x3e898cd7	0.26865265
40	0xbe791568	-0.24324572
41	0x3e5ff401	0.21870424
42	0xbef19d4b	-0.47190318
43	0xbe6b71ba	-0.22992602
44	0x3e37ea74	0.1796053
45	0xbe1f355d	-0.155477
46	0x3e688656	0.22707495
47	0x3d98e15a	0.074648574
48	0x3d440b2f	0.047862228
49	0xbe892a92	-0.2679029
50	0xbd988544	-0.074472934
51	0xbc113669	-0.00886307
52	0x3edbc7d3	0.4292589
53	0xbe1eee05	-0.15520485
54	0xbde742fa	-0.11292072
55	0xbdacfa1c	-0.08446142
56	0xbd21f784	-0.03954269
57	0xbdb8c711	-0.09022344
58	0x3e91c19d	0.28468028
59	0xbedb3591	-0.42814305
60	0xbd546e4c	-0.051863
61	0xbe03fa6c	-0.12888497
62	0x3dd90509	0.105966635
63	0xbd6b90c7	-0.057511117
64	0x3d8f915f	0.07010149
65	0x3ca4cffe	0.02011871
66	0x3d9c9543	0.07645657
67	0xbd6acd1e	-0.05732452
68	0xbe3bfbd2	-0.1835778
69	0x3db755bf	0.08951902
70	0xbe51abfd	-0.20475765
71	0xbdd028db	-0.101640426
72	0x3dcfe1a6	0.10150461
73	0x3d7a4aed	0.06110661
74	0x3e51cdb8	0.20488632
75	0xbee71303	-0.45131692
76	0xbe3c9693	-0.18416815
77	0xbdc9b9a5	-0.09849862
78	0xbd888e02	-0.06667711
79	0x3e29ea25	0.16593225
80	0xbed0afe9	-0.4075921
81	0xbe89bf33	-0.26903686
82	0x3e1254f5	0.14290221
83	0x3dac65da	0.08417864
84	0x3e6f489f	0.23367546
85	0x3d5eda1b	0.05440722
86	0x3e532eaa	0.2062327
87	0x3c84c809	0.016208665
88	0xbd185426	-0.037189625
89	0x3e5a5550	0.21321607
90	0x3e4814d4	0.19539195
91	0x3d6a1cea	0.05715648
92	0xbea64c5c	-0.32480133
93	0x3dc163a0	0.0944283
94	0xbddcf14c	-0.10788211
95	0x3e326e59	0.17424907
96	0xbdc82ba1	-0.097739466
97	0xbbf988f2	-0.007615202
98	0xbe764855	-0.2405103
99	0x3e8348ad	0.25641385
100	0x3dd21263	0.10257413
101	0x3d9a4c72	0.07534112
102	0xbc9e838b	-0.019349834
103	0xbd91010d	-0.070802785
104	0x3dda5f04	0.10662654
105	0xbd954df5	-0.0729026
106	0xbf42ed3f	-0.7614326
107	0x3d046968	0.032327086
108	0x3e4503ea	0.19239774
109	0x3e909ec5	0.28246132
110	0x3de243c8	0.110480845
111	0x3e545299	0.20734634
112	0xbe0240b0	-0.12719989
113	0xbe10d259	-0.14142741
114	0xbd872376	-0.065985605
115	0x3dde79e2	0.10863091
116	0x3e0c025c	0.13672775
117	0x3e661512	0.22468975
118	0x3df557b3	0.11979618
119	0xbd9480d3	-0.07251134
120	0x3d9e819f	0.07739567
121	0xbd138a08	-0.03602031
122	0xbb9a86d5	-0.0047157803
123	0xbc929c5f	-0.01789683
124	0x3dcf9902	0.10136606
125	0x3e20e983	0.15714078
126	0x3e325869	0.17416538
127	0xbdb7eb3f	-0.089804165
128	0x3e48961b	0.1958851
129	0xbce24926	-0.02762277
130	0xbe83cd0d	-0.2574238
131	0x3da67f62	0.08129765
132	0xbbdbc7c0	-0.0067071617
133	0x3dd1032b	0.10205682
134	0xbd1623cd	-0.036655236
135	0xbdac5f11	-0.0841657
136	0x3d3689ac	0.044564888
137	0x3e731caa	0.23741403
138	0x3e084ae8	0.13309824
139	0x3d6c3d87	0.057675865
140	0x3da902ad	0.082524635
141	0x3d093ee3	0.03350724
142	0xbe866b84	-0.26253903
143	0xbe181398	-0.14851224
144	0xbe9006e3	-0.28130254
145	0x3e1eb957	0.15500389
146	0x3e4cd6b3	0.20003776
147	0x3dd7e482	0.10541631
148	0xbe041dee	-0.12902042
149	0x3dca9854	0.098923355
150	0x3e1a8675	0.15090354
151	0x3deb5db1	0.114924796
152	0xbde001c7	-0.10937839
153	0x3e5c2ced	0.21501513
154	0x3bb0dc6b	0.0053973696
155	0x3e17638a	0.14784065
156	0x3cc79292	0.024361882
157	0xbdbc5f92	-0.09197916
158	0x3dac66ef	0.084180705
159	0x3eccbe2a	0.39988834
160	0x3e5be011	0.21472193
161	0xbe31e974	-0.17374212
162	0x3e037f73	0.12841587
163	0xbdaf845a	-0.08570166
164	0x3b3d05f4	0.002884266
165	0xbe052d0e	-0.13005468
166	0x3ee3d2f9	0.44496897
167	0xbe8610f6	-0.26184815
168	0xbe3b5624	-0.18294579
169	0x3d251a1b	0.0403081
170	0x3d81a19a	0.06329651
171	0x3d50809d	0.050903905
172	0x3d1ba029	0.037994538
173	0x3e3ef2a7	0.18647252
174	0x3db213d7	0.086951904
175	0xbd934320	-0.071905375
176	0x3e69fdaa	0.22850671
177	0x3d9ee804	0.07759097
178	0x3ea40aff	0.3203964
179	0xbb18cee2	-0.002331667
180	0x3eaea8ec	0.34113252
181	0x3d036faf	0.03208893
182	0x3eac17ce	0.33611912
183	0x3b8f4696	0.004372428
184	0xbe1d4d9c	-0.15361637
185	0x3cd6661c	0.026171736
186	0xbdf7d690	-0.121014714
187	0x3b59613c	0.0033169528
188	0xbc7b4bd2	-0.015337901
189	0xbe042dfa	-0.12908164
190	0xbe3b78f2	-0.18307856
191	0x3be33128	0.00693335
192	0x3e824b98	0.25448298
193	0xbda1d4f0	-0.07901943
194	0x3da622c9	0.081121035
195	0x3cdfc040	0.027313352
196	0xbe02e76c	-0.12783593
197	0x3dfa0315	0.12207619
198	0x3d139e1e	0.036039464
199	0x3e45c4f6	0.19313416
200	0x3e3508dd	0.17679162
201	0xbe87a963	-0.2649642
202	0x3d8a22fc	0.06744954
203	0xbce08a57	-0.027409716
204	0x3d0b2910	0.033974707
205	0x3d915511	0.07096303
206	0xbe9c2e84	-0.3050424
207	0x3d233981	0.039849762
208	0xbd77ef8d	-0.060531188
209	0x3e0432da	0.12910023
210	0x3dad56bf	0.08463811
211	0xbd71f139	-0.05906794
212	0x3e5f85c0	0.21828365
213	0xbe33eb82	-0.17570308
214	0xbdda380b	-0.106552206
215	0xbe0fc61e	-0.1404042
216	0xbd46b5a7	-0.04851308
217	0xbe46b3a8	-0.19404471
218	0xbd2560a0	-0.040375352
219	0xbef53ed2	-0.4789949
220	0x3ea89e80	0.32933426
221	0xbee374cb	-0.44425043
222	0xbea93867	-0.33050844
223	0xbe173a1a	-0.14768258
224	0xbe9e1105	-0.3087236
225	0x3d59a377	0.053134408
226	0x3c10a1a7	0.008827603
227	0xbde46e77	-0.11153882
228	0xbe8552c0	-0.26039696
229	0xbdf222c1	-0.11823035
230	0xbcc46f3b	-0.02397882
231	0x3d06a7e6	0.032874964
232	0xbb6d85cd	-0.0036243082
233	0x3e2eea4b	0.17081563
234	0x3e583124	0.21112496
235	0xbd0d2739	-0.034461234
236	0x3ca5232c	0.020158373
237	0xbdb688f2	-0.08912839
238	0xbebc16df	-0.367362
239	0x3e172f66	0.14764175
240	0xbbf67c4d	-0.007522142
241	0xbdbcf23d	-0.09225891
242	0x3e8e20fc	0.2775954
243	0x3e5473aa	0.20747247
244	0xbe12063f	-0.14260195
245	0x3def851d	0.11695311
246	0x3ea16cdc	0.31528366
247	0xbc8fc136	-0.017548185
248	0x3e2c226b	0.16810004
249	0xbd83f278	-0.064427316
250	0xbda7a446	-0.081856295
251	0xbd911c31	-0.07085455
252	0xbd8c22c3	-0.06842568
253	0xbd82b86e	-0.063828334
254	0x3d9b068b	0.07569607
255	0xbdfcff42	-0.12353374

network.8.bias f4 [64]
0	0x3a9f72a2	0.00121649
1	0x3d67cc25	0.05659117
2	0xbc9c0df6	-0.019049626
3	0x3dbc324b	0.0918928
4	0xbcc0a7d0	-0.02351752
5	0x3caea58e	0.021319177
6	0x3c723c12	0.01478483
7	0x3d9ef254	0.07761064
8	0x3d3619cc	0.044458196
9	0xbe120b19	-0.14262046
10	0xbd18f14c	-0.037339494
11	0xbdb90b32	-0.090353385
12	0x3e878de5	0.26475444
13	0xbd77aa01	-0.060464863
14	0xbccbaf27	-0.024863793
15	0x3d0115d9	0.031514976
16	0xbea8fa5f	-0.33003518
17	0x3e8b6971	0.27228883
18	0x3ce1352f	0.02749118
19	0xbd91a6e3	-0.07111909
20	0x3d647764	0.055777922
21	0xbd87d94d	-0.06633244
22	0xbe0b7ce7	-0.13621865
23	0x3d8664cd	0.06562195
24	0x3d354f9e	0.044265382
25	0x3c9a20b6	0.018814426
26	0xbe35e73a	-0.17763987
27	0x3d327763	0.043570887
28	0x3c51fbda	0.012816394
29	0x3d3bbcea	0.04583446
30	0xbdea3cd4	-0.11437383
31	0xbd0004c6	-0.031254552
32	0x3d942bb6	0.072349
33	0xbd9df09b	-0.077119075
34	0x3d5a7afb	0.05333994
35	0xbdd9bf6c	-0.10632214
36	0x3e2a2550	0.16615796
37	0xbc7f2b47	-0.015574283
38	0x3e83c629	0.25737122
39	0xbe2b2e87	-0.16716968
40	0xbd7f1d01	-0.06228352
41	0xbe0e4e2b	-0.13897006
42	0x3dec9c91	0.115533
43	0xbe05a308	-0.13050473
44	0xbcbc3db8	-0.022978649
45	0x3e63b373	0.22236423
46	0xbe2df813	-0.16989164
47	0xbdf5fa2a	-0.12010606
48	0xbd931e73	-0.07183542
49	0x3da73f10	0.08166325
50	0xbcb2a1f3	-0.021805739
51	0x3e0f771f	0.14010285
52	0x3d787de1	0.060666922
53	0x3c5c7661	0.013455958
54	0x3e5835e2	0.21114305
55	0x3d617147	0.05503967
56	0xbe19ab89	-0.15006842
57	0x3e4d0ad0	0.20023656
58	0x3e0a8eeb	0.13531081
59	0xbd0e84bf	-0.034794565
60	0xbd916db7	-0.071010046
61	0xbd5d1928	-0.05397907
62	0xbd1d4c45	-0.038402814
63	0x3b94b69b	0.00453837

network.10.weight f4 [5, 64]
0	0xbc7b9a49	-0.015356609
1	0xbd55e05d	-0.052215923
2	0x3c27df90	0.010246173
3	0xbcadba9e	-0.02120715
4	0x3d3dace6	0.046307467
5	0xbe918f46	-0.2842962
6	0x3c3845b9	0.011247092
7	0xbd4ea124	-0.050446644
8	0xbdc0f973	-0.09422579
9	0xbdf43d6d	-0.119257785
10	0x3dd1d20a	0.1024514
11	0xbdc529ae	-0.096270904
12	0x3c886c6e	0.016653266
13	0xbd84247d	-0.06452272
14	0xbd2809f6	-0.041025124
15	0xbda52bc3	-0.080649875
16	0xbeac001b	-0.3359383
17	0xbd27f98d	-0.041009475
18	0xbdb16346	-0.08661513
19	0xbd3f999f	-0.046777364
20	0xbcf8ddaf	-0.030379144
21	0x3d214b20	0.039378285
22	0xbca9cca9	-0.020727472
23	0xbca1d6d7	-0.019755764
24	0xbd566b0d	-0.052348185
25	0xbce5848e	-0.028017309
26	0xbd944722	-0.0724013
27	0x3c6094d6	0.01370736
28	0xbe74ad95	-0.23894341
29	0xbd0a275e	-0.03372895
30	0x3e2c7ba6	0.16844043
31	0x3c33dfdf	0.010978668
32	0x3c0ac551	0.008469895
33	0x3c4ef47c	0.012631532
34	0xbcc298de	-0.023754533
35	0x3db53475	0.08847896
36	0xbd609b23	-0.05483545
37	0xbbae5566	-0.005320239
38	0x3e8120d7	0.25220367
39	0x3e855ad9	0.26045874
40	0x3b139c17	0.0022523457
41	0xbdd56734	-0.10420075
42	0x3beed088	0.0072880425
43	0x3d32faa1	0.04369605
44	0xbe35b0c0	-0.17743206
45	0x3e29c854	0.16580325
46	0x3c0a9fef	0.008460983
47	0x3e4349ff	0.19071196
48	0xbc71d954	-0.014761288
49	0x3e5d557f	0.21614645
50	0x3cc92681	0.024554493
51	0x3bbcf026	0.0057659326
52	0x3c5d3742	0.013501944
53	0xb924a535	-0.00015701803
54	0x3e3a540e	0.18196127
55	0x3d207743	0.039176237
56	0x3bb5faa0	0.0055535585
57	0x3dcdc23d	0.10046814
58	0x3d7f6085	0.062347908
59	0xbd151df4	-0.03640552
60	0xbd25becb	-0.040465157
61	0x3b53a9be	0.003229722
62	0x3dd91d02	0.10601236
63	0xbd480daa	-0.048841156
64	0x3af17ed5	0.001842464
65	0x3d944b7c	0.0724096
66	0x3d8a4ecd	0.06753311
67	0xbdc0b49e	-0.0940945
68	0x3a01f394	0.00049572554
69	0xbe805b5c	-0.25069702
70	0xbdd23e17	-0.10265749
71	0x3c1e647b	0.009667511
72	0xbb7c65d0	-0.0038512833
73	0xbde86acf	-0.11348497
74	0xbc1a726a	-0.0094266925
75	0xbc167744	-0.009183709
76	0x3c89fb9b	0.016843608
77	0x3e4a23a7	0.19740163
78	0xbd80a427	-0.062813096
79	0xbd382e30	-0.044965923
80	0xbe4dfb57	-0.2011541
81	0x3d1f9271	0.038958017
82	0x3d910ad5	0.07082144
83	0x3d26ee68	0.040754706
84	0xbc88fa03	-0.016720777
85	0x3d803ed9	0.06261987
86	0x3d566fd3	0.052352738
87	0x3db40ce5	0.08791522
88	0x3c5c8220	0.013458759
89	0x3e1ac64e	0.1511471
90	0xbc180b27	-0.009280003
91	0xbddb86a0	-0.10719037
92	0x3d96f34f	0.07370626
93	0xbcb12f0a	-0.021628875
94	0x3db664d1	0.08905948
95	0xbcbfe31a	-0.02342372
96	0x3de1420b	0.10998925
97	0xbcdd8dd5	-0.02704517
98	0x3d7941da	0.060853817
99	0xbb9ee046	-0.004848513
100	0x3cb1e43c	0.021715276
101	0x3d0fa83d	0.035072554
102	0xbf0cd956	-0.5501913
103	0xbe871d59	-0.26389578
104	0xbc81cdce	-0.015845206
105	0x3dfb6898	0.12275809
106	0xbcfc8393	-0.030824458
107	0xbd7a4303	-0.061099064
108	0x3d10a1ee	0.03531068
109	0x3d54ff77	0.052001443
110	0x3d12c9b4	0.03583689
111	0xbd14ccff	-0.036328312
112	0x3c6f2e89	0.014598497
113	0xbd8b5210	-0.068027616
114	0xbd751576	-0.05983492
115	0x3d8d9fe7	0.069152646
116	0x3bff8c4c	0.007798707
117	0xbd72594c	-0.05916719
118	0x3ee186a0	0.44048023
119	0xbd32378a	-0.043509997
120	0x3cbada83	0.022809273
121	0xbdb5c4c0	-0.08875418
122	0x3d82032b	0.063482605
123	0x3d853ac5	0.0650535
124	0xbd3a3a63	-0.04546584
125	0x39ae6956	0.00033266348
126	0xbd06c997	-0.032907095
127	0x3b7045a7	0.003666261
128	0x3f69f45c	0.9138849
129	0xbdef10b7	-0.1167311
130	0x3ea5b637	0.3236558
131	0x3f5eb913	0.8700115
132	0xbf6d20a5	-0.92627937
133	0x3e3f53bf	0.1868429
134	0xbe85b3d2	-0.26113755
135	0x3f345089	0.70435387
136	0xbdb413b6	-0.08792822
137	0x3ebcda42	0.36885267
138	0x3ed7e55c	0.42167175
139	0x3d6a7b0b	0.05724625
140	0x3f67ab3d	0.90495664
141	0x3ecc42a5	0.39894596
142	0x3ecc84f4	0.39945185
143	0xbe9869f5	-0.2976834
144	0xbe81cd76	-0.25352067
145	0x3f081501	0.5315705
146	0x3db5338f	0.08847725
147	0x3e2c0dd4	0.1680215
148	0x3c1ca9b8	0.0095619485
149	0xbdc2a258	-0.09503621
150	0xbf451f5c	-0.77000976
151	0xbcfd4abb	-0.030919423
152	0x3db8f13f	0.09030389
153	0xbb5c8406	-0.0033648028
154	0xbdc790e3	-0.09744432
155	0xbd34591b	-0.04403029
156	0xbcad5bac	-0.021161877
157	0x3f21d727	0.6321892
158	0xbcf6fb83	-0.030149227
159	0x3c59a8be	0.01328486
160	0xbe55a341	-0.20863058
161	0xbf963e26	-1.1737716
162	0xbdc177be	-0.09446667
163	0xbe7013b2	-0.23445013
164	0x3f191c57	0.5980887
165	0x3e8d94cc	0.27652586
166	0xbcd858d7	-0.02640955
167	0xbc975129	-0.018471317
168	0xbf1939a6	-0.5985359
169	0x3df64476	0.12024777
170	0xbd46495a	-0.048409797
171	0x3e1e1f25	0.15441568
172	0x3d029a0c	0.03188519
173	0x3e8d6a96	0.2762038
174	0xbe8306be	-0.2559108
175	0x3e0023bd	0.12513633
176	0xbf0c3b46	-0.54777944
177	0x3ed8021e	0.42189115
178	0xbc72f536	-0.014828971
179	0x3f865a17	1.0496243
180	0xbefa4bda	-0.48885995
181	0xbe452757	-0.19253288
182	0x3e351a1a	0.17685738
183	0x3f3c2725	0.7349723
184	0xbec89c69	-0.3918183
185	0x3c154934	0.009111691
186	0x3c130f10	0.008975759
187	0xbe3c03bc	-0.183608
188	0xbeba6951	-0.36408475
189	0x3d353f6c	0.044249937
190	0xbd55f0b5	-0.05223151
191	0xbf20f868	-0.6287904
192	0x3e345449	0.17610277
193	0x3f11cf22	0.56956685
194	0xbdc981f6	-0.09839241
195	0xbed228ab	-0.41046652
196	0xbb311917	-0.0027023011
197	0xbe00f7b5	-0.12594493
198	0xbf1d9a26	-0.61563337
199	0xbd2cd165	-0.04219188
200	0x3e09c988	0.13455784
201	0x3e9ddf41	0.30834392
202	0xbf45bec5	-0.77244216
203	0x3cabc949	0.020970004
204	0x3e01659f	0.12636422
205	0xbdcab9cf	-0.098987214
206	0x3f16f025	0.5896018
207	0x3e307430	0.17231822
208	0xbdd73449	-0.105080195
209	0x3f1be0a5	0.60889655
210	0x3d9c60e0	0.07635665
211	0x3c50fcfb	0.012755628
212	0x3c796959	0.015222871
213	0xbefeef62	-0.4979201
214	0x3e7d4248	0.24732316
215	0xbbbabbd4	-0.0056986604
216	0xbdc1b041	-0.09457446
217	0x3df17155	0.117891945
218	0xbe6b3c86	-0.22972307
219	0xbda011e2	-0.07815911
220	0xbea5103a	-0.32238942
221	0xbdda8b20	-0.10671067
222	0xbdd0a161	-0.101870306
223	0xbf08a451	-0.53375727
224	0xbe7589cc	-0.23978347
225	0x3e661a8b	0.22471063
226	0xbdb5010c	-0.0883809
227	0x3ecbe708	0.398247
228	0x3e81bff0	0.2534175
229	0xbf4b08b7	-0.7931017
230	0xbe195e71	-0.14977433
231	0xbe0cd183	-0.13751797
232	0xbd1a241e	-0.0376321
233	0x3ea31368	0.31850743
234	0x3f0a4eda	0.5402657
235	0xbdd67f40	-0.1047349
236	0xbe1c11f0	-0.15241218
237	0xbddc782e	-0.1076511
238	0xbeb361be	-0.3503551
239	0x3d12cd2c	0.0358402
240	0x3e28008c	0.16406459
241	0xbba1dd3a	-0.0049397023
242	0xbda87f98	-0.082274616
243	0x3d01713e	0.031602137
244	0x3f6c26be	0.92246616
245	0xbd9f3595	-0.07773892
246	0xbd5c2c7a	-0.053753354
247	0xbe9d2d42	-0.3069859
248	0xbd76a81c	-0.060218915
249	0x3e1aafb4	0.15106088
250	0x3f4f099d	0.80874044
251	0x3ea79e94	0.32738173
252	0xbde24cb5	-0.11049787
253	0xbe7ff9cc	-0.24997634
254	0x3ec11de1	0.37718108
255	0xbe6bed91	-0.23039843

network.10.bias f4 [5]
0	0x3f3f0c61	0.74628264
1	0xbc3ab886	-0.011396533
2	0x3e35a343	0.1773806
3	0x3e186dde	0.14885661
4	0x3d4d0c16	0.050060354
