2D_sheet_problem/models/two_holes_6_64.pth (torch, 90538 bytes, 14 tensors)

network.0.weight f4 [64, 2]
00000000: b7b3 393f 9dd2 82bf be05 24bf f8de 1b3c
00000010: 708c acbf c548 c43d cfee ff3e a0aa 13bf
00000020: 528c 793d 0450 07be 1ef5 b4be cbb8 303f
00000030: 43c0 143f c69c 13bf 6145 e43e 9e14 173f
00000040: dd86 f4be 47db f3be dbe2 393f 9840 6fbe
00000050: 98fd 02bd 3381 25bf 290c e5ba bd8d 42be
00000060: d9c8 79bf 4acd fc3e e0f1 77bd 8151 09be
00000070: 0a0f 42be 5053 503f b95a 9ebe eff8 a13f
00000080: 6f15 913e 00f4 633f ddde 6b3d 82d9 a23e
00000090: be72 9ebe 9973 8c3f 3f13 d03e 1a6a 8abe
000000a0: 2866 6a3e 1582 543f 8728 dd3e 3540 833f
000000b0: 24b8 f53d 9e0a 06bb 7770 06bf 2c13 2e3f
000000c0: 3ce9 1e3e 9452 44bf c36a 4fbe c3d4 1e3f
000000d0: fb3f 993e b13a 453f ab70 e53c 0c83 6dbf
000000e0: f9e6 e43e 1436 1bbf 348f 3c3d c4c1 a43f
000000f0: 1e6e b53d 153a 86bf f00d dbbe 0cf9 dfbe
00000100: fb92 bf3d 2bbc a8bf dd8f 973d 595c 63bf
00000110: 0c50 1bbf 4dce 183f f805 313d f39c 80be
00000120: acbe 0f3c 2229 2c3e a6c4 063f 4c19 ef3e
00000130: 2d5b dd3e 5a6a 333f d3fc 71bf 53c5 5ebe
00000140: 10e0 6d3e 89be 0c3d 0194 9abd 7725 6bbf
00000150: b07e 8a3f a81a 3abf 2627 a1bd 6ca8 743e
00000160: db11 e5be 0ffe a13f 36d1 97be 7cbd 933f
00000170: cb0a ffbe 087c 743d 1352 11bf 5d21 553f
00000180: 5341 043f ff37 a6be 0dda 233e 388f 8d3f
00000190: ee39 9dbf eb6e 86bc a736 b4be 6e0a eebe
000001a0: ddb4 6dbf c6c9 a1be 194e 2d3f 23b2 8ebe
000001b0: 9d90 a6bc 18b2 dcbe 4316 903b bbb2 203e
000001c0: 3969 f63e 5053 16bf 8b06 d33b 1bbc 673f
000001d0: 2a43 053f db27 953e 2a2f 00bf 7c2b 983f
000001e0: 1ab2 cabe e666 f93e 4a62 443e 8334 1dbe
000001f0: 70cc c03e 1806 4c3f fc86 0d3f ca5d 48bf
0.7253985 -1.0220524 -0.6407126 0.009513609 -1.3480358 0.09584192 0.49986884 -0.5768223
0.060924836 -0.13214117 -0.3534326 0.6903197 0.5810587 -0.5766109 0.44584182 0.59015834
-0.47759143 -0.47628233 0.7261178 -0.23364484 -0.031980127 -0.6465027 -0.0017474937 -0.18999381
-0.97572094 0.49375373 -0.060533404 -0.13409998 -0.1895105 0.81377125 -0.3092859 1.2654094
0.28336665 0.8904419 0.057585586 0.3180657 -0.30946916 1.0972778 0.40639684 -0.27034074
0.22890532 0.8301099 0.43194982 1.025397 0.11998013 -0.0020453106 -0.5251536 0.67998004
0.1551866 -0.76688504 -0.2025557 0.620434 0.29931626 0.7704268 0.028007826 -0.92778087
0.44707468 -0.6062939 0.046035007 1.2871633 0.08858894 -1.0486475 -0.4278407 -0.43744695
0.09354206 -1.3182424 0.074004866 -0.88812786 -0.60669017 0.5968979 0.043218583 -0.25119743
0.008773487 0.16812566 0.5264381 0.46698987 0.43233624 0.70084155 -0.94526404 -0.2175496
0.23230004 0.034361396 -0.07547761 -0.9185404 1.0819912 -0.72696924 -0.07868795 0.23892373
-0.44740185 1.2655658 -0.29651803 1.1542201 -0.49812922 0.059688598 -0.5676586 0.83254033
0.51662177 -0.32464597 0.16001149 1.1059332 -1.2283304 -0.016410312 -0.35197946 -0.46492332
-0.928541 -0.31599253 0.6769729 -0.27870283 -0.020332629 -0.43104625 0.004397185 0.1569318
0.48127154 -0.58720875 0.006439989 0.905214 0.5205561 0.2913197 -0.50071967 1.188827
-0.39589006 0.48711318 0.1917812 -0.15352063 0.37655973 0.796968 0.55284095 -0.7826811

network.0.bias f4 [64]
00000000: f4aa 22bf f2d4 5a3f 4405 1b3e 8aed c5be
00000010: 0770 adbc 1006 8e3d c59d 14bf 81b6 47bf
00000020: bf22 163f bade c5be 9eb2 a83e 05ea e53d
00000030: c9b6 f3bd 117b 053e f4cb e7bd 491b 87be
00000040: ef8e 34bf a573 6abe 23ae 77be 2ced bebe
00000050: cc18 16bf 7544 62bf 7825 e6bd 4598 6cbe
00000060: b9cf 413e c3f7 83bd 2cf9 39bf f9a7 b83e
00000070: ad08 48be d270 33bf 0dac d63e 1926 3d3f
00000080: 7340 2b3f 1c5c 983e d3b9 083f 1887 8a3d
00000090: 4d5e c4bd 6cdb 55bf 06ea 71bf 5e04 8e3e
000000a0: 81f7 53be 58b4 fa3e 2e0b 003e 5c44 fcbb
000000b0: adb3 27be ccf2 a4be 18ab 8e3e dcbd c53e
000000c0: a8d5 5dbe fd0e 2ebf fa5d 923d b24b 383f
000000d0: be53 0dbe 47ee 063f ebed 7c3e 0d7c 96bd
000000e0: 6312 d6be ae44 cfbe 014c 55bf 6663 e9bd
000000f0: a555 c8bb 0712 e1bd c1bb 4fbf e0c3 c0be
-0.63542104 0.8548118 0.15138727 -0.3865779 -0.021171583 0.0693475 -0.5805324 -0.78012854
0.5864677 -0.3864649 0.32948774 0.11226276 -0.11900098 0.13035227 -0.11318198 -0.26388004
-0.705306 -0.22895677 -0.24187522 -0.37290323 -0.5863159 -0.8838571 -0.11237615 -0.23104961
0.18926896 -0.06443741 -0.7264583 0.36065653 -0.1953456 -0.70094025 0.4192814 0.7388626
0.66895217 0.29757774 0.53408545 0.06764048 -0.09588299 -0.83537936 -0.94497716 0.27737707
-0.20699884 0.48965716 0.12504265 -0.0076985788 -0.16377135 -0.3221649 0.2786491 0.38621414
-0.21663535 -0.6799162 0.07146831 0.719905 -0.13801476 0.5270733 0.24700134 -0.073478796
-0.41810903 -0.40482086 -0.833191 -0.11395912 -0.0061137252 -0.109897666 -0.81145865 -0.3764944

network.2.weight f4 [64, 64]
00000000: 0c1d 6abd 5606 c53d 25fb fdbd 91b8 babd
00000010: b325 a4bd c9e2 a0bd 7fab 9dbd 4d9d 80be
00000020: 2355 60bd dcde ddbd 5176 1cbe 0fe1 053d
00000030: b5b6 e2bd 94e1 d1bd aab8 82bd e581 10bd
00000040: 2c4a 99be d02f 943c 24f1 d6bd 661b d5ba
00000050: ebc0 573d 9f73 9fbe 8007 543d 76b9 98bd
00000060: a4cd 253e b63f 21be 9882 92be d0cd 413d
00000070: d69e 053e 2d50 0cbf 8c14 5c3e 4e35 373e
00000080: 01f6 853e 8e0c 48bd d77e 95b9 51b6 c1bd
00000090: fe60 8e3d 94cf 86be 3285 aebe 2a57 0e3d
000000a0: c708 87bd 8dff 053f 13b7 bc3a ed04 423d
000000b0: 4424 673d fd2b 91bd 59d3 aabd 4377 16bd
000000c0: e10c 08bd 8800 32bd 3a12 eabd 9b65 593e
000000d0: 11a2 b03d bb40 c13d 1441 a8bd b2eb 003e
000000e0: ab8a 40bd dcd2 0fbe 2518 38be aab9 97bd
000000f0: f7e2 c63d f66b ea3d b952 debe a47c 563d
00000100: a4da 4fbd 2056 97bd 9f08 00be 42fb ad3d
00000110: 9dbb 2ebe 908f cfbd 2b0a 313c 654e 49bd
00000120: 5880 9f3c e922 97bc 4275 91bd 401a 5d3d
00000130: ea02 d73c 3c22 a1bd 8754 2cbd bb52 c3bd
00000140: 2f24 4e3d f25e cebd 1f24 833d bdd8 47bd
00000150: 254e 56bd 08d2 d9bd 04e1 4abd 3684 993c
00000160: bb82 723b a1b1 0d3e f339 39bc c04f e1bd
00000170: 66bc a2bd 0aa4 053e f753 b13d 8252 293d
00000180: 861e cbbd 4e94 84bd 7296 453c 61db 933d
00000190: c247 983d a72b 76bd 162f a3bc 8410 423c
000001a0: 0b2a bbbd a6e8 32be 4b71 363d 9281 24bd
000001b0: 217b dbbd bac5 05be f6c5 8e3c 57e0 87bd
000001c0: 4abd 503d cfcb 123d 74f6 043d e658 84bd
000001d0: 3230 64bd e2d7 debd a96a 76bd 8ada febc
000001e0: e9aa 0bbe 9691 16bd 5764 4a3d 30c5 b9bc
000001f0: a9a2 eb3d 9d98 6c3d e0a5 f6bc ce0f ad3c
00000200: 42b5 91be f4ca 233f 2253 43bc eaf9 b0be
00000210: f1fa 21bd 64f5 bf3d 49e9 a9be 21c0 38bf
00000220: e4a9 413e 64d6 31be 7c0d 903d 4bc8 153e
00000230: 46de 22be 0e7b bd3d 159a 1f3d 4b8c b6bd
00000240: cc18 ebbe b9b4 66bc 741d ea3d 8595 4cbe
00000250: 882b 0ebe 03a5 eebe 48a3 88bc bf96 b0bd
00000260: 43ae 0abe 052f 093d 97a6 12bf 6aaa 1f3d
00000270: a440 45be c98d 9dbe f91d 843d 6bd4 343f
00000280: 66b2 203e faab e2bd 93de 0e3f 0790 c23b
00000290: 440d 0f3d 2a39 ffbe 4885 84bf c689 4abd
000002a0: 9b7a c9bd 7609 1b3f 5403 233b bf50 e6bb
000002b0: bd1a fabc 3f12 963b d0bd ee3c cdc5 cc3e
000002c0: c7f4 0bbc b8aa 3bbd 4646 30be 3310 213f
000002d0: daac 95bd 2bfb 5e3e 1fb8 a93c 7d70 5b3d
000002e0: af57 3fbe 67e5 39be 9cca 28bf 3142 533e
000002f0: 057c 563d ba44 58bb 7f5d 14bf 25ba 86be
00000300: 0602 0e3e 6d41 82bd cabd f7be 09ef 6a3e
00000310: ca7b 653c d66b 9ebe b022 883e d223 263e
00000320: 1cb0 3ebe 6f64 143f 9bcb f43c 6cf7 c53d
00000330: c7d4 aabe 7765 6e3d 43d9 d6be 5125 15bf
00000340: 3f18 ab3d 1fa7 62bc 21b6 15bf 07e3 4e3d
00000350: 5a9e 873e 2945 ac3b dd53 8b3d 4fc5 b0be
00000360: 7df7 f63d b6eb cf3b 6ff5 1dbd 35d8 d73e
00000370: 18ba d93e 9285 9ebe ba45 753e 0ce6 02be
00000380: 6716 5c3e a804 2c3e 4b5f 53be da74 3c3e
00000390: 4985 e43d f4ff 15bc aa75 1cbe cf44 d7be
000003a0: 3ae8 643e d048 963e 43fa c03e 7149 c9bd
000003b0: c1eb fabe 5b95 20bf 9434 f7be 2b49 81be
000003c0: 9421 ae3e d56f 953d 1ea9 b7be dbf3 c53d
000003d0: f66d 50be 7eb7 b73e 6843 153e 3659 d6bd
000003e0: a1e6 14bd f879 bfbe 0deb 033d 377b edbe
000003f0: 3488 d6be e3a7 973c ee95 513d f7c6 893d
-0.057156608 0.09620349 -0.12401418 -0.091172345 -0.08015003 -0.07855756 -0.07698726 -0.2512001
-0.054768693 -0.10833523 -0.15279509 0.032685336 -0.11070005 -0.10248104 -0.06382878 -0.035280127
-0.299394 0.018089205 -0.10495213 -0.0016258776 0.052674215 -0.311429 0.051764965 -0.07457249
0.16191727 -0.1574696 -0.2861526 0.04731542 0.13048872 -0.5480984 0.21492213 0.17891428
0.2616425 -0.048840098 -0.00028513998 -0.09458602 0.069520935 -0.26330245 -0.34085995 0.034751095
-0.06593471 0.52343065 0.0014397822 0.04736798 0.05643107 -0.07088468 -0.083410926 -0.03673483
-0.033215407 -0.043457538 -0.11429258 0.21230166 0.08624662 0.094361745 -0.08215538 0.1258991
-0.047007244 -0.1404528 -0.1797796 -0.074084595 0.09711259 0.11446373 -0.43422487 0.05236496
-0.05074562 -0.07389474 -0.12503289 0.08495189 -0.17063756 -0.10134804 0.010805647 -0.04914703
0.019470379 -0.018449264 -0.07102443 0.053980112 0.026246507 -0.07867858 -0.0420728 -0.09537264
0.050327476 -0.10076703 0.06403374 -0.048790682 -0.05232062 -0.106357634 -0.049530998 0.0187398
0.003700419 0.13837291 -0.01130532 -0.11001539 -0.079460904 0.13050857 0.08658593 0.04133845
-0.09917931 -0.064735994 0.012059795 0.072195776 0.07435562 -0.060100224 -0.019919913 0.011844758
-0.091388784 -0.17471561 0.04454164 -0.04016263 -0.10716844 -0.13063708 0.01742838 -0.06634586
0.05096177 0.0358389 0.0324616 -0.064622685 -0.055710025 -0.1088102 -0.060160313 -0.031110067
-0.13639416 -0.036759935 0.049412098 -0.022677034 0.11505634 0.05776273 -0.030108392 0.0211257
-0.284586 0.63981557 -0.011921676 -0.3456567 -0.039545957 0.093729764 -0.33185795 -0.72168165
0.18912464 -0.1736694 0.07033822 0.14627187 -0.15905103 0.092519864 0.038965303 -0.089134775
-0.45917356 -0.014081174 0.11431399 -0.19978912 -0.13883793 -0.4661027 -0.016679421 -0.086225025
-0.13543038 0.033492107 -0.57285446 0.03898088 -0.1926294 -0.30772236 0.06451029 0.70636624
0.15693054 -0.11067958 0.5580837 0.0059375796 0.03492476 -0.498483 -1.0353174 -0.049447797
-0.09837838 0.6056131 0.002487381 -0.0070286687 -0.030530328 0.004579812 0.029143244 0.3999466
-0.008542246 -0.045817107 -0.17214307 0.62915343 -0.073083594 0.217755 0.020717679 0.053574074
-0.18685792 -0.18153916 -0.6593416 0.20630719 0.052364368 -0.0032999949 -0.57955164 -0.26313892
0.1386796 -0.06360135 -0.48386985 0.22942747 0.014006564 -0.30941647 0.26588964 0.16224602
-0.18621868 0.5796575 0.029882243 0.096663326 -0.3336546 0.058202233 -0.41962633 -0.58260065
0.08354234 -0.01383379 -0.5848103 0.05050948 0.26488 0.005257268 0.06803105 -0.34525535
0.120589234 0.0063452376 -0.03856414 0.4215714 0.4252479 -0.3096128 0.2395238 -0.12783068
0.21492921 0.16798651 -0.2064182 0.1840395 0.111582346 -0.009155262 -0.1527926 -0.42044684
0.22354212 0.29352427 0.37690935 -0.09828461 -0.4900799 -0.627279 -0.482823 -0.25251135
0.34009993 0.07296721 -0.35871214 0.09665652 -0.20354447 0.3588218 0.14576495 -0.104662344
-0.036352757 -0.37397742 0.032206584 -0.46383068 -0.4190079 0.018512672 0.051168375 0.06727403

network.2.bias f4 [64]
00000000: 9f61 353e c8a9 b73b b48e 3d3e a128 2e3e
00000010: 2b09 2a3e 4f99 cd3d 7f60 37bd 9b88 1b3d
00000020: 9dc2 14bc ae94 b0bd 5a8b 41bd 7397 353c
00000030: 2018 2cbe 9aaf 1d3d d2e4 903d c7a8 3c3e
00000040: 8ba0 0d3e 7c12 d8bd d1d5 ba3d 3646 74bd
00000050: 0ec1 bbbe 2b39 453c 3b3c 353d b918 90be
00000060: fde0 05be 2ba3 dd3d 8464 0a3c 22bb ebbc
00000070: 2615 183e f1ec 073d 89aa da3d 658d 223e
00000080: 5770 5ebe fb87 d13d 89b7 1ebe abff 1fbe
00000090: 0b9a b13e 1ff8 fc3d bcb2 c03d 31b1 0cbd
000000a0: c2b2 043c 4b97 943d 4a87 22be 4435 633d
000000b0: 71d7 e8bd a621 cfbd 117e 60bd bfda a9bd
000000c0: 7140 8e3d dc0f 33bd 77e6 00be f007 963d
000000d0: 909d 8dbd 3205 843e 148b 0a3e 9cf4 c83e
000000e0: 4787 5a3d 60ff 92be 2dc9 2e3e 3793 e83d
000000f0: 50fe 24bd 384b d3bd c68d 51be 4638 433e
0.1771302 0.0056049563 0.18511468 0.17007686 0.1660506 0.10039007 -0.04476976 0.037972074
-0.009079603 -0.086221084 -0.047252037 0.011083472 -0.16806078 0.038497545 0.07074894 0.18423758
0.13830774 -0.105504006 0.091228135 -0.05963727 -0.36670727 0.012037556 0.044246893 -0.28143862
-0.13074107 0.108221374 0.008446816 -0.028775755 0.14851817 0.03318495 0.10677058 0.1587425
-0.21722542 0.10231014 -0.154997 -0.15624873 0.34687838 0.12352013 0.09409091 -0.03434867
0.00809926 0.07255419 -0.15871921 0.05547072 -0.11369217 -0.1011384 -0.054807726 -0.08293676
0.06945885 -0.043716297 -0.12587915 0.07325733 -0.06914818 0.25785214 0.13529617 0.39249122
0.053351667 -0.2871046 0.1706893 0.11356204 -0.040281594 -0.10317081 -0.20464239 0.19064435

network.4.weight f4 [64, 64]
00000000: 754f 12bd 29ec 65bd d5af b53d 857e 163d
00000010: 05b7 0abd 7d54 293d b11f c33d bed0 3d3d
00000020: 7d28 ac3d 8ee2 373e d92f 603e 1611 85be
00000030: 0f26 283c eca7 87bd 1671 7abe 4c73 313d
00000040: ea30 c5bd 5cd9 8b3e c787 f63c 8225 0e3e
00000050: 177c 993d 15bb 3d3d be94 0abd f336 48be
00000060: aa5c 663c d4e5 063d 6271 1f3d 5b32 b33e
00000070: 9cc8 b9bd a2bd ba3d 236d a43d aade 50be
00000080: 63eb c03d ea7c 8a3d 5e86 bebd 5eee cbbe
00000090: f187 c8bb 495f 183e 4216 643d ebf1 663e
000000a0: cd52 8bbd 8a38 f03c d28d ce3e 0da8 65be
000000b0: 92af 45bd def1 09be 3ae4 9c3d bc3a 1b3e
000000c0: c036 aa3d f56d 99bc 048e 89bd 38c2 393e
000000d0: 6e49 7db7 6475 69bd 73f8 afbc d49c 963e
000000e0: e513 01bd 0c31 643e 8905 f83e afc4 d3bd
000000f0: d220 b73d 88a7 1cbd 6ba2 7a3c 36e3 0fbe
00000100: 493e afbd 8fae 74bd 7db3 16bd e80d 15be
00000110: 5dac 88bd 5723 32be cf76 613c 651c 2bbd
00000120: 0c2e 413e adaa 2ebe 8d45 863d 0aa9 b93e
00000130: ba22 a2bd d7d0 92bd 90ad 843d def2 e6bc
00000140: 7a43 57bd 116c 0bbe ec98 b1bb 5c9a f2bd
00000150: a377 c7bc 8862 b13b 178f 3dbd 803d d13d
00000160: ab92 86bd 2db6 14bd bb53 cebd 4ff0 71be
00000170: b8b6 e2bd b5b6 26bd fb59 0c3c 94d4 8d3d
00000180: 888d de3e 6e0a 17be 99c8 663d cfc5 a03d
00000190: e034 753e e066 ecbe 161c 783d c111 99bc
000001a0: 3057 b73b a1ae a6bd c6f0 683e fcc9 b7bd
000001b0: 389b 2f3e e2b6 4abd 86c9 8cbd ff19 b4bd
000001c0: fd6a c8bd cd5e 38bd 6ed8 74be 7fe1 83bd
000001d0: 9593 e0bc 12dc a73d c75c 0ebe 175f 083d
000001e0: 3632 9dbc c19d 573e 58c2 483e c647 2e3d
000001f0: aab6 36be 2bcb e8bd 5542 243e 2ee2 6a3e
00000200: d1c0 b1bd 5cf6 a33c fc45 dbbe f8de 70bc
00000210: 37a8 26be 414a 3ebd 6850 8b3d 95f3 fcbb
00000220: 1373 663e 69f7 d13b 9f5b 4f3d 13fd a73e
00000230: bf5d e93c ac78 05bd f480 7fbd a362 a73d
00000240: c592 fb3d 72ae 073d d1e3 953c fe4c 683e
00000250: 0d8f a63d ae48 2d3d 79df 023b 41d9 cf3e
00000260: 6ed8 853b 94c9 0c3c b763 d9bd e4cd 193e
00000270: 777a eebd 5cdd 3b3e 5673 ae3c 7901 99be
00000280: fa98 21bd f122 6bbe 0761 b5bd c812 863d
00000290: 53ad 17be 5f35 443e f7a1 853d 107d 233e
000002a0: f824 1cbe 1ce1 d33d 833a d13e fff9 50bb
000002b0: a202 c9bb 7254 1bbe 7441 ddbb 5936 ae3c
000002c0: 8937 a43c f6a4 4bbc 52a1 4bbe d8d7 50bc
000002d0: d75e 0abd 9fcc c0bd 0e37 bebc ac0e 3abe
000002e0: 8dbc e13a 38aa 173c ba05 983d c5dd 04bd
000002f0: 1319 b43d 12c3 e63d 4231 c83e d843 cd3c
00000300: 8dad 533e 2b54 d7bc 13c5 c0bd b9f1 333e
00000310: 2679 9a3c b7de cf3d 2fb2 c93c 9fb1 de3c
00000320: 9ab1 82bd 3096 493e b464 0a3f 47e2 65be
00000330: c993 39be bc0b d0bc 7e54 ddbe 0f28 c53d
00000340: 04bd 813e d8f4 7fbe 90ca f339 86fb 4d3d
00000350: 3d27 a7bd 05fd 2d3c db4c 03bc 7a46 a53d
00000360: d423 213c 9752 dabb 7845 c33e 038b c4bd
00000370: a9d4 1bbe 5bbd 063d 7abb adbc b570 753d
00000380: 7262 4fbd fc0e 963d ee48 483d 8b2f 923e
00000390: d7a8 3fbe 12df 49be 58a1 163e 50a0 38be
000003a0: 2ba9 38bc 22ae 1b3b 8318 983b 64af 433c
000003b0: 5ccd ecbe 2bf9 5d3d 0c4e 0d3e 3612 823e
000003c0: 1346 893d c2d8 493d 1619 f73e c64e 363e
000003d0: 0a3a 4d3c 07c4 37be 4485 4ebd ae88 8fbe
000003e0: df30 483e 648e e43d 0a88 5fbe 2984 a3bd
000003f0: 2381 903e e9dd 1f3e 2ccc a83d 6a1b b1be
-0.035720307 -0.056133423 0.08871428 0.036741752 -0.033865947 0.04134034 0.09527529 0.04634165
0.0840616 0.17957518 0.21893252 -0.25989598 0.01026298 -0.066238254 -0.24457201 0.043322846
-0.0962847 0.2731427 0.03009404 0.13881496 0.074943714 0.046320993 -0.033833258 -0.19552211
0.014060179 0.032934025 0.03892649 0.34999356 -0.09071466 0.09118201 0.08028629 -0.2039744
0.094198965 0.06762107 -0.09302972 -0.39830297 -0.006119721 0.14880098 0.05568529 0.22553222
-0.06802902 0.029323835 0.40342575 -0.22427388 -0.04826314 -0.13471171 0.07660718 0.15159124
0.08311224 -0.01872919 -0.067165405 0.18140495 -1.5097072e-05 -0.056996718 -0.021480775 0.29416525
-0.031513114 0.22284335 0.48441723 -0.10340249 0.08941807 -0.038245708 0.0152975125 -0.14051518
-0.08556802 -0.059736785 -0.036792267 -0.14556086 -0.06673501 -0.17396294 0.013761236 -0.041775126
0.18865222 -0.17057295 0.065562345 0.3626178 -0.0791678 -0.07168739 0.06478417 -0.02819198
-0.052554585 -0.13615443 -0.005419841 -0.11845848 -0.02434904 0.005413357 -0.04627904 0.10216808
-0.065709434 -0.03630655 -0.10074564 -0.23626827 -0.11070007 -0.040701587 0.008566375 0.06925312
0.43467355 -0.14750072 0.05634365 0.07850229 0.23945951 -0.46172237 0.06057366 -0.018685224
0.0055951104 -0.081387766 0.22748098 -0.08974072 0.17149055 -0.049490817 -0.06874375 -0.08794021
-0.097860314 -0.045012284 -0.23910686 -0.06439494 -0.027414123 0.08196272 -0.13902579 0.03329381
-0.019188982 0.21056272 0.19605386 0.042548917 -0.17843118 -0.11366876 0.16040929 0.22937843
-0.08679355 0.020014934 -0.4282683 -0.014701597 -0.16275106 -0.046457533 0.06802446 -0.007719467
0.22504835 0.0064076674 0.050624486 0.32810268 0.028487084 -0.032585785 -0.06237884 0.0817311
0.122838534 0.03312535 0.018297108 0.2268562 0.081327535 0.04230564 0.0019969626 0.4059544
0.0040846383 0.008592982 -0.10614722 0.15019947 -0.11644452 0.1834616 0.02129523 -0.29883936
-0.03945253 -0.22962548 -0.08856397 0.06546551 -0.14812212 0.19160984 0.06525033 0.15965676
-0.15248477 0.103456706 0.40864953 -0.003188729 -0.006134347 -0.15168932 -0.0067521874 0.02126615
0.020046012 -0.0124294665 -0.19885758 -0.012746774 -0.033781853 -0.094140284 -0.023219611 -0.1816966
0.001722233 0.009256892 0.07422967 -0.03243806 0.08793845 0.112676755 0.3910008 0.025056764
0.20671673 -0.026285252 -0.09412589 0.17572679 0.018856596 0.10149901 0.024621097 0.027184306
-0.06381531 0.19686198 0.5405991 -0.22449599 -0.18122782 -0.02539622 -0.43228525 0.09626781
0.2533952 -0.24995744 0.00046499493 0.0502887 -0.08161781 0.010619407 -0.008013929 0.08070083
0.009835202 -0.0066626775 0.38138938 -0.09596827 -0.15217842 0.032895427 -0.02120756 0.05992194
-0.050630994 0.07327077 0.048897676 0.28551897 -0.18716751 -0.19714001 0.14709985 -0.18029904
-0.011270802 0.0023754914 0.004641594 0.011943672 -0.46250427 0.054192703 0.13799304 0.2540452
0.06702819 0.049278982 0.48261327 0.17803487 0.012526045 -0.17945872 -0.05042006 -0.28033966
0.19549893 0.11159971 -0.21829239 -0.07984192 0.28223523 0.15611996 0.08242068 -0.34591228

network.4.bias f4 [64]
00000000: ac79 003d e136 b23c 380b 4b3d 7fe2 c8bd
00000010: c7a0 e83d e645 0bbd 990f 1ebe b9f7 fdbd
00000020: badc 9fbe 41eb 3f3d 625b 03be 5370 003e
00000030: e266 be3d 7b66 e73d f68e 93bd f758 7a3d
00000040: 25f0 403e 6535 cf3d 655a 3dbe f4c4 a1bd
00000050: 44f6 d5bd ad26 a7bd abf3 14be 5f86 c6bd
00000060: 67cf a4be 5c79 f23c c541 2c3e 78c2 433e
00000070: 9e28 80bd ae60 a43d 659b 23bd a784 43be
00000080: 68b9 babd ea12 fbbc b37a 273e 1d6c 173d
00000090: 234d 2cbe 116c a63d fe61 6b3d a130 623d
000000a0: 6176 a7bd bc64 a9bd beb0 cebd c3b5 3b3e
000000b0: 744c 34bd 63a2 0c3e 28af 15be 967a 2c3e
000000c0: 39d8 a8be 1ab9 4b3d a673 6fbd 77ae b83e
000000d0: 3fab c13e 9d60 8abc b62c 24be 83ab f4bc
000000e0: e4e8 0e3c 6edf 783d cf97 3fbe a7a4 05bc
000000f0: 7258 963d 0038 363e 7a24 2cbd a43a c83c
0.031366035 0.021754684 0.049571246 -0.09808826 0.11358791 -0.034002207 -0.15435638 -0.12400765
-0.31223089 0.046855215 -0.12827829 0.12542848 0.09296967 0.112988435 -0.07205002 0.06112
0.18841608 0.10117606 -0.18491514 -0.07898894 -0.10447362 -0.08161674 -0.14546077 -0.09693598
-0.32189485 0.029598884 0.16821964 0.19117153 -0.06257747 0.08026253 -0.039943118 -0.19093572
-0.09117395 -0.030648667 0.163554 0.03696834 -0.168263 0.08126081 0.0574665 0.055222157
-0.08176876 -0.08271167 -0.10092305 0.18331055 -0.044018224 0.1373382 -0.14617598 0.16843638
-0.32977465 0.049737073 -0.0584599 0.36070606 0.37825963 -0.016891772 -0.16032681 -0.02986694
0.008722518 0.060759954 -0.18710254 -0.008156932 0.07341088 0.177948 -0.042026974 0.024442025

network.6.weight f4 [64, 64]
00000000: 23c1 19be cca9 123e 0abc 2e3e af11 c0bd
00000010: 137c 113e 212b 793d c172 babd 7303 983c
00000020: e138 1c3e c144 133d 9bfb 193d 5a84 60be
00000030: 35c4 093e 9108 85be ce2c 113d 6841 e1bb
00000040: c828 6dbe 083a b2be 02ef 9a3d e85a 893e
00000050: b726 b03d 5f2e d8bd 1f01 16bd 906e 8d3d
00000060: e6b2 ee3d ef9b d3be 4ed6 523e 648e adbd
00000070: 4728 12be f199 b8bd 690b 883d 7953 92bd
00000080: ad79 36be b0d2 0a3e 42e1 91bc 74f8 1dbe
00000090: fb34 333e a960 db3e 7432 583e e17a ac3c
000000a0: 4bef 9bbe 8ac1 893e 0181 533e a5b5 c0be
000000b0: 7a90 21bd 36b8 843d 7759 253c 9e65 bd3d
000000c0: 866d 33be 57dd 043d 53c4 783e 4a45 ee3c
000000d0: 1046 9a3d acde 02bf 28d5 8c3e cb17 8d3e
000000e0: c684 fd3d c3d8 253e 8c63 753d 7b7c 0a3e
000000f0: 53d3 ea3d 04c9 423e 2e6d 273e 506d 453d
00000100: 0db8 b73c 7414 cabd d96c 82bb 41f0 76be
00000110: c560 5dbd 258b d73b b244 2b3f 1054 af3d
00000120: fd3d ca3d 6f73 6dbd 639e a9bd 1389 dbbc
00000130: d97b 373d 3b9f 823d f11d 203e 15f2 60bc
00000140: be81 e4be a2e7 ebbd 598c f8bd a235 143e
00000150: 4b9b 82bd 5fd3 34bc e77b 8e3d 01ee 693b
00000160: 60aa e1ba 8463 45be 8077 febd 683f 13be
00000170: c90c 593e 74e1 a03d d508 e03d a9be dbbc
00000180: 6327 0f3e 8d50 19be 21d8 27be 49f5 dcbd
00000190: 27b8 74be 190d e73d a43d 7b3e 8c7f 34be
000001a0: dc4b 34be 2781 adbe 2244 c4bd c85b 55be
000001b0: 1b73 fbbc d577 edbd e698 b4bc d9e3 2ebe
000001c0: 0238 d1bd 9034 dabd 9638 9ebd 1ba6 83bd
000001d0: 98d4 3fbe 5e75 893e f4ba cb3e b23f 993d
000001e0: 69fd 36be 9c2c 723e 7dc6 943e 975f 28bd
000001f0: f604 84be 9ca2 b1bd 3396 36be e1c1 af3e
00000200: 5f71 d5bd 70b1 cb3e a443 17be 19b3 a5be
00000210: ede2 1cbf 33fe bcbc 4202 ce3e 9763 d7bc
00000220: d0b8 1b3d eca0 eb3d 2fae 27bd 379f 823d
00000230: 8fe4 bdbe 91fd 8ebd 4c94 e6bd 9cbf 4abe
00000240: fd91 25be db5f 73b9 e4f2 d9bd cb65 cfbc
00000250: 9da5 853d 9a09 85be 4616 8f3c 51bb 9dbe
00000260: c5f1 13be 080b 263d ecad d63e ce51 c0be
00000270: febc 24bc 7fe7 49be c739 5ebd bbb2 34be
00000280: 74b5 003e 3d7f debc 4e0f 5f3e 771e 073d
00000290: edbe 6e3e 7838 9cbd 5d1b 89bd 1422 ae3e
000002a0: bad2 ddbe 170d a23e a152 58bd da2b 453e
000002b0: a008 9c3e 7b14 7b3c 9d16 183e 0761 303d
000002c0: 1c1d 97bd 4cfa acbe 6bbe 843e ea42 c43e
000002d0: 00b3 16be 8d4e 5d3d fd6c 35be 3b1b 193d
000002e0: acc4 2fbc 6de0 02be b8e0 d9bd dbec aabd
000002f0: a428 f83c 1e95 94b9 1a0c d53c b6b4 4cbe
00000300: 4215 143d f1af 18be ae92 c3bc a67a 1abd
00000310: 449d 96be 3933 163d c78d 613e 6c97 90bc
00000320: 3924 09bd c8b4 013e a4dc 1d3e 1146 0fbe
00000330: 4d20 b03e f8ec a1bd bde0 89bd 689e 313d
00000340: 0f74 99bd cfd3 a63c 4dc0 8cbc a778 443d
00000350: 37d5 643d 7d02 64bc 9e71 683e 7993 71bc
00000360: b084 1d3e 89fc f1be ea49 a9bd 26a2 a43e
00000370: ace5 d43d 769f f63c 75c4 96bd 2dc9 203e
00000380: 591f 99be 1b81 2a3e 36c0 f7bd ef14 f6bd
00000390: 1d33 473d b555 61bc a29a 8d3e 9c8f 04be
000003a0: 1694 aa3d ccd9 72bd 5f6f 0cbe 2bb3 19be
000003b0: a535 85be 427b d03d 38f3 ebbd b9b5 4e3e
000003c0: 74aa 7dbe c1ff 383e f2ac 2b3d 77bc db3d
000003d0: 4bde b43d 2bb7 34be c464 3f3d 26bb 7fbd
000003e0: c2cb df3c 048a 5dbe 5af4 a0bd 9175 693d
000003f0: 5264 96bd 3eae 9d3e ccb9 d1bc c64c 6bbe
-0.15015082 0.14322585 0.17063919 -0.09378373 0.14207487 0.060832147 -0.09103919 0.018556332
0.15256073 0.03595424 0.037593465 -0.21925488 0.13453753 -0.25983098 0.03544312 -0.006874252
-0.23160088 -0.348099 0.07565118 0.26827168 0.08601134 -0.105557196 -0.036622163 0.06905854
0.11655216 -0.41329905 0.20589563 -0.084744245 -0.14273177 -0.09013737 0.06642801 -0.071448274
-0.17819853 0.13556933 -0.017807607 -0.15426809 0.17500679 0.42847183 0.21112996 0.021054687
-0.30456004 0.2690547 0.2065468 -0.37638584 -0.039444424 0.06480448 0.010092131 0.092478976
-0.17522249 0.03243765 0.24293642 0.029085774 0.075328946 -0.5112102 0.27506375 0.27557215
0.1237884 0.1619597 0.05990939 0.13524048 0.11466088 0.19021994 0.16350242 0.04819995
0.02242663 -0.098671824 -0.003980261 -0.24115087 -0.054047365 0.0065778666 0.66901696 0.085609555
0.098751046 -0.057971414 -0.08282163 -0.02679876 0.044795845 0.06378027 0.15636422 -0.013729592
-0.44630235 -0.1151879 -0.12136144 0.14473584 -0.06377276 -0.011036723 0.06957226 0.003569484
-0.0017216913 -0.19276243 -0.124251366 -0.14379656 0.21196283 0.07855502 0.109391846 -0.026824312
0.13979869 -0.14972134 -0.1639104 -0.10788972 -0.23898374 0.11281795 0.24535233 -0.1762678
-0.17607063 -0.33887598 -0.09583308 -0.20835793 -0.030694535 -0.11595122 -0.022045564 -0.17079104
-0.10215761 -0.10654557 -0.07725637 -0.064281665 -0.18733442 0.26847357 0.3979107 0.07482852
-0.17870106 0.2364983 0.29057685 -0.041106787 -0.25785035 -0.086735934 -0.17830734 0.34327605
-0.104220144 0.39783812 -0.14771897 -0.32363203 -0.6128376 -0.02307043 0.40236098 -0.026292605
0.038018048 0.11505303 -0.0409376 0.06378024 -0.3708844 -0.06981958 -0.11258754 -0.19799656
-0.16168971 -0.00023209995 -0.10642031 -0.025317093 0.06525729 -0.25983888 0.017466675 -0.30806974
-0.14447697 0.040537864 0.41929567 -0.37562412 -0.010054825 -0.19717215 -0.05425432 -0.17646305
0.12569219 -0.027160281 0.21783182 0.032988038 0.2331502 -0.07627958 -0.06694672 0.34010375
-0.43324834 0.31650612 -0.052813176 0.1925501 0.3047533 0.015324707 0.14852376 0.043061282
-0.07378599 -0.3378471 0.25926527 0.383323 -0.1471672 0.05402999 -0.17717357 0.037379485
-0.010728043 -0.12780924 -0.10638565 -0.08345958 0.030292816 -0.0002833986 0.026006747 -0.19990811
0.036153086 -0.14910866 -0.023873653 -0.037714623 -0.2941686 0.036669943 0.2202674 -0.017650329
-0.03348181 0.12666619 0.15416199 -0.13991572 0.34399644 -0.07906526 -0.067323186 0.04336396
-0.074928395 0.02036467 -0.01718154 0.047966626 0.0558674 -0.013916609 0.22699592 -0.014744633
0.15382648 -0.47262982 -0.08266051 0.3215496 0.10395369 0.030105334 -0.0736169 0.15701742
-0.2990673 0.16650812 -0.12097208 -0.120157115 0.04863273 -0.013753344 0.27657038 -0.12945408
0.083290264 -0.05928974 -0.1371436 -0.15009753 -0.2601749 0.101797596 -0.11521 0.20186509
-0.24772054 0.18066312 0.04191298 0.10729306 0.088314615 -0.17647998 0.046726957 -0.062434338
0.027318839 -0.2163468 -0.07859106 0.056996886 -0.07343353 0.30797 -0.02560129 -0.22978505

network.6.bias f4 [64]
00000000: 6d3d 99bc ac43 75be 96c4 0d3e 4732 55bd
00000010: c4a2 153e 4296 2bbe 577e 5ebc 664e 5e3e
00000020: d9ac 0c3e 2454 88be 7149 2ebe cc9a 223e
00000030: 6664 99be 04be 3abe bf43 f4bc aa10 c63c
00000040: 4f92 a9bc dcf7 b73d 4bc8 013e 95af f3bd
00000050: bc05 a8bd fbd4 a43c 8c51 eb3d d5fb 673e
00000060: c82f 85bd ab04 80be 53ac 283e eb9e 543e
00000070: d96c d03d 7675 cfbc cae1 513c 0f78 043d
00000080: 945f 5ebd c39c 4f3e 7c9b 0fbe f05d 95be
00000090: 9559 063e cfda 62be 9b51 ccbc f12f 913c
000000a0: 3b11 223d 8ca3 0dbe 9e96 0e3e 8a1a 35bc
000000b0: 4b11 d13c 7928 c3bc a295 193e 1f62 e93c
000000c0: a70c 43bd 2160 833e 070c 1a3e 9de6 0cbc
000000d0: ed84 b53d 2885 46bd 13fa 26be 613f 213e
000000e0: 8a3d e4bd 7c60 85bc 6fbe 793c d18b 553e
000000f0: 63d1 5abe cbeb af3d d769 e03d 4a39 a3bd
-0.018706048 -0.23951596 0.13844523 -0.0520499 0.14612871 -0.16756538 -0.013579926 0.21709594
0.13737811 -0.26626694 -0.17020203 0.15879363 -0.2995941 -0.18236548 -0.02981746 0.024177868
-0.020699648 0.08982822 0.12674062 -0.11898724 -0.08204219 0.020121088 0.11490163 0.2265466
-0.06503254 -0.2500356 0.16471986 0.20763747 0.10177011 -0.025324564 0.01281018 0.03234106
-0.05429037 0.20274644 -0.14024156 -0.2917323 0.1312011 -0.22153781 -0.024941256 0.017723056
0.039567214 -0.1383192 0.13924643 -0.011053691 0.025520941 -0.02382301 0.14998487 0.02848917
-0.047619488 0.25659278 0.1504365 -0.008599904 0.08863244 -0.04846683 -0.16306333 0.15746833
-0.1114455 -0.016281359 0.015243157 0.20854117 -0.21368937 0.08589896 0.10957687 -0.079699114

network.8.weight f4 [64, 64]
00000000: 00a8 9abe c48e 31bd d977 b53d bf0f 1c3e
00000010: c6ce e53e 7562 173b d954 a7bd b8da 3f3e
00000020: 1736 0abd 4858 4c3d 6b27 533d 6e32 febd
00000030: c223 0e3e 4b11 bf3e a1f5 5e3e fb36 9c3e
00000040: 3a7d 00be e75a 09be b8a4 8ebe fca7 383e
00000050: 7723 263e f325 353e 87b6 58bd 66f2 c43b
00000060: 09a5 e53d 4544 253d e022 d93d 07a5 383f
00000070: da07 0b3e 3c8a 603d 7c35 db3c ac46 8c3b
00000080: b690 a5be 580a b33e f44d 73bc bcbb 9f3d
00000090: 886b aabd 50e7 1c3e 9e47 99be 6c79 b3bb
000000a0: 55f8 02bf 8589 b3bd 88c5 babd ea94 c4bd
000000b0: a375 f0bd 2af2 22bf 25d6 d3bd 6879 47bc
000000c0: 4e7c e83d e85c 42be de86 76be d132 8fbd
000000d0: a99c 813e 4c10 113e 6b56 3a3e 5801 40bd
000000e0: 6c5a 86be b4bc 2d3e 03df 203e 75aa 733d
000000f0: af83 50be fa80 61be 0479 f3bd 3ffb 3a3e
00000100: 652c 53be 0396 d5bc 57de dc3d 1ba2 bcbe
00000110: 80aa 7c3e c751 d03d 2ff8 ab3d 3eb2 85bd
00000120: 10ed 4ebd a4bf 093e d2f2 a83d 98a3 63be
00000130: 7eb7 c73c 3678 fb3c 3df1 c9bd 4500 1bbe
00000140: 39ca c4bd f024 ab3d 87ea 113d 862a 673d
00000150: 96e5 babd 49e2 a1be 0024 693d 9de4 60bd
00000160: c5ec f5bd 2a73 65bc 717d 6fbd 7fdd 39bd
00000170: 5605 0cbe 0e27 fa3d cdc3 c239 5583 b93e
00000180: aa43 8cbd 9d9a f63d 3f27 70bd 7834 7e3c
00000190: 4089 63bd 9f47 0dbd 76ff 0e3e 5c22 13be
000001a0: 9aba e53d 3a84 9d3e 767c 89bd c1b9 8d3e
000001b0: 7a6a 7b3e 7470 c93e bab6 c5bd d86c 983d
000001c0: c399 983c c4a8 8c3d 9aba 633e 2009 fb3d
000001d0: b0a0 40bd 39cd f1bc 4bd3 3b3e ec88 1d3d
000001e0: 9ceb bfbb bfb7 4dbd bdbc 41be c236 f8bd
000001f0: a80e e9bc 89e2 18bd f713 0d3e 4bf1 cfbd
00000200: 90e8 933e 68a8 b33d eeed 1f3e b270 28be
00000210: 2a10 0fbd a2c2 74be 6314 523b dbb8 82bd
00000220: 32a1 953c 94a0 b33d 68f2 44be a427 b2bd
00000230: 109d 69be a675 b0bd b1ff d13c c416 db3d
00000240: fd74 72ba 6470 0bbe f353 93bb 4757 bc3d
00000250: 2623 f8bd 1e02 c9bd fbd3 febd 3945 bf3d
00000260: fdc9 41bd 8a27 2f3d fa56 1c3e 086b 04be
00000270: b05e 183d 22c7 2e3e 736d 033e 356a c53d
00000280: 2f13 323e bd08 90bd e423 81be b116 793e
00000290: 2683 ddbd 9e1a e1bc 8f4c 533e 85aa ce3c
000002a0: 7bf4 90be 595b 643e e4d0 97bd 86b7 80be
000002b0: 581d 0b3e cb80 e0bd d9bb 613e 10fd c3bd
000002c0: 6f83 8e3d ea9a 0dbe 8b2e 73bd c400 2ebe
000002d0: 569a 303e 66e3 8bbe 439b 44be 4601 74be
000002e0: e9ae 32be d46b d2bc 5541 b7be 7709 f43d
000002f0: 98ae 1f3e 4666 67bd 6372 0fbe cdd3 f73d
00000300: 4b23 a6bd adef 5abd 526c 8e3c 4398 343e
00000310: d4f7 3fbd 74c1 b93d 283d 5c3d 9cfe b2bd
00000320: 18aa 0e3e 73c7 843e 3040 10be e467 533e
00000330: ed82 11be e3c5 923e d762 593e 9011 b9bd
00000340: 1059 a7bd 3eef 333e b778 903d 7c11 68bc
00000350: 0d0e a4be 648f debe ddde dbbc 0d4b 143c
00000360: 1d52 c03d c515 9a3d c8b8 b63c 691d 213e
00000370: 4bd6 1d3e e9ef 4bbe c7d8 683d 891f 743e
00000380: c7e6 243e ce84 b0bd c870 d2bc 95f3 723e
00000390: 5d67 273e 8cdc ce3d 4b34 01be 8403 0abe
000003a0: 06de 143d 0eda 5abe e2fb a1bd 3718 a83e
000003b0: 7e25 703e 5bf6 09bd 06f6 713e 7743 61bd
000003c0: 614d 60bc a36d 513e 9b23 a7bd 0e2f 6c3e
000003d0: e6ad 1fbe 74c3 5ebe e6b6 99bd 5591 d83d
000003e0: a7ba 96bd c836 043e f394 d1bd 0704 aebd
000003f0: b528 e03d b7ad 68bd 669b b7bb 6b8e 4d3d
-0.302063 -0.043349043 0.0886075 0.15240382 0.44884318 0.0023099456 -0.0817048 0.18735778
-0.03374299 0.04988888 0.051551264 -0.124119624 0.13880828 0.3731788 0.21773387 0.30510697
-0.1254777 -0.13413583 -0.27860045 0.18032831 0.16224466 0.17690258 -0.052908447 0.0060103415
0.112131186 0.04034831 0.10602355 0.7212681 0.13577214 0.05481933 0.026758902 0.0042808857
-0.32336968 0.3496883 -0.014850128 0.07799479 -0.08321291 0.15322614 -0.29937452 -0.005477121
-0.51160175 -0.08766464 -0.09119707 -0.095987156 -0.117411874 -0.63650763 -0.10343579 -0.012174942
0.11351834 -0.18980753 -0.24074885 -0.06992114 0.25314835 0.14166373 0.18197028 -0.04687628
-0.2624086 0.16966516 0.15710072 0.059488732 -0.20362733 -0.22021857 -0.11888316 0.18259905
-0.20622404 -0.026072508 0.107845955 -0.36842427 0.24674416 0.10171848 0.08396947 -0.065281376
-0.05051905 0.13452011 0.08249439 -0.22230375 0.024379488 0.03069697 -0.09860466 -0.15136822
-0.096088834 0.08356655 0.035624053 0.056437038 -0.09125821 -0.31617954 0.056919098 -0.054905523
-0.12008051 -0.014004508 -0.05846924 -0.04537725 -0.1367391 0.1221448 0.00037148446 0.3623301
-0.068488434 0.12041209 -0.058631178 0.015515439 -0.055550814 -0.03449213 0.13964638 -0.14368576
0.11217232 0.30764943 -0.06713192 0.2768078 0.24552336 0.39343607 -0.09653993 0.07442635
0.018628007 0.06868127 0.22239152 0.122576 -0.047028244 -0.029516803 0.1834232 0.038460657
-0.0058569442 -0.050224062 -0.18919654 -0.12119819 -0.028449371 -0.037325416 0.13777147 -0.10153445
0.2888837 0.08772355 0.15618107 -0.1644924 -0.034927525 -0.23902372 0.0032055608 -0.06382915
0.01826534 0.08770862 -0.19233096 -0.08698967 -0.22813821 -0.0861619 0.025634618 0.106977016
-0.0009249 -0.13617092 -0.0044960915 0.09196334 -0.12116079 -0.09814857 -0.12442776 0.09339375
-0.04731177 0.042762317 0.15267554 -0.12931454 0.037199676 0.1706815 0.1283472 0.09639398
0.1739013 -0.07032917 -0.25222695 0.24325062 -0.1081603 -0.027478512 0.20634674 0.025227794
-0.28311524 0.22300471 -0.074128896 -0.25140017 0.13585413 -0.10962065 0.22044314 -0.09569752
0.06958663 -0.13828626 -0.05937056 -0.1699248 0.17246374 -0.2732193 -0.19199853 -0.23828611
-0.17449535 -0.025686182 -0.35792032 0.11915868 0.15593946 -0.05649402 -0.14008479 0.12100945
-0.081122 -0.05345123 0.017385636 0.17636208 -0.046867207 0.090701014 0.05376926 -0.08739969
0.13932073 0.25933418 -0.14086986 0.206451 -0.142101 0.286666 0.2122911 -0.09036553
-0.08171284 0.17571732 0.070542745 -0.014164325 -0.3204197 -0.43468773 -0.026839668 0.009051097
0.09390662 0.075236835 0.022304907 0.15733875 0.15413778 -0.19915737 0.05684736 0.23840155
0.1610366 -0.086190805 -0.025688544 0.23725732 0.16348024 0.1010066 -0.12617604 -0.13477904
0.03634455 -0.21372244 -0.07909371 0.32830974 0.23451802 -0.03368221 0.23629007 -0.05499598
-0.013690324 0.2045198 -0.08161088 0.23064825 -0.1559368 -0.21754247 -0.07505588 0.10574595
-0.0735982 0.12911522 -0.10233488 -0.08496862 0.10945264 -0.056806292 -0.0056032417 0.05018465

network.8.bias f4 [64]
00000000: bb34 8e3d 2b66 e43d 4706 8dbb 1caf 943e
00000010: a8b3 58be fd64 053e d2be 1b3e a2dc 5c3e
00000020: 5777 60bc 6dd7 963d b257 6a3e 860b 5b3d
00000030: 9789 51bd f89e 8e3e 7c7e 3cbc 3ca7 683d
00000040: 12ae 873c 3954 f83d ffee 4a3e 03df b23d
00000050: 64c8 2a3e 986a 6bbd 83a1 033c 0507 2d3b
00000060: 602d 0dbe 45a4 043e 8e32 023e 97e3 7dbd
00000070: 2a25 853e 5108 823d 531c d6bc 4e96 e73c
00000080: 52b4 4ebd 5999 9dbb 9f82 be3c e799 153d
00000090: b73f babd 8499 e2bd 845d 183e 605c 11be
000000a0: 103a 803e c143 873e 0245 fabd f44e 1f3d
000000b0: 26ef 82be a4d1 f33d e80d 5d3d ae78 6c3d
000000c0: fdb3 d0bd 9def 37bd feb2 f23d 10e5 2c3d
000000d0: 52e7 d93d 1514 13be 47ba 253d 358a 8ebd
000000e0: ca29 8f3d 59fa 31be e8c9 4a3e 21ff 933d
000000f0: 95e8 fdbd a7a1 c5bb 613b 19bd 7489 7ebe
0.06943651 0.111522995 -0.004303727 0.29039848 -0.21162283 0.13026805 0.15209511 0.2156854
-0.013700328 0.07365308 0.22885016 0.053477786 -0.051156607 0.2785566 -0.011504766 0.056800112
0.016562495 0.12125439 0.19817732 0.08733942 0.16678005 -0.057474703 0.008034113 0.002640189
-0.1378684 0.12953289 0.12714598 -0.061984625 0.26004916 0.063492425 -0.026136553 0.028269913
-0.050464936 -0.00480954 0.023255644 0.036523726 -0.09094184 -0.11064437 0.14879423 -0.14195395
0.25044298 0.2641888 -0.122201934 0.038893655 -0.2557308 0.1190522 0.05396834 0.057732277
-0.1019058 -0.044906247 0.11850546 0.04221064 0.10639824 -0.1436313 0.04046085 -0.06959955
0.069903925 -0.17380656 0.19803584 0.07226396 -0.12397877 -0.0060312334 -0.037410144 -0.24857122

network.10.weight f4 [64, 64]
00000000: 02f0 39be 6b26 653e e4b7 c93d 347b 1abe
00000010: d662 b9bc d6dd 46be 54be 293b e7b2 65be
00000020: c83e d43d c387 b03e 8fea 4cbe 4bd7 d6be
00000030: 6bcd 063e e076 93be ae83 563e 6f7a e9bc
00000040: 732e 803b 554f 8fbe b4e2 4dbd e45b 653e
00000050: d48c c9bd c21b e9bd 6270 21bd 56b2 1e3e
00000060: c609 27bd 253e 32bd 63b4 483e a60c 233d
00000070: d357 31bd 0e08 72bd ebf9 283c ca81 9f3e
00000080: 043c e93d 3cb6 37be b3bd 2dbd 633e c2bd
00000090: 6d89 f73d 591b 3a3e 2d7c 2c3e 3510 bbbc
000000a0: e495 61be 94b5 a8be 2da1 76bc 4e80 913d
000000b0: e2f3 083f 27e8 febd cfe7 973b 9710 77be
000000c0: 266d bf3d adbb 6dbe e95f 0bbe 7b60 be3d
000000d0: d608 74bc a7e1 8e3d b2cd 413d 967f cb3d
000000e0: 7304 813d 0576 803d 0f22 273e daf0 343e
000000f0: b724 0a3e 6e88 a2bd 87cf 93be 6d29 3e3c
00000100: 7a01 003e 31c8 e63b afd3 febc a890 de3d
00000110: d237 6c3d b502 a73e 011e 553d b573 5f3d
00000120: 8afc a5bc 9150 94bd 5379 be3d cb77 4fbe
00000130: 4946 79be 2350 e1bd eef2 9e3c 5621 eabd
00000140: dd02 07be fc97 343e 42b9 c73e e0ae 9dbd
00000150: c4d6 95bd 51b3 f03c 0785 b53d 5e15 c63d
00000160: e984 4cbc 3776 a6bd 5d4d 7ebd adbc b93d
00000170: e6b8 a0be 75ef 133d 8b80 63be f778 30bc
00000180: 53b9 d13d 9e8e 9e3d e2d5 26be fa9e 853b
00000190: 3565 23bd 67f1 a3be 28d1 2dbe bd32 2d3e
000001a0: 2deb 55be 54b7 17be 070c 1cbe d48a e73d
000001b0: 472e 183e b552 773e cbe5 273d 5396 4fbe
000001c0: 87ef 563d 915a 8c3e d5b1 e0bd a459 39be
000001d0: 35b8 493d 3577 443d b774 f8bd 19e0 21bd
000001e0: a094 693d 7726 ab3e 4331 973c 6eee 033b
000001f0: ef55 4dbd 4056 183d acf1 b8bc 2888 df3d
00000200: 6d43 a63c 9b3f b33c 66b3 98bd d882 f03d
00000210: 8603 953d cbf2 25bb dd8b 343c b77e 8fbd
00000220: 82c8 f43a f768 5f3c e579 cd3b 1ceb 5ebc
00000230: 9075 e43d 97e9 24bc 9e1c 30be 7ca3 0e3b
00000240: bff9 363d 6ea0 8e3c 5a83 1c3d 63f4 053d
00000250: 59bd 8f3c 39f3 be3c 65ec d7bd 19c8 8b3b
00000260: c978 b83d 2308 e83c 3450 08bd 3c76 883a
00000270: 2ed9 86ba 0d05 1abe 51f0 c13d 2c6f 563d
00000280: 6e45 103d 43d2 76bc 79c3 95bb 1cbe 633c
00000290: e6ce 2bbd 4bd5 4bbd 357e 8abc f652 cdbb
000002a0: 46cb 0f3d 0ad1 8bbd dc85 b2bc ecd6 8a3d
000002b0: 141f 94bc aae7 fe3c bb69 e33d 37f6 98bc
000002c0: 281d 1ebd c496 fabc c3db 983c 36e3 babc
000002d0: 8fc4 093d 56c4 a63c 3a28 d53c 1345 4d3d
000002e0: 2321 a23d c169 093d 0655 f83c 42e8 f0bb
000002f0: aad8 aa3c 6bc0 f33c 2155 96bc 7ef6 53bd
00000300: 5e25 0b3e 383f 483e 53e4 1abe 2151 4cbe
00000310: e7e1 c6bd ecfd cdbe 940b 843d 9fe1 7ebd
00000320: 4850 5c3e 6fa5 ee3c b660 b33d 4b30 083e
00000330: 329c a73d b59e c5be 640b edbc f226 36bd
00000340: d1f6 dabd 1e07 80be eaad 633d 1e70 b7bc
00000350: a959 453e 1903 55be 72c6 e4bd f58c a2bd
00000360: a4f7 6d3e 7aaf ea3d 643a 463e c12b edbb
00000370: a627 a4be 0009 54bd 7a45 a83d bf33 583e
00000380: 5e61 61be 6c54 b43d 3bd1 05bf 17fa bcbd
00000390: ba7c 04be 24ca 82bd d9fe 0b3f 74c5 133e
000003a0: 8734 32be 32ca 4b3c e780 16bd 360f 88bc
000003b0: 86b5 1c3b 3bb8 0d3c 17f4 053e 7f18 5abd
000003c0: e2e9 ab3c f779 aabe 7fd2 3fbe 8397 58bd
000003d0: d69b 223e 463f b03d 1f9e 6abe 08bc aebd
000003e0: 61d6 87be 529f bc3d 5a67 a0bd c2e6 1dbe
000003f0: 5f9e 6e3e f830 0c3e 965f 7fbc 2e48 873c
-0.18157962 0.22377937 0.098495275 -0.15086061 -0.022630136 -0.19420561 0.0025900798 -0.22431527
0.10363537 0.34478578 -0.20011352 -0.4196113 0.13164298 -0.28801632 0.2094867 -0.028500764
0.003911787 -0.27990213 -0.05026503 0.22398335 -0.09841314 -0.113822475 -0.039413817 0.15497717
-0.040780805 -0.043516297 0.19600062 0.039806984 -0.043296646 -0.059089713 0.010313491 0.3115371
0.113884 -0.1794061 -0.04241724 -0.094845556 0.12086759 0.18174495 0.16844244 -0.022834877
-0.22029835 -0.32951033 -0.015053076 0.0710455 0.53497136 -0.12446623 0.004635788 -0.24127422
0.0934699 -0.23216124 -0.13610806 0.09295746 -0.014894685 0.069766335 0.047315307 0.099364445
0.06299677 0.062725104 0.16321586 0.17670003 0.13490568 -0.07936178 -0.28869268 0.011606556
0.12500563 0.0070429076 -0.031106798 0.10867435 0.057670422 0.32619253 0.052030567 0.054553706
-0.020262022 -0.07241929 0.093004845 -0.20260541 -0.24343218 -0.11001613 0.019402947 -0.114321396
-0.13184686 0.17636102 0.39008528 -0.076993704 -0.07316354 0.02938238 0.088632636 0.09672044
-0.01248286 -0.081280164 -0.062085498 0.0906919 -0.31391066 0.036117036 -0.22217004 -0.010771028
0.10240426 0.07742046 -0.16292527 0.0040777894 -0.03989144 -0.32020113 -0.16974318 0.16913886
-0.20890494 -0.14816028 -0.15238963 0.11305776 0.14861403 0.24152644 0.040990632 -0.20272188
0.052474525 0.27412847 -0.10971419 -0.18100601 0.04924794 0.047965247 -0.121316366 -0.039520357
0.057026505 0.33427784 0.018456107 0.002013113 -0.05013078 0.03719163 -0.022576176 0.109146416
0.020295823 0.021880915 -0.074560925 0.117437065 0.07276063 -0.0025321718 0.011019674 -0.07006591
0.0018675479 0.013635865 0.0062706345 -0.013605859 0.11155236 -0.010065458 -0.17198417 0.0021764925
0.04467177 0.017410483 0.038211204 0.03270377 0.017546343 0.023309337 -0.105431356 0.004265797
0.09007413 0.028324192 -0.033279613 0.0010411213 -0.0010288113 -0.15040989 0.09469665 0.052352116
0.035222463 -0.015064779 -0.0045704213 0.013900306 -0.04194536 -0.04976396 -0.016905883 -0.006265993
0.035105966 -0.068269804 -0.021792345 0.06779274 -0.018081225 0.031116325 0.11104151 -0.018672092
-0.038602024 -0.030589469 0.018659478 -0.02281342 0.03363472 0.020357292 0.026020158 0.050114702
0.079164766 0.03354812 0.03031398 -0.007351906 0.020855267 0.029754838 -0.01835114 -0.051748745
0.13588473 0.19555366 -0.15126161 -0.19952823 -0.09711056 -0.4023279 0.06447521 -0.062226888
0.21515 0.02913162 0.087586805 0.13299672 0.08184089 -0.38597646 -0.028936096 -0.044470735
-0.10691608 -0.2500543 0.05558578 -0.022392329 0.19272484 -0.20801963 -0.11170663 -0.07937042
0.23238999 0.11459251 0.19358212 -0.007237882 -0.320615 -0.051766396 0.082163766 0.2111349
-0.22009799 0.08805165 -0.52272385 -0.09227388 -0.12938204 -0.063862115 0.5468574 0.14430791
-0.1740285 0.012438344 -0.036744025 -0.016608816 0.0023911907 0.008649881 0.13081394 -0.053246018
0.020985547 -0.33296177 -0.18732642 -0.052878868 0.15879759 0.086058185 -0.22911881 -0.08531958
-0.26530746 0.092100754 -0.07832213 -0.15420058 0.23302601 0.13690555 -0.015586754 0.01651391

network.10.bias f4 [64]
00000000: a80e 90be b4b8 a7be bf5b 1e3e d81f 603d
00000010: 3795 b03e b840 02be 1466 513c 19e8 963e
00000020: 351e e3bd f682 fd39 93d7 b83d 5984 653d
00000030: 076a af3d aebb a8be 9e53 933d 1c54 7ebe
00000040: 4bc4 9a3c 29f5 11be 370e 8a3d 9b39 c8ba
00000050: d825 d5bc 2533 7dbe 360b a5be 54c5 963d
00000060: 7883 a43d e9e3 28be 5c8a 303d b00c ebbd
00000070: 2151 8f3d daa6 803d 3410 61bd c7c1 103d
00000080: 3b66 2b3e 6459 133d efde 1bbe f2a2 3ebc
00000090: e8ac 8dbd 9744 dfbd c270 07bc 7d0f 8c3d
000000a0: b220 d23d d8a2 a73e f25f 9dbe 6d39 e0bd
000000b0: 901f bebd 5c01 073d 0cbc f8bc 585c 773e
000000c0: 925c b7bc 1902 403d 10ae 323e 43f6 9abd
000000d0: 6385 a1be 59ac 893d 741d ffbd d9e9 463c
000000e0: 803d b9bc 23cf 88bd cf04 e3bc 1873 08bd
000000f0: 308a 5bbd 1db7 573d 657e c3bd 9b73 d6be
-0.28136182 -0.32758105 0.15464686 0.05471787 0.34488842 -0.1272 0.012780685 0.2947395
-0.11089746 0.00048353494 0.090254925 0.05603442 0.08565145 -0.32955688 0.07193683 -0.24836773
0.018892428 -0.14253677 0.067409925 -0.0015275957 -0.026019022 -0.24726541 -0.32235116 0.07361856
0.08032888 -0.16493191 0.0431007 -0.11477029 0.06997896 0.062818244 -0.054947093 0.03534105
0.16738217 0.03597392 -0.15221761 -0.011635529 -0.06917745 -0.10901754 -0.00826663 0.06838892
0.102601424 0.32741427 -0.30737263 -0.10948453 -0.09283364 0.03296028 -0.030363105 0.2415632
-0.022383008 0.046877 0.17449212 -0.07566502 -0.31547078 0.06722326 -0.124567896 0.012140715
-0.022612333 -0.06680133 -0.027712254 -0.033312887 -0.053598583 0.052664865 -0.09545592 -0.41885075

network.12.weight f4 [5, 64]
00000000: 9b7f dcbb 9578 f43d ee8b c73c 1984 553d
00000010: ae48 b63b d9e2 2bbd d551 033c fd7a 74bd
00000020: ac0c 74bb e967 613d f170 1e3d 5b85 07bd
00000030: 2993 243c 644d cf3b 8af9 5cbc 3b45 c83c
00000040: 5eb0 e93c cf41 f23b 9f4f f83b 30e5 36bd
00000050: 1fe0 03bd b0ca 213d 6029 fe3d 9d41 2b3c
00000060: 580a cbbc da19 1bbd a9cc 18bd d4be 95be
00000070: b85e 11bd f67d 153c 36b1 91bc 1149 59bd
00000080: f3f5 f3bb a614 993d 52db 37be 578b 3ebd
00000090: 1638 fdbc 9a4c 3d3e 2152 133c 220e 653b
000000a0: c8a2 2ebd 7dde 49be b7c1 9ebc 066b 513b
000000b0: da66 72bc 822e 5dbc 9258 813c 1b03 9d3c
000000c0: d61b 27bd 3b02 073d 96a9 0e3e e509 05be
000000d0: 42a3 993b 63fc 0e3c 50fd 85bd 5383 283d
000000e0: f25d 59bd b1f0 a4bd 04b7 0bbd f8dc 923a
000000f0: c3be febb b347 063d c2aa 49bc a988 babc
00000100: f20f c5bb 0db3 6abb 872e 7c3b d7de 6b3c
00000110: f19e a93b 1ed3 a6bd 142e e8bc 3ff0 61bd
00000120: 2edc 1f3c 1394 f73c 0dc9 c83c 596e c9bb
00000130: d764 70bb c08d b5bb 6704 c53b 3096 13bd
00000140: c839 3a3c 7287 103b da6c dbbc 5c83 343d
00000150: 5b00 b8bc e8e0 98bc 7335 0fbe e6fe f63c
00000160: deaa 39bc e30f 78bc 6508 ab3b cef2 853d
00000170: 7d9e 02be 1686 cfba 00e2 263d fcc3 1f3e
00000180: aa88 3cbc 76a6 063d 0f0e 04be da83 9a3b
00000190: f5a9 323c 123f 453b 521e 7b3c 39bd 72bd
000001a0: 9f4c 14bc ffd1 6fbb d555 683c e059 603d
000001b0: 8317 233d ab50 333d 8bdf b7bc cf8c 98bc
000001c0: 0497 a6bb 4e7e c6bc 7869 cc3c c6c6 133d
000001d0: f362 813c afde b53c d708 fd3b 1245 bf3a
000001e0: d3d7 e2bc 5af1 ec3d f8ec 11bd 5b18 80bc
000001f0: 323b 423d a8d0 8d3c f258 5bbd e5a1 40bb
00000200: ab91 53bf 04e3 af3d 3a19 9e3d 59d4 923e
00000210: 65c0 643f 5b4d f9bd fe17 b5bc b22c 30be
00000220: 18e4 ecbc 5c75 c5bc 471c 2bbd 68b0 293f
00000230: a29e 7e3d 5bbc 22bb 2dce 7e3e ea11 e5bd
00000240: bb71 16bc be81 85bd c7fe 67bd 464b 903c
00000250: 6faf b3bd 36b6 75bd 71ee 8abe 8ada 50bc
00000260: 805a 0c3f e685 21be e582 033e 84f3 59be
00000270: 194f f53d ecae 183d bd43 0fba a9c0 dabb
00000280: ea8f ec3e 765c 8abe d1d3 7bbe 3bf8 023d
00000290: 1319 88bd ba71 ebbd cb53 d03d a312 7b3d
000002a0: 0403 9e3d 6179 583d d5c9 4cbe 43c6 56bd
000002b0: 6465 6ebd 10a8 843d 452e 52bb 81cb 3c3e
000002c0: 2da0 31bd f96f 16bd 19e8 e63c 0348 2cbd
000002d0: 4255 97bf c6a1 3b3c 836e 923d ee59 1ebf
000002e0: 1655 e53c acf4 94bc 6a10 4c3d f372 ba3c
000002f0: 2ddd 36bd dcd4 d0bc ab25 06bd bf84 afbf
00000300: a262 a23e 25bc 6abe 69ad c5bd a830 063f
00000310: 8798 303d 7120 943d ca81 f3ba 0931 ed3e
00000320: d884 84bd befd 143d ec87 123c ffee a93e
00000330: 0de4 953a 0a36 2fbf 7c07 81bd 65e2 3d3f
00000340: 8339 713d 1812 8bba f06e c03a 43dc 25bd
00000350: e548 efbb 4c8f 183f 298d a9be e898 fe3c
00000360: dbbc e1be 3aab 9abb a963 57bd 5850 8f3e
00000370: ea64 6cbc 686f c13d a4d7 b8bc 4ee8 85be
00000380: e894 ac3e 1846 d73d e931 f53d 5b81 90bc
00000390: 8554 393d 78c1 2f3e f6d3 a4bd 9af9 debd
000003a0: a7c7 b4bd 8718 d03e 5348 203f 7625 e83c
000003b0: e1ea d5bb 8ae5 21bd 296b 89bc 6e29 e73e
000003c0: 3af0 053d 6957 a13d 3e9a 073e 383e 8e3e
000003d0: f127 14bd 0a42 b4bd e682 70bd d7a1 013f
000003e0: 23b5 ddbc 481e e73d 7a99 71bd e785 163c
000003f0: 403f fc3c 8f9c e73c 7149 923c 8afc 2e3e
-0.006729079 0.11937062 0.024358716 0.05212793 0.0055628633 -0.041964386 0.008015116 -0.059687603
-0.0037238998 0.055030737 0.038681928 -0.033086162 0.010044851 0.0063263644 -0.013487229 0.024447074
0.028526481 0.007393099 0.007577851 -0.044652164 -0.03219616 0.03949994 0.124102354 0.010452655
-0.024785206 -0.03786645 -0.037304554 -0.29247153 -0.03549072 0.00912427 -0.017784696 -0.053048197
-0.007445091 0.074746415 -0.17954758 -0.046519604 -0.030910533 0.18486252 0.008991749 0.003495105
-0.04263571 -0.19713779 -0.01937948 0.003195466 -0.01479503 -0.013499858 0.015789304 0.01916652
-0.04079803 0.03296111 0.1393188 -0.12992056 0.0046886513 0.008727166 -0.06542456 0.041140866
-0.05306811 -0.08053721 -0.034110084 0.001120477 -0.0077742054 0.03278322 -0.012308778 -0.022770243
-0.0060138637 -0.003581229 0.003847988 0.014396391 0.005176418 -0.08145736 -0.028342284 -0.055160757
0.009757085 0.030221974 0.024509931 -0.0061471877 -0.00366812 -0.0055405796 0.0060124877 -0.0360319
0.011366315 0.0022053388 -0.026785303 0.044070587 -0.022461107 -0.018661931 -0.13985233 0.030150842
-0.011332242 -0.015140506 0.0052195066 0.06540452 -0.12755771 -0.0015832807 0.040742874 0.15602106
-0.011507193 0.032873593 -0.12895988 0.004715425 0.010904779 0.0030097407 0.015327053 -0.059262488
-0.009051471 -0.0036593673 0.01418062 0.05477321 0.039817344 0.043778103 -0.02244546 -0.01862183
-0.0050839204 -0.024230149 0.024952635 0.036078237 0.015794253 0.02220091 0.007722001 0.0014592728
-0.027690804 0.11569472 -0.03562638 -0.015636614 0.047419734 0.01731141 -0.05355162 -0.0029393372
-0.82644147 0.08588222 0.07719655 0.28677633 0.8935607 -0.121729575 -0.022106167 -0.1720455
-0.028917357 -0.024103813 -0.041775014 0.662848 0.062163003 -0.0024831507 0.24883337 -0.111850575
-0.009182389 -0.06518887 -0.05663946 0.017614018 -0.08773696 -0.059988223 -0.2713504 -0.012747416
0.5482559 -0.15773734 0.12842901 -0.212843 0.11977977 0.037276193 -0.0005465111 -0.006675799
0.46203548 -0.27023667 -0.2459252 0.031975012 -0.066454075 -0.11496301 0.10172232 0.06129707
0.07715419 0.05285013 -0.19998868 -0.05243517 -0.058202162 0.06477368 -0.0032071036 0.18437006
-0.043365646 -0.03672788 0.028186845 -0.042060863 -1.1822894 0.011452144 0.07149985 -0.6185597
0.027994674 -0.018183075 0.04982034 0.02275989 -0.044644523 -0.025492124 -0.032750767 -1.3712386
0.31715876 -0.22923334 -0.09652216 0.52417994 0.04311421 0.0723275 -0.0018578109 0.46326473
-0.064706504 0.0363748 0.008943539 0.33190152 0.0011435762 -0.6844183 -0.06300256 0.74173576
0.058892738 -0.0010610251 0.00146815 -0.04049326 -0.007302391 0.59593654 -0.3311551 0.03107877
-0.44089398 -0.004720119 -0.052585278 0.27990985 -0.014428357 0.09445077 -0.022563763 -0.26153797
0.33707356 0.10511416 0.1197241 -0.017639806 0.04524662 0.17163646 -0.08048241 -0.108874515
-0.08827143 0.40643713 0.6261036 0.028338175 -0.006528244 -0.039525546 -0.01677473 0.45148796
0.0326998 0.07878 0.13242432 0.27781844 -0.036170904 -0.088016585 -0.058718584 0.50637573
-0.027063912 0.112850726 -0.058984257 0.009187198 0.030791879 0.028272895 0.017857285 0.17088524

network.12.bias f4 [5]
00000000: 31a5 223e 736f 25be b6e4 213f 2f40 bb3e
00000010: 5a0c ee3d
0.15883328 -0.16155796 0.6323961 0.36572406 0.116234496
