Finished_models/plate_hole_single.pth (torch, 90610 bytes, 14 tensors)

network.0.weight f4 [64, 2]
000000 c0 7e 32 3c e3 d2 42 be c8 95 92 3e a0 49 de 3d
       0.010894477 -0.1902576 0.286299 0.108538866
000010 c4 14 25 3e 20 0b 2f 3c 20 5a b8 3d 40 46 a5 3b
       0.16121203 0.010683805 0.09001565 0.005043775
000020 79 65 7f be d4 9d de 3d 7c 4b 45 3e e8 fb 64 3d
       -0.24941052 0.10869947 0.19267076 0.0559043
000030 2c 91 96 bd d0 86 c8 bd d4 22 b8 3d 90 c9 13 3d
       -0.07351908 -0.097913384 0.08991018 0.036080897
000040 1e 86 ef bd 62 4b 72 be 08 da 3d bd f0 37 bb 3c
       -0.11695503 -0.23661569 -0.04635051 0.022853822
000050 3c 20 d7 bd 00 9e a7 3b 2e f5 6b be d0 d7 89 be
       -0.10504195 0.0051152706 -0.23042747 -0.26922464
000060 6a 7c 16 3e 20 01 1c 3c 68 13 88 be 30 67 74 be
       0.14695898 0.009521753 -0.26577306 -0.23867488
000070 50 30 c2 bc af 79 75 be 88 c0 32 bd e0 fd 5d 3d
       -0.023704678 -0.239722 -0.043640643 0.054197192
000080 e1 b2 33 be 64 53 6a be 36 88 87 3e c0 81 21 bc
       -0.17548706 -0.22883373 0.26471108 -0.009857595
000090 94 6b 11 be 12 91 ad bd 44 9b 4f 3e c0 e8 a3 3c
       -0.14201194 -0.084749356 0.20274073 0.020008445
0000a0 ba 58 df bd 80 c7 80 bc b4 ff 76 3e 90 3f d4 3c
       -0.10905595 -0.015720129 0.2412098 0.025909215
0000b0 40 15 c8 bb 3e 6a 8e 3e e0 23 87 3e db 5f 07 be
       -0.006106049 0.2781543 0.26394558 -0.1322016
0000c0 a4 1c 2d 3e d2 76 63 be 60 91 32 bc c0 55 63 be
       0.16905457 -0.22213295 -0.010898918 -0.2220068
0000d0 dc 42 82 3e 64 d1 65 be f4 df 2e be 60 fe 51 3e
       0.25441635 -0.22443157 -0.17077619 0.20507193
0000e0 4a bb 11 3e 58 0a f8 3d ca 18 34 3e 60 1f ce 3c
       0.14231601 0.12111348 0.17587581 0.025161445
0000f0 95 27 00 be 59 89 78 be 7d ac 80 be ea 06 2b 3e
       -0.125151 -0.24271144 -0.25131598 0.16701856
000100 00 0f 95 3e 64 c9 8e 3d ee a0 2f 3e 22 e7 29 3e
       0.29113007 0.06972006 0.17151234 0.16592076
000110 68 01 35 bd 52 67 c7 bd 48 45 e6 3d 06 bd 94 be
       -0.044190794 -0.09736504 0.11243683 -0.29050463
000120 74 c5 b3 3d 87 8f 00 be e8 da 0c 3d 60 ca bd 3c
       0.087778956 -0.12554751 0.034388453 0.023167789
000130 7a 19 84 be 50 4d fe 3d f6 7c 53 be 5c 51 93 3e
       -0.25800687 0.1241709 -0.20653138 0.2877301
000140 72 01 97 be 14 da 7e 3e 74 6b ad bd 60 c4 0f 3d
       -0.2949329 0.24887878 -0.08467761 0.035099387
000150 ce fc 94 3e 46 14 9a 3e 26 ce 6d be 8c 37 06 be
       0.29099125 0.30093592 -0.2322317 -0.13107127
000160 d4 53 43 3e cc 17 c6 bd 42 67 20 3e 60 bb 61 3d
       0.19074947 -0.09672508 0.1566439 0.055110335
000170 ac 80 77 3e 20 26 83 be b8 a5 82 3e 1a 67 35 3e
       0.24170178 -0.25615025 0.25517058 0.17715111
000180 88 de 3a 3d d0 88 57 be 48 27 0e 3e 29 22 03 be
       0.04562238 -0.21048284 0.13882172 -0.12806
000190 d8 b6 fc 3d c0 eb 25 be 14 28 b3 bd 1a ff 1f 3e
       0.12339562 -0.16203213 -0.08747879 0.15624657
0001a0 df 89 86 be c2 69 54 be 20 d6 c7 3c 90 6e d9 3c
       -0.26277062 -0.20743468 0.024394095 0.026541978
0001b0 3c 08 a3 bd 88 a0 58 be ba b3 a4 bd 98 d4 de 3d
       -0.07960555 -0.21154988 -0.080420926 0.10880393
0001c0 f0 aa f2 bc 0c f2 a3 3d d0 66 cf bc 90 0e 1b 3d
       -0.029622525 0.08005151 -0.02531758 0.037855685
0001d0 78 ff 27 bd 0c cb 9f 3d 9e 6d 93 be 6a 5b 60 be
       -0.04101512 0.078024 -0.2879457 -0.21909872
0001e0 8e 9c 40 3e 98 84 f8 bd 04 15 32 be 00 d4 d9 3c
       0.18809721 -0.12134665 -0.1739083 0.026590347
0001f0 3c fd 72 3e 7b 47 8a be 50 91 a5 3d 4a c9 79 be
       0.23729414 -0.2700766 0.08084357 -0.24393192

network.0.bias f4 [64]
000000 00 00 00 00 00 00 00 00 00 00 00 00 00 00 00 00
       0.0 0.0 0.0 0.0
000010 00 00 00 00 00 00 00 00 00 00 00 00 00 00 00 00
       0.0 0.0 0.0 0.0
000020 00 00 00 00 00 00 00 00 00 00 00 00 00 00 00 00
       0.0 0.0 0.0 0.0
000030 00 00 00 00 00 00 00 00 00 00 00 00 00 00 00 00
       0.0 0.0 0.0 0.0
000040 00 00 00 00 00 00 00 00 00 00 00 00 00 00 00 00
       0.0 0.0 0.0 0.0
000050 00 00 00 00 00 00 00 00 00 00 00 00 00 00 00 00
       0.0 0.0 0.0 0.0
000060 00 00 00 00 00 00 00 00 00 00 00 00 00 00 00 00
       0.0 0.0 0.0 0.0
000070 00 00 00 00 00 00 00 00 00 00 00 00 00 00 00 00
       0.0 0.0 0.0 0.0
000080 00 00 00 00 00 00 00 00 00 00 00 00 00 00 00 00
       0.0 0.0 0.0 0.0
000090 00 00 00 00 00 00 00 00 00 00 00 00 00 00 00 00
       0.0 0.0 0.0 0.0
0000a0 00 00 00 00 00 00 00 00 00 00 00 00 00 00 00 00
       0.0 0.0 0.0 0.0
0000b0 00 00 00 00 00 00 00 00 00 00 00 00 00 00 00 00
       0.0 0.0 0.0 0.0
0000c0 00 00 00 00 00 00 00 00 00 00 00 00 00 00 00 00
       0.0 0.0 0.0 0.0
0000d0 00 00 00 00 00 00 00 00 00 00 00 00 00 00 00 00
       0.0 0.0 0.0 0.0
0000e0 00 00 00 00 00 00 00 00 00 00 00 00 00 00 00 00
       0.0 0.0 0.0 0.0
0000f0 00 00 00 00 00 00 00 00 00 00 00 00 00 00 00 00
       0.0 0.0 0.0 0.0

network.2.weight f4 [64, 64]
000000 78 34 26 be 69 92 08 3e 75 3c 00 3e 8c a7 73 3d
       -0.16230953 0.13337101 0.12523063 0.059485957
000010 0c 7c 77 3d 94 bc 11 be 50 6f 06 3c b0 09 f0 bc
       0.060421035 -0.14232093 0.00820525 -0.029301494
000020 7b bb 14 3e b0 ff 88 3c 71 0c 46 be 06 2c 1b be
       0.14524643 0.016723484 -0.19340684 -0.15153512
000030 c4 63 34 3d c4 88 40 3d 40 ac a8 3c d8 ba 06 bd
       0.044040456 0.04700543 0.020589948 -0.03289303
000040 2a 31 4d be 48 bf 06 3d 97 8e ce bd b0 0c 45 bd
       -0.20038286 0.032897264 -0.100857906 -0.048107803
000050 4e ab dd 3d ed f5 0f 3e ff d3 5a 3e 70 d7 7d bd
       0.108236894 0.14058657 0.21369933 -0.061973035
000060 c0 b2 a3 bd bc e3 50 bd ae cb f2 3d d6 43 f3 3d
       -0.07993078 -0.050998434 0.11855255 0.11878173
000070 0b f4 45 3e e0 44 89 bc 6e d0 8c 3d 4a da b0 3d
       0.19331376 -0.016756475 0.06875692 0.08635385
000080 d9 ca 3e 3e d0 1d a1 bc a5 5c 2f 3e f9 05 35 be
       0.18632068 -0.019667536 0.17125185 -0.1767806
000090 50 3b 22 bc 1e 61 a4 3d b2 14 30 be 00 31 19 3b
       -0.0099018365 0.08026336 -0.17195395 0.0023375154
0000a0 a0 a8 97 3b 4f 63 58 3e 0c c9 3f 3d 70 1f 58 3c
       0.004628256 0.21131633 0.046822593 0.013191089
0000b0 b8 1f 16 bd dd d8 34 3e 84 ff 4c bd 0e 29 39 be
       -0.036651343 0.17660852 -0.050048366 -0.18082067
0000c0 d8 88 cd bc 2e af fe bd c8 ff 29 bd aa 1d db 3d
       -0.025089666 -0.124357566 -0.041503698 0.10699017
0000d0 d8 1c 8e bd 72 e0 d1 bd 51 a3 04 3e e0 84 85 3c
       -0.06939095 -0.10247888 0.12952925 0.016298711
0000e0 c4 2d 70 3d 80 1e c3 3a c2 ec 27 be 7a 17 ac 3d
       0.058637396 0.0014886409 -0.1639891 0.08402915
0000f0 0e 4a f1 3d dd f5 39 be 20 ec 12 be 13 79 00 3e
       0.11781703 -0.18160196 -0.14347887 0.12546186
000100 eb 7f 1c 3e d2 b6 e1 3d 80 5f 39 3c 30 13 2f bc
       0.15283172 0.11021198 0.011314273 -0.010685727
000110 6a d0 fe bd 80 21 8b bd ce 5a f5 bd 00 81 db ba
       -0.124420956 -0.06793499 -0.1198021 -0.0016746819
000120 10 0f b1 3c e3 e3 27 be c0 98 cd 3b 24 76 1b 3d
       0.021613628 -0.16395526 0.0062743127 0.037954465
000130 29 7a 1c be b0 0f 82 bc d9 e8 25 3e 00 d1 52 3a
       -0.15280975 -0.015876621 0.16202106 0.00080420077
000140 20 22 95 bc 74 c6 0b be eb cb 25 3e 8c c9 33 bd
       -0.018204749 -0.13649923 0.1619107 -0.043893382
000150 c4 31 31 bd 22 75 a3 3d f8 2a 9b bc 60 e5 b5 3b
       -0.04326035 0.07981326 -0.018941388 0.0055510253
000160 a5 83 10 be 55 7a 38 be e1 f0 28 3e 78 6f c0 3c
       -0.14112718 -0.18015416 0.16498138 0.023490652
000170 70 48 2b bd 99 ac 2e be d0 d5 1a be 70 b8 bb bd
       -0.04181713 -0.17058028 -0.15120625 -0.09166038
000180 83 42 1c 3e 34 4d 1f 3d 6a 6d ba 3d b6 ad e1 3d
       0.15259747 0.038891986 0.091029 0.11019461
000190 c4 60 f1 bd 1e 9a 80 bd c0 2f 9f bb f0 85 7a bc
       -0.11786035 -0.062793955 -0.004857987 -0.015290722
0001a0 44 88 33 be ee 1a 94 bd bb fc 0c be b0 0f c3 3c
       -0.1753245 -0.07231699 -0.13768284 0.023811191
0001b0 48 7c 1b be 3f 1d 2e 3e d0 8d 4a 3c 81 af 2c 3e
       -0.15184128 0.17003344 0.012362912 0.16863824
0001c0 df 71 40 3e 09 b4 3b be 7d 03 54 be 76 33 d9 3d
       0.18793438 -0.18330397 -0.20704456 0.106055185
0001d0 56 69 46 be a5 3a 13 3e 06 3f 52 be dd 25 2f be
       -0.1937612 0.1437784 -0.20531854 -0.17104287
0001e0 b8 19 0f bd 97 ad c6 bd d4 fe 1e 3d 2e d3 90 3d
       -0.034936637 -0.097010784 0.03881724 0.07071529
0001f0 02 3e f3 3d d0 80 34 bc d0 96 91 bd f6 2c 9a bd
       0.118770614 -0.011017039 -0.07108843 -0.07528107
000200 cf 14 0e be a8 76 06 be dd 72 c6 bd 32 75 8d 3d
       -0.13875125 -0.13131201 -0.09689877 0.06907119
000210 0e 3f 8c 3d 1f a3 58 3e 24 eb 28 3d 76 54 a5 3d
       0.06847964 0.21155976 0.041239873 0.0807275
000220 b0 c8 ee bd 27 2e 3d 3e a2 cd 5b be 4e d7 89 3d
       -0.11659372 0.18474637 -0.21465161 0.06730519
000230 8a 6c c5 3d ce 0b f7 bd 3c 51 b8 bd ed da d1 bd
       0.09639843 -0.120627984 -0.08999869 -0.10246835
000240 aa 52 89 bd 7a ae b0 bd d0 61 59 bc 73 68 58 3e
       -0.0670522 -0.08627029 -0.013267949 0.21133594
000250 2e f6 3a be 94 f1 37 3d 84 47 72 3d 51 1e 13 3e
       -0.18257973 0.04490812 0.059150234 0.14367034
000260 b1 21 42 be ea f8 c9 3d 1c 0c 04 3d ac a9 2f 3d
       -0.18958165 0.0986193 0.03223811 0.04288642
000270 ef 65 cf bd c4 67 05 3d 22 eb ca 3d 50 56 34 3c
       -0.10126864 0.03256966 0.09908129 0.011006907
000280 88 25 8c 3c 14 ca 16 be 4c 3b a9 bd b0 64 3c bd
       0.01710774 -0.14725524 -0.08263263 -0.04599446
000290 12 14 f7 3d f3 b8 4f 3e 9a 2e d7 3d c9 a1 0e 3e
       0.12064375 0.20285396 0.105069354 0.13928904
0002a0 e0 a1 49 be 7f 91 2d be 03 4b ed bd b2 19 82 bd
       -0.19690657 -0.16950034 -0.11586573 -0.06352557
0002b0 00 10 34 bb f9 a1 3e 3e bd 0d 44 3e 5c 34 4b bd
       -0.0027475357 0.18616475 0.19145866 -0.04961048
0002c0 6c e5 39 bd f4 84 6e 3d 5b 9f 0a 3e d5 55 d2 bd
       -0.04538481 0.058232263 0.13537352 -0.102702774
0002d0 92 59 b9 bd 08 b0 ae 3c 78 02 1b bd e0 0b 49 bc
       -0.09050287 0.021324173 -0.03784415 -0.012270898
0002e0 87 8d 0f 3e 60 0f 2d be 9a 1d b8 3d 20 c0 ea bb
       0.14018832 -0.16900396 0.08990021 -0.0071640164
0002f0 f1 ff 25 3e fa a0 cb 3d 3d a9 09 be 2e 09 d9 3d
       0.16210915 0.09942813 -0.13443466 0.10597454
000300 c9 d7 27 3e a5 a9 41 3e c9 79 4f 3e 1b 0a 2a 3e
       0.16390909 0.1891237 0.20261301 0.16605417
000310 ea 11 c2 3d f2 e8 86 3d 84 84 36 3d 30 49 c1 3c
       0.09476073 0.065873995 0.04455997 0.023594469
000320 14 0f 4d 3d 06 30 97 3d f7 46 55 3e 2f 58 2f 3e
       0.050063208 0.073822066 0.20827852 0.17123483
000330 86 4f d6 3d b3 88 0b be 30 4f c5 bd 44 ad 1d 3d
       0.10464387 -0.13626365 -0.096342444 0.038495317
000340 40 dd 2c bc 45 62 4f 3e ca 1e ca 3d 48 d4 cf bc
       -0.010550797 0.2025233 0.09869154 -0.025369778
000350 04 e4 5f 3d 37 f1 4c 3e f6 35 1f be e4 ce 4a 3d
       0.054660812 0.20013891 -0.15547928 0.049513713
000360 01 1e 13 be 46 96 ea bd 44 5f 3b 3d f2 17 c3 3d
       -0.14366914 -0.11454444 0.04574515 0.095260516
000370 6a cc 8b 3d dc d3 86 bd 8a 11 d8 3d 18 c9 88 bc
       0.06826098 -0.06583378 0.1055022 -0.016697451
000380 51 16 08 3e 00 e2 5b ba 46 1d 24 be 5b 31 15 3e
       0.13289763 -0.00083878636 -0.16026792 0.14569609
000390 a8 f6 60 bd 88 72 ef 3c 80 61 2a bc 40 38 66 3c
       -0.05492273 0.029229417 -0.010399222 0.014051497
0003a0 fa b3 b1 3d 62 4f a8 3d d4 db 42 be 84 ab 51 3d
       0.08676906 0.08218266 -0.1902917 0.05118896
0003b0 d2 5e 18 be e2 21 37 be f7 b6 52 3e 56 6e 45 be
       -0.14879921 -0.17884019 0.20577608 -0.19280371
0003c0 ba 53 fb 3d 07 95 e2 bd ee 4c 98 3d a2 df a6 3d
       0.12271829 -0.11063581 0.07436548 0.08148123
0003d0 e7 c2 3e be e9 b4 33 3e 40 85 98 3c 62 62 f4 3d
       -0.18629037 0.1754948 0.018618226 0.119328275
0003e0 21 95 32 3e 79 f5 3a 3e 42 12 cb 3d 23 ee 2b be
       0.174397 0.18257703 0.09915592 -0.1679006
0003f0 47 b9 52 3e 46 67 86 3d 00 58 4e 3b b0 0a d1 3c
       0.2057849 0.065626666 0.0031485558 0.025517792

network.2.bias f4 [64]
000000 00 00 00 00 00 00 00 00 00 00 00 00 00 00 00 00
       0.0 0.0 0.0 0.0
000010 00 00 00 00 00 00 00 00 00 00 00 00 00 00 00 00
       0.0 0.0 0.0 0.0
000020 00 00 00 00 00 00 00 00 00 00 00 00 00 00 00 00
       0.0 0.0 0.0 0.0
000030 00 00 00 00 00 00 00 00 00 00 00 00 00 00 00 00
       0.0 0.0 0.0 0.0
000040 00 00 00 00 00 00 00 00 00 00 00 00 00 00 00 00
       0.0 0.0 0.0 0.0
000050 00 00 00 00 00 00 00 00 00 00 00 00 00 00 00 00
       0.0 0.0 0.0 0.0
000060 00 00 00 00 00 00 00 00 00 00 00 00 00 00 00 00
       0.0 0.0 0.0 0.0
000070 00 00 00 00 00 00 00 00 00 00 00 00 00 00 00 00
       0.0 0.0 0.0 0.0
000080 00 00 00 00 00 00 00 00 00 00 00 00 00 00 00 00
       0.0 0.0 0.0 0.0
000090 00 00 00 00 00 00 00 00 00 00 00 00 00 00 00 00
       0.0 0.0 0.0 0.0
0000a0 00 00 00 00 00 00 00 00 00 00 00 00 00 00 00 00
       0.0 0.0 0.0 0.0
0000b0 00 00 00 00 00 00 00 00 00 00 00 00 00 00 00 00
       0.0 0.0 0.0 0.0
0000c0 00 00 00 00 00 00 00 00 00 00 00 00 00 00 00 00
       0.0 0.0 0.0 0.0
0000d0 00 00 00 00 00 00 00 00 00 00 00 00 00 00 00 00
       0.0 0.0 0.0 0.0
0000e0 00 00 00 00 00 00 00 00 00 00 00 00 00 00 00 00
       0.0 0.0 0.0 0.0
0000f0 00 00 00 00 00 00 00 00 00 00 00 00 00 00 00 00
       0.0 0.0 0.0 0.0

network.4.weight f4 [64, 64]
000000 03 5e 44 be 00 b9 46 bb dd 74 3e 3e 1f 19 49 be
       -0.19176488 -0.003032267 0.18599267 -0.19638489
000010 52 2c 99 bd 9a 7c cf 3d f3 b6 37 be 70 1f 7b 3c
       -0.074791566 0.10131188 -0.17940883 0.0153273195
000020 1a d9 e1 3d 80 4f 93 3b 30 b4 a2 bc 40 1e b7 bd
       0.11027737 0.004495561 -0.01986131 -0.089413166
000030 c0 4d f9 3b e8 37 99 bc 87 5f 30 be 5c 27 4b 3d
       0.0076081455 -0.018703416 -0.17223941 0.049598083
000040 46 10 2d be 6f 31 29 3e 34 69 0f 3d 94 84 0a be
       -0.16900739 0.16522764 0.03501244 -0.13527137
000050 cd 6a 5a be 02 9b ee 3d ff f5 26 3e da cf 01 be
       -0.21329804 0.11650659 0.16304778 -0.12676945
000060 75 b9 1a be 19 6c 3f 3e 80 a8 55 3b 46 e4 4d be
       -0.15109809 0.1869358 0.0032601655 -0.2010661
000070 01 3a fa bd 62 b8 f4 3d 1f a1 41 be 70 fb 23 be
       -0.122180946 0.11949231 -0.18909119 -0.16013885
000080 8b fe 1f be fd 5d bf bd 04 e0 c2 bd c9 17 eb bd
       -0.15624444 -0.09344099 -0.09515384 -0.11479146
000090 bc 86 21 be e4 d8 55 3d 2e b3 ee 3d c0 45 1a be
       -0.15774053 0.052208796 0.116552696 -0.1506567
0000a0 20 2e 0c bc fa 1b e0 bd 58 90 70 bd 7c f9 73 3d
       -0.008555919 -0.10942836 -0.058731407 0.0595641
0000b0 48 14 46 bd 20 a7 f7 bb 15 cb 52 3e 8b fe 58 be
       -0.048359185 -0.0075577646 0.20585282 -0.2119085
0000c0 ac 23 2f 3d 53 47 34 3e d8 ca a0 3c 5f 17 0c 3e
       0.04275863 0.17605333 0.019627973 0.1368079
0000d0 b3 69 33 3e 00 78 03 3d fc 62 5f 3d ce 52 f3 3d
       0.1752079 0.032096863 0.05453776 0.11881028
0000e0 78 fa 8e 3c 40 4d 49 bd 59 f2 26 3e db fb 46 be
       0.017453417 -0.049145937 0.16303386 -0.19432013
0000f0 27 8d 2f 3e af 83 1e be da ef eb 3d 5f a2 10 3e
       0.17143689 -0.15479921 0.115203574 0.1412444
000100 96 37 9d 3d e4 95 6a 3d dd 29 01 3e e4 ac 2c bd
       0.07676618 0.057271853 0.12613626 -0.04215707
000110 f0 ef cc bc 18 cb ce bc 07 33 3c 3e 0c 83 55 3d
       -0.025016755 -0.025243327 0.1837884 0.05212693
000120 b6 b7 9f bd 5e 1d e2 bd 52 22 42 be f4 d5 56 3d
       -0.07798712 -0.110407576 -0.18958405 0.052450135
000130 5e 4a d2 3d a7 d2 2b 3e a6 31 10 be 20 23 fe bc
       0.10268091 0.16779576 -0.1408144 -0.031022608
000140 f4 7b 32 be 61 58 02 3e ec a5 25 be 52 3f 45 be
       -0.17430097 0.12729026 -0.16176575 -0.19262436
000150 27 eb 08 be d9 5c 53 3e f9 fa 34 be 19 4d 50 3e
       -0.13370954 0.20640887 -0.17673863 0.2034191
000160 f4 59 25 3d cf 20 28 3e b4 ae 7d bd 0f 67 37 be
       0.04036899 0.16418765 -0.061934188 -0.17910407
000170 f8 d8 e0 3c 64 c0 19 3d 96 ad 85 bd 55 c6 4e 3e
       0.027447209 0.037536994 -0.065272495 0.20192845
000180 cc 6d 08 bd a4 c6 2a bd 7d 56 0a 3e 5c 80 73 3d
       -0.033307835 -0.041693345 0.13509555 0.059448585
000190 0d 8e 22 3e 15 3a 0a 3e 0c a0 0d be be 3d a9 3d
       0.158745 0.13498719 -0.13830584 0.082637295
0001a0 ba 70 a6 3d 28 8b fd bc 94 46 5e bd 80 43 3f be
       0.0812697 -0.030950144 -0.054266527 -0.18678093
0001b0 14 65 46 3d 48 be 1a be 53 48 00 3e 50 dc 4f be
       0.04843624 -0.15111649 0.1252759 -0.20298886
0001c0 5d 21 4f 3e c4 8d 13 3d bd 7b 2c be aa c1 91 bd
       0.20227571 0.03602387 -0.16844077 -0.071170166
0001d0 87 20 11 3e 60 da 94 3c b2 f0 84 3d 3e 8b b6 bd
       0.14172564 0.018170536 0.064912215 -0.08913277
0001e0 08 b9 4f be 08 1c 99 bc d7 ae 1b be c1 3e 52 be
       -0.20285428 -0.018690124 -0.15203415 -0.20531751
0001f0 ca 8f ef bd 06 17 10 be e1 21 00 3e 66 7f dd 3d
       -0.116973475 -0.14071283 0.12512924 0.10815315
000200 ba a1 96 3d 88 b0 8b bc eb 6a 5c 3e d8 63 83 bc
       0.07355066 -0.01705195 0.21525161 -0.01603882
000210 52 b2 ce 3d 48 6f bf 3c 8e 69 44 be 14 b5 14 3d
       0.10092606 0.023368493 -0.19180891 0.036305502
000220 28 e2 d4 3c ab 88 35 be 16 d8 a3 bd cf 64 0e be
       0.025986746 -0.17727916 -0.080001995 -0.13905643
000230 c4 63 11 bd b0 42 0c bd 22 43 bb bd f1 b6 bc bd
       -0.035495535 -0.034243286 -0.09143664 -0.09214581
000240 3c 8f 0d 3d ee c9 80 3d c8 e6 a1 bd 7e 87 8a bd
       0.034560427 0.06288515 -0.07905346 -0.06764124
000250 3c b5 6e 3d 2a cf d5 3d 67 0c 5c 3e 0e 51 1b be
       0.058278307 0.10439904 0.21489106 -0.15167639
000260 cc 3d 65 bd 23 94 58 be 2e b8 3d be 60 1f db bd
       -0.055967137 -0.2115026 -0.1852729 -0.10699344
000270 d2 ef e7 3d e9 47 11 3e fc 63 6e 3d a6 cf 90 bd
       0.11325039 0.14187588 0.05820082 -0.07070856
000280 8b e9 20 3e d4 43 42 bd b6 78 e7 3d 65 28 00 3e
       0.1571409 -0.047427967 0.11302321 0.1251541
000290 c0 97 fe bb 6a 93 9e 3d 60 08 c2 bb 30 0b 03 be
       -0.007769555 0.07742961 -0.0059214085 -0.12797236
0002a0 5a 05 a5 3d 35 b6 52 3e 32 4f c4 bd f0 ce 4d bc
       0.08057661 0.20577319 -0.09585418 -0.012561545
0002b0 74 27 67 bd 6c 6e 57 3d bc 74 3e be 40 62 e8 3c
       -0.05643411 0.05259554 -0.18599218 0.028367162
0002c0 f8 d1 1e bd 66 1d bc bd e0 6b 5a be 72 d7 16 be
       -0.03877446 -0.09185295 -0.21330214 -0.14730623
0002d0 22 4d b0 3d c6 6a ba 3d d4 79 cd bd 12 d4 e2 3d
       0.08608462 0.09102397 -0.100330025 0.110756055
0002e0 be 57 d9 3d 06 1d aa bd 24 fb 78 bd 3a d2 b3 3d
       0.106124386 -0.08306317 -0.06078638 0.08780332
0002f0 3b 4c 1a be db a5 4b be 49 c1 04 be 6c a6 6c 3d
       -0.15068142 -0.19887488 -0.12964357 0.0577759
000300 40 f7 26 bc 3e 05 9b 3d fd 71 2d 3e e4 1b 97 bd
       -0.010190785 0.07569359 0.16938014 -0.073783666
000310 c3 24 41 3e 84 4d 31 3d ef 1f 1b 3e 45 b7 57 3e
       0.1886168 0.043286815 0.151489 0.21066006
000320 27 22 00 be d2 b7 1f be 22 83 99 3d 8e 53 af bd
       -0.12513028 -0.15597466 0.07495715 -0.08560859
000330 fc c0 09 be 9a 20 fc 3d 72 77 c8 bd 49 be 33 3e
       -0.13452524 0.12310906 -0.097884074 0.17553057
000340 bc 22 a8 bd 26 9b a1 3d 4c 8f 3f 3d 6c 01 18 be
       -0.0820975 0.0789092 0.046767518 -0.14844292
000350 7d 31 2c 3e 85 8e 28 3e d4 39 45 3d db 81 3b 3e
       0.16815753 0.16460617 0.048150852 0.18311255
000360 04 96 14 3d c1 eb 2e 3e 74 2c 2f be 50 71 4f 3c
       0.03627588 0.1708212 -0.17106801 0.012661293
000370 65 fb 34 3e c8 bb 84 bd 45 99 48 3e 95 8f d4 bd
       0.17674024 -0.06481129 0.19589718 -0.103789486
000380 8c 07 75 3d 9b 73 32 3e 3c 44 7c 3d 9a 8a 87 3d
       0.05982165 0.17426912 0.06158851 0.06618233
000390 8c 13 72 3d c5 4f fb bd 38 9f d8 bd 70 f9 67 bd
       0.059100673 -0.12271074 -0.105772436 -0.056634367
0003a0 b4 5a 3c be d0 b9 3d bc da 8c ef 3d e4 10 2a 3d
       -0.18393975 -0.011579946 0.11696787 0.041520014
0003b0 8f 98 bb bd b8 72 e1 bd 5d f5 2b 3e cf 56 4e 3e
       -0.091599576 -0.11008209 0.16792817 0.20150302
0003c0 78 3d 0c be f7 b2 07 3e c0 3d 5c bb d1 da f0 bd
       -0.13695323 0.13251863 -0.0033606142 -0.11760486
0003d0 4e 93 15 be 68 41 14 bd 5f 9c 02 3e 28 0b 16 be
       -0.14606974 -0.03619519 0.12754963 -0.14652693
0003e0 ba ee 8d 3d 6a 4a 83 3d 3d a0 29 be b0 f5 df bc
       0.06930299 0.06410678 -0.16565032 -0.027338833
0003f0 38 b1 7d bd 39 21 07 be 19 75 1e 3e da 61 9b 3d
       -0.061936587 -0.13196267 0.15474357 0.07587023

network.4.bias f4 [64]
000000 00 00 00 00 00 00 00 00 00 00 00 00 00 00 00 00
       0.0 0.0 0.0 0.0
000010 00 00 00 00 00 00 00 00 00 00 00 00 00 00 00 00
       0.0 0.0 0.0 0.0
000020 00 00 00 00 00 00 00 00 00 00 00 00 00 00 00 00
       0.0 0.0 0.0 0.0
000030 00 00 00 00 00 00 00 00 00 00 00 00 00 00 00 00
       0.0 0.0 0.0 0.0
000040 00 00 00 00 00 00 00 00 00 00 00 00 00 00 00 00
       0.0 0.0 0.0 0.0
000050 00 00 00 00 00 00 00 00 00 00 00 00 00 00 00 00
       0.0 0.0 0.0 0.0
000060 00 00 00 00 00 00 00 00 00 00 00 00 00 00 00 00
       0.0 0.0 0.0 0.0
000070 00 00 00 00 00 00 00 00 00 00 00 00 00 00 00 00
       0.0 0.0 0.0 0.0
000080 00 00 00 00 00 00 00 00 00 00 00 00 00 00 00 00
       0.0 0.0 0.0 0.0
000090 00 00 00 00 00 00 00 00 00 00 00 00 00 00 00 00
       0.0 0.0 0.0 0.0
0000a0 00 00 00 00 00 00 00 00 00 00 00 00 00 00 00 00
       0.0 0.0 0.0 0.0
0000b0 00 00 00 00 00 00 00 00 00 00 00 00 00 00 00 00
       0.0 0.0 0.0 0.0
0000c0 00 00 00 00 00 00 00 00 00 00 00 00 00 00 00 00
       0.0 0.0 0.0 0.0
0000d0 00 00 00 00 00 00 00 00 00 00 00 00 00 00 00 00
       0.0 0.0 0.0 0.0
0000e0 00 00 00 00 00 00 00 00 00 00 00 00 00 00 00 00
       0.0 0.0 0.0 0.0
0000f0 00 00 00 00 00 00 00 00 00 00 00 00 00 00 00 00
       0.0 0.0 0.0 0.0

network.6.weight f4 [64, 64]
000000 90 d2 b9 3c 1e e1 8f 3d 73 c2 1b 3e 82 ee bb 3d
       0.022683412 0.070253596 0.15210895 0.09176351
000010 bb 26 dd bd 28 7b 14 bd 9c 41 08 bd eb e8 28 3e
       -0.10798403 -0.036250263 -0.033265695 0.16495101
000020 44 f0 48 be 10 ed b3 bd f6 13 af 3d 64 b7 48 3d
       -0.19622904 -0.087854505 0.08548729 0.04900302
000030 bc 98 76 bd 34 5a 79 3d 44 d3 7b 3d a4 f6 2f 3d
       -0.060204253 0.06087704 0.061480775 0.042959824
000040 54 26 86 bd 83 84 49 3e 74 fa 08 be 60 bf 88 3b
       -0.06550279 0.19679455 -0.1337679 0.0041732043
000050 20 a9 58 3c 79 68 4e 3e da c8 9a 3d a6 d6 8b 3d
       0.013223916 0.2015704 0.07557841 0.0682805
000060 5f 67 5a be 04 27 51 be bc 4d 4f bd 10 88 62 3c
       -0.21328495 -0.2042504 -0.050611243 0.013826385
000070 26 e5 86 3d 9a 68 d0 3d 6a 8d 99 3d 4d 62 35 3e
       0.06586675 0.10176201 0.07497676 0.1771328
000080 93 02 f7 bd bc f8 3a bd 27 f1 ff bd 10 31 11 bc
       -0.12061038 -0.045647368 -0.12497168 -0.008861795
000090 fc fa 75 bd 13 6d 56 be 21 4d c7 bd da 7b b4 bd
       -0.06005381 -0.20940046 -0.09731508 -0.08812685
0000a0 0f be 36 3e 1a db b7 bd ef 85 24 be 16 f2 8b 3d
       0.17845939 -0.08977337 -0.16066717 0.068332836
0000b0 bf c8 4d 3e b5 d4 39 3e 40 5e 0b bd 80 f0 12 be
       0.2009611 0.18147548 -0.03402543 -0.14349556
0000c0 d4 8a 1f be ed c2 c8 bd 58 7e 45 bd 7b cc 4a 3e
       -0.15580302 -0.09802804 -0.048216194 0.19804566
0000d0 2c a0 60 3d 58 db 45 be b8 88 43 be 59 a9 1e 3e
       0.05484025 -0.19321954 -0.19095123 0.15494289
0000e0 04 6e 63 3d 1e 93 af 3d 35 fd 34 3e d7 00 56 3e
       0.05552484 0.08572982 0.17674716 0.20898758
0000f0 20 8a d6 bd e7 a0 52 3e 54 45 14 3d 61 20 c7 bd
       -0.10475564 0.20569192 0.03619893 -0.09722973
000100 eb 16 28 3e a3 42 42 3e e8 90 50 be 9e 88 ea 3d
       0.16414993 0.18970732 -0.20367777 0.11451839
000110 be 90 07 be 62 47 eb 3d 37 26 d7 bd aa c3 fa 3d
       -0.13238809 0.114882246 -0.10505336 0.12244351
000120 4b 9b 11 3e 0e f7 83 3d df 35 37 3e cc d0 59 bd
       0.14219396 0.06443606 0.17891644 -0.05317764
000130 ee f9 cf 3d 96 4c ea 3d 1f 2e 39 3e b5 2e 26 3e
       0.10155092 0.11440389 0.18084 0.16228755
000140 0a a6 98 3d 88 87 a3 bd 8e 28 b3 bd ac 72 18 bd
       0.074535444 -0.07984835 -0.087479696 -0.037218735
000150 05 2d 58 be 81 47 07 3e d0 30 c3 bc e6 2b e2 3d
       -0.21110924 0.1321087 -0.023826987 0.11043529
000160 40 c4 f5 bb ce ae 01 be a8 cb ba bc 9e 03 a4 bd
       -0.0075002015 -0.12664339 -0.022802189 -0.080085024
000170 d7 a9 2a 3e cd 0c 46 be d6 df 91 3d 00 06 fc 39
       0.16666351 -0.1934082 0.071227714 0.00048069656
000180 47 c4 20 3e 95 22 4c be 94 92 13 be 30 64 28 be
       0.15699874 -0.19935067 -0.14411384 -0.16444468
000190 dc ff 74 3d 05 07 56 be 1a 08 98 3d c5 87 5c 3e
       0.05981432 -0.20901115 0.0742342 0.21536167
0001a0 f4 6e 0c bd 1d f2 2a 3e de eb 0e be 0f 1c 26 3e
       -0.0342855 0.16693921 -0.13957164 0.16221641
0001b0 ee 5e ba 3d 99 2f 5c be d0 98 bd 3c 5c 58 34 be
       0.09100138 -0.21502532 0.023144156 -0.17611831
0001c0 db 12 52 be 8e f8 83 3d 84 7e 6b bd c4 d2 56 3d
       -0.20515005 0.064438924 -0.0574937 0.052447096
0001d0 68 37 39 be 9a 63 ab 3d 37 cf 54 3e 7f a2 2f 3e
       -0.18087542 0.08368607 0.20782171 0.17151831
0001e0 90 ab ce 3c b2 62 98 3d a0 6f 4b bc b0 4b 05 be
       0.025228292 0.074407 -0.01241675 -0.13017154
0001f0 30 bc 6a bc 3a 36 ac 3d 78 70 cc bc 3b 2c 20 be
       -0.014327094 0.084087804 -0.024955973 -0.15641873
000200 12 e7 d2 3d e3 c4 31 3e 67 75 3c be de e4 a0 3d
       0.102979794 0.17360263 -0.1840416 0.07856153
000210 51 94 56 3e 30 db 0b bd 80 d0 1e be 48 14 66 bd
       0.20955016 -0.03414458 -0.15509224 -0.056171685
000220 0e 45 82 bd e4 f0 29 3d 84 9c 18 3d 5b dd 20 be
       -0.063608274 0.041489497 0.03725864 -0.1570944
000230 6f 9b bf bd d8 59 ad 3c 91 35 50 3e c2 bb 2c be
       -0.093558185 0.021161005 0.20332934 -0.16868499
000240 94 29 a8 bd 64 99 2f be 96 98 f9 3d 11 9c 04 be
       -0.082110554 -0.17148358 0.121873066 -0.1295016
000250 1f af 57 3e 8d 67 0f 3e 5e a7 ba bd e6 d9 46 be
       0.21062897 0.14004345 -0.09113954 -0.19419059
000260 d3 39 06 be a6 d7 3c be e2 77 fd 3d 86 9b 9b 3d
       -0.13107996 -0.18441638 0.123763815 0.07598023
000270 91 4c 52 3e 8d 64 35 3e a6 3e 44 be 5d e7 cf bd
       0.2053702 0.17714138 -0.19164523 -0.10151551
000280 eb 75 48 be 07 e0 54 be 3a d0 32 be 41 e2 e5 bd
       -0.19576232 -0.20788585 -0.17462245 -0.11224795
000290 7f 08 29 3e b8 9e cb bc 30 7a 1a bd 40 d7 f2 3b
       0.16507147 -0.024855956 -0.037714183 0.0074109137
0002a0 4f c2 5b 3e 1a 92 95 3d 32 5a 8c 3d 57 07 41 3e
       0.21460842 0.07303257 0.06853141 0.18850456
0002b0 e3 b1 4c 3e c6 fc d0 3d ed 82 d3 bd a0 ba c7 bd
       0.19989733 0.10204463 -0.103277065 -0.09752393
0002c0 30 22 db bd 8c fc 5b bd 64 38 11 bd 50 05 33 be
       -0.1069988 -0.053707644 -0.03545417 -0.17482495
0002d0 6e d4 e3 3d fb 1a 50 3e 6a 4c c9 3d c7 1e 18 3e
       0.11124502 0.20322792 0.09829028 0.1485549
0002e0 58 39 47 be 43 b5 34 be 2c fe 2f 3d 86 48 45 be
       -0.19455469 -0.17647271 0.042967007 -0.19265947
0002f0 e2 1b c8 3d dc fc 03 be 3d 1b 16 3e ed e3 31 be
       0.09770943 -0.12889427 0.14658828 -0.17372103
000300 0c 4a 0e be 9e 4d e1 bd 02 ba c4 3d 00 0e 2d bb
       -0.13895434 -0.110011324 0.09605791 -0.002640605
000310 39 c2 3e 3e 88 d8 97 bc e2 87 01 be 76 44 97 bd
       0.18628778 -0.018535867 -0.12649491 -0.07386105
000320 40 40 00 bb d0 e4 15 bc 40 ef 9c bc df d2 0c 3e
       -0.0019569546 -0.009148791 -0.019157052 0.13752316
000330 06 c0 88 3d 27 e4 4c be 9b 89 37 3e 7f 0e 0b 3e
       0.066772506 -0.20008908 0.17923586 0.13579749
000340 02 8b f7 3d c5 da 03 3e 74 a8 5e 3d e8 d1 21 be
       0.120870605 0.12876423 0.05435987 -0.15802729
000350 b7 89 02 3e ad 62 50 be 29 6e 2a 3e 2f 98 33 be
       0.12747847 -0.20350142 0.16643585 -0.17538522
000360 76 20 f3 bd e5 f9 4c 3e cb 31 57 3e 50 9e 8a bc
       -0.11871426 0.20017202 0.21015088 -0.016921192
000370 02 26 b2 3d 2d 0d 27 3e 02 af 17 be 40 a0 d8 bc
       0.08698656 0.1631362 -0.14812854 -0.0264436
000380 84 a6 78 3d 20 11 31 bd fa 77 eb 3d 6b 33 49 3e
       0.060705677 -0.043229222 0.11497493 0.1964852
000390 b1 8a 04 3e b2 b2 8f 3d 82 fe 3d be 18 07 b9 bd
       0.12943532 0.07016505 -0.18554118 -0.09034556
0003a0 56 c6 10 be 08 64 bc bc 7e d1 91 3d d6 25 a1 3d
       -0.14138159 -0.022996917 0.071200356 0.07868545
0003b0 88 3b c9 bc fc ae 0e 3d 5f 8c 33 be da 7d e5 3d
       -0.02456452 0.034834847 -0.17534016 0.11205645
0003c0 7f 8c 04 3e b0 3a ed 3c c9 6a 59 3e c8 c4 d4 bc
       0.1294422 0.028958648 0.21232142 -0.025972739
0003d0 d4 32 30 3d 80 0a 28 be 8f 05 59 be 8f e6 e8 bd
       0.043017223 -0.16410255 -0.21193527 -0.113721006
0003e0 03 a3 4d 3e 63 8b 31 3e d4 95 58 3d 26 ed 9d bd
       0.20081715 0.17338328 0.052877262 -0.07711248
0003f0 76 67 25 be e0 be 2c be f4 be 04 be 8f 1c e3 bd
       -0.16152748 -0.16869688 -0.12963468 -0.110894315

network.6.bias f4 [64]
000000 00 00 00 00 00 00 00 00 00 00 00 00 00 00 00 00
       0.0 0.0 0.0 0.0
000010 00 00 00 00 00 00 00 00 00 00 00 00 00 00 00 00
       0.0 0.0 0.0 0.0
000020 00 00 00 00 00 00 00 00 00 00 00 00 00 00 00 00
       0.0 0.0 0.0 0.0
000030 00 00 00 00 00 00 00 00 00 00 00 00 00 00 00 00
       0.0 0.0 0.0 0.0
000040 00 00 00 00 00 00 00 00 00 00 00 00 00 00 00 00
       0.0 0.0 0.0 0.0
000050 00 00 00 00 00 00 00 00 00 00 00 00 00 00 00 00
       0.0 0.0 0.0 0.0
000060 00 00 00 00 00 00 00 00 00 00 00 00 00 00 00 00
       0.0 0.0 0.0 0.0
000070 00 00 00 00 00 00 00 00 00 00 00 00 00 00 00 00
       0.0 0.0 0.0 0.0
000080 00 00 00 00 00 00 00 00 00 00 00 00 00 00 00 00
       0.0 0.0 0.0 0.0
000090 00 00 00 00 00 00 00 00 00 00 00 00 00 00 00 00
       0.0 0.0 0.0 0.0
0000a0 00 00 00 00 00 00 00 00 00 00 00 00 00 00 00 00
       0.0 0.0 0.0 0.0
0000b0 00 00 00 00 00 00 00 00 00 00 00 00 00 00 00 00
       0.0 0.0 0.0 0.0
0000c0 00 00 00 00 00 00 00 00 00 00 00 00 00 00 00 00
       0.0 0.0 0.0 0.0
0000d0 00 00 00 00 00 00 00 00 00 00 00 00 00 00 00 00
       0.0 0.0 0.0 0.0
0000e0 00 00 00 00 00 00 00 00 00 00 00 00 00 00 00 00
       0.0 0.0 0.0 0.0
0000f0 00 00 00 00 00 00 00 00 00 00 00 00 00 00 00 00
       0.0 0.0 0.0 0.0

network.8.weight f4 [64, 64]
000000 96 06 d5 3d 40 5f a1 3c 80 91 ac bb 55 9c 0f 3e
       0.10401647 0.019698739 -0.0052663684 0.1402448
000010 b8 b1 2b bd 1f 1f 1c 3e 86 72 ec 3d ef 83 25 3e
       -0.041917533 0.15246247 0.11545281 0.1616361
000020 50 2e 0a 3c 90 a8 38 bd 80 8f d6 bb 67 5d fa bd
       0.008433893 -0.04508263 -0.0065478683 -0.12224846
000030 cd ca 3e 3e 1c b2 a4 bd 00 24 e5 3c 88 45 ce bc
       0.1863205 -0.08041784 0.027971268 -0.02517964
000040 a6 57 ae 3d f4 0f 5c be 3d 2f 08 be f2 25 ea bd
       0.08512811 -0.2149046 -0.1329927 -0.11433019
000050 d2 35 f2 bd ae 7b 88 3d 8e 12 84 bd f5 b4 fb bd
       -0.11826672 0.06664215 -0.064488515 -0.12290374
000060 56 ca 9b 3d 8a 7b be 3d aa 1c 0b be 18 b3 ca bc
       0.07606952 0.09300907 -0.13585153 -0.024743602
000070 78 67 ce 3c c8 e9 96 3c a4 b7 82 bd 85 f6 e9 bd
       0.025195822 0.018422022 -0.06382683 -0.11423973
000080 d8 64 b3 3c e0 07 fc bc 1c 4e 28 be 78 c5 38 be
       0.021898672 -0.030765474 -0.16436046 -0.18044078
000090 04 77 60 3d 9c 34 19 3d d1 84 40 be 9a 6e 9b 3d
       0.054801002 0.037403688 -0.18800665 0.07589455
0000a0 f2 27 a9 3d a4 26 7f 3d fa 46 d9 3d c5 dc 59 3e
       0.08259572 0.06229271 0.10609241 0.21275623
0000b0 96 7e ba 3d 4c 3f 8b bd 2c 27 35 bd 74 67 54 3d
       0.091061756 -0.06799182 -0.04422681 0.051856473
0000c0 b7 05 02 3e a4 38 5a 3d 33 91 4c 3e 2d 4f 0e 3e
       0.12697493 0.053276673 0.19977264 0.1389739
0000d0 56 8e ef 3d c4 9a 3e 3d d5 d1 17 be 27 5a 04 3e
       0.1169707 0.046534315 -0.14826138 0.12925015
0000e0 14 0f 09 3d 4a fe 08 be 58 4c 23 bd 40 d0 a0 bb
       0.033461645 -0.13378254 -0.03986773 -0.004907638
0000f0 d0 db 26 bc 7a f3 fe 3d e2 3d 9d 3d 9f 14 52 3e
       -0.010184243 0.12448783 0.07677819 0.20515679
000100 da 1c c5 bd de ad 93 bd 12 0a cb 3d f5 01 4e be
       -0.096246436 -0.07210897 0.0991403 -0.20117934
000110 4d e3 c7 bd 55 f1 24 3e a2 ea 89 3d dc 62 39 be
       -0.09760151 0.16107686 0.06734206 -0.18104118
000120 1b 41 01 be c1 79 51 be 2b 1d 11 be af de 17 3e
       -0.12622492 -0.20456602 -0.14171283 0.14831041
000130 7d 98 18 3e d5 03 19 3e c4 59 2e 3d 4f 41 2e 3e
       0.1490192 0.14942868 0.042566076 0.17017101
000140 be 2f 97 bd 74 44 8e bd 0e df a8 bd 74 fc 1f 3d
       -0.07382153 -0.0694665 -0.08245669 0.039059117
000150 cd 9f 3a be d0 af 13 be a9 b8 2b 3e 0a e6 e9 3d
       -0.18225022 -0.14422536 0.16769661 0.114208296
000160 8b 9f 25 3e b6 a6 bb 3d a0 0c ab bb 26 22 01 be
       0.16174142 0.09162657 -0.005220011 -0.12610683
000170 8e 38 90 3d 09 38 f1 bd d2 3c cd 3d 74 f5 40 3d
       0.07042037 -0.11778266 0.10021366 0.047109082
000180 e1 f1 dc bd 43 c8 03 3e aa c8 bd 3d 71 b2 e9 bd
       -0.10788322 0.12869363 0.09266789 -0.11410988
000190 a2 ef 8e bd d1 0c 5d 3e 52 cc ce bd 24 dd 42 be
       -0.069793 0.2158692 -0.10097565 -0.19029671
0001a0 43 0c ec bd 0f 02 3b 3e 2a e8 9e bd 1b ad eb bd
       -0.11525776 0.18262504 -0.077591255 -0.115076266
0001b0 41 bd 2c 3e ff 0c 1b 3e 64 1a 5d 3d 37 33 00 3e
       0.1686907 0.15141676 0.053980246 0.12519537
0001c0 80 9b 25 bc 30 29 6b bd 7d 7a 19 3e f7 b0 33 3e
       -0.010107875 -0.057412326 0.14988132 0.17547975
0001d0 2f 28 1e 3e a7 03 42 3e df 6f 1e 3e a5 5a 53 3e
       0.15445016 0.18946706 0.15472363 0.20640047
0001e0 dd 10 53 3e cd ae 01 3e 5a 77 f9 3d a3 dd 03 3e
       0.20611902 0.12664337 0.12180968 0.12877516
0001f0 20 a5 89 bc 87 fa 43 be ac 1f 58 3d 6e f1 9d 3d
       -0.01680237 -0.19138537 0.05276458 0.07712065
000200 c7 33 c1 bd ac 4e 64 3d 03 b9 3e 3e 53 46 2f 3e
       -0.09433704 0.05573909 0.18625264 0.1711667
000210 8e 1c aa 3d 46 20 85 3d 94 0b 38 3d 78 cd c7 bc
       0.083062276 0.06500296 0.044932917 -0.024389967
000220 d8 80 3b bd 30 3b 30 bc a6 d8 d6 3d b4 53 21 be
       -0.04577717 -0.010756299 0.10490541 -0.15754586
000230 78 d4 c3 bc 2d 2d 3b 3e 4b e2 ea bd 62 eb ee bd
       -0.023905024 0.18278952 -0.11468943 -0.116659895
000240 a3 e0 1f 3e b0 17 9a bd 22 f7 a0 3d 31 fc 0b 3e
       0.15613036 -0.07524049 0.07859637 0.13670422
000250 2e de 10 be 81 a2 37 be 9c 92 2f 3d 52 96 f8 bd
       -0.14147255 -0.17933084 0.042864427 -0.12138046
000260 1a a8 28 be d5 db 04 3e aa ff c8 3d cd 54 20 be
       -0.16470376 0.12974484 0.09814389 -0.15657349
000270 5c ab 2c 3d e3 33 3c 3e 9d 7c fb bd ab c2 35 3e
       0.04215561 0.18379168 -0.122796275 0.17750041
000280 90 fb bd bc e2 13 94 3d bc 98 ef bd 7f c5 3e 3e
       -0.023191243 0.07230355 -0.11699054 0.18630026
000290 de 13 94 3d 66 64 12 be c6 6f 06 be a8 8a 04 3d
       0.07230352 -0.14296111 -0.13128576 0.032358795
0002a0 4a d8 1f be 9e 73 da bd 74 17 33 be f6 da a1 3d
       -0.15609851 -0.106665835 -0.17489415 0.079030916
0002b0 cd 8a 3d 3e 71 e0 27 be 8c 02 41 3d e8 73 80 bc
       0.1850998 -0.16394211 0.04712157 -0.015680268
0002c0 dc d5 1b 3d 71 c3 30 3e 40 37 bb bd b8 b1 a8 3c
       0.03804575 0.17262055 -0.091413975 0.020592555
0002d0 fe 8e 50 be bc 97 cb bd 2a c7 f7 bd 7a ca dc 3d
       -0.20367047 -0.099410504 -0.120985344 0.10780807
0002e0 5f fe 43 3e 31 aa 21 3e 98 7b c4 bd 34 56 59 bd
       0.19140004 0.15787579 -0.09593886 -0.053060725
0002f0 48 97 ba bd ae b7 ab bd e4 ff 69 bd a9 10 14 be
       -0.09110886 -0.083846435 -0.057128802 -0.1445948
000300 7a d5 a8 bd 94 2d 25 bd 26 af ac bd c0 05 74 bc
       -0.082438424 -0.04032667 -0.084318444 -0.014893949
000310 22 80 0c be 4b b2 23 be 3e 4d c0 3d ce 74 a1 3d
       -0.13720754 -0.15985982 0.09389733 0.07883607
000320 7c 03 6d 3d a0 87 a7 3c d7 ab 18 3e 80 3a 6c 3b
       0.05786465 0.020450413 0.14909302 0.003604561
000330 ee e3 e7 bd 10 0b 33 be 70 3e 4d 3c cf 12 42 3e
       -0.11322771 -0.17484689 0.012527093 0.18952487
000340 e6 ff d6 3d aa f4 94 3d c1 c2 d6 bd 0d 07 f1 bd
       0.104980275 0.072732285 -0.10486365 -0.11768923
000350 16 04 bc 3d 82 38 99 bd d2 e8 ec 3d df e2 30 be
       0.09180467 -0.07481481 0.115678445 -0.17274044
000360 cc 50 44 3d 20 75 fe bb b0 f0 4c 3c 81 ca 05 3e
       0.047928616 -0.007765427 0.012508556 0.1306553
000370 10 97 a3 bd ec d7 3b be 2d 34 4a 3e 1e dd 13 be
       -0.07987797 -0.18344086 0.19746466 -0.14439818
000380 7c d0 38 3d 17 db 33 3e 90 6f f6 bc fa 91 97 3d
       0.0451207 0.17564045 -0.030082494 0.0740089
000390 72 21 3d be 94 f7 01 be 5a 26 d0 3d e4 aa 5e 3d
       -0.1846979 -0.126921 0.10163565 0.054362193
0003a0 b2 38 b5 bd db e3 05 3e 3e c3 1a be ac 0b 11 3d
       -0.088487044 0.13075201 -0.15113541 0.03541152
0003b0 6c 90 46 be 14 a1 69 3d f7 bd 2a 3e 4e b7 92 bd
       -0.1939103 0.05703838 0.16674028 -0.07163869
0003c0 85 28 d8 bd dc 19 ad bd c0 66 2d be 34 7b 39 3d
       -0.105546035 -0.08452198 -0.16933727 0.04528351
0003d0 a0 ef b3 3b b6 8f 11 be 7d ab 00 3e 40 1d 00 bc
       0.005491212 -0.14214978 0.12565418 -0.007819474
0003e0 3a e5 2c be b9 74 00 be 68 89 4a be 38 a0 17 be
       -0.16884318 -0.12544526 -0.19778979 -0.14807212
0003f0 37 51 59 be dc f6 69 bd 84 b6 2e 3d 6b 34 29 3e
       -0.21222387 -0.05712019 0.04265453 0.16523902

network.8.bias f4 [64]
000000 00 00 00 00 00 00 00 00 00 00 00 00 00 00 00 00
       0.0 0.0 0.0 0.0
000010 00 00 00 00 00 00 00 00 00 00 00 00 00 00 00 00
       0.0 0.0 0.0 0.0
000020 00 00 00 00 00 00 00 00 00 00 00 00 00 00 00 00
       0.0 0.0 0.0 0.0
000030 00 00 00 00 00 00 00 00 00 00 00 00 00 00 00 00
       0.0 0.0 0.0 0.0
000040 00 00 00 00 00 00 00 00 00 00 00 00 00 00 00 00
       0.0 0.0 0.0 0.0
000050 00 00 00 00 00 00 00 00 00 00 00 00 00 00 00 00
       0.0 0.0 0.0 0.0
000060 00 00 00 00 00 00 00 00 00 00 00 00 00 00 00 00
       0.0 0.0 0.0 0.0
000070 00 00 00 00 00 00 00 00 00 00 00 00 00 00 00 00
       0.0 0.0 0.0 0.0
000080 00 00 00 00 00 00 00 00 00 00 00 00 00 00 00 00
       0.0 0.0 0.0 0.0
000090 00 00 00 00 00 00 00 00 00 00 00 00 00 00 00 00
       0.0 0.0 0.0 0.0
0000a0 00 00 00 00 00 00 00 00 00 00 00 00 00 00 00 00
       0.0 0.0 0.0 0.0
0000b0 00 00 00 00 00 00 00 00 00 00 00 00 00 00 00 00
       0.0 0.0 0.0 0.0
0000c0 00 00 00 00 00 00 00 00 00 00 00 00 00 00 00 00
       0.0 0.0 0.0 0.0
0000d0 00 00 00 00 00 00 00 00 00 00 00 00 00 00 00 00
       0.0 0.0 0.0 0.0
0000e0 00 00 00 00 00 00 00 00 00 00 00 00 00 00 00 00
       0.0 0.0 0.0 0.0
0000f0 00 00 00 00 00 00 00 00 00 00 00 00 00 00 00 00
       0.0 0.0 0.0 0.0

network.10.weight f4 [64, 64]
000000 e7 33 30 3e 70 02 76 3c e4 09 11 3d 03 ae 10 be
       0.17207299 0.01501523 0.035409823 -0.1412888
000010 48 36 e0 bc 8f 79 1b 3e 7c 2a 15 3d 4f dc 3b 3e
       -0.027369633 0.1518309 0.03641747 0.1834576
000020 d4 25 16 bd 8c 71 54 3d 7e 7e e4 3d 8b 33 09 3e
       -0.03665717 0.0518661 0.11156939 0.13398568
000030 c0 c9 3d 3c a5 62 29 3e b0 95 92 bc e4 11 2d 3d
       0.0115837455 0.16541536 -0.017893642 0.04225339
000040 c4 fe 04 bd fd fe 5c be 42 0e 94 3d fa 52 eb 3d
       -0.032469526 -0.21581645 0.07229282 0.11490436
000050 27 cc 30 3e 71 8b 5a 3e 11 0f 56 3e 28 cb af bd
       0.17265378 0.21342255 0.20904185 -0.08583671
000060 f9 d9 e5 bd 5d 1c 0c be 20 53 80 3b 74 1e 4b be
       -0.112232156 -0.13682695 0.0039161593 -0.19835836
000070 60 55 c6 bb e8 3b 7d bd 50 51 b6 bc 2a 51 f4 bd
       -0.006052658 -0.06182471 -0.02225557 -0.11929543
000080 0f ad 32 be 2a fd d7 3d d4 a9 06 be 20 77 f4 bb
       -0.17448829 0.10546334 -0.13150722 -0.00746049
000090 9c 69 19 3d 71 95 25 3e 5e 0c 5b be 84 d6 59 bd
       0.037454233 0.16170289 -0.21391436 -0.053183094
0000a0 97 13 21 be a5 f1 2a be 2c a2 1f 3d 80 3d 4f bd
       -0.15730129 -0.16693743 0.03897302 -0.05059576
0000b0 e3 7d f1 bd e8 86 12 be a2 d2 19 be 7a 20 1a be
       -0.11791589 -0.14309275 -0.15021756 -0.15051451
0000c0 b2 9d b0 3d 92 a8 95 3d 5e e8 eb 3d 40 4f c1 3b
       0.08623828 0.07307543 0.1151893 0.00589934
0000d0 bb 59 1f 3e 31 7b 57 be 4c 4b 77 bd c8 0c 9a 3c
       0.15561573 -0.21043088 -0.060374543 0.018804923
0000e0 53 63 02 be 78 ac 57 be 88 3e b1 bc 00 99 fc 3a
       -0.12733202 -0.21061885 -0.021636263 0.0019271672
0000f0 df 24 5a 3e 20 36 00 bd 81 fc 3b 3e 1b 27 f3 bd
       0.21303128 -0.031301618 0.18358041 -0.11872693
000100 d9 1c 4f be 9f 4a 05 3e 18 33 7b bd 24 2a 20 be
       -0.20225848 0.13016747 -0.061328024 -0.15641075
000110 a6 4b f5 3d 68 36 0f be 2e 71 27 be 33 90 2d 3e
       0.119773194 -0.13985598 -0.16351768 0.16949539
000120 8f 58 36 3e d0 3c 3f be ee c0 89 bd 40 f2 a3 bc
       0.1780722 -0.18675542 -0.067262515 -0.020012975
000130 81 dc 5a 3e 20 5e 83 bb 5c 71 5a 3d 2c 5b 26 bd
       0.21373178 -0.0040090233 0.053330764 -0.040614292
000140 e0 f2 ab bc 76 40 9d 3d 49 58 43 3e 5b 0e 4c 3e
       -0.020989835 0.076783106 0.19076647 0.19927351
000150 a6 3f b3 3d 82 65 db 3d 00 58 84 3c 3d 52 1a 3e
       0.08752374 0.107127205 0.016155243 0.15070434
000160 78 d4 5f bd 0c 8e 55 bd e1 2d 11 3e cd a9 12 3e
       -0.054645985 -0.05213742 0.14177658 0.14322586
000170 5e d9 b7 3d 8c 59 b4 bd 48 2a 67 bd f0 c6 15 bc
       0.089770064 -0.08806142 -0.056436807 -0.009141669
000180 a0 3f 8b bd 38 46 97 bc 3c 54 9c bd a2 ef 29 be
       -0.06799245 -0.0184661 -0.07633254 -0.16595319
000190 e8 61 a4 3c cf fd 36 3e fc c5 46 3d 44 cd 5a 3d
       0.020066217 0.17870258 0.048528656 0.053418413
0001a0 5a 3e ed 3d c0 1f ac bc c0 59 9d bd 88 fd d2 bd
       0.11584158 -0.021011233 -0.07683134 -0.103022635
0001b0 47 f8 44 3e 8d 3f 32 3e 04 88 34 bd 6c d6 3a bd
       0.19235335 0.17407055 -0.044075027 -0.045614645
0001c0 f1 e6 1b 3e d5 ba 21 3e 5b 5d 28 3e dc 31 1e 3d
       0.15224816 0.15793927 0.16441862 0.03862177
0001d0 20 3b 50 bc 83 4a 21 3e a4 2e 62 3d ba 9c f4 bd
       -0.012709409 0.1575108 0.05522026 -0.11943956
0001e0 d6 03 aa bd 8b 6f 35 3e d1 d8 47 be 23 27 1c 3e
       -0.08301513 0.17718332 -0.19516303 0.15249304
0001f0 84 4a 3b be a8 e7 d0 3c 06 4f 16 be 04 62 9f bd
       -0.18290144 0.025501087 -0.14678583 -0.07782367
000200 67 4f 45 3e d2 da f1 bd 20 f6 17 bd 69 a5 50 3e
       0.19268571 -0.11809315 -0.037099957 0.20375599
000210 44 e7 b4 bd 91 89 17 3e b5 57 34 3e 5c 6d 02 be
       -0.08833173 0.14798571 0.17611583 -0.1273703
000220 6e 16 b7 bd 32 5f 28 be 10 52 38 3c d2 2a e6 3d
       -0.08939825 -0.16442564 0.011250034 0.11238636
000230 aa ad 9e 3d 8e 4c ee 3d 14 ad aa bd 1c bd 2b 3d
       0.077479675 0.116356954 -0.08333793 0.041928396
000240 25 66 28 3e c1 79 51 be ab 53 ef bd d0 4a d3 3c
       0.16445215 -0.20456602 -0.1168588 0.02579251
000250 08 2c c9 bc 3e ac c1 3d d4 a7 0e bd 68 22 2e bd
       -0.024557129 0.09456681 -0.034828022 -0.04251328
000260 24 43 b0 bd 8a 6d b8 bd 54 a3 51 be 90 eb e5 bc
       -0.08606556 -0.09005268 -0.20472461 -0.028066427
000270 84 ec 32 3d a0 19 10 bd c9 ea 43 be fa 1b c9 bd
       0.04368259 -0.035180688 -0.19132532 -0.09819789
000280 42 4a e2 3d 76 18 e0 3d 88 40 8c bd 94 f4 18 bd
       0.1104932 0.109421656 -0.06848246 -0.037342623
000290 36 1b 9f 3d 22 2f bb bd 0a a8 33 be 23 55 3f be
       0.07768862 -0.09139849 -0.1754457 -0.18684821
0002a0 b4 71 22 3d 32 58 ea 3d a1 47 16 3e d0 92 a8 bc
       0.039659217 0.11442603 0.14675762 -0.020577818
0002b0 61 a2 31 be bc c4 aa bd 44 ec 32 be 29 0f 1f be
       -0.17347099 -0.08338305 -0.1747294 -0.15533127
0002c0 ea ec 0f be 90 cf 08 3d ce fa db 3d 6a bf 45 be
       -0.1405522 0.033401072 0.107411966 -0.193113
0002d0 1c dc 6a bd ce f2 85 bd 18 ca 1e be 11 8c 4c 3e
       -0.05733882 -0.06540452 -0.1550678 0.19975306
0002e0 72 34 f0 bd 7e ef 05 be d4 09 0d be f1 3d 33 3e
       -0.11728753 -0.1307964 -0.1377328 0.17504098
0002f0 ae 92 ec 3d a1 ac 34 3e cc de 61 3d 8a 6b d9 3d
       0.115514144 0.17643978 0.055144116 0.106162146
000300 e8 f2 31 be 76 d4 bf 3d 6b 3a 0f be ef 4e 11 3e
       -0.17377818 0.093666956 -0.13987128 0.14190267
000310 4c 89 6e bd 28 45 de bc fd 29 4d 3e 12 db c8 3d
       -0.058236405 -0.027132586 0.20035549 0.09807409
000320 8b 1f 41 3e 3b dc 2c 3e 42 96 02 be 5c d4 c6 bd
       0.18859689 0.16880886 -0.12752631 -0.09708473
000330 bf d8 21 be 3e fc d8 3d 3c 3f 27 bd af 99 0e 3e
       -0.15805338 0.105949864 -0.04083179 0.13925813
000340 54 b5 4f 3d d4 98 6f 3d bf 54 43 be 7a d3 99 3d
       0.050710037 0.058495358 -0.19075297 0.07511039
000350 e9 74 0b 3e 4d a5 02 3e 4d 92 4f 3e 02 47 f8 3d
       0.13618816 0.1275837 0.20270653 0.12122919
000360 77 b0 4a be 22 89 c5 3d 2b a8 4f 3e cc a8 74 bd
       -0.19793878 0.09645297 0.20278995 -0.05973129
000370 03 03 1c 3e 40 7c 48 bc 0d a1 37 3e e0 4d 9b bd
       0.15235524 -0.012236655 0.1793253 -0.07583213
000380 b0 92 46 bd c5 72 27 be 80 55 6c 3b 2c eb 9a bd
       -0.048479736 -0.16352375 0.0036061704 -0.07564387
000390 5c c9 75 3d c0 2f 91 bc 31 2d 3d 3e 19 31 d5 bd
       0.060006484 -0.017722964 0.1847427 -0.10409755
0003a0 60 5f 28 bc 2f 6d 08 3e ca c5 4b be a4 1f 18 3d
       -0.010276645 0.133229 -0.1989967 0.03713955
0003b0 16 c5 9c 3d 8a 0d 4a be 5e f3 53 be ba 28 c5 3d
       0.07654779 -0.19731727 -0.20698306 0.096269086
0003c0 30 68 6f 3c 91 00 f8 bd 60 35 32 3c 60 a5 09 be
       0.014612243 -0.12109483 0.010876983 -0.13441992
0003d0 76 88 b2 bd 86 7c e0 bd ac dd 65 3d d2 6f b1 3d
       -0.08717434 -0.10961251 0.056119606 0.08663906
0003e0 c2 32 b9 3d 00 7e b8 3c 77 03 2d 3e e3 d4 52 3e
       0.090428844 0.022521019 0.16895853 0.20589022
0003f0 02 03 ad 3d e2 69 0f be 25 c7 0c 3e 1e 2e f4 bd
       0.08447839 -0.14005235 0.13747843 -0.11922859

network.10.bias f4 [64]
000000 00 00 00 00 00 00 00 00 00 00 00 00 00 00 00 00
       0.0 0.0 0.0 0.0
000010 00 00 00 00 00 00 00 00 00 00 00 00 00 00 00 00
       0.0 0.0 0.0 0.0
000020 00 00 00 00 00 00 00 00 00 00 00 00 00 00 00 00
       0.0 0.0 0.0 0.0
000030 00 00 00 00 00 00 00 00 00 00 00 00 00 00 00 00
       0.0 0.0 0.0 0.0
000040 00 00 00 00 00 00 00 00 00 00 00 00 00 00 00 00
       0.0 0.0 0.0 0.0
000050 00 00 00 00 00 00 00 00 00 00 00 00 00 00 00 00
       0.0 0.0 0.0 0.0
000060 00 00 00 00 00 00 00 00 00 00 00 00 00 00 00 00
       0.0 0.0 0.0 0.0
000070 00 00 00 00 00 00 00 00 00 00 00 00 00 00 00 00
       0.0 0.0 0.0 0.0
000080 00 00 00 00 00 00 00 00 00 00 00 00 00 00 00 00
       0.0 0.0 0.0 0.0
000090 00 00 00 00 00 00 00 00 00 00 00 00 00 00 00 00
       0.0 0.0 0.0 0.0
0000a0 00 00 00 00 00 00 00 00 00 00 00 00 00 00 00 00
       0.0 0.0 0.0 0.0
0000b0 00 00 00 00 00 00 00 00 00 00 00 00 00 00 00 00
       0.0 0.0 0.0 0.0
0000c0 00 00 00 00 00 00 00 00 00 00 00 00 00 00 00 00
       0.0 0.0 0.0 0.0
0000d0 00 00 00 00 00 00 00 00 00 00 00 00 00 00 00 00
       0.0 0.0 0.0 0.0
0000e0 00 00 00 00 00 00 00 00 00 00 00 00 00 00 00 00
       0.0 0.0 0.0 0.0
0000f0 00 00 00 00 00 00 00 00 00 00 00 00 00 00 00 00
       0.0 0.0 0.0 0.0
