Transfer/plate_hole_lite.pth (torch, 73266 bytes, 12 tensors)

network.0.weight f4 [64, 2]
00000000: cf29 413e 41f8 103f d8a3 01bf beaa bb3e
00000010: 618c d93e ee66 4cbe 3277 07be e58b b1be
00000020: 888a 763e a094 323d 4e71 9dbe 1f27 9d3e
00000030: e655 b4bd c4e0 1cbf eea6 28be 04f8 253f
00000040: 500f f33e 75a5 dbbe c1b6 8ebd 0055 08bf
00000050: e9d3 9b3e 4c16 093f 78b6 b63e 97c3 90be
00000060: b647 fe3e b56a b33d 0a9d 963c 5fb2 9cbe
00000070: a3a4 e6be acaa 113f 2f1d a4be e860 52be
00000080: 2df6 9f3e 984d 143d 4409 bf3d 7e39 ca3e
00000090: f05b d63e 83ea 61be 3855 763c bc08 2f3f
000000a0: c407 9cbd 0516 08bf 98a0 8cbe 2bb1 373f
000000b0: d023 0b3f 0762 5ebf f700 b2be 996b ddba
000000c0: 23e2 2d3e 7d04 913e 1257 8fbe e11d 843e
000000d0: 404a 203e 4bf9 c13e b405 13be c399 97be
000000e0: 9db9 dd3e b9ef 043f 1f4f 09be 9257 acbb
000000f0: cdef 2a3e 8c72 893e 2029 303e 3ccc 983e
00000100: 7781 a2be 33ba 3a3f a460 6b3e 1473 163f
00000110: 9466 28bf edda 1b3f 8f83 4b3e fb73 9abe
00000120: 70e9 713e d7c5 a43e 405a a7be 92f8 34bd
00000130: 6880 643e 374d e9be 5b88 ca3e 5359 f3be
00000140: cd21 7dbe 1e64 163f 315c b4be 5012 c5bc
00000150: ec3b 7fbe 6b4d 1cbe 56c6 93be ea91 153e
00000160: 7fe6 113e 888f 323e 65ab 453e 4a54 353e
00000170: bcb5 97be de9e 08bf 47c8 0d3d b5da bfbe
00000180: 925a b13e 84c5 673e ca7b 803e ea13 7b3e
00000190: a854 c53e ad49 0abf f990 ab3e 366a e9bd
000001a0: 6a92 b2be bc8f 2f3e 9760 94be 7e13 953e
000001b0: ef72 8b3e 0663 e03c fccd 0bbe 55e4 e8be
000001c0: d51e 9bbe 9066 9bbe e56d 47be 761a c9be
000001d0: 85a4 563e 6834 9b3d 963f 9dbd 14ac 253f
000001e0: 03a1 b63e 832d 35be 63ba 9e3e 7936 97bc
000001f0: 4767 ae3d 7022 efbe d0a4 cabe 7b95 053d
0.18863605 0.56628805 -0.5064063 0.36653703 0.42489913 -0.1996114 -0.13229063 -0.34677044
0.24076283 0.04359877 -0.30750507 0.3069391 -0.08805446 -0.61280465 -0.16469929 0.64831567
0.4747262 -0.4289967 -0.06968451 -0.532547 0.30435112 0.5354965 0.35686088 -0.28274223
0.49664086 0.08760587 0.018385429 -0.30604836 -0.45047483 0.5690105 -0.32053515 -0.2054478
0.31242505 0.03620681 0.09327939 0.39496988 0.41867018 -0.22062115 0.015034966 0.683727
-0.07618669 -0.531586 -0.27466273 0.7175471 0.5435152 -0.8686833 -0.3476636 -0.0016893029
0.16980796 0.28323737 -0.27996117 0.25804046 0.15653324 0.37885508 -0.14357644 -0.29609498
0.43305674 0.5192829 -0.13409089 -0.0052594626 0.16693039 0.26845205 0.17203188 0.29843318
-0.317394 0.7294037 0.22986084 0.58769345 -0.6578152 0.6088093 0.19874404 -0.3016661
0.23624206 0.3218219 -0.32686043 -0.044182368 0.22314608 -0.45566723 0.39557156 -0.47529086
-0.24719925 0.58746517 -0.35226586 -0.024056584 -0.24925202 -0.15263908 -0.28862256 0.14606443
0.14248084 0.17437565 0.19303663 0.17707935 -0.2963084 -0.5336741 0.034614827 -0.37471548
0.34639412 0.2263394 0.25094444 0.24519315 0.3854115 -0.5401867 0.33509043 -0.11397211
-0.3487733 0.17144674 -0.28979942 0.29116434 0.27236125 0.027390968 -0.13652796 -0.45486704
-0.3029696 -0.30351686 -0.19475515 -0.39278 0.20961197 0.07578355 -0.07678144 0.64715695
0.35669717 -0.17693143 0.31001577 -0.018458592 0.08515792 -0.4670596 -0.39578867 0.03261326

network.0.bias f4 [64]
00000000: 2a67 b0be c49a a93e 9b95 fcbd d1b1 163e
00000010: 036c a4be f8b7 3f3e 790b a43e 9990 d6be
00000020: d91d b6bd 6cc3 bd3e 2b37 b2be 8dd6 9bbe
00000030: 3841 f1be a09c c0bc f71a 9d3d bccc 003f
00000040: 9b50 83be 2b41 abbe 736f 3bbe b012 e3be
00000050: e9a2 a23e cfa1 b2bd 8e18 29bc 3b04 8d3e
00000060: 806d 85be c398 713d 3508 8bbe 71b4 d93e
00000070: b6a6 21bf c0a7 233e 35bc a5be dd83 96be
00000080: 0868 1b3d 5a56 f6be 18c7 b83e 6350 8fbe
00000090: 87ce 07bf f4e2 903e e5e0 31be f601 90be
000000a0: b152 04bd 9cc8 993e 216e bd3e 0aa4 4c3e
000000b0: ba0f 08be 97a0 86be 3de1 f33e 46c0 b03e
000000c0: f5cc c9be d1a9 b6be 2385 25be 471a a1be
000000d0: f65e 1f3e 527b 013e feb2 7dbe 914e 943e
000000e0: c9ee a83e 9bba a23d 5dc8 abbe e005 cbbd
000000f0: f76c aabe e77a 28be f6b2 363e 98aa 883e
-0.34453708 0.3312589 -0.123332225 0.14716269 -0.32113656 0.18722522 0.32040003 -0.41907194
-0.08892412 0.37063158 -0.34807715 -0.30437127 -0.4712007 -0.023512185 0.07671159 0.503124
-0.25647435 -0.33448157 -0.18304233 -0.44350195 0.31764916 -0.08722269 -0.010320796 0.2754229
-0.26060104 0.058983576 -0.271547 0.42520478 -0.63145006 0.1598196 -0.32370153 -0.2939748
0.03794101 -0.48112756 0.36089396 -0.27991018 -0.5304951 0.28298151 -0.17370947 -0.28126496
-0.032305423 0.30035865 0.36998084 0.19984451 -0.13287249 -0.26294395 0.4763278 0.34521693
-0.39414182 -0.35676435 -0.16164069 -0.3146536 0.15563568 0.12644699 -0.24775311 0.2896619
0.3299468 0.079457484 -0.33551303 -0.0991323 -0.3328626 -0.16453134 0.17841706 0.26692653

network.2.weight f4 [64, 64]
00000000: c928 ccbd bba6 5c3e 5a7a f6bd ecbb b5bd
00000010: 1523 50be 538d 593e 3155 ab3c 8e40 e73d
00000020: 16e5 1cbe c887 3e3e e49f a8bd 1a53 e53d
00000030: 39c5 263e e827 b73c 0fd8 b33d 460c 8dbd
00000040: ab02 543d 4f78 d63b a514 1fbe 9b00 1dbd
00000050: b72a c03d b761 ed3b 8fb5 183e 56ed 6f3e
00000060: f34e 26bc b35f 1d3e 2df6 793d de8e 09be
00000070: 959c b2b9 6c0f 9dbd d8b7 ebbd 3708 a7bd
00000080: 6bfc b63d 4625 16bd 5721 103e 2339 d23d
00000090: 8510 25bc 2fc4 f13d 8a8a 2f3d 416c f03b
000000a0: e5fb 46bd ad9e cbbd 8bfa 1cbe 1cc2 4dbb
000000b0: 1c97 bc3d baa6 203d 51c9 a23d 5f51 bfbd
000000c0: 511e 113e 30c6 4a3e 6090 debd 28f7 003d
000000d0: df14 29be 621e 0bbd 75b7 40be a9b0 413e
000000e0: 6c19 533e 6e73 03be 9c28 ce3d 9c88 d93d
000000f0: 5284 0dbe c733 ab3d aad5 21be e334 debc
00000100: c188 fabd 46d0 83be eefc 1b3e 9183 773c
00000110: a5a1 78bd f073 74be 488b 2abc 78f7 2c3e
00000120: 542d 4d3d 0a98 5cbc 1088 4e3e 1cfa 0d3e
00000130: dca2 403e 78aa 483d 0a13 3cbe 6ae2 4cbe
00000140: 11d0 59bc d8d8 73bd 03fe e2bd e78b 063e
00000150: f885 253d faa0 333c 8fa9 3c3e 8126 313d
00000160: 377f 0cbd 4e09 0ebe 8619 e2bc 30e8 b3bd
00000170: f297 743e 620f 5cbe ec5e 44bd 6e66 acbd
00000180: e0cc abbd 6945 fd3d c03f 9bbe 5f43 85bc
00000190: 0359 ac3b 0f2c 11be 3f45 9c3d e24e 86bd
000001a0: 8ddc da3c 54da e13d 6963 43be 1a1a 8abe
000001b0: 1fca e0bd 8db7 aabd e66b 5d3c a666 9d3c
000001c0: 71b1 d73d 35a8 0f3e f59b 3dbd 4e57 20bd
000001d0: d520 393d 604f 60be b2c5 2a3e 7508 f53d
000001e0: c349 5abd d64d 7bbd 65de 713e c92f a0bd
000001f0: 8b19 03bd 849c d8bd 92f6 7cbe 2cf7 a4bc
00000200: 2360 543d 48c9 23be 0e30 2e3d 403b b83d
00000210: d5df 693d c5f8 1dbe c462 92bc eb13 333e
00000220: 93e2 9e3d de84 593e 616d bc3b 8992 873d
00000230: 5938 bdbc aaad 5cbe be1e afbd 8345 af3d
00000240: 9279 40bd 4564 3dbc 018d 3bbe 0452 0cbe
00000250: 6037 42be 16b8 6b3d 1acf de3d 30a8 4dbc
00000260: d538 64bc f25b dabd 11d7 143e b8bf 27be
00000270: 9680 3cbe 2950 2cbe 2309 933d f4f4 b9bc
00000280: ee52 1fbe 2b8f 953d 6b54 673e 9c2d 82bd
00000290: 7f66 c73d 14ba 31be e723 1ebd 6ffe e33c
000002a0: e299 5c3e 8782 08bd e91c 0e3c 898e 973c
000002b0: e2bf d33d 6e8a 273d 665d bd3d c002 013e
000002c0: b46d 49be 750d cd3d c970 00be 20fd d93d
000002d0: 83d1 473e 4c60 45bd 82a6 3bbe f1d3 44be
000002e0: 3e6a 01bd 0d05 05be e98d cf3d 1318 1c3e
000002f0: f3f9 98bd 8ac9 d8bc 5ccf 3b3e 39cc 553e
00000300: 8cdb c0bd 432a 08be 1464 cc3c 8d7a 293e
00000310: a271 04bd 842b 013e e6d9 103e 0cc4 e7bd
00000320: 704d 1bbe 0d8e 2cbe 8667 aebb c080 d3bd
00000330: 5aa9 36be 34b1 2dbd fd35 cf3d 34a1 1d3d
00000340: 3da0 b23d 20fd b93d 5e6b 87bd ff10 03be
00000350: 7148 25bb 12fc b43d 6a04 81be 1abc 04be
00000360: 923d 43be 8b96 983d 55f0 c83d 1eb3 443e
00000370: 40f8 2e3e 8775 fcbd d399 dd3d 79b1 18be
00000380: 5489 f9bc 42f1 0ebe 38e7 9d3c ae2c c93d
00000390: d2a0 0d3e b9df afbd b69a 5fbd 4917 d73d
000003a0: 80ba 8bbd 766f 573e 5517 4cbe 3575 463e
000003b0: f2c6 283e 86a9 27be 7514 2cbe 79ca d0bc
000003c0: f08e 5e3e f49c 023e d2d7 59bc 6c3c 4a3e
000003d0: 25ff 58be 0132 a1bd 3e0e 093d fb60 983d
000003e0: 4109 ba3d 3090 153e 25e5 ed3d 6ac9 babd
000003f0: af41 15bd 9ee0 db3c fb77 23bd 2495 383e
-0.09968717 0.21547978 -0.120350555 -0.08873734 -0.20325883 0.21245317 0.020914646 0.1129161
-0.15321764 0.18606484 -0.08233622 0.11197491 0.16286172 0.022357896 0.08781444 -0.068871066
0.051760357 0.0065451036 -0.15535219 -0.038330656 0.09383147 0.0072443145 0.14913009 0.2343038
-0.010150659 0.15368538 0.061025787 -0.13433406 -0.00034067468 -0.07668957 -0.11509675 -0.08155864
0.08934864 -0.03665664 0.14075218 0.10264804 -0.010074739 0.11804997 0.04285673 0.0073371236
-0.04858007 -0.099423744 -0.1532995 -0.0031396216 0.09208509 0.039221503 0.07948554 -0.09341692
0.14171721 0.19802165 -0.10867381 0.031485707 -0.16511868 -0.033964522 -0.18819983 0.18915047
0.20615166 -0.12837002 0.100663394 0.10621759 -0.13820007 0.08359485 -0.15804163 -0.027124828
-0.12233115 -0.25744838 0.15233204 0.0151070515 -0.06070103 -0.23872352 -0.010409184 0.16891277
0.050092056 -0.013463983 0.20169091 0.1386494 0.18812126 0.048990697 -0.18366638 -0.20008245
-0.013294236 -0.05953297 -0.11083605 0.13139306 0.040410966 0.010963673 0.18424056 0.04324961
-0.03430101 -0.13870737 -0.027600061 -0.087845206 0.23886088 -0.21490243 -0.047942087 -0.084179744
-0.08388686 0.123667546 -0.30322075 -0.016267477 0.0052596345 -0.14176963 0.07630395 -0.065580145
0.026716495 0.11027971 -0.1908089 -0.2697304 -0.109760515 -0.08335791 0.0135144945 0.019213986
0.10531891 0.1402901 -0.04629131 -0.03914576 0.045197327 -0.21905279 0.16676977 0.11964504
-0.053293 -0.061353527 0.23619993 -0.07821614 -0.03200678 -0.10576728 -0.24703434 -0.020137392
0.051849496 -0.15994751 0.042526297 0.08995676 0.05709823 -0.1542693 -0.01786936 0.17488067
0.07758059 0.21242091 0.0057503437 0.06619746 -0.023098158 -0.21550623 -0.085507855 0.0855818
-0.04699094 -0.011559551 -0.18315507 -0.13703161 -0.18966436 0.057548605 0.10879345 -0.012552306
-0.013929565 -0.106620684 0.14535166 -0.16381729 -0.18408427 -0.16827454 0.07179477 -0.02269981
-0.15558979 0.07302698 0.22590797 -0.063563555 0.097363465 -0.1735614 -0.038608458 0.027831284
0.21543077 -0.033327606 0.008673885 0.018500583 0.10339333 0.0409035 0.0924633 0.12598705
-0.19670755 0.10012332 -0.12543024 0.10643983 0.19513516 -0.04818754 -0.18325236 -0.19221474
-0.03159546 -0.12990208 0.10134489 0.15243559 -0.07469549 -0.026463289 0.1834082 0.20878686
-0.09416875 -0.13297372 0.024950065 0.16550656 -0.03233493 0.12614256 0.14145622 -0.1131669
-0.15166259 -0.16851063 -0.0053223995 -0.103272915 -0.1783804 -0.042405322 0.10117719 0.038483813
0.08721969 0.09081483 -0.066122755 -0.12799452 -0.002522018 0.08837141 -0.2519868 -0.1296238
-0.19066456 0.07450589 0.09811465 0.19208953 0.17086887 -0.12327104 0.10820355 -0.1491145
-0.030460991 -0.1395922 0.019275293 0.09822975 0.1383088 -0.085875936 -0.054590903 0.10502488
-0.068226814 0.21038613 -0.19930775 0.19380648 0.16482142 -0.16373262 -0.16804679 -0.025487171
0.21734214 0.12755185 -0.0132960845 0.19749612 -0.2119108 -0.078708656 0.033460848 0.074403726
0.09083796 0.14605784 0.116159715 -0.09120448 -0.036439594 0.026840504 -0.039909344 0.18025643

network.2.bias f4 [64]
00000000: a9b6 24be 920a c5bc e1c7 1ebe a488 e23c
00000010: 269c c03d 39dc fbbd cf77 e83d 11f1 1cbe
00000020: ae78 07bd cc20 7bbe d20d 17bd 5b30 733d
00000030: fb8c 71be f5ba dc3d c92e 873d bc20 233e
00000040: 9f01 a0bc 1598 ecbc d12d 7fbe 7240 e9bd
00000050: ade6 30bb 6af9 1dbe 3524 e5bc a302 d9bc
00000060: 8546 2c3e 1e7e 423d 8144 4f3e 1e62 1f3b
00000070: 9044 9fba bdf1 973d faf4 0fbd 5f41 aabd
00000080: 6cf6 96be ed52 56bd f085 66bc fb78 47bc
00000090: 53f7 273d 0455 c8bd 06a5 c4bc 19b6 8b3d
000000a0: 4cf2 71bd ddec 80be b5df e93c 7ae3 dc3d
000000b0: f262 98bd 5698 3ebe 1810 2f3d 262e f6bd
000000c0: 8f7c b5bd e753 4fbd 7265 97be 8d02 83bd
000000d0: 2927 2d3c af01 513d c522 7ebd e791 7dbd
000000e0: 0243 353d 71dc 80be 6e20 b83d 241c 05bd
000000f0: d76a c03d a6ab a23c 1fb1 66bc e131 72bd
-0.16085304 -0.024052892 -0.15505935 0.027653046 0.09404783 -0.122978635 0.11350977 -0.15326335
-0.033074073 -0.2452423 -0.036878414 0.059372287 -0.23588936 0.10777847 0.066007204 0.15930456
-0.019532023 -0.028881112 -0.24919821 -0.11389245 -0.0026992962 -0.15427175 -0.027971366 -0.026490515
0.16823776 0.047483556 0.20240976 0.0024319957 -0.001215117 0.07419155 -0.035145737 -0.0831325
-0.2948488 -0.052325178 -0.014070019 -0.01217484 0.04100735 -0.097818404 -0.02400447 0.06821842
-0.059068963 -0.25180712 0.028549055 0.10785575 -0.07440747 -0.18612799 0.042739958 -0.12020521
-0.08861648 -0.050617125 -0.29569584 -0.06396971 0.010568419 0.051026996 -0.062044878 -0.06190672
0.044253357 -0.25168183 0.089905605 -0.03249754 0.09395378 0.019857239 -0.014080315 -0.0591296

network.4.weight f4 [64, 64]
00000000: ebf2 48be bee4 8b3d a672 053e 087e 66be
00000010: ac1e 5d3e 3fad 2ebe e3dd 9bbd 7bd8 ae3d
00000020: af7b c2bd 410c 37be bd62 ecbd 315d 68bc
00000030: 7681 60be cd40 fabb 9dd7 f53d 5cd0 ec3d
00000040: 62e7 de3c 7c73 373d 356b 0ebe 16af 2dbd
00000050: 66ae 18be 8b1d 33be 216b 14be 823d cf3c
00000060: fc6e 423d 968f 333d c1b5 7d3d d449 043d
00000070: 6896 0b3e ca08 6dbe 3430 79be e10f babd
00000080: 839e 3fbe 9412 b5bc 1466 f7bd 2197 c03c
00000090: af94 61bd 2afd d4bd beb9 363e 3917 a63a
000000a0: ba3f 1a3d 09cd 7ebd 8bcc 05be 26fd c33c
000000b0: 1b18 c2bc dd90 8b3d 9468 a0bd 1a97 c1bd
000000c0: 4fca 053e ef31 143e c794 d13d e257 ef3d
000000d0: df78 bb3d ca5a 8c3d 050e 1d3e d408 8abd
000000e0: 58cd 0c3e e65a 9f3d c00a 9fbd 0d73 9cbd
000000f0: dcc2 2f3e 6ab7 143e 6276 23bd 99e3 603e
00000100: 6172 e5bd 28f3 efbc 5f45 9bbb 4fd7 02bc
00000110: d6a1 aabc ea09 12bd 679d f33d fc33 94bd
00000120: deed ab3d 2bf1 7ebe ac5e e8bd bcdf 9a3d
00000130: 096e 00be f6fa cd3d ce81 993d ad58 f43d
00000140: 4c36 1f3e 006f 7dbc b603 4e3c ce96 45ba
00000150: e743 bdbd a31f 5ebe 291b b53d bee7 dcbd
00000160: bd04 1e3e 8900 c3bd ff0d d2bd ce82 fbbc
00000170: 0ca0 233a 9e67 46be fd5d 00bd 0a1f 033c
00000180: 14a3 6bbd 34c2 b93d 7bf8 26be 9760 543c
00000190: fcfe 29be 9187 8dbe cc32 41be ef02 2bbe
000001a0: 8420 153e 8d79 d43b 467f 96bd 6e48 5c3e
000001b0: 06b8 1b3e 07f7 fb3d efb7 d9bc aa6f 82be
000001c0: 7565 d8bb 8b19 3dbe 9820 52bd 380d 353e
000001d0: 90dc c4bd ddc0 52be 7cd4 7dbe 2e3f 603e
000001e0: 93cb 9bbd b16a 92bd 4901 05bd 85ef 04be
000001f0: 93b9 dbbd ea16 adbd af0d 8bbd f1bc 28be
00000200: f550 e03d cbdb 27be 684f d83d e8e5 9f3d
00000210: 77dc c4bd ba18 553e c382 803e 947a 613d
00000220: 776b df3d 77ec 433e 67be e13d aa3c 02be
00000230: f616 ba3c 1317 173e dd94 513e 6a90 05bd
00000240: 788f 1dbc 31fb 5c3e a616 003d f0b9 3cbe
00000250: 579f 9abd b76d 1b3e 5ded 173e 3100 093e
00000260: 2fc1 a03d 3ae3 bbbd beb5 523c 0bff fcbd
00000270: db67 bc3d 3d7f 803e cec4 6338 103c bebc
00000280: d499 1b3f 8dce 86be 0db0 453d a993 fb3c
00000290: 781e 5a3c 1b7e b83d f075 50be 1aa3 afbd
000002a0: 27eb 60be f723 dfbd 3826 263d 3dff 0cbe
000002b0: 2d2d 753d 0933 1d3d 8554 023e 76f2 8bbc
000002c0: bf19 13be 383b e53d e997 47bd cb6e 573e
000002d0: c984 e5bd a67e 39bb 2dad 2b3e 9a71 efbd
000002e0: 4999 07be bee7 d53d 5cfd 8d3c eb65 5bbe
000002f0: 3df1 88bd 40ca d4bc 705e d83d b6c8 f7bd
00000300: 3926 ecbd ebe1 0cbe 0a34 8d3c fe85 413e
00000310: a67b cabd 8775 ee3d c60a cc3b d749 0c3e
00000320: d4f0 efbb d7a0 543a 657b 343d 219e 883e
00000330: db14 4ebe ac74 043e e23d 203e effa f73d
00000340: b469 e53b 2e54 573c 4f0c 16be 8044 15be
00000350: 42f7 2bbd 63ff 373e 2892 f53d ca0b 0c3d
00000360: ed8e 1f3e 5683 40be 44fc 36be 5170 75be
00000370: b408 2c3e 0a04 043e 871d 46be 859e 92be
00000380: cc10 0fbe 3abf 08be d317 283d 8f21 fc3d
00000390: c26a c1bd 149d 95bd e9ac b73d 56fb 423d
000003a0: 66c8 fa3d ae7c 9cbe 2a47 603a 275c 153e
000003b0: 1961 5e3e f843 10be 8fd5 debd f6e2 0ebe
000003c0: 5504 03be 0ce2 bdbd 4384 4f3d b3f3 6d3e
000003d0: 3388 c4bd 0209 e8bd 3b8a 1b3d a1a1 b9bd
000003e0: 08f8 173e 5adc 0ebd dd62 7abd f855 39bd
000003f0: bffd ee3d 8f24 9f3d ecd7 333e 9d49 063e
-0.19623916 0.068307385 0.13032016 -0.22509015 0.21593732 -0.17058276 -0.07610681 0.08537384
-0.09496247 -0.17875768 -0.1154227 -0.014182375 -0.21924385 -0.0076371194 0.120040156 0.11563179
0.027209941 0.04478787 -0.13908084 -0.042403303 -0.14910278 -0.17491738 -0.14493991 0.025297884
0.047469124 0.043838106 0.061940912 0.03229697 0.13631594 -0.23147884 -0.24334794 -0.0908506
-0.18712811 -0.022103585 -0.12080017 0.023509564 -0.055073436 -0.1039985 0.17844293 0.0012671716
0.03765843 -0.062207256 -0.13066308 0.023924422 -0.023693135 0.0681474 -0.07832447 -0.094526485
0.13065456 0.14472173 0.10233455 0.11686684 0.09153914 0.06853254 0.1533738 -0.06739965
0.13750207 0.077810094 -0.07765722 -0.07639132 0.17164177 0.14523092 -0.03990782 0.21961822
-0.11203457 -0.02929075 -0.0047384943 -0.007985904 -0.020829123 -0.035653986 0.118952565 -0.07236478
0.08394979 -0.24896686 -0.11346182 0.07562205 -0.12541975 0.100576326 0.074954614 0.11930976
0.15548056 -0.015468359 0.012574127 -0.0007537425 -0.09241467 -0.21691756 0.08843071 -0.10786389
0.15431495 -0.095215864 -0.10256576 -0.030702021 0.00062418054 -0.19375464 -0.031339634 0.008003006
-0.05752857 0.090702444 -0.16305725 0.012962482 -0.16601175 -0.2764249 -0.18867034 -0.16700338
0.14563185 0.0064842165 -0.07348494 0.21512005 0.15206918 0.12302976 -0.026576964 -0.25475818
-0.0066038915 -0.18466775 -0.051300615 0.17680824 -0.096123815 -0.20581384 -0.24788088 0.21899101
-0.07607188 -0.07149256 -0.03247193 -0.12981994 -0.10728755 -0.08451636 -0.06789719 -0.16478325
0.10952941 -0.16392438 0.105620205 0.07807523 -0.09612363 0.20810214 0.25099763 0.05504854
0.10909169 0.19133173 0.110226445 -0.12718454 0.022716027 0.14754896 0.20466943 -0.032608427
-0.009616725 0.21580197 0.0312716 -0.18430305 -0.07549923 0.15178572 0.1483664 0.1337898
0.07849347 -0.091741994 0.0128607135 -0.12353333 0.09199496 0.25097075 5.4304306e-05 -0.023222
0.607816 -0.2632946 0.0482636 0.030710058 0.013312928 0.09008428 -0.2035749 -0.08576031
-0.21964704 -0.108955316 0.040563792 -0.1376924 0.059857536 0.03837875 0.12727554 -0.017083388
-0.1436529 0.11192936 -0.048728857 0.21038358 -0.112069674 -0.0028304248 0.1676528 -0.1169159
-0.13242067 0.10444592 0.017332725 -0.21425597 -0.066866376 -0.025975347 0.105648875 -0.120988294
-0.11530728 -0.13758056 0.017236728 0.1889877 -0.09886865 0.1164351 0.00622687 0.13700043
-0.00732241 0.0008111125 0.04406299 0.26683143 -0.20125143 0.12935132 0.15648606 0.12108409
0.007001126 0.013142629 -0.14653133 -0.14576912 -0.04198385 0.17968516 0.11990768 0.03419093
0.15581866 -0.188001 -0.17869669 -0.23968627 0.16800195 0.12892166 -0.19347201 -0.28636566
-0.13971251 -0.13354197 0.041038346 0.12311088 -0.094441906 -0.07305351 0.08968527 0.047602974
0.12245254 -0.30563873 0.0008555526 0.14585935 0.21716727 -0.14088428 -0.10880577 -0.13953766
-0.12794621 -0.09271631 0.050663244 0.23237495 -0.095962904 -0.11329843 0.037973624 -0.090640314
0.1484071 -0.034878112 -0.06112944 -0.045248 0.11669492 0.07770645 0.17562836 0.13114019

network.4.bias f4 [64]
00000000: 4672 003e d725 1d3e aa22 24be 10b1 f83d
00000010: c719 73bd 39cd fe3a b25c 5b3b d037 7fbd
00000020: 027d 133e a25b 24bd 13b7 f03c f1f2 6c3d
00000030: 693d 08bc 1e92 363d f45e afbd 2861 85bc
00000040: 6fbf acba 24f6 57b9 51a6 08bd 6541 1f3d
00000050: c241 c03d 1641 09be ac21 0abe 7afd 64bd
00000060: 848b 25be fc4c 80bd 7d22 5cbd 7c9c 29bd
00000070: ec82 9abb 8413 68be 2ccc 30be 65ba 75bd
00000080: ae6d 113d 886c bc3d 884b e43b 8ee2 06be
00000090: 601d f2bc f647 b2bd 3a78 4ebe 4596 293e
000000a0: b4a3 3fbb 9822 53bd 5f06 0a3a 5429 c7bc
000000b0: 3425 4c3e 90f5 a6bd 9794 cbbd 35f1 263c
000000c0: 25f6 3a3c 157c 4a3d 2bb6 5d3b 44df 0ebe
000000d0: 7f44 e2bd a695 9e3d 8082 9b3c 156f 963c
000000e0: 560f db3d 15be 41bd 4a3c 0cbe 3211 30be
000000f0: aace 593e c616 163d 275c 0abe 300b 07bd
0.12543592 0.15346466 -0.16028848 0.12143147 -0.059350755 0.0019439823 0.0033471999 -0.062309086
0.14403155 -0.04012645 0.029384172 0.057848874 -0.008315423 0.044572942 -0.08563033 -0.01628168
-0.001317961 -0.00020595692 -0.033361737 0.038880724 0.09387542 -0.13403735 -0.13489407 -0.055905797
-0.16166502 -0.062646836 -0.053743828 -0.041409 -0.004715314 -0.22663695 -0.17265385 -0.059992213
0.03550499 0.09200388 0.006967012 -0.13172361 -0.029555023 -0.08705132 -0.2016305 0.1656123
-0.0029241862 -0.051546663 0.00052652316 -0.024311699 0.19936067 -0.08152306 -0.09940451 0.010189344
0.0114112245 0.04943474 0.0033830504 -0.13952357 -0.11048221 0.07743387 0.018983126 0.018363515
0.106962845 -0.047300417 -0.13694873 -0.1719406 0.21270242 0.036642812 -0.13511716 -0.032969654

network.6.weight f4 [64, 64]
00000000: 51dc d8bd 7eb3 193e 0b56 07be 7188 a3bd
00000010: 193c 21be b41b ba3d 691e 76be b142 113e
00000020: 87a0 243c 391b 883d e74c 27bd b1da 32bd
00000030: 1419 c8bd b187 fb3d 7e8a e13c 6f71 aabc
00000040: ee38 0ebc d16f da3d 1723 52be c0f7 b7bc
00000050: 116d 38be 7214 60bc 4cbc 913e 7c75 9a3d
00000060: 6d8a 4bbd 9872 0a3e 2683 203d 8e6d cdbd
00000070: e93e cf3d e6d0 67bb 8f2c 1f3d 867c 40be
00000080: 9cab 233e 7a68 b23d aa96 313e b8a0 353c
00000090: 1168 afbd 985a 8b3d 6c29 e83d dfde 503d
000000a0: 2cdb 80bc ba1a ab3d 8047 79bd 5e67 57be
000000b0: 8eca f63b 3945 e1bc dd15 fc3d bf59 21be
000000c0: cd0a 2b3e 80cb 0b3e 4506 ed3b 032a 963d
000000d0: 61fc 413e 3bd7 db3d 478b 4abe 8b88 0fbe
000000e0: 5509 193d ed83 1f3e 99fe a83d 34f8 163e
000000f0: d301 963c d9f8 d0bd 98b9 6ebe be38 00be
00000100: 11ef 093d 914b 2cbb cbe1 1d3d ccb8 893e
00000110: 3470 ad3d 607a 703d a44c 79be 172d 9bbd
00000120: 42bb 1d3e 1bbd 24be ce01 ce3d ff68 0c3e
00000130: e7ed 9fbd e79e 25be 6bc8 4bbe d1f5 603e
00000140: c9fb 08be ec9a 0fbe 3002 48be d09f 613e
00000150: e710 f43c a0d8 a2bd 01e2 44bd 66e2 713e
00000160: 654a ddbd e78a 54bd 2a9c a93d 74df 8d3d
00000170: 3e47 04be db71 ad3e 4c02 673e 949a eabd
00000180: 473b 1dbe 7f28 b639 8f4c 183e 9a67 9e3e
00000190: 4ebd 5b3e 9d1a 1b3e 8bfa d63c 2607 0e3e
000001a0: bf36 0a3e 9a49 173e 325f 863c 8cc0 62bc
000001b0: bad6 51bc 9e50 3c3a 2138 f13c bf9e 3d3e
000001c0: 4c4f 00be 4661 e53c 9acf 7f3e bfd3 f8bc
000001d0: 972b 83be 89da bdbc 5bff ecbd 5bf4 593d
000001e0: 4341 7abe 1222 023d 0bf3 4bbe 5d31 853d
000001f0: 8980 40be f4eb 83bd ffe6 eabd 96d7 47be
00000200: 2a39 793d 0ed1 783d b959 453e d4bc 053e
00000210: bc60 d8bd 268b 76bd 7751 863e 82ee 183e
00000220: fb41 fb3c 628c f0bc 085b ea3b 8ba3 813e
00000230: e149 14be e576 d73d 4e30 55bd c828 57be
00000240: a371 153e dd0a 7f3d 9ab4 ffbd 8880 82bd
00000250: 2e57 873c 140b c13c 9da8 b9bd d228 83be
00000260: d432 093e 8a06 0f3b db4d 80be 94a7 5cbd
00000270: a57d ab3d 4fd3 7d3e bf6d af3c ad7e a33d
00000280: cb3f 393e e160 16bd 84f9 163e df8f ebba
00000290: 4543 593e ff28 643e 2185 043e 4d14 903d
000002a0: ae46 c7bd 50d4 cf3b 120d 3abe 5a60 f0bc
000002b0: 8c6f 423c 9271 223f aa1e efbd 0700 c2bd
000002c0: ea94 803d f073 363d 9d93 5c3d 1293 763e
000002d0: 5193 ba3e 3689 1a3e 14ae 403d 8283 8f3d
000002e0: 5533 0b3e e89d dabb c4ec 893d 3eae af3d
000002f0: 715a 143e 3e98 7e3e c4c8 4cbe e684 403b
00000300: 57ce 5dbe 1c40 9cba 5b7e b8bd 9c37 98be
00000310: d62f a43d 57db 92be c275 50bd 99ad b5bd
00000320: a3df 26be 75d0 0b3d 6c18 f5bd a0bc 18be
00000330: 95db 043d e39f 18bc edd1 643e c07b 2bbe
00000340: 5765 9abd d6ff 84bd e481 343c 99aa 1d3e
00000350: cdbf bdbe 67e4 433e ea5f 04bd e0ca 29be
00000360: 7e77 aabc 5504 e63d 3f2c 09be 5a54 e4bd
00000370: bdcf 9fbd 71ba 7e3f 3367 843e 1349 1a3e
00000380: 769b 28bd 7035 74be 527e 51be 02a2 f53e
00000390: 4d6b 30be c8db 7a3e 87df b4bd 31f0 3e3d
000003a0: b2a8 823c 449b e2bb 966c 69be c339 853d
000003b0: a4b2 9ebc 012d c93e 5c5e cb3e 000d f0bc
000003c0: 82ab a33d 014f 23be 9648 fdbd 9762 cb3d
000003d0: 47de 153f 0cf4 8fbc fe73 bcbd 668b fdbd
000003e0: bee5 ef3d 56e9 873e 2f8d 7abd b832 2d3f
000003f0: a51d 6bbd c159 5bba bd92 39bd 4c4f 433e
-0.10588897 0.15009877 -0.13216417 -0.079850085 -0.15745582 0.09087315 -0.24035038 0.14185597
0.010048038 0.06645817 -0.040844824 -0.04366559 -0.09770408 0.122817405 0.027531859 -0.020806042
-0.008680565 0.106658585 -0.20521198 -0.022457004 -0.18010356 -0.01367675 0.28463972 0.075419396
-0.04969256 0.13520277 0.039187573 -0.100306615 0.10119421 -0.0035372316 0.038860854 -0.18797502
0.15983433 0.087113336 0.1734263 0.011085682 -0.08564771 0.06804389 0.113360256 0.050993796
-0.01572951 0.08354707 -0.060859203 -0.21035525 0.0075314706 -0.027498828 0.123088576 -0.15756892
0.16703339 0.13651848 0.0072334134 0.07332232 0.18943931 0.10734411 -0.19779693 -0.14016931
0.037362415 0.1557767 0.08251686 0.1474312 0.018311417 -0.10203714 -0.23312986 -0.12521645
0.033675257 -0.0026290158 0.03854541 0.268988 0.08468667 0.058710456 -0.24345642 -0.075769596
0.15403464 -0.16087763 0.10058938 0.13711928 -0.07809048 -0.16173898 -0.19900672 0.21968772
-0.13377298 -0.14023942 -0.19532084 0.2203362 0.029793216 -0.07951474 -0.048067097 0.2362152
-0.10805205 -0.05189028 0.08281739 0.06927386 -0.12917802 0.33875927 0.2255947 -0.11455265
-0.15354644 0.00034743917 0.14872955 0.30938417 0.21458933 0.15146871 0.026242515 0.13869914
0.13497446 0.1477417 0.016402815 -0.013839852 -0.012807542 0.0007183644 0.02944571 0.18517588
-0.1253025 0.028000485 0.24981537 -0.030374406 -0.25619194 -0.023175495 -0.11572143 0.05321155
-0.24438958 0.031770773 -0.19916932 0.06503556 -0.18799032 -0.06441489 -0.1146984 -0.19515833
0.06084553 0.060746245 0.19272508 0.13060313 -0.105653256 -0.060191296 0.26234028 0.14934734
0.03067111 -0.029363815 0.007151965 0.25320086 -0.14481308 0.10520724 -0.05204802 -0.2101165
0.1459413 0.06226622 -0.12485619 -0.06372172 0.016521063 0.023564853 -0.090653636 -0.2561708
0.13398296 0.0021823966 -0.250594 -0.053870752 0.08373574 0.24787639 0.021414636 0.07983146
0.18090741 -0.036713485 0.1474362 -0.0017971954 0.21217068 0.22281264 0.1294141 0.07035122
-0.09730278 0.0063424483 -0.18169048 -0.029342819 0.011867415 0.63454545 -0.116757706 -0.094726615
0.06278403 0.04454416 0.053851712 0.2407954 0.36440518 0.15091404 0.047041014 0.07007505
0.135938 -0.006671656 0.067346126 0.08578156 0.14487626 0.24862763 -0.19998461 0.0029376089
-0.21660744 -0.0011920962 -0.090084754 -0.29729927 0.080169365 -0.28682968 -0.050893553 -0.08871002
-0.16296248 0.034134347 -0.11967549 -0.14915705 0.032435972 -0.009315464 0.22345705 -0.16746426
-0.0753886 -0.06494109 0.011017296 0.15397109 -0.37060395 0.19130097 -0.032318033 -0.16581297
-0.020808931 0.11231295 -0.13395785 -0.11148901 -0.07803295 0.99503237 0.25859985 0.15066938
-0.041163884 -0.2384851 -0.20458344 0.47975165 -0.17228432 0.24497902 -0.08831697 0.046615783
0.01594958 -0.0069154818 -0.22795328 0.06505158 -0.019372292 0.39292148 0.39720428 -0.029303074
0.07991697 -0.15948106 -0.1236736 0.09930914 0.58542293 -0.017572425 -0.09201811 -0.12380104
0.11713742 0.2654521 -0.0611698 0.67655516 -0.057401318 -0.00083675614 -0.045305956 0.19073218

network.6.bias f4 [64]
00000000: c727 1b3d 972d 3f3c 0287 5abd d8af 82bd
00000010: a5e8 8b3d e4ef 9d3d 72c5 d33c 2750 4dbe
00000020: 3ff7 643e 53b6 a0bd bc66 d8bc dda6 ff3b
00000030: 53ef 29bd 74e0 483e 6943 dc3c 752c 353d
00000040: e152 6fbd a3e2 4abd bf36 babd 9942 e9bc
00000050: ea57 b9bd 3140 343d 7da0 b03d 95fc 773d
00000060: fca3 b8bb 9bd6 203e f1ff 383e 3df2 aebd
00000070: 93f3 3a3d 361f 09be 523d 133e 2bd3 89bd
00000080: 4826 ee3d 6c0c b7bc 069a aa3d a8e0 a43c
00000090: b9d6 973d a090 0fbc a0c8 af3d 36a0 dc3d
000000a0: 0065 a03d 074e a0bd c857 e7bd 819e 563d
000000b0: 3e27 653e ca92 83bd 117d 91bb 885f 3a3e
000000c0: 2d57 3ebb ac15 c83d ad1b 07be 5259 88bc
000000d0: 0b4e afbc 3706 803d 55b6 14be 8b6b c1bd
000000e0: a18b c5bc d347 0e3d 88c4 953a 35a6 b0bd
000000f0: b859 db3d 68d9 193e 0b4e ee3d 7ab6 46bd
0.03787973 0.011668584 -0.05335141 -0.06381196 0.06831483 0.07711771 0.025850985 -0.20050107
0.22359942 -0.078472756 -0.026416175 0.007801874 -0.041488003 0.19616872 0.026887612 0.04423185
-0.05842865 -0.049532544 -0.09092473 -0.028474139 -0.090499714 0.04400653 0.08624361 0.060543615
-0.005634783 0.15706865 0.18066384 -0.08542297 0.045642447 -0.13390812 0.1437886 -0.0672973
0.11628395 -0.02234479 0.08330159 0.020126656 0.07414002 -0.008762509 0.08583188 0.10772745
0.07831764 -0.078273825 -0.1129604 0.052397255 0.22378251 -0.06424482 -0.004439958 0.18200505
-0.002904366 0.097697586 -0.13194151 -0.016644154 -0.021399518 0.062511854 -0.14522679 -0.0944434
-0.024114432 0.034736466 0.0011426369 -0.086254515 0.10710472 0.1502434 0.11635979 -0.048513867

network.8.weight f4 [64, 64]
00000000: 3607 2fbd 2d73 1f3e 0c8e b73d 4b0d 80bc
00000010: bd0f 55be e011 463c 5194 083e ab13 ccbd
00000020: 48cb 123d a364 57be c7a5 aabe 95b8 8e3e
00000030: 593b 80be bc7c 643e 2e64 70bd 55b5 233e
00000040: 0583 5bbc 6797 77bc a911 aabd ca76 2f3e
00000050: 804c 16be 9b89 5abd f92e aebd 1a6f e73d
00000060: ca4f 2dbe ec65 9e3c 5669 143e 2517 99bd
00000070: 08a7 0fbe 1a2f 623e 51cd 953d 4ee7 9e3d
00000080: 5528 573d 2abc 1dbe 8a12 31be b8d6 2c3d
00000090: 8b4a d5bd 6e32 cabc 3308 64bc afcf 913d
000000a0: a7ea 203d 3866 343e 9cc8 95bd 44de 88bb
000000b0: 0cc9 0bbe e768 23bd 4ea9 11ba fb0c 6abe
000000c0: fcfc 5fbe 704b 10be 18ea 14be fa26 693e
000000d0: 73bf ef3d fd25 373d 349c 293e f86c ecbc
000000e0: 8071 6abe c45b 063e 7634 bc3d 1a1b c93d
000000f0: 2fdb 053e 34f1 ccbc b0da 3b3d c1e4 89bd
00000100: 041b 35bd 32ad 053c 873a 5dbd 9faa a9bc
00000110: 0c56 7cbc e9aa 5a3e 5880 913d 0173 28be
00000120: dcbc 5b3e 5845 6cbc a973 d9bd d718 24bb
00000130: 21d2 47be da6b 02bd c806 5a3d 03f7 d8bd
00000140: 24c0 d73d b185 943d ae60 ad3d 419c 76bd
00000150: 86be ee3c 3381 283c 8c47 efbd d04f a13d
00000160: b4dd 65be 6a34 56be e90e 53be ebb8 133e
00000170: 5bd2 d13d 8985 783c f24b 233e 8666 02be
00000180: 10b9 cfbd 2310 0e3d 9e78 8bbd d1b2 6fbc
00000190: 4263 e1bb 5728 933d ed50 173d efd8 19be
000001a0: 6c39 de3d e052 f33d 7cba e93d 64a1 5abe
000001b0: af01 403e 5a1c 0a3e 40a1 e6bc 6876 b23d
000001c0: d18f 423e b881 47be 65c0 1dbe 6044 17be
000001d0: 0280 173e fba2 41bc e0b1 ad3d acd6 84bd
000001e0: feea 44be 5eef 423c 716d 47be ce41 bbbc
000001f0: 1c0e 2e3d 1505 9f3d 84df 033e afbe c93d
00000200: 26fc 92bc a483 99bd b41d 7e3e d54c 88bd
00000210: 04b9 14be 72f8 2ebd e505 ec3d 283b 463e
00000220: 64bf 203e 8d7e d1bc 2323 0bbc b91c 09be
00000230: aa5f 80be f6e2 cb3a da76 1e3e 9c17 5bbd
00000240: 2cda 8a3c ffe9 203e e293 543e c750 c3bd
00000250: d9a8 2ebe ae7b 0dbd cebb a53e fa5c d83d
00000260: 3fb0 bc3c 1b20 6cbd cf3c 133e 9126 4bbd
00000270: b55e 603c 0d3a 573e 46f0 173f 443a 943d
00000280: fb3e 2a3d 57ba 04be aa22 9abd b3df 283e
00000290: bb1b 953d 8775 ee3d efc7 b53d c4f2 863d
000002a0: c96b 623d e1b3 89be 251d d1bd f556 183e
000002b0: c336 703e 70eb a83e 4778 23be abb7 67bd
000002c0: 35da 0d3b 3318 76be 4744 123e 6907 0ebe
000002d0: befb 23be 7d5a 65be ab2a 1f3e afed 5bbe
000002e0: 0b31 c73d 2ea1 0cbe b5ec ea3d b214 f2bc
000002f0: d9d9 82bd ab61 4b3e 5eb7 8cbe ceb6 563e
00000300: 98cf ad3d 4832 8a3c 6d2a f03d 2ebe 5e3e
00000310: 630b aabe 1561 9f3d 35d6 cf3c f851 b1be
00000320: 4350 b23e 7b36 453d 1964 42be 9abd 8bbe
00000330: 3913 2e3e 7af9 253e 0f90 2a3e 06c3 ab3e
00000340: 3f84 fabd 297f cfbb b83b 5a3e 859f 223c
00000350: 8c48 fe3d cce0 cf3e ca3c d03d fe6a 883e
00000360: d784 973d ff1d e5bd 5b2b 0d3e e325 823e
00000370: 7485 b43e 98c7 4bbe 3471 ebbe 12f0 0f3e
00000380: 9367 b63d b301 f6bd 6e83 a0bd d8b0 2b3d
00000390: 38d6 1e3c b584 8abc 116d 543e ced1 07be
000003a0: a3c8 803c 4255 c7bd be5b 34be 33b4 393e
000003b0: eade ca3c f6ea 1dbe 0c66 55be ec87 093e
000003c0: 95b4 36ba f82c 2a3e e1bb af3d 5909 0e3c
000003d0: 8254 7ebd b728 1c3e 636c 173e 72fe 353e
000003e0: 62cc a9bb a5b2 f0bc 0ef6 dabd 676e 41bd
000003f0: 6c8c 4fbc a40a 34be 8c8d c13d 32a4 8d3e
-0.042731486 0.1557128 0.0896264 -0.015631339 -0.20806785 0.012089223 0.13337828 -0.09964689
0.035838395 -0.21034484 -0.33329603 0.278752 -0.2504528 0.22313207 -0.05868929 0.15987141
-0.013397937 -0.015111781 -0.0830415 0.17135158 -0.1467762 -0.053353887 -0.08505053 0.11300488
-0.16924968 0.01933571 0.14493307 -0.074751176 -0.14028561 0.2208828 0.073145516 0.077589616
0.052528698 -0.1540381 -0.17292228 0.04219696 -0.104146086 -0.02468225 -0.0139179705 0.071196906
0.039286282 0.17617118 -0.07313654 -0.0041768868 -0.13650912 -0.039894965 -0.00055565394 -0.22856514
-0.2187385 -0.14091277 -0.14542425 0.22768775 0.11706438 0.044713963 0.16563493 -0.028860554
-0.2289486 0.13120943 0.09189694 0.09819622 0.13071893 -0.025017358 0.045862854 -0.067330845
-0.044215217 0.008158969 -0.054010894 -0.020711241 -0.015401375 0.2135426 0.07104558 -0.1645012
0.21458763 -0.01442083 -0.106177635 -0.002503922 -0.19513752 -0.031841137 0.053229123 -0.10593989
0.10534695 0.07252062 0.08465706 -0.06020761 0.029143583 0.01028471 -0.11683568 0.07876551
-0.22447854 -0.20918432 -0.20611157 0.1442601 0.102452 0.015168556 0.1594694 -0.12734422
-0.1014272 0.034683358 -0.06810115 -0.0146300355 -0.0068782875 0.071854286 0.03694241 -0.1502416
0.10850796 0.118810415 0.11412522 -0.21350628 0.18750642 0.13487378 -0.028153062 0.087139904
0.19000174 -0.19483078 -0.15405424 -0.14772177 0.14794925 -0.011818643 0.084811926 -0.06486258
-0.19230267 0.01189789 -0.19475342 -0.022858527 0.042493924 0.07764641 0.12878233 0.09850823
-0.0179425 -0.074958116 0.24816018 -0.066552795 -0.14523703 -0.042717405 0.11524562 0.19358504
0.1569801 -0.02557304 -0.008492264 -0.13389863 -0.25072986 0.001555531 0.15475026 -0.053489313
0.016949736 0.15714262 0.20759538 -0.095368914 -0.17056598 -0.03454178 0.32369846 0.10564609
0.02303326 -0.057647806 0.14378665 -0.049597327 0.013694455 0.21018238 0.59351003 0.07237676
0.04156397 -0.12961708 -0.07526143 0.16491584 0.0728068 0.1164351 0.08876025 0.065892726
0.055278573 -0.2689505 -0.10210637 0.14876921 0.2345839 0.32992125 -0.15963851 -0.056571644
0.0021644954 -0.24032669 0.14283858 -0.13870014 -0.16014001 -0.223978 0.1554362 -0.21477388
0.09726151 -0.1373336 0.114709295 -0.029550884 -0.063892074 0.19861476 -0.27483648 0.20968172
0.08486861 0.01686968 0.11726842 0.21752235 -0.33211812 0.07782189 0.025370697 -0.3463285
0.3482686 0.04814766 -0.18983497 -0.27293092 0.1699952 0.16208449 0.16656516 0.3354723
-0.12232255 -0.0063322973 0.21311843 0.009925728 0.12416181 0.40601194 0.101678446 0.2664413
0.07398384 -0.11187362 0.1378607 0.2541953 0.35258067 -0.19900358 -0.45984805 0.14056423
0.08906474 -0.12012043 -0.07837568 0.0419167 0.009694628 -0.016908983 0.2074473 -0.13263628
0.015720671 -0.097330585 -0.17613122 0.18135147 0.024764497 -0.15421662 -0.20839709 0.13430756
-0.0006969658 0.16618717 0.08580757 0.008669221 -0.06209231 0.15249906 0.1478744 0.17772844
-0.005181835 -0.02938206 -0.106914625 -0.04722443 -0.0126677565 -0.17582184 0.09450826 0.27664334

network.8.bias f4 [64]
00000000: afc7 ad3d 2656 c8bd 0e1d 84bc 8f80 09bd
00000010: 1ebf 2fbe 084b 883d d5bb 9ebd 1587 543d
00000020: 7957 1c3d a73a 0ebe 2119 8abe 5606 3bbd
00000030: 4913 163c 6e99 98bd 5488 c03b 2ff7 55be
00000040: 3f9d b7bc 0518 1dbd ad5a 113d e258 b7bb
00000050: 36fb 163d abc8 ae3d d5b6 3bbd b480 b83e
00000060: f8fd 92bd 862b 273e f2e4 32bd c62a 53bd
00000070: bc8c 363d b45d eabc 9997 0cba 2a7f 12bd
00000080: 357f 183d 2490 ac3c 28e7 a03d f7fe 45bd
00000090: 4974 e1bc f364 f2bd bc5c 833c 9003 1e3c
000000a0: bf66 fabc 7d25 833d 39ed a53b f515 b73b
000000b0: 4c3a 63bd 0ccd 2abd 07f6 8c3b 4600 0f3d
000000c0: ad9a a43c 59c5 a1bc f0e2 a5bd 9042 853c
000000d0: 9435 9cbd 0384 46bd 46b5 8dbd 371e 93bd
000000e0: 0500 283d 531a 443d fab5 98bc 19f3 b13d
000000f0: 707f fe3c 5f7f 563c 2b5f cc3d f233 463e
0.08485352 -0.097820565 -0.016127136 -0.03356987 -0.17162749 0.06654936 -0.0775067 0.051886637
0.038169358 -0.13889562 -0.26972297 -0.04566034 0.009159871 -0.074511394 0.0058756266 -0.20895074
-0.022413848 -0.038352985 0.035486866 -0.0055953125 0.036860667 0.08534368 -0.04582866 0.36035693
-0.07177347 0.16325197 -0.04367537 -0.051554464 0.04456781 -0.028609134 -0.0005363166 -0.035765804
0.03723069 0.021064825 0.078565896 -0.048338857 -0.02752127 -0.11835661 0.01603543 0.009644404
-0.030566571 0.06403635 0.0050636795 0.0055873343 -0.055475518 -0.041699454 0.0043017897 0.03491237
0.020093286 -0.019747423 -0.080999255 0.016267091 -0.07627407 -0.04846574 -0.06919341 -0.071834974
0.041015644 0.047876667 -0.01864146 0.08688945 0.031066626 0.013091891 0.09979089 0.19355753

network.10.weight f4 [5, 64]
00000000: be3a 8e3d ae4c 2ebe 635a 663d 3814 87bd
00000010: a614 c9be 51ec 21bd 8b88 103d ec02 48bd
00000020: 814a 1d3d ccb8 f03d af6e 7dbe 8db1 163d
00000030: 227b 933e 7910 e2bd 4619 28ba c3d1 f1bd
00000040: 5e41 043d e169 21bd eedf 053e 0b77 c63e
00000050: 7080 8dbe 1102 583e dfb5 4abd b24c 233e
00000060: fd77 113d cfc2 06bb 8ebe b23d ef59 613c
00000070: bd5b bb3c 0753 2f3e 49ab 9ebe 001a 2ebe
00000080: 4cdc 03be 7958 6abd 2c9b 573e fdce 08be
00000090: 0f35 46bd 66b6 c03d 693a 513e bbad 15bd
000000a0: f5d3 773e dd98 913d 5a5a 1ebe 021c d33c
000000b0: 819e 4dbe fe9e ccbd 6366 f03e 185f 6abd
000000c0: 0b22 00bd 4068 6fbc 634d 1bbe 1c81 fd3d
000000d0: 30d2 f63d 53ad 37bd ec98 65bd d431 23bd
000000e0: 5fd8 8f3e 6d6c 313e 8772 643d 5cdf 95bd
000000f0: 3668 bc3d db47 b8be c493 123d e954 b2bd
00000100: 3177 4fbe cd4f 5cbd ed0c 0c3e 48ec ae3e
00000110: fd04 75be ab0d dbbd feed b9bc 6ab2 2bbd
00000120: 1136 183d abd0 0b3e 622d 2b3e f7ae 01be
00000130: c7ca 8c3d 6a81 d4bc 1c1b eebd b6b5 413e
00000140: 52ad 303e eb6e 613e c94c 183e 9b20 5bbc
00000150: 0e04 323b 7494 35bd 2c42 503e 584d 9e3e
00000160: 3100 bb3c aecd b83d a68a 15bd 5b8b 3bbe
00000170: 1333 7dbd 73e3 f03d ea37 5a3d 50b0 7dbd
00000180: 6d02 f33d 26e3 7dbd 4f28 013d 8285 813d
00000190: ae41 223c c039 123d 5d74 443e 7373 5ebc
000001a0: cb78 b43c 8808 433d a06c 603e e1a4 81bd
000001b0: 4eb1 e83b 3984 d4b8 c91c 563a 2617 ba3d
000001c0: ccec aebe de98 3d3e 522d 1b3d 3b49 eebc
000001d0: 35dc 613d e5ea 033e a906 073c 34ee 6e3b
000001e0: 1bc4 f83c 2949 9bbe 4f4f b8bc 8138 023e
000001f0: 188b 1a3d f45a 9b3b 6850 c83d 144b 58bd
00000200: 6ede fd3b 92df b33b a63b 0a3e 28b9 ffbd
00000210: 90ef 6e39 0c63 c4bb 23f3 5bbf f8c7 4fbf
00000220: cb66 56be 049f 41be 0206 f2bd bdf3 e6bd
00000230: 027b 3abf d5b2 f7be fb64 2cbe d2c3 94be
00000240: 8548 4ebe 8b8f b7be 6b3f a8be 26f2 31be
00000250: 9e88 1dbe 9a9d dc3d 795d 1fbf db47 03bf
00000260: 70b4 aabe 8755 d73e 02ba fcbb 0cc5 82be
00000270: ddf3 8d3d 7297 c33d 6319 243e 4224 c0be
00000280: 2421 94be 305e 84be 121f 303d d3c7 123f
00000290: 7f0c 303e 574e 3d3d 0b15 29bf 7d3b 41bc
000002a0: 7b8a cfbd 0dcb 24be 3c28 bd3e c8b1 88bd
000002b0: 302e 13bf 9ef9 73bf efc7 023e 8894 b4be
000002c0: 6020 10be b80d 7f3e 87d4 093f b892 e2be
000002d0: 73ed 163e 7ab0 143e bd63 67be f55d 20bf
000002e0: 4606 41bc a5b8 76be 4a1c 6abe a6f8 873f
000002f0: ca09 293e a508 9c3d 6cb0 e83d 44e4 723f
00000300: 72ad b83e 5fda 363e 4489 713e ed77 01bf
00000310: cdf0 28be 5405 c3be fd13 b7bd 4b7b 07be
00000320: 3b4d 45be f895 11bf 113d e6bd 54da 8ebd
00000330: ade5 0fbf 07f6 5e3d 48ae 3cbe 6883 193d
00000340: dcd2 6b3d 6089 013f c429 3ebe 501c b3bf
00000350: 6e22 adbd 34a8 c93e 932d 873d 0ca1 85be
00000360: 0451 02be 94e9 bcbe 630a 91be 0752 02be
00000370: 70e8 16bf 5941 213f b794 c6be e811 883d
00000380: 458a fdbe 81af 85be 97df 00be ff45 22bf
00000390: 25b4 e3be f183 a63d c018 073f 339e a93d
000003a0: 9ebf 43be cc92 313f 3e56 323e f048 73be
000003b0: e94b f9be 9706 983e 698f 13bf 3916 1c3d
000003c0: 1427 2f3f 12ef 203e b489 c6bd 7b83 353c
000003d0: 5dd8 5abe 82a3 523e 6d4c 01bd b096 96bd
000003e0: befc 57be 047b 753e c5fc 0c3e 6626 9ebc
000003f0: 775e e4be 13f2 823e e4b1 63be df4e a23d
0.06944798 -0.17021438 0.056238543 -0.06595653 -0.39273566 -0.03953201 0.035286468 -0.04883091
0.03840113 0.11753997 -0.24749254 0.03679042 0.2880488 -0.11038298 -0.00064124574 -0.11807587
0.0322889 -0.039407615 0.13073704 0.38762698 -0.27637053 0.21094538 -0.049489852 0.15947226
0.03551482 -0.0020562892 0.08727752 0.013754352 0.022870893 0.17121516 -0.30990055 -0.17002106
-0.12877005 -0.05721328 0.21055287 -0.1336021 -0.048390444 0.0940979 0.20432438 -0.036542635
0.24201949 0.071092345 -0.15464154 0.025770191 -0.20079996 -0.09991263 0.46953115 -0.057219595
-0.031282466 -0.0146122575 -0.1516624 0.12378141 0.12051809 -0.04484303 -0.05605404 -0.03984244
0.28094766 0.17326517 0.055773284 -0.07317993 0.09199564 -0.3599232 0.03578545 -0.087076016
-0.20260312 -0.05378704 0.13676806 0.34164643 -0.23927684 -0.10695966 -0.022696491 -0.041918196
0.037160937 0.1365382 0.16716531 -0.126644 0.06874614 -0.025940616 -0.116262645 0.18916973
0.17253616 0.22014968 0.14873041 -0.013374473 0.0027163061 -0.04433103 0.20337743 0.30918384
0.02282724 0.09023605 -0.03650918 -0.18314879 -0.061816286 0.117621325 0.05327598 -0.061935723
0.11865697 -0.061984204 0.031532582 0.06324293 0.009903355 0.035699606 0.19185014 -0.01357733
0.022030255 0.047615558 0.21916437 -0.06330276 0.0071012145 -0.00010133576 0.00081677415 0.090864465
-0.34165037 0.18515345 0.037885018 -0.029087653 0.055141646 0.12882574 0.008241334 0.0036457898
0.030366948 -0.30329254 -0.022498755 0.12716867 0.037730306 0.004741067 0.09780961 -0.052805975
0.007747463 0.005489298 0.13499317 -0.124864876 0.00022786693 -0.0059932526 -0.8591787 -0.81164503
-0.2093765 -0.18908316 -0.11817552 -0.11276958 -0.72843945 -0.48378626 -0.16835396 -0.2905565
-0.20144852 -0.35851702 -0.32860884 -0.17377529 -0.15384147 0.107722476 -0.62252 -0.5128152
-0.33340788 0.4205744 -0.0077126035 -0.2554096 0.06931279 0.0955037 0.1602531 -0.37527663
-0.28931534 -0.2585311 0.04299838 0.5733616 0.17192267 0.04621729 -0.66047734 -0.011793968
-0.10133835 -0.16093083 0.3694476 -0.06674534 -0.5749235 -0.9530276 0.12771581 -0.3526957
-0.1407485 0.24907577 0.53839916 -0.44252563 0.14739017 0.14520445 -0.22596641 -0.6264337
-0.011781281 -0.24093874 -0.22862354 1.0622756 0.1650764 0.07618836 0.11361775 0.94879556
0.36069828 0.1785674 0.23587519 -0.5057362 -0.16498108 -0.38090003 -0.08939359 -0.13230626
-0.19267742 -0.5686946 -0.11242116 -0.069752365 -0.5620983 0.05443385 -0.18425858 0.037478834
0.057574138 0.5060024 -0.1857062 -1.3993015 -0.084538326 0.3938614 0.066004895 -0.26099432
-0.12726218 -0.36896956 -0.28328237 -0.12726603 -0.5894842 0.6299034 -0.38785335 0.0664404
-0.49519554 -0.2611046 -0.12585293 -0.63388056 -0.44473377 0.081306346 0.5277214 0.08282127
-0.19116065 0.6936462 0.17415711 -0.23758292 -0.48690727 0.29692528 -0.576407 0.03810713
0.68419003 0.15716198 -0.096942335 0.011078711 -0.21371599 0.20570186 -0.031567026 -0.0735296
-0.21092507 0.23972708 0.13768299 -0.01930542 -0.4460332 0.25575313 -0.22235829 0.079252

network.10.bias f4 [5]
00000000: 5419 013f 7952 81be c427 933e d93b 45bd
00000010: b084 b33d
0.5042927 -0.25258234 0.28741276 -0.04815278 0.087655425
