Ansys/data/ansys_model.pth (torch, 90484 bytes, 14 tensors)

network.0.weight f4 [64, 2]
00000000: 2804 233e da93 b9be caf6 763e 2ce5 73be
00000010: 0daf 363e c5d3 e9bc a423 17be c7eb 9ebd
00000020: 0f70 953e 4ee7 5fbe 1939 d53e d106 84be
00000030: 5e48 923e 036c 82be 3be8 1fbd 00ee 71be
00000040: cab6 a3be 640e 273f d01b 8e3e 8741 e83d
00000050: 344e bbbe 418c 2cbe 0782 993e 041c 433e
00000060: 8f2d 7c3d 6ac4 0b3f 669e 38be 1b9d 9c3e
00000070: ed5a 86bc 35a4 ebbe 5c0d 9b3e 24c8 90be
00000080: 582b f8bd 60b7 afbe 7522 49be f02d e03d
00000090: 7e59 44be 2dc7 67be db9b cabe bf4e db3e
000000a0: 3457 dfbd 6c25 443f ca79 be3e 96b1 673d
000000b0: 4407 72be 5879 f0bd b679 c6bd e1a0 593c
000000c0: 353f 883b 8c3f 62bd 80f2 90be 45bc ff3e
000000d0: 7aae 6f3e 5457 5bbe 9671 4d3e 8469 0cbd
000000e0: a822 603e cbaf bcbe cb78 7bbe fdde a9be
000000f0: aa35 0fbe 3030 afbd 8ef4 243d 0d88 49bd
00000100: bee7 2e3e 743b bf3e e183 ddbd ce59 e8be
00000110: e2d9 b93e f317 83be eb02 5a3e 3868 1dbf
00000120: f7ea 983d 0dd4 7f3d 6392 95be d61c 4ebb
00000130: 2aca 57be e45f e7bc 9d0a 9d3d 8031 d6be
00000140: 17cf 7a3c 59da f33e f9d6 aebe 7d04 ec3e
00000150: 52f4 26be 18bd 01bf bb19 53be d5a2 0c3c
00000160: 6f10 ce3d 8c06 523e 4fd0 553e bc8b 7e3d
00000170: 9799 f33c d172 cc3c 297a 87be 2723 48be
00000180: d78d 2c3e 635b 03be 8e20 62be ddf7 783d
00000190: 6ad9 01be 63e6 893e 8d22 1ebe 9a6b e7bd
000001a0: 9a74 0a3d c7fd c33e fd84 023e 450d 143e
000001b0: 0a69 c1be 5ed3 143d 4913 95be 8561 3f3d
000001c0: b40e 923e 07d2 653c 4cef 1abd cc18 95be
000001d0: 7b4a 753d 57f6 05bf bd92 6fbd c947 1ebe
000001e0: d082 25be 9e70 7b3e b264 0ebe 04ad 9ebd
000001f0: e567 8e3d a5bc 02bf 0211 d93e 4a10 10bf
0.15919554 -0.36245614 0.2411758 -0.23817891 0.17840214 -0.028543362 -0.1475969 -0.07759815
0.29187056 -0.2186558 0.41645125 -0.2578645 0.28570837 -0.2547303 -0.03903983 -0.23625946
-0.31975394 0.65256333 0.27755594 0.11340623 -0.36583102 -0.16850378 0.29982015 0.19053656
0.061566886 0.5459658 -0.18029174 0.30588612 -0.016400779 -0.46023718 0.3028363 -0.28277695
-0.12117642 -0.34319592 -0.1964205 0.10946262 -0.19174764 -0.22634573 -0.39572033 0.42833516
-0.109053046 0.766196 0.37202293 0.056565844 -0.23635584 -0.117418945 -0.09691183 0.013282985
0.0041579255 -0.055236384 -0.28310013 0.49948326 0.23406401 -0.21420032 0.20062861 -0.034280315
0.2188822 -0.3685287 -0.24557798 -0.3317794 -0.13985315 -0.08554113 0.040272288 -0.049202014
0.1708059 0.37350047 -0.108161695 -0.45381016 0.36299044 -0.2560421 0.21290176 -0.6148715
0.07466691 0.062458087 -0.29213247 -0.0031450293 -0.21073213 -0.028243966 0.0766804 -0.4183464
0.015308163 0.47627524 -0.34148386 0.46097174 -0.16304138 -0.5067916 -0.20615284 0.008583744
0.10061728 0.2051031 0.20880245 0.06214498 0.029736323 0.024957092 -0.26460388 -0.1954466
0.16850983 -0.1282783 -0.22082731 0.060783256 -0.12680593 0.26933584 -0.15442868 -0.1129982
0.033802606 0.38279554 0.12746044 0.14458187 -0.3777545 0.036334388 -0.29116276 0.04672386
0.28526843 0.014027125 -0.037825868 -0.2912048 0.059885483 -0.5232901 -0.05848955 -0.15457071
-0.16163182 0.24554679 -0.139056 -0.07747844 0.0695341 -0.510691 0.42395788 -0.56274855

network.0.bias f4 [64]
00000000: 36b4 b03d 8ffe f5ba 5bd8 34be eb9d 6d3e
00000010: cf6e d6bd b104 d5bd 3da1 eebd b7ba b63d
00000020: dc80 c2bd 7fa1 ddbd 782d e73e 21c0 bebe
00000030: 3bfe 99be 8197 ff3d 9293 443e 4e60 46be
00000040: bda3 f83d b58c 0b3e bbdb 853e 974e a83e
00000050: c2bc 5abe 6f0d 653c cc8a 513e 489b 783d
00000060: 8f7b 8d3e 5a7e 493e aa8d 2fbe 7809 49be
00000070: 46fa 0fbd 3a14 cc3e ca36 863d 1383 f8bd
00000080: 1616 94be c6a8 883e ef25 06bc a87b 233d
00000090: 4898 2ebe 2186 833e bcde d83d d0c3 903e
000000a0: 5812 c0be c64a 3d3e 20f8 803e 8c59 1c3e
000000b0: 93ed 2bbe d2fd 84bd b639 7cbd 061f 893e
000000c0: 5063 b6bd 931f 563e 1b35 ee3d 7e86 383e
000000d0: f9a2 83be b17d b5be 5b04 223d 5d91 313e
000000e0: bde1 7ebe 31dd 1c3e a4c9 7f3e 4dd1 39ba
000000f0: 027a 143e 1d3e 593e e3d9 423e 376e 09be
0.086281225 -0.0018767881 -0.17660658 0.23204772 -0.10470354 -0.104012854 -0.116518475 0.08922332
-0.09497234 -0.108218186 0.45151877 -0.37255958 -0.30076775 0.12480069 0.19196919 -0.19372675
0.121406056 0.13627894 0.26144204 0.3287246 -0.21361068 0.013980254 0.20463103 0.060694963
0.2763333 0.19677106 -0.17143884 -0.19632518 -0.03515079 0.39859182 0.06553419 -0.121343754
-0.289231 0.26691264 -0.008187755 0.03991285 -0.17050278 0.2568827 0.10589358 0.28274393
-0.37513995 0.18485555 0.25189304 0.15268534 -0.16789846 -0.06493725 -0.061578475 0.26781482
-0.08905661 0.20910482 0.11631223 0.18020055 -0.25710276 -0.35447457 0.039554935 0.17340608
-0.248908 0.15318753 0.24979264 -0.0007088378 0.14499667 0.212151 0.1902843 -0.1342095

network.2.weight f4 [64, 64]
00000000: acb3 2c3d 811f 56be deb9 3abe dd71 2cbe
00000010: f1ba 4f3e 3911 05be 9be6 41be 56b9 863d
00000020: c7fc 9c3e c04b f8bc 1bb5 e2bd 4575 b13d
00000030: b098 ad3e d19c 0ebe 832d 7cbe 29e1 45bb
00000040: a166 d13d 6f2d 273d 1fa8 9bbd 7f31 513e
00000050: dd9f d93e 2fdb 373e 7dac 313d 61e3 143e
00000060: 482e 0ebe 1ed8 28bd f233 d5bd 9b10 cdbd
00000070: fa74 22bd 28c5 87bc c0d3 2fbd 8d84 053e
00000080: 9d8b b03e 2415 81be f873 3bbe fa06 b1bd
00000090: e7a7 2b3d dfd8 1abe 87da 67bd 7dbf 02be
000000a0: 38d3 623d 2bc9 7abd bc9e dbbd 9a64 263d
000000b0: bb46 c3bc d9ad cb3d a0fb f7bd f916 8bbe
000000c0: 130e e93c 43b2 3f3e 71d3 0e3e 605b 563e
000000d0: 66de bb3e a60c 5c3e bba7 a1bd dcdb 82bd
000000e0: 1e54 a23c 7c75 233e 060b 20be 54dd e13c
000000f0: 6bd7 3e3d 45d3 bebd 0a71 21be 841e e2bc
00000100: 9da0 3fbd 474d eabd 5b3c 4ebd dff2 d1bd
00000110: ed54 513e 216b 0fbe 7661 4b3c ab56 24bd
00000120: 8ca0 90be 0dd8 8f3d 1cac 16be 02e5 843d
00000130: 9770 9d3d 9513 4fbe ce54 d6bd b98b 3cbd
00000140: cb2c 613d 22ef 58be de5c c83d cf10 b1bd
00000150: c3f4 91bd 7d17 63be 80a6 2dbe 29b7 a63d
00000160: 4f02 00bc 9fa4 71ba 2248 27be ab26 8c3d
00000170: 2781 373e 8699 d1bd dc8e 2c3c b631 603e
00000180: 1600 bcbd 76d3 fb3d 4376 1bbe a112 0bbd
00000190: 2c32 39be db64 26be 9580 083d c80b 2dbd
000001a0: e209 15be 95fb c6bd ab45 123e d524 693e
000001b0: 9878 70be ad8c a93d c3dc 093d 6c0a e23d
000001c0: a570 08be b72b 52be 93d8 893c 2bb0 97bd
000001d0: e29b 923b 2741 703e 36ee 0e3e 3b02 8abd
000001e0: 1535 383d e95d f13d a131 b0bd fa24 7f3e
000001f0: ecfa 093d d663 67be 1344 ad3d 4f3a cb3d
00000200: 0fbb 33bd 2051 2e3d 7c88 25be 5f6a b3bd
00000210: a46e 323e c039 14be f649 d2bd e894 11bb
00000220: 016e d7bd 91a9 2f3d 93a5 bf3d 7dd7 37be
00000230: d776 3a3e e3ce d4bd e510 593c 9d2d f6bc
00000240: 682d 15bd 7e12 2d3e 8faf d83c 18f5 1fbe
00000250: 258c 673e ce16 1fbd 2281 fb3d 6b86 53be
00000260: 6507 98bc 4842 f3bc 83e4 213e defa 583e
00000270: 38ee 34be 117a 403d cb08 f33c b19d 0abe
00000280: 5cf3 203e 9a20 b3bb b2f2 5f3d f98a 693d
00000290: 3e4e 25be 1a6e 013d f24c c8bd 1751 12be
000002a0: 94f3 543e 9ae5 433e 944a aa3d 0e93 56be
000002b0: f25f 2c3e edf6 4e3e 3c6a 90bd 0893 f13c
000002c0: 06f3 0a3e fa2e f8bd 85c7 d9bd d3be f13d
000002d0: 8d02 7fbd 4322 63bd 7103 fbbd 0369 b6bc
000002e0: f536 a5bd 23c8 4bbd 9c11 0fbe 975f c93d
000002f0: 8343 9b3d 877b 7f3c 57af 68bc 1bf8 a9bd
00000300: 9a1e e33c 1c1b 6a3e aaae 453e 6a16 06be
00000310: b921 813d 9bb6 d43d 75c7 ee3c 3673 3cbe
00000320: 72ab 1bbe 5973 183e bef9 633e 4ecb ecbd
00000330: 3990 20be c86e 0d3e 4a9a ab3d 0a62 cb3d
00000340: b177 be3d 39e6 12bd 5dfa 253e 9103 27be
00000350: 48e6 503d b03a 22bd 4473 3c3e 2871 5abe
00000360: bd53 0d3e 32b2 273e caed 77bb 9955 f0bc
00000370: 468f 413d 2316 c6bc fcda 623e 4de1 833d
00000380: 4d51 75be 4f15 a4bd b8a9 bd3d 6015 6e3e
00000390: 5b5e aa3c 0171 95bd b8a1 d7bd 5837 bf3c
000003a0: b8a5 ac3d f177 8ebc 3d60 563e 2c39 85bd
000003b0: ddef 54be a31b 6e3e 84de 3d3e 5fa6 d73b
000003c0: 06fa 7c3d b8f6 3cbe b53f 33bd d70b 4cbe
000003d0: 1f79 e0bd 7260 b0bd 7b72 c0bd 1bcd 77bd
000003e0: 2c03 ff3d 791c 8b3d a2c8 2dbd dbf6 babc
000003f0: 0271 80bd df82 f73d 7441 e73d 7ce8 08be
0.042163536 -0.20910455 -0.18234965 -0.1684031 0.20286156 -0.12994851 -0.18935625 0.06578319
0.30661604 -0.030309558 -0.110696994 0.086649455 0.33905554 -0.13927008 -0.24626736 -0.003019402
0.10224653 0.040814813 -0.07600426 0.20429038 0.42504779 0.17954706 0.04337739 0.14539863
-0.13884842 -0.04122173 -0.104102984 -0.10012933 -0.03966234 -0.016573504 -0.04292655 0.13038845
0.34481516 -0.25211442 -0.18305957 -0.08643909 0.04190817 -0.15121792 -0.05660489 -0.1276836
0.055377215 -0.061227005 -0.107236356 0.040623285 -0.023837438 0.09945268 -0.121085405 -0.27165964
0.028449094 0.18720345 0.13947846 0.20933294 0.36693114 0.214892 -0.0789332 -0.06389591
0.0198155 0.15962785 -0.15629205 0.027571358 0.046592157 -0.0931764 -0.15765777 -0.027602442
-0.046784032 -0.11440521 -0.05035053 -0.10251402 0.20442553 -0.1400571 0.012413373 -0.040121716
-0.28247488 0.0702363 -0.14714092 0.06488992 0.076874904 -0.20222314 -0.10465394 -0.046031687
0.05497436 -0.21184972 0.09783338 -0.08645784 -0.07126763 -0.22176929 -0.16958046 0.08140404
-0.00781305 -0.0009217951 -0.1633611 0.06843313 0.17920361 -0.102343604 0.010532107 0.21893963
-0.09179704 0.12296192 -0.15181832 -0.033953313 -0.18085545 -0.16249411 0.03332575 -0.042247564
-0.14554551 -0.09715954 0.14284389 0.22767957 -0.23483503 0.08278785 0.0336578 0.11037144
-0.1332422 -0.20524488 0.016826903 -0.07406648 0.004474149 0.23462354 0.13958058 -0.06738707
0.044972498 0.1178549 -0.08603216 0.24916449 0.033686563 -0.22596678 0.0846025 0.09923231
-0.043879565 0.042557836 -0.16165346 -0.08760523 0.17425019 -0.14475155 -0.10268013 -0.0022214
-0.105190285 0.04288632 0.09357753 -0.17953296 0.18209396 -0.10391023 0.013248657 -0.030051047
-0.036420256 0.16901585 0.0264509 -0.1562084 0.22612055 -0.038840108 0.122804895 -0.20656745
-0.018558213 -0.029694691 0.15809827 0.21189448 -0.17668998 0.04699141 0.029667279 -0.13536717
0.15717834 -0.005466533 0.05467481 0.0570173 -0.16143128 0.03159914 -0.09780301 -0.14288746
0.20796043 0.19130555 0.08315006 -0.20954534 0.16833475 0.20211382 -0.070515126 0.029489055
0.13569269 -0.12118335 -0.106337585 0.11803975 -0.062258292 -0.055452596 -0.12256516 -0.02226687
-0.08067123 -0.049751412 -0.13971561 0.098326854 0.07581236 0.015593416 -0.0142019605 -0.082992755
0.027724553 0.22861904 0.1930491 -0.13094488 0.0630526 0.10386392 0.029147843 -0.18403324
-0.1520212 0.14887752 0.22263238 -0.11562215 -0.15680017 0.13811791 0.08379038 0.09930809
0.09300173 -0.03586409 0.16208787 -0.16309954 0.051000863 -0.03960675 0.18403345 -0.21332228
0.13801475 0.1637657 -0.0037830942 -0.029337691 0.047255777 -0.024180477 0.22153848 0.06439457
-0.23956795 -0.08011877 0.09260887 0.23250341 0.020796945 -0.072969444 -0.10528892 0.02334182
0.08430046 -0.017391177 0.2093515 -0.06505045 -0.20794626 0.2325273 0.18541914 0.0065811123
0.06176188 -0.1845349 -0.043761928 -0.19926392 -0.10960602 -0.086121455 -0.093968354 -0.06049834
0.12451777 0.0679254 -0.042427666 -0.022822788 -0.062715545 0.120855086 0.11291781 -0.13369936

network.2.bias f4 [64]
00000000: 5f1f 033c bb53 13be 3fca b83b 69e1 023e
00000010: 0361 3d3d 7a3e dbbd a52e 37bc 6048 eebd
00000020: 6e3e 1ebe 58d1 dbbb 0ac6 323b 3558 e63c
00000030: 332a ab3d eb8d 45be 766a c73d 0bb7 053d
00000040: 1433 0cbe 9970 18be 8402 00bd 321b 1b3d
00000050: 476e 943d eb54 333d 78b2 11bd 17b6 92be
00000060: 9b10 5b3d c427 b8bd fcf8 e4bd d1ec afbd
00000070: afa8 bc3b be6e c8bd 438d 86bd 811a afbd
00000080: f3bb 203d 5c78 4bbc bcb3 07be d83b 32bd
00000090: 5a91 ef3c f34c 233b a03e 5dbd ef4a f4bd
000000a0: 8a4d b03d d2d0 913d 641d b9b9 dbaa 17bd
000000b0: 7c89 143c 9c89 8f3d aa22 43be d223 2cbb
000000c0: a593 f7bc a69d 2ebe 9bc9 32ba d5f1 96bd
000000d0: a620 1c3d bede 0d3e f47a 7ebd 9dd1 84bc
000000e0: 1df3 263d 1b47 60bd e411 c6bd f5c8 5dbd
000000f0: 078b 853d d6cc a13d 7667 953c a7e2 e23d
0.008003085 -0.1438741 0.005639344 0.127813 0.046235096 -0.10705276 -0.0111805545 -0.11634898
-0.15453503 -0.0067083053 0.0027278685 0.028118232 0.08357658 -0.19292419 0.09737103 0.032645267
-0.1369136 -0.14886703 -0.0312524 0.037867732 0.07247596 0.043782156 -0.03557059 -0.2865455
0.053482633 -0.0899196 -0.111803025 -0.08590091 0.0057574133 -0.097867474 -0.06569912 -0.08549977
0.039241742 -0.012418833 -0.13252157 -0.043514103 0.029244114 0.0024917691 -0.054014802 -0.11928355
0.086085394 0.071199074 -0.00035307847 -0.037028175 0.009065982 0.07008669 -0.19056192 -0.0026266468
-0.03022177 -0.17052326 -0.00068202027 -0.073703445 0.038117073 0.138545 -0.062128976 -0.016213233
0.040759195 -0.05475531 -0.09671381 -0.054146726 0.06520658 0.079003975 0.01823781 0.11078387

network.4.weight f4 [64, 64]
00000000: 3c81 893e 487c 733e 8164 29be c76e e23c
00000010: a8fe cbbd 99c0 9abe a7c7 653c 91d8 46bd
00000020: ec5b 023e 7a28 b3be e23f 523d 7b0e 3cbd
00000030: c85f 693c 38fa aebd 5d6b c3bc 536b 3fbe
00000040: ccf9 073e 98c0 353e 9d72 793d 89ea 43bd
00000050: a791 823e 030a e03d 2013 043e ca03 4b3c
00000060: 2da5 17bb 775e 973e 8829 d13d beff 4bbd
00000070: 4d32 88be f4b0 6b3e dac0 eb3c e648 6f3e
00000080: 7c4f 1e3e 6c3b 9abd 8202 ac3d 7302 25bd
00000090: 079a 9fbc a6fa eebe e8bb 6ebe a310 f4bd
000000a0: e528 2dbe 3d98 dc3b 4242 87bc eedf ce3d
000000b0: 1d03 8d3d dc8c a5be 660d 763e ef3e e53d
000000c0: 7d2b 753e c3b3 6f3d d0dc ebbd 1066 5fbd
000000d0: 340d 0fbe 14b0 bfbe ba1c d9bd bbd2 8f3c
000000e0: 2c61 d0bd f99c 0a3e 7c97 823d 12f4 fbbc
000000f0: 03fc 70be 6cb5 573e 1b61 413d bc70 14bd
00000100: e912 923d 2636 093e 0bec 51bd 26b0 70bd
00000110: 7578 983c 9593 b83d 5ed6 233e d817 1abe
00000120: 7490 ebbd 7713 03bd 656d 5fbc 90bc 1ebd
00000130: ead4 b9bd b6d1 f6bd 3380 57bd 2264 1a3e
00000140: 2a6f ecbc e7bc 1a3e 962a 81bc 0d33 813d
00000150: ef89 2abe 0790 e7bd 3b46 65bd 13c1 7f3a
00000160: 56a3 b93d 2f93 883d 4e5f 50be 979d e3bd
00000170: 52e4 0bbe 147e c9bd c28e 053e 500f 2b3e
00000180: 62b7 573e 55d3 813d c237 443e f5fd dd3d
00000190: 883e 11bc 1ee4 023e acc3 943b 0689 a13e
000001a0: 089c 9cbe 9850 e4bd 548e 043e 4e2a 9c3d
000001b0: 9333 3bbe da28 3ebd 9912 1abe 7746 0c3e
000001c0: 59e0 7c3e 1542 69bd c876 4dbe db49 113e
000001d0: 76a6 10be 0194 2f3d 4460 0cbe 0f34 3c3e
000001e0: 3dcc 9c3d 4000 c23d e254 2bbe 99a4 05be
000001f0: af73 40be 7f33 0dbe 51e8 323e d91e 34be
00000200: 2cb8 36bc a4e5 963b 4208 fbbd 2f48 993d
00000210: 8fb6 283e e6a9 203f 47ee cabd eb07 e93e
00000220: 67ca 4f3e aa37 333e 43f0 d23e 8ecd 24bf
00000230: acb5 31bd 79a7 963d 5c92 6dbe 7c4d 66bc
00000240: db6a 063f af3a bf3e c6ac e43c ef1f bebe
00000250: 974d cabe 18cc e0be 5283 98be ec5b 3a3f
00000260: 72ef 01be 0f63 423d f100 35be f867 8b3d
00000270: c7c6 633d 2d7c 083f b9db 063e 1b21 4a3e
00000280: ab8c b13e 32e1 273f 8640 8c3e 1000 dd3e
00000290: 58e0 a63e 3b52 52be e2c5 8d3c 12fe 423f
000002a0: 6917 56bf 0300 64bd 6701 813e fbe6 56be
000002b0: 8a84 303d 3274 55bc 6cf3 ca3e ce0e 47be
000002c0: 475e df3e edfb 0f3f 967b a8be 4786 123e
000002d0: 086e 1c3e a226 95bd 9902 3bbe 8d6b 84be
000002e0: e021 f63e 40b3 ea3d 2bea 8e3c 5b42 dabc
000002f0: 8f09 6b3e 7331 2e3e 9291 483d 0e39 de3d
00000300: 0c75 7bbe 30a2 c53d 7603 c73d a8d8 01be
00000310: 1b8a d63d 64a2 09be d1e5 ddbd 9812 a6bd
00000320: 7d02 78bd ee35 e73d 916b b43d 1e88 4bbe
00000330: 32bc 973d 873b 1bbe 32fb 163e a5c8 2dbe
00000340: 50b3 4c3e da8c 2bbe a63b a4bb 3ea2 413e
00000350: 57b4 ac3d 707b 353e d9fc 60be c53f 9dbd
00000360: 2861 86bc ca64 703b 1c0b 44be 4d9e 20be
00000370: d629 51bd 87d7 14bd 7fa2 893e c2f9 283c
00000380: dd31 ba3c 9346 13be b37c 1d3e 7aee 85bd
00000390: 77dd 1ebc 4ce8 79be 9765 d03d 6643 63be
000003a0: 0eef 44bd 19d8 653d 9925 453e 4bd3 653d
000003b0: 1964 343e 022b acbd 63d5 1cbd 551f 38bd
000003c0: f79e 51bd b24b b43d 7a8f 253d ba7f d43c
000003d0: ea56 52be 6181 70be c56f 06be bdd1 bf3d
000003e0: 7dad 063d 4690 613e e719 bebd 3e4a 593e
000003f0: 5d36 24bc d7cc 5a3e 405e 8c3d 8452 77bd
0.2685641 0.23777878 -0.16542245 0.027640713 -0.09960681 -0.30225065 0.014024652 -0.048546378
0.12730378 -0.3499182 0.051330455 -0.045912247 0.014244027 -0.08543819 -0.023854906 -0.18693285
0.13278884 0.1774925 0.06090032 -0.047831092 0.2550175 0.109394096 0.1289792 0.01239104
-0.0023139224 0.29564258 0.102129996 -0.04980444 -0.26600876 0.23016721 0.028778482 0.23367652
0.15460008 -0.07530865 0.08398916 -0.04028554 -0.019482626 -0.46675605 -0.23313868 -0.11917236
-0.16910131 0.0067320154 -0.016511086 0.10101305 0.068853594 -0.3233403 0.24028549 0.11193644
0.2394237 0.058521044 -0.11516726 -0.054540694 -0.1396988 -0.37439024 -0.10601182 0.017556539
-0.10174784 0.13536443 0.063765496 -0.03075603 -0.23533635 0.210653 0.047211748 -0.036240324
0.07132513 0.13399562 -0.0512505 -0.05876174 0.018612126 0.09012524 0.15999743 -0.15048158
-0.115021616 -0.032000985 -0.0136369215 -0.038754046 -0.09073813 -0.12051718 -0.052612495 0.1507726
-0.0288616 0.15111123 -0.015767377 0.06308565 -0.1665418 -0.11306768 -0.05597518 0.00097562483
0.09064357 0.06668698 -0.20348856 -0.11114042 -0.13661316 -0.098385006 0.13042739 0.1670506
0.21066049 0.063391365 0.19161895 0.10839454 -0.008865006 0.12782332 0.0045399275 0.31549853
-0.30587792 -0.111481845 0.12944919 0.076252565 -0.18281393 -0.046425678 -0.15046157 0.13698755
0.24694957 -0.056947786 -0.20064843 0.1418833 -0.14126 0.042865757 -0.13708597 0.18379234
0.07656143 0.09472704 -0.16731599 -0.1305107 -0.1879413 -0.13789175 0.17471434 -0.17589892
-0.011152308 0.004605012 -0.122574344 0.07484471 0.1647589 0.62759244 -0.09908729 0.45513853
0.20292054 0.17501703 0.4119893 -0.6437615 -0.043386146 0.073561616 -0.23200363 -0.01405656
0.525068 0.3734946 0.027914416 -0.37133738 -0.3951232 -0.4390571 -0.2978769 0.7279651
-0.12688997 0.04745775 -0.1767614 0.0680694 0.05560949 0.5331448 0.13169755 0.19739191
0.34677634 0.65577996 0.27392977 0.4316411 0.32593036 -0.20539181 0.017306272 0.7616893
-0.8362947 -0.055664074 0.25196382 -0.2098655 0.04309515 -0.013028191 0.3963884 -0.19439241
0.43626615 0.56243783 -0.3290679 0.14309035 0.15276349 -0.07282759 -0.1826271 -0.25863305
0.4807272 0.114599705 0.017445644 -0.026642969 0.22952865 0.17011051 0.04896695 0.10850726
-0.24556369 0.096500754 0.09717457 -0.12680304 0.1047556 -0.13440853 -0.108348496 -0.08109015
-0.060549248 0.11289583 0.08809579 -0.19876143 0.07408942 -0.15159427 0.14744261 -0.16971071
0.19990277 -0.1675295 -0.0050119935 0.18909547 0.084328346 0.17722869 -0.21971454 -0.07678179
-0.01640375 0.0036681169 -0.19144863 -0.15685387 -0.05106529 -0.036338355 0.26881787 0.010313453
0.022728855 -0.1438239 0.153796 -0.065396264 -0.009696356 -0.2440502 0.10175627 -0.22193679
-0.048079543 0.05611429 0.19252624 0.056109708 0.17616309 -0.084066406 -0.03828944 -0.044951756
-0.05117699 0.088035 0.040420033 0.025939811 -0.20540968 -0.23486854 -0.13128574 0.09366176
0.032880295 0.22027692 -0.09282284 0.21219727 -0.010022727 0.21367203 0.06853914 -0.060381427

network.4.bias f4 [64]
00000000: 16e4 6dbe 7eb1 b7bc b919 32be 2edd 59bd
00000010: 5584 30bd 9782 693c 0dd9 88bd 4ee4 92bd
00000020: e90f dbbc fe11 78bc 76bc e239 cfd3 e03c
00000030: 0c88 af3c 61e8 25bd 0ce8 1dbd 5958 ce3b
00000040: d090 87bb 20f7 c9bd 89c5 0e3b 736e 9b3d
00000050: 88f6 d9bc 5c6a 7e3b 3403 d3bd 0dd8 713d
00000060: 8a39 4d3d 07cf 3e3d f832 0a3d 3c32 45bd
00000070: 92b0 1f3d dbf6 643c 3455 a03c cf5d 72bc
00000080: 4d36 593c 7364 6a3d 80f5 d6bd 2602 e6bd
00000090: 827b 523d 20f3 893b 5c7c af3d 6649 7a3c
000000a0: 7c15 9d3e 02c6 9bbd a5eb 003d 7f0b d03d
000000b0: a431 31bd 4b05 0d3d b79a 7cba 3e55 f83c
000000c0: 8c69 1ebd 8948 98bd ff69 97bd d865 3b3d
000000d0: 249c b3bd c711 24bd c1bf 0dbe e822 67be
000000e0: c86d 5fbd 1c79 88bc 9226 26be f565 38bc
000000f0: 0862 9ebd 75a6 923d ba04 37bd 1f5b aabd
-0.23231539 -0.022423502 -0.17392625 -0.05318945 -0.04309495 0.014252326 -0.06682024 -0.07172452
-0.026740985 -0.015141008 0.00043246493 0.027444748 0.021427177 -0.040504817 -0.038551375 0.006297153
-0.004137136 -0.098615885 0.002178522 0.07589426 -0.026606813 0.003882072 -0.10303345 0.059043933
0.0501037 0.046584155 0.033740014 -0.04814361 0.03898675 0.013974871 0.019571878 -0.0147928735
0.013257575 0.057224702 -0.10496044 -0.112308785 0.051387317 0.004209891 0.085686415 0.015276289
0.30680454 -0.07606126 0.031474728 0.10158443 -0.04326023 0.034428876 -0.00096360914 0.030314084
-0.038674876 -0.0743571 -0.07393264 0.045751423 -0.08770016 -0.040056016 -0.1384268 -0.2257191
-0.054548055 -0.016659312 -0.16225651 -0.011254777 -0.07733542 0.071606554 -0.044682242 -0.08318161

network.6.weight f4 [64, 64]
00000000: 4029 f93d 823e df3d f11e a8be 5ed5 743d
00000010: f0e6 85bd cbf5 c0bd 5b08 fb3d 7eff dabd
00000020: d290 03be 9b54 1bbd 4c8d a83d 7390 653c
00000030: cbf3 6fbd 9aaa 62be 6347 f3bd 6cf5 c7bd
00000040: ce6d 0cbe 40a1 05be 97d4 333e b39f 603e
00000050: 1908 27be 0df5 c23d f862 ed3d 4e55 c63d
00000060: 9387 1a3d 157c c3bd f631 073e 0f63 12be
00000070: ceef e13d fd30 113e 048b b63d 9100 90be
00000080: 02bd c1bd 3e5e 483e 3ce1 9f3d e105 5c3d
00000090: c2bc cebd 96cd 8a3e d245 383e d227 18be
000000a0: 227e ff3e e4b6 12be 5278 36be 2a9b 303e
000000b0: c100 efbd d94d 133e 963a 82be a21a 3f3e
000000c0: 58cf 6bbe 1a03 f33a e0f0 043e 2709 0f3e
000000d0: 385c 633e 1e69 b63b 93c0 cd3d 33b0 99be
000000e0: e641 b7be 2972 493d 3d53 103c a0bc 64bd
000000f0: 2658 5c3d 7ba6 09bc 646c 0f3e 125a 54bc
00000100: e248 3dbe 9fe1 153e 7888 483e 2bda 9b3d
00000110: d74f 423e d540 61bb fd43 8fbd 0236 70bc
00000120: ff8d 2abe c652 20be 9a55 8a3e 0331 60be
00000130: d6c3 a5bd 188e a2bd 199e f33c 760c 0b3e
00000140: 3970 39bd 6e82 903c ab24 b2bd d062 243e
00000150: 0fe0 913c 0665 e2bd 2448 483c e8a4 b0bc
00000160: 835b 03be 3fe5 dd3d debf 083e c7fa 67be
00000170: 340a 313e 4210 873e 6df5 e13c 6fc5 17be
00000180: ec89 8dbe 0b29 8fbc d4eb 193e f8f1 5fbe
00000190: 40fc aa3d 32d8 543e 228a 3d3e 253f 433e
000001a0: f217 af3d 0f06 32bd 4943 c4bd f6be 0c3e
000001b0: 4bce 1dbd 0405 4ebd 25ff cdbd a703 7b3d
000001c0: 5fbf 97bd 7e4f 283e 62ed 44bd b056 03be
000001d0: c42f fb3d 218f 923d b56e 5b3e dd54 f4bc
000001e0: 4400 513d d39a 2cbe 73b6 143e 07a0 5e3e
000001f0: 2b89 04bd 48d7 c13d cd6c 91bd b744 30bb
00000200: 3c82 b6bd b50a c73d 2b7c 81be 5d17 6fbd
00000210: 307d a03d cf28 29bd 8340 4cbe 0d08 273d
00000220: b4c5 c03d fef9 5cbd 5aaa 75bd a25b 673d
00000230: 926e 7d3d 3aca 313d 8200 8fbc b886 713e
00000240: de01 e4bd 74c2 a4bd a25a adbd 79ea 3e3d
00000250: 1852 82be ae38 d3bd b7c7 6fbd dfad 0e3e
00000260: 4990 a0bd 381b 413c 3887 463e 806a 1bbd
00000270: 7c0d 55bd cfb8 843d 7f3d 3b3e a09d cabd
00000280: 4537 403e 2815 3fbe 0289 1ab9 46df b2bd
00000290: 5ef5 4cbd 6578 0e3e 7f7c 1b3e c5cc 453d
000002a0: 99c0 ea3e 4fe0 6abe c8c9 1d3d 0b7b 703d
000002b0: fd57 06be 9329 2abe 733d 1e3e 54bb df3d
000002c0: c08b 5cbe c3b3 cabd f17f 003e 8876 9e3d
000002d0: a15a 603e cdfa edbc 391d 583d 6210 c93d
000002e0: c767 ae3d e069 32be 986e d23d c24b 043d
000002f0: 433a 11be 6964 39be b1c1 28bd c4dd 5ebc
00000300: 38b7 90be 42a4 bd3d 4c83 663d bc2e 203e
00000310: 6ea9 febc 142a f5bb 08a1 0ebe 9805 2e3c
00000320: 962f 313d 29ff 9c3c c18f 943d c044 5f3d
00000330: 5284 593e 5405 febc 2bd3 38be 810d 213d
00000340: 4be2 383e e0f2 0c3e bb55 ccbd 70b6 003e
00000350: 5a05 3ebe a861 cb3d 8f01 1a3e 23d3 033e
00000360: 7600 4d3e 04ab 0abe eb72 3dbe edc5 be3d
00000370: 8ebb ecbc 5241 f63a 1788 a3bd 681b 11bd
00000380: e492 293e 78c8 5ebe 1ae4 6ebc accf 003e
00000390: 01a7 133e ea4b 47be b44d 48be 0596 29be
000003a0: eae2 383e 7ab5 9d3c a335 823e f57a 0d3e
000003b0: 48c4 203e 6c1c 6bbe 53ab dabb 58c2 41bc
000003c0: f23f 043e ac75 28bd 13d9 c6bd 0d07 823d
000003d0: a2f2 bdbd 50ae d13d 903d 463d b59d fe3d
000003e0: e448 4f3e c298 dd3d 4174 ec3c 1529 1dbe
000003f0: 624b 243e 4c92 22be 0598 a73d edcd 753e
0.12166071 0.10900594 -0.32836106 0.059773795 -0.065381885 -0.09421881 0.12257453 -0.106932625
-0.12848213 -0.037922483 0.08230075 0.01401149 -0.05858211 -0.22135392 -0.1187885 -0.097636074
-0.13713762 -0.13049793 0.17561565 0.2193592 -0.16311683 0.09519396 0.115911424 0.09684239
0.03772695 -0.09545151 0.13202652 -0.142956 0.11032067 0.14178844 0.08913234 -0.28125432
-0.094598785 0.195672 0.07806632 0.053716544 -0.100945964 0.27109975 0.17995384 -0.1485894
0.4990092 -0.1432758 -0.17819336 0.1724669 -0.11670066 0.14385165 -0.25435323 0.18662503
-0.23028314 0.0018540353 0.12982512 0.13968335 0.22203147 0.00556673 0.10046496 -0.30017242
-0.35792464 0.049181137 0.008808908 -0.05584395 0.053795002 -0.008401508 0.14006191 -0.012960928
-0.18484834 0.14636849 0.19583309 0.076099716 0.18975769 -0.0034370918 -0.069953896 -0.014661314
-0.1665573 -0.15656576 0.27018434 -0.21893696 -0.08093993 -0.079372585 0.029738473 0.13578972
-0.04527304 0.017640319 -0.086984 0.16053319 0.017807035 -0.11054425 0.012224231 -0.021563008
-0.12827878 0.10834741 0.13354442 -0.22654258 0.17289048 0.2637959 0.027582848 -0.14821409
-0.2764429 -0.017475626 0.15031368 -0.21869648 0.08348894 0.20785597 0.18509725 0.19067056
0.08549489 -0.04346281 -0.09583146 0.13744721 -0.038526814 -0.050297752 -0.100584306 0.06128278
-0.07409548 0.16436574 -0.04807795 -0.12826037 0.1226497 0.07156206 0.2142895 -0.029825622
0.051025644 -0.16855936 0.14522724 0.21740733 -0.032357376 0.0946489 -0.0710083 -0.0026896426
-0.08911559 0.09718839 -0.25290045 -0.05837189 0.078363776 -0.041298684 -0.19946484 0.040779162
0.09412709 -0.05394935 -0.059976913 0.056483872 0.061873026 0.04340575 -0.017456297 0.23586547
-0.11133169 -0.080449015 -0.084645525 0.04661033 -0.25453258 -0.10313545 -0.058540072 0.13933514
-0.0784002 0.011786275 0.1938752 -0.037943363 -0.052014813 0.06480562 0.18285178 -0.09893346
0.18771084 -0.18660414 -0.00014737624 -0.08733992 -0.050038688 0.13913114 0.1518421 0.048290987
0.45850065 -0.2293713 0.03852251 0.058711093 -0.13119502 -0.16617422 0.15453129 0.10924402
-0.21537685 -0.09897568 0.12548806 0.07737452 0.21909572 -0.029050255 0.052762244 0.09817578
0.08515888 -0.174232 0.10275 0.03229881 -0.14182381 -0.1810471 -0.041200344 -0.013602678
-0.28264785 0.09259845 0.05627756 0.15642828 -0.03108665 -0.0074818227 -0.13928616 0.010621451
0.043258272 0.019164639 0.072539814 0.054508924 0.21241882 -0.0310084 -0.18049304 0.03931952
0.18055074 0.13764524 -0.09977289 0.12569594 -0.18556729 0.09930736 0.15039657 0.12873511
0.20019707 -0.135418 -0.18500869 0.09315095 -0.028898027 0.0018787778 -0.079849415 -0.035426527
0.1655994 -0.2175616 -0.014580751 0.1257922 0.14419176 -0.19462553 -0.19560891 -0.16561134
0.18055311 0.019251574 0.25431547 0.13816436 0.15699875 -0.22960061 -0.0066732555 -0.01182612
0.12915018 -0.041127846 -0.09709372 0.06349001 -0.09274794 0.102383256 0.048398554 0.12432424
0.2024265 0.10820152 0.028864028 -0.15347703 0.16044381 -0.1587612 0.08183292 0.24004336

network.6.bias f4 [64]
00000000: 439c 293a 75ee b13d e261 a43c 64e5 91bb
00000010: 2d08 193e 4863 a4bd d81b aebd c66b a3bd
00000020: d7e5 1f3d a160 84bd 404f 813d 8187 b1bc
00000030: 4b81 c73d 641a 60bd 0392 943d ace7 c0bc
00000040: 2b2b 00bd b788 23bd 912f 133e 267f 2f3d
00000050: 91aa fdbd b776 4b3d 87d9 063e 7767 ee3c
00000060: 9231 823c 0592 8b3d 1eca 333e 8a49 0c3d
00000070: 6b63 b6bb ab53 903d b110 7f3c f5a7 a1bd
00000080: 47d7 9e3b 67ba 9d3d df6e 0e3d 17ad a0bb
00000090: e007 103d 373e fa3b 5566 a6bc f45f 18bd
000000a0: e185 873d a96f 9c3d 2200 94bd 0ed2 b13b
000000b0: c83e 333d 096b a73d 0063 80bc 7e3b 2fbc
000000c0: c85a 5abd 82e4 babc 4bad 05be bacd 44ba
000000d0: b7b4 74bc 6547 7c3d 032e c7bd 1f9b 39be
000000e0: 402f 233c e6c9 923d 429c 233d 3c10 debd
000000f0: f31f 053d 1346 073d c4b9 b6bc 3133 a03d
0.0006470123 0.0868806 0.020066205 -0.0044523943 0.14944525 -0.08026749 -0.085014045 -0.079795405
0.03903755 -0.06463743 0.06313944 -0.021671059 0.097414576 -0.054712668 0.07254412 -0.02354797
-0.03129117 -0.039925303 0.14373614 0.042845868 -0.123860486 0.049673762 0.13168918 0.02910207
0.015892778 0.068149604 0.1755757 0.03424982 -0.0055660508 0.070472084 0.015567944 -0.078933634
0.0048474404 0.07701569 0.034773704 -0.0049034464 0.03516376 0.007636811 -0.020312468 -0.037200883
0.06617332 0.07638485 -0.07226588 0.005426652 0.043761045 0.08174712 -0.015672207 -0.010695336
-0.053309232 -0.02281404 -0.13054387 -0.0007507462 -0.014935664 0.061591525 -0.09725573 -0.1812558
0.009959996 0.07167415 0.03994394 -0.1084294 0.032501172 0.033025812 -0.022305377 0.07822264

network.8.weight f4 [64, 64]
00000000: bfbf 8eb8 ae7a b6bd 9315 aebc 11a0 ad3d
00000010: ebe9 2dbd 1d19 a7bc b4de 223e cdce 86bc
00000020: 1e5a b7be ab54 a7bd f25e a63d 581a 06be
00000030: 5238 3c3d 89ce e0bc 01a8 02be 4ca8 59bc
00000040: f5a5 85bb 15b3 0e3e 1563 f23d 4333 1b3e
00000050: 3c3d 793c 1a40 e93d ce46 373e 76fe 28be
00000060: edeb 3a3e a9f5 12be 9e45 723e 2ad2 933d
00000070: 7a5a 6d3d 6539 06be f9fd 7abc f9bb 9e3c
00000080: 2c3f 2a3e 2731 a43e 1fad 3dbe 6157 203d
00000090: e26f b3bd 03c9 fe3d c217 8cbd 1998 873e
000000a0: d291 efbc 3307 d3bc baef 9ebe 1ac5 9f3d
000000b0: 7c2d 46bc a837 0d3e b6cf d63a cffa 0b3e
000000c0: 618d dd3d f3fd 463c 137c 1cbe 490f 4a3d
000000d0: 5106 f8bd 7a5c e03d 9b5f a13d eb3b 89be
000000e0: df80 3f3d ff77 ae3d f494 c7bd 746f d1bd
000000f0: 02c4 473e 4186 103e 6f97 c03d ceb9 523e
00000100: 20a9 953d ab35 84be eb8d 2f3d 2cd6 153e
00000110: dc71 db3d 310e 2abd 0913 b9bc baf2 f53d
00000120: e2bc ee3d 2b65 2e3e db97 ebbc b7c5 b03d
00000130: 9c76 983d f156 69bd 6ebb 17be 52a4 bbbd
00000140: 2995 a3bd 63f2 8fbb dc5c 4c3d 3003 86bd
00000150: 6f81 8b3d e426 12be 1f86 61be ad71 59bd
00000160: 14fe 2cbe c5ed 153d e159 59be a63d 623c
00000170: 6cf8 38be b604 eb3e 855d dfbd 65e5 1a3e
00000180: b50d 3f3c 5be6 3b3e c3c9 0abe b14c 88be
00000190: 87d7 81bd 9290 e93d 285f 453e bb50 59bc
000001a0: 8d75 113d 49f7 2b3e 8b4e b43e 3796 ca3b
000001b0: ba62 aebd 7be6 a03d 4c49 9fbe 4b22 bebd
000001c0: 0f8e 143e f2d9 8f3d 101f 013e 9fec 94be
000001d0: d893 01bd 27e8 783c 9a0d aa3d 7464 f03d
000001e0: 4257 f8be 9dee 883e 1df2 ac3e 4284 f5bd
000001f0: 53da 93bd 2adf b3bd e477 8fbd 8dda b0be
00000200: 417f 5f3d 0732 a2bd ff1f 47be d5bb ce3d
00000210: b421 febd fd09 273d 5c3b f63b 1984 c93c
00000220: 4d4b b1bd e521 7c3c dd31 43be 8176 513e
00000230: 7fdf a73b f839 9d3d d0cf 0cbe 78f7 4a3e
00000240: c04c 6b3d 55bc 0dbd 7140 a1bd e30d d5bc
00000250: 6997 663e a2b0 513e fff0 4bbd 5c56 fdbc
00000260: 8c51 c8bd 6ac9 273e 332c 273e 8425 84bd
00000270: 91bd 843c e463 693e a5b1 9dbc 5571 f2bd
00000280: edf9 083d 4db2 2a3e 23e1 03be addb 8ebd
00000290: 338f 153e 5563 e8bd 0b24 09be 55cc 353e
000002a0: b934 093e 4812 a1bc ca2c e93d ee0d c53c
000002b0: 8c65 f53d 29a2 10bb f209 42be efde 79bd
000002c0: 1305 613d 5341 223e 90ac 9a3c 0ec9 ab3d
000002d0: 856b 34be 2290 b53d 7ccb 0dbd e962 803d
000002e0: 7e87 9b3d bc45 fc3c 6d3d 983e 7036 e1bd
000002f0: 7f2a 813d 4fba a3b9 02d8 aabb da01 5ebd
00000300: fe6b 8bbe efd8 febd 45a9 23be 92a4 283e
00000310: 14db 043e fe88 99be 8092 1dbe 49db 6cbd
00000320: d203 373e de74 333e 392f 813e 46ab 91be
00000330: 1c45 85be 0dde adbd 43c5 dcbc 6749 19be
00000340: 99b9 493e 2ddf a2bd 5193 c3be 00f8 31be
00000350: 35c1 a03d 5568 043e 7ec5 32be 8374 453e
00000360: 52af 0dbd 4467 8fbe d992 583e 2d6f 85bd
00000370: 3637 1dbd 9e5c 14bf 29bd 113e 22c4 2a3d
00000380: 5911 4bbd ff98 a4bc 4156 73bd 97dd de3d
00000390: 6e15 09be 6d15 983e e236 a4bd 1127 0d3d
000003a0: 4e93 4f3e 05d7 23be 8332 713b f50c c03c
000003b0: 0697 453c 5a60 9c3d 5eec 91be dac6 89bd
000003c0: 3859 a6be 5fc1 9fbd 5599 83be a541 0b3e
000003d0: 1ee5 b6bd 5c9b 0b3e 6363 52be bca2 ce3e
000003e0: f27d 673e 2b97 08bd d6a8 90bd 3da5 7bbe
000003f0: d3d0 bebe 655b 6b3c 5e1c 383e 69ba fabd
-6.806803e-05 -0.08910118 -0.021250522 0.08477796 -0.04245941 -0.020397717 0.15905267 -0.016456032
-0.3581094 -0.08170446 0.08123578 -0.13095987 0.04595215 -0.027442234 -0.12759401 -0.013284754
-0.0040786215 0.13935502 0.11835305 0.15156274 0.015212353 0.113891795 0.17898104 -0.16503319
0.18254061 -0.14351524 0.2365937 0.0721782 0.057947613 -0.13107832 -0.015319341 0.019376742
0.1662566 0.3206875 -0.18523072 0.03914583 -0.08761574 0.12440684 -0.06840469 0.2648323
-0.029244337 -0.025760269 -0.31042272 0.07801266 -0.012095805 0.13790762 0.0016388807 0.13669895
0.108179815 0.012145507 -0.15281706 0.049330983 -0.1211058 0.109551385 0.078795634 -0.26803526
0.04675376 0.08518981 -0.097452074 -0.10226336 0.19508365 0.14113714 0.09403884 0.20578691
0.07307649 -0.25822195 0.042859953 0.14632481 0.10715076 -0.04151744 -0.022592084 0.12009187
0.1165712 0.1703078 -0.028758934 0.08631461 0.07444498 -0.05696768 -0.14817593 -0.09162201
-0.079874344 -0.0043929084 0.049893245 -0.06543577 0.06811797 -0.14272648 -0.2202382 -0.053086925
-0.16893798 0.036603708 -0.21225692 0.013808643 -0.18063515 0.45902032 -0.10906509 0.1512657
0.011660983 0.18349592 -0.13553528 -0.2662101 -0.06339937 0.11404528 0.1927458 -0.013263877
0.035512496 0.1679355 0.35216174 0.006182458 -0.08514924 0.07856461 -0.3111061 -0.092838846
0.14507316 0.07023992 0.12609506 -0.29086778 -0.031635135 0.015192068 0.083033755 0.1173791
-0.48504072 0.26744547 0.33778468 -0.11988117 -0.072193764 -0.087827995 -0.07005289 -0.3454174
0.05456472 -0.07919698 -0.194458 0.1009442 -0.12408772 0.04078101 0.0075144004 0.024599122
-0.086569406 0.01538894 -0.1906199 0.20455362 0.0051230784 0.07677072 -0.13751149 0.19820964
0.05744624 -0.034603436 -0.07873619 -0.026007598 0.22518696 0.20477536 -0.04979038 -0.030924968
-0.09781179 0.16385427 0.16325454 -0.06452468 0.016203674 0.22792011 -0.019249747 -0.118380226
0.033441473 0.16669579 -0.12878852 -0.069754936 0.14605407 -0.11347071 -0.13392656 0.17753728
0.13399018 -0.019662037 0.11385496 0.024054494 0.11982259 -0.0022069311 -0.18949106 -0.06100362
0.05493648 0.15845232 0.018881112 0.083879575 -0.1761914 0.08865382 -0.034617886 0.062688656
0.075942025 0.03079497 0.29734364 -0.10996711 0.063069336 -0.00031228593 -0.0052137384 -0.054200985
-0.2723083 -0.124437205 -0.1598254 0.16469029 0.12974197 -0.2998733 -0.15387917 -0.057826314
0.17872551 0.1752505 0.2523134 -0.28450984 -0.2602929 -0.084896185 -0.02694953 -0.14969407
0.19699706 -0.07952724 -0.3819833 -0.1737976 0.07849351 0.12930425 -0.1745815 0.19282727
-0.034591027 -0.28008473 0.21149768 -0.06515346 -0.03838273 -0.5795382 0.14232315 0.041690953
-0.04957709 -0.020092485 -0.05940843 0.10882109 -0.13387081 0.29703847 -0.080182806 0.034461085
0.20271036 -0.15999992 0.003680379 0.023443678 0.012059933 0.07635565 -0.28500646 -0.06727381
-0.32489944 -0.078005545 -0.2570292 0.1359926 -0.089304194 0.13633484 -0.20545726 0.4035853
0.22606638 -0.03334729 -0.07063453 -0.24574752 -0.37268695 0.014365052 0.17979571 -0.12242586

network.8.bias f4 [64]
00000000: 4877 413d e91b 253c 33ac b33d 34ba 953d
00000010: 1725 54bd 2ac6 ecbd 91c6 18bd c99d ee3d
00000020: 9329 843d ddc4 91bc f453 ebbd ce41 6c3d
00000030: 7721 233b c6b8 07bd 29b8 b13c e180 89bd
00000040: a0c1 8dbd 1ae1 ddbb 25ee 21bd dc1a a23d
00000050: c0fc 463d 6ad1 013c 5415 483a 95ee 85bb
00000060: 4a38 05bd 4558 c8bd bc0c cb3c cf4a 383d
00000070: 8ef3 053e 1da6 f3bc 10bc b83a cb25 58bd
00000080: 8f7c b23d 84ff 00bd 973b 113e b62d 323e
00000090: 8f78 663d 78a5 98bd cf31 e7ba bf19 a8bd
000000a0: b0f4 cfbd 8975 72bd ba79 09bd 6097 ca3c
000000b0: 614f 4abd 705a b8bc fdd6 163c b479 08be
000000c0: 01e7 a13c e1c7 bdbc f361 433c f27f 683d
000000d0: 3cc8 ac3c 25b1 c03d 7f2e 9fbd 6499 93bc
000000e0: 0dbc 5d3d c36c dd3b 0cc2 663c 3b56 6dbd
000000f0: 74c1 f0bc fb66 443d 4b6f ea3c 797d b7bd
0.047232896 0.010077455 0.08773079 0.07310906 -0.051793184 -0.11561234 -0.037298743 0.11651189
0.06453242 -0.017794067 -0.11490622 0.057679944 0.0024891773 -0.033135198 0.02169426 -0.06714035
-0.06921697 -0.006771219 -0.039533753 0.07915279 0.048580885 0.007923463 0.00076325727 -0.004087279
-0.032524385 -0.09782461 0.024786346 0.044993218 0.1308119 -0.029742295 0.0014094133 -0.052770417
0.08715164 -0.03149368 0.14182888 0.1740025 0.056267317 -0.07453436 -0.0017638745 -0.08208036
-0.10154092 -0.05919412 -0.033563353 0.024730384 -0.049392108 -0.022504061 0.009206531 -0.13327676
0.019763472 -0.023166599 0.011925208 0.056762643 0.021091573 0.09408788 -0.0777254 -0.018017478
0.054134417 0.00675735 0.01408435 -0.057943564 -0.02938912 0.047949772 0.028617522 -0.08959479

network.10.weight f4 [64, 64]
00000000: a9aa 01be 36cf 1d3e 24f0 533e 1714 4bbc
00000010: fafd adbd fa9b 263e 94f5 e23d 7663 21be
00000020: 768a b23e 1e14 b5be 091e 86bd ddf0 223e
00000030: 98e4 39be 6aa6 273e 07ef 8bbd cc5f cc3d
00000040: 52a2 31bd 52a7 e9bd 2979 4dbe 3ea8 7bbd
00000050: 73c7 093d d435 403e 49a7 4d3d 09cc 2b3e
00000060: bee4 b4be 578d ba3d 8262 40be e90b 273e
00000070: d784 59be 9692 8f3d cd91 1abe 3a81 a13d
00000080: 0436 f9bd c362 5f3e aa72 f93c 682e 863d
00000090: 7229 933e b1fd 483d 544b 87bd 086d 06bd
000000a0: 5194 1a3c 8304 b73c 89ee 323d c1d6 04bf
000000b0: 73b1 edbd 32b9 053d 4b3a babd 12eb 063e
000000c0: c63f 3abe 9123 4abe 8dfa 66bd e657 a73b
000000d0: d798 043f 82ec 413e 0a44 a7bd 76d8 f13e
000000e0: dd54 19be e307 35be 88cd a33c a234 1f3d
000000f0: 1829 99be 4762 283e ed7f 55bd 1153 73bd
00000100: f8b9 90bd 263e 6dbd 1314 a1be 952c c6bd
00000110: 5290 1cbc 6e31 50be d658 d5bd 14b7 8f3e
00000120: c6de 693e f086 c73e 9215 813b 2a98 9cbd
00000130: 94bc 4bbc 92fc 643e 69a3 843d a9ad 1cbe
00000140: c422 47be f3af fd3c 591b db3c 1992 c2be
00000150: fe4a 343e eabd 273e d3db 99bc cef2 26be
00000160: c2ab 033f 00ce 003e a5ad e4bb 5b5f 19be
00000170: c4ac fe3c f3ce b23e 86d9 05bd 95ae 423e
00000180: bb86 873c c4b0 b3be 51ae 423e dacf 193e
00000190: d4a7 c1bd 86b9 8bbe 96b2 3d3e 2ae6 2cbe
000001a0: c910 a83d 4192 e5bd fca3 053c 0ce8 e03d
000001b0: f61b babb 3c8a 293e bca2 dfbd d5aa c33a
000001c0: 0d5a 9fbc fcee 8a3e bc35 83be d0eb a3be
000001d0: 778f 80bd 9f15 893c c7f6 cabd a1b6 96bd
000001e0: 758b b03e 0176 093e 93dc c9bd f72c ca3d
000001f0: 6227 0b3e 92bd 693e 724f c83d eca6 2ebb
00000200: 3458 03be ff97 e6bc 1eb7 4ebd 6d95 8abe
00000210: 8134 9ebd 61a3 553e 9ec9 263e 84e3 fcbb
00000220: dedf d4be d1af 8fbe be66 be3d 6244 f43d
00000230: 2c22 a33d 9fd4 88bd 11c7 c73c a97f 3a3e
00000240: 6f4f e03c 1047 f03b de78 9d39 ec25 6fbe
00000250: a01a 6dbe dd52 1b3e 5351 3ebe af3c 163d
00000260: 538f bc3e 7858 783d 93c9 1ebe 98a1 96bb
00000270: 2134 973e 9680 85bd fb75 9f3e 0e11 9cbd
00000280: a6cc 0c3e 8cf3 ad3e 0fbc 60bd b8e4 afbd
00000290: 98bc e93d 0980 84bc 3ae1 473e 490a a5bd
000002a0: db41 39be b239 443e 8838 87bd 614e b6be
000002b0: 02c1 f43d 07c0 0ebe db46 d33d 6e2a bc3d
000002c0: ea18 cb3c dc7d 013e 870e 98be 0d92 acbd
000002d0: bd3e a13e 1796 4f3c 486f b03c bc92 3f3c
000002e0: 0890 41bd 341d 88bd b111 f9bd 5379 d13d
000002f0: 3110 0dbd 685e ed3d 448b 27bc 40c4 343e
00000300: 1fa0 3ebe 2e0a c23d 31ff 71be aa07 243e
00000310: 19fe 83be a219 8d3e d808 f5bd 62e5 67bd
00000320: 527c 49be dd37 323e 71cf 7d3c 2206 45be
00000330: 77d0 b6bd 777a d13d 022e febd 3048 5a3d
00000340: ee6d e73c 922e 0f3e 18e0 7e3e a3aa 4ebe
00000350: 01b3 2c3e 96e6 1b3e 871b 483e 838d dc3d
00000360: ae0a 65bd 5a80 0cbe ac6e 913d 94c9 6cbb
00000370: bbdf a9be 1f1c 7bbe 6329 1a3d ebac c23d
00000380: c492 1c3e e7b7 493e 7a18 873e bd14 8e3b
00000390: eb5e 1fbd b0bc 36bc 87fe 4dbc 9bd4 8cbc
000003a0: 9054 8abb 335b 17be 5f6b 0c3d f92f 363d
000003b0: 4325 80bd 99e5 d33d 3ded 1dbe 85c5 4d3e
000003c0: 42a5 4abe 6354 dcbc 37b1 2e3e b800 3ebe
000003d0: cb7a a3bd c633 f83d 6371 053e 7718 ab3c
000003e0: 805b f8bd bead 2f3e c983 803e adeb b6bd
000003f0: 5d0a 383d c7d3 10be 6180 e7bd 7b30 82bd
-0.12662758 0.15411076 0.20697075 -0.0123949265 -0.08495708 0.16270438 0.110819966 -0.15760598
0.34871262 -0.3536691 -0.065486975 0.15912195 -0.18153608 0.16372076 -0.068327 0.09979209
-0.04336769 -0.11408867 -0.2006575 -0.061439745 0.033637475 0.18770534 0.050208364 0.16777052
-0.35330766 0.0910899 -0.18787578 0.16313137 -0.2124208 0.07010381 -0.15094681 0.07885976
-0.12168506 0.21815018 0.030450184 0.0655182 0.28742558 0.049070064 -0.066061646 -0.032818824
0.009434775 0.022341019 0.043684516 -0.5189019 -0.116061114 0.03264732 -0.0909315 0.1317561
-0.1818839 -0.1974013 -0.056391288 0.005106914 0.51795715 0.18937877 -0.08167274 0.4723546
-0.14973779 -0.1767879 0.019995466 0.038868554 -0.29914165 0.1644374 -0.052123953 -0.05940539
-0.07066721 -0.057920597 -0.31460628 -0.09676472 -0.009555893 -0.20331356 -0.10417335 0.28069365
0.22838888 0.38970137 0.003939339 -0.076462105 -0.012435097 0.22361973 0.064764805 -0.15300621
-0.19446856 0.030967688 0.026746439 -0.3800209 0.17606732 0.1638104 -0.018781578 -0.1630356
0.51433957 0.12578583 -0.006978708 -0.14977781 0.03108824 0.34923515 -0.03267815 0.1901191
0.016543737 -0.350958 0.19011809 0.15020695 -0.09455839 -0.2728998 0.18525156 -0.16884676
0.082063265 -0.11209536 0.008156773 0.109817594 -0.0056796027 0.16556638 -0.10919711 0.0014928231
-0.01945212 0.27135456 -0.25626934 -0.32015848 -0.06277364 0.016733943 -0.0991035 -0.073590524
0.34481397 0.13423921 -0.09856524 0.098718576 0.13589242 0.22826222 0.09780778 -0.0026649786
-0.12826616 -0.02814865 -0.050467603 -0.27067128 -0.07724858 0.20863105 0.16287848 -0.0077175517
-0.41577047 -0.28063825 0.0929694 0.119271055 0.07965502 -0.06681179 0.024386914 0.18212761
0.027381627 0.00733269 0.00030035427 -0.2335431 -0.23154688 0.15168329 -0.1858571 0.036678966
0.36828098 0.060631245 -0.15506582 -0.0045969 0.2953196 -0.065186664 0.311447 -0.076204404
0.13749942 0.33974874 -0.054866847 -0.085885465 0.114129245 -0.016174333 0.19519511 -0.08058602
-0.18091528 0.19162634 -0.06602579 -0.35606673 0.11950876 -0.1394044 0.10316249 0.0918778
0.024792153 0.12645668 -0.29698583 -0.084262945 0.31493178 0.012670062 0.021537438 0.011692699
-0.0472565 -0.06646195 -0.121615775 0.10228219 -0.03443927 0.11590272 -0.010226075 0.17652988
-0.18615769 0.09474598 -0.23632504 0.16018549 -0.257798 0.2755862 -0.119645774 -0.05661524
-0.1967633 0.17404123 0.015491352 -0.1924062 -0.0892648 0.102284364 -0.12411119 0.0532915
0.02825066 0.13982609 0.24890172 -0.2018228 0.1686516 0.1522468 0.19541751 0.10769179
-0.055918388 -0.13720837 0.07101187 -0.0036130892 -0.33178505 -0.24522446 0.037637126 0.09505638
0.15290362 0.1969906 0.26385862 0.0043359683 -0.03890888 -0.011153385 -0.012572891 -0.017191222
-0.0042215064 -0.14780883 0.034282085 0.044479344 -0.06257107 0.10346527 -0.1542253 0.20094879
-0.19789603 -0.026895707 0.1705979 -0.18554962 -0.07982405 0.1211925 0.13031535 0.02088569
-0.12126827 0.17156121 0.25100544 -0.0893167 0.04493176 -0.14143287 -0.11303783 -0.06356903

network.10.bias f4 [64]
00000000: b327 1cbe 7c2e 88bb be5c 57bd 5f65 0bbd
00000010: c7fe a03d 7e97 153d d603 8b3d 5226 e5bc
00000020: a395 d53b 34dc c63c a64f df3c 7f92 d83c
00000030: e8a7 37bd 47fd b2bc c0ea 0c3b 9536 0b3d
00000040: 2b92 513d 395d 7a3d 2ffc ed3c 7045 0e3c
00000050: a5c6 febc 1746 d73c 76b8 8f3b 22ea 2c3e
00000060: d3fd 703c a44b f9bd 183e 7838 9832 c1bd
00000070: 7964 a1bb cfc6 013d 957c b83c a834 073d
00000080: 48fb 83bb fa75 393e 282c 2bbe fe96 cebd
00000090: 1520 4bbc c92e 253d 5964 843c ab96 2f3d
000000a0: c479 27bc f735 863d 9ced f03d e907 90bc
000000b0: 2cc8 583d 4130 953b 47ce febd 7149 aebd
000000c0: ce4d b03b 5dcb 8c3c 31bf 16be edfb 1b3d
000000d0: 07cc a73c f955 b5bc 31d0 673c 15e5 83bc
000000e0: b18e 34bd ae01 413b 7f89 35bd 4fa5 1d3d
000000f0: ea04 a73d 6ffc dbbb 6ac2 67b9 ed41 8b3b
-0.15249519 -0.004155932 -0.05257868 -0.034032222 0.07861095 0.036521427 0.06787841 -0.027972374
0.006518082 0.024274923 0.027259659 0.026437042 -0.044837862 -0.021849288 0.0021502227 0.0339876
0.051164787 0.06112406 0.029050915 0.008683547 -0.03110058 0.026278539 0.004386003 0.1688619
0.014708954 -0.121726304 5.9185637e-05 -0.09433478 -0.0049253074 0.03168374 0.022520343 0.0330092
-0.004027758 0.1811141 -0.16716063 -0.10087393 -0.012397786 0.04032782 0.01616113 0.042868298
-0.010221902 0.06553262 0.117640704 -0.017581897 0.052925274 0.0045528715 -0.12441688 -0.085101016
0.005380369 0.017186815 -0.14721371 0.038082052 0.02048303 -0.022135722 0.014148758 -0.016100446
-0.044081394 0.0029450464 -0.04432058 0.03848773 0.08155234 -0.006713442 -0.00022102302 0.0042498023

network.12.weight f4 [5, 64]
00000000: e8c2 27be b5ac e13c c1ae 033e 4a96 e13b
00000010: 22c4 abbc 27e5 223e 43c1 60bc f2df b7bc
00000020: 7851 123d 17dc 273e d9ed 71bc 9825 d73d
00000030: df64 663d 68b5 45bc 47e8 483d 7c40 bc3d
00000040: 2ec6 ed3d 0089 8a3e 4cb9 153d 20b7 01bd
00000050: d0e6 27be 19f5 e3bc c137 823e 852d c23d
00000060: 47c9 a63d 2719 fbbd 87a3 d2bc ea93 44be
00000070: 6835 52bd 14d4 373d 63c7 e7bd 8197 f13e
00000080: 379a 193e 41c4 903d 7b88 84be 4f6a 883d
00000090: 63d4 713d 4887 2e3e 7314 d73c 9ff4 cf3c
000000a0: 26b9 95bc ee78 b03d c688 123e 9fbf d3bc
000000b0: df59 abbd 0b42 57bd b97a a1be 61b9 28be
000000c0: bd2d 87bd 3d5c 093c c40d 15be b057 c8bd
000000d0: 4718 fdbc 05c5 863c f995 423d ec67 fd3c
000000e0: 44d7 babd fc26 b13e 1e38 d9bb a03a bebd
000000f0: 0506 143c 2d3d deba d363 483e e1fc bb3d
00000100: 371a ab3b 5c76 e93d 5ca6 eebc 7087 d23d
00000110: 80ec 3c3e 6534 87bd b20f be3c 28db 183c
00000120: a094 07bd 4334 7ebc 920b fa3b 718a f83b
00000130: 3995 64bd c953 673d db7e 933b 82cf 043d
00000140: 82db 2a3e b2b1 353e da1b efbd e55d a9bc
00000150: 1e82 033e 36b9 203d 81f7 463e f67d 3fbe
00000160: eddb b2bd 0588 183e 2750 b83c 9b4a 8abc
00000170: d7b0 9f3d a8df 0b3d 6490 54bd 931a 1a3e
00000180: 0661 5fbe b870 c4bd 27ed 01bd 9918 113e
00000190: a512 82bd eb01 de3d 2213 2d3c e3ce 89bd
000001a0: dc7a a93a c64b a33d 52d1 d1bc 6072 99bd
000001b0: bdab 45be 1f33 05bd 0191 0cbe be1f 703d
000001c0: d953 bbbe f9ca e3bc 898e 85be 2697 103e
000001d0: 1daa 133e 7449 d33d 9467 3c3d 0ee6 9c3c
000001e0: 72f7 82bc 7a18 41bd 31e5 c3bd 079b acbc
000001f0: 4445 7c3c 6b0b 06be 532c 3c3e 4623 f1bd
00000200: 8b4c 8ebe 1a87 cd3e 7abe 393f bbca 33be
00000210: 72ad 5e3e b12e fc3d fbdc 613e 818e 78bf
00000220: 3e68 c2bd f350 353e c7ab 273f c4e0 6e3e
00000230: c573 4ebf 770c c4bc a486 29bd 8ee6 8c3e
00000240: 2af6 673d e8a3 66be 830d 4abf dff1 2f3f
00000250: bccc b2bd d5d1 c43e 9007 febb 6b11 6c3e
00000260: 64ec 51be bfbe 25bd 72e4 1abf 1c84 44be
00000270: b1b9 963e 785c 1cbe 9bbb 263f 51d6 d23d
00000280: f912 983e 4132 fa3e e1d2 e3be 9938 adbe
00000290: 59fe c8be ea71 bcbe 6b68 9cbd fc32 f73c
000002a0: 2e17 eb3e 10ab 43bf 1952 a23e ea64 12be
000002b0: 18cb 6e3d a9ed b53e a16c 19be 3efc 153e
000002c0: 3987 91bd 25d6 5cbf 8610 5d3d 2c53 c03e
000002d0: 904f 89be c986 963e af40 cdbd 67e3 b3be
000002e0: e421 c9be 5efb d93c 75cc 863e 9716 ab3e
000002f0: 6cd2 04be 475e fcbe d5f0 633e dd50 73be
00000300: eca7 45bf 5f1c 06bd f51f dbbe 1d83 68be
00000310: ee10 f23d 4436 17bf 991d c53d f396 743e
00000320: 1127 dabd 043d 223e fb39 c3be 197c 7fbf
00000330: 2a6e 92be e7a1 c13e 6627 20bf 9c71 de3e
00000340: b46d c3be 718a 0f3e bc2e b33d b364 9cbd
00000350: 5c6b 283d 2d8c 7c3e bf24 05be 0fd6 e3be
00000360: b129 bc3e 8de9 09bf a83b e33e 5275 4b3e
00000370: 6c39 e4be bdae 753f b3be 25be 9443 06be
00000380: 516b db3d f5ca 0b3f 1acb efbd 6c6b 9a3e
00000390: f3f8 513e c8c2 5dbe 8431 823e 064b ca3d
000003a0: fa4d 7f3e 7435 653e 1cd8 31be 6d97 debc
000003b0: a7be 503e 8949 95be 5abf 91be bd53 f33e
000003c0: 8f78 0e3e 00fe 25be 55ed 573d 90a0 a7be
000003d0: 329e 9cbd 1e90 b3bd 3129 d9be 34d7 22bf
000003e0: d825 913e 3604 833e b525 05bf c1b3 25be
000003f0: 87b7 003f bf5e 40be 430c cb3e 5bf8 9a3e
-0.16382945 0.027548173 0.12859632 0.006884371 -0.020967547 0.15907727 -0.013717952 -0.022445653
0.035722226 0.16392551 -0.01476618 0.10505217 0.056248542 -0.012067176 0.049049642 0.09191987
0.116100654 0.27057648 0.036553666 -0.031668782 -0.16396642 -0.027826833 0.25433162 0.094813384
0.08143859 -0.12260657 -0.025712742 -0.1919705 -0.051320463 0.044879988 -0.11317327 0.471859
0.15000235 0.070686825 -0.25885376 0.06660902 0.05904044 0.17043793 0.026254868 0.0253852
-0.018276762 0.086168155 0.14309987 -0.025848208 -0.08366751 -0.052553218 -0.31538942 -0.16476966
-0.06600521 0.008383808 -0.14556032 -0.0978235 -0.030895365 0.016451368 0.047506306 0.030933343
-0.0912309 0.34600055 -0.006629004 -0.092885256 0.009034638 -0.0016955488 0.1956933 0.09179092
0.005221631 0.113995284 -0.02913206 0.10279739 0.18449593 -0.0660179 0.023200843 0.009329595
-0.033100724 -0.01551539 0.007630774 0.007584863 -0.055806372 0.056476388 0.0045012063 0.032424457
0.16685298 0.17743567 -0.11675234 -0.020674655 0.12842605 0.03923913 0.19430353 -0.18700394
-0.08733354 0.14895637 0.022499157 -0.016881278 0.077974014 0.034148842 -0.051895514 0.150492
-0.21814355 -0.09591812 -0.031720307 0.1416954 -0.063512124 0.108402096 0.010563644 -0.06728914
0.0012930292 0.07973437 -0.025612507 -0.074925184 -0.19303794 -0.032519456 -0.1372719 0.05862402
-0.36587408 -0.027806746 -0.26085308 0.14120159 0.14420362 0.103167444 0.045997217 0.019152667
-0.015987132 -0.047142483 -0.09565199 -0.021070017 0.015397374 -0.13090293 0.18376283 -0.11774306
-0.27792773 0.40142137 0.7255627 -0.17557804 0.21745852 0.12313593 0.22056954 -0.97092444
-0.09492539 0.17706661 0.65496486 0.23327929 -0.806454 -0.023931725 -0.04138817 0.2751965
0.056631245 -0.22523463 -0.7892687 0.6872844 -0.08730456 0.3844134 -0.0077523664 0.2305352
-0.20500332 -0.040465113 -0.6050483 -0.1919102 0.29438546 -0.15269649 0.65130013 0.10294784
0.29701975 0.48866466 -0.44496825 -0.33832243 -0.39256552 -0.3680566 -0.07637104 0.030175678
0.45916122 -0.76432896 0.3170326 -0.14296308 0.058299154 0.35532883 -0.14982845 0.14647004
-0.0710587 -0.8626426 0.053970836 0.37563455 -0.26818514 0.29399708 -0.10022103 -0.35134432
-0.3928367 0.026609119 0.26327863 0.33415672 -0.12970895 -0.49290678 0.22259839 -0.23761316
-0.77209353 -0.0327419 -0.4279782 -0.22706266 0.11819635 -0.5906718 0.09624786 0.23885708
-0.106519826 0.15843588 -0.38130173 -0.99798733 -0.28599674 0.37818834 -0.6256012 0.43446052
-0.38169634 0.14017655 0.08749148 -0.07636394 0.04111801 0.24662848 -0.13002299 -0.4449925
0.36750558 -0.53871995 0.44381452 0.19868973 -0.4457506 0.95969754 -0.16186027 -0.13111717
0.10713828 0.5460656 -0.117086604 0.3016008 0.20505123 -0.21656334 0.25428402 0.09877591
0.2493209 0.22383672 -0.17367595 -0.027171815 0.20385228 -0.29157665 -0.28466302 0.47524825
0.13913177 -0.16210175 0.05271657 -0.32739687 -0.07647361 -0.087677225 -0.4241424 -0.63609624
0.28349185 0.2558915 -0.5201066 -0.16181852 0.5028004 -0.18786143 0.39657792 0.30267605

network.12.bias f4 [5]
00000000: 7576 203f 08dd 0ebe af29 c33c 586c 9bbd
00000010: 123c 033e
0.6268075 -0.13951504 0.023823587 -0.07589024 0.12815884
