beam_deflection/class/models/fixed_free_constant.pth (torch, 6992 bytes, 8 tensors)

network.0.weight f4 [20, 1]
0	0x3e5c49fd	0.215126
1	0xbe175020	-0.14776659
2	0x3b1caabd	0.002390548
3	0xbe164b23	-0.146771
4	0x3f41b6dc	0.75669646
5	0xbe553e8a	-0.20824638
6	0xbe56eb19	-0.2098812
7	0xbf1cf4af	-0.6131086
8	0xbdab600e	-0.0836793
9	0x3e810857	0.25201675
10	0xbddd8f17	-0.10818308
11	0xbe1f4b96	-0.15556177
12	0x3caa6763	0.020801252
13	0xbf328642	-0.6973611
14	0xbe2b0076	-0.16699395
15	0xbf034383	-0.5127489
16	0xbe5e8f52	-0.2173436
17	0xbe42e2ef	-0.19031881
18	0x3e6023de	0.21888682
19	0xbe72e9d2	-0.23722008

network.0.bias f4 [20]
0	0xbd60f811	-0.054924075
1	0x3c420b87	0.011843569
2	0x3d9e8be3	0.07741525
3	0xbce215b2	-0.027598236
4	0x3ef73cb2	0.48288494
5	0x3e06a164	0.13147503
6	0xbba98678	-0.0051735006
7	0x3ee5bcd1	0.44870618
8	0xbd0d3f6d	-0.034484316
9	0xbdc7e6d6	-0.09760825
10	0xbdd6657d	-0.10468576
11	0x3b00f041	0.0019674452
12	0x3da6aa6f	0.081379764
13	0x3cadb4ba	0.021204341
14	0x3da870fd	0.08224676
15	0xbe0f2989	-0.13980688
16	0x3ae9c781	0.0017835946
17	0xbdf566e9	-0.11982519
18	0x3e21af6d	0.15789576
19	0x3e643ea7	0.22289525

network.2.weight f4 [20, 20]
0	0x3e8a2982	0.26984793
1	0x3eba02e5	0.36330333
2	0xbe929636	-0.28630227
3	0x3e636469	0.22206272
4	0xbe327211	-0.17426325
5	0xbe1d5679	-0.15365018
6	0xbe0859da	-0.13315526
7	0x3a546688	0.00081024365
8	0xbe92d27f	-0.2867622
9	0x3c8b0c17	0.016973538
10	0x3dcf7b48	0.10130936
11	0xbd131b1c	-0.035914525
12	0xbd5f5f43	-0.054534208
13	0xbdf54a17	-0.11977022
14	0x3e2a6f9a	0.16644135
15	0x3e53aec9	0.20672144
16	0x3eac9d36	0.33713692
17	0x3ebf861d	0.37407008
18	0xbe9752da	-0.29555398
19	0xbda9849b	-0.082772456
20	0x3e89a70a	0.26885253
21	0x3e285640	0.16439152
22	0xbecada37	-0.3961961
23	0xbc96f41e	-0.018426951
24	0xbe76bc34	-0.24095231
25	0xbd9f3a3b	-0.077747785
26	0x3c15e8f4	0.009149779
27	0x3e0e0588	0.13869298
28	0xbeb69648	-0.3566153
29	0x3db69ddb	0.08916827
30	0xbdd7c1c2	-0.10535003
31	0xbdb3b4d1	-0.08774722
32	0x3e7aa610	0.2447741
33	0x3db968b4	0.09053174
34	0xbe60db4f	-0.2195866
35	0xbd4b6a77	-0.04966208
36	0xbd0c4bf1	-0.03425211
37	0x3e43bc6b	0.19114845
38	0x3ece34b6	0.4027459
39	0x3e75eb14	0.24015456
40	0x3d4ea465	0.050449748
41	0xbddfac25	-0.10921506
42	0xbcdcd355	-0.02695624
43	0xbe463e63	-0.19359736
44	0xbd2ead7c	-0.042645916
45	0xbebda90c	-0.37043035
46	0x3e9f1d45	0.31077018
47	0x3ea2f814	0.31829894
48	0x3bd999a5	0.0066406303
49	0x3e0af516	0.13570055
50	0xbe828345	-0.25490776
51	0xbebe170b	-0.37126955
52	0x3e8ae7e0	0.27130032
53	0x3c04d897	0.00810828
54	0xbe630595	-0.22170098
55	0xbe1f0bf8	-0.1553191
56	0x3e2de58f	0.16982101
57	0x3d9c8af3	0.0764369
58	0xbd472a13	-0.04862411
59	0xbdb11e4c	-0.08648357
60	0x3d8239ed	0.06358705
61	0x3e7c3dff	0.24633025
62	0x3e55241c	0.20814556
63	0x3e8ab615	0.27092043
64	0x3eb111f7	0.3458402
65	0x3d65e58a	0.05612711
66	0xbdcf0f61	-0.10110355
67	0x3e2d3cd5	0.16917737
68	0xbec465ef	-0.3835902
69	0x3dcf3587	0.101176314
70	0x3d675262	0.05647505
71	0xbc0e1efc	-0.008674379
72	0x3d61e62b	0.055151146
73	0xbe331484	-0.17488295
74	0x3e0633b9	0.13105668
75	0x3e613c18	0.2199558
76	0xbe4e2a4c	-0.20133322
77	0xbeb95f90	-0.3620572
78	0x3ed27422	0.41104227
79	0xbe9adc9e	-0.30246443
80	0xbe0bed73	-0.13664798
81	0xbebf2195	-0.3733031
82	0x3de8f9cd	0.11375771
83	0x3daea35a	0.085272506
84	0xbda15e6b	-0.07879337
85	0x3e88400f	0.26611373
86	0x3e87affe	0.2650146
87	0x3e39c93a	0.18143168
88	0xbe7a6444	-0.24452311
89	0xbe1e3fcb	-0.15454023
90	0x3d4649eb	0.048410337
91	0xbebcc343	-0.36867723
92	0x3dce9ff1	0.100891
93	0xbe1b43c9	-0.15162577
94	0x3e0bc270	0.13648391
95	0xbe3956f1	-0.18099572
96	0x3e8ba2b8	0.27272582
97	0x3e7ffc0e	0.24998495
98	0xbe262c43	-0.16227822
99	0x3e5bd40f	0.21467613
100	0x3e01d611	0.12679316
101	0xbd9681cb	-0.07348975
102	0xbe42d227	-0.1902548
103	0x3e387534	0.1801346
104	0x3ee4c543	0.4468175
105	0xbc1a2389	-0.009407886
106	0x3e871f7f	0.26391217
107	0x3d0f85f1	0.035039846
108	0x3e914d13	0.28379115
109	0xbe928411	-0.28616384
110	0x3ddf72fb	0.10910603
111	0x3dbc9ee0	0.092099905
112	0x3e82adc0	0.25523186
113	0xbe6e711b	-0.23285334
114	0x3ed14a49	0.40876988
115	0xbe981fe0	-0.2971182
116	0x3e51420d	0.20435353
117	0x3e2c65db	0.1683573
118	0xbd7afe76	-0.06127783
119	0x3e57029d	0.2099709
120	0xbe92d374	-0.2867695
121	0x3e4671e5	0.19379385
122	0x3e3f63df	0.18690442
123	0xbeac9505	-0.33707443
124	0x3dc8c82e	0.09803806
125	0x3e4052e7	0.18781625
126	0xbe95e0ae	-0.2927298
127	0xbe944ef0	-0.28966475
128	0x3e827aa9	0.25484207
129	0xbec262d6	-0.3796603
130	0xbe3fc5c9	-0.18727793
131	0xbe2e0781	-0.1699505
132	0x3ea9824b	0.33107218
133	0xbd43f563	-0.04784144
134	0xbe8a1b34	-0.2697388
135	0xbe5eb980	-0.2175045
136	0xbc4cd243	-0.012501302
137	0x3d11521d	0.0354787
138	0xbe193b99	-0.14964141
139	0x3e1b5fe9	0.15173306
140	0x3e5d8ef0	0.21636558
141	0xbe987feb	-0.29785094
142	0x3ea505f6	0.3223111
143	0x3ebf8276	0.3740422
144	0x3eaf8f7d	0.3428916
145	0x3e1e1d4a	0.1544086
146	0xbe880663	-0.26567373
147	0x3e685c9c	0.22691578
148	0x3d9475f9	0.07249064
149	0xbd3a2bb0	-0.04545182
150	0x3e694f09	0.22784056
151	0xbe9d8ef2	-0.3077312
152	0x3e6bc75f	0.23025273
153	0x3e0f4e47	0.13994704
154	0x3ec29558	0.38004565
155	0xbe450109	-0.19238676
156	0xbe9afa4a	-0.3026908
157	0x3e8dfaf1	0.27730516
158	0x3cd9a91b	0.026569894
159	0x3eb67c2f	0.3564162
160	0x3c8acde3	0.016943878
161	0x3eab1080	0.33411026
162	0xbdd459b0	-0.10368669
163	0x3e807dca	0.2509597
164	0xbe0b7c98	-0.13621747
165	0xbde1bdb6	-0.110225126
166	0x3e9d7339	0.3075197
167	0xbe7293e1	-0.23689224
168	0x3eb1ef87	0.34753057
169	0x3ea830e8	0.32849813
170	0x3cc61fa5	0.024185011
171	0x3e2d1f7d	0.16906543
172	0xbe40d805	-0.18832405
173	0x3ee0f565	0.4393722
174	0x3ea5c37a	0.323757
175	0x3e9f254d	0.31083146
176	0x3e266c00	0.16252136
177	0xbdb7691c	-0.08955595
178	0xbe784625	-0.24245508
179	0xbdc6c921	-0.09706331
180	0x3e2d5518	0.16926992
181	0x3dd5a135	0.104311384
182	0x3e6c54f4	0.23079282
183	0xbe4cdfe0	-0.20007277
184	0x3ebcfc5a	0.3691128
185	0xbe5fa616	-0.218407
186	0xbc1d9ab8	-0.009619407
187	0x3ee82006	0.45336932
188	0xbeb88c91	-0.36044744
189	0x3d0778ef	0.033074316
190	0xbd5bace0	-0.053631663
191	0xbe7aab55	-0.2447942
192	0xbd90332b	-0.070410095
193	0x3e6f6510	0.23378396
194	0x3dc76231	0.097355254
195	0xbe228228	-0.15869963
196	0x3e7ed91a	0.24887505
197	0xbe2de0fc	-0.16980356
198	0x3dc3e5b4	0.09565297
199	0xbe546bb4	-0.2074421
200	0xbe3e10e8	-0.18561137
201	0xbd9780ee	-0.07397638
202	0xbe23d351	-0.1599858
203	0x3e828900	0.25495148
204	0x3eaf65f3	0.3425747
205	0x3e7789b1	0.24173619
206	0xbd944653	-0.07239976
207	0xbecca853	-0.3997217
208	0xbe95e622	-0.2927714
209	0xbead4902	-0.33844763
210	0xbe1718e6	-0.14755592
211	0x3ec650ef	0.38733622
212	0xbe3ff68c	-0.18746394
213	0x3e3a750f	0.18208717
214	0x3c5a1e88	0.013312943
215	0xbebaad05	-0.36460128
216	0x3ea224e6	0.31668776
217	0x3e9c2a63	0.30501089
218	0xbe125ae3	-0.14292483
219	0x3e9a165a	0.30095178
220	0xbe01a6fb	-0.12661354
221	0xbeb089f2	-0.34480244
222	0xbe69b49b	-0.22822802
223	0xbcbf8d49	-0.0233828
224	0x3eb49cc1	0.35275844
225	0xbd83aad5	-0.06429068
226	0x3dd8a68f	0.105786435
227	0x3da26f25	0.079313554
228	0xbbd760e3	-0.006572829
229	0x3e43f23e	0.19135377
230	0x3e040467	0.12892304
231	0xbdddde49	-0.10833413
232	0x3e82fa9e	0.2558183
233	0x3e8095fb	0.25114426
234	0x3e9b4fff	0.3033447
235	0xbe5918a7	-0.2120081
236	0xbdca4f0f	-0.098783605
237	0x3eb7e94b	0.35920176
238	0x3e37ee88	0.17962086
239	0x3eb2dafe	0.34932703
240	0xbc94871d	-0.018130833
241	0x3ea9e12c	0.33179605
242	0xbe74be23	-0.23900656
243	0xbcbaaf50	-0.022788674
244	0xbc97adfe	-0.018515583
245	0x3eafdbb5	0.3434731
246	0x3e85a7c0	0.26104546
247	0xbe62a768	-0.22134173
248	0x3e223ce5	0.15843542
249	0xbe6c280e	-0.23062155
250	0xbe6bb273	-0.23017292
251	0xbe7723d7	-0.24134766
252	0x3eaf2524	0.34208024
253	0xbd96b617	-0.0735895
254	0x3ea6f2e8	0.32607198
255	0xbd66c73b	-0.056342345

network.2.bias f4 [20]
0	0xbdea3b9c	-0.11437151
1	0x3dd53790	0.10410988
2	0x3d3781fc	0.044801697
3	0x3d88324a	0.06650217
4	0xbbdabd56	-0.0066754026
5	0xbdedcd94	-0.116114765
6	0xbdaabec8	-0.0833717
7	0xbdb45e66	-0.088070676
8	0xbdfb0cc0	-0.12258291
9	0x3d060746	0.03272178
10	0xbe14b6d7	-0.14522873
11	0xbda8ae11	-0.082363255
12	0x3daf079b	0.085463725
13	0x3e06cee2	0.13164857
14	0xbdaa5168	-0.08316308
15	0x3dec2e86	0.11532311
16	0xbda10704	-0.07862666
17	0x3c323b49	0.0108783925
18	0xbd9cff03	-0.07665827
19	0x3c082d0b	0.00831152

network.4.weight f4 [20, 20]
0	0xbeac0a5b	-0.3360165
1	0x3d12ff78	0.035888165
2	0x3c961743	0.018321639
3	0x3da5c4de	0.0809419
4	0xbd5baa98	-0.053629488
5	0xbe4985c5	-0.19679935
6	0x3ea901a1	0.33009055
7	0xbdfa21c1	-0.12213469
8	0x3e911096	0.28332967
9	0xbdfe0325	-0.124029435
10	0x3e475d90	0.19469285
11	0xbc68ba14	-0.014204521
12	0xbe133e56	-0.14379248
13	0x3e613d46	0.2199603
14	0xbdc79fed	-0.097473
15	0x3d1d7de2	0.03845013
16	0x3e3407ff	0.17581175
17	0xbba96c57	-0.005170386
18	0xbd41a7de	-0.04727923
19	0x3c4d1637	0.012517503
20	0x3dd66185	0.10467819
21	0xbc1571de	-0.009121386
22	0x3df1ea4c	0.11812267
23	0x3c569b3b	0.013098533
24	0xbd988811	-0.074478276
25	0x3eafba6c	0.34321916
26	0x3e58ae2a	0.21160188
27	0xbe9bd577	-0.30436298
28	0xbd9a90cd	-0.0754715
29	0xbe72d29b	-0.23713152
30	0xbe5f66f7	-0.21816622
31	0xbeb31f28	-0.34984708
32	0x3ea9363e	0.33049196
33	0xbe3af0e1	-0.1825595
34	0xbeb57f8e	-0.3544888
35	0xbe63eb04	-0.2225762
36	0xbd4d10e8	-0.05006495
37	0x3e97d6d3	0.29656085
38	0xbe599267	-0.21247254
39	0x3e50c7d6	0.20388731
40	0xbe0917b7	-0.13387953
41	0x3cecce7e	0.028907057
42	0x3de92be6	0.11385326
43	0xbdd341f4	-0.10315314
44	0x3e606861	0.21914817
45	0xbdfa00ef	-0.12207209
46	0x3e3ae988	0.18253148
47	0x3e24ec5f	0.16105793
48	0x3c07013e	0.008240042
49	0xbe8085b7	-0.25102016
50	0x3e7762d2	0.2415879
51	0xbb8d426b	-0.004310896
52	0xbd9d1b63	-0.07671239
53	0x3d9881eb	0.07446655
54	0x3eb8718f	0.36024138
55	0xbe836453	-0.2566248
56	0x3eb7ed71	0.3592334
57	0xbe1c18f2	-0.15243891
58	0x3e9b6034	0.30346835
59	0xbec136ed	-0.37737218
60	0x3d5d8157	0.054078426
61	0x3ecf1d91	0.40452245
62	0xbe44b636	-0.19210133
63	0xbea430d0	-0.3206849
64	0xbea9a55d	-0.33133975
65	0xbe9a7b4c	-0.30172193
66	0x3e769355	0.2407964
67	0xbea5c03e	-0.32373232
68	0x3e7bffcf	0.24609302
69	0x3e6d76f4	0.23189908
70	0xbebf9a1c	-0.37422264
71	0x3e30cca9	0.17265572
72	0x3ca80682	0.020510916
73	0xbdbfddf2	-0.093685046
74	0xbeb7079f	-0.35748002
75	0xbc6c17d0	-0.014409974
76	0x3e6b1c95	0.22960122
77	0x3eb34c71	0.35019258
78	0x3e4a5fd2	0.19763115
79	0x3d914ab4	0.070943266
80	0x3d5934ea	0.05302898
81	0xbee30e3b	-0.44346794
82	0xbeaa945a	-0.33316308
83	0x3e1ed60c	0.1551134
84	0xbdbb49a7	-0.091449074
85	0x3d8fb991	0.07017816
86	0x3ed1797d	0.40913
87	0xbdbe43a1	-0.09290243
88	0xbe033337	-0.12812506
89	0x3d960fb9	0.073272176
90	0x3e7fbad9	0.2497362
91	0x3d274284	0.04083492
92	0xbe0e1b7c	-0.13877672
93	0xbea6c365	-0.3257095
94	0x3e3920cb	0.18078916
95	0x3e1fac10	0.1559298
96	0xbe907bdb	-0.28219494
97	0x3ecfd980	0.40595627
98	0xbe9d142b	-0.3067945
99	0xbe642598	-0.22279966
100	0xbe97dd60	-0.29661083
101	0x3ec999ac	0.39375055
102	0x3de8fe8f	0.11376678
103	0x3e7fcfe3	0.24981646
104	0xbe3d3c70	-0.18480086
105	0xbda3381b	-0.07969686
106	0xbbfc6c37	-0.00770333
107	0x3e991a96	0.29903096
108	0x3d89c7c8	0.067275584
109	0x3e378371	0.17921235
110	0x3e9adbae	0.30245727
111	0xbe2806be	-0.16408822
112	0xbe3d772f	-0.18502496
113	0xbed78d1d	-0.42099848
114	0x3e1b47d6	0.15164122
115	0xbcbe2a45	-0.023213515
116	0x3e51a5e0	0.20473433
117	0x3e49f9b9	0.19724168
118	0xbe5486ed	-0.20754595
119	0x3e5470ac	0.20746106
120	0xbdcc8741	-0.09986735
121	0xbe031f87	-0.12804995
122	0xbe0ec1d7	-0.13941132
123	0xbeba8c1a	-0.36435014
124	0x3ea115fe	0.3146209
125	0xbee16ef8	-0.44029975
126	0x3e4079d8	0.1879648
127	0xbe38e190	-0.18054795
128	0xbeac5cf0	-0.33664656
129	0x3e94619e	0.28980726
130	0xbec96507	-0.3933489
131	0xbebd941e	-0.37027067
132	0xbc50b6da	-0.012738908
133	0xbe1b5400	-0.15168762
134	0xbe2ec146	-0.17065915
135	0xbdbec644	-0.0931516
136	0xbea52a3b	-0.32258782
137	0x3d82e537	0.063913755
138	0xbe01472d	-0.12624808
139	0x3e413c0b	0.18870561
140	0xbdd0a165	-0.101870336
141	0xbcee8e2d	-0.02912053
142	0xbe7f31b3	-0.24921302
143	0x3c699ebe	0.0142590385
144	0x3d3ca877	0.046059098
145	0x3e5ce671	0.21572281
146	0x3e233304	0.1593743
147	0xbe7123b3	-0.23548774
148	0xbe796557	-0.24355064
149	0xbd9b12fb	-0.075719796
150	0x3ee17acc	0.44039
151	0x3e4a04bf	0.19728373
152	0xbe053507	-0.1300851
153	0x3d7da7c7	0.061927583
154	0x3e25fa20	0.16208696
155	0xbe303121	-0.17206241
156	0x3e12a219	0.14319648
157	0x3da594a3	0.08084991
158	0x3db02b03	0.08601954
159	0x3dc7a6f0	0.09748638
160	0xbe45c6c3	-0.19314103
161	0x3c60deb7	0.013724974
162	0xbe087a8f	-0.13328002
163	0x3de2eb93	0.110800885
164	0xbe89547e	-0.26822275
165	0x3dbf2488	0.0933314
166	0x3e513e21	0.20433857
167	0xbe43bcb2	-0.1911495
168	0x3d7558ed	0.05989926
169	0x3eabbecc	0.33544004
170	0xbe32a1fe	-0.17444608
171	0x3e588ba1	0.21147014
172	0x3e8db2e0	0.27675533
173	0xbe9ef570	-0.3104663
174	0xbe2e9319	-0.17048301
175	0xbeae4b18	-0.34041667
176	0x3ea5b29d	0.32362834
177	0xbb0edf4b	-0.0021800573
178	0x3e1e33ff	0.15449522
179	0x3eaadcb7	0.33371517
180	0x3ea08faa	0.31359607
181	0x3e87a274	0.2649113
182	0xbe5c8176	-0.2153376
183	0xbe7d607c	-0.24743837
184	0x3e66466a	0.22487798
185	0xbe835526	-0.256509
186	0xbe4f9759	-0.20272578
187	0xbe41d88b	-0.18930261
188	0xba6b2de5	-0.00089713774
189	0xbe90d377	-0.28286335
190	0x3e1be47c	0.15223879
191	0xbec8e178	-0.3923452
192	0xbe3ad882	-0.18246654
193	0xbe8446a5	-0.25835148
194	0x3e420a42	0.18949226
195	0xbeb48f74	-0.35265696
196	0xbdfb6382	-0.12274839
197	0x3e0659e5	0.1312023
198	0xbdb7eb7b	-0.08980461
199	0xbe9f4fdc	-0.31115615
200	0xbe32a78c	-0.17446727
201	0xbeaba769	-0.3352616
202	0x3e49f4e1	0.1972232
203	0x3ebb81be	0.36622423
204	0xbec4471d	-0.38335505
205	0xbe43898c	-0.19095439
206	0xbee44e40	-0.4459095
207	0xbe2a9e5f	-0.16661976
208	0x3e0b6ade	0.13614985
209	0x3d6e7ac9	0.058222566
210	0x3de3b36c	0.111182064
211	0x3e759624	0.23983055
212	0xbee21ba1	-0.44161704
213	0xbe482149	-0.19543947
214	0x3e7d2c91	0.24724032
215	0xbe701d4c	-0.23448676
216	0x3e8cc07e	0.2749061
217	0xbddb298b	-0.10701283
218	0x3e2162a8	0.1576029
219	0x3eb6c9c0	0.35700798
220	0x3e493742	0.19649985
221	0xbed55f46	-0.4167425
222	0xbdbc76a5	-0.09202317
223	0x3ce99615	0.028513948
224	0xbea12075	-0.31470075
225	0x3de9a0dc	0.114076346
226	0x3ef6185e	0.48065466
227	0x3e5a818d	0.21338482
228	0x3d4e33f1	0.050342504
229	0x3c437c75	0.011931528
230	0x3e38b7d4	0.18038875
231	0xbe064316	-0.13111529
232	0x3e6eceff	0.2332115
233	0x3e1c10dc	0.15240806
234	0x3ebb2227	0.36549494
235	0xbdea41e0	-0.11438346
236	0x3e5d4c5b	0.21611159
237	0x3e8ecfaf	0.27892825
238	0x3e56f8e4	0.20993382
239	0x3e4696d1	0.1939347
240	0x3f03ac58	0.5143485
241	0xbcdf320f	-0.02724555
242	0xbe894416	-0.26809758
243	0xbec779c2	-0.3896008
244	0x3d187337	0.037219252
245	0x3e9e380b	0.30902132
246	0xbee2b6f5	-0.4428021
247	0x3df13b52	0.117788926
248	0x3f00ea91	0.5035792
249	0xbf077104	-0.52906823
250	0x3e8face8	0.28061604
251	0xbd4ea187	-0.050447013
252	0xbea67090	-0.32507753
253	0xbf00d2e7	-0.5032181
254	0x3e376b97	0.17912136
255	0xbed77a3a	-0.4208544

network.4.bias f4 [20]
0	0x3e0e97f6	0.13925156
1	0x3daf5589	0.085612364
2	0xbdb80a24	-0.08986309
3	0x3d8093de	0.062782034
4	0xbdb67447	-0.08908897
5	0xbd1adc7f	-0.037807938
6	0x3e03b42e	0.12861702
7	0xbe082631	-0.13295819
8	0xbd99685b	-0.07490607
9	0x3bbfb61a	0.0058505656
10	0x3d04c130	0.0324108
11	0xbe181bbe	-0.14854333
12	0xbdeb313f	-0.11484002
13	0x3dee02b0	0.11621606
14	0x3cff20c8	0.031143561
15	0xbdadaa6f	-0.08479773
16	0x3d761631	0.060079757
17	0xbd00ba41	-0.031427626
18	0xbe355acf	-0.17710422
19	0x3df51cc3	0.119683765

network.6.weight f4 [2, 20]
0	0xbe0840dd	-0.13305993
1	0xbee471e2	-0.44618136
2	0x3e8eae97	0.27867576
3	0xbe473c29	-0.19456543
4	0xbf01eee9	-0.5075517
5	0x3f04c477	0.5186228
6	0xbf05813d	-0.52150327
7	0xbe3ae2bd	-0.18250556
8	0x3ecf761e	0.40519804
9	0xbed85db0	-0.42258978
10	0x3f0991d4	0.5373814
11	0xbe454ada	-0.19266835
12	0xbea55348	-0.322901
13	0xbec4aaf3	-0.38411674
14	0xbeed32a9	-0.46327713
15	0x3e951939	0.29120806
16	0xbe8e4458	-0.27786517
17	0x3ea1f720	0.31633854
18	0x3e0ad3c2	0.13557342
19	0xbf0317f6	-0.51208436
20	0x3eab0f23	0.33409986
21	0x3e0c1b83	0.1368237
22	0xbebae925	-0.36506
23	0x3ea08223	0.31349286
24	0xbf020506	-0.50788915
25	0x3e19bdb5	0.15013774
26	0x3ed1d757	0.40984604
27	0xbf275f0d	-0.6537941
28	0xbd0b84fe	-0.034062378
29	0x3e23b024	0.15985161
30	0x3e9059b6	0.28193444
31	0xbf3e97e2	-0.74450505
32	0x3f51e0d1	0.8198367
33	0x3f00fa96	0.50382364
34	0xbe530271	-0.206064
35	0xbf145595	-0.5794309
36	0xbd814ae9	-0.06313116
37	0x3d3b5dbe	0.045743696
38	0xbf05392a	-0.5204035
39	0x3f2cb768	0.67467356

network.6.bias f4 [2]
0	0xbdefc96d	-0.11708341
1	0x3ec61309	0.38686398
