Clean/models/64x5_40000.pth (torch, 73186 bytes, 12 tensors)

network.0.weight f4 [64, 2]
0	0x3e5f80b9	0.21826448
1	0x3ebf95ce	0.3741898
2	0x3d703f75	0.058654267
3	0x3e283268	0.16425478
4	0x3e9bd800	0.30438232
5	0x3e557cf1	0.20848443
6	0x3eb579fe	0.35444635
7	0xbe88c9ca	-0.26716453
8	0x3e4324ff	0.19057082
9	0xbed2f92d	-0.4120573
10	0xbeeffcce	-0.46872562
11	0x3f069e0c	0.5258491
12	0xbe9c2a57	-0.30501053
13	0x3f2b3c56	0.6688894
14	0xbdd1aca8	-0.1023801
15	0xbf1abb4c	-0.6044204
16	0x3eaa3592	0.33243996
17	0xbf0b9cd6	-0.5453619
18	0x3c0697c9	0.008214899
19	0xbe9725fc	-0.29521167
20	0x3c8e5e53	0.017378962
21	0x3f1b2192	0.605981
22	0x3e075e04	0.13219458
23	0x3d3d039e	0.046146028
24	0xbe1f9f83	-0.15588193
25	0xbeec36bd	-0.46135512
26	0x3efb658a	0.49100906
27	0xbee2b7fe	-0.44281
28	0xbe619ce8	-0.22032511
29	0xbd3d4d25	-0.04621615
30	0x3e99a490	0.30008364
31	0x3f5576a0	0.8338413
32	0x3e2ed904	0.17074972
33	0x3f0267ad	0.50939447
34	0xbfcbf680	-1.5934601
35	0xbe32ba8a	-0.17453972
36	0xbea54810	-0.32281542
37	0xbd3183ca	-0.043338574
38	0xbe8187a3	-0.25298795
39	0x3d9dc933	0.07704391
40	0x3d8ab668	0.067730725
41	0xbf2166f0	-0.63047695
42	0xbe661b74	-0.2247141
43	0xbed38ae5	-0.41316906
44	0xbec8a31b	-0.3918694
45	0x3f178607	0.59188884
46	0xbe91eb39	-0.28499773
47	0x3d53b5f4	0.051687196
48	0xbda7c1a3	-0.0819123
49	0xbee93182	-0.45545584
50	0xbec53a3c	-0.38520992
51	0x3ef33024	0.47497666
52	0xbf1ab21a	-0.6042801
53	0x3f1e127e	0.61746967
54	0xbc0d84cf	-0.008637621
55	0xbe7c56bb	-0.2464246
56	0x3dfca266	0.123356625
57	0xbe2ae9f1	-0.16690804
58	0x3e3f3fe3	0.18676715
59	0x3e692b31	0.22770382
60	0xbd5f9032	-0.054580875
61	0xbe9badf1	-0.30406144
62	0x3d67794e	0.05651217
63	0xbef70cb4	-0.4825188
64	0xbeb9c733	-0.3628479
65	0x3ef64833	0.4810196
66	0xbe4ee946	-0.20206174
67	0xbe9b1db9	-0.30296114
68	0x3ef28622	0.4736796
69	0xbeba63d6	-0.36404294
70	0xbe5cbf50	-0.21557355
71	0xbe5c0f55	-0.21490224
72	0x3ea98111	0.33106282
73	0xbf04e508	-0.51911974
74	0xbd54d3b2	-0.0519597
75	0x3d269f02	0.040678985
76	0xbea3beb2	-0.31981426
77	0x3e970336	0.29494637
78	0xbdea35bf	-0.114360325
79	0xbef78c64	-0.48349297
80	0x3eb239e5	0.34809795
81	0x3db5ffa7	0.088866524
82	0x3e2fa23f	0.17151736
83	0x3ee5f8b6	0.44916314
84	0xbeba898f	-0.36433074
85	0x3f0a5108	0.54029894
86	0x3e76b220	0.24091387
87	0x3e97a62c	0.29618967
88	0xbe076a43	-0.1322413
89	0x3e5d3520	0.21602297
90	0x3ddae7b4	0.10688725
91	0xbed1191e	-0.40839475
92	0xbe829335	-0.25502935
93	0x3ee6b962	0.4506331
94	0xbe7f6be1	-0.24943496
95	0xbe58b468	-0.2116257
96	0x3e26e6d1	0.16298987
97	0x3e51fc10	0.2050631
98	0xbe79e84a	-0.24405017
99	0x3f0c681d	0.54846364
100	0x3dff6a32	0.12471427
101	0x3e8468a4	0.25861084
102	0x3e937f7c	0.288082
103	0x3d65d509	0.05611137
104	0x3ccb1b43	0.024793273
105	0x3e4069b4	0.18790323
106	0x3ec69b2a	0.38790256
107	0xbd7b45d9	-0.06134591
108	0xbe127927	-0.14304028
109	0x3eb9b121	0.3626795
110	0x3ecc3c2a	0.39889652
111	0x3daf32b6	0.08554594
112	0x3e8b1e74	0.2717167
113	0xbebe203a	-0.37133962
114	0x3e0812bd	0.13288398
115	0x3ed80ea5	0.42198673
116	0xbe2abebc	-0.16674322
117	0x3eae4975	0.34040418
118	0xbe916693	-0.2839857
119	0x3f2eb620	0.6824665
120	0x3d452631	0.048132125
121	0x3e91d21d	0.28480616
122	0xbebd9500	-0.3702774
123	0x3f10e208	0.56594896
124	0x3eac31cc	0.33631742
125	0xbe24bf49	-0.16088594
126	0xbe642e6c	-0.22283334
127	0x3ee7d6f5	0.45281187

network.0.bias f4 [64]
0	0xbeb1732d	-0.34658185
1	0xbe2ed821	-0.17074634
2	0xbe4f68ed	-0.2025487
3	0xbe4fd2f2	-0.20295313
4	0xbda5ccc4	-0.080956966
5	0x3e77a9ce	0.24185869
6	0xbcd8d13f	-0.026466964
7	0x3ea45b8f	0.32101104
8	0x3d1d8a3f	0.03846192
9	0x3d69aa05	0.05704691
10	0xbe8a8e86	-0.27061862
11	0xbe555fe1	-0.20837356
12	0x3e7ce9fb	0.24698631
13	0xbe1de172	-0.15418032
14	0x3e9759a3	0.29560575
15	0xbf08f4c0	-0.5349846
16	0xbe41cdfb	-0.18926232
17	0xbe3ce375	-0.18446143
18	0x3e8e264e	0.277636
19	0x3cebee63	0.028800195
20	0x3e44f48f	0.19233917
21	0x3ea52dbd	0.32261458
22	0x3d8fee35	0.07027856
23	0x3ea7adc9	0.32749775
24	0x3df7935f	0.12088656
25	0x3e0e11be	0.13873956
26	0x3eda69fc	0.42658985
27	0x3e76f340	0.2411623
28	0x3c6f5351	0.0146072665
29	0xbe8c0077	-0.27344105
30	0x3e82f017	0.255738
31	0x3e64969d	0.2232308
32	0x3e0a7cf7	0.13524233
33	0x3e6c7938	0.23093116
34	0xbe5c9540	-0.2154131
35	0x3e8830ac	0.26599634
36	0xbe832eb4	-0.2562157
37	0xbd3a87e0	-0.045539737
38	0x3e124472	0.14283922
39	0x3e89331f	0.26796815
40	0xbe903a71	-0.28169587
41	0xbe968d61	-0.2940474
42	0x3b0f0a65	0.0021826264
43	0xbe964101	-0.2934647
44	0xbd89032e	-0.066900596
45	0x3e48b586	0.19600496
46	0xbdc1d66e	-0.09464727
47	0x3e1bb19e	0.15204474
48	0xbe9ef19c	-0.31043708
49	0xbc6546d5	-0.013993938
50	0xbe5ab347	-0.21357451
51	0xbe68ba95	-0.22727425
52	0xbe4c1424	-0.19929558
53	0xbee87f9c	-0.45409858
54	0xbdab16af	-0.08353936
55	0xbeeffe5d	-0.4687375
56	0xbdd22f87	-0.10262971
57	0xbe9eb675	-0.3099858
58	0x3d192eb8	0.03739807
59	0xbe184c12	-0.14872769
60	0xbe048469	-0.12941135
61	0x3d11fa11	0.035638873
62	0xbea772fa	-0.32704908
63	0xbd413e37	-0.047178473

network.2.weight f4 [64, 64]
0	0xbe0603e9	-0.13087429
1	0x3d2664ab	0.04062335
2	0xbde424ea	-0.11139853
3	0xbdedea10	-0.116169095
4	0x3cbc6906	0.022999298
5	0x3dc98ed4	0.098416954
6	0xbde85217	-0.113437824
7	0x3d45b79e	0.048270814
8	0x3e3e730d	0.18598576
9	0xbe0b0a50	-0.13578153
10	0x3ddbd5ba	0.107341245
11	0xbe221658	-0.15828836
12	0x3e12da24	0.14341027
13	0x3dfcd094	0.123444706
14	0x3deb268e	0.11481963
15	0xbe3fb156	-0.18719992
16	0x3e5cd681	0.21566202
17	0xbd7c0fdd	-0.061538566
18	0xbdc2c0dd	-0.09509442
19	0x3e4b3560	0.1984458
20	0xbe243994	-0.1603759
21	0x3d8f7f98	0.070067585
22	0x3d6dcc8a	0.05805639
23	0xbe2cdc1e	-0.16880843
24	0x3d93b08c	0.07211408
25	0x3e051d5c	0.12999481
26	0x3e71ef85	0.23626526
27	0x3d89faab	0.06737264
28	0xbd213057	-0.03935274
29	0x3daa68d7	0.08320778
30	0x3e2488c9	0.16067804
31	0x3de56060	0.11200023
32	0x3dc7cc57	0.097557716
33	0xbd71d70a	-0.059042968
34	0x3e2c476e	0.16824123
35	0xbe32f57d	-0.17476459
36	0xbe5b164a	-0.21395221
37	0x3db50a55	0.08839861
38	0xbe2b67d1	-0.16738822
39	0x3d05f32e	0.032702617
40	0xbe2cb5ef	-0.16866277
41	0x3b869d7c	0.004108129
42	0x3c47cfe7	0.012195564
43	0x3c3d5889	0.011556753
44	0xbd390acf	-0.045176324
45	0xbd32babc	-0.043635115
46	0x3e22bafb	0.1589164
47	0x3bb90e44	0.0056474525
48	0x3e6ddb44	0.23228174
49	0xbe59ebe0	-0.21281385
50	0xbd65e364	-0.05612506
51	0x3cfee0ad	0.031112993
52	0x3dfeac27	0.12435179
53	0xbda82d87	-0.08211809
54	0xbcb2e24d	-0.021836424
55	0x3d0d7e4c	0.034544274
56	0xbe157ade	-0.14597651
57	0xbdc300e4	-0.09521654
58	0xbe1896b9	-0.14901246
59	0x3e240dd8	0.16020906
60	0xbe263004	-0.16229254
61	0x3e303c02	0.17210391
62	0x3e16dc20	0.14732409
63	0xbdf58c45	-0.11989645
64	0x3e908267	0.2822449
65	0x3c1b6637	0.009484819
66	0x3e15d40b	0.14631669
67	0x3cda0f9d	0.026618773
68	0xbe585d8d	-0.21129437
69	0x3d54afbd	0.05192541
70	0x3ccc89d5	0.024968067
71	0xbde0c8a2	-0.10975768
72	0xbe5de520	-0.21669436
73	0xbe795780	-0.24349785
74	0x3e810370	0.25197935
75	0xbd3d2a88	-0.04618314
76	0x3d1fe4f7	0.039036717
77	0x3de93587	0.11387163
78	0x3dc9eeff	0.09860038
79	0x3ed5f421	0.41787818
80	0x3e32c55e	0.17458102
81	0x3d91e0ad	0.07122932
82	0xbe669a3e	-0.22519776
83	0x3dacbd60	0.08434558
84	0xbcdc908f	-0.0269244
85	0x3d3d8a16	0.046274267
86	0x3dafb17f	0.085787766
87	0x3dab16bf	0.08353948
88	0x3d939137	0.07205432
89	0xbd1bba00	-0.03801918
90	0xbda494be	-0.08036183
91	0xbd7febaf	-0.062480625
92	0x3a81377c	0.0009858455
93	0x3e800a35	0.25007787
94	0xbdee954a	-0.116495684
95	0xbe8f9ee2	-0.28050905
96	0xbd504139	-0.05084345
97	0xbd3221e8	-0.043489367
98	0x3e0dc167	0.13843308
99	0xbe0497cf	-0.12948535
100	0xbd85ecdf	-0.0653932
101	0xbd050619	-0.03247652
102	0xbce1b45c	-0.027551822
103	0xbe45d979	-0.1932124
104	0xbcc6df5c	-0.024276428
105	0x3e8d65fa	0.27616864
106	0xbe08218a	-0.13294044
107	0x3e33eb53	0.17570238
108	0x3e208a84	0.1567784
109	0xbdf44d6b	-0.11928829
110	0xbc9a2735	-0.018817523
111	0xbe302148	-0.17200196
112	0xbd59050a	-0.05298332
113	0x3e14c054	0.14526492
114	0xbacb9886	-0.0015533126
115	0x3e20b863	0.15695338
116	0x3c01f63b	0.007932241
117	0xbd973eef	-0.073850505
118	0x3e0efc75	0.13963492
119	0x3e0283d8	0.12745607
120	0x3e2ca8ad	0.1686122
121	0x3b61b6c7	0.003444122
122	0x3db96683	0.09052756
123	0x3e39755d	0.18111177
124	0xbdc99f20	-0.09844804
125	0xbdfef3fa	-0.124488786
126	0x3e3a4bdf	0.18193005
127	0x3cef4823	0.029209202
128	0xbe9847d9	-0.29742315
129	0xbe4987e9	-0.19680752
130	0xbe904ca4	-0.28183472
131	0xbd57d6d1	-0.0526951
132	0x3db26e39	0.087124296
133	0x3cf24e6b	0.029578408
134	0xbe3f8c14	-0.1870578
135	0x3ea0fdc4	0.31443608
136	0xbd37eb3f	-0.044902083
137	0x3dbe694a	0.09297426
138	0x3b3846ee	0.002811845
139	0xbdb85a54	-0.09001604
140	0x3dde1130	0.10843122
141	0xbc5e5e1c	-0.013572242
142	0x3d5bc80d	0.05365758
143	0xbf08b0c4	-0.5339472
144	0xbeaef837	-0.34173748
145	0xbe6c6d62	-0.23088601
146	0xbd84c881	-0.064835556
147	0x3ba046fc	0.0048912745
148	0x3e536681	0.20644571
149	0x3e5c0bbe	0.21488854
150	0x3cec2da4	0.028830357
151	0x3d7b478a	0.06134752
152	0xbd8dbaf4	-0.06920424
153	0xbd662627	-0.05618873
154	0xbd5505ec	-0.0520076
155	0xbc9bc1b0	-0.019013256
156	0xbda108fd	-0.078630425
157	0xbe9f404b	-0.3110374
158	0xbc2ef84b	-0.010679315
159	0x3d1e29f4	0.03861423
160	0x3c3b3e85	0.01142848
161	0x3e8c771b	0.2743462
162	0xbe766f4f	-0.24065898
163	0x3e9d9f83	0.3078576
164	0x3c2b579a	0.010457898
165	0x3ddca28e	0.10773192
166	0xbdb56a34	-0.08858147
167	0x3e867046	0.26257533
168	0xbeb6b6e4	-0.3568641
169	0xbce91377	-0.028451664
170	0x3e2fdb82	0.1717358
171	0xbead32af	-0.3382773
172	0x3d8bc71a	0.06825085
173	0x3e25f1a4	0.1620546
174	0x3e4f926f	0.20270704
175	0x3e91168f	0.28337523
176	0xbd2dc4e0	-0.042424083
177	0xbdaf5853	-0.085617684
178	0xbe3e9430	-0.18611217
179	0xbe336847	-0.17520247
180	0xbb5ee2f1	-0.003400978
181	0x3d25c5b3	0.040471744
182	0x3e31c21a	0.173592
183	0xbe9c833b	-0.3056887
184	0xbdfd9322	-0.12381579
185	0xbdea3296	-0.1143543
186	0x3e458fdf	0.19293164
187	0x3de7c375	0.11316577
188	0x3ca711ac	0.020394169
189	0xbdb85f79	-0.09002585
190	0xbdfc494e	-0.12318669
191	0xbcb212b2	-0.02173743
192	0xbe8d7a31	-0.27632287
193	0x3d816693	0.063183926
194	0x3dc7c88d	0.09755049
195	0x3d79bced	0.06097119
196	0x3e0a36c5	0.13497455
197	0x3de6405c	0.11242744
198	0x3c089218	0.008335613
199	0x3e460d66	0.19341049
200	0x3e47cb7c	0.19511217
201	0x3e057331	0.13032223
202	0x3d614d4e	0.055005364
203	0xbe20d191	-0.15704943
204	0x3d32ae04	0.043622985
205	0xbe3e1fad	-0.18566771
206	0x3da68f63	0.081328176
207	0xbe538f42	-0.20660117
208	0xbe4ffac5	-0.20310505
209	0xbeb68ad1	-0.35652784
210	0xbd1a3aaf	-0.03765362
211	0xbdfa0465	-0.122078694
212	0x3b366707	0.0027832405
213	0x3e0b6c51	0.13615538
214	0xbe050e3e	-0.12993714
215	0x3e4c0bc7	0.19926368
216	0x3e702c14	0.23454314
217	0x3d1769c7	0.03696611
218	0x388f2f41	6.827573e-05
219	0xbdc816e2	-0.097699896
220	0xbd77085f	-0.060310718
221	0x3d769bbf	0.060207125
222	0x3e680f33	0.22662048
223	0x3e525d80	0.2054348
224	0xbe1ddde7	-0.1541668
225	0x3e22f83e	0.1591501
226	0xbd5d9d46	-0.054105066
227	0xbdccf3b4	-0.1000742
228	0x3e0326ff	0.12807845
229	0xbd8220c6	-0.06353907
230	0x3e53aa74	0.20670491
231	0x3dfb5083	0.12271216
232	0x3da8c23a	0.08240171
233	0xbe91d995	-0.28486314
234	0x3b57bee8	0.0032920185
235	0x3d5183df	0.051151153
236	0xbc9e02cc	-0.019288443
237	0x3cc809fb	0.024418822
238	0xbe6c8289	-0.2309667
239	0xbdf2604f	-0.11834776
240	0xbda13ef5	-0.07873336
241	0xbe4170c6	-0.18890676
242	0xbd88d48c	-0.06681165
243	0x3e33e213	0.17566709
244	0xbcd46795	-0.025928298
245	0xbe004f96	-0.1253036
246	0x3da30d7d	0.07961557
247	0xbe551b26	-0.20811138
248	0x3e14fc29	0.14549316
249	0xbe7076c1	-0.23482801
250	0x3e1b811d	0.15185972
251	0xbe8eafd1	-0.27868512
252	0xbe8b614c	-0.2722267
253	0xbe40d442	-0.1883097
254	0x3d0de044	0.034637704
255	0xbdc6a034	-0.09698525

network.2.bias f4 [64]
0	0x3d8a6f60	0.06759524
1	0x3bfa84ad	0.0076452107
2	0xbd21318e	-0.0393539
3	0x3d956b49	0.07295854
4	0x3cf53281	0.029931309
5	0x3d4bb089	0.049728904
6	0x3e4e98ba	0.20175448
7	0x3e216d46	0.15764341
8	0x3dfe62d7	0.12421196
9	0x3dbb9d9b	0.0916092
10	0xbcc9290d	-0.024555707
11	0xbc18270b	-0.009286652
12	0x3b8c5a83	0.004283251
13	0x3de1726c	0.11008152
14	0x3e29a69f	0.16567467
15	0x3bcc4812	0.0062341774
16	0x3d21bf3f	0.039489027
17	0x3dd1a2da	0.102361396
18	0xbd8f471c	-0.06995985
19	0xbd5109d3	-0.05103476
20	0xbdc7d1ef	-0.097568385
21	0xbe284f07	-0.16436397
22	0xbea9ce9a	-0.33165437
23	0xba2a53db	-0.0006497481
24	0x3db8b475	0.090187944
25	0xbca68261	-0.020325841
26	0x3de522e9	0.11188299
27	0x3d96d8c1	0.07365561
28	0xbe1e49c6	-0.1545783
29	0xbd982deb	-0.07430633
30	0x3e4dcd93	0.20097952
31	0xbd55a23a	-0.052156664
32	0x3d4ab8bf	0.049492594
33	0xbe3e9459	-0.18611278
34	0xbd9c3f25	-0.07629231
35	0xbe3740ae	-0.17895767
36	0x3dfed73c	0.124433964
37	0xbd292e45	-0.04130389
38	0xbdfd5f55	-0.12371699
39	0xbd25caf7	-0.040476765
40	0xbd90716e	-0.07052885
41	0xbc870cba	-0.01648556
42	0xbdd093a9	-0.10184414
43	0xbda392f2	-0.07987012
44	0xbd0ddedf	-0.034636375
45	0x3cd19ff7	0.025588972
46	0x3e5cf8d8	0.21579301
47	0xbe9c4718	-0.3052299
48	0x3cb3cac0	0.021947265
49	0xbdb370c1	-0.087617405
50	0x3e0ae846	0.13565168
51	0xbe2d154e	-0.16902658
52	0x3e3d990f	0.18515418
53	0xbe224e08	-0.15850079
54	0xbb83983d	-0.004015951
55	0xbc56ce70	-0.013110742
56	0x3cb729db	0.022358825
57	0x3bb69ded	0.0055730254
58	0x3d957289	0.072972365
59	0x3e13ef8b	0.14446847
60	0xbe1619aa	-0.14658228
61	0x3e312a36	0.17301258
62	0x3de44813	0.111465596
63	0xbe98852d	-0.29789105

network.4.weight f4 [64, 64]
0	0xbd95c42d	-0.07312808
1	0x3d8de68d	0.0692874
2	0xbe1a60f8	-0.15076053
3	0xbce1a7c2	-0.027545813
4	0x3df2bddf	0.11852621
5	0xbc52b95c	-0.012861576
6	0xbe41cb4b	-0.18925206
7	0x3cac471f	0.021030007
8	0x3d9cda6c	0.07658848
9	0xbd03be8b	-0.032164138
10	0xbd91cb0a	-0.07118805
11	0xbd82b236	-0.06381647
12	0xbe60b14d	-0.21942635
13	0x3df4f661	0.119610555
14	0xbea8c906	-0.3296587
15	0xbbfb4f1c	-0.0076693427
16	0x3d1f9948	0.03896454
17	0xbcd77141	-0.02629912
18	0xbdd1a68f	-0.10236847
19	0xbe0827e3	-0.13296466
20	0x3e854e93	0.2603651
21	0x3e739841	0.23788549
22	0xbd882f07	-0.06649595
23	0xbda849b4	-0.08217183
24	0x3e1d4bf8	0.15361011
25	0xbcfd48ad	-0.030918444
26	0xbe55f123	-0.20892768
27	0x3d94a675	0.07258312
28	0xbd4f91ff	-0.050676342
29	0x3d376257	0.04477152
30	0xbe6f7246	-0.23383436
31	0x3e43acbf	0.19108866
32	0xbd999cf6	-0.07500641
33	0xbe558d23	-0.2085462
34	0x3d4d0bc7	0.05006006
35	0xbd4c94f7	-0.04994675
36	0xbcf46cc9	-0.029837029
37	0x3d50d95f	0.05098855
38	0x3ddd337c	0.108008355
39	0xbd9c1233	-0.07620659
40	0xbde96c01	-0.11397553
41	0x3e7385ed	0.23781557
42	0x3e36f5ad	0.17867155
43	0x3d21c94d	0.039498616
44	0xbe4c49d8	-0.19950044
45	0xbaf6b6ba	-0.0018822767
46	0xbe1b0d42	-0.15141776
47	0xbe9b5352	-0.30337006
48	0x3c3db210	0.011578098
49	0x3e984c71	0.2974582
50	0xbdcd43de	-0.1002271
51	0xbe18a636	-0.14907154
52	0xbcfce2e9	-0.030869918
53	0x3d3e7e0f	0.046506938
54	0x3e69463b	0.22780697
55	0xbe02b26a	-0.12763372
56	0x3c870aba	0.016484607
57	0x3e0f208f	0.13977264
58	0xbc2a0d0c	-0.010379087
59	0xbc917383	-0.017755276
60	0xbda46dd2	-0.08028759
61	0x3e909f55	0.2824656
62	0x3d0e7c91	0.034786765
63	0xbd944789	-0.07240207
64	0x3d12de9a	0.03585682
65	0xbdb6e7f2	-0.08930959
66	0x3dc86c94	0.09786335
67	0xbdc0d330	-0.09415281
68	0xbdac3cf3	-0.08410063
69	0xbe22ca35	-0.15897448
70	0xbe28117e	-0.16412923
71	0xbe505c39	-0.2034768
72	0xbe24b981	-0.16086389
73	0xbd25cd3e	-0.040478937
74	0xbe212648	-0.1573726
75	0x3cc26c2d	0.023733223
76	0x3e3446f9	0.17605199
77	0xbd9303b8	-0.07178444
78	0xbd5157d1	-0.05110914
79	0xbe0f5de2	-0.14000657
80	0x3e1fb242	0.15595344
81	0xbc499146	-0.012302702
82	0xbda5a9ec	-0.08089051
83	0xbe1704f9	-0.1474799
84	0x3d603e98	0.054747194
85	0x3e4e274a	0.20132175
86	0x3e1eb8d0	0.15500188
87	0x3d2bb8ce	0.04192429
88	0xbe8f2d5d	-0.27964297
89	0x3d87d010	0.06631482
90	0xbe019bcd	-0.1265709
91	0x3e1ffc6a	0.15623632
92	0x3e5395e7	0.20662652
93	0xbe6b2f99	-0.22967376
94	0xbdd1dd81	-0.10247327
95	0xbe080d67	-0.13286363
96	0x3d1a96c2	0.03774143
97	0xbcc71796	-0.024303239
98	0xbdbb41ba	-0.09143396
99	0x3d674096	0.05645808
100	0xbdbb77ac	-0.09153685
101	0xbc63c489	-0.013901838
102	0xbe637ad1	-0.2221482
103	0xbb4a791a	-0.0030894936
104	0xbd0b6fb6	-0.034042083
105	0xbe38f863	-0.18063502
106	0x3e035084	0.12823683
107	0x3c957018	0.018241927
108	0xbdc17812	-0.0944673
109	0x3dfce662	0.123486295
110	0xbcac9062	-0.02106494
111	0xbe9dbff3	-0.30810508
112	0x3d8891be	0.06668423
113	0x3e1b9eb3	0.15197258
114	0xbbccdc3d	-0.0062518404
115	0x3e0666ca	0.13125148
116	0x3cabf084	0.02098871
117	0xbe7da6e1	-0.2477069
118	0x3d958db8	0.07302421
119	0xbe90755c	-0.28214538
120	0x3d81b54c	0.06333408
121	0xbd4bd777	-0.04976603
122	0x3c67498a	0.014116654
123	0x3e5c05d6	0.21486601
124	0x3df93dac	0.12169966
125	0xbd292384	-0.041293636
126	0xbca0260d	-0.019549394
127	0x3d9cac60	0.076500654
128	0x3e063801	0.13107301
129	0x3e3747dc	0.17898506
130	0xbdfb0f65	-0.12258796
131	0xbe914f17	-0.28380653
132	0x3e6e8b01	0.23295213
133	0x3c8ded55	0.017325083
134	0x3d225a4b	0.03963689
135	0xbea0e0aa	-0.31421405
136	0xbdd57dd2	-0.10424389
137	0x3e4a9418	0.19783056
138	0x3d96253c	0.07331321
139	0x3e0a86c6	0.13527974
140	0xbdd1ba14	-0.1024057
141	0xbdfcb0f0	-0.12338436
142	0xbc6f0020	-0.014587432
143	0x3dd49a93	0.10381045
144	0xbd43b866	-0.047783278
145	0xbe932d3b	-0.28745446
146	0xbd1a9ccb	-0.037747186
147	0x3e1e393c	0.1545152
148	0xbb2afe4c	-0.0026091514
149	0xbcba3850	-0.02273193
150	0xbdf9a9b7	-0.12190574
151	0xbd980f59	-0.07424802
152	0xbc1bc09b	-0.00950637
153	0xbcf0d2ad	-0.029397333
154	0xbb19b6ee	-0.0023454982
155	0x3de5d769	0.11222727
156	0x3d8607a6	0.065444276
157	0x3df15bff	0.11785125
158	0x3e15c6c5	0.14626606
159	0xbd882b36	-0.06648867
160	0xbe734820	-0.23757982
161	0xbd84f5a1	-0.064921625
162	0xbc36954c	-0.011143994
163	0x3ddfb26b	0.109227024
164	0x3d5ae88f	0.05344444
165	0xbdb8e7b6	-0.0902857
166	0xbde9bb7b	-0.11412712
167	0xbc88bfff	-0.016693113
168	0x3df6cf0f	0.12051212
169	0xbdaa1bb4	-0.08306065
170	0xbe1150f4	-0.14191037
171	0xbdd6d27b	-0.10489365
172	0xbd9e6665	-0.07734374
173	0x3d7490a0	0.059708238
174	0xbd931dea	-0.0718344
175	0xbdadfaaf	-0.0849508
176	0xbd82abbb	-0.06380411
177	0x3ddb37ce	0.10704003
178	0x3e509aa8	0.20371497
179	0xbd7efdff	-0.06225395
180	0xbe06d38d	-0.13166638
181	0x3dd02408	0.101631224
182	0xbd453450	-0.048145592
183	0x3e37e0f3	0.17956905
184	0xbdc06827	-0.093948655
185	0x3cb93ff9	0.022613512
186	0x3e15b465	0.14619596
187	0x3da46563	0.080271505
188	0x3b9b3ff5	0.004737849
189	0x3e4348d1	0.19070746
190	0xbc895498	-0.01676397
191	0xbd83c09b	-0.06433221
192	0x3db7ebea	0.08980544
193	0xbe59acfa	-0.21257392
194	0xbe21c2a0	-0.157969
195	0x3dbcc06d	0.0921639
196	0xbdb830fe	-0.089937195
197	0x3d9e492d	0.07728801
198	0xbdff60ce	-0.12469636
199	0xbe0dd9a7	-0.13852559
200	0x3d351b58	0.04421553
201	0x3e68378f	0.22677444
202	0xbd04a4d6	-0.032383762
203	0xbe566511	-0.20936991
204	0x3dc8a4bf	0.09797048
205	0xbb96b5a0	-0.004599288
206	0x3e8b4ae4	0.27205575
207	0x3dd83d9e	0.105586275
208	0xbde0d74d	-0.10978565
209	0x3ea0876b	0.31353316
210	0xbe17cdb7	-0.14824568
211	0xbe2b8c1d	-0.16752668
212	0xbe171ce9	-0.14757122
213	0xbe3be1d0	-0.1834786
214	0xbf029fee	-0.51025283
215	0xbe0acb3c	-0.1355409
216	0xbd976ffe	-0.07394408
217	0xbd89e3ab	-0.06732877
218	0x3e1bb46d	0.15205546
219	0x3d1729ac	0.036904976
220	0xbe1435cc	-0.14473647
221	0xbd7dd19c	-0.061967477
222	0x3ca625d3	0.020281708
223	0xbc73da33	-0.014883566
224	0xbe7e52af	-0.24836229
225	0x3d945d61	0.07244373
226	0xbd3400ab	-0.04394595
227	0xbec37851	-0.38177732
228	0xbbcf42af	-0.006325088
229	0xbd5fed1d	-0.05466949
230	0xbde54662	-0.11195065
231	0x3cb35444	0.021890767
232	0x3b6b4b07	0.0035902874
233	0x3ca5e243	0.020249492
234	0x3cb112bb	0.021615377
235	0xbd1724dd	-0.03690039
236	0xbe6373f1	-0.22212197
237	0x3d4f2347	0.050570752
238	0x3e919681	0.28435138
239	0xbe88ccac	-0.26718652
240	0xbe6e085b	-0.23245375
241	0xbe847030	-0.25866842
242	0xbe326deb	-0.17424743
243	0x3a0eb473	0.0005443759
244	0x3e632e84	0.22185713
245	0xbad92fb4	-0.0016570003
246	0xbe24723f	-0.16059206
247	0x3e116972	0.1420038
248	0x3e324125	0.17407663
249	0x3d398d14	0.04530056
250	0xbc8b5144	-0.017006524
251	0xbd939dcf	-0.07207834
252	0xbe5e6e6a	-0.21721807
253	0x3ccef417	0.025262875
254	0x3de86138	0.11346668
255	0xbe9e52f4	-0.30922663

network.4.bias f4 [64]
0	0x3dd5a4e6	0.104318425
1	0xbdda2531	-0.10651625
2	0x3e44eb43	0.1923037
3	0x3cca2261	0.024674596
4	0x3dca2b04	0.09871486
5	0xbc417242	-0.011807026
6	0xbe5eefe9	-0.21771206
7	0xbc94caf0	-0.018163174
8	0xbe1af514	-0.15132552
9	0x3db5637d	0.088568665
10	0x3be9aa77	0.0071309167
11	0xbe1544de	-0.14577052
12	0x3d23a90b	0.039956134
13	0x3eab1c67	0.33420107
14	0x3c84e784	0.016223677
15	0x3e36cb1f	0.17850922
16	0xbda6e595	-0.08149258
17	0x3df43db1	0.11925829
18	0x3cce1e18	0.025160834
19	0x3b6b07c9	0.0035862795
20	0x3d6603c8	0.05615595
21	0x3e63748b	0.22212426
22	0xbbff890e	-0.0077983206
23	0x3d939689	0.07206447
24	0x3e10a2bd	0.1412458
25	0xbcb70138	-0.022339448
26	0x3dd761cb	0.105166994
27	0xbe2908b5	-0.16507228
28	0x3d1c821c	0.03821002
29	0xbe14024c	-0.14454001
30	0xbd983f44	-0.07433942
31	0x3d4bbaf9	0.049738858
32	0xbda12056	-0.07867496
33	0xbd577602	-0.052602775
34	0xbe07c1e9	-0.13257565
35	0x3de7207e	0.11285494
36	0x3c913896	0.017727178
37	0xbe0e8bbd	-0.13920493
38	0x3dfc4f69	0.12319834
39	0xbc053117	-0.00812938
40	0xbe79dea6	-0.2440134
41	0x3d53d1dd	0.051713813
42	0x3e340548	0.1758014
43	0x3db764c2	0.08954765
44	0x3be87c85	0.007094922
45	0xbdd83d17	-0.10558527
46	0xbe196c8e	-0.14982817
47	0x3daa997a	0.083300546
48	0x3c151784	0.009099845
49	0x3c9cfd8d	0.019163871
50	0x3e432bf3	0.19059734
51	0x3d8e6338	0.06952518
52	0xbe19fb66	-0.15037307
53	0xbd3978db	-0.045281272
54	0xbd29f65a	-0.041494705
55	0xbd670f4f	-0.056411084
56	0xbdd9ebd1	-0.106406815
57	0x3e8d9591	0.27653173
58	0xbdcc0168	-0.09961206
59	0xbe19431f	-0.14967011
60	0xbe1cf3f3	-0.15327434
61	0xbc9b744f	-0.018976359
62	0x3d5145ab	0.05109183
63	0xbc2dce6b	-0.010608296

network.6.weight f4 [64, 64]
0	0x3eb403d6	0.35159177
1	0x3e60e30e	0.21961614
2	0xbb6bed4e	-0.00359996
3	0xbe11e476	-0.14247307
4	0xbb80a8d6	-0.003926377
5	0xbe807063	-0.25085744
6	0xbd07324d	-0.033006955
7	0x3d29171e	0.041281812
8	0xbe938325	-0.28810993
9	0x3e88be60	0.26707745
10	0x3dbe6235	0.09296075
11	0xbe1eda8f	-0.15513061
12	0x3e01411b	0.12622492
13	0x3dbec772	0.09315385
14	0x3c030789	0.007997402
15	0x3e1b2248	0.15149796
16	0x3ebbcdf2	0.3668056
17	0x3e406696	0.18789133
18	0xbd78c672	-0.060736127
19	0x3d812d70	0.06307495
20	0xbe817964	-0.25287926
21	0x3bea4b38	0.00715008
22	0x3e31ba4c	0.17356223
23	0x3d9fdd96	0.07805936
24	0xbe7d1cb3	-0.24717979
25	0xbe1c39c9	-0.15256418
26	0x3d26da9b	0.040735822
27	0xbd3e2ea1	-0.046431188
28	0xbe089afb	-0.1334037
29	0x3d9cc034	0.07653847
30	0x3ba346b9	0.004982796
31	0x3d8a6ad1	0.06758655
32	0xbccccfff	-0.025001524
33	0x3d65f592	0.056142397
34	0x3da0715f	0.07834124
35	0xbe6adcd8	-0.22935808
36	0xbe5281c3	-0.20557313
37	0x3cff1de2	0.031142179
38	0xbd75c720	-0.060004354
39	0x3d8cb0a0	0.06869626
40	0x3e2bb931	0.16769864
41	0x3e400d98	0.18755186
42	0xbe944cba	-0.28964788
43	0x3e89d7c0	0.26922417
44	0xbd930401	-0.07178498
45	0xbd99cdec	-0.075099796
46	0x3d047287	0.032335784
47	0x3d61962e	0.055074863
48	0x3e86d695	0.26335588
49	0xbd61ed74	-0.055158094
50	0x3d15f6f8	0.03661248
51	0xbd007532	-0.031361766
52	0x3e41abad	0.18913145
53	0xbe194bbd	-0.14970298
54	0xbe3610f2	-0.17779902
55	0xbe26b359	-0.16279353
56	0x3e490ac3	0.19633012
57	0x3c3e90d5	0.01163121
58	0x3e04f60c	0.12984484
59	0xbe5d020b	-0.2158281
60	0x3e15f14d	0.1464283
61	0x3d9f451b	0.07776853
62	0xbde5e36c	-0.11225018
63	0xbddc38c1	-0.107530124
64	0xbd962130	-0.07330549
65	0x3d3391ff	0.043840405
66	0x3e7aab41	0.2447939
67	0xbe39e56e	-0.18153927
68	0xbda2c7d8	-0.079482734
69	0x3dc4d12a	0.096102074
70	0x3e08e130	0.13367152
71	0xbe853b01	-0.2602158
72	0xbe8bf14d	-0.27332535
73	0xbe96aa57	-0.29426834
74	0x3e08596e	0.13315365
75	0xbd5cf3df	-0.05394351
76	0x3d5739f1	0.05254549
77	0xbc62e474	-0.013848413
78	0xbd6e47cb	-0.058173936
79	0xbd9ee5d5	-0.07758681
80	0xbe1aed40	-0.15129566
81	0x3e02fd76	0.12792
82	0x3c853c37	0.016264064
83	0x3dbf8d3a	0.09353109
84	0x3eabf47d	0.33584967
85	0xbd237651	-0.039907757
86	0xbc6c263c	-0.014413413
87	0xbe38ea2a	-0.18058077
88	0x3d47314d	0.048631
89	0xbde78de6	-0.11306362
90	0x3c8a34d7	0.0168709
91	0xbe79f83d	-0.24411102
92	0x3e7447db	0.23855536
93	0xbd40e0dc	-0.047089443
94	0x3e5c396a	0.21506277
95	0xbe639a0c	-0.22226733
96	0x3e38c400	0.18043518
97	0x3e071d6a	0.13194814
98	0x3d0ffe01	0.035154346
99	0x3cee213b	0.02906858
100	0x3d426deb	0.047468107
101	0xbe0c7573	-0.13716678
102	0xbe586de5	-0.21135671
103	0xbc34cf5c	-0.011035766
104	0x3dd061ea	0.101749256
105	0xbd894fc7	-0.067046694
106	0x3dcf4c33	0.10121956
107	0xbe96a6fc	-0.29424274
108	0x3ea69d37	0.3254182
109	0x3bf3a175	0.0074350187
110	0x3e336837	0.17520224
111	0x3d22ace0	0.039715648
112	0xbbd55e36	-0.006511475
113	0x3e4dbfff	0.20092772
114	0x3d4c107a	0.0498204
115	0x3d53c346	0.0516999
116	0xbda9e91c	-0.08296415
117	0x3e052eb4	0.13006097
118	0xbd195d4b	-0.037442487
119	0x3de13a85	0.1099749
120	0x3e4900e6	0.19629249
121	0xbe1d9533	-0.15388946
122	0xbcfea328	-0.031083658
123	0x3dae80bc	0.08520648
124	0xb8818927	-6.176746e-05
125	0x3c4b6f72	0.012416707
126	0x3e4c081c	0.19924968
127	0x3d66f2ee	0.05638402
128	0x3daa0ad8	0.083028495
129	0xbdea427d	-0.11438463
130	0xbdeea5ac	-0.11652693
131	0x3db8cb99	0.09023208
132	0xbe830d75	-0.25596204
133	0x3d357341	0.044299368
134	0xbdaa5809	-0.083175726
135	0xbe588dda	-0.21147862
136	0xbde30887	-0.11085611
137	0xbdb7b1d3	-0.08969464
138	0x3dd38ed8	0.1032998
139	0xbe2c4b65	-0.16825636
140	0x3e314681	0.17312051
141	0xbddb545b	-0.10709449
142	0xbe1c7514	-0.15279037
143	0x3d071fc9	0.032989297
144	0xbe31c69b	-0.17360918
145	0x3e3ae57a	0.18251601
146	0xbd4cd044	-0.050003305
147	0x3d64c0c2	0.05584789
148	0x3df3c811	0.11903394
149	0x3cc78f10	0.02436021
150	0xbe2e67ff	-0.17031859
151	0xbde16c89	-0.110070296
152	0x3e9349d5	0.28767267
153	0xbbf13b2c	-0.00736179
154	0x3cf40884	0.029789217
155	0xbe1b2a40	-0.15152836
156	0x3daa3527	0.08310919
157	0xbe222a67	-0.15836488
158	0xbebbc8d0	-0.36676645
159	0xbde839fe	-0.11339186
160	0x3cc3e0b0	0.02391085
161	0xbe394e57	-0.1809629
162	0x3e3d5c2f	0.18492197
163	0x3e16e85d	0.14737077
164	0xbd1c69ad	-0.038186718
165	0x3ca5ba53	0.020230448
166	0x3dcb1885	0.09916786
167	0x3ddef54b	0.1088663
168	0x3e1408f8	0.14456546
169	0x3e4abc08	0.1979829
170	0x3e404521	0.1877637
171	0x3d9cfeb8	0.07665771
172	0xbe60360f	-0.21895622
173	0x3d9093bf	0.0705943
174	0x3d08d951	0.033410374
175	0xbe2a185f	-0.1661086
176	0x3e2a7bfa	0.16648856
177	0x3e2f7734	0.17135316
178	0x3cde1cdb	0.027113369
179	0x3e5883b0	0.21143985
180	0xbcf4d3b6	-0.029886108
181	0xbc911f39	-0.017715083
182	0xbc900c83	-0.017584091
183	0xbe11e208	-0.1424638
184	0x3e4fd4c4	0.20296007
185	0x3d6c9981	0.05776358
186	0x3d946781	0.07246304
187	0x3e027339	0.12739266
188	0xbde93639	-0.11387295
189	0xbc311381	-0.010807873
190	0xbde7859d	-0.113047816
191	0x3d412cad	0.047161747
192	0xbe365045	-0.17804058
193	0xbe728479	-0.23683347
194	0xbe05edf5	-0.13079055
195	0x3d796e9a	0.060896493
196	0xbd051eb0	-0.03249997
197	0xbbfbe9f6	-0.0076878024
198	0x3dae8b76	0.08522694
199	0x3d963d4b	0.073359095
200	0x3e60ef77	0.21966349
201	0xbe509a55	-0.20371373
202	0xbc218f0b	-0.009860764
203	0x3df46f32	0.11935271
204	0xbe28de52	-0.16491058
205	0x3b79dc3d	0.0038125657
206	0xbee2bc30	-0.442842
207	0x3cbec1d7	0.02328579
208	0x3d9a84b5	0.07544843
209	0xbeb5853f	-0.3545322
210	0xbb62f440	-0.0034630448
211	0xbe4e73de	-0.20161387
212	0x3d0dacb6	0.034588538
213	0x3cddf752	0.02709547
214	0xbca5377c	-0.020168059
215	0x3cc7b823	0.024379795
216	0xbe56209c	-0.20910877
217	0x3ca34b10	0.019933254
218	0x3da06b81	0.07833005
219	0xbe179726	-0.14803752
220	0xbeaf8fd1	-0.3428941
221	0xbe089d15	-0.13341172
222	0xbe8d63e2	-0.27615267
223	0x3e7c310c	0.24628085
224	0x3d5c48b8	0.053780288
225	0xbe6259c7	-0.2210456
226	0xbe3b78cc	-0.18307799
227	0x3e6b3458	0.22969186
228	0xbe0ff6f9	-0.14059056
229	0x3e8ee948	0.27912354
230	0x3e31b624	0.17354637
231	0x3ccbe798	0.024890706
232	0x3e4168a5	0.18887575
233	0x3d938b5d	0.07204316
234	0xbddbd259	-0.1073348
235	0xbc99629a	-0.018723775
236	0x3d0ef0a4	0.03489746
237	0x3ddb98eb	0.10722526
238	0x3e32437a	0.17408553
239	0x3e5e20bf	0.21692179
240	0xbf0ff83f	-0.5623817
241	0x3ebd4150	0.36963892
242	0x3da3dc04	0.08000949
243	0x3b9ae759	0.004727286
244	0xbdfde6c0	-0.12397528
245	0xbd4bfed9	-0.04980359
246	0x3e0f9b50	0.14024091
247	0xbd383867	-0.044975664
248	0xbe456e40	-0.19280338
249	0x3e40c2a5	0.18824251
250	0xbc7651dc	-0.015034165
251	0xbd3645ca	-0.04450015
252	0xbf1a7e66	-0.6034912
253	0xbe97168a	-0.29509383
254	0xbda62c54	-0.08113924
255	0x3e4ae865	0.19815214

network.6.bias f4 [64]
0	0x3dd336a3	0.103131555
1	0x3cbb1a19	0.022839593
2	0x3d10e0a6	0.03537049
3	0xbdeb6d5b	-0.11495467
4	0x3d8edd52	0.06975807
5	0xbe258828	-0.1616522
6	0x3de42e31	0.11141623
7	0xbd05b2bd	-0.03264116
8	0x3d8d3bf5	0.068962015
9	0x3e3d3dbe	0.18480584
10	0x3d3a29fb	0.045450192
11	0x3d8b3e62	0.06799008
12	0xbe04d340	-0.1297121
13	0x3e59eb69	0.21281208
14	0xbe2baf29	-0.16766037
15	0xbd8cba56	-0.06871478
16	0xbe44e3b8	-0.19227493
17	0x3d13e3eb	0.03610603
18	0x3d9571f4	0.072971255
19	0x3beb04bc	0.0071721952
20	0x3e6093db	0.21931402
21	0xbe0ba49a	-0.1363701
22	0xbdaebf87	-0.08532625
23	0xbe023cb8	-0.12718475
24	0xbe23704a	-0.15960804
25	0xbdb3ef45	-0.087858714
26	0xba98b674	-0.0011651055
27	0x3e8c1b8c	0.27364767
28	0xbe850a93	-0.2598463
29	0x3e2c6d87	0.16838656
30	0x3e7737d3	0.24142389
31	0xbdbc53ca	-0.09195669
32	0xbe7124d6	-0.23549208
33	0xbd288fa3	-0.041152608
34	0xbd3f7686	-0.046743892
35	0xbe56b0c3	-0.20965867
36	0x3d3070ac	0.043076202
37	0x3d099c16	0.03359612
38	0x3e9a466a	0.30131847
39	0xbd818057	-0.06323307
40	0xbdfab71d	-0.12241957
41	0x3d291769	0.04128209
42	0x3d6314d4	0.055439785
43	0x3e6f9652	0.23397186
44	0xbc934ba7	-0.01798041
45	0x3d4b5912	0.04964549
46	0xbd76c1c3	-0.06024338
47	0xbd00b16a	-0.031419195
48	0xbd14c508	-0.036320716
49	0x3e15cb5e	0.1462836
50	0x3e1cb6cc	0.15304106
51	0x3e41ac7b	0.18913452
52	0x3d2ce415	0.042209703
53	0xbe9c1418	-0.3048408
54	0xbdba32a0	-0.09091687
55	0x3e03322e	0.12812111
56	0x3bf3abba	0.007436243
57	0x3d6e5aea	0.05819217
58	0x3dc3d5fc	0.09562299
59	0xbde7a70f	-0.11311161
60	0x3d92b791	0.07163919
61	0xbd7e0858	-0.062019676
62	0xbdfc1a0e	-0.12309657
63	0xbd8fd34b	-0.07022723

network.8.weight f4 [64, 64]
0	0xbdf509f5	-0.1196479
1	0x3c7a69bd	0.015283999
2	0x3e7cd7aa	0.24691644
3	0x3e089138	0.13336647
4	0x3ea56a07	0.32307455
5	0x3e224c6a	0.15849462
6	0xbdbc415e	-0.09192155
7	0xbce166ed	-0.0275149
8	0xbe5c5a79	-0.21518888
9	0xbe86c478	-0.2632177
10	0xbd1d9601	-0.038473133
11	0xbe377834	-0.17916948
12	0xbda2971a	-0.079389766
13	0xbe2eb069	-0.17059483
14	0x3d286639	0.041113112
15	0x3dc6bf80	0.097044945
16	0x3e46e7a8	0.19424307
17	0x3d785d9e	0.060636155
18	0x3e1a2802	0.15054324
19	0x3e786c45	0.24260052
20	0x3e81b199	0.2533081
21	0xbe10e1e4	-0.1414867
22	0xbd140bab	-0.03614394
23	0xbd0e3c29	-0.034725342
24	0xbe90c4fb	-0.28275284
25	0xba97acb2	-0.0011571853
26	0x3dc7462f	0.09730183
27	0xbd4778bf	-0.048699137
28	0xbe4866ad	-0.19570418
29	0xbd40872d	-0.047003914
30	0xbdb0a980	-0.086260796
31	0x3e895272	0.26820713
32	0x3caa5735	0.020793537
33	0xbe249795	-0.16073449
34	0x3d0f7257	0.035021152
35	0x3cf70b74	0.030156828
36	0x3e3c2dc6	0.18376836
37	0xbca6ac2d	-0.020345772
38	0xbdfff899	-0.12498588
39	0x3e050858	0.12991464
40	0x3d05006a	0.032471098
41	0xbea9b8f1	-0.33148912
42	0x3ea7ced9	0.32775
43	0x3e824cf0	0.25449324
44	0x3e0c5396	0.1370376
45	0xbe6aa87c	-0.22915834
46	0xbd64abc2	-0.055827864
47	0xbc9cd558	-0.019144699
48	0xbdcd4a21	-0.100239046
49	0xbcdea775	-0.02717946
50	0xbde36508	-0.111032546
51	0xbc40dc9b	-0.011771346
52	0x3d2d719a	0.042344667
53	0x3d341f51	0.04397518
54	0x3d06a19a	0.03286896
55	0xbde3d5fa	-0.11124797
56	0x3c1a1264	0.009403799
57	0x3e664e77	0.2249087
58	0xbdf271b6	-0.11838095
59	0x3e6b5634	0.22982103
60	0x3dea1f73	0.1143178
61	0x3d7e69ae	0.062112503
62	0xbd6099db	-0.054834228
63	0x3e478230	0.19483256
64	0xbea986d0	-0.33110666
65	0x3db8ee98	0.09029883
66	0x3edb300b	0.4281009
67	0x3d48fc7f	0.049068924
68	0x3d4bedc0	0.049787283
69	0xbe68be46	-0.22728834
70	0x3d32532d	0.043536354
71	0xbdf2f949	-0.118639536
72	0xbee9131c	-0.45522392
73	0xbe49af2a	-0.19695726
74	0x3e286beb	0.16447417
75	0x3e9d7ea4	0.30760682
76	0xbcbe247b	-0.023210755
77	0x3e01b118	0.12665212
78	0x3e2e303d	0.17010589
79	0xbe512673	-0.20424823
80	0x3dc8c2f0	0.098028064
81	0x3e4cd910	0.20004678
82	0x3d168728	0.03674999
83	0x3e1b3831	0.15158154
84	0x3caacb23	0.020848816
85	0x3e408386	0.18800172
86	0xbe995d6a	-0.29954082
87	0xbe9a03e2	-0.30081087
88	0xbd5919f4	-0.053003266
89	0xbda64822	-0.08119227
90	0x3cdd0a9a	0.026982594
91	0xbe6daf23	-0.2321134
92	0x3dec04ce	0.11524354
93	0x3cba3e7f	0.022734879
94	0xbe8e32dc	-0.27773178
95	0x3e387736	0.18014225
96	0xbe1749af	-0.14774202
97	0xbdeebcdd	-0.116571166
98	0x3de550e9	0.11197073
99	0x3dfc7d02	0.12328531
100	0x3ec7d5b6	0.39030236
101	0xbefc5183	-0.49280939
102	0xbe493274	-0.19648153
103	0x3d91713c	0.07101676
104	0xbe0a7e25	-0.13524683
105	0xbe043aa0	-0.12912989
106	0x3e0b5275	0.13605674
107	0xbea0a91b	-0.31379017
108	0xbe404548	-0.18776429
109	0xbdfc8f3c	-0.12332007
110	0x3e01595f	0.12631749
111	0xbcf59f4c	-0.029983185
112	0x3dea5ebe	0.11443852
113	0x3dcf0dda	0.10110064
114	0xbcc8702f	-0.024467556
115	0xbc989ab0	-0.018628448
116	0xbd8fed86	-0.07027726
117	0xbd15d091	-0.036575858
118	0xbd6b06e0	-0.057379603
119	0xbd22588e	-0.039635234
120	0xbcd6797f	-0.02618098
121	0x3d997cc2	0.07494499
122	0x3bf3720f	0.0074293683
123	0xbedf0a0a	-0.43562347
124	0xbd6d8dd2	-0.05799658
125	0xbe6cc7b5	-0.23123057
126	0x3c6494c2	0.013951482
127	0x3d645106	0.055741332
128	0xbe126754	-0.14297229
129	0x3d632a62	0.05546034
130	0x3dbf15cd	0.0933033
131	0x3da0e2a4	0.07855728
132	0x3d56ecaf	0.052471813
133	0xbe67dc10	-0.22642541
134	0x3daae42d	0.08344302
135	0x3c6921dc	0.014229264
136	0xbde3c435	-0.11121408
137	0x3d5ae330	0.05343932
138	0xbb2d2476	-0.0026419437
139	0x3e2c16a2	0.16805509
140	0x3e31c4fd	0.17360301
141	0x3e84b9c4	0.25922978
142	0x3bd8762d	0.0066058845
143	0x3e8f1511	0.2794576
144	0x3e69b728	0.22823775
145	0x3e48676c	0.19570702
146	0x3e33fd5f	0.17577122
147	0x3d90a1fc	0.07062146
148	0xbd4239cd	-0.047418404
149	0xbe8f783c	-0.2802142
150	0x3db8e957	0.09028881
151	0x3f03cc85	0.5148395
152	0xbe3b3de7	-0.18285333
153	0x3d8cb526	0.06870489
154	0xbdd44760	-0.10365176
155	0x3e25f23d	0.16205688
156	0xbe610b6d	-0.21977015
157	0xbe96bcf7	-0.29441044
158	0x3bfb16e7	0.0076626423
159	0xbe36b234	-0.17841417
160	0xbeb2cf92	-0.3492399
161	0xbdc651cb	-0.096835695
162	0xbd9c6772	-0.07636918
163	0xbef680c6	-0.4814512
164	0x3ec37785	0.38177124
165	0xbe6ec98b	-0.2331907
166	0xbe07d3d9	-0.13264407
167	0xb99cb2ce	-0.0002988786
168	0xbe73bf4e	-0.23803446
169	0xbcb68b6f	-0.022283284
170	0x3e15b2d4	0.14618999
171	0xbbe91711	-0.0071133454
172	0xbe531232	-0.2061241
173	0xbdb4aab3	-0.08821621
174	0xbe1462f2	-0.1449087
175	0xbd8dda58	-0.069264114
176	0xbe70a2be	-0.23499581
177	0x3e3e39d0	0.18576741
178	0xbe09332d	-0.13398428
179	0xbc97c3d5	-0.018525997
180	0x3d4b116e	0.04957717
181	0xbe19d501	-0.15022661
182	0x3dabb967	0.08384972
183	0x3e928571	0.28617433
184	0xbe5cbf2b	-0.215573
185	0x3e36a59a	0.1783661
186	0x3e5f42a7	0.2180277
187	0x3e331395	0.17487939
188	0xbdbc8ccc	-0.092065424
189	0x3e41b4c0	0.18916607
190	0xbe1defb6	-0.15423474
191	0xbc7862c4	-0.015160266
192	0xbe819f47	-0.2531683
193	0x3e565e89	0.209345
194	0x3d94c5a3	0.07264259
195	0x3e38577f	0.18002127
196	0x3d977170	0.07394683
197	0x3e4843e4	0.19557148
198	0x3de61a3d	0.11235473
199	0xbe2ee285	-0.17078598
200	0x3e45b9a6	0.193091
201	0x3c96812f	0.018372146
202	0x3e2cfa4f	0.1689236
203	0x3cdf464c	0.0272552
204	0x3e14ab42	0.14518455
205	0xbd330f9e	-0.043716066
206	0xbc2a9eb2	-0.0104138125
207	0x3e16d332	0.14729002
208	0x3da5b0ce	0.080903634
209	0xbc8b8285	-0.01703001
210	0xbe363e96	-0.17797312
211	0x3d6f9980	0.058496
212	0xbbf7eed7	-0.0075663137
213	0xbec5f5d9	-0.3866413
214	0x3e14a87b	0.14517395
215	0x3d9f84ba	0.077889875
216	0x3d5d2102	0.053986557
217	0xbd0f3235	-0.03495999
218	0xbabf2474	-0.0014583007
219	0x3e6589c0	0.22415829
220	0x3e69abf8	0.22819507
221	0xbdf543b4	-0.11975804
222	0xbd906aa5	-0.07051591
223	0x3e28c3fc	0.16481012
224	0x3dd0378e	0.10166846
225	0xbce4779e	-0.02788907
226	0x3e8ca45a	0.2746914
227	0x3de28d60	0.110621214
228	0xbd7b119c	-0.06129609
229	0x3d82fde1	0.0639608
230	0xbe7aa0d3	-0.24475412
231	0xbe93ea5c	-0.2888974
232	0xbd9deccb	-0.0771118
233	0xbd64423d	-0.055727232
234	0x3e413349	0.1886722
235	0x3d2949c7	0.041330125
236	0xbd36bd40	-0.044614077
237	0xbdae2010	-0.08502209
238	0xbdcc5e97	-0.09978979
239	0x3ebca480	0.36844254
240	0xbe1327bd	-0.14370628
241	0xbdbf4ec9	-0.09341199
242	0x3dbb53b9	0.09146828
243	0x3e28a4bb	0.1646909
244	0xbc4e27a3	-0.012582692
245	0x3e8bab57	0.2727916
246	0x3dd4902a	0.103790596
247	0xbdb89b64	-0.090140134
248	0xbe45df78	-0.19323528
249	0xbda78818	-0.08180255
250	0xbdbbb6e4	-0.09165743
251	0x3df5bb38	0.119986
252	0x3edb4786	0.42828006
253	0x3e922fd1	0.28552106
254	0xbe5150c8	-0.20440972
255	0x3e182ca8	0.14860785

network.8.bias f4 [64]
0	0x3bcc1c34	0.006228948
1	0x3ddafab5	0.1069235
2	0x3e1b66bd	0.1517591
3	0xbc288bca	-0.010287235
4	0x3de4c61e	0.111706
5	0x3de81d6d	0.113337375
6	0xbdc5e741	-0.09663249
7	0x3d7e4b3a	0.06208346
8	0x3e8ebcae	0.27878326
9	0x3d8105ff	0.06299972
10	0x3d69ad58	0.05705008
11	0x3e90ae0e	0.28257793
12	0xbe341fa5	-0.17590196
13	0xbcb81152	-0.022469196
14	0xbb1b7465	-0.00237205
15	0xbe21e3d0	-0.1580956
16	0xbc8d360d	-0.017237687
17	0x3d8e15d7	0.06937759
18	0xbe06b016	-0.13153109
19	0xbb01594e	-0.0019737068
20	0x3dcf670e	0.10127078
21	0xbd705d4c	-0.058682725
22	0x3db67ac1	0.08910132
23	0x3c429c8d	0.011878145
24	0x3d9738e5	0.07383899
25	0x3e3d8e9d	0.18511434
26	0x3e121a25	0.14267786
27	0xbec988f5	-0.39362302
28	0xbdd103ee	-0.10205828
29	0xbdf1376f	-0.11778151
30	0x3e6c539c	0.2307877
31	0xbe10faa0	-0.14158106
32	0xbc9e4a64	-0.019322582
33	0xbdd232a9	-0.10263569
34	0x3d3af200	0.045640945
35	0xbb761aa9	-0.0037552512
36	0x3eb6e1c5	0.35719123
37	0xbd451d7e	-0.04812383
38	0xbe6a3c76	-0.22874627
39	0x3d814fd5	0.06314055
40	0x3e71dc5a	0.23619214
41	0xbd38e964	-0.045144454
42	0xbdc35037	-0.09536784
43	0x3da1c084	0.078980476
44	0xbd9b5c4b	-0.07585963
45	0x3e0577b4	0.13033944
46	0x3ce08187	0.027405513
47	0xbda7dbe6	-0.08196239
48	0xbcaf4811	-0.021396669
49	0xbe9198ae	-0.28436798
50	0xbe4f35c5	-0.20235355
51	0xbe373947	-0.17892943
52	0x3e1aaf01	0.15105821
53	0x3d6b3140	0.057420015
54	0x3dde2993	0.108477734
55	0x3afd8223	0.0019341152
56	0x3e0e39b4	0.138892
57	0x3e13fa9f	0.14451073
58	0x3ddd014d	0.10791264
59	0x3cebd3c1	0.028787496
60	0x3e008e2e	0.12554237
61	0xbce71192	-0.02820662
62	0xbd850015	-0.06494156
63	0x3c65c881	0.014024855

network.10.weight f4 [5, 64]
0	0xbc89ffb7	-0.016845567
1	0xbd7a26ab	-0.061072033
2	0x3cbd4ce5	0.023107955
3	0x3e07124e	0.13190576
4	0x3ccb2889	0.024799602
5	0x3b05ab21	0.002039619
6	0xbdc514bf	-0.09623098
7	0xbd6d44e3	-0.057927024
8	0x3c921a91	0.017834933
9	0xbe900a69	-0.28132942
10	0x3e920dce	0.28526157
11	0x3eb6401d	0.3559579
12	0x3cdf7617	0.02727799
13	0xbce85893	-0.028362548
14	0x3cfa300d	0.03054049
15	0xbdc814e6	-0.09769611
16	0x3dbaeef2	0.091276065
17	0x3d8508a7	0.06495791
18	0x3e125642	0.14290717
19	0xbdc44b0d	-0.09584627
20	0x3cc15353	0.023599302
21	0xbc69037c	-0.014222022
22	0x3d70b842	0.058769472
23	0xbd5e071f	-0.05420601
24	0xbd98648f	-0.07441055
25	0xbcbb900e	-0.022895839
26	0x3e15b1f1	0.1461866
27	0xbe9ab8c0	-0.30219078
28	0x3e0c5bd7	0.13706909
29	0xbdd7f300	-0.105443954
30	0x3d660b77	0.056163277
31	0xbd8f3df8	-0.069942415
32	0x3e0a56b2	0.13509634
33	0x3b2a8668	0.0026020054
34	0x3c6a703a	0.014308983
35	0xbd247142	-0.040147074
36	0x3eac4dab	0.33653006
37	0x3e02910b	0.12750642
38	0xbda195ba	-0.07889886
39	0x3dafbc8d	0.08580885
40	0xbc9bd2f8	-0.019021496
41	0xbcbb4bbf	-0.022863267
42	0x3e5c6eba	0.21526614
43	0xbd1a086f	-0.0376057
44	0x3c6d042e	0.014466329
45	0xbc98f375	-0.018670777
46	0x3cfc0160	0.030762374
47	0xbccd5af6	-0.025067788
48	0x3e0a2ed9	0.13494433
49	0xbdd7c83b	-0.10536238
50	0xbeb9629d	-0.36208048
51	0xbb329cad	-0.002725403
52	0x3cff55bc	0.031168811
53	0xbdb00273	-0.08594217
54	0x3d5ce42f	0.05392855
55	0xbda3ac97	-0.07991903
56	0x3b48c5f3	0.0030635565
57	0x3d59bf5b	0.053161006
58	0xbef735a5	-0.48283115
59	0xbca888f7	-0.020573122
60	0x3d1b8db3	0.03797693
61	0xbe3a5144	-0.18195063
62	0x3def0dcb	0.11672553
63	0xbc811450	-0.015756756
64	0x3e2f1ba8	0.17100394
65	0x3ded0ba1	0.11574484
66	0x3dba6f60	0.09103274
67	0xbcf44cee	-0.02982184
68	0xbd3d438e	-0.046207003
69	0x3cd0e645	0.025500426
70	0xbc649198	-0.013950728
71	0xbc989aee	-0.018628564
72	0x3c17708a	0.00924314
73	0x3bb5acc5	0.0055442774
74	0xbd26c466	-0.040714644
75	0x3e59fc32	0.21287611
76	0xbc726207	-0.014793879
77	0xbc03f51d	-0.008054045
78	0x3e2f7d59	0.1713766
79	0xbea2f354	-0.3182627
80	0x3da438e8	0.080186665
81	0x3e0b289d	0.13589711
82	0xbd87c550	-0.06629431
83	0x3cacf04b	0.021110674
84	0xb99f2afa	-0.00030358863
85	0xbd0b4318	-0.033999532
86	0xbb03c295	-0.0020104994
87	0x3bb91da8	0.0056492873
88	0xbdab1815	-0.08354203
89	0xbdd46a6d	-0.103718616
90	0x3e46ff05	0.1943322
91	0x3d7beeef	0.06150716
92	0xbd7bc45a	-0.061466552
93	0x3d295e58	0.04134974
94	0x3bafb030	0.0053615794
95	0x3cfe0b0e	0.03101113
96	0xbd1696e1	-0.036764983
97	0xbdd156c5	-0.10221628
98	0xbe0a25ec	-0.13491029
99	0xbc3fac90	-0.011698857
100	0xbec1ff68	-0.37890172
101	0xbdab17ec	-0.08354172
102	0x3d511b67	0.051051524
103	0xbd9f99ef	-0.077930324
104	0xbda3522c	-0.079746574
105	0x3c281e9c	0.010261204
106	0x3dcaf3f7	0.09909814
107	0x3d36eec1	0.044661287
108	0xbe19b86f	-0.15011762
109	0xbca4e662	-0.020129386
110	0xbd000a63	-0.031259906
111	0xbd40568d	-0.04695754
112	0xbe00e017	-0.12585483
113	0x3dffec3e	0.124962315
114	0x3d2dec46	0.042461656
115	0x3ce61668	0.028086856
116	0xbc4dca59	-0.0125604505
117	0xbc8d01ab	-0.01721271
118	0x3d950319	0.072759815
119	0xbdd052a0	-0.101720095
120	0x3c41b1b4	0.011822153
121	0xbc4bdb13	-0.012442368
122	0x3d9e18a5	0.07719544
123	0x3c45e936	0.012079528
124	0x3d446ca3	0.047955167
125	0xbd826642	-0.063671604
126	0x3df05990	0.11735833
127	0xbdb99848	-0.090622485
128	0x39bde76f	0.0003622132
129	0x3f14f066	0.5817932
130	0x3e2ef0f8	0.1708411
131	0xbe2a1d4a	-0.16612735
132	0x3ee2a2cd	0.44264832
133	0x3fbe3692	1.4860404
134	0xbe9650da	-0.2935856
135	0x3e97ee9f	0.2967424
136	0xbdcafbc0	-0.09911299
137	0x3cbcc7c3	0.023044473
138	0x3ec333bc	0.38125408
139	0x3e9c9e50	0.30589533
140	0xbf29874e	-0.66222084
141	0x3e92a064	0.28637993
142	0xbcc7ae14	-0.024375
143	0xbe2fdf82	-0.17175105
144	0x3d3c647d	0.04599427
145	0xbe9fed94	-0.31235945
146	0xbe6db201	-0.23212434
147	0x3e6dc79a	0.23220673
148	0xbd6de266	-0.05807724
149	0x3f8c3349	1.0953151
150	0x3d8df038	0.06930584
151	0x3e6d7112	0.23187664
152	0xbddcc76f	-0.107802264
153	0x3f2f191c	0.6839769
154	0x3eceb737	0.40374157
155	0xbe74f233	-0.23920517
156	0xbe990ce1	-0.29892638
157	0x3f38d4a5	0.7219947
158	0x3eb1b637	0.3470933
159	0x3d759c56	0.059963547
160	0xbd893270	-0.06699073
161	0x3e509bfb	0.20372002
162	0x3d9fdfb9	0.078063436
163	0xbe148d37	-0.14506994
164	0x3e8be4a2	0.2732287
165	0xbdec6e72	-0.11544503
166	0xbe5fdfc3	-0.21862702
167	0xbedb8ee4	-0.42882454
168	0x3f52ce5e	0.8234614
169	0xbf34ded1	-0.7065249
170	0xbf08d237	-0.5344576
171	0x3f78f232	0.9724456
172	0xbe3397d9	-0.17538394
173	0x3ed4d095	0.41565385
174	0x3faa20e5	1.3291289
175	0x3ed1c3d4	0.40969718
176	0xbe2232e5	-0.15839727
177	0xbcbf8fdb	-0.023384025
178	0x3e39b40d	0.1813509
179	0xbfaa66e6	-1.3312652
180	0x3eb2f935	0.34955755
181	0x3e1167ee	0.14199802
182	0x3e281ef6	0.1641806
183	0xbe69c2e5	-0.22828253
184	0x3f082a44	0.5318949
185	0x3e671fb5	0.22570689
186	0x3e429df5	0.19005568
187	0x3f68e1b0	0.9096937
188	0xbe3c4d33	-0.18388824
189	0x3d2b9cb6	0.041897498
190	0xbe2f50c0	-0.17120647
191	0x3e90e394	0.28298628
192	0x3da6f38a	0.0815192
193	0xbf1bdb2f	-0.6088132
194	0x3eb9b35d	0.36269656
195	0x3ed1fdbd	0.410139
196	0xbd01954e	-0.03163653
197	0x3de09f0d	0.109678365
198	0x3d9b5a81	0.075856216
199	0xbfb681af	-1.4258326
200	0x3f0b4eb1	0.5441695
201	0x3e13a627	0.14418851
202	0xbe365ce5	-0.17808874
203	0xbeee35e5	-0.46525493
204	0x3eaf177c	0.34197605
205	0x3edd8edc	0.43273056
206	0x3e5a872b	0.21340625
207	0x3eceda3e	0.4040088
208	0x3dbf5db3	0.093440436
209	0xbe9d5cb7	-0.30734798
210	0xbb49a329	-0.0030767417
211	0xbde084c8	-0.10962826
212	0x3eb9f4b5	0.3631951
213	0x3cdd8f42	0.02704585
214	0x3ecab82c	0.39593637
215	0x3dceb808	0.10093695
216	0x3d5661da	0.052339412
217	0xbeb2644a	-0.3484214
218	0xbe8c87be	-0.27447313
219	0x3e41c26f	0.18921827
220	0xbe41cfed	-0.18926974
221	0xbf30e10a	-0.6909338
222	0x3f1abbc8	0.6044278
223	0xbe9d572f	-0.30730578
224	0xbc9b0c26	-0.018926691
225	0xbd230013	-0.039794993
226	0xbe958564	-0.2920333
227	0x3f87141d	1.0553013
228	0xbd68e25f	-0.05685651
229	0xbfaeb530	-1.3649044
230	0xbe291065	-0.1651016
231	0x3cc62c31	0.024190994
232	0xbe9a2799	-0.30108336
233	0xbe1d728b	-0.15375726
234	0xbd852c3d	-0.065025784
235	0x3eccb86a	0.39984447
236	0x3e86c7fa	0.26324445
237	0xbe2184d7	-0.1577333
238	0xbef7285b	-0.48272976
239	0x3f1b3c28	0.60638666
240	0xbe5f63d5	-0.21815427
241	0x3dfaaf56	0.12240474
242	0xbf064c60	-0.5246029
243	0xbcdb7f43	-0.026794082
244	0x3f1524b4	0.5825913
245	0x3ee5c060	0.44873333
246	0xbe3e8de9	-0.18608822
247	0xbcde0849	-0.02710356
248	0x3e314476	0.17311272
249	0xbf15fbd1	-0.58587366
250	0x3e5489d1	0.20755698
251	0xbd17328e	-0.036913447
252	0x3f9ac033	1.2089905
253	0x3dadb70d	0.0848218
254	0xbd27e075	-0.040985543
255	0x3e03ec75	0.1288317

network.10.bias f4 [5]
0	0x3efafab2	0.4901939
1	0x3cb2ad3f	0.021811126
2	0x3e9e2b90	0.3089261
3	0xbe310194	-0.17285758
4	0xbe0d2480	-0.13783455
