Clean/models/baseline_model.pth (torch, 90466 bytes, 14 tensors)

network.0.weight f4 [64, 2]
00000000: 75b3 873d f971 41bd b566 a13d 7e20 cabe
00000010: 9819 853e 4060 9dbe 3bf0 acbd 6ced 5ebe
00000020: 39b0 29be 4ceb 94be cfd2 5ebe 2c89 293e
00000030: aef4 b8be 6ca8 b43e dd50 80be b286 36bd
00000040: eb9d be3d 9d04 f9be 103d 6e3e d8e2 8e3e
00000050: ed29 863e d78f 103e 40ef 1b3e 20c3 353e
00000060: 3989 afbe 558a 7b3d 05a1 32be cce8 8dbe
00000070: 81a9 263e 3738 7e3e fb98 42bb 3b54 9b3e
00000080: 22cc aebe b605 b93e 53b2 afbe 170b cd3e
00000090: e377 aa3d b60e c53e f4fc 703e c568 823e
000000a0: 5415 b5be 2b86 41be 138a 713b e2e5 f23d
000000b0: bf7c 113e 5bc8 c6be 166a 183e 9e21 913e
000000c0: fe6f 1f3e 324d ba3e efa9 98be 7400 883e
000000d0: 01a2 85be bcd8 8d3e 0002 94bd c671 58be
000000e0: e0dd 69be ac56 60be 719d 593d 5fc1 013c
000000f0: b28a 5e3e f95c 4d3e fc9e 50be 679d 0b3f
00000100: 5c1b 653e c9b5 eb3d 68aa 43be 9b5c 8ebe
00000110: bc00 54bd 27b7 b7be c34e 7a3e 579d f93e
00000120: f5e8 943e b03c 1fbf c100 71be ab96 843e
00000130: 212d 2bbe a4fb 7cbe 9ebe 07bd 6b05 b1bd
00000140: ca8f 14be 7f3e b4be f389 e73d 22f0 7f3e
00000150: 4cb3 803e e682 bdbd af25 383e 5064 853e
00000160: c925 013e 9759 863c 2e17 db3d 50dd 03bf
00000170: 443f 07be c43f e1bd 7ffe 683e a4f1 0ebf
00000180: 33ef 0b3d 0594 e93e 57b2 19be 61d6 a8be
00000190: 8ad7 c53e 244d 01bf c409 2a3e 77a8 b3be
000001a0: aea2 f7bc 56e2 3cbe a631 54be 8825 3a3e
000001b0: 7844 d4bd 2d25 9fbd 3313 5a3e 07e2 b7be
000001c0: fc8a ef3d c46d a0be e456 093e 63ef 2e3e
000001d0: 254a 1fbd 151c 5abe f266 133c fb52 5a3d
000001e0: 484c 98bd 6a1f 693e e7a6 753e 7073 2ebf
000001f0: 1f6b 58be fd9c 80be 2a29 803e 8fae 10bf
0.066260256 -0.047227833 0.07880918 -0.39477915 0.2599609 -0.30737495 -0.08444258 -0.21770257
-0.1657113 -0.29085767 -0.21760105 0.16556233 -0.36124176 0.35284746 -0.25061694 -0.04456205
0.09307464 -0.48636332 0.23265481 0.27907443 0.26203862 0.1411737 0.15227985 0.17750216
-0.3428438 0.06141122 -0.17444237 -0.27716672 0.16275598 0.24826132 -0.0029693234 0.303377
-0.34140116 0.3613717 -0.34315738 0.40047523 0.08323648 0.38487786 0.23533994 0.25470558
-0.35367835 -0.18898837 0.003685598 0.11860253 0.14207743 -0.38824734 0.14884219 0.2834596
0.15570065 0.3638702 -0.2981715 0.26562846 -0.26100162 0.27704418 -0.07226944 -0.21137151
-0.22838545 -0.21908063 0.053128663 0.007919638 0.21732596 0.20054998 -0.20373148 0.5453705
0.22373718 0.11509282 -0.19107974 -0.27805027 -0.051758513 -0.35881922 0.24444108 0.48752853
0.29083982 -0.62201977 -0.23535444 0.258962 -0.16716434 -0.24705368 -0.03314077 -0.086436115
-0.14507976 -0.3520393 0.113056086 0.24993947 0.25136793 -0.092534825 0.17983125 0.26053095
0.1261207 0.016400142 0.106977805 -0.5150957 -0.13207728 -0.109984905 0.22753333 -0.55837464
0.034163665 0.45620742 -0.15009438 -0.32976058 0.38641006 -0.5050833 0.16605288 -0.35089466
-0.030228939 -0.18445715 -0.20722064 0.1817838 -0.10364622 -0.077707626 0.21296386 -0.35914633
0.11696431 -0.31333745 0.13412052 0.17083506 -0.03888907 -0.21299775 0.008996712 0.053301793
-0.074364245 0.2276589 0.2398945 -0.68144894 -0.21134613 -0.25119773 0.25031406 -0.56516355

network.0.bias f4 [64]
00000000: 454a 45be 539d ca3d d09c 5ebe 4ad4 423e
00000010: 9f91 a43e 32da 9c3d 3982 873e a71d 823e
00000020: 8a22 413e f1ac 89be f438 85bd 122f 90be
00000030: 1369 1e3e 5fb3 4d3e a653 c9be 2773 d9bd
00000040: aa3d a83d da68 413e 06ea 92be 8e40 7dbe
00000050: 2439 a33e f41d a8bd 80d3 0a3e 8b25 89be
00000060: 25b6 a8be 9398 183d 099f 963d d087 053e
00000070: 2e18 863e e0d4 febd 9324 a2be 8bc8 afbc
00000080: 314f 1dbe 8db2 7c3e c9f0 5c3e e527 a4be
00000090: 2fab 9bbb f207 b03d feca 863e e257 953d
000000a0: 2022 9d3e 0bc6 02be 55f7 c8be 5946 69be
000000b0: 679e 8cbe 2056 2b3e 5081 913e b707 bd3d
000000c0: 9298 c7be 47ea 6d3e 0be1 c1bd 64a9 b6bd
000000d0: ba33 9d3d fa7b 163e cbb3 403e 6093 a2bd
000000e0: 64b8 02bd b96a 4abe bb30 4a3e c8dc 31bd
000000f0: dd13 fc3d 72bb 063e 99ad 813e 66a4 c43c
-0.19266613 0.098932885 -0.21739507 0.19026294 0.3214235 0.07658805 0.2646654 0.25413248
0.18860832 -0.26889756 -0.065050036 -0.28160912 0.1546977 0.20087956 -0.3932163 -0.10617667
0.082148865 0.18887654 -0.2869417 -0.24731657 0.31879532 -0.08208838 0.13557243 -0.26786456
-0.32951465 0.03725488 0.07354552 0.1304009 0.26190323 -0.124429464 -0.3166853 -0.021457931
-0.1536224 0.24677487 0.21576227 -0.32061687 -0.0047506313 0.085952654 0.26326746 0.07292153
0.30690098 -0.1277086 -0.392512 -0.22780742 -0.274646 0.16732073 0.2841897 0.09229987
-0.3898359 0.23233901 -0.09466752 -0.089190274 0.07675882 0.14695731 0.18818586 -0.07938266
-0.03191413 -0.19767274 0.19745152 -0.043423444 0.12308476 0.13157442 0.25327757 0.024004173

network.2.weight f4 [64, 64]
00000000: 4e4d 7c3e 7399 1a3e fc49 453e 0b44 21be
00000010: 8204 efbd 2f21 233d b33c 223e 228b 05be
00000020: b48c 3a3e 6f95 e53b cd6e 45be 107d 30bd
00000030: 1451 293e 0f40 c2bd 3d91 b4ba 9be5 863d
00000040: 7e06 8b3c 702f 4fbd dbcc 2abe 4c84 c1bd
00000050: 6e36 9a3c 248b 90bd 8731 483d ec97 37be
00000060: dc34 95bd 6fee 823c 467a 313e 6711 fcbc
00000070: ff94 013e 8428 8e3d d3e8 5abe d1c5 fa3d
00000080: f206 473d 243a 063e b74f 2a3e 5397 9ebe
00000090: d0c7 76bd 976f 7abd 5c40 813e cd6d a6bd
000000a0: d8e6 913e 1e17 28be a20a ca3c 1d69 eb3d
000000b0: 4bca 343e ba9b 8d3d 7da8 0a3b 5bbe d43d
000000c0: 7bdb 03bf 48a8 843e 0d0d 633e deef 3c3e
000000d0: e042 54bd 1ff1 38be 7801 863d cc14 213e
000000e0: 3471 0c3e 3d4e 753d 01b1 1d3d 4001 c83c
000000f0: 990e 67bd e2e4 9f3e 747c 6a3e 5497 863e
00000100: bba4 463d 07d7 db3d dbb6 7d3e f8b3 f4bd
00000110: 922c 063e c110 b6bd ae94 863d daa7 0b3b
00000120: 59b5 5f3e d484 05bd 2c4c 363e 950b 303e
00000130: 2fc4 1b3e 7f6b 393d f80a 953d 3519 873d
00000140: 0b4c 2cbc 94b2 6fbe 8ab5 9abc b4ac b8bd
00000150: 8f23 08bc 1e95 223e 3793 843d c05a 39be
00000160: 088b b2bb 7445 83bd 9461 453e 4458 7c3e
00000170: 9558 cdbd afbc 0bbd ccca 34be e131 ef3d
00000180: 32d9 243e 30b9 023e bff4 2f3d 7f89 afbc
00000190: 130b c13e ee67 853c e72d f7bd 5926 253c
000001a0: 79f7 863b b2ee 053d 7298 673c c049 10bd
000001b0: 8e0b cc3d 9d06 6b3e a354 2b3e c676 bf3e
000001c0: 0e3b 6ebc e78d 17be 2546 423e c63c 87bd
000001d0: 4f02 183e 6283 4bbe 88e7 123d 5fc5 a4bb
000001e0: 4ca0 60be 7ef3 98bc ced7 063e 56ea a23d
000001f0: a30c 133d f5c1 673e bf7c 36be fc19 263e
00000200: f6cd e93c d4d0 293c b564 913e 4f38 a7bd
00000210: 157d 08be 8ede c7bd 7657 a6bc 9ba0 1e3e
00000220: c447 a43e c376 46be cf63 993e 3556 033e
00000230: bd2b a8be 8555 c13d 3431 7fbd ce14 60be
00000240: 6752 53be 0a17 08be 3494 53be f1ea d2bd
00000250: dd97 45bc 1305 543d 4336 8e3e 6e1d d0bd
00000260: 4b12 fe3d b1eb 493d 59b4 5cbd 656f 33be
00000270: 4299 ebbd 49a5 fcbd 798d 0cbe e59f 8bbe
00000280: 5ccc e33d 4b77 cebd 1e8c 6c3e 98e0 3abe
00000290: bfbd c73e c77b ce3d 90d7 173c af1b 69bd
000002a0: c168 6fbd 7c7e 1b3d 62b0 713e d954 cebd
000002b0: 9f3d edbd 72ca c53e cefb 4ebc 3a4f bb3e
000002c0: e1fe aabe 2dd1 c3bd e778 2c3d 06a8 9f3d
000002d0: 9267 b4bd 68ae 6cbd 5a20 cfbd c6f0 1b3e
000002e0: 17f7 f13d 1a6b 30bc b236 dc3d f96e 143c
000002f0: 10cf 4cbd e9ce 023f 5b1d dd3d 86b9 b83e
00000300: 22af 953d 93fb c13d b65f 823e ed2a 843c
00000310: 65ac 4abe d0ee 193e 0643 903a 2071 3f3d
00000320: 9a2b 6e3d 2f59 783e 4056 b93e d64e 233e
00000330: 7664 bcbd 2082 69bd 4a5c eb3d 29d6 3e3d
00000340: e8ee e1bd 7098 0d37 9017 6f3e 80ca b63e
00000350: e96d adbe 5dfd 27be 52b6 26be fd7f 773e
00000360: 5dac 543e 67f8 e33c fa0a 003e 16f7 3f3e
00000370: 5c61 08be 2f0f 213e 7788 883e c60e e13b
00000380: fd55 b33e b85c b83d 8e46 173e 2cda 373e
00000390: 032b ce3c b517 063c 043a 0abe 8d9f 273e
000003a0: 6326 b4be 5733 61bd 5f4f 8b3d 2887 4f3d
000003b0: 9d55 013e 4b7d 173d 49f4 d83b f7b2 883d
000003c0: 64fa da3e cdc1 94be 408d e73d b225 19bc
000003d0: 9405 4a3e 481b a6ba 1fde 4bbe ecdb fc3c
000003e0: 6073 7ebd 28c1 35be 18a8 73bd 88f1 abbd
000003f0: 801a 20be 0d05 493e 68ff 3ebe 58be 39be
0.24638864 0.15097599 0.19266504 -0.15748613 -0.11670782 0.03982657 0.15843467 -0.13041356
0.18217736 0.0070063393 -0.19280548 -0.04308802 0.16534835 -0.094848745 -0.0013776195 0.065867625
0.01697087 -0.05058235 -0.16679709 -0.09449062 0.018824782 -0.07057789 0.048875358 -0.17929047
-0.07285473 0.015982835 0.173318 -0.030770017 0.12654494 0.069413215 -0.21377878 0.12244762
0.048590608 0.13108116 0.16631971 -0.30974826 -0.06024915 -0.061141577 0.25244415 -0.081264116
0.28496432 -0.16415069 0.024663273 0.11494658 0.17655294 0.06914468 0.0021157556 0.1038787
-0.51506776 0.25909638 0.22172947 0.18450877 -0.05182159 -0.1806073 0.06543249 0.1573059
0.13715059 0.059889067 0.038498882 0.024414659 -0.056410406 0.3122931 0.22899038 0.2628733
0.048496943 0.107343726 0.24776785 -0.11948389 0.1310294 -0.08889914 0.06571327 0.0021309764
0.21846522 -0.032597378 0.17802495 0.17191918 0.15211557 0.045268532 0.07277483 0.06596605
-0.010516177 -0.23407966 -0.018885393 -0.090173155 -0.008309259 0.15877196 0.064733915 -0.18101025
-0.0054487027 -0.064097315 0.19275504 0.24643046 -0.10026661 -0.03411549 -0.17655486 0.116794355
0.16098478 0.12765956 0.042958017 -0.021427868 0.3770376 0.01628491 -0.12069302 0.010079944
0.0041188565 0.03269834 0.014135467 -0.035226583 0.099631414 0.22951742 0.16731505 0.37395304
-0.014540447 -0.14800225 0.1897207 -0.066033885 0.1484463 -0.19874337 0.035865337 -0.0050284113
-0.21936148 -0.018670794 0.1316826 0.07954852 0.035900723 0.22632582 -0.17821024 0.1622085
0.028540593 0.01036473 0.28397146 -0.08165037 -0.13328965 -0.09759246 -0.020305376 0.15490954
0.32086003 -0.19381242 0.2995896 0.12825854 -0.3284587 0.0944014 -0.062302783 -0.21882936
-0.20636903 -0.13290039 -0.20662004 -0.10298718 -0.012060133 0.05176265 0.27775773 -0.10161863
0.12405833 0.04929704 -0.05388293 -0.17522962 -0.11503841 -0.12336213 -0.13725843 -0.27270427
0.11122963 -0.10081347 0.23100325 -0.18249738 0.39011952 0.100822024 0.009267703 -0.056911167
-0.05844951 0.03796242 0.23602441 -0.10074777 -0.11584019 0.38631016 -0.012633277 0.36583883
-0.33397582 -0.095613815 0.04210749 0.0779572 -0.08808817 -0.057783514 -0.101135924 0.15228567
0.11814707 -0.0107677225 0.1075262 0.009059661 -0.050002158 0.5109697 0.10796615 0.36079043
0.073087946 0.09471812 0.25463647 0.01613375 -0.19792326 0.15032506 0.0011006303 0.046738744
0.05814705 0.24252771 0.36198616 0.15948042 -0.09198849 -0.057008862 0.11492212 0.046590958
-0.11031896 8.439747e-06 0.23348832 0.3570137 -0.33872917 -0.16405244 -0.16280487 0.24169917
0.20768876 0.027828408 0.12504187 0.187466 -0.1331839 0.15728448 0.26666614 0.006868216
0.3502654 0.0900206 0.14773008 0.1795432 0.025166994 0.008184363 -0.13498694 0.16369458
-0.35185537 -0.054980602 0.06802248 0.050666004 0.12630315 0.036984723 0.006620918 0.0667476
0.42769158 -0.29054108 0.11306238 -0.009347366 0.1972869 -0.0012672925 -0.19908951 0.030866586
-0.06212175 -0.17749465 -0.05948648 -0.08395678 -0.15635109 0.19630833 -0.18652117 -0.18139017

network.2.bias f4 [64]
00000000: e40e 01bd 24e1 393b b7b6 f33d 3baf bf3d
00000010: a112 e73d 048c c53c b343 5bbd b5cb 0b3e
00000020: 6663 123e 0b66 97be 738f 01be 4252 203c
00000030: c63b 03be adde 363d 83dd fd3d 2d53 9bbd
00000040: e5a0 6dbd 0f27 723d 14be a6bd d5b4 b2bd
00000050: ed81 a2bc c932 623e b4b2 1fbe 9fb7 623e
00000060: 7248 603c 244d 41be f80b b03d a484 8a3e
00000070: e1be fb3d 3cf6 e13d b857 b9bd eefd 7ebe
00000080: 5cc7 de3b f4d4 ccbd 19e8 57be b6c8 6c3c
00000090: b7ca 10bd 60d1 813d 23aa 763d 6083 fbbd
000000a0: 58bc 1a3e aa72 7bbe c22d 803e bb2b cebc
000000b0: aecf 70be c8d8 90bc a766 883d 6220 48bc
000000c0: a7f8 e03d 206f debd ad9f 27be 02b3 8f3d
000000d0: 0715 82bd 3b94 383d 9199 2bbd 77b9 e23d
000000e0: bb42 2b3c b12f 803d e515 673d 0561 0abe
000000f0: 1d51 113e e1ed 92bd cfda 223d 3a15 e83d
-0.03150834 0.0028362954 0.119000845 0.093595944 0.1128285 0.024114616 -0.05353136 0.13651927
0.1429573 -0.2957004 -0.12652378 0.009785237 -0.1281577 0.044645954 0.12395766 -0.07584224
-0.05801477 0.05911928 -0.08141723 -0.08725897 -0.019837344 0.22089685 -0.15595514 0.22140358
0.013689147 -0.18877083 0.08596033 0.27054322 0.12292267 0.110332936 -0.09049934 -0.24901554
0.006798668 -0.10001555 -0.21084632 0.01445215 -0.035349574 0.06338763 0.06022085 -0.12280917
0.1511091 -0.2455546 0.2503491 -0.025167337 -0.23516724 -0.017681494 0.066602044 -0.012214752
0.10984927 -0.10861039 -0.16369505 0.07016565 -0.06351667 0.04506324 -0.0418945 0.11070531
0.0104529215 0.062590964 0.056417365 -0.13513573 0.14191099 -0.07174278 0.039759453 0.11332174

network.4.weight f4 [64, 64]
00000000: 61e5 a93e 52de eebd ad49 3fbe dba5 55be
00000010: 3dcc 1abe e57c d8bd a1d0 a8be 8926 e2bd
00000020: 2c92 1b3e d5d7 cb3e 622d c63d 5b40 4e3e
00000030: 025f 893c ed79 aabd 6d05 313e 5430 483d
00000040: 8912 a53e c780 0fbe 1a4b 25bd 161c af3d
00000050: f23d 193d fa33 9cbe 5573 2a3d 20f7 d1bd
00000060: 470a f8bd 3d82 ff3d 3f16 e93c f886 b1bd
00000070: 580f f5bd 56de f6bd c837 c43d e240 053e
00000080: 1137 b43d d12a db3d 69a9 043e cbda 283e
00000090: ef8a adbd 639b 2b3e 3104 00bc 951b 85bd
000000a0: 2117 a13d 7a39 913e 9b4b 97bd c924 fa3d
000000b0: 5f23 b03d 2941 053d eddb a9bd dec4 09bd
000000c0: ba33 8d3d c978 133e ae31 183e d4e9 28be
000000d0: 533e e73d c7fa 96bd 8aa5 4c3e b6a3 83bd
000000e0: da06 193e 2ec2 a23d 3322 1abb 3c8f c93c
000000f0: d8b7 c73b ef79 0fbe 6de0 37be 5a53 bf3d
00000100: 8ca8 ccbd 4b8e 143e 6808 44be ddb1 b6be
00000110: cca4 30be 2ab2 6b3d b025 eebd 6f0e 13be
00000120: 2809 9fbd 8601 953e 6733 da3d 7269 9e3e
00000130: 6285 80bd 4841 f13c c37a 41be 5e1c 40be
00000140: 73dc 123e 3860 a43d 95ff 063d 537c ebbd
00000150: 0bd7 74be aac6 47be 4f37 9f3d 772b c7bd
00000160: 2b12 22be a2f1 843e 60e4 d0bd e703 d6bc
00000170: e10b 8fbd 3deb b0bd 0712 9fbc f9d6 173e
00000180: 84d2 263e 35a1 443e ae26 1a3e 86f5 4e3e
00000190: 21b0 6e3e 13b7 4fbe 4a4a 4e3d 7e95 d63c
000001a0: 11d8 ca3d 232a b6ba 59f8 06be dabf c23d
000001b0: 51c6 a43e a924 b7bc 7f00 53bd 9590 c5bd
000001c0: b818 3bbe 1f41 a83c 66d7 913e ef81 4fbd
000001d0: a065 4b3e 278a 0fbe 3859 ac3e ff5b 46be
000001e0: 31e0 d23d 5f6e 94be df8a 543e 3c75 823e
000001f0: 5dcd 82bd 82e5 17be be84 35be 8dc2 143e
00000200: 8b26 40be bdc3 c6bd 6afd ff3b 76c4 e43d
00000210: d7e8 1fbe 621f e4bd f3a7 febd 4973 13be
00000220: 4db5 3cbe 577e d8ba 37f5 4f3e 74c4 e7bc
00000230: 08d3 fcbc 9447 5b3e 08dc e5bd 8c9e 13be
00000240: 5625 c43c d212 0cbe 4858 b6bd 4616 26be
00000250: 93f7 193d 344c d13d 06da 853d 35a0 f53d
00000260: ea26 9a3d fa69 233e 5ee1 e83d 54c3 493d
00000270: 2b2a ff3d fc8d f8bd be26 9dbd 4485 9ebd
00000280: 2a03 d93d 9712 0cbc cd29 3f3b b5d7 b13d
00000290: 6ae6 1e3e eac8 773d 3752 03bd 7090 9abd
000002a0: 951e e8bd 9d2f 893d 6e0a 313e 3216 86be
000002b0: ed9b babd dc6c 38be c375 58bc 45e1 0dbe
000002c0: e08d 6abc 2f7b 123d dca2 883d 93c7 783d
000002d0: 7d79 30bd bd14 323d 3188 3dbd 1af9 ab3b
000002e0: b18d 9bbb 2753 0c3e 7266 67be eda7 0f3e
000002f0: bf1c 843c d8c7 edbc 6bc8 723e 78ff 2fbe
00000300: acec 193e f001 413e 7720 273c 3b1e 3fbc
00000310: 8f09 13bc 0a7d e93c 94dc 313d 6c50 a0bc
00000320: ecea cebd dc97 913e 0f05 9ebd a742 c7bd
00000330: 6e71 5bbd 8078 603d 2ea2 3dbe b4b5 1e3e
00000340: 990f ca3d b8e5 0d3e 18e1 ea3d 57bb 10be
00000350: 4cee 0e3e b428 aabe b8f1 513e d373 45be
00000360: 71c2 b03d f7a3 0e3e e37c a0bd d263 593d
00000370: d39e b83d 4a83 8fbe 3ac9 a6bd e3dd 153d
00000380: f5d9 96bd 9e0a d53d a4ec 753d f024 c3bd
00000390: f060 59bd 922b 133e 78c5 2bbe 0138 20bd
000003a0: 52a9 293c 72ce 213c edd8 77be 7699 c63d
000003b0: a410 3a3d afed a63d 1944 53bd 1c65 f33d
000003c0: 3529 85be 6426 2ebe e725 d03d ef83 b2bd
000003d0: 1dec 22be 409c ffbc 9b49 34bd b621 363e
000003e0: e53e 49bd 9391 e9bd 5be2 b23d 5005 273d
000003f0: ebfe c7bd fb38 4abe b9b5 69bd 7f50 d1b9
0.33182815 -0.11663498 -0.18680449 -0.2086405 -0.15116973 -0.10570697 -0.3297167 -0.11042506
0.15192479 0.39813104 0.09676625 0.20141737 0.016768936 -0.08324037 0.17287226 0.048874214
0.32240704 -0.14013968 -0.040354826 0.08550279 0.03741259 -0.30508405 0.041613895 -0.102522135
-0.12111335 0.12476013 0.02845299 -0.08668321 -0.11965817 -0.12054126 0.09580952 0.13013032
0.087995656 0.10701526 0.1295525 0.16489713 -0.08473765 0.16758494 -0.007813499 -0.064994015
0.078657396 0.28364164 -0.073874675 0.122140475 0.086004965 0.032532845 -0.08293901 -0.033635013
0.06894632 0.14401545 0.14862701 -0.16495448 0.11291184 -0.07372051 0.19985023 -0.0642771
0.1494402 0.07947193 -0.002351892 0.024604432 0.006094914 -0.14011358 -0.17956705 0.0934207
-0.09993085 0.14507405 -0.19143832 -0.35682574 -0.17250365 0.057542957 -0.11628282 -0.14360975
-0.07765418 0.29102725 0.106543355 0.30939823 -0.06275441 0.029450074 -0.18894486 -0.18760821
0.14341907 0.08026165 0.032958586 -0.11498322 -0.23910157 -0.19509378 0.07774221 -0.09725087
-0.15827243 0.259656 -0.10199809 -0.026124908 -0.069846876 -0.08638618 -0.019417776 0.148281
0.16291243 0.1920212 0.15053818 0.20210847 0.23309375 -0.20284681 0.050363816 0.02619433
0.09904493 -0.0013898056 -0.13180675 0.09509249 0.32182553 -0.022356348 -0.051514145 -0.096467175
-0.18271148 0.020538865 0.28484648 -0.050661024 0.19862986 -0.14017545 0.33661819 -0.19371031
0.10296667 -0.28990456 0.207561 0.25480068 -0.06386826 -0.14833644 -0.17726418 0.1452734
-0.18764703 -0.09705303 0.0078121917 0.111702845 -0.15616165 -0.11138798 -0.124343775 -0.14399447
-0.18428536 -0.0016517144 0.20308386 -0.028291918 -0.030862346 0.21414024 -0.11223608 -0.1441595
0.023943584 -0.13679054 -0.08903557 -0.16219434 0.03758962 0.10219613 0.06535725 0.11993448
0.075269535 0.15958396 0.113711104 0.049258545 0.12459215 -0.12136456 -0.07673405 -0.07740262
0.105963066 -0.008549354 0.0029169202 0.08683721 0.15517583 0.06049434 -0.032060828 -0.075470805
-0.11333958 0.06698535 0.17289135 -0.2618881 -0.09111772 -0.18010277 -0.01321167 -0.13855465
-0.014316052 0.03576201 0.06671688 0.060737204 -0.04308461 0.04347681 -0.04627246 0.005248201
-0.0047471155 0.13703595 -0.22597674 0.14028902 0.016126988 -0.029025957 0.23709266 -0.17187297
0.1503169 0.18848395 0.010200611 -0.011664922 -0.008974447 0.028502006 0.04342325 -0.019569598
-0.101034015 0.28436172 -0.077158086 -0.0972951 -0.05357497 0.054802418 -0.18518898 0.15499002
0.09866256 0.13857162 0.114687145 -0.14133964 0.1395809 -0.3323418 0.20502365 -0.19282465
0.08630837 0.13929735 -0.0783632 0.05307371 0.09014668 -0.28029853 -0.0814385 0.03658856
-0.07365791 0.10402416 0.06004013 -0.0952853 -0.053070962 0.1437209 -0.16774547 -0.03911591
0.0103553105 0.009875881 -0.24203844 0.09697239 0.045426026 0.08150803 -0.051578615 0.118845195
-0.26008 -0.17006832 0.10163479 -0.087165706 -0.15910383 -0.031202435 -0.04401551 0.17786297
-0.049132247 -0.11404719 0.0873458 0.04077655 -0.097654186 -0.19748299 -0.05705807 -0.0003992356

network.4.bias f4 [64]
00000000: 5519 2fbe 7a69 92be f624 823d 836a a6bd
00000010: 4fa2 95be 6cde 1dbb 4095 163d 3007 1bbd
00000020: c181 673d d60c c4bd 5fdf 123e 7e1b 14be
00000030: 85cc 4e3d b9ed 433c 3a31 c33d 7f91 1ebd
00000040: b8e6 973d 5fbd 3cbd 8cd6 6dbd 2f54 b0bc
00000050: afbf a63e 4846 88bd f7cf 443e 67dc 793e
00000060: dacc edbc 9524 a7bd df57 73be fa38 6bbc
00000070: 88dd 02be 631d 97bd df10 f93d 9265 0b3e
00000080: 35b6 3dbd f831 d6bc f149 98bd 8aa3 9cbd
00000090: c4a6 2c3d ccc5 533e eb6d 453d 7cf4 11be
000000a0: eee9 39bd a312 27bd 11d4 b7bd 0ad4 a33d
000000b0: 63df 0a3e d586 e0bd 2602 aabd cfab 7c3d
000000c0: bc43 a2bd 95d3 49bc 1651 c53c 753a 473e
000000d0: f80d 7a3b 9bf4 2ebd 1e07 bbbe 75aa d5bc
000000e0: aece 5e3d d0c2 89be 5bb6 15bd d02c 05be
000000f0: ee51 94bb 4c58 6ebc 4f96 103e 5334 713d
-0.17099507 -0.28596097 0.06354706 -0.08125784 -0.29225394 -0.0024088873 0.03676343 -0.03784865
0.056520227 -0.09572761 0.14343022 -0.14463612 0.050488014 0.011958533 0.095308736 -0.038712975
0.07417053 -0.046079036 -0.058065936 -0.021524517 0.32568118 -0.0665403 0.19219957 0.24400483
-0.029028345 -0.08161274 -0.23763989 -0.014356846 -0.1277982 -0.07378652 0.12161421 0.13612965
-0.046316344 -0.026146874 -0.07435978 -0.0764838 0.042151228 0.20680922 0.04820053 -0.1425342
-0.04538911 -0.040789258 -0.08975995 0.079994276 0.13561778 -0.10963217 -0.08301191 0.061687287
-0.079230756 -0.0123185115 0.024086516 0.19455893 0.0038155299 -0.042713743 -0.36528867 -0.026082257
0.054396324 -0.26906443 -0.03655086 -0.13005376 -0.0045263683 -0.014547419 0.14119838 0.05888779

network.6.weight f4 [64, 64]
00000000: d150 683e 678b 463e 6b7e 023d b4bc d43c
00000010: b8e6 6f3e 005a 3c3d bef7 053e 0ac8 5abd
00000020: 25d7 c6bd 5165 e73a 2983 fa3c 73db 993d
00000030: bf97 d93d 1308 453d 359f cb3d 3523 3a3e
00000040: 2e37 c53d 6501 4dbd 4f65 413e 90be 1cbe
00000050: 261e 9abd d1af 3d3e 2fcf 91be ca2c 5bbd
00000060: 0c67 8abd 3643 0fbd 3dde 6f3e cae7 683e
00000070: 0368 993c a4ed f5bd dd64 0d3e 3bd1 89be
00000080: 2ce4 7ebe 78bb cabd 36d9 08bc 6dbb ddba
00000090: d01b 8a3d 3cf0 39be e9d0 40be 4c46 26bd
000000a0: 22a7 843e 0d41 263e 0f30 423b 8c5e 65be
000000b0: 3d29 f43d 0528 30bd 6132 f1bb 939c ffbd
000000c0: dfbf ac3c 8184 b1bd 4461 853e b8bf c23c
000000d0: 1cfc e1bc dcc7 863d 7c64 edbd 161a 463e
000000e0: 9f27 8f3e f1e1 40be 69f6 2bbd eab5 0b3e
000000f0: de4b a43d 3698 043e 4e3d 09bc f784 42be
00000100: 1fee ffbd f578 77be abc4 5bbe 10ec a43d
00000110: 3d3e 95bd bbbb 0a3e 6a33 14be 5a5f 493d
00000120: 0590 243e 50f6 ab3d 6832 01be 75a8 28be
00000130: 3307 a73c 8231 4cbe f35f 82bd c268 49be
00000140: 3e73 a83e ce1f 94bc a70f 633e a870 47bd
00000150: 84cd be3e 12fa c73d 53c9 a53e da4a 803e
00000160: 38e6 493c 3388 403e d3ef 9ebe 1f48 1dbe
00000170: 6982 223d 9f52 18be 44b9 683e da65 b53c
00000180: e796 243d 9246 bdbd 3589 883d 55ac b63d
00000190: b94d a13e b840 213e 792d 1d3e 58a5 36bc
000001a0: 5512 01be f719 94bc 0a5f 943d f3ea 633e
000001b0: 93aa 183e beea 90bd a95e f2bd 3814 6a3e
000001c0: 88f8 68be c543 053e 4dd9 5fbd da70 663e
000001d0: 7508 c9bd 3107 6abe be33 7ebd aefe 06be
000001e0: 639c d73c b2a6 e43a f010 983e 70fa edbd
000001f0: 4f0b 443c 185d 0bbd 65f4 af3d 250a 0b3e
00000200: 1291 b63e 5140 353e 78d3 40bd fa48 133e
00000210: bf0b a23d 6952 18be 4729 a23d 53a2 bdbd
00000220: 0336 7cbe f1da c63e 22cd cdbe b327 a7bd
00000230: 1bf5 41be 21a1 0abe 4a75 6f3d 8865 86bd
00000240: 0aeb 4f3e 81e6 5a3d 0b50 013e 4bc1 843d
00000250: 884d 943d 63af 073e ee0a 273e a44e eebd
00000260: 4242 18bc 4893 e53c 138e 6e3e 0f77 01be
00000270: 89fd fd3e 7793 693e bd7d 8ebd 313c 53bd
00000280: 00c8 813e a405 873d 817a c83d 62a6 2b3e
00000290: c3ad 03be 9d5f 4f3d 4609 c93d 332d d23d
000002a0: 6e00 f5bd fb11 75bd 4108 05be 6b53 40be
000002b0: 1f39 5ebd 5ebc 893e 45e9 333e 0903 d83d
000002c0: b965 d6bd 0def 183e ff21 afbd c577 303e
000002d0: cb0f ecbd decb 48be 7584 edbd bc3f 823d
000002e0: 632d c2be fc95 9a3e 5124 a33d 9dfa 683e
000002f0: 1a53 023e 286f 20be 0bd4 05be 6b2f 52be
00000300: 7631 9b3e de35 c5bd e2f8 1ebe 1eb0 063e
00000310: fa5b 61be de37 87bd fa01 3abe cf19 833d
00000320: a107 1c3e 6c93 07be f86c 013e f74e 4dbe
00000330: 76c8 9f3c fc7c 843e bc68 2cbd be08 f63d
00000340: 3d05 38bb f7e1 193b 3416 a5be 055e db3c
00000350: bc62 b6bd f2b8 6c3e 26f6 a93c c483 493d
00000360: ffa7 813e 867c 31be 4c0d 96be bdc4 3cbe
00000370: 745c 1c3e b7c8 6ebe a005 b7bd f30e 3a3e
00000380: b535 583d 75b5 253c eb19 ce3e 1abe 363d
00000390: cbc0 a1be 59da 1f3e 1b25 20be abc9 58be
000003a0: 3568 53be ffed 003e 779a aebe 3727 57bd
000003b0: 6c95 b23d 17db cf3d 186f 8dbd 8c8e 06be
000003c0: d7d5 593e 04ef 133d ce27 ab3c 4d90 2c3e
000003d0: 5e6d 0a3e 40a7 9d3d f800 b8bd 916c da3d
000003e0: b7b4 cebe ded5 3dbd 7dc5 97bd 6b98 b1bc
000003f0: 0449 e23d 2a6a d9bd 054b 76bd 020b b3be
0.22687079 0.19389115 0.031858843 0.025968887 0.23427856 0.04598427 0.13082787 -0.05341343
-0.09709004 0.0017654096 0.03058012 0.0751256 0.106246464 0.048103403 0.09942476 0.18177493
0.09629665 -0.050050158 0.18886302 -0.15307069 -0.075252816 0.185241 -0.2847838 -0.05350951
-0.06757936 -0.034976207 0.23424621 0.2274467 0.018726354 -0.12008217 0.13808008 -0.26917443
-0.24891728 -0.09899038 -0.008352568 -0.0016916819 0.06743586 -0.18158048 -0.18829693 -0.040594384
0.25908762 0.16235752 0.0029630696 -0.22399348 0.11921928 -0.043006916 -0.007360742 -0.12481036
0.021087585 -0.08667851 0.2605077 0.02377306 -0.027586035 0.06581089 -0.115914315 0.19345888
0.27959916 -0.1883619 -0.041983042 0.13643613 0.08022283 0.12948689 -0.008376433 -0.18996035
-0.1249659 -0.24167235 -0.21461742 0.08052838 -0.07287262 0.13548176 -0.14472738 0.0491632
0.16070564 0.0839659 -0.12616885 -0.16470511 0.020389175 -0.1994076 -0.06365957 -0.19668868
0.32900423 -0.018081572 0.2217394 -0.04869142 0.3726617 0.09764494 0.3238016 0.25057107
0.012322955 0.18801956 -0.31042346 -0.15359543 0.03967515 -0.14875267 0.22726923 0.022143293
0.040182974 -0.09241976 0.06666795 0.089195885 0.3150461 0.15747344 0.15349378 -0.011147819
-0.1260465 -0.018078787 0.0724469 0.22257595 0.14908819 -0.070760235 -0.11834461 0.22859275
-0.22751057 0.13014133 -0.054650594 0.22503987 -0.09816066 -0.22854306 -0.062061064 -0.1318309
0.026319688 0.0017444699 0.29700422 -0.11620033 0.011965587 -0.034024328 0.085915364 0.13578089
0.35657555 0.17700316 -0.047076672 0.14383307 0.07912397 -0.14875187 0.07918029 -0.092594765
-0.24629979 0.38838914 -0.40195566 -0.08161869 -0.18941157 -0.13538028 0.058461465 -0.06562334
0.20304504 0.053442482 0.1262819 0.0648218 0.072413504 0.13250498 0.16312763 -0.11636093
-0.009293141 0.02802433 0.23296385 -0.12643073 0.49607494 0.2281016 -0.069575764 -0.051571075
0.253479 0.06592873 0.09788991 0.16762689 -0.12859254 0.050628293 0.09816222 0.10262527
-0.119629726 -0.0598316 -0.1299143 -0.18781821 -0.054253694 0.26901525 0.17569454 0.10547454
-0.10468621 0.1493494 -0.08551406 0.17233188 -0.1152645 -0.19609019 -0.1159753 0.063598126
-0.37925252 0.30192554 0.07965911 0.22751851 0.12727013 -0.15667403 -0.13069169 -0.20525901
0.30311173 -0.09629415 -0.15524629 0.13153121 -0.22007743 -0.06602453 -0.18164816 0.06401407
0.15237285 -0.1323983 0.12639225 -0.20049654 0.019504767 0.25876606 -0.04209207 0.12013386
-0.0028079294 0.0023480633 -0.32243502 0.02677823 -0.08905551 0.23117426 0.020747256 0.049197927
0.25323483 -0.17332658 -0.2930702 -0.18434425 0.15269643 -0.23318754 -0.0893662 0.18169765
0.052785594 0.0101140635 0.4025415 0.04461489 -0.31592402 0.15610637 -0.15639155 -0.2117068
-0.2064522 0.12590788 -0.34102222 -0.052527633 0.08719906 0.1014921 -0.06905955 -0.13140315
0.2127298 0.036116615 0.020893004 0.16851921 0.13518283 0.07697916 -0.0898456 0.10665239
-0.4037225 -0.046346538 -0.07410715 -0.021679124 0.11049083 -0.10615952 -0.060130138 -0.34969336

network.6.bias f4 [64]
00000000: 49b4 45bd 2ff9 923d b93e 96bd 227c 25bb
00000010: f37e d73d 79b9 a33d 88c2 8c3d 6a56 483c
00000020: 19de 05bd d5fe 9f3c 18e7 1dbe a174 a43d
00000030: ec4a 44bd ed89 dabd 3f2f 85bd ed48 e5bb
00000040: df0d 443d 93e0 ad3d 610b 0a3d 33ad 0cbd
00000050: 75b8 913d f809 0b3d ab2c 933d 9f63 cfbd
00000060: b8d7 acbb 7c1d 0b3e 4c55 84bd c99b 7b3d
00000070: 6d1b bf3d 9568 95bb 6e21 543d 7d21 dabc
00000080: 4188 163e fc58 583e 1926 88bc a897 a93d
00000090: 8d40 69bd 6b42 b43c 0deb 59bd 18e1 afbd
000000a0: 20c6 dd3c 06aa d3bd cac4 dc3d 03d9 263e
000000b0: 34f9 4bbd 027e c33a 4231 12bd 1506 3f3c
000000c0: 3828 a83b 97b7 443e cd38 4c3d 224f d53d
000000d0: 4ef8 923d 31dd a63d e739 3ebd b94b 0dbd
000000e0: f613 8cbd cb64 d5bc 8920 64bd 7c27 253e
000000f0: 76d7 043e 9c11 3dbd f0d1 a7bd 34bd 8d3a
-0.048267636 0.07176434 -0.07336182 -0.002525099 0.105222605 0.079943605 0.068730414 0.012227634
-0.032682512 0.019530693 -0.15420187 0.08030058 -0.047923014 -0.106708385 -0.06503152 -0.006997219
0.04786479 0.084901 0.033702258 -0.034344863 0.071152605 0.033945054 0.07186254 -0.10126423
-0.005274739 0.13585466 -0.064615816 0.061427865 0.09331403 -0.0045595863 0.051789694 -0.026627297
0.14700414 0.21127695 -0.016619729 0.08280879 -0.056946326 0.022004327 -0.053202678 -0.08587855
0.027072012 -0.10335164 0.10779722 0.16293721 -0.049798205 0.0014914873 -0.035691507 0.011659165
0.0051317476 0.19210659 0.049858857 0.10415484 0.071762666 0.08147658 -0.04644194 -0.034496043
-0.06839745 -0.026049038 -0.05569509 0.16128343 0.12972817 -0.04615937 -0.08194339 0.0010813833

network.8.weight f4 [64, 64]
00000000: f4f4 033e 1686 033e 96b1 4dbe e70d 7abd
00000010: 38ab e4bd de59 8bbd 107a 9ebe c777 18be
00000020: 1163 c0bc 7e35 b93d 2e02 413e 2b68 b1bd
00000030: 6953 d63d a08c 4bbe 5f68 31be d751 c3bd
00000040: 7d17 37be e48c 0ebd 9b5a 2f3e 5f40 1e3e
00000050: 24f3 55be e40f 8cbd 85f7 b8bd a2b2 823d
00000060: ae39 6b3d a2d0 9abc 19f4 1abd a01e 073f
00000070: 4cf5 43be 5c42 9fbd 6680 e93d c213 d0bc
00000080: 5c06 09bd 18c1 013e 2323 f93d 5e76 4dbe
00000090: ea12 3e3e 63cb 8a3d e1e6 903e 4de8 e8bd
000000a0: 1e91 933d f113 3fbe 7faf 74be c732 0fbd
000000b0: fb46 a1bd 6a10 b5be a9e7 11be d6f7 edbd
000000c0: 02b0 05be e8e9 8d3e 6a90 30be 8f89 01ba
000000d0: 124d cb3d 753f 153c d6a5 85be 48c0 eabd
000000e0: 2b0c 5a3a 76ff 7a3e 2117 4bbe 38b2 c2bd
000000f0: a954 09be 62d1 ba3d 679b 4d3e 10aa 71bd
00000100: 4e6a d5bb 97c7 4abc 99da 8a3d c200 d5bc
00000110: 78c4 e5bd fcb6 303d c005 103e b468 373c
00000120: 25b1 0ebd 5baf 58bd 1a15 2d3e ad1a ccbd
00000130: 8fcd 1ebd d68a 15be a8d3 e83d 62b3 63bd
00000140: 59db 1cbe bc5d 3e3d a527 b8bd 98ba c8bd
00000150: 50ba cbbd 621e 31bc 37b6 67bd 112c a5bd
00000160: 6788 0abd 9267 85bd 34e2 e03d b9bf 80bc
00000170: 4700 3abd 82cf c43c 817d 01ba 2a96 68bd
00000180: e78d 10bd 5ca8 14be e3dd a4bd f51f a4be
00000190: 3a82 a43e 3b44 e8bd f1cf ac3d a92b 32be
000001a0: 5f9b 0f3e 6572 523d eff0 f2bb dbc5 22be
000001b0: 8466 9f3d ee81 bb3b a23a ac3c 965d bcbd
000001c0: 06f3 863d 0b34 1d3e 97ee 073e 21a5 77bd
000001d0: 2553 e6bd afc4 4ebe 22e5 1f3d 64a7 873e
000001e0: 4897 55be 1c65 62bc 5eb1 76bc e7d0 2cbd
000001f0: f3ad 0a3e f360 10bc 92e8 afbe c8b0 7c3e
00000200: 26c1 993d a7bd 47be ff66 dc3d 6f9f f4bc
00000210: 86a1 95bc 10c9 b9be d9a3 dbbd cf3a b33d
00000220: d889 883e f199 683e a059 13bc b97b 99be
00000230: 790f dfbd 2484 37be 312b 4cbd 3eb7 9bbb
00000240: bb56 023e 4109 afbd a16d e2bd a1e7 87be
00000250: 7833 f83d 9795 1abe 9371 8bbe 59f3 50be
00000260: f3c0 77be 5f91 3a3e d56a adbd 4c5d a3bc
00000270: e651 fc3d f860 503d ca97 0c3d 3d76 973d
00000280: fdff 2bbe 0c2c 12be d9f9 4ebc 96f0 263d
00000290: 65df b4bd 3c0f 633d d389 e3bc 6896 c6bd
000002a0: 534d 34be 9d5c 80bd 7e41 05be 50b6 8fbe
000002b0: 74a8 ef3c fc39 1abd 3ed2 e33d 9a89 0bbd
000002c0: ecf9 cf3a b36b d4bd a1fe 983d b692 9bbe
000002d0: d9a4 19be 9a39 0ebe 4abc dcbd 095e 1c3d
000002e0: e89f 98be b637 2d3e 285a f0bd d86b 6cbd
000002f0: f99f 72be 6af4 9439 25ac a03c f666 13bb
00000300: 0ad2 0d3d 4a22 95be 8a45 d1bc cf85 d5bd
00000310: 4cef 74be 58b4 5cbe 142a 51bd 93ce 183e
00000320: fb89 263e 3b86 85bc 91bd 46bd 35c4 5fbc
00000330: d7aa 7dbd a558 5bbc 12e1 7cbd 5a8c bdbd
00000340: 7898 41bd 6d25 29be 9a06 6ebe 4549 8cbe
00000350: a515 953c 96d1 143e 26ae fcbd 0dba 3ebe
00000360: cc97 2cbe c147 b73c 6686 293e a6b6 993d
00000370: 46aa 1e3e a3ed 45be bbb1 25be 6eab ed3d
00000380: 22b9 51be d5ba 34be f6ff 5bbe 6724 9fbd
00000390: fc5c 3d3c 8dbb 50be c5be 13be cf75 5abd
000003a0: d5fd 68bd 64a8 973d a6ef 16bd 0771 dcbc
000003b0: bdb6 e43d 8040 61bb b534 20bc 248b 873c
000003c0: 2e4e 10bd 7b0d 17be a953 a7bd 38c9 b0be
000003d0: 04bf 12be 12ed 043e 5b32 bfbc ba0f 863c
000003e0: 4bdd e4bc 3f9e 263e dcb6 8dbe 12d9 21bd
000003f0: 97c0 23be 2983 0dbd 761d 71bd 92d1 ac3e
0.12886411 0.12844118 -0.20087275 -0.061048415 -0.1116547 -0.0680425 -0.309525 -0.14889441
-0.023484739 0.09043406 0.18848488 -0.086624466 0.10465128 -0.19877863 -0.1732497 -0.09537094
-0.17880054 -0.034802333 0.17124407 0.15454243 -0.20893532 -0.068389684 -0.090315856 0.06381728
0.057428055 -0.018898312 -0.037830446 0.52781105 -0.19136542 -0.07776329 0.11401443 -0.025400046
-0.03345333 0.12671316 0.12164905 -0.20064685 0.18561903 0.06777074 0.28301147 -0.11372433
0.07205413 -0.18659951 -0.23895071 -0.034960534 -0.078748666 -0.35364085 -0.14248528 -0.116195366
-0.13055423 0.2771752 -0.1724259 -0.00049414573 0.09926809 0.009109368 -0.26103085 -0.11462456
0.0008317853 0.24511513 -0.19833042 -0.09506649 -0.13411202 0.09121968 0.20078813 -0.059000075
-0.0065129166 -0.0123766875 0.067799754 -0.026001338 -0.11219114 0.043143257 0.14064693 0.011194397
-0.034836907 -0.052901607 0.16902581 -0.099660255 -0.038770255 -0.14603743 0.11368495 -0.055590995
-0.1531805 0.04647611 -0.089919366 -0.09801215 -0.09947646 -0.0108104665 -0.056570258 -0.080650456
-0.03382149 -0.06513895 0.10980645 -0.01571642 -0.04541042 0.024024729 -0.0004939661 -0.056783833
-0.03529158 -0.14517349 -0.08050134 -0.3205563 0.32130605 -0.11341139 0.08438099 -0.17399468
0.14024113 0.051378626 -0.0074139754 -0.15895788 0.07783225 0.005722276 0.021024052 -0.091975376
0.06589322 0.15351884 0.13274609 -0.060460214 -0.11246327 -0.20192216 0.039036877 0.26494896
-0.2085849 -0.013818052 -0.015056936 -0.042191412 0.13542919 -0.008812177 -0.34357125 0.24676812
0.07507543 -0.1950594 0.107618324 -0.02986118 -0.018265497 -0.3628621 -0.10724611 0.08751451
0.26667666 0.22714974 -0.008993536 -0.29977205 -0.10891623 -0.17921501 -0.049845878 -0.004752069
0.12728398 -0.08546687 -0.11056066 -0.26543906 0.12119192 -0.15096126 -0.27235088 -0.2040533
-0.24194698 0.18219517 -0.08467642 -0.019941948 0.123203084 0.050873727 0.034324445 0.07395599
-0.1679687 -0.14274615 -0.0126328105 0.040756784 -0.088316716 0.05543445 -0.02777568 -0.096966565
-0.17607622 -0.062676646 -0.13013265 -0.2806878 0.02925513 -0.037652954 0.11124085 -0.034066774
0.0015867329 -0.103721045 0.074704416 -0.3038537 -0.1500429 -0.13889161 -0.10778101 0.038175616
-0.298095 0.16915783 -0.11735946 -0.057720035 -0.23693837 0.00028410862 0.019613335 -0.002249179
0.034624137 -0.29127723 -0.025545854 -0.104259126 -0.2391941 -0.2155317 -0.05106552 0.14922552
0.16263573 -0.016299358 -0.04852063 -0.013657619 -0.061930504 -0.013387834 -0.06173808 -0.092552856
-0.047264546 -0.16518183 -0.23244706 -0.2739965 0.018198797 0.14533076 -0.12337904 -0.1862566
-0.16854781 0.022373082 0.16555175 0.075055405 0.15494642 -0.19328932 -0.1618108 0.11604963
-0.20480779 -0.17649396 -0.2148436 -0.07770615 0.011557814 -0.20384045 -0.14428242 -0.053335007
-0.056882698 0.07405165 -0.03684964 -0.026909364 0.11167667 -0.003437072 -0.009778191 0.01654584
-0.035230808 -0.14751236 -0.08170254 -0.34528518 -0.14330679 0.1298106 -0.023339441 0.01636492
-0.027937552 0.16271304 -0.27678573 -0.039513655 -0.15991436 -0.034548912 -0.058865987 0.3375364

network.8.bias f4 [64]
00000000: c0c4 2cbd 66c0 5abc d080 66bd 0398 dcbc
00000010: d78e 93bd 9d1a bfbb acc3 403d cc45 e13d
00000020: a9dc 25bd 7723 96bd b997 aebe 48be 2dbe
00000030: 79a8 c9bd 0285 be3d 076c a53c 49fd 2fbe
00000040: 1ac0 d4bd 16c3 0e3b 897f c7bc e830 60bd
00000050: da2a 90bd 8133 d2bd bddc 5d3d d4c3 8d3d
00000060: adb8 55be 81e3 6d3e a59c 083d f461 d6bb
00000070: 8ebe 3fbd 20dc 61bb d504 a6bd e8d6 12be
00000080: 269e 0ebe b7e4 9abd 11f1 453d 09f6 13be
00000090: 2df7 22bc 19e1 3b3e f000 34be e954 2ebd
000000a0: fef7 2c3d 7dd9 95bd b9da d63d f28b cf3d
000000b0: 914b 403b 8021 76bc 8896 953d 6251 ff3b
000000c0: 5227 033e 8d5a d53d 88d1 313d 5117 923c
000000d0: dc4f 8abd e6eb bfbc f5f4 d43d d314 82bc
000000e0: d1f0 21be 071a 9e3d 3a19 393d a7f1 0bbe
000000f0: 0de2 21be daa1 683a 25f1 5a3c 37e4 00ba
-0.042179823 -0.013351535 -0.05627519 -0.026927954 -0.07204979 -0.00583203 0.047061607 0.10999641
-0.04049364 -0.07330983 -0.3410013 -0.16967118 -0.09846587 0.09302713 0.020193113 -0.17186464
-0.10388203 0.002178376 -0.024352806 -0.05473414 -0.07039423 -0.1026373 0.05416559 0.06922117
-0.2087123 0.23231317 0.033352513 -0.0065424386 -0.046812586 -0.003446348 -0.081063904 -0.14339793
-0.13927516 -0.07563155 0.048325602 -0.14449324 -0.009946627 0.18347587 -0.17578483 -0.042561445
0.04222869 -0.07316873 0.10490937 0.10134114 0.0029341916 -0.015022635 0.07304102 0.007791684
0.12807968 0.10417662 0.043412715 0.017833384 -0.06753513 -0.023427915 0.10398284 -0.01587907
-0.1581452 0.07719808 0.045190074 -0.13666402 -0.15808888 0.00088742154 0.013363157 -0.0004916819

network.10.weight f4 [64, 64]
00000000: f4c3 0fbc c11d 1abe b854 0fbe 3cd5 7fbd
00000010: 2712 813e 1996 f33d 6405 473e b7d2 8b3d
00000020: 9ef0 07bd 728f 993d b790 98be a837 f6bb
00000030: acd6 fa3d 79a1 acbc be8a 463d a067 3bbe
00000040: 8876 17bd dd3b 67bd 40a8 e8bc 940e 82be
00000050: bf0c 7cbe 9f03 203e 9f2c 3bbe 4470 0ebd
00000060: 1c6d 95bd e4cf 833d 0f8c c7bc 36b8 babe
00000070: 1e04 47be 7f9c c1be d57d 4cbe 6d53 6c3d
00000080: 384d 55bd 12d2 7ebd 31be 2bbd 7628 a1be
00000090: eb43 b0bc ce19 ccbd a219 5bbd 7c98 813e
000000a0: 2f5e cabc 9030 823d bfb2 eebd dcb0 97bd
000000b0: 3cc9 773e 13d6 67be d131 89be e78b 9e3d
000000c0: b6f0 883e d081 4a3e a2f8 9b3e 1a4c 133e
000000d0: a3d1 55be ba5b 873e 1040 9e3d 6240 a2bc
000000e0: c9d8 5bbc f73c d8bd f236 413e fc8e 4f3d
000000f0: 39fe 0ebe 66aa fd3d eb57 513e 1bdb bdbd
00000100: ea1f b23c 95f2 323d 8cf6 343e a70d b0bb
00000110: fa0f 03be 61af fb3c bc53 453e 8df5 05bb
00000120: 8e81 a63e 6d62 5a3d acd0 fc3c d33f 82bd
00000130: 8cf1 09be 2133 aabd 3d4b 03be 36ee 8e3e
00000140: e5c5 e63d 349f 8e3e f8f9 7b3d ce4b b03d
00000150: 7957 eeba cfbb 0bbe a76e 91bc 14a5 89bc
00000160: 5d5e 0f3e 0196 203e 437d ab3d 98c2 c03d
00000170: 2ab9 4b3d 6dd0 a8bb 62c5 e1bd 0484 c43d
00000180: c43d d7bc 1abe 4dbd 09b1 6c3e 14ac 6dbd
00000190: a70f ee3d 930c 50be 1d8e 51be d0a7 093e
000001a0: 1922 bdbe b8b4 04be 2374 903e f7c2 cd3e
000001b0: af39 c5be 65c4 89be 43ed 30be 535f 96be
000001c0: 1adb a03d ab09 91bd 5ce8 81be 3b7c 663d
000001d0: 6f2f ed3b e00f 0bbd 8163 f03e 1c3b c43d
000001e0: 1ffe 10be f9c1 07be 7849 bf3d 0b8b 6cbe
000001f0: 6e7f b9be 79ef febd 973e 483d 6ded bc3d
00000200: 8bbc b33e e929 38be 5e5b 5e3e 5f30 afbd
00000210: f0b7 4abd b777 d83d 1193 ffbd 300c cdbd
00000220: a691 13be b320 b13e 6cc0 123e c696 ac3d
00000230: 8559 943c 9f4e 37be bb04 b73d 0767 183e
00000240: 8ddc 98bd 387f 203f 4586 8ebe 147e 43be
00000250: 7a5e ffbd 74b3 fb3d 4878 f8bd 43f5 0bbe
00000260: de0e 0dbd bb99 96be 9997 e73c a00e 1dbe
00000270: 32c4 49be fe3c 0e3d 4167 873e 62b7 b03e
00000280: 4632 823e b86d 19be 1b36 2cbe e5a8 8cbe
00000290: ffc9 a53e ff18 22bd b586 2c3e 6bd3 f23d
000002a0: 61c4 e43b 7a80 8d3e 5d70 79be 0ec4 a1be
000002b0: b674 6a3e ec83 66bd 6355 35be d279 053e
000002c0: 780c 8f3c 7310 6cbe 3eb0 c23d 04a5 ad3e
000002d0: a7cd 0dbe 6d9b d73c 28de 583d 4312 023e
000002e0: 2c7d c43d 531e 963a 4269 dcbe 49ce 9cbe
000002f0: 6bf5 ae3c e897 15bf bbbe 2fbe a799 753e
00000300: 1809 62bd d084 8e3d 16d1 e2bd 8b70 b0be
00000310: 65bd dd3d 9244 1dbe c0b9 16be e813 0abe
00000320: 73e1 2cbd 4b86 623d 37aa 363d 17be b23d
00000330: 11f5 813d 9eae 173e 8218 d03d f8c9 8ebe
00000340: 5de6 05be 3845 ecbb e35f cd3d f4c9 b73d
00000350: 8dc8 33bc 029e 4ebd 8553 0a3e 8d07 2abd
00000360: e4c9 cabe 0a83 9ebd 5eb0 d4bd 4c97 303c
00000370: 029f c83d 2b11 fe3d b3df a43e 5ef5 babd
00000380: 6018 6d3e cf6d 00be e734 b7bb cbf6 28be
00000390: 349e 1dbe 3e47 953e 1286 063e 873b 10bd
000003a0: dff7 b23e c65b 7d3e f44c 943e 3358 ca3d
000003b0: 99a1 823d d4aa 5e3e 4854 f3bd 84a1 bdbd
000003c0: fd94 793e 6efe 4dbe 67fd d43d 958e 69bd
000003d0: 26d2 60be 7553 71bc 35af 87bd 5543 af3d
000003e0: 6f62 3b3d 89ad 9d3d 3801 6c3e 91c6 993d
000003f0: f32e 733e 66ed 5d3d 7edd 513e 2ab1 b5bd
-0.008774746 -0.15050413 -0.13997161 -0.062459216 0.25209162 0.11893863 0.1943565 0.068273
-0.033188455 0.07498063 -0.2979791 -0.007513959 0.12247977 -0.02107309 0.04847216 -0.18301249
-0.036978275 -0.056453574 -0.02840054 -0.25401747 -0.24614237 0.15626381 -0.1827874 -0.034775034
-0.072962016 0.06436136 -0.024358777 -0.36468667 -0.19435164 -0.3781471 -0.19969876 0.05769675
-0.052075595 -0.062212057 -0.041929428 -0.31476182 -0.02151676 -0.09965859 -0.053491242 0.2531165
-0.024703113 0.06356919 -0.11655187 -0.0740678 0.24197859 -0.22640257 -0.2679582 0.07741528
0.26746148 0.19776082 0.3046313 0.14384499 -0.20880751 0.2643717 0.07727063 -0.01980609
-0.013418385 -0.10558503 0.18868616 0.05067347 -0.13964166 0.123860165 0.20443694 -0.09270307
0.021743733 0.043688376 0.17672175 -0.0053727212 -0.12799063 0.030723276 0.19270223 -0.002044055
0.32520717 0.053316522 0.030861221 -0.0635983 -0.13471049 -0.08310533 -0.1282167 0.27916116
0.11268214 0.27855837 0.061517686 0.086082086 -0.0018184028 -0.13645862 -0.017752958 -0.016802348
0.1400084 0.15682222 0.08373501 0.09412116 0.049737133 -0.0051517994 -0.11023976 0.095954925
-0.02627457 -0.050230123 0.23114409 -0.058025435 0.11624079 -0.20317297 -0.20464368 0.13442922
-0.36940077 -0.12959564 0.28213605 0.4018781 -0.38520572 -0.2690765 -0.17278008 -0.29369602
0.0785429 -0.07081922 -0.2537259 0.05627082 0.0072383205 -0.033950686 0.46950915 0.09581587
-0.1415944 -0.13257588 0.09340185 -0.23099916 -0.36230034 -0.124480195 0.048887815 0.09224973
0.35104784 -0.17984737 0.21714541 -0.08554148 -0.049491823 0.10569709 -0.124792226 -0.1001209
-0.14411029 0.3459526 0.14331216 0.08427195 0.018109092 -0.17901085 0.08936449 0.14883052
-0.07463942 0.6269412 -0.27836815 -0.19091064 -0.12469192 0.12290087 -0.12132317 -0.13667779
-0.034438007 -0.29414162 0.02827053 -0.1533761 -0.19703749 0.034726135 0.26445964 0.3451491
0.2542898 -0.1498326 -0.16817515 -0.27472606 0.32380673 -0.03957462 0.16848262 0.11856731
0.006981418 0.27637082 -0.2435927 -0.3159489 0.22896084 -0.056278154 -0.17708354 0.13034752
0.017462 -0.2305315 0.09506272 0.3391496 -0.13847981 0.02631923 0.05294624 0.12702279
0.09594187 0.0011453129 -0.43049055 -0.30626133 0.021357259 -0.58434916 -0.17162602 0.23984395
-0.055184454 0.06958926 -0.11075036 -0.34460863 0.1082714 -0.15358189 -0.14719296 -0.13484156
-0.042207193 0.055303853 0.044595923 0.08727663 0.06345571 0.14812705 0.101609245 -0.27888465
-0.13076158 -0.0072104 0.100280546 0.089740664 -0.010973108 -0.050443657 0.13508423 -0.041511107
-0.39607155 -0.077398375 -0.10385202 0.0107782595 0.09795953 0.12405618 0.3220192 -0.09128831
0.2315383 -0.12541889 -0.0055910232 -0.16500394 -0.15392381 0.29155916 0.13137081 -0.03521302
0.34954736 0.2474204 0.2896496 0.09880104 0.063784786 0.21744853 -0.1188131 -0.09259322
0.24373241 -0.20116588 0.10399895 -0.057020742 -0.21955165 -0.01472937 -0.06625215 0.085577644
0.04574817 0.07699115 0.2304734 0.07508577 0.23748378 0.05418148 0.20494649 -0.08871682

network.10.bias f4 [64]
00000000: 0004 d33d fc5b 0b3d 6633 99bd 7b6a 10bd
00000010: 9f03 f43d 5c75 9fbd 78df 473d b3d8 2e3e
00000020: f737 48bd 62e7 9eb7 65f2 3dbd 0c44 233d
00000030: 7a55 593d cbdb 4d3d 3937 bdbd d908 093e
00000040: e3d4 58bd 9533 d03d 7f72 963d bfe8 9d3d
00000050: 092e 6ebe 815f 53bd 4f70 003e b534 d7bc
00000060: 40ff 3c3d fae9 92bd c511 89bd e40c 49be
00000070: 1e2b 6a3d 3f85 47bd 480c 8ebd 9c4f 71bc
00000080: 6482 8ebc 0987 293e 3416 b83a 52cf bb3d
00000090: 01c0 25be cc53 3fbd fd6c fabc 96c8 263d
000000a0: fd2f 313d 0a23 1f3e 1dab a23d 6c3f 133e
000000b0: fbce d63d cb97 02bd 5423 06bd 7eb0 283e
000000c0: 2647 b5bd 6f95 803d 218b 07be ad3a 8a3d
000000d0: 506b bfbd 2e51 493b 3f39 793b 1d15 ffbc
000000e0: 1dda 4bbe 5c2f d53c 7b8a 123e 1b99 963c
000000f0: 7ef7 303c 03a0 82bd 6cb3 52bd 3013 c43d
0.10303497 0.03402327 -0.074805066 -0.035257798 0.11914753 -0.077860564 0.0487971 0.17074852
-0.048881497 -1.8942814e-05 -0.046373744 0.039859816 0.053060032 0.05025844 -0.092390485 0.13382281
-0.0529374 0.101660885 0.07346057 0.077104084 -0.23259749 -0.05160475 0.12542842 -0.02627025
0.046141863 -0.07173534 -0.066928424 -0.19633824 0.057170026 -0.048711058 -0.06935936 -0.014728453
-0.01739616 0.16555418 0.0014044703 0.091704026 -0.16186525 -0.046710774 -0.030569548 0.040718637
0.043258656 0.1554071 0.079427935 0.14379662 0.10488697 -0.031883042 -0.032748535 0.16473576
-0.08851461 0.06278502 -0.13236667 0.06749473 -0.0934664 0.0030718553 0.0038028506 -0.031137997
-0.19907422 0.02602356 0.14310639 0.018383553 0.010801194 -0.06378176 -0.05144064 0.09573972

network.12.weight f4 [5, 64]
00000000: 70bd d73b 995d b33c 8fb2 0b3c 40ad 56bc
00000010: 6877 223e e65a 8ebb 629b 9e3d 1078 823d
00000020: 960c 58be d276 20bd 47fa af3e 82b0 813b
00000030: 462b 97bb c1ed ef3a 9888 c8bc 6a2e 0bbe
00000040: cfd1 afbd f47b a3bb d636 d0ba 93bb 483d
00000050: 2b2b d4be e604 9abc be98 13bd 6818 a13d
00000060: 1935 1b3d bee6 43bc ea04 c1bd 7c19 83be
00000070: a200 7a3e 6be3 53bd f685 84bc bd60 25bd
00000080: 6290 68be a1f1 523e da4e 54bd d5b1 913c
00000090: 42be 16bc 687e 4a3a 29a3 2239 1b4d 8dbc
000000a0: b464 de3b 86a5 9abc 4ede b03d 222d 953e
000000b0: a1a4 123d 3eda 3dbc add0 87bc 7809 2d3e
000000c0: 37cd 47bc 087e ac3e b147 f8bd 1c92 083d
000000d0: 043e 4f3d ebe6 94bc 83e0 873d 3124 a83c
000000e0: 75c2 2abd ce2b e33d b55e cd3d 91e7 803c
000000f0: 0bb9 33be ea8c bbbc bbe7 f33c 6f2c d73d
00000100: dc30 b83d 1be7 e83c 605c b53b ce2f d3bb
00000110: 9b19 f43c 174f 3fbc c035 8f3b d541 1b3e
00000120: 73e2 93be c108 0f3c ed25 9fbd b1b3 86bc
00000130: 3493 11bc fc0e 4fbc 93f2 d5bb d013 afbd
00000140: 1663 583d 257b 613c 1c2e 53bc 46fe a43c
00000150: 13d6 8d3c 23be 363d 69e4 4a3c afff e83b
00000160: 0cf2 5e3c bf3a 96bc 624a f63c 6e60 a43e
00000170: 313a 50bd 5a01 9c3c 2e61 d23b 6093 0fbc
00000180: 1645 6cbe bfaa 613d 90ce 483d 478f 96bc
00000190: 87e5 b6bc 8ef3 463c 7720 193c ba2a 8a3c
000001a0: 7b5a 29bc 7332 7bbb 8d4b da3a 2c1d a13e
000001b0: 3ab7 abbd 3fcc 253c b266 463c 185a e0bb
000001c0: 1680 24bd df64 9ebd ef9e e23c 3aeb e43b
000001d0: 1165 3dbd 80c9 7f3b 8e26 1cbc da00 50bc
000001e0: 12ea 163d e2c9 82bc 678d b7bd 9609 00bd
000001f0: 5a7c 453d 90c8 11be 664b 27ba b090 fb3c
00000200: e6ff 0e3e ae5d 7b3d 3d5c 8a3f df57 6b3e
00000210: 4c8f 4dbd 55a3 edbe dd3b 1fbc 956a 803e
00000220: 6a91 b8bd 00be 21be 65aa c0bd ef0d 2abd
00000230: 7bf1 00bd ff33 0b3f 29b8 0dbe 1fbc bd3e
00000240: c51f 55bd 24f7 8e3f 4ab4 01be 1a2e cabd
00000250: dde6 15be f542 1cbe 4ca6 af3e 75bb 70be
00000260: 2c45 babe 8058 033f c435 b3bd 851c 36be
00000270: 0792 8e3d 2430 98bd 7b89 0cbd dccd 593e
00000280: 30a7 023e 6c43 533e 76a3 bdbd b323 1f3e
00000290: 6bc2 243e a011 edbe 1613 df3d 60e1 3e3f
000002a0: 1cec cbbe 8594 c93e 2625 2d3f 8c34 923e
000002b0: 3374 37be 1c0d 7d3d cf7a 96be ee88 193e
000002c0: 4fbf d1bd 4e93 06be fa22 953c 2453 6e3d
000002d0: 3f86 a5be 87c1 ad3e 389c 6f3c 2657 323f
000002e0: 3a04 3fbe 0181 a0ba 81bc 253e c489 64bb
000002f0: 53be 723c bd1a 593e c890 7f3c 28fb 66be
00000300: bbe9 1dbe 5cdc 72be 80f8 0d3d 2374 343e
00000310: f8d8 f7bd 7f6a 3dbe 81e0 d9be 8271 053e
00000320: 0abe 66bd 549f 7b3e 5ce9 043d bb3e fa3e
00000330: 92f6 143f 78a4 2a3e f8dd 2e3e 711b 8abd
00000340: 51e6 993e 4f52 61bd 041d d73e 2979 e13e
00000350: db05 dc3d a5ea c33d 7459 10bf b91f 773d
00000360: fa86 dcbd 8f6d 2ebe 437c 14be 1787 193e
00000370: 4379 413c 52c6 223e eb61 6b3e 8780 333e
00000380: 2eaf 3c3e 864a 893d 2b2e 8b3e a76c b43e
00000390: b280 59bf ad0d 3abe bd34 d4be 114b 65bd
000003a0: 9eac 363f 21c9 4dbe 2b1d 7bbd 8d5c 14bd
000003b0: 3b88 f73d db3c 933d c6d6 47bd c7cd c03d
000003c0: 59a8 5f3e 47c4 2b3e c861 853e f296 bbbe
000003d0: 2229 933b 8c3b 9f3d 700b 053d 3a95 7dbd
000003e0: bb8c 8bbd dc1e 86bd ec9b 03be c10c 673d
000003f0: 9893 953b e95c a8bd 51dc 1ebf a1eb 833e
0.006583862 0.021895217 0.008526458 -0.013102829 0.15865862 -0.004344332 0.07744481 0.06370556
-0.21098551 -0.039175816 0.34370634 0.003957809 -0.004613313 0.0018305109 -0.024479195 -0.13591924
-0.0858494 -0.0049891416 -0.0015885483 0.04900701 -0.41439185 -0.018801164 -0.03603434 0.07865983
0.037892435 -0.011956869 -0.094247654 -0.2560538 0.24414304 -0.051730555 -0.016177159 -0.04037546
-0.22711328 0.20599987 -0.05183301 0.017784992 -0.009200634 0.00077245245 0.00015510306 -0.01724868
0.006786907 -0.018877756 0.08636151 0.29135996 0.035801534 -0.0115876775 -0.016578997 0.16898143
-0.012194923 0.33689904 -0.12123049 0.033342466 0.050596252 -0.018176517 0.06634619 0.02052507
-0.041689355 0.110923395 0.100278296 0.01573542 -0.17551057 -0.022894341 0.029773584 0.10506522
0.08993694 0.028430512 0.0055346936 -0.0064449077 0.029797366 -0.011676571 0.004370421 0.15161832
-0.28883705 0.008730114 -0.07770906 -0.016443105 -0.008885194 -0.01263785 -0.0065291612 -0.08548701
0.05282887 0.01376227 -0.012889411 0.020140778 0.017313993 0.044614922 0.012383559 0.007110558
0.013607513 -0.01833856 0.030064765 0.3210482 -0.050836746 0.019043613 0.006420276 -0.008763164
-0.23073229 0.055094477 0.04902512 -0.018378867 -0.022326244 0.012143029 0.009346119 0.016866077
-0.010336514 -0.003832963 0.0016654596 0.3146757 -0.08384557 0.010119497 0.012109445 -0.0068466775
-0.040161215 -0.077340834 0.027663676 0.006986049 -0.046238963 0.0039030015 -0.0095306765 -0.0126955155
0.03684432 -0.015965406 -0.08962517 -0.03125914 0.048214294 -0.14236665 -0.00063817797 0.03070864
0.13964805 0.061368637 1.0809399 0.22982739 -0.050185487 -0.46413675 -0.009718862 0.25081316
-0.090121105 -0.15795135 -0.094075 -0.041517194 -0.031480294 0.54376215 -0.13839783 0.37057588
-0.05203225 1.1169171 -0.12666431 -0.098720744 -0.14638849 -0.15259917 0.34306562 -0.23509009
-0.363809 0.51306915 -0.08750489 -0.17784317 0.06961446 -0.07431057 -0.0343108 0.21269935
0.1275909 0.20631188 -0.09259693 0.15540962 0.1608979 -0.4630251 0.10892312 0.74562645
-0.39828575 0.39371124 0.6763481 0.28555715 -0.1791542 0.06178008 -0.2939057 0.14993641
-0.10241567 -0.1314213 0.018205155 0.058184758 -0.32328984 0.33936712 0.014624648 0.6966423
-0.18653956 -0.0012245477 0.1618519 -0.0034872154 0.014815885 0.21201606 0.015598483 -0.22556746
-0.15421192 -0.23716873 0.034660816 0.17622428 -0.121019304 -0.18497656 -0.42554095 0.13031581
-0.05633358 0.24572498 0.03244911 0.48875985 0.58188736 0.16664302 0.17076862 -0.06743515
0.3005853 -0.055010136 0.42014325 0.4403775 0.10743304 0.09566239 -0.56386495 0.060332987
-0.10767932 -0.17033981 -0.14500527 0.14992939 0.011808696 0.15895966 0.22986571 0.17529498
0.18426201 0.06703667 0.2718366 0.35239145 -0.84962 -0.1816928 -0.41446486 -0.055979792
0.7135714 -0.20096256 -0.061307114 -0.036221076 0.12086531 0.07189342 -0.04878881 0.09414249
0.21841563 0.16774093 0.26051164 -0.366386 0.0044909874 0.077750295 0.03248161 -0.06190989
-0.068139516 -0.06548855 -0.12852448 0.056408647 0.0045647137 -0.08220846 -0.62054926 0.25765708

network.12.bias f4 [5]
00000000: 9fdd 063f 4f24 50bc 5b03 2d3e ac4a 963c
00000010: 61dc 3b3d
0.52681917 -0.012703969 0.16895811 0.018346153 0.045864467
