Clean/models/both_6_64.pth (torch, 90448 bytes, 14 tensors)

network.0.weight f4 [64, 2]
0.09799377 -0.18347542 -0.04442312 -0.2377191 -0.06669372 -0.34769788 0.14529295 0.48925683
-0.23592266 -0.18990499 -0.34415212 0.14989172 0.23304947 0.42013502 -0.13780868 -0.3254669
-0.28006905 0.21999362 -0.26797178 -0.26628962 -0.11720812 0.57977015 0.27067232 -0.2037094
0.004992429 0.14923975 0.25399035 -0.0840413 0.23269315 0.09879051 0.08869249 -0.38600132
-0.19743954 0.42426392 -0.17634599 -0.27575734 0.09058004 -0.2719799 0.017112166 0.12552601
-0.00020792907 0.5929749 -0.005290079 0.2729762 0.21701406 -0.76557875 -0.24115083 -0.39890814
-0.10009671 -0.0062779677 0.23928131 0.27017087 -0.17328241 0.19940771 -0.32761514 -0.20437318
0.19544803 -0.29324973 -0.17159216 0.3052056 -0.035953436 -0.39269522 -0.11661327 -0.4274143
0.22838446 0.29459903 0.22717062 -0.06560658 -0.2022424 -0.086208835 0.009979758 0.4848213
-0.25981593 0.0696831 0.1784844 -0.34443524 0.14054525 0.3367296 0.14047551 0.33748856
0.27534607 -0.4522648 0.26680604 -0.48734838 -0.28781384 0.34740832 0.20765942 -0.38662484
0.2195931 0.28956813 0.2110845 0.35656875 -0.1367152 -0.31902972 -0.2637854 0.42195898
0.09684846 -0.145967 -0.23765494 -0.2733722 -0.12904686 0.02204614 0.20197491 -0.25838536
-0.03258117 -0.46590173 0.010561701 0.48061824 -0.14411774 0.038039163 -0.48243183 -0.05871411
0.31111148 -0.40813956 0.2663143 -0.56122136 -0.12779121 0.15949686 -0.15378101 0.013948908
0.054277245 0.33504316 -0.017488442 -0.49077928 -0.18644634 0.037077326 0.051264267 -0.15088536
00000000: f5b0 c83d fbe0 3bbe 04f5 35bd a36c 73be
00000010: b896 88bd 7505 b2be adc7 143e df7f fa3e
00000020: b695 71be 7476 42be b534 b0be 377d 193e
00000030: 85a4 6e3e f01b d73e b81d 0dbe 99a3 a6be
00000040: 3665 8fbe 0246 613e 9933 89be 1d57 88be
00000050: d00a f0bd d16b 143f 9095 8a3e 3299 50be
00000060: 8897 a33b 4ed2 183e 060b 823e d81d acbd
00000070: 1d47 6e3e ae52 ca3d 68a4 b53d f7a1 c5be
00000080: 972d 4abe 1f39 d93e 0b94 34be 1130 8dbe
00000090: 0782 b93d f340 8bbe d02e 8c3c e489 003e
000000a0: 8907 5ab9 34cd 173f 6658 adbb 89c3 8b3e
000000b0: ef38 5e3e f8fc 43bf 3ef0 76be b03d ccbe
000000c0: 81ff ccbd 69b7 cdbb 2906 753e d653 8a3e
000000d0: f270 31be 8931 4c3e 2cbd a7be 3447 51be
000000e0: 8723 483e d424 96be dbb5 2fbe e943 9c3e
000000f0: e943 13bd 590f c9be f0d2 eebd 0cd6 dabe
00000100: 9edd 693e afd5 963e 6a9f 683e be5c 86bd
00000110: a218 4fbe 428e b0bd 2482 233c 7f3a f83e
00000120: 9806 85be 03b6 8e3d 9dc4 363e d159 b0be
00000130: 18eb 0f3e d267 ac3e d0d8 0f3e 4dcb ac3e
00000140: 29fa 8c3e 408f e7be cd9a 883e ba85 f9be
00000150: 565c 93be 81df b13e aca4 543e b1f3 c5be
00000160: 03dd 603e 4642 943e 8926 583e 2e90 b63e
00000170: 12ff 0bbe dd57 a3be e10e 87be 020b d83e
00000180: 7c58 c63d 6078 15be d15b 73be 71f7 8bbe
00000190: dc24 04be 1b9a b43c 83d2 4e3e 164b 84be
000001a0: d573 05bd ac8a eebe fc0a 2d3c 9813 f63e
000001b0: 9a93 13be f4ce 1b3d 4e01 f7be 357e 70bd
000001c0: 014a 9f3e abf7 d0be 595a 883e 34ac 0fbf
000001d0: b3db 02be 2553 233e c578 1dbe f689 643c
000001e0: d151 5e3d c78a ab3e ec43 8fbc 6c47 fbbe
000001f0: caeb 3ebe 65de 173d 7bfa 513d b181 1abe

network.0.bias f4 [64]
-0.019425958 0.1386018 0.19060801 -0.29899225 0.3185237 0.14231598 -0.3849124 0.3000607
0.20248722 0.23926562 -0.21470201 -0.16601981 -0.06696285 -0.1269018 -0.1743019 0.03400464
-0.05532292 0.32815826 0.1451459 -0.06302124 -0.32321668 -0.1918182 0.097246625 0.44854704
0.11693778 -0.41645637 0.25297144 0.3127809 -0.02486163 -0.09335988 0.18923953 0.25558782
-0.33741322 -0.14586477 0.17953187 -0.25207567 0.12363575 0.049400173 -0.30706623 -0.41438475
-0.028936798 -0.0066552274 0.21783449 -0.049038693 -0.27621695 -0.28285968 0.1563303 0.018092431
-0.1227715 0.33029857 0.030342005 -0.1013317 0.1973093 -0.26941836 0.16010429 0.47882575
-0.13694987 -0.015776532 0.09985773 0.12859994 -0.060511272 0.31451362 0.22662745 0.010540348
00000000: 3023 9fbc a1ed 0d3e bf2e 433e 8315 99be
00000010: 8a15 a33e 48bb 113e 3d13 c5be 8ea1 993e
00000020: cf58 4f3e 0c02 753e d8da 5bbe 1901 2abe
00000030: d223 89bd 8cf2 01be 337c 32be 7348 0b3d
00000040: 499a 62bd 5c04 a83e 20a1 143e 4811 81bd
00000050: a87c a5be fd6b 44be 3d29 c73d f5a7 e53e
00000060: 137d ef3d c539 d5be 7985 813e d124 a03e
00000070: 9eaa cbbc 7733 bfbd 02c8 413e 68dc 823e
00000080: 6dc1 acbe 935d 15be 34d7 373e 1010 81be
00000090: bd34 fd3d d657 4a3d c937 9dbe 3d2a d4be
000000a0: dd0c edbc 1814 dabb 0110 5f3e ccdc 48bd
000000b0: 4f6c 8dbe fcd2 90be 0d15 203e 9436 943c
000000c0: a06f fbbd e51c a93e cc8f f83c ff86 cfbd
000000d0: 730b 4a3e 34f1 89be 61f2 233e a628 f53e
000000e0: 963c 0cbe c93d 81bc 3682 cc3d b4af 033e
000000f0: abda 77bd ee07 a13e 0711 683e 6cb1 2c3c

network.2.weight f4 [64, 64]
-0.11080557 0.17621481 0.22273326 -0.1361013 0.13846643 -0.023042936 -0.37563077 0.09826524
-0.015319054 0.0020422398 -0.21072784 -0.023411538 -0.08710171 -0.10204228 -0.16890174 0.10117014
-0.16474421 0.16628869 0.2738487 -0.035965025 -0.42215845 -0.13644874 0.34518462 0.39305115
0.09397495 -0.3860438 0.13043441 -0.045677427 -0.22090921 0.01739224 0.27637926 0.32372028
0.04905543 -0.20244299 0.21479946 -0.4463003 0.047541276 0.1686575 -0.33504182 -0.4036573
-0.04135704 -0.085469894 -0.098843165 0.055728063 0.04667213 -0.1669956 0.1253784 0.046420146
-0.23661281 0.11453702 -0.16256697 -0.1651534 0.08299159 -0.3681914 -0.033716284 0.2379747
-0.05753073 -0.13091418 -0.06054753 0.15801655 -0.073412195 0.32491758 0.0011493249 -0.27843904
0.16508606 0.13589199 -0.22364464 0.2947715 -0.24831955 0.038221546 0.14466338 -0.25552383
-0.16787262 0.054257743 0.15602419 -0.08908672 -0.08835104 0.052889954 0.1901517 -0.19297157
0.13093676 -0.030601915 -0.065956734 -0.0808158 0.35876495 0.15191531 -0.43591717 -0.25963482
0.008298174 0.11515865 0.2348625 -0.16086508 -0.06259941 0.042517435 0.11759572 -0.33186632
0.25570726 -0.0374777 0.19075097 0.3963419 -0.11772113 -0.29971436 0.24472682 0.23959798
-0.18107519 -0.13684216 0.082297914 0.09359038 0.26137623 0.22195771 -0.081033 0.010857592
-0.15455055 0.15893555 0.22057383 0.0043346086 -0.046267126 0.2768918 0.02138295 -0.08683217
0.0786845 -0.027362745 -0.082695685 0.18708906 0.117862426 -0.37448525 0.082887255 0.010402081
0.14491068 -0.09363197 0.16739221 -0.25271234 0.094561465 0.07727999 -0.0051147686 0.029952079
-0.19986501 -0.17441203 -0.36313888 0.2615136 0.064727165 0.14223985 0.085899636 0.038440626
-0.41591805 -0.10428951 0.13232689 0.08214535 -0.41663378 -0.13561556 0.4328697 -0.10988328
0.00035095972 -0.14434737 -0.3280783 0.12868746 0.23339076 0.09070721 0.18781789 0.14910007
0.0075262515 0.121927835 0.034060262 -0.2683228 -0.05785918 0.23860629 -0.07701993 -0.12612392
0.3118796 0.33351058 -0.34619755 0.337572 0.012513233 -0.0018298688 0.08374839 -0.2902271
-0.06506577 -0.004064802 0.036864635 0.30517414 0.104805164 -0.34769654 -0.10038898 -0.15857409
0.34411502 0.33297163 -0.23074834 -0.24932748 0.059797473 0.4012885 -0.035265286 -0.021786638
-0.19559743 0.17214756 0.18971328 0.100233875 0.18593231 0.25108764 -0.031019175 0.03458855
0.17877379 -0.1540317 -0.11628285 0.063174754 -0.22771718 -0.14729066 -0.117859334 -0.16270322
0.010590162 0.1286319 -0.19544011 -0.1455466 0.09774476 0.07826601 -0.23243727 -0.11896294
0.11740553 0.012400586 -0.12601633 0.090901405 0.15616333 0.21939585 -0.09764524 0.14695664
0.060960818 0.17009792 0.21003108 0.22262181 0.05245919 -0.19545344 0.002587755 -0.04234259
-0.044960357 -0.093932346 0.0066442853 0.029880496 -0.12512171 0.10455241 0.026863981 0.18487483
-0.16896497 -0.1644038 -0.032548625 -0.0069538355 0.09308587 0.05131525 -0.14186108 -0.047879606
-0.07185269 -0.20099543 0.16344038 0.20263937 0.15460172 0.068956316 -0.17694855 -0.088212244
00000000: 08ee e2bd a871 343e 3014 643e 245e 0bbe
00000010: 25ca 0d3e 8ac4 bcbc ad52 c0be 493f c93d
00000020: c5fc 7abc 19d7 053b 0ac9 57be 8ec9 bfbc
00000030: 6262 b2bd 8bfb d0bd 94f4 2cbe 4a32 cf3d
00000040: b5b2 28be 9547 2a3e e635 8c3e 1050 13bd
00000050: 2725 d8be 38b9 0bbe 0abc b03e 003e c93e
00000060: f075 c03d 88a7 c5be 9990 053e 4118 3bbd
00000070: 0636 62be 2c7a 8e3c 9581 8d3e aabe a53e
00000080: 59ee 483d 374d 4fbe 64f4 5b3e 7981 e4be
00000090: a4ba 423d 8db4 2c3e 9a8a abbe 2bac cebe
000000a0: 0066 29bd d70a afbd 496e cabd 1c43 643d
000000b0: 462b 3f3d e500 2bbe 3263 003e 0d23 3e3d
000000c0: a14a 72be 6392 ea3d f577 26be f91d 29be
000000d0: 7ff7 a93d 9583 bcbe 161a 0abd a4af 733e
000000e0: 58a5 6bbd 5e0e 06be b000 78bd 17cf 213e
000000f0: 2259 96bd 995b a63e f2a4 963a 908f 8ebe
00000100: 520c 293e 4527 0b3e 1a03 65be 4aec 963e
00000110: 7b47 7ebe 328e 1c3d a322 143e 05d4 82be
00000120: cde6 2bbe 5e3d 5e3d cec4 1f3e 1973 b6bd
00000130: 64f1 b4bd 23a3 583d 21b7 423e 579a 45be
00000140: 4914 063e deb0 fabc 5314 87bd c182 a5bd
00000150: 0ab0 b73e b08f 1b3e 8930 dfbe dbee 84be
00000160: 10f5 073c 4cd8 eb3d cc7f 703e d1b9 24be
00000170: 1f34 80bd c326 2e3d 06d6 f03d 62ea a9be
00000180: 10ec 823e 3782 19bd 3954 433e 53ed ca3e
00000190: c717 f1bd 2974 99be ab99 7a3e 2c59 753e
000001a0: c66b 39be 5a20 0cbe cf8b a83d 50ac bf3d
000001b0: 1bd3 853e e248 633e a1f4 a5bd 0be4 313c
000001c0: 8042 1ebe 00c0 223e 1bde 613e 5509 8e3b
000001d0: 9982 3dbd c3c4 8d3e 4c2b af3c 11d5 b1bd
000001e0: 5725 a13d d627 e0bc 5b5c a9bd 4694 3f3e
000001f0: db61 f13d 88bc bfbe cbc0 a93d 7d6d 2a3c
00000200: 7763 143e 1ec2 bfbd dd68 2b3e 8363 81be
00000210: 71a9 c13d f944 9e3d ca99 a7bb 105e f53c
00000220: 6aa9 4cbe 1199 32be 57ed b9be 1ce5 853e
00000230: ad8f 843d 53a7 113e 26ec af3d eb73 1d3d
00000240: 36f3 d4be bd95 d5bd b380 073e d23b a83d
00000250: 0651 d5be cede 0abe 19a1 dd3e 7c0a e1bd
00000260: 0401 b839 cccf 13be e1f9 a7be a5c6 033e
00000270: fdfd 6e3e b4c4 b93d 5553 403e b0ad 183e
00000280: c69e f63b 4db5 f93d c682 0b3d 9b61 89be
00000290: bffd 6cbd 3555 743e a0bc 9dbd a126 01be
000002a0: afae 9f3e e6c1 aa3e ce40 b1be 3dd6 ac3e
000002b0: 4e04 4d3c 35d8 efba 4784 ab3d a598 94be
000002c0: 3441 85bd 0832 85bb 5fff 163d c93f 9c3e
000002d0: 17a4 d63d 4805 b2be bd98 cdbd 3f61 22be
000002e0: d82f b03e 427b aa3e 4b49 6cbe b44f 7fbe
000002f0: 32ee 743d b075 cd3e 5572 10bd e479 b2bc
00000300: b14a 48be 7347 303e 3344 423e 6b47 cd3d
00000310: 0a65 3e3e 8f8e 803e ed1b febc b9ac 0d3d
00000320: 7a10 373e 7cba 1dbe b425 eebd c461 813d
00000330: b12e 69be 5dd3 16be 3c60 f1bd ac9b 26be
00000340: 5c82 2d3c 15b8 033e 7421 48be 2b0a 15be
00000350: 682e c83d ee49 a03d 0904 6ebe d8a2 f3bd
00000360: 4f72 f03d d42b 4b3c 6d0a 01be 842a ba3d
00000370: 48e9 1f3e 4ea9 603e 3afa c7bd cd7b 163e
00000380: 0db2 793d 262e 2e3e 6312 573e f9f6 633e
00000390: 73df 563d f224 48be 5397 293b 6c6f 2dbd
000003a0: 5a28 38bd 9a5f c0bd 4eb8 d93b f1c7 f43c
000003b0: e81f 00be 931f d63d da11 dc3c d44f 3d3e
000003c0: 2705 2dbe 7859 28be b551 05bd 00dd e3bb
000003d0: cea3 be3d f12f 523d 0844 11be 681d 44bd
000003e0: 8127 93bd bfd1 4dbe ea5c 273e b280 4f3e
000003f0: ea4f 1e3e f838 8d3d 0032 35be 9fa8 b4bd

network.2.bias f4 [64]
0.15592487 -0.1094408 0.007992999 -0.12695503 -0.088293165 0.15616572 0.1723691 -0.05705813
0.06649689 0.108047426 -0.07959192 -0.0077299597 0.13437715 0.41290334 -0.12455219 -0.23026451
0.10125894 0.09307732 -0.1330842 -0.10957729 0.1468895 -0.090121455 0.12308034 -0.13391638
0.10349684 -0.061156806 0.06399312 -0.13234158 0.03365888 0.004090828 -0.05767566 0.08789324
0.20662612 0.12796049 0.2296734 0.120576434 -0.22495443 -0.13281524 -0.089754455 0.04459612
-0.24368331 -0.016342921 -0.05938257 -0.021516895 -0.04739383 0.21473399 -0.05064732 -0.032622207
0.05875271 0.039132748 -0.20262593 -0.11164206 0.015351391 -0.13510905 -0.14032082 -0.07371431
-0.07340327 0.20132457 -0.08353016 -0.092861086 -0.16849682 0.0055812225 -0.06148126 0.15025203
00000000: c5aa 1f3e 8022 e0bd 11f5 023c 8000 02be
00000010: 0cd3 b4bd e8e9 1f3e 8681 303e c9b5 69bd
00000020: 852f 883d f847 dd3d 1701 a3bd 9a4b fdbb
00000030: 2a9a 093e 1168 d33e 3815 ffbd 76ca 6bbe
00000040: d960 cf3d 529f be3d 3947 08be 0f6a e0bd
00000050: 336a 163e 9991 b8bd 8c11 fc3d 6021 09be
00000060: 27f6 d33d 8f7f 7abd d30e 833d 8d84 07be
00000070: e5dd 093d 5a0c 863b 503d 6cbd 5f01 b43d
00000080: cc95 533e 1308 033e 812f 6b3e c7f0 f63d
00000090: 745a 66be b800 08be 2fd1 b7bd 6caa 363d
000000a0: 1e88 79be 97e1 85bc 233b 73bd 3344 b0bc
000000b0: 0820 42bd 3ae3 5b3e 9073 4fbd dd9e 05bd
000000c0: afa6 703d a949 203d 2c7d 4fbe 98a4 e4bd
000000d0: 6784 7b3c 075a 0abe 43b0 0fbe 87f7 96bd
000000e0: 7454 96bd 0728 4e3e dc11 abbd f42d bebd
000000f0: 6e8a 2cbe b0e2 b63b c6d3 7bbd abdb 193e

network.4.weight f4 [64, 64]
-0.26807487 0.036359288 -0.10744195 -0.15165858 -0.13981104 -0.23988459 -0.060448118 -0.08153685
0.15621795 0.042188585 0.059329815 0.101538874 -0.14384867 0.17999545 -0.09831699 0.09086831
-0.16807982 0.17207961 -0.09189767 0.21263185 0.13114864 0.040833097 -0.18391898 -0.1969418
0.24802068 0.24690808 0.14174391 -0.09154013 -0.019257529 -0.07331376 -0.18835448 -0.11861337
0.07655644 0.19357263 -0.037089325 0.16165291 -0.053892992 -0.16443917 -0.09492827 0.13697456
-0.15750898 0.14606564 0.060479634 0.16869612 -0.04252605 0.2878998 -0.20506518 0.06085874
-0.18043177 -0.028558275 0.0672382 0.12005525 -0.15890647 -0.16918355 -0.22297174 -0.22134848
0.0979959 0.15445235 -0.15623805 -0.074603565 -0.059668552 0.14427546 -0.057060108 0.080448695
0.2761197 -0.16713607 0.21188898 0.122217424 -0.08423301 0.064191945 0.2108051 -0.0418425
-0.09915637 -0.016469503 -0.21416724 0.089842305 0.09392713 0.012582799 0.092944056 -0.15467303
-0.06381359 0.1488735 0.034490652 -0.0673499 -0.12832737 0.0886281 0.02866805 0.019392222
0.1730872 -0.12256183 0.03342513 -0.018456224 0.05580021 -0.051030256 -0.011960771 0.010634372
0.20401447 0.11915806 0.031404607 -0.11380263 0.066507965 -0.045939088 0.09901458 -0.28968313
0.073332064 -0.10672788 -0.16610296 -0.15590003 0.058378115 -0.19942398 -0.0042529195 -0.057099473
0.0011478051 -0.082989454 0.1060496 -0.12333573 0.028520029 0.13721575 -0.0015792645 -0.10570529
-0.0024461164 0.06842544 -0.136943 0.048150327 -0.060163494 0.23604268 0.2155153 -0.08707309
-0.10430057 0.24152154 -0.23380755 -0.033119187 0.26168582 -0.14800523 -0.031790506 -0.1278098
0.22203054 0.31594807 -0.16509432 0.06155987 0.22687252 -0.04144563 -0.012494751 -0.34158245
-0.20541261 0.14371741 -0.093480155 -0.05718678 0.072713666 -0.18746324 0.065558225 -0.086265646
-0.019451806 -0.0800854 0.026659282 -0.2618438 -0.12812564 -0.072599456 0.026035856 0.29813108
0.0018583763 0.0012652301 0.09499357 0.020874541 -0.13091084 -0.11932163 -0.16186035 0.0025218446
0.19420765 -0.19506732 -0.048556387 -0.15596306 0.025000047 -0.059272975 -0.24959421 -0.016720116
0.056502793 -0.043487485 -0.15141974 -0.24732107 0.0016408876 -0.11406418 -0.2881666 0.034258008
-0.01904198 0.055255596 -0.036150508 -0.115138076 -0.10703835 -0.05942757 -0.036770515 -0.09300573
0.121433295 0.024259761 0.44909334 0.09580103 0.028122079 0.16533451 -0.22816615 0.056550626
-0.073107794 0.027962437 -0.21322258 -0.095568396 -0.15672308 -0.12857993 -0.055767383 0.107715294
0.48635885 -0.01945074 0.31291956 0.20031843 -0.055777214 -0.13607928 -0.080608554 -0.040881436
-0.037108153 -0.26832852 -0.064166434 0.22666892 -0.103467554 0.23038466 0.19304697 -0.38040242
0.018007819 -0.28070742 0.0074387044 -0.17913887 -0.10262389 0.07570806 0.120878726 -0.046766654
0.0625793 -0.0025058098 0.46097127 -0.24441843 0.03677042 -0.20144653 0.06914158 -0.013848204
0.12928198 -0.013854545 -0.22054078 0.06700513 -0.14921343 -0.052602205 0.1278369 -0.10973476
-0.059169013 -0.19510178 0.21624741 -0.3725935 -0.15616278 -0.0951144 -0.001888986 -0.201191
00000000: 1c41 89be 7aed 143d 860a dcbd 634c 1bbe
00000010: a02a 0fbe 4ea4 75be 7298 77bd cbfc a6bd
00000020: 99f7 1f3e f0cd 2c3d d203 733d 9df3 cf3d
00000030: 114d 13be ba50 383e 6b5a c9bd 2a19 ba3d
00000040: 1e1d 2cbe a335 303e d834 bcbd 2abc 593e
00000050: d44b 063e 9b40 273d 4255 3cbe 1cab 49be
00000060: 22f9 7d3e 79d5 7c3e 5125 113e 6479 bbbd
00000070: f7c1 9dbc 8625 96bd ffdf 40be 91eb f2bd
00000080: 9fc9 9c3d e737 463e faea 17bd 5788 253e
00000090: e6be 5cbd be62 28be c169 c2bd 0f43 0c3e
000000a0: 094a 21be 3b92 153e 7eb9 773d adbe 2c3e
000000b0: cc2f 2ebd 9a67 933e 9bfc 51be 0447 793d
000000c0: 1bc3 38be 0bf3 e9bc 2eb4 893d 87df f53d
000000d0: 61b8 22be 743e 2dbe b452 64be 2da9 62be
000000e0: 13b2 c83d c228 1e3e defc 1fbe c1c9 98bd
000000f0: 0367 74bd f2bc 133e dcb7 69bd 49c2 a43d
00000100: 905f 8d3e b825 2bbe 6df9 583e 214d fa3d
00000110: 5b82 acbd 1177 833d 4bdd 573e 0b63 2bbd
00000120: 7f12 cbbd 0deb 86bc a84e 5bbe 3eff b73d
00000130: de5c c03d 1628 4e3c 7459 be3d 9b62 1ebe
00000140: b3b0 82bd 4b72 183e 1246 0d3d bfee 89bd
00000150: 4068 03be a682 b53d 42d9 ea3c 70dc 9e3c
00000160: c53d 313e b201 fbbd cae8 083d 8231 97bc
00000170: c38e 643d 1a05 51bd 1cf7 43bc ca3b 2e3c
00000180: 2be9 503e 2409 f43d 1ea2 003d 5a11 e9bd
00000190: 5435 883d a02a 3cbd 28c8 ca3d 5951 94be
000001a0: 1f2f 963d 2694 dabd e516 2abe 42a4 1fbe
000001b0: e41d 6f3d cd35 4cbe 135c 8bbb 23e1 69bd
000001c0: f371 963a 60f6 a9bd 8830 d93d 7197 fcbd
000001d0: d6a2 e93c 4982 0c3e 53ff ceba 047c d8bd
000001e0: 064f 20bb a322 8c3d c93a 0cbe 4739 453d
000001f0: ff6d 76bd 2cb5 713e 0bb0 5c3e 6053 b2bd
00000200: 8a9b d5bd 6c51 773e 3f6b 6fbe fca7 07bd
00000210: affb 853e af8e 17be c336 02bd 92e0 02be
00000220: f95b 633e f2c3 a13e 7c0e 29be 3426 7c3d
00000230: 4551 683e e5c2 29bd c9b6 4cbc e5e3 aebe
00000240: af57 52be a82a 133e 8672 bfbd af3c 6abd
00000250: e7ea 943d 5df6 3fbe 6443 863d 0bac b0bd
00000260: 6559 9fbc d003 a4bd 9164 da3c 6410 86be
00000270: 5e33 03be 06af 94bd 2649 d53c a3a4 983e
00000280: c394 f33a 14d6 a53a fd8b c23d 1601 ab3c
00000290: 7e0d 06be e65e f4bd b8be 25be 8845 253b
000002a0: 5fde 463e babf 47be 10e3 46bd c8b4 1fbe
000002b0: e6cc cc3c 38c8 72bd a095 7fbe a0f8 88bc
000002c0: 796f 673d ef1f 32bd c70d 1bbe bc41 7dbe
000002d0: 0d13 d73a 7b9a e9bd 938a 93be 2052 0c3d
000002e0: edfd 9bbc b153 623d 8e12 14bd 83cd ebbd
000002f0: ec36 dbbd 536a 73bd ae9c 16bd ca79 bebd
00000300: 05b2 f83d 68bc c63c 90ef e53e 5533 c43d
00000310: 4660 e63c 734d 293e 63a4 69be a1a1 673d
00000320: 8ab9 95bd 7b11 e53c 0557 5abe 5db9 c3bd
00000330: 047c 20be 75aa 03be 576c 64bd d699 dc3d
00000340: 0704 f93e 2957 9fbc fe36 a03e 4620 4d3e
00000350: a676 64bd 5e58 0bbe 1916 a5bd 4b73 27bd
00000360: b8fe 17bd 5b62 89be b169 83bd e61b 683e
00000370: cce6 d3bd f5e9 6b3e 1bae 453e 1bc4 c2be
00000380: 2285 933c e2b8 8fbe 60c0 f33b 2e70 37be
00000390: 792c d2bd d40c 9b3d 448f f73d 648e 3fbd
000003a0: 9329 803d 8338 24bb 6d04 ec3e d348 7abe
000003b0: 949c 163d 0048 4ebe 1a9a 8d3d 94e3 62bc
000003c0: 7f62 043e 2cfe 62bc 71d5 61be fc39 893d
000003d0: 68cb 18be 6975 57bd ade7 023e 9ebc e0bd
000003e0: 355b 72bd c3c8 47be f66f 5d3e 93c4 bebe
000003f0: 23e9 1fbe 57cb c2bd da97 f7ba 0305 4ebe

network.4.bias f4 [64]
0.15571557 -0.01740468 0.05712032 -0.13264468 0.21439172 0.04590402 0.12461875 0.13776794
-0.18966208 0.30917916 -0.057851296 -0.011936715 -0.1534326 -0.23159178 -0.07210217 0.15106784
-0.10028877 0.15753758 -0.13658561 -0.015966315 -0.19884163 0.08721969 -0.022732109 -0.039193127
-0.21762818 0.10413351 -0.017473456 -0.14474286 0.017696815 0.18254945 -0.05921661 -0.14603187
-0.1219794 -0.048603553 -0.08869149 -0.035232566 -0.044599723 -0.108688645 0.13398881 0.0023638427
0.022261027 0.10933214 0.13406678 0.0026568568 -0.046652872 -0.15648697 0.035570562 -0.01599439
-0.0036681106 0.02709503 -0.009375608 0.050540954 0.06655643 -0.13233384 0.0032947795 0.113470264
0.0021756012 0.18635115 0.12836394 -0.05864707 -0.021863244 0.0063457987 0.10972273 0.007734949
00000000: e773 1f3e 4294 8ebc fff6 693d 02d4 07be
00000010: 8189 5b3e db05 3c3d 1d38 ff3d 0a13 0d3e
00000020: c736 42be bb4c 9e3e 7bf5 6cbd 3692 43bc
00000030: 6f1d 1dbe 6526 6dbe 4daa 93bd 87b1 1a3e
00000040: 3364 cdbd 8851 213e 19dd 0bbe cacb 82bc
00000050: 249d 4bbe 3da0 b23d b038 babc f988 20bd
00000060: ecd9 5ebe f343 d53d 7e24 8fbc 7937 14be
00000070: e9f8 903c 3eee 3a3e 1e8d 72bd 6189 15be
00000080: 56d0 f9bd 8514 47bd e2a3 b5bd 0650 10bd
00000090: 33ae 36bd 2798 debd 5d34 093e b3ea 1a3b
000000a0: c25c b63c 87e9 df3d cd48 093e a91e 2e3b
000000b0: 1517 3fbd 1f3e 20be 70b2 113d ab06 83bc
000000c0: af64 70bb 65f6 dd3c 269c 19bc 0804 4f3d
000000d0: bd4e 883d 8682 07be 3aed 573b 1963 e83d
000000e0: 8894 0e3b d6d2 3e3e d671 033e e937 70bd
000000f0: 8c1a b3bc 6bf0 cf3b 50b6 e03d 7475 fd3b

network.6.weight f4 [64, 64]
-0.118974954 0.15818198 0.058827374 -0.013905609 -0.008658536 -0.059520867 0.04086791 0.29778537
0.22471929 -0.21941885 0.08119082 0.18626823 -0.35554886 -0.205351 -0.08688192 0.16607851
-0.009855887 0.006633414 -0.0013164047 -0.14559108 0.20622848 0.016465712 0.26013288 0.21842554
-0.11674489 -0.20342927 0.0861655 0.15998918 0.09096921 0.0672411 0.0032917238 0.013245115
0.1856137 -0.036698107 -0.08421276 -0.08049332 -0.2223383 0.004193668 0.08221692 -0.06958719
0.16125362 0.14629462 -0.026860042 0.16309948 0.08228856 0.23051894 0.04431559 0.09597164
0.4044395 -0.09403952 -0.075324126 0.15339011 0.1453133 0.175246 -0.16587958 0.1554332
-0.16547374 -0.11556285 -0.0036939238 -0.01785197 -0.09399166 0.22892547 -0.10801672 -0.10405939
-0.19055314 -0.1556953 -0.09653878 -0.273386 0.29295403 0.1425561 0.36609104 0.47266468
0.059695 0.41776964 -0.1699359 0.19375294 -0.40732887 -0.2915494 -0.1505333 0.5599337
-0.08767644 0.19718476 0.2184494 -0.11463587 -0.13531715 -0.102045015 0.13183793 -0.18784688
0.11732802 -0.043023273 -0.10745086 -0.13312542 0.1362038 -0.073872544 0.13663104 -0.42383274
0.06490268 0.180578 0.07084746 0.0947962 -0.28016973 -0.0049028466 0.05966399 0.0137130525
0.046736784 0.16341247 0.0026664773 0.16481479 -0.30413836 0.07128575 0.25177503 -0.0834507
-0.32385024 0.1749518 0.21756157 0.0033311024 0.04737906 -0.15446581 -0.18940225 0.33525324
-0.18846463 -0.059678797 0.2841773 -0.009840057 -0.050822847 0.13557398 0.15821221 0.03621875
-0.1787815 0.18970813 -0.11762423 -0.05729008 0.031503636 0.067366615 0.04708308 -0.38006577
0.18868202 -0.093137726 -0.25565153 -0.029482115 -0.17923838 -0.03323058 -0.15350083 0.06474768
-0.019638762 -0.072434455 0.27245563 0.18153954 -0.13253042 -0.30849564 -0.028450014 0.24476552
0.12132619 0.05300284 -0.07483156 0.104619466 0.24960817 0.061045 -0.16259868 0.049141373
-0.008167574 -0.13495606 0.10025852 -0.051554658 0.09125066 -0.03884248 0.15515009 0.3089324
-0.11171544 0.23990571 0.041105874 -0.1716231 0.035906285 -0.03945432 -0.103856936 0.034133274
-0.27631244 -0.19161001 -0.088106155 0.2513825 -0.1634067 -0.0033016552 -0.17488463 -0.014228708
0.08247011 -0.13741976 -0.19836146 0.17921317 -0.16372517 0.17026828 0.118169256 0.22022578
0.105016395 -0.012602089 -0.014736494 -0.29557264 0.021149633 0.21570893 0.07403454 0.29235166
-0.24454823 -0.05670808 0.1793224 0.05345403 0.23370396 -0.0071633947 -0.079192005 -0.07337005
0.04031455 0.15735157 -0.20194635 -0.089062124 0.40642345 0.25203392 -0.23822868 -0.22494215
-0.9192277 0.26725122 -0.094310075 -0.1294595 0.051544197 -0.1297694 -0.05496047 -0.004440322
-0.14956096 -0.15720029 -0.15998872 -0.17627053 0.1675875 -0.10877805 0.09033808 -0.09089209
0.09671877 0.05297907 0.015511641 -0.04671013 0.08575948 0.06751267 -0.053867716 0.10269047
0.0994714 -0.1677087 0.30250135 0.053369716 0.08303511 -0.0012034993 0.1147533 -0.118417986
-0.11517 0.006843794 -0.07610496 -0.09512675 0.21367063 -0.17494936 -0.25602585 -0.29868704
00000000: 24a9 f3bd 75fa 213e f9f4 703d 5ad4 63bc
00000010: 88dc 0dbc 27cc 73bd 1c65 273d 5377 983e
00000020: d01c 663e 56af 60be 5f47 a63d 19bd 3e3e
00000030: 800a b6be 8847 52be 26ef b1bd 7c10 2a3e
00000040: 967a 21bc 1c5d d93b 368b acba d415 15be
00000050: 8f2d 533e 1ae3 863c 2330 853e f2aa 5f3e
00000060: f217 efbd c34f 50be 8a77 b03d 34d4 233e
00000070: 114e ba3d b4b5 893d f6b9 573b 0a02 593c
00000080: 8511 3e3e c150 16bd bd77 acbd afd9 a4bd
00000090: a7ac 63be 096b 893b 5861 a83d bb83 8ebd
000000a0: ab1f 253e 42ce 153e 9709 dcbc 8d03 273e
000000b0: e886 a83d 280d 6c3e 4484 353d c78c c43d
000000c0: b212 cf3e cb97 c0bd 8943 9abd 4c12 1d3e
000000d0: 02cd 143e b073 333e 56dc 29be e129 1f3e
000000e0: f371 29be 37ac ecbd c215 72bb 4b3e 92bc
000000f0: b37e c0bd 706b 6a3e df37 ddbd 171d d5bd
00000100: 5d20 43be 976e 1fbe 20b6 c5bd 40f9 8bbe
00000110: 12fe 953e 3afa 113e 4970 bb3e 1b01 f23e
00000120: bf82 743d e7e5 d53e ad03 2ebe 2c67 463e
00000130: 698d d0be f745 95be 6725 1abe d157 0f3f
00000140: b58f b3bd cdea 493e 33b1 5f3e 36c6 eabd
00000150: 9490 0abe fafc d0bd 8600 073e ef5a 40be
00000160: ac49 f03d 2c39 30bd 320f dcbd 0852 08be
00000170: 0279 0b3e 7d4a 97bd 02e9 0b3e 9b00 d9be
00000180: b2eb 843d 70e9 383e 7918 913d 8324 c23d
00000190: 6872 8fbe 0fa8 a0bb 3a62 743d b6ac 603c
000001a0: 126f 3f3d 9955 273e 11c0 2e3b 35c5 283e
000001b0: 06b8 9bbe 43fe 913d a8e8 803e 33e8 aabd
000001c0: b3cf a5be 9126 333e 76c8 5e3e a04e 5a3b
000001d0: 8c10 423d 492c 1ebe aaf2 41be 50a6 ab3e
000001e0: dffc 40be c171 74bd b07f 913e 3138 21bc
000001f0: 9e2b 50bd e8d3 0a3e 6202 223e 1d5a 143d
00000200: 7f12 37be d942 423e f9e4 f0bd 01a9 6abd
00000210: f509 013d 82f7 893d 30da 403d fb97 c2be
00000220: dc35 413e febe bebd c2e4 82be 7a84 f1bc
00000230: 448a 37be ca1c 08bd 522f 1dbe 6f9a 843d
00000240: 78e1 a0bc 8458 94bd 4e7f 8b3e 80e5 393e
00000250: 0eb6 07be 24f3 9dbe 0110 e9bc d0a3 7a3e
00000260: de79 f83d 8219 593d 4a41 99bd bb42 d63d
00000270: 4999 7f3e 520a 7a3d 4580 26be 7748 493d
00000280: 4ad1 05bc ec31 0abe 5754 cd3d fa2a 53bd
00000290: a0e1 ba3d 4b19 1fbd aadf 1e3e 632c 9e3e
000002a0: 11cb e4bd d8a9 753e a25e 283d f7bd 2fbe
000002b0: 7812 133d da9a 21bd f2b2 d4bd 55cf 0b3d
000002c0: d378 8dbe 6a35 44be 0071 b4bd 35b5 803e
000002d0: 1654 27be 9560 58bb f514 33be 871f 69bc
000002e0: 17e6 a83d c4b7 0cbe 441f 4bbe a883 373e
000002f0: 92a7 27be cf5a 2e3e b902 f23d de82 613e
00000300: d612 d73d fe78 4ebc 5671 71bc 4c55 97be
00000310: ff41 ad3c cde2 5c3e 6c9f 973d 1eaf 953e
00000320: da6a 7abe bb46 68bd 4ba0 373e 9df2 5a3d
00000330: 1750 6f3e e9ba eabb 6b2f a2bd 0943 96bd
00000340: df20 253d c520 213e 06cb 4ebe 3466 b6bd
00000350: bc16 d03e 970a 813e 38f2 73be 3c57 66be
00000360: 8252 6bbf 27d5 883e a425 c1bd 0891 04be
00000370: 0220 533d 45e2 04be 3b1e 61bd 1f80 91bb
00000380: 8226 19be 1df9 20be 15d4 23be 4380 34be
00000390: 0f9c 2b3e 07c7 debd 2c03 b93d a225 babd
000003a0: 7e14 c63d 9500 593d 8a24 7e3c 1f53 3fbd
000003b0: aba2 af3d 1544 8a3d 65a4 5cbd 624f d23d
000003c0: a9b7 cb3d d4bb 2bbe 75e1 9a3e 349a 5a3d
000003d0: 500e aa3d bcbe 9dba c703 eb3d 2185 f2bd
000003e0: 40de ebbd e841 e03b ebdc 9bbd d0d1 c2bd
000003f0: 79cc 5a3e ed25 33be d215 83be 82ed 98be

network.6.bias f4 [64]
-0.13357995 0.056217194 0.06862021 -0.012000255 0.04219068 0.06564325 0.079079546 0.12226699
-0.021265874 0.01671565 -0.07939285 0.009704253 -0.02379438 -0.14992158 -0.07928282 -0.07018585
0.10389914 -0.09164965 0.099420145 0.10351344 0.069640554 0.079761036 -0.13457087 -0.0033415863
0.15338296 -0.016954007 0.004436499 -0.076858476 -0.023440208 0.0045153033 0.023063155 0.030731501
0.041925885 -0.12780651 0.039101526 -0.051117197 0.048351243 0.063072905 0.15633541 -0.084116496
0.03709056 -0.064326376 0.060962472 -0.097106166 0.16042161 0.033180576 -0.10356368 0.025243528
0.046676498 -0.046922978 -0.12680924 -0.009008214 0.122417256 0.04739007 -0.093401276 -0.099765666
-0.021977982 -0.041972544 -0.05660268 0.11202912 0.053687833 -0.030333582 -0.03574657 0.04826802
00000000: 2fc9 08be 0044 663d c188 8c3d b89c 44bc
00000010: 22d0 2c3d f86f 863d 75f4 a13d 1e67 fa3d
00000020: c535 aebc 42ef 883c b898 a2bd 96fe 1e3c
00000030: 6eec c2bc 0b85 19be 085f a2bd 99bd 8fbd
00000040: 13c9 d43d d0b2 bbbd ca9c cb3d dbfe d33d
00000050: b59f 8e3d c159 a33d f2cc 09be 84fe 5abb
00000060: 6c10 1d3e 21e3 8abc 0d60 913b fa67 9dbd
00000070: ae05 c0bc 1cf5 933b f1ee bc3c a1c0 fb3c
00000080: 7aba 2b3d b6df 02be ec28 203d 4460 51bd
00000090: f40b 463d 5e2c 813d 6416 203e 4545 acbd
000000a0: 45ec 173d 8cbd 83bd c9b3 793d 99df c6bd
000000b0: 9045 243e 5be8 073d 3219 d4bd 84cb ce3c
000000c0: db2f 3f3d 4f32 40bd 48da 01be 3097 13bc
000000d0: e6b5 fa3d 171c 423d 2b49 bfbd f151 ccbd
000000e0: 2b0b b4bc 67eb 2bbd 36d8 67bd 866f e53d
000000f0: c6e7 5b3d 227e f8bc ff6a 12bd b0b4 453d

network.8.weight f4 [64, 64]
-0.25875813 0.1340689 0.0658374 -0.25799948 -0.050001528 0.3026904 0.11742321 0.029897217
-0.054062344 -0.16457132 0.109286524 -0.052746117 -0.1421547 -0.24621809 0.044673964 -0.17828242
-0.072853 0.053726595 0.15533482 -0.19707675 0.0066952165 0.13141641 -0.23438618 0.040398933
-0.014717066 0.1459895 -0.07105576 0.13402767 -0.26493034 -0.110595316 0.12374057 0.16459824
0.12840927 -0.197707 -0.010887919 0.1980348 0.08645731 -0.36524948 0.04471747 0.02221806
0.12108155 0.049435023 -0.18408121 0.05676602 -0.0040111337 -0.11701611 -0.24103376 0.10989549
-0.007624135 0.036834143 -0.094044775 0.15339905 0.045505628 0.09622382 -0.071815595 -0.028505683
-0.12534882 -0.009989385 0.13414331 0.059364915 0.08730707 0.14230205 0.094481945 0.02350375
-0.09638964 -0.07913198 -0.07236605 0.06843425 -0.18647113 0.13052295 -0.00043503998 0.09986099
-0.0144306375 0.08539967 0.29286644 -0.14222702 0.23955575 0.27704826 0.29065248 0.19699235
0.2837812 0.14327282 0.05720815 -0.42327616 -0.16611123 -0.2352683 0.08466748 0.18651323
-0.018110009 0.049789067 0.21131934 0.4563687 -0.011817187 0.049913403 0.09357789 0.3285131
0.08200461 0.11401622 0.13481021 0.3772561 -0.045535468 -0.12503675 -0.11777336 -0.046435516
-0.1555571 0.27049834 0.19767326 0.12271098 -0.030528545 0.037354484 -0.0133075295 0.2044384
0.12287118 0.100113064 0.12255141 0.074132234 -0.1535814 -0.0019446395 0.0016699485 0.17851213
-0.12093347 -0.018002464 0.01838976 -0.09709366 -0.06803881 -0.047011018 0.014887683 -0.35607842
0.16055143 0.056515895 0.009532777 -0.08188098 0.009182645 0.04094971 0.016411684 -0.10797884
-0.055131774 -0.08362914 0.14792523 -0.20303074 0.26439565 0.07751463 0.16629635 0.009611336
0.06780672 -0.05473176 0.08761988 -0.1100104 0.184183 -0.29426768 0.34222782 -0.0048812744
-0.30113468 0.13070104 0.037418455 0.113873586 0.17915589 -0.13482374 -0.088172205 -0.038166057
-0.024105208 0.02219656 0.042185582 0.10959541 0.009130424 -0.21948291 -0.2622164 0.26818648
-0.05519226 0.03187316 -0.07324603 -0.009098592 -0.21299905 0.14752206 0.25731042 -0.21632129
0.021367967 0.13460495 -0.00489267 0.07053056 -0.09249355 -0.20031229 0.10629249 0.058317907
-0.0070194383 0.15467934 0.11302159 0.027790079 -0.26776093 -0.1745095 0.14520031 0.02983504
0.08939798 0.099234365 0.26971886 -0.2051804 -0.1413964 0.27524012 0.14915106 -0.20614013
0.16537178 0.08846134 -0.046873603 0.101743884 -0.26605144 0.012305924 -0.038285967 -0.065502584
0.1213457 -0.08809945 -0.112154484 -0.14691173 0.18003845 -0.13677938 0.07601186 0.23556726
0.048740502 0.14858748 0.053601872 -0.030057475 -0.076032594 0.018125808 0.070180945 0.16342962
-0.2239946 0.08032809 0.014716167 0.11508444 -0.036053646 -0.20910758 -0.047781024 0.24175233
-0.11103416 0.07943416 -0.20480739 0.021462359 -0.14923248 0.031625498 0.2589274 -0.14513758
0.029117653 -0.1561475 -0.07997549 -0.09780656 -0.051269475 -0.06691808 0.019135373 0.07839399
0.22456306 0.08973157 -0.072597034 -0.069412604 -0.21448992 -0.13020918 0.17959636 0.02593761
00000000: f27b 84be 5c49 093e c2d5 863d 8218 84be
00000010: 67ce 4cbd 3cfa 9a3e 947b f03d 02eb f43c
00000020: 7a70 5dbd 6285 28be 9dd1 df3d 500c 58bd
00000030: 0091 11be 9820 7cbe 0cfc 363d ab8f 36be
00000040: f433 95bd 6b10 5c3d 1710 1f3e 7dce 49be
00000050: 8c63 db3b 0692 063e ee02 70be 5a79 253d
00000060: d91f 71bc 467e 153e af85 91bd 8d3e 093e
00000070: f3a4 87be cc7f e2bd b26b fd3d 718c 283e
00000080: b87d 033e b473 4abe 3e63 32bc a2c9 4a3e
00000090: 8810 b13d fb01 bbbe aa29 373d a602 b63c
000000a0: 9bf9 f73d 617c 4a3d c97f 3cbe 7c83 683d
000000b0: d46f 83bb 24a6 efbd 8ed1 76be e310 e13d
000000c0: e1d3 f9bb 66df 163d 8c9a c0bd a414 1d3e
000000d0: 1c64 3a3d fe10 c53d 0e14 93bd c084 e9bc
000000e0: 715b 00be 84aa 23bc dd5c 093e a028 733d
000000f0: 0dce b23d a1b7 113e c07f c13d f08a c03c
00000100: ee67 c5bd f30f a2bd a734 94bd 4227 8c3d
00000110: 4af2 3ebe cfa7 053e 1416 e4b9 eb83 cc3d
00000120: 7b6e 6cbc 06e6 ae3d 97f2 953e f6a3 11be
00000130: 1a4e 753e 45d9 8d3e 67d0 943e 5db8 493e
00000140: c54b 913e 1cb6 123e 1853 6a3d a7b7 d8be
00000150: 1019 2abe 2cea 70be 2566 ad3d 53fd 3e3e
00000160: 715b 94bc 9fef 4b3d 1964 583e 29a9 e93e
00000170: e09c 41bc ff71 4c3d c4a5 bf3d de32 a83e
00000180: 08f2 a73d 5681 e93d b00b 0a3e b627 c13e
00000190: 6683 3abd a209 00be 2933 f1bd 2b33 3ebd
000001a0: 5c4a 1fbe c27e 8a3e dc6a 4a3e e54f fb3d
000001b0: 0017 fabc 0401 193d d307 5abc 4d58 513e
000001c0: e3a3 fb3d 1408 cd3d 3cfc fa3d a4d2 973d
000001d0: 7144 1dbe 46e3 feba 2ce2 da3a e2cb 363e
000001e0: f8ab f7bd e779 93bc 1fa6 963c 0ad9 c6bd
000001f0: ee57 8bbd a08e 40bd 78eb 733c e94f b6be
00000200: 9867 243e 367d 673d 5d2f 1c3c 37b1 a7bd
00000210: ce72 163c e2ba 273d cc71 863c 0324 ddbd
00000220: dbd1 61bd c145 abbd b679 173e 4ae7 4fbe
00000230: de5e 873e febf 9e3d 9749 2a3e dd78 1d3c
00000240: 40de 8a3d 692e 60bd 0d72 b33d 224d e1bd
00000250: 789a 3c3e 41aa 96be 7c38 af3e 19f3 9fbb
00000260: 532e 9abe 7ed6 053e 1844 193d 8e36 e93d
00000270: a474 373e 3c0f 0abe a193 b4bd 0354 1cbd
00000280: 4978 c5bc 8fd5 b53c caca 2c3d 8f73 e03d
00000290: c697 153c 21c0 60be 3a41 86be bd4f 893e
000002a0: 4711 62bd 6e8d 023d 0402 96bd 4312 15bc
000002b0: 6c1c 5abe 0610 173e 31be 833e 5483 5dbe
000002c0: e00b af3c e1d5 093e b152 a0bb 5472 903d
000002d0: 426d bdbd aa1e 4dbe e1af d93d c2de 6e3d
000002e0: 5103 e6bb 4364 1e3e dd77 e73d 05a8 e33c
000002f0: f617 89be 9eb2 32be 64af 143e 9d68 f43c
00000300: 4a16 b73d 633b cb3d 9718 8a3e d01a 52be
00000310: 38ca 10be 46ec 8c3e 0ebb 183e 6616 53be
00000320: 3857 293e 382b b53d 89fe 3fbd 195f d03d
00000330: e537 88be c99e 493c bfd1 1cbd 3826 86bd
00000340: 1884 f83d 7c6d b4bd 40b1 e5bd 0770 16be
00000350: 005c 383e e50f 0cbe 1bac 9b3d 8b38 713e
00000360: 1fa4 473d 5127 183e a38d 5b3d 183b f6bc
00000370: fab6 9bbd 937c 943c 07bb 8f3d 185a 273e
00000380: d75e 65be 0e83 a43d 141c 713c 64b1 eb3d
00000390: fdac 13bd 4c20 56be 09b6 43bd ec8d 773e
000003a0: e165 e3bd 60ae a23d 07b9 51be d4d1 af3c
000003b0: 66d0 18be bd89 013d 2292 843e f29e 14be
000003c0: 2588 ee3c 21e5 1fbe 31ca a3bd ce4e c8bd
000003d0: f1ff 51bd 590c 89bd c9c1 9c3c 078d a03d
000003e0: dcf3 653e 2fc5 b73d c1ad 94bd 3228 8ebd
000003f0: 3fa3 5bbe 8e55 05be 1ce8 373e 1c7b d43c

network.8.bias f4 [64]
0.0031373587 -0.022548234 -0.08894037 0.036956947 0.0059546162 -0.14494054 0.14389075 -0.105349265
0.049452774 -0.058690466 -0.047890708 0.0025903073 -0.03693435 -0.0602503 0.0036066242 -0.06670885
-0.09118044 0.044040836 0.020386111 -0.11867461 0.028895998 0.03931816 0.00025360374 0.08334474
0.012761294 -0.09209131 -0.0002948258 0.014891953 0.053819306 -0.0024678765 0.011401954 0.0039138324
0.0068675713 -0.14157124 0.07456709 0.0014943555 -0.021043336 -0.0866201 0.07400873 0.03972107
0.086906 0.089877054 -0.06171611 -0.08397303 -0.1404898 0.019125057 -0.057883278 -0.09755111
0.119148016 -0.047843155 -0.04082374 0.029693734 0.007744654 0.017320305 -0.07395359 -0.05859399
-0.2549318 -0.0136720175 0.0462437 -0.016205227 0.03977388 -0.028959967 0.0762204 -0.034167934
00000000: 259c 4d3b 13b7 b8bc 5e26 b6bd 2b60 173d
00000010: f11e c33b 4b6b 14be 1958 133e 5bc1 d7bd
00000020: fe8e 4a3d 6a65 70bd 0c29 44bd 25c2 293b
00000030: 7948 17bd 05c9 76bd 1d5d 6c3b a69e 88bd
00000040: cfbc babd 2a64 343d c600 a73c ad0b f3bd
00000050: 4db7 ec3c 140c 213d 1ef6 8439 a6b0 aa3d
00000060: bf14 513c 5e9a bcbd d992 9ab9 61fd 733c
00000070: a271 5c3d 19bc 21bb 43cf 3a3c 9b3f 803b
00000080: 5d09 e13b 0df8 10be a1b6 983d 40de c33a
00000090: 1363 acbc e165 b1bd e491 973d 90b2 223d
000000a0: c6fb b13d 7611 b83d 08ca 7cbd 0dfa abbd
000000b0: 8fdc 0fbe 27ac 9c3c 0417 6dbd e0c8 c7bd
000000c0: e003 f43d 2ff7 43bd cb36 27bd 4640 f33c
000000d0: dec6 fd3b 50e3 8d3c fb74 97bd 4000 70bd
000000e0: 6c86 82be 9900 60bc 096a 3d3d d3c0 84bc
000000f0: f0e9 223d 743d edbc 7119 9c3d adf3 0bbd

network.10.weight f4 [64, 64]
0.018818654 -0.07586332 -0.11210201 0.12288818 -0.13434227 -0.12356964 0.027716242 -0.06739579
-0.03236466 -0.21178117 0.13982289 0.19007298 0.15247491 0.34185585 0.06658829 0.13469438
-0.14564584 -0.28812847 -0.05139 -0.3343982 0.22316763 0.047380317 0.05712432 0.2508377
0.24803367 -0.091299735 -0.09307391 0.062109534 -0.10066897 0.06075702 -0.15182182 0.27878255
-0.20419054 0.11474448 0.001444568 -0.08040787 -0.28521186 0.03703177 -0.062006414 0.26732495
-0.17032851 0.19051328 0.099867895 -0.20518723 -0.21504584 -0.14266445 0.03727733 0.26077852
-0.04988386 0.20063266 -0.16031656 0.07391669 0.06971055 -0.12087765 -0.3558422 0.03877037
-0.33287978 0.011422526 0.22669625 0.15020922 -0.012383561 -0.3138936 0.09754454 -0.33618626
0.24847709 -0.04754989 -0.16981086 0.15762062 -0.09619435 -0.26385972 -0.14224504 -0.17700714
-0.17065124 0.020142308 -0.015037021 -0.08022194 -0.14698528 0.13819167 0.08558169 0.15983123
-0.16737272 0.09584774 0.081450835 -0.187617 0.12574503 0.019793147 0.07318166 -0.12397406
-0.0057495185 -0.28772876 -0.12231498 0.12971209 -0.114302196 0.0536715 -0.05263118 0.05344844
-0.12837215 -0.0050014 0.22283636 0.06328779 0.06196876 0.18609084 0.09558561 -0.010517952
-0.026594965 0.07271989 0.31180206 -0.20918652 0.05867047 0.13942066 -0.14150845 0.080144875
-0.13735098 0.07390579 -0.19098775 -0.009354727 -0.008003798 0.14249316 -0.17984696 -0.086779706
-0.25833365 -0.12845579 -0.14201796 -0.010457478 -0.08983758 0.07128776 -0.028009724 -0.14543915
0.042547405 0.010413898 0.16720861 0.044816755 0.17875434 0.3121929 -0.059863538 0.01860626
0.05161306 0.12562716 -0.22558789 -0.043933567 0.07983482 -0.20150067 0.07687798 -0.11632036
-0.049716134 -0.065291256 0.11774626 0.20674933 -0.069952086 0.058161035 -0.276523 -0.37634712
0.17179903 0.21431907 0.25536233 0.1072843 -0.0042824782 0.13024136 -0.17481473 -0.0082213525
0.1908314 0.21146166 -0.18958177 0.041150786 0.118559204 -0.14696337 0.028338442 0.1267982
0.10957641 -0.10296394 0.18502419 0.124369994 -0.057618815 0.09395804 -0.16276744 0.097928576
-0.2903038 0.06194974 -0.018132016 0.14751327 0.22417161 -0.079733625 0.23494 0.07906422
0.34443694 -0.1682514 -0.24925482 -0.03876005 -0.07358118 0.16346762 -0.21371187 0.20919849
0.06176319 -0.1364175 0.14272459 -0.04505091 0.14308174 0.18524197 0.17979234 0.43952274
-0.2062586 -0.05523785 0.1495411 -0.32825276 0.08900896 0.23343919 0.28704438 0.16402437
0.12550835 -0.15912469 0.14825447 -0.30801848 -0.13912375 -0.23904936 0.006871699 -0.055618547
0.119903766 -0.023994245 0.11826404 -0.1255221 0.33378404 0.09719008 -0.00032143053 -0.16266376
0.39814147 -0.021224124 -0.06334887 0.046581928 0.042092618 -0.27513117 0.20967145 0.02686583
0.033220105 0.055774737 0.19921474 -0.047079578 0.0734353 -0.1927371 -0.04212448 -0.13658626
-0.19507046 -0.03536831 -0.22472605 0.08279795 0.0654886 0.13257135 0.14133205 0.2084448
0.04763823 0.15000476 -0.12681767 -0.1330466 -0.08125257 0.07896033 0.07002041 0.3967887
00000000: 9429 9a3c 3a5e 9bbd bd95 e5bd ccac fb3d
00000010: 0591 09be 1412 fdbd 2c0d e33c ce06 8abd
00000020: ce90 04bd 2add 58be bb2d 0f3e 7ea2 423e
00000030: 6222 1c3e bb07 af3e 715f 883d 53ed 093e
00000040: 2f24 15be 9385 93be 527e 52bd 3e36 abbe
00000050: 0e86 643e dd11 423d 31fb 693d cd6d 803e
00000060: 8afc 7d3e 5bfb babd 899d bebd 9166 7e3d
00000070: 882b cebd 5adc 783d 2e77 1bbe 96bc 8e3e
00000080: 5317 51be 27ff ea3d a957 bd3a e2ac a4bd
00000090: 4a07 92be a0ae 173d 70fa 7dbd d1de 883e
000000a0: 996a 2ebe ea15 433e 8a87 cc3d 9a1c 52be
000000b0: fa34 5cbe a116 12be 1db0 183d c384 853e
000000c0: 0553 4cbd a672 4d3e 062a 24be a261 973d
000000d0: 68c4 8e3d b48e f7bd f330 b6be aecd 1e3d
000000e0: 386f aabe 8c25 3b3c 1023 683e 72d0 193e
000000f0: 6be4 4abc a9b6 a0be 6fc5 c73d 9b20 acbe
00000100: c770 7e3e acc3 42bd e6e2 2dbe 4d67 213e
00000110: 8b01 c5bd 9f18 87be afa8 11be 5c41 35be
00000120: 33bf 2ebe 7b01 a53c d65d 76bc 674b a4bd
00000130: 4f83 16be 1e82 0d3e 7445 af3d ccaa 233e
00000140: c163 2bbe d24b c43d b2cf a63d ac1e 40be
00000150: 4ec3 003e 3d25 a23c 44e0 953d 1de6 fdbd
00000160: 7566 bcbb 2f51 93be 4780 fabd 3fd3 043e
00000170: 4517 eabd a6d6 5b3d cb93 57bd c0ec 5a3d
00000180: fd73 03be c9e2 a3bb 372f 643e 079d 813d
00000190: f4d2 7d3d 998e 3e3e 63c2 c33d 7d53 2cbc
000001a0: afdd d9bc 2aee 943d 85a4 9f3e fe34 56be
000001b0: 7250 703d 4ac4 0e3e 97e7 10be ff22 a43d
000001c0: bca5 0cbe eb5b 973d 4b92 43be 9244 19bc
000001d0: 5d22 03bc bae9 113e cd29 38be 8fb9 b1bd
000001e0: 4f44 84be ea89 03be 286d 11be d855 2bbc
000001f0: c4fc b7bd 51ff 913d a674 e5bc 00ee 14be
00000200: 3046 2e3d 0e9f 2a3c bc38 2b3e c691 373d
00000210: 610b 373e bfd7 9f3e 7833 75bd 286c 983c
00000220: 3768 533d 68a4 003e 8300 67be aff3 33bd
00000230: 7080 a33d 3156 4ebe 3472 9d3d 5e39 eebd
00000240: 25a3 4bbd 6cb7 85bd f324 f13d 19b6 533e
00000250: 0a43 8fbd 443a 6e3d 6c94 8dbe 92b0 c0be
00000260: 16ec 2f3e 7576 5b3e dabe 823e dfb7 db3d
00000270: 0854 8cbb fe5d 053e a202 33be dab2 06bc
00000280: 4e69 433e 6889 583e b921 42be ba8d 283d
00000290: 2bcf f23d 917d 16be 0526 e83c 63d7 013e
000002a0: 9969 e03d c2de d2bd fb76 3d3e b2b5 fe3d
000002b0: b501 6cbd 136d c03d 82ac 26be c78e c83d
000002c0: b3a2 94be 03bf 7d3d 9889 94bc b80d 173e
000002d0: 3e8d 653e 624b a3bd 1d94 703e 6cec a13d
000002e0: 0a5a b03e 184a 2cbe a83c 7fbe dcc2 1ebd
000002f0: bbb1 96bd 0e64 273e 49d7 5abe 2138 563e
00000300: 66fb 7c3d 07b1 0bbe 6526 123e 4e87 38bd
00000310: 0584 123e 12b0 3d3e 7c1b 383e 2009 e13e
00000320: 7435 53be 1541 62bd 4d21 193e bf10 a8be
00000330: 544a b63d af0a 6f3e 7bf7 923e 01f6 273e
00000340: 4385 003e 95f1 22be 05d0 173e 99b4 9dbe
00000350: 7576 0ebe 5bc9 74be fd2b e13b 46d0 63bd
00000360: 1b90 f53d 948f c4bc 6b34 f23d de88 00be
00000370: bee5 aa3e 980b c73d ad85 a8b9 5491 26be
00000380: 33d9 cb3e 37de adbc 0dbd 81bd b1cc 3e3d
00000390: 4f69 2c3d fedd 8cbe 1db4 563e bb15 dc3c
000003a0: ce11 083d 0d74 643d f3fe 4b3e 84d6 40bd
000003b0: 3f65 963d e05c 45be b88a 2cbd 45dd 0bbe
000003c0: 8dc0 47be 5cde 10bd 961e 66be f991 a93d
000003d0: e31e 863d c9c0 073e 59b9 103e 8e72 553e
000003e0: 4e20 433d d99a 193e 7edc 01be 5e3d 08be
000003f0: bf67 a6bd f4b5 a13d dc66 8f3d e327 cb3e

network.10.bias f4 [64]
0.0903059 0.090535514 -0.1546837 -0.041940782 -0.0174697 -0.07224553 0.008729368 -0.08360943
-0.04111707 0.04613355 -0.028526627 -0.09531491 -0.10698885 -0.080997296 0.0019675232 -0.029349266
-0.06044436 0.013266083 0.057227578 -0.03070312 0.0011501429 0.11315582 0.11604072 -0.06461948
-0.052927334 -0.01634653 -0.02790149 -0.15171449 0.041213527 -0.1448469 -0.08021714 -0.045711733
-0.029526943 0.0022319476 0.019449398 -0.06452653 0.008615515 -0.032136824 -0.035119705 -0.00025938504
-0.023805099 -0.04104848 0.072714016 -0.04176538 -0.04068733 -0.059824534 -0.028293181 0.022965351
0.054837268 0.077402554 0.024091825 0.007143163 -0.12415845 0.075656995 -0.019276304 -0.0154557815
0.11076223 -0.022014344 -0.02605487 -0.0918929 -0.10019612 0.15735595 0.15955259 0.034288295
00000000: 4df2 b83d af6a b93d 6765 1ebe 19ca 2bbd
00000010: 9e1c 8fbc 77f5 93bd a005 0f3c 6c3b abbd
00000020: 5f6a 28bd 89f6 3c3d acb0 e9bc 7734 c3bd
00000030: f81c dbbd e9e1 a5bd 90f1 003b df6d f0bc
00000040: 8194 77bd fc59 593c 7767 6a3d 1c85 fbbc
00000050: 64c0 963a 3dbe e73d c2a6 ed3d 3857 84bd
00000060: 55ca 58bd 28e9 85bc aa91 e4bc 0b5b 1bbe
00000070: 84cf 283d bf52 14be e248 a4bd 3a3c 3bbd
00000080: 7de2 f1bc de45 123b 5854 9f3c 7c26 84bd
00000090: 1728 0d3c e7a1 03bd aed9 0fbd 12fe 87b9
000000a0: e902 c3bc 7322 28bd 16eb 943d 2d12 2bbd
000000b0: c2a7 26bd 920a 75bd 1ac7 e7bc d521 bc3c
000000c0: 0b9d 603d 3b85 9e3d 385c c53c 3211 ea3b
000000d0: c946 febd 0ef2 9a3d 57e9 9dbc 3f3a 7dbc
000000e0: 4fd7 e23d 6d57 b4bc 0671 d5bc 5832 bcbd
000000f0: a033 cdbd eb21 213e c161 233e e271 0c3d

network.12.weight f4 [5, 64]
0.10572978 0.083993785 -0.42887124 -0.03192257 -0.01334207 -0.24433835 -0.005575563 -0.17665194
-0.033349432 0.020340487 0.040112775 0.011996398 -0.0069042337 0.029290216 -0.3426821 -0.057171397
-0.05147895 -0.08637319 -0.016184758 -0.047205616 0.039512534 -0.17202757 0.025312198 -0.09553687
-0.030779619 0.04356397 -0.04002872 -0.26974392 -0.007211433 -0.44181547 0.063734695 -0.0054812874
0.0065450333 -0.0031013037 0.14063442 0.093002826 0.20302455 0.19853847 0.04263873 -0.040303662
0.07790852 -0.07045155 -0.015797501 -0.04921738 0.02702648 -0.03839914 0.19946025 0.04258461
0.049313482 0.08390594 0.0021684784 0.020377928 -0.07126694 -0.0068077478 0.311648 -0.1456991
0.078560546 0.018113447 -0.044780936 -0.068989076 -0.009701424 0.1563472 -0.041554112 0.052702054
-0.17630452 -0.0055762124 -0.18815185 -0.018463291 0.039408978 0.01213403 0.034735426 -0.044812202
0.02596562 0.0018255357 -0.013417758 -0.13441858 -0.063680194 0.008663763 0.11504995 -0.029240787
-0.0376031 0.011883953 0.013421256 -0.032771412 0.01444472 0.34463826 0.010408009 -0.06778707
0.10572673 0.008265241 0.0409821 0.11790101 -0.12076204 0.05306551 0.07772327 0.0084947
0.00057005347 -0.031170929 -0.030517383 -0.0132341385 0.078614004 0.00571547 -0.0341594 0.04425326
0.021981763 0.06986353 0.0070973895 0.03212224 0.03896646 0.056566704 0.27264848 -0.018769896
-0.010766041 0.023906905 0.0021391048 -0.002297564 0.011724494 -0.08265198 -0.11216721 0.040391963
0.030777179 0.024993181 -0.04930198 -0.059206534 -0.007659315 -0.023257012 -0.032638267 -0.05708426
-0.06348101 0.16166689 -0.32083192 0.17768653 -0.17265595 0.1483562 -0.41914085 -0.42953196
-0.3324583 0.1855753 -0.45500544 -0.5644922 0.19665042 -0.048435472 0.03760089 0.15374331
0.77609974 0.7916096 0.019317016 -0.20694879 0.412105 0.25774488 -0.61023706 -0.23217216
-0.18599708 -0.31806892 0.13062464 -0.2027668 0.074305214 -0.26991254 -0.0872953 0.5806282
0.8209439 0.2586875 0.45377955 -0.49200428 0.040414087 0.026937766 -0.42438468 -0.16708899
-0.033854123 -0.49862844 -0.8792001 0.7134617 -0.30981636 -0.049429923 -0.040324096 -0.405934
-0.5890979 0.2121101 -0.3519887 0.8125892 -0.34264207 0.15778695 -0.20476426 0.08289112
0.29589078 0.72999126 0.0038693484 -0.056171402 -0.24079558 0.1504748 0.055997286 -0.042514518
-0.17093036 0.015972352 -0.17254476 0.63175553 0.10212849 -0.25269866 0.13712552 -0.029604156
0.6791162 0.23865779 0.0449545 0.35473636 0.13598168 -0.60652256 -0.1033124 -0.42918783
-0.23867433 -0.4228944 0.7570693 0.010303553 0.35843033 0.07398968 0.003897575 -0.1361587
0.20689473 -0.40224126 0.25252563 -0.30957115 0.10669058 0.06631229 0.6331688 -0.6388517
-0.073720604 0.15504947 -0.10572796 -0.4053769 -0.2611597 0.041903798 0.025962481 -0.055336557
0.22680132 0.054642662 0.12912838 0.016865922 0.40741327 0.08226215 -0.06974085 0.02385431
0.13182952 -0.12150955 -0.31261 -0.010079832 -0.44744983 -0.0742333 0.02081745 0.3416252
0.036993437 0.12715027 -0.62708515 0.21611422 0.2937512 -0.025489563 0.24164508 -0.07853269
00000000: db88 d83d ef04 ac3d 0395 dbbe 3ec1 02bd
00000010: b398 5abc d533 7abe 36b3 b6bb 3fe4 34be
00000020: 6a99 08bd 18a1 a63c 4b4d 243d 8a8c 443c
00000030: e93c e2bb 09f2 ef3c 0774 afbe 8e2c 6abd
00000040: 97db 52bd 6de4 b0bd e695 84bc ad5a 41bd
00000050: e5d7 213d ff27 30be 875b cf3c d6a8 c3bd
00000060: 8a25 fcbc 2270 323d 28f5 23bd e01b 8abe
00000070: e24d ecbb a335 e2be 5687 823d 5f9c b3bb
00000080: b877 d63b 3e3f 4bbb 7802 103e 4478 be3d
00000090: abe5 4f3e ab4d 4b3e f3a5 2e3d 7415 25bd
000000a0: 818e 9f3d e748 90bd c369 81bc 2a98 49bd
000000b0: a366 dd3c 6b48 1dbd 4f3f 4c3e 336d 2e3d
000000c0: effc 493d e1d6 ab3d 081d 0e3b 9def a63c
000000d0: 67f4 91bd 8713 dfbb 5490 9f3e 2532 15be
000000e0: 5ae4 a03d a762 943c 376c 37bd 254a 8dbd
000000f0: b9f2 1ebc 7b19 203e a534 2abd 1cde 573d
00000100: 2c89 34be a9b8 b6bb e1aa 40be 5440 97bc
00000110: 4f6b 213d d0cd 463c bc46 0e3d 008d 37bd
00000120: dab5 d43c d046 ef3a 28d6 5bbc 06a5 09be
00000130: c36a 82bd 75f2 0d3c 4f9f eb3d 608a efbc
00000140: b505 1abd e9b4 423c d4e4 5b3c 513b 06bd
00000150: 8ca9 6c3c 6d74 b03e 5b86 2a3c f3d3 8abd
00000160: 4187 d83d ef6a 073c d9dc 273d 1676 f13d
00000170: 1752 f7bd 385b 593d 612d 9f3d 5b2d 0b3c
00000180: a46f 153a 2d5a ffbc 97ff f9bc 00d4 58bc
00000190: 6100 a13d d648 bb3b baea 0bbd e842 353d
000001a0: 1913 b43c 9c14 8f3d 3891 e83b 9c92 033d
000001b0: 4b9b 1f3d 7db2 673d 9598 8b3e 53c3 99bc
000001c0: 0d64 30bc 6ad8 c33c 3930 0c3b ba92 16bb
000001d0: 1818 403c 7145 a9bd ecb7 e5bd 0b72 253d
000001e0: 6c20 fc3c 80be cc3c dff0 49bd 8d82 72bd
000001f0: fefa fabb 7d85 bebc b4af 05bd 2fd1 69bd
00000200: 5502 82bd 018c 253e 1544 a4be 75f3 353e
00000210: b9cc 30be b0ea 173e a199 d6be 9deb dbbe
00000220: f937 aabe 7407 3e3e 79f6 e8be 9082 10bf
00000230: ba5e 493e 4664 46bd 6403 1a3d e36e 1d3e
00000240: 79ae 463f eda6 4a3f b83e 9e3c 62ea 53be
00000250: 6dff d23e 23f7 833e 7f38 1cbf 8abe 6dbe
00000260: 0576 3ebe eed9 a2be 77c2 053e 1aa2 4fbe
00000270: 552d 983d fa31 8abe e1c7 b2bd 0da4 143f
00000280: 6129 523f b072 843e cb55 e83e fce7 fbbe
00000290: 3e89 253d 97ac dc3c f348 d9be 6019 2bbe
000002a0: 9faa 0abd 3a4c ffbe 4213 61bf 6da5 363f
000002b0: 40a0 9ebe 0877 4abd e12a 25bd 95d6 cfbe
000002c0: 1fcf 16bf 6433 593e dd37 b4be d905 503f
000002d0: c86e afbe e792 213e b9ad 51be d2c2 a93d
000002e0: ff7e 973e b5e0 3a3f e594 7d3b fc13 66bd
000002f0: 1e93 76be 1116 1a3e 695d 653d b423 2ebd
00000300: 5e08 2fbe 73d8 823c 93af 30be bbba 213f
00000310: be28 d13d b861 81be a26a 0c3e 6a84 f2bc
00000320: 8fda 2d3f b562 743e 3622 383d 01a0 b53e
00000330: c83e 0b3e 1045 1bbf 7495 d3bd 82be dbbe
00000340: 0b67 74be 9d85 d8be 4bcf 413f 3cd0 283c
00000350: 2e84 b73e e787 973d 756e 7f3b 306d 0bbe
00000360: 36dc 533e 91f2 cdbe 0a4b 813e 1c80 9ebe
00000370: 9780 da3d bdce 873d 5a17 223f c98b 23bf
00000380: d4fa 96bd 4ac5 1e3e e787 d8bd 908d cfbe
00000390: b9b6 85be 51a3 2b3d 45af d43c 96a8 62bd
000003a0: 9b3e 683e fcd0 5f3d 3b3a 043e 672a 8a3c
000003b0: 7998 d03e 0f79 a83d 4ad4 8ebd 1d6a c33c
000003c0: 51fe 063e 00da f8bd 6b0e a0be e125 25bc
000003d0: 2518 e5be a107 98bd 5b89 aa3c 80e9 ae3e
000003e0: 6e86 173d ae33 023e a788 20bf 0c4d 5d3e
000003f0: 8f66 963e 7dcf d0bc cf71 773e bfd5 a0bd

network.12.bias f4 [5]
0.29032978 -0.07189438 0.09181175 0.08100737 0.026219182
00000000: 1ba6 943e 5c3d 93bd cc07 bc3d 31e7 a53d
00000010: 9cc9 d63c
