Clean/models/lbfgs_6_64.pth (torch, 90466 bytes, 14 tensors)

network.0.weight f4 [64, 2]
00000000: 0061 a6be cc97 d7bd ee56 3ebe 4a9b d2be
00000010: 98b4 fd3e 4719 68be aee1 28be 2d63 c2be
00000020: 5f8f 253e 56ef 0a3f 3394 4b3e a54a 48be
00000030: 37dc 433f 48de 963d 64b2 13bf 4ca4 063f
00000040: 5b1c d6be 19de fe3e a633 b63e ab0e 943e
00000050: eea8 75be 8b27 24bf 04ed 34be 5e5f ee3e
00000060: 4041 6ebe 2f54 2f3d 2a90 e83d f326 7f3d
00000070: f7a1 073f c284 8a3e 5442 cb3e 1a66 e63e
00000080: b7fd e73e 262c c53e c2b3 2d3d 120e 233f
00000090: 518b edbd aed1 b73d 62ea 223f b0f6 673b
000000a0: c7b5 aa3e 97ef 49be 41a5 ff3e f714 29bf
000000b0: e3f8 3cbf 92dd b03e b465 cb3d 0590 5ebd
000000c0: 4548 f1bd dab2 033f 8843 b23d 907a ffbe
000000d0: 97e1 bc3d 7c0c 5abe 8a40 3cbf 75ad 023f
000000e0: 045e 99be 96b1 be3b 411d 72bd acd9 f73e
000000f0: e0c4 5dbe d343 54bc b779 a1be 469e 15bf
00000100: 5006 be3e 0ce5 d7bd f9ce f13e 9c26 00be
00000110: f231 42bd 75b5 f8be e18b d0be ca52 7d3e
00000120: 0071 37bd 8c90 d23e ce1c 39bf ead8 113f
00000130: 6f1d 253e 1118 33bd 818e fbbd 1008 92be
00000140: b01a c7be 342f 103e 0e96 e4be 0f58 cbbe
00000150: fc25 6cbe 7f72 b03e 9217 c0bd 32f1 08be
00000160: af38 21be dede c33e bf11 303e 682e c23a
00000170: af78 5b3f 3aab 5b3e e7b5 b4bd 79e5 493e
00000180: 7428 253d 6328 f6be da62 633e 6be3 583e
00000190: 23d4 0e3f 40a9 b33e b1c8 f73e 8ccc debe
000001a0: 9242 cbbe 873f 0c3e 5805 bd3e 997b 41be
000001b0: 6cf0 163d 8e3f 5fbd d6ea 1c3d 18de ddbe
000001c0: 6987 a03d e188 e03e 2048 b63e 4403 8a3e
000001d0: aa81 683c 66a8 db3d 39b1 63be fe23 263c
000001e0: 58d4 85be 8b2e 8f3d 2583 043d be0a 2f3f
000001f0: 23e9 423f d23b e8be f7a0 02bc 80b8 47bf
-0.3249588 -0.10527 -0.18587849 -0.411341 0.49551845 -0.22665893 -0.1649234 -0.3796629
0.16167973 0.5427145 0.19880752 -0.19559725 0.76507896 0.073666155 -0.5769408 0.5259445
-0.41818509 0.49778822 0.3558628 0.2891744 -0.23990223 -0.6412284 -0.1766854 0.46557134
-0.23267078 0.042804893 0.11355622 0.062293004 0.52981514 0.2705441 0.39699042 0.44999772
0.45310757 0.38510245 0.04240776 0.63693345 -0.11598838 0.0897554 0.6363889 0.003539484
0.3334181 -0.19720303 0.49930766 -0.66047615 -0.7381727 0.34544045 0.09931508 -0.054336566
-0.117813624 0.5144478 0.08704287 -0.49898195 0.09222715 -0.21293825 -0.7353598 0.51045924
-0.2995454 0.0058195097 -0.05910993 0.48408258 -0.21657133 -0.012955624 -0.31538174 -0.5844463
0.3711419 -0.10541734 0.4722822 -0.12514728 -0.047410913 -0.4857594 -0.4073172 0.24738613
-0.0447855 0.41125906 -0.7230958 0.5697161 0.1612451 -0.043724123 -0.1228304 -0.28521776
-0.38887548 0.14080507 -0.44645733 -0.3971562 -0.23061365 0.34462354 -0.09379496 -0.13373259
-0.1574428 0.38255972 0.1719427 0.0014814856 0.85731024 0.21452036 -0.088237576 0.19716443
0.040321782 -0.48077688 0.22205678 0.21180503 0.55792445 0.35090065 0.48395303 -0.43515432
-0.39699227 0.13696109 0.3691814 -0.18894805 0.036850378 -0.05450397 0.038309895 -0.43333507
0.078383274 0.4385443 0.35601902 0.26955616 0.014191071 0.10725479 -0.22235574 0.010140417
-0.26138568 0.06991299 0.03235163 0.68375766 0.7613699 -0.4535814 -0.007972947 -0.780159

network.0.bias f4 [64]
00000000: bfcb 9ebc b401 573e 04d6 44be 9b7c 923e
00000010: dd1f 58be 6505 fdbd 410c 44bf 3654 063e
00000020: f54b a53d 25a1 0cbf 74c9 b23e ccfa 8cbc
00000030: d909 f13d eca0 05bd 4a61 253e 44f8 d1be
00000040: ad94 03be 7446 b8be ca4c e6bc 0805 20bf
00000050: 8877 a5be 6a83 973d fe3f fc3e b65c d6bb
00000060: 44e1 e0be 1a72 963e b064 b83d fe2b dc3e
00000070: 5fe6 6b3e a8c4 d8be 8437 373d c7cf 093f
00000080: 0557 c0be da5d 97be 6dc3 973e fb2e 3ebc
00000090: 713d a5be fde4 fd3e 9364 83bd eaed f33c
000000a0: 0a8b cd3e 9912 043f c28e 0d3e f5ec 6e3c
000000b0: b414 d0bd 177f 83bd 1f90 53be f444 273d
000000c0: b292 a43c 433e a0be c4ee 05bf 5be8 c7be
000000d0: bda1 073f b776 76be 9afe 3dbe 51d0 5b3d
000000e0: dd01 c4bd 89ab c5be cb77 763d dd1f 443e
000000f0: 0bff 243e 54d0 53be d352 d1be c504 8a3e
-0.019384263 0.20996743 -0.19222265 0.2861069 -0.21105905 -0.123545446 -0.765812 0.13118061
0.08071128 -0.5493339 0.34919322 -0.017209433 0.117694564 -0.03262417 0.16150394 -0.41009724
-0.12849684 -0.3599125 -0.028112788 -0.6250768 -0.32317758 0.07398112 0.49267572 -0.0065418137
-0.43921864 0.29383928 0.090035796 0.43002313 0.23037098 -0.42337537 0.04473068 0.5383267
-0.3756639 -0.2956379 0.29641286 -0.011607881 -0.3227344 0.49588767 -0.064156674 0.029776532
0.4014514 0.5159088 0.13823989 0.014582862 -0.10160199 -0.06420725 -0.20660447 0.040837243
0.020089481 -0.31297502 -0.5231745 -0.3904446 0.5298117 -0.24068724 -0.18554154 0.053665463
-0.09570668 -0.38607433 0.060172837 0.1915278 0.16112916 -0.2068494 -0.40883502 0.26956764

network.2.weight f4 [64, 64]
00000000: d318 b6bd 83ad e8bd 484a 523e 5094 213e
00000010: e815 4b3d f6a9 6c3e 5cd9 d93d dfad cd3c
00000020: c6ee 123e 6251 e7bd 7392 febd 9667 1dbe
00000030: 1a03 d23d f32d c03c 71a2 6a3e 2399 1bbe
00000040: 9220 94bd 9079 aa3b 0c6a 103e 7845 5b3e
00000050: 5bb1 dfbc 309b 53be 931e aa3d 9914 403b
00000060: 2d59 ea3d 198e adbd d6c6 d23d 557b c3bb
00000070: 582e 5ebc 7903 1fbd 85e5 afbd ea6c 42be
00000080: 13f1 2f3c 051d 06be 1996 3abd 6332 693d
00000090: 8e1f 4c3e f7b5 bfbd 8a28 643e 47eb 41bc
000000a0: bcf7 b73d 6367 aa3d 09c3 2abc 0ea6 ba3d
000000b0: 7a86 173d 9a2f 343e 8469 30bd fba5 89bb
000000c0: e45b 73be 0344 8b3d e567 d63d 74cb 2b3e
000000d0: 01a4 113e de36 dfbc 711a 193e 0741 f4bd
000000e0: 5c7d 093e 3ad5 243e bc13 1fbe 6ea1 833d
000000f0: 3a38 c53d 9528 f43c 589f 103e 6ead 9f3d
00000100: e907 3f3b e024 493e 88d2 27be d00f 233e
00000110: 54dc d33d 0461 4cbe f191 3b3e aaf0 34be
00000120: 80b1 3bbd 123b e0bc a7b8 e1bd f37b 593e
00000130: 9960 333e a479 103e 8e72 1abe d44b 52be
00000140: 53f1 bd3d b8fe df3d 9b0c 0fbc 080c 09be
00000150: af6f 9ebd 706a 573d a0f8 123e 0b2b 4b3e
00000160: 50b0 debc c36d dabd ed4b b7bd d6f2 15bd
00000170: b383 0abe 1eab 4c3d f5fb 07bd ad22 1f3e
00000180: 36d2 313e 81c5 60bc bbbf 363e bfd3 58bc
00000190: 9e1f 1cbe f514 76bd 81f2 b73d d1c5 4e3e
000001a0: 64e0 563d e512 58bd 3935 393d 2cd9 163d
000001b0: a3a3 46be ca87 56bd d500 e9bd c80f 8d3d
000001c0: ca6a 9ebd 56b2 1c3e 67b9 a9bd f7cb 28be
000001d0: a962 263e 6665 1ebe 64c3 47be 3247 40be
000001e0: 6bb9 b6bd 9094 da3d eac3 a13d ab0f 033e
000001f0: ea43 993d 6c66 0cbe 79fa 68be ee29 5a3e
00000200: 2533 723d 8b5b 0f3e 2e7e 863e 7ca2 293e
00000210: c72e 37be 36a9 713e 71e8 0dbe e97f e93d
00000220: 489b 65be d177 31bd 1e80 bcbd 9aec cb3d
00000230: 53ea e43d c8f4 f43d e87d 833a c663 e7bd
00000240: 230a c33d ca06 05bc a9cb 9f3d be75 2cbe
00000250: 9b78 36bc 1798 993d ddf4 dcbc 4ebd 36be
00000260: 9e81 e73d 78d4 7cbc 221e 623c 6012 113e
00000270: f991 193e 722a 3a3e 0244 4dbe bcbf 96bd
00000280: 541a 11bd 997d fa3d 1cbe 42be c554 283c
00000290: 1c1e c9bd 6288 20be 5a4e 113d 49bb 9ebb
000002a0: 4c32 cabd b79b abbd da87 21be 1d1e f0bd
000002b0: 3ac2 4cbe 0da7 393e 2811 9dbd 374c d53d
000002c0: 4600 7dbc 1e37 003e 861d bf3d eadd 083e
000002d0: 457b 36be 8478 25be 4ad3 83bd 946d 31be
000002e0: ba15 513e eccc 653e d24f b13d d285 e4bc
000002f0: c990 fcbd 024a 713c 3462 103e 0cb1 28bd
00000300: 9148 d53d cc0c 15be 06db 633e 498a 3bbe
00000310: 0fce dbbd dd71 05be 400e de3d 8243 ff3d
00000320: 7086 e3bd 2685 093e e86b 22be da70 17be
00000330: a753 2cbe 97d7 a93d 701c edbd 4b9e 603d
00000340: e67c d1bd df03 453e eff8 9d3d b529 87bb
00000350: 210f b9bd c00b 24be 9173 2abe 709b 223e
00000360: a96a 873c ebf3 0dbd 6c99 ccbd 3790 0a3e
00000370: 404e 69be 6f4c 0abe a34f 123e be11 eabd
00000380: 0ad7 bbbd f27b 2b3e 9cd2 9cbd c9c0 48be
00000390: a682 193e dde6 fdbb 1454 723c cbf9 a9bc
000003a0: 459e 37be 3577 8ebc ed73 3b3e feeb 89bd
000003b0: fc93 d4bd d794 233e 24f2 cfbd 30fe 463d
000003c0: cf21 62be 82de c33c 6721 10be 053d 773c
000003d0: 2875 0abe 744b 81bd ae19 9a3d 1d66 03be
000003e0: 7ff2 923d 93c8 743e a4bc c63b f144 b43d
000003f0: e12a 963d d48f a03c 8e4d ef3d 2d26 763d
-0.088914536 -0.1136122 0.20536149 0.15779233 0.04958144 0.2311171 0.10637161 0.025107322
0.14348897 -0.112948194 -0.12430277 -0.15371546 0.10254498 0.02345941 0.22913529 -0.15195136
-0.07232775 0.0052024797 0.14102954 0.21413219 -0.02730625 -0.20664668 0.08306613 0.0029309152
0.1144279 -0.084743686 0.10291831 -0.00596563 -0.013560854 -0.03882167 -0.08588699 -0.1898686
0.010738629 -0.13097008 -0.0455533 0.05693282 0.19933912 -0.09360879 0.2228109 -0.01183588
0.089827985 0.08320501 -0.010422477 0.09113704 0.03699348 0.17596284 -0.043069378 -0.0042006946
-0.23765522 0.068000816 0.10469035 0.1677683 0.14222719 -0.027247842 0.14951493 -0.119264655
0.13426727 0.16096964 -0.15534872 0.06427275 0.09629865 0.029804507 0.14123285 0.07796751
0.0029149002 0.19642973 -0.16388905 0.15924 0.10344759 -0.19958884 0.18317391 -0.17669931
-0.045823574 -0.027371917 -0.11021548 0.21238689 0.17517318 0.14108902 -0.15082762 -0.20536739
0.092745446 0.109372556 -0.008731033 -0.13383496 -0.07736146 0.05259174 0.14352655 0.19840638
-0.027183682 -0.10665467 -0.089500286 -0.03660854 -0.13526802 0.049967878 -0.03319927 0.15540572
0.17365345 -0.013718964 0.17846577 -0.013234078 -0.15246436 -0.06007858 0.08981801 0.20192648
0.05246009 -0.052752394 0.045216773 0.036828205 -0.1939836 -0.052375592 -0.11377112 0.06887776
-0.07735212 0.15302405 -0.08287316 -0.16484056 0.16248573 -0.15468368 -0.1950813 -0.18777159
-0.089220844 0.10672867 0.07898696 0.12798946 0.07483657 -0.13710946 -0.22751798 0.21305057
0.059130806 0.13999765 0.26268142 0.16565889 -0.17888938 0.23599705 -0.138582 0.1140135
-0.22422516 -0.043327156 -0.09204124 0.099572375 0.11177506 0.11960751 0.001003203 -0.11298327
0.09523418 -0.008119294 0.07802517 -0.1684179 -0.011137153 0.07499712 -0.026972229 -0.17845652
0.113040194 -0.015431516 0.01380113 0.14167166 0.1499709 0.18180254 -0.20045474 -0.07360789
-0.0354255 0.12230987 -0.19017833 0.010274117 -0.09820196 -0.15677026 0.035475112 -0.0048441035
-0.098728746 -0.083793096 -0.1577448 -0.11724494 -0.19995967 0.18130131 -0.07669288 0.104149275
-0.01544196 0.12521026 0.09331803 0.13365903 -0.17820461 -0.16159254 -0.064367846 -0.17326957
0.20418444 0.22441453 0.08657803 -0.027895842 -0.12332303 0.0147271175 0.14099962 -0.04118447
0.104142316 -0.14555663 0.2225152 -0.1831447 -0.10732662 -0.13031717 0.10842562 0.12464048
-0.11109626 0.13429698 -0.15861475 -0.14789143 -0.16828786 0.082930736 -0.1157769 0.05483846
-0.102289006 0.19239758 0.07713496 -0.004124845 -0.09036089 -0.16020107 -0.16645648 0.15879607
0.016530352 -0.034656446 -0.099902004 0.13531576 -0.22783756 -0.1350572 0.14288191 -0.11429165
-0.09171875 0.167465 -0.07657358 -0.19604792 0.14991245 -0.0077484683 0.014790554 -0.020748993
-0.17931469 -0.017390827 0.18305941 -0.06734465 -0.10379788 0.15974747 -0.101536065 0.048582256
-0.2208321 0.02390981 -0.14075242 0.015090232 -0.13521254 -0.0631322 0.07524429 -0.12831922
0.07175159 0.23904638 0.006064968 0.08802212 0.07332397 0.019599833 0.11684714 0.060095

network.2.bias f4 [64]
00000000: 6de6 d1bc e4ef 9d3d 7320 a6bd 279f 9fbd
00000010: b888 02be 666c 3abf 5ede b6be 5f4e 063e
00000020: 0785 193e f18e 08be 83d3 64bd 5ff4 0a3d
00000030: 63ef 2b3d 97fa cdbd 3359 a8bd b403 46be
00000040: 22d0 d3bd 562b 3bbe b3ab 2abd d0be e83b
00000050: 1442 873e 7415 ac3d 1a3a a4bd 6a27 61bd
00000060: 76ed 33bd 13da e93d 3a20 b83c 41cb 7e3d
00000070: 4894 1a3e 0833 6bbc cfee a4be c2da 053f
00000080: a9d4 8bbd 3098 d3bc 3963 433e bf07 14be
00000090: d49d 1e3e c1bd c5bd 1571 ea3d ee9f 0fbd
000000a0: 5242 1d3e 636f 0d3e 412b e33d 4957 b23d
000000b0: ead6 99bd 0d16 823c 128b 283e 6f1e 9a3d
000000c0: ce4e 80be e2ea 5abd cd10 ebbd a24e 25be
000000d0: bfc7 91bd eeb3 bb3d 29c7 4dbe 7568 043d
000000e0: ef76 d9bc 0487 7a3e 95ab 9c3d f62f 17be
000000f0: 1761 47bd 7de8 b13d 5e54 ad3d 38bf 10be
-0.02562257 0.07711771 -0.08111658 -0.07794028 -0.12747467 -0.7282165 -0.35716528 0.13115834
0.14992152 -0.13335778 -0.055865776 0.033924457 0.041976344 -0.10057562 -0.082201384 -0.1933735
-0.103424326 -0.1827825 -0.04166765 0.0071028247 0.264176 0.08402529 -0.080188945 -0.05496923
-0.043927632 0.114185475 0.022476304 0.062205557 0.15095627 -0.0143554285 -0.32213446 0.5228692
-0.06827671 -0.025829405 0.19080819 -0.1445608 0.15489894 -0.09655333 0.1144735 -0.03506463
0.1535733 0.13812022 0.110922344 0.087080546 -0.07511695 0.015879655 0.16459301 0.07525336
-0.25060123 -0.053446658 -0.11477814 -0.16143277 -0.07118177 0.09165178 -0.20095505 0.03232618
-0.02654597 0.24465567 0.07649914 -0.1476439 -0.048676576 0.08686922 0.084633574 -0.14135444

network.4.weight f4 [64, 64]
00000000: c4f7 2dbd 33b9 df3c 0b7c 3fbe 5f89 50be
00000010: 8da8 eb3d 6bed e7bb ca82 e43d 7247 5bbe
00000020: c6d7 f3bc 1b46 80be dbe4 1d3e 79d2 f7bc
00000030: 3119 593e b81a 363e 3120 d03d 47bd 38be
00000040: f36a ac3c e9f9 14be 61ef a33d 12b2 46bd
00000050: 4306 14be 821d d7bd 4ca5 afbd 3000 283c
00000060: 89d5 093e e2c1 2fbe 20c9 21be 531e 89bc
00000070: d426 9fbe 191b 5bbe b4a7 c23d 633f 47bd
00000080: 549d e9bd 7549 9f3d 70f6 7a3d e026 f6bc
00000090: 2614 5abd 142d 6e3e ff36 0cbe 8145 413e
000000a0: 6dc5 f5bc 4324 723e 2094 a53d 3fa9 0a3e
000000b0: 08a6 86be c036 1c3e 9413 47be 29f0 09be
000000c0: 30af 363e f063 bebd 26ac 50bd 95ac 073c
000000d0: e4da cb39 b3fc a8bd c42f 073e 4357 3a3e
000000e0: dbd2 f8bd d054 43be 434c 87bd 6f3e c0bd
000000f0: bf79 313e 263b 7c3d dbdf aebd 7839 f83d
00000100: 5a42 19be ed0d b93d 573a 95bb 98e8 ffbc
00000110: 649a 6bbe ea53 d6be f1e3 8ebd fc7d 143e
00000120: 58d9 213d 8e90 e13c 6332 14bd 6211 f63d
00000130: 385d 37bd 26d7 063e 8612 c33c b6bf 6ebe
00000140: 5923 adbd 3688 a73d 039d abbd 7c9f 393e
00000150: 77de 00bd 8009 cebd 803b 51bd 72f9 5abe
00000160: c851 b53c ce9a d7bd 05c3 fdbc 3b10 6ebd
00000170: 5a80 45bd ab8f 2bbe 7177 fdbd 9e90 813c
00000180: a517 383d 65dc 1abe 0521 463e 15ce e8bd
00000190: f00f 0dbe 14da 073e 2b52 59bd 2492 033e
000001a0: 04e1 543e 6520 073e e5fc 773e 2e6a aabe
000001b0: 82bc 8f3c 264e 743e b4ca 2d3e a29d 7a3c
000001c0: b305 9bbe 4f56 1fbc 8bbc 3abc 22f5 8cbd
000001d0: c6d4 95bd a9c1 bf3d 50f6 cf3c 9245 163e
000001e0: 4efa 5a3d 81a9 a7bd 629a 513e 2aff 0dbe
000001f0: b6ed 903e a9ad 963e 160b 8dbd eeb2 7abe
00000200: 12c6 fd3a 52a0 db3d 827c 823d 1791 1a3d
00000210: ad02 58be aa18 43be 1184 d93d 278c 043e
00000220: c728 a13d 86fd 2c3d eec2 cd3a c1f4 f5bd
00000230: 5c3a 09be 6f44 3ebd d25c 3b3e edf9 6a3d
00000240: ea00 b33d 16b6 adbd 4b90 54be c392 293e
00000250: d1f8 09be c69a 833d 52a3 453e f898 ec3d
00000260: b2ae f6bc 2107 a33d f7a2 c1bd 15bd 4ebe
00000270: e05c 713c e569 913d a14d 5e3d c6b9 d9bc
00000280: a63c 2d3e 9db7 183e f0f8 38bd 75bd 913d
00000290: 6cfa 68be 701e 093e f731 6b3c 3a13 b5bc
000002a0: 43cd 573e 5b32 14be 79d0 d93c 68a1 94bb
000002b0: 018e 84bd 5983 0fbe 8f04 c73d f7e8 20be
000002c0: 8cf4 64bd 5aa0 1cbd 6b74 6fbe 4c90 c23c
000002d0: 8410 d0bd bd5a f53c 03a9 febd f3a4 1fbe
000002e0: 1715 0e3e b86f 91bd edc3 2fbe 5156 2a3e
000002f0: 92f8 d7bd e271 153e f416 31bd 2bdc abbc
00000300: 5271 e73d 3014 b63d 2991 303e f826 5bbe
00000310: 9656 1fbe 076d a7be c921 b0bd 1739 8b3d
00000320: becf b83d 8a40 3bbc cdaa b4bc e9ba 313b
00000330: 633a 1cbe fa28 643d 2187 683d 6e4c 19be
00000340: 4fef 1bbd 8228 473e cbfd afbd 5987 383e
00000350: 453f be3d 84d8 483e b435 3cbe 40c0 79bd
00000360: 13ac e83d 261b 253e e516 d93d 36af b73d
00000370: 438f ecbd ee65 67be f3b4 cabc 10cb 9fbd
00000380: a03b 7bbd 7857 eb3d 4274 613e cff3 143c
00000390: df00 8b3b b227 e6bd d403 87bd 4639 043e
000003a0: 4145 323c 99db 9b3d 5ee4 363d f85b 2a3e
000003b0: d5fa 05be 4da9 c3bd a879 47be f3cc e73b
000003c0: 5125 42be 19e1 e33d 2388 233e 1c9e 3b3e
000003d0: 1ecb 2dbb 8c3b 703c bc47 3cbd f8e3 41be
000003e0: 982a bbbc a50e 123e e432 aebd 6a92 50be
000003f0: 0c60 e63b e372 463e fde9 873d a4cd 15bc
-0.042472616 0.02730999 -0.18699662 -0.20364903 0.11506758 -0.007077863 0.111577585 -0.21413973
-0.029765975 -0.25053486 0.15419333 -0.030251728 0.21201016 0.1778363 0.1016239 -0.18040954
0.021047091 -0.14548458 0.08004642 -0.048509665 -0.14455514 -0.10503675 -0.0857645 0.010253951
0.13460363 -0.17163804 -0.1579938 -0.016738093 -0.3108431 -0.21397056 0.09504643 -0.048644435
-0.11406961 0.07777683 0.061270177 -0.030047834 -0.05324187 0.23259383 -0.13692854 0.1887417
-0.030001367 0.23646645 0.08084893 0.13541125 -0.26298547 0.1525526 -0.19441062 -0.1347052
0.17840266 -0.09296405 -0.050945424 0.008280893 0.00038882263 -0.082513236 0.13201815 0.1819735
-0.121495925 -0.19075322 -0.06606343 -0.09386908 0.17331599 0.061579846 -0.08538791 0.12120336
-0.14966717 0.09035859 -0.004554074 -0.031238839 -0.23008114 -0.41860896 -0.0697707 0.14501184
0.039513916 0.02753475 -0.036180865 0.12015034 -0.044766635 0.1316801 0.023812544 -0.2331532
-0.08454008 0.08180277 -0.08379557 0.18127245 -0.03146216 -0.10060406 -0.051082134 -0.21384218
0.022133723 -0.105275735 -0.030976782 -0.058120947 -0.04821811 -0.16754024 -0.12376297 0.01581603
0.044944424 -0.15123136 0.19348533 -0.11367432 -0.13775611 0.13266784 -0.053056877 0.12848717
0.20788962 0.13195951 0.24217565 -0.33284134 0.017545942 0.23857936 0.16971856 0.015296372
-0.30277786 -0.009725167 -0.011397491 -0.06882693 -0.07315974 0.093631096 0.025386006 0.14674976
0.053461365 -0.08186627 0.20469049 -0.13866869 0.2830636 0.29429367 -0.0688688 -0.24482319
0.0019361398 0.10723938 0.06371404 0.037736025 -0.2109477 -0.19052377 0.10620893 0.12944089
0.07869106 0.042233966 0.0015698352 -0.12009574 -0.13401169 -0.046451982 0.18297127 0.057367254
0.08740409 -0.08481996 -0.20758168 0.16559891 -0.13473822 0.06426005 0.19300583 0.11552614
-0.030112598 0.07960344 -0.09454911 -0.20189317 0.014731616 0.07100276 0.05427325 -0.026577841
0.16917667 0.14913793 -0.04515928 0.07116214 -0.22751778 0.13390517 0.014355174 -0.022103895
0.21074395 -0.14472334 0.026588665 -0.0045358427 -0.064723976 -0.14014949 0.09717666 -0.15713869
-0.05589728 -0.03823886 -0.23384254 0.023750447 -0.101594 0.029950494 -0.1243458 -0.15590267
0.13875233 -0.07101387 -0.17164584 0.1663449 -0.10545458 0.14594224 -0.04323478 -0.020979008
0.11300911 0.08890569 0.17242874 -0.21401584 -0.15560374 -0.3270037 -0.08600194 0.067979984
0.09023999 -0.0114289615 -0.0220541 0.0027119464 -0.15256648 0.05570314 0.056769494 -0.14970562
-0.03807002 0.19449046 -0.08593329 0.18020381 0.092894115 0.19613844 -0.18379861 -0.06097436
0.113609456 0.16123638 0.1060007 0.08968966 -0.115507625 -0.22597477 -0.024744486 -0.07802403
-0.06133616 0.11491293 0.22017005 0.009091332 0.004242047 -0.1123804 -0.06592527 0.12912473
0.010880769 0.07610244 0.04465138 0.16636646 -0.13083966 -0.09553776 -0.19480002 0.0070739924
-0.18959548 0.11126918 0.15969901 0.18322033 -0.0026518772 0.014662635 -0.04596685 -0.1893462
-0.022847459 0.14263399 -0.085058 -0.20368353 0.0070304926 0.19379763 0.066364266 -0.009143267

network.4.bias f4 [64]
00000000: 5afe 26be ac7d a33d cd67 f0bd 149b 8b3d
00000010: 4358 af3d 5cf2 5d3e 4c05 163c c21a d93d
00000020: 7fe6 5f3d 30ac df3b 5340 123e 3074 8e3c
00000030: 4a3d 693d 4e27 493b 1ee2 8c3d 56e8 373c
00000040: 145a 153e 323e 223e 3066 cabd f08c 93bd
00000050: 859a fa3d 18c7 9ebd 6aa2 633d 2c28 94bd
00000060: 6674 de3d 18b1 9a3c 0ce7 c0bd efb8 efbc
00000070: 99f7 d53d 6c6b a23a 0faf 1abd eba9 ae3c
00000080: 7d3c 3ebe edb5 43be 36a1 a93d e7b4 cd3d
00000090: 441f 0cbd e3f2 7ebb de58 8d3c 426d 0abe
000000a0: 279a ff3c 0c9e 1e3d d2b3 fb3d 75b7 e83b
000000b0: 615f 76bd 21e9 3ebc a574 ea3d da2a 353b
000000c0: 9812 683d 95e0 853e 7e83 cdbc e23a b7bd
000000d0: f073 013d a172 563e c3de 38be 2617 b7bb
000000e0: 35fb 423e 74a3 d23c 8cba a2bc 5feb 873d
000000f0: 2146 3fbd 8481 013e 0072 eabc b5e3 573d
-0.16307965 0.079829544 -0.117385484 0.06816688 0.085617565 0.21674484 0.009156536 0.10600807
0.054663178 0.0068259463 0.1428235 0.017389387 0.056943215 0.0030693593 0.06879066 0.011224827
0.14585143 0.15844038 -0.09882772 -0.07204616 0.122365035 -0.07752818 0.055574812 -0.07234225
0.10862045 0.018883273 -0.09419069 -0.029262988 0.10447616 0.0012391633 -0.037764605 0.021321258
-0.18577762 -0.19112368 0.08282702 0.1004427 -0.034209505 -0.0038902096 0.01725429 -0.13518241
0.031201435 0.038724944 0.122901574 0.007101948 -0.060149554 -0.011652262 0.114480294 0.002764395
0.056658357 0.26147905 -0.025087114 -0.08946778 0.031604707 0.20942165 -0.18053727 -0.0055874763
0.1904114 0.025712706 -0.019864343 0.0663669 -0.04669774 0.12647063 -0.028618813 0.052707393

network.6.weight f4 [64, 64]
00000000: 3b26 06be 8778 22be c0f7 6bbe 663c 5fbe
00000010: cef5 e9bd cf89 efba 3168 36be 41ac 68bd
00000020: 6553 f43c bdef b9bd a301 78be 5495 2bbd
00000030: 698e fb3d 93a9 87be 44e6 793d 4003 903d
00000040: fe92 cf3c 2b1b 9f3d 40f1 c9bd 338b 3cbd
00000050: 29d7 9abb d297 6dbe 08a0 67bd 9788 5ebc
00000060: 839b 4c3e 7598 5b3e 5f0b 963d 1e74 143d
00000070: 15e5 b33d b4b5 8cbd 2138 3ebe eff8 163e
00000080: 942f 01be a370 6cbe 9bc6 adbc dfeb 253e
00000090: 125b af3d 6314 ad3d 3b60 08be c572 223e
000000a0: 55d7 a33d afd9 d5bd e8c9 83bc 37d2 803e
000000b0: 35df 1dbe baba 513e ff26 25be 1757 033e
000000c0: 80cd 0b3e fe2d 1a3d 3cda 913e 8bf8 613e
000000d0: 7b23 083e f5ec 1ebe ec99 98bd 8f77 443e
000000e0: 46a2 743c 2660 81bc 5b1f 07be 04f1 0dbe
000000f0: 1ede f5bd 3b6d d23d bd78 d63d 4830 1b3e
00000100: 10e3 bdbd 8c3c 993d c6f9 123e 0a63 32bd
00000110: f8d1 013d 0161 3bbe 3625 253b b9aa e23c
00000120: 488b 473e 735c ce3d 321c 08be e339 eabd
00000130: f3ad 94bd d676 4b3e 86a3 30bd 486c 1fbe
00000140: 7da4 89bd 26ef b6bd 456d 273e c1b3 593e
00000150: 1553 91bc a79c 993e 6e45 0ebe 0767 ef3d
00000160: 6e71 0c3e 8459 57bd f330 263e 8a63 1d3e
00000170: a1ba 91bd a4b4 f0bd 0860 143e da7e d53c
00000180: 895f 633e dc08 413d 386c 003b 896a 40bc
00000190: c9dd a23e 4992 cfbd a1f6 89bd c345 9c3c
000001a0: 37ae d13d c9ec a73d 7099 1e3d 910d 28be
000001b0: 5494 c4bb 2653 14bc bf9a 0fbe 5584 00be
000001c0: 812f 1bbe 35ab 563e aa1c 653e b67f 093e
000001d0: 1a96 aebd fa59 203e 9f44 223e 1110 243c
000001e0: 6404 57bd d005 eb3d 4d0a 6e3e ebda 4bbd
000001f0: 32a8 2cbe 0432 28be 4f3e 363c 84f3 bbbd
00000200: cbd1 df3d ddfd 36be f4d4 533d 609d 063e
00000210: 86f6 6b3c 1dea 603e d485 51bd 2203 3dbe
00000220: a0d5 83be 6532 463d bc1e fd3d 3427 273e
00000230: 6fe3 26bd 2c1b 443d 0be6 f1bc c6d3 a43d
00000240: c476 5e3d 2e30 09bd 740e f03d 7b7e 863d
00000250: 8a28 a73d db51 563e acdb dabd 0f43 2a3e
00000260: bde7 393d fd05 483e 750e 3b3d ac4c 8abd
00000270: d207 253e 7a4c 7e3e d9f2 ffbd 55e1 ecbd
00000280: 5244 34be 9001 d4bd 0b34 e03c 43ef acbb
00000290: 7f41 7e3d c2e3 02be 56ba cd3b 3ff3 e038
000002a0: 7d81 ef3d 8d0a 9d3d a771 fa3d a1c6 b9bd
000002b0: 15d8 5ebd 5e17 453d d269 d2bd 5a2b cdbd
000002c0: d596 033d befa 15be 2a59 34be e681 f2bd
000002d0: b715 e03d 5a8c 86bd 4780 d93d 3100 cf3d
000002e0: 8c50 f53c f179 1c3e f018 1f3e 23f7 43bb
000002f0: 895e f1bd 4531 24bd 17eb 4f3e 56fd 1bbe
00000300: b9a2 c23d 75e0 3a3d 7cd5 7dbb 59a7 25be
00000310: f504 3ebe ec62 253d 7852 393e 5e95 dabd
00000320: feef 8c3d c516 f93d 4097 903e 1653 2b3e
00000330: f46d 8b3c fa26 463e 8e21 c5bb 7e35 50be
00000340: 8a7f c43c 0b37 c93c 1ee2 423e 7a23 573d
00000350: 8b7a debc b964 543d 73cf 973d e3f7 52bd
00000360: c6c2 18be ca2d d3bd d9e1 d03c f0b5 0bbc
00000370: 6264 0fbb 9f23 0f3e 740b 7a3d 24ff 81bd
00000380: 1b9c 553e 3a6b 733d d812 853d df68 533e
00000390: cb25 573e a20a a33c 4ab1 a33e d26e b03e
000003a0: 9590 39be 04c0 1cbe 1b4b fbbd 98d7 0439
000003b0: 5d8c da3d 07d0 d93c e05c 82be 68f0 6cbe
000003c0: e683 d4bd 4b00 523d 4b1a 8d3e 9a22 49be
000003d0: e512 0d3e e1b7 43be 7269 35be 7a3d 14bd
000003e0: 1d9c 2a3e 7f00 ec3d a34a 86bd ae1a 53be
000003f0: 46de 3a3e 4794 c23d 6b89 cb3d 46c0 9f3d
-0.13100521 -0.1586629 -0.23043728 -0.21800384 -0.11423837 -0.0018275323 -0.17813183 -0.0568049
0.029824922 -0.090789296 -0.24219374 -0.041890457 0.12283022 -0.26496562 0.061010614 0.0703187
0.025338646 0.07768854 -0.09860468 -0.04603119 -0.004725356 -0.23202446 -0.056549102 -0.01358237
0.19981198 0.21444876 0.073263876 0.03624355 0.08783928 -0.068705946 -0.18576099 0.14743398
-0.12615806 -0.23089842 -0.021212867 0.16203259 0.08562292 0.08451154 -0.13317959 0.15864094
0.08000056 -0.104419105 -0.016087487 0.2516038 -0.15417178 0.20481387 -0.16128157 0.12826191
0.13652611 0.037641518 0.28486812 0.22067468 0.13294785 -0.1552008 -0.07451233 0.19186233
0.014931267 -0.015792917 -0.13195555 -0.13861471 -0.12005256 0.1027474 0.10472248 0.15155137
-0.09271824 0.074822515 0.14353094 -0.043551482 0.031694382 -0.18298723 0.0025199181 0.027669298
0.19486725 0.10076227 -0.13292006 -0.11436822 -0.07259741 0.19869551 -0.043124698 -0.1556865
-0.06720827 -0.08932333 0.16350277 0.21259977 -0.017739812 0.3000233 -0.13893673 0.11689573
0.13715145 -0.052575603 0.1622961 0.15370002 -0.07115675 -0.117532045 0.14489758 0.026061464
0.22204413 0.04712759 0.0019595753 -0.01174415 0.31809834 -0.101353236 -0.06736494 0.019076234
0.10238307 0.0819946 0.03872055 -0.16411425 -0.0059991274 -0.009053027 -0.14023875 -0.1255048
-0.1515484 0.20963748 0.22374216 0.13427624 -0.08524723 0.15659323 0.1584649 0.010013596
-0.05249442 0.11475718 0.23246117 -0.049769323 -0.16861036 -0.1642533 0.011123254 -0.09177306
0.10928687 -0.17870279 0.05171676 0.13145971 0.0144020375 0.21964307 -0.05115302 -0.18458226
-0.2574892 0.048387904 0.12359378 0.16323549 -0.04074424 0.047877476 -0.029528638 0.08048205
0.054312482 -0.033493213 0.11721507 0.06567093 0.08162029 0.20929663 -0.1068643 0.16627143
0.04538702 0.19533534 0.045668084 -0.06752905 0.16116264 0.24833861 -0.124974914 -0.11566416
-0.17604187 -0.103518605 0.027368566 -0.0052775457 0.06207418 -0.12782195 0.0062783165 0.000107264605
0.1169462 0.07668028 0.12228709 -0.090710886 -0.05440529 0.048117988 -0.1027409 -0.10018034
0.032126267 -0.14646432 -0.17612138 -0.118411824 0.10941642 -0.06569739 0.1062017 0.101074584
0.029945634 0.15280892 0.15536857 -0.0029901944 -0.11785609 -0.04008605 0.20304523 -0.15233359
0.09503693 0.045624215 -0.0038731983 -0.1617712 -0.18556578 0.040377542 0.18097866 -0.10673021
0.068817124 0.12162546 0.28240395 0.16730914 0.017020203 0.19350806 -0.006015963 -0.20332906
0.023986597 0.02456238 0.1903157 0.052524067 -0.027158042 0.05185387 0.07412615 -0.051505934
-0.1491805 -0.10311468 0.025498318 -0.008527264 -0.0021879901 0.13978432 0.06104608 -0.06347492
0.20860331 0.05942843 0.06497735 0.20645474 0.2101051 0.019902531 0.31971198 0.3445955
-0.1812156 -0.15307623 -0.122701846 0.00012668816 0.106713034 0.026588453 -0.25461483 -0.23138583
-0.1037672 0.05126981 0.27559122 -0.19642106 0.13776739 -0.19113113 -0.17716005 -0.03619144
0.16661115 0.11523532 -0.065572046 -0.20615646 0.18248853 0.09500938 0.0993832 0.07800345

network.6.bias f4 [64]
00000000: 616a 2c3d acd9 f4bd 1e84 3d3c a53c 3c3c
00000010: b0bf 4fbe 50c0 fcbd 1b6a babc 5f26 56bb
00000020: 61fb 783d eaa3 95bc ff1c 203e 53d1 633e
00000030: 4fdc 37bd 0fde 63bc 4b9e 1a3e cd0e ca3d
00000040: 1552 f63d e40f 5d3d d13e 1dbd fff9 373c
00000050: a600 873e 2d70 25be cc1e 8dbc 65c8 713e
00000060: 984e 843c 8fad b7be 6032 7fbe 6762 9a3d
00000070: 191d 76be 0225 af3d 8d2c 86bd 2861 c43d
00000080: 5eaa af3e 5917 1dbd 1bd1 66be ca91 923d
00000090: 7350 223e 178c 3abd 1ecf 8dbc d405 0fbe
000000a0: c8e1 643e 74e3 163e 7cb6 a0bd 298a 2a3d
000000b0: 6e85 2bbc 37b5 adbd 8c9f 75be eace 6f3b
000000c0: b414 bcbd 76fb 5d3c 48e4 96bd 7436 fd3c
000000d0: a747 32bc 8b20 163e bf67 143d 306f 91be
000000e0: 7c9b 6dbd 52bf a0bd 5a72 22bd fd79 193e
000000f0: 0ef3 b1bd 9b6e c33d db78 a93d 5611 91be
0.04209364 -0.1195558 0.011567144 0.011489068 -0.20287967 -0.12341368 -0.022755673 -0.003267668
0.06078661 -0.018266637 0.15636061 0.2224782 -0.044887837 -0.013907923 0.15099446 0.09866104
0.12027375 0.053970233 -0.038389985 0.011229037 0.26367682 -0.16156073 -0.0172266 0.236116
0.016150758 -0.35874602 -0.2492156 0.075383 -0.24034537 0.085519806 -0.06551466 0.095888436
0.34309667 -0.038352344 -0.22540705 0.07156713 0.15851001 -0.045543756 -0.017310675 -0.13967067
0.22351754 0.14735204 -0.07847306 0.041635666 -0.010468824 -0.084818296 -0.23986644 0.0036591836
-0.09183636 0.0135487225 -0.0736776 0.030909754 -0.010881341 0.14660852 0.036231752 -0.28405142
-0.05800961 -0.078489915 -0.039659835 0.14987941 -0.08688937 0.09542581 0.082750045 -0.2833354

network.8.weight f4 [64, 64]
00000000: 1155 5bbe 2d9d 0cbe 4581 293d e863 0abe
00000010: 64fe 973e f7fa 583d 2d89 4a3e c699 f03c
00000020: d00d 66bb 356f b5be 736d ae3d da83 29be
00000030: 998c 623e d44d 453d ab93 0cbe 05d2 57be
00000040: d1d1 883e ac08 3d3d 3ef6 65be c1d4 c4bd
00000050: efc4 3ebe 769c 603e 82be 27be c143 8fbf
00000060: 5245 9d3c 8e78 653d a225 113e 358a 7e3d
00000070: cf7a c9bc 7c2e 093f 28aa 6b3e b6bb 45be
00000080: 4598 4d3e d6b5 6cbe 8c39 353e d567 cc3e
00000090: abff a3bd 4785 0dbd ab8d 3ebe c21e a3bd
000000a0: 478c 943e 21b5 9f3d 1bcf 94bd 00f7 133e
000000b0: fb2f 4b3d 955b 5339 7ecc da3d e2ce 5bbf
000000c0: 4026 8e3d c88a 15be 815e 56be ad5f 373d
000000d0: 3455 89bc 2bc1 d93d 0d69 723e a758 8a3e
000000e0: 160f 253d e806 96bd 2fe3 8f3d b03b d4bd
000000f0: b8c7 5a3e 9faa 583d 20b8 62be 1772 423d
00000100: d2d0 6d3c e922 c93d 205d e13d e318 41be
00000110: b700 60be d9f1 353e ad4c 18be c04f 2d3e
00000120: ee72 593e 5831 263e f0b5 cfbd 9cf1 0b3c
00000130: b5bc 6a3d f89d 62bd 4ece 983d 45f2 9a3d
00000140: 5ccb 0a3e 0a3c e8bd b267 afbe 0052 89bb
00000150: 875e 003e 0327 c1bd 744a eb3c 08aa 9bbd
00000160: 884b 233e be5f 673e 63ba 093e 26df 6dbd
00000170: c16a 8a3e 07f9 3b3d 3530 bbbd 7f36 8e3d
00000180: a98e a9be 05f3 22bd 322e 3ebe faa4 473e
00000190: fa94 d9bd 8ca0 38bd 66c7 e03d 063e 043c
000001a0: 9cfd 0fbe ae55 ebbd e9da 2b3e 3594 0e3e
000001b0: e4d2 c03d dc1e 84bc 9952 f93d afc1 053e
000001c0: 890e e13d 37ae 383d af78 423e 77d6 5b3e
000001d0: 5a76 38bd ba62 a63d 9351 fcbb 154f 29be
000001e0: 9bda 9d3d 06c7 f5bb f10e 333e e5f6 4fbd
000001f0: 9319 00be 3827 003e 6d62 61be ddff 11bc
00000200: 7575 363e ad7f b73d 8211 53be 0917 f73d
00000210: 1d13 c9bd 2435 05bd fba6 41be 6efa ff3d
00000220: c422 31be 0ef5 503c c2ca 21be 1b05 b1bd
00000230: 4d48 ccbd 39f9 9fbd 6810 28bd 3382 133e
00000240: a8e0 ddbb 134b 8cbe 7671 863c 7160 c0bd
00000250: 6f6b 74be 9cd7 c9bd bc47 82be 289d 0a3e
00000260: 7312 49be 2e71 13be 18c2 50be 0792 903e
00000270: a06f 30be 0507 debd 3960 bdbc ed89 bcbd
00000280: 5c00 babd 5e57 723c 05f3 ebbd 0043 853d
00000290: a8dd 843d 70bd a03d cf78 1a3e 84e5 8d3d
000002a0: ada2 153e 8b0d 2b3e b075 db3d 97df 2cbe
000002b0: a453 72bd 4f9e 833d 8265 c2bc 7a61 813e
000002c0: 2591 013d 5204 6e3e 0a03 323e faa7 813d
000002d0: ea95 02be ca89 a8be 997c e8ba 9d8a 0dbe
000002e0: 3150 1e3c e50a 05be 635d 4a38 63c3 a83c
000002f0: 3728 6e3e a2d4 333d 1cc7 edbd 71d9 3fbc
00000300: 726e 863b b54f 10bd 19e7 353e 394d 983d
00000310: c43b 39bd 3539 a6bd 933f 2bbd 6c60 ed3d
00000320: fd7d 6abd 78e2 0c3e ed95 96bd d164 a63d
00000330: dda3 d7bd 0070 f0bd 151d 15be 6234 7e3d
00000340: d8ce d93d d1a0 9abe 7f30 6abd ecc4 fcbd
00000350: 5a41 29bc 9581 98bd 989f 4b3e ea6e 413e
00000360: 4eac a13c 403a fe3d d1f9 8cbd 870b c3bd
00000370: e7e1 52be 16f8 7ebd b95e 56be 6576 0bbe
00000380: 1789 443d 3799 05be f074 a83d efa3 54be
00000390: 27d2 84bc 392a 383e 9015 82bd 6f12 833d
000003a0: e54a 2a3e 975f c23b 8d11 fe3d 0b66 8dbe
000003b0: 9c3d 81be 628b 35bb 55df 9abd a93a 2cbe
000003c0: c03e 503e b636 69bd 3a71 023e 14e4 a03c
000003d0: d631 b5bc 9ea9 18be e442 bbbd adf0 aa3d
000003e0: 3b70 65bd 5f5a 203e 9598 6ebe cc95 eb3d
000003f0: e7d4 873e 2443 05be bb27 a53d 1e04 503c
-0.21419169 -0.13731833 0.041383047 -0.13514674 0.29686272 0.052973714 0.19778891 0.0293702
-0.0035103448 -0.35436407 0.085169695 -0.16554204 0.22123946 0.048169926 -0.13728206 -0.2107621
0.26722577 0.04615085 -0.22457215 -0.09610892 -0.18629812 0.21934685 -0.16381267 -1.1192552
0.019198094 0.056023173 0.14174512 0.062143523 -0.024594693 0.53586555 0.23014128 -0.19309887
0.20077617 -0.2311624 0.17697734 0.39922968 -0.08007749 -0.03455093 -0.1860873 -0.07964851
0.29013273 0.077982195 -0.07266065 0.14449692 0.049606305 0.00020156645 0.10683535 -0.85862553
0.06940889 -0.14603722 -0.20934488 0.044768978 -0.01676426 0.10632547 0.23672886 0.2702076
0.04029759 -0.07325536 0.07025754 -0.10362947 0.21365249 0.052897092 -0.2214055 0.047472086
0.014515119 0.09821112 0.1100409 -0.1885715 -0.21875273 0.17768039 -0.14873 0.16924953
0.21235248 0.1622976 -0.10142124 0.008541491 0.05730887 -0.055326432 0.074612245 0.075657405
0.13554138 -0.113395765 -0.342588 -0.0041906834 0.1253606 -0.09431269 0.028722025 -0.0760079
0.15946782 0.22595116 0.13450007 -0.05807414 0.27034572 0.045891788 -0.09140054 0.06943988
-0.33116654 -0.039782543 -0.1857231 0.19496527 -0.10624118 -0.045074984 0.10975532 0.008071428
-0.14061588 -0.114909515 0.16782726 0.13923724 0.09415224 -0.016127996 0.121739574 0.13062166
0.109891005 0.04508802 0.1899135 0.2146853 -0.045034744 0.08124299 -0.007700154 -0.16534074
0.07707711 -0.007500532 0.17486168 -0.050772566 -0.12509756 0.12514961 -0.22010203 -0.0089111
0.17818244 0.08959899 -0.20612147 0.120649405 -0.09818099 -0.032521382 -0.18911354 0.124989375
-0.17298418 0.012753738 -0.15800002 -0.08643552 -0.09974728 -0.07811207 -0.04103127 0.14405136
-0.006771166 -0.27401027 0.016411524 -0.09393395 -0.23869108 -0.09855577 -0.25445354 0.13536513
-0.19635944 -0.14398643 -0.20386541 0.2823641 -0.17230082 -0.108411826 -0.023117172 -0.09205995
-0.090821 0.014791338 -0.11520962 0.0650692 0.0648759 0.07848632 0.15085147 0.06928542
0.14612837 0.16704385 0.107158065 -0.16882168 -0.059161797 0.06426679 -0.023730043 0.2526968
0.03163256 0.23243836 0.17383972 0.06330867 -0.127525 -0.32917625 -0.0017737328 -0.13822408
0.009662674 -0.12992437 4.8247526e-05 0.02060098 0.23257528 0.043903954 -0.11610243 -0.011709557
0.0041025216 -0.035232265 0.17763938 0.07436604 -0.045223013 -0.0811638 -0.041808676 0.11590657
-0.057249058 0.13758266 -0.07352815 0.08124698 -0.10529301 -0.11740112 -0.14561875 0.062061675
0.106351554 -0.30200818 -0.057175156 -0.12342247 -0.010330522 -0.07446591 0.19885099 0.18889967
0.019735482 0.12413454 -0.06883586 -0.09523683 -0.20593987 -0.062248312 -0.20934571 -0.13619383
0.0479823 -0.13046728 0.08225429 -0.2076566 -0.01621349 0.17984857 -0.06351769 0.064
0.16630132 0.0059318054 0.12405691 -0.27616915 -0.25242317 -0.0027701487 -0.075621285 -0.16819252
0.20336437 -0.056936942 0.12738505 0.019640006 -0.02211849 -0.14908454 -0.09143618 0.083466865
-0.056015234 0.15659474 -0.23300393 0.11503181 0.2652962 -0.13013893 0.080642186 0.012696294

network.8.bias f4 [64]
00000000: 9070 02bd a66e 40bd c978 963d b49d bbbd
00000010: f556 843a 35cd 4abe 2905 36be f5be 01bc
00000020: 783d 993d bd76 d8bd e838 bb3c 6e42 053c
00000030: 06e8 0fbe f8f0 8fbd 61b0 88be 03c2 943c
00000040: c4a9 303d 01d2 27be 1fb3 24bd 878c 153b
00000050: f234 af3c e75b e53c f5a3 29be 91ac 263e
00000060: a20f 35be b34b a03e dcf0 0cba c847 fbbd
00000070: 5a6a 2ebe edc2 143e 1cb9 133e 7545 cf3d
00000080: 4b89 d7bd 82ba 8ebc e9a0 0fbe 3b96 08be
00000090: 3110 f73d 8ea4 343d 26c4 5abe 069c 10be
000000a0: a72a 133e 9b28 9dbe ef41 7c3d 9d74 563d
000000b0: 9049 d3bd 92fc 1fbe 6fa9 ff3d 338e 8abd
000000c0: 943a b23d fd02 b8bd 53a8 cd3c 3d76 773d
000000d0: a26d e03d 7a5e 5abb 70b2 ba3d 6752 d6bd
000000e0: 88ca b6bd b979 26bd a5b1 2ebe 15be 863b
000000f0: 3cdb 8ebc d3b4 9d3d c6d2 5c3c 463c b73b
-0.03184563 -0.046980523 0.07347257 -0.09160939 0.0010096716 -0.19804843 -0.17775406 -0.007919063
0.07482427 -0.105695225 0.022854283 0.008133514 -0.14053354 -0.07028383 -0.26697066 0.018158918
0.04313065 -0.16388704 -0.040209886 0.0022819357 0.021387551 0.027997924 -0.16566451 0.16276766
-0.17681745 0.31307754 -0.0005376467 -0.122695506 -0.17032757 0.14527483 0.14426082 0.1012067
-0.105242334 -0.017422918 -0.14026226 -0.13338558 0.12063635 0.044102244 -0.21363887 -0.14122018
0.1437174 -0.30695042 0.061586317 0.052357305 -0.10316765 -0.15623692 0.12483489 -0.067654036
0.08702579 -0.08984945 0.025104677 0.060415495 0.10958411 -0.0033320473 0.091160655 -0.10464936
-0.089253485 -0.040643428 -0.17059954 0.004112015 -0.017438523 0.07700505 0.013477987 0.005591902

network.10.weight f4 [64, 64]
00000000: 4574 c63d 0b91 97bd 1187 e23c 5b3b 9cbc
00000010: 057d 043e d522 89bc bde4 f6bd f2a4 a9bd
00000020: 70d6 913d e737 453d 52e1 dfbc c6d6 2a3d
00000030: c898 48be 6026 86be 64fc 143e 291d ce3d
00000040: e9d1 323d 7c06 8a3d eb9c d43d ee32 95bc
00000050: b616 273c a1d1 4fbd 9758 3abc 9625 87be
00000060: 4ec0 8ebe cbac 34bd 59bf 4abd e2fc e73c
00000070: beaf 4d3d 21ce 573e 9b2a 0d3e 4aed c2bd
00000080: 1337 42be a7b1 a23c ae8e ae3d 6407 a7bd
00000090: 679a c23d fae8 11be 1f4c b4bd 051b 29be
000000a0: ccda 21bd 4a0a 31be 912d 35be 6dbf 4b3b
000000b0: e8c9 f73d 3457 5e3e 72e0 f0bd 3bbe 483e
000000c0: dd66 1dbe 799f af3d 90b2 95bd 866e e1bd
000000d0: 2462 fe3d 7031 703e eb0d 003e 1681 aa3d
000000e0: 47eb 51be 66a7 bb3c 4eb4 613c 6e52 dcbb
000000f0: f0da 2f3e 8893 143e e54e e4bd 19a3 303e
00000100: de92 0ebe 1ba9 60be 047e 36be 4eeb afbd
00000110: 1bee d63d 6609 efbd b265 62be f64e 51bd
00000120: 79d9 87bd 9614 a4bd a5ea 00be e8a8 8b3e
00000130: 6554 1fbe 415e 17be 3e46 f6bd 9f2e 843e
00000140: bba0 12be efd0 b1bb d2fe d7bc d970 f3bd
00000150: 4c2b 41bd 0073 5b3e e902 8d3d 9caa babb
00000160: a412 843c 66b9 b13d b6da 37bd 479f 4abd
00000170: 826e bb3c 835b 343e 97d9 763e 264a 3e3e
00000180: f93d 59be 1055 423e e44b e73d db95 093e
00000190: 8a55 2fbd 7e0e 8fbd 3cc5 52be 16aa edbc
000001a0: 4cf9 19be 5482 ab3c 69c3 433d c0ce 613e
000001b0: 503b 99be 8645 543e 0a6d 243e 365f 3fbc
000001c0: 8eec 293e e38c e7bd 43e3 a73c b2a9 cb3d
000001d0: ea34 233d 87cc 18be e1f6 ef3d c3e9 953c
000001e0: 6efc 34bd 50db 243d 4892 0ebe cd4a 86be
000001f0: 3cd6 683e 5997 2bbb d81c 103c f9bb cd3c
00000200: 18d5 be3d f1b9 473e e9ce d33d 1701 0f3e
00000210: 8688 fdbd 5d05 3c3c 132e 35be ece1 8f3d
00000220: 9915 bb3c 30c3 04bc 2e22 c03d 5552 26be
00000230: 83ab 8ebc cbcb 82be 3194 5ebe dfe1 823d
00000240: 93e3 22be 4b92 bcbd 0316 ba3d 1e93 e53b
00000250: e5ac c43c 1b86 463e c96c 42be 3cb2 fabd
00000260: 8f7f 17be 37e0 783e fc15 7ebc 37d6 8ebe
00000270: b861 2fbe 4b50 d23c a24b 763e db17 033c
00000280: a829 293e 8885 2bbe 4bb1 b73b 7555 96bd
00000290: 4681 0ebe 9abc 563e 101a 79be 8950 063d
000002a0: a92c 3b3d 4dfc 55be 1afd 5fbd 6f50 4dbd
000002b0: 6122 1bbe 5be7 dc3d bd77 29bd a0b4 08bd
000002c0: fa50 82be 5b8c 7dbe 192b f33d 706e 1f3e
000002d0: 7738 733d 4e10 a43d 9e05 9cbe 8d25 963d
000002e0: e401 e8bd 69e5 aebd 2330 88be 5f6f afbd
000002f0: cdb3 98bd f001 133d 9dd7 33bd 5fcb 303e
00000300: 4adc c8bc 0580 783e ec70 57bd fa88 163b
00000310: 6c1c 0fbe bf2a 4cbd 9b35 843d 37f6 0c3e
00000320: 7611 7dbe 7fd6 a2ba da76 f63d 76c7 1f3e
00000330: 018c ef3c 24d2 bd3c 1f56 953d 3140 093e
00000340: 44a9 083e 36f4 53bd d781 acbd be81 92be
00000350: d7c1 c43d 6f00 213e 89ae cc3d ce64 aabd
00000360: 3cbb f1bd 1519 efbb 88fa c0be 5d8b 053e
00000370: 2d49 e23e 7337 603d 0522 bcbd 05b7 203d
00000380: 5af9 07be d93a 5fbb 111a 623d 0494 873b
00000390: 598e 4d3d 43c3 7f3c 4c32 71be e1b4 413e
000003a0: 2204 3fbc 9ce1 313e f84b 58bd 49e4 d9bc
000003b0: 3edb 463e 3635 623e 8cde 8c3c f938 c93d
000003c0: 749c f53d 152f a13d f732 70be 9ef6 cd3d
000003d0: f553 1dbe a0e9 a6bd 7dd6 973d 2756 a4bc
000003e0: bdfa 7c3e d59a 683e 0ecd 513c 2c15 733d
000003f0: c7ce 363e 0d73 863e ac7f 27be 26ed 453e
0.096901454 -0.074007116 0.027652295 -0.019071272 0.12938316 -0.016740242 -0.12055347 -0.08283414
0.07120979 0.048149016 -0.02732912 0.04170873 -0.19589531 -0.26201153 0.14549404 0.100641556
0.043657217 0.06739518 0.10381492 -0.018212762 0.010198286 -0.050737027 -0.0113736605 -0.26395863
-0.27881092 -0.0441101 -0.04949889 0.028318826 0.05021643 0.21074726 0.13785784 -0.095179155
-0.18966322 0.019860102 0.08523308 -0.081557065 0.09502106 -0.1424903 -0.088035814 -0.16514213
-0.0395153 -0.17289081 -0.17693163 0.003108944 0.120990574 0.21712953 -0.117615595 0.19603817
-0.1537127 0.08575339 -0.07309449 -0.11007409 0.124210626 0.23456359 0.1250531 0.083254024
-0.20499907 0.02290697 0.013775898 -0.0067236936 0.17173362 0.14509404 -0.111478604 0.17249717
-0.13923213 -0.21939509 -0.17821509 -0.08589803 0.10494634 -0.116717145 -0.22109106 -0.051100694
-0.066332765 -0.08011739 -0.1258951 0.27277303 -0.15559538 -0.14782049 -0.120251164 0.2581682
-0.14319126 -0.005426518 -0.026366625 -0.11886758 -0.04716043 0.21430588 0.06885321 -0.0056966078
0.01612217 0.0867794 -0.044886313 -0.049468305 0.022879843 0.17613034 0.24106441 0.18582973
-0.21215047 0.18977761 0.11293772 0.13436072 -0.042806186 -0.06985186 -0.20583051 -0.029011767
-0.15036505 0.020936169 0.04779378 0.22051525 -0.29928064 0.20729646 0.1605722 -0.011680415
0.16594145 -0.11306169 0.020494109 0.09944476 0.039845385 -0.14921771 0.1171701 0.018299943
-0.04418605 0.040248215 -0.1392299 -0.26228943 0.22737974 -0.002618274 0.008795939 0.025114046
0.09317988 0.19504525 0.10342199 0.1396526 -0.123795554 0.011475888 -0.17693357 0.07025513
0.022837447 -0.008103177 0.09381519 -0.16242345 -0.017415768 -0.25546107 -0.21736218 0.06390738
-0.15907125 -0.09207591 0.0908623 0.007006063 0.024008224 0.19387095 -0.1898681 -0.12241027
-0.14794753 0.24304281 -0.015508171 -0.27897808 -0.1712712 0.025673052 0.24052289 0.008001293
0.16519797 -0.16750157 0.0056058518 -0.073405184 -0.13916501 0.20970383 -0.24326348 0.032791648
0.045696888 -0.20897026 -0.054684736 -0.050125536 -0.15149833 0.10786315 -0.041373957 -0.033375382
-0.25452405 -0.24760573 0.118734546 0.15569472 0.05938002 0.08010922 -0.30473036 0.07331381
-0.113284856 -0.0853985 -0.26599225 -0.08566164 -0.07456169 0.03589052 -0.043906797 0.1726508
-0.024519105 0.24267586 -0.052597925 0.0022969828 -0.13975686 -0.049845453 0.06455537 0.13765799
-0.24713692 -0.0012423544 0.12034388 0.15603432 0.029241564 0.023171492 0.07291817 0.13403393
0.1334582 -0.05174657 -0.084232025 -0.2861461 0.096072845 0.15722822 0.099942274 -0.08320008
-0.1180329 -0.007296691 -0.3769114 0.13041444 0.44196454 0.05474038 -0.09186176 0.03923704
-0.13278714 -0.0034062176 0.05520064 0.004137518 0.05018458 0.015610519 -0.23554343 0.18916656
-0.0116587 0.1737122 -0.052806824 -0.026598113 0.19419572 0.22090611 0.017195962 0.0982532
0.11992732 0.07870308 -0.23456942 0.10056804 -0.15364058 -0.08150029 0.07413957 -0.020060612
0.24705024 0.22715314 0.0128052365 0.059346363 0.17852317 0.26259652 -0.16357297 0.19328746

network.10.bias f4 [64]
00000000: d903 013e 2235 223e c395 b23e 7d5f 9f3d
00000010: 3356 0fbc 20c0 563e 81db 1f3b 71e3 343d
00000020: df21 e6bd c5d6 03bd dd11 133d 8d48 c6bc
00000030: 4e3a a73d c124 343e b955 2d3d ffce 9ebd
00000040: 1a22 fd3c a81a 44be 441c 80bd 7dd2 293e
00000050: e61f 8e3e 1a11 b1bd ee44 09be eeb6 6d3c
00000060: dabd b4bd b5fb ca3c 276d 733e b209 a33d
00000070: 3030 3e3d 3feb 42be fb65 f93c 4d68 853d
00000080: ef46 65be 814d 89bd 742a 493e 9516 f13c
00000090: dc7f 76bd 5934 233c 9735 f83d e569 febc
000000a0: d926 533e bacb 0ebe d73d 893c 79ce 543e
000000b0: 2612 a03d 7485 bcbd 79ba 223e afa2 69be
000000c0: bcfe 643d 5892 b33d 6390 53be 01e6 98be
000000d0: 9f1b babd 12ec de3b 1dd6 0c3e 39e2 8e3b
000000e0: c883 b9bc 286c fb3d d24b 96bd 913e 8c3d
000000f0: 9ef7 593d ab93 06be 1d54 2f3e 734b c6bd
0.12599124 0.15840581 0.34879884 0.07781885 -0.008748579 0.20971727 0.002439231 0.044162218
-0.11236929 -0.032187242 0.035905708 -0.024204517 0.081654176 0.17592146 0.04231808 -0.07754325
0.03090005 -0.19150794 -0.06255391 0.16584201 0.27758712 -0.0864584 -0.13405201 0.014508946
-0.08825274 0.024778226 0.23772107 0.079608336 0.046432674 -0.19035052 0.030444136 0.065140344
-0.2239034 -0.06704236 0.19645101 0.029429713 -0.06018053 0.009961211 0.121195965 -0.031056354
0.20620288 -0.13944903 0.01675312 0.20781888 0.078159615 -0.09205142 0.15891446 -0.22815965
0.055906996 0.08768147 -0.20660548 -0.2986298 -0.090872996 0.006803044 0.13753553 0.004360464
-0.022645846 0.122764885 -0.0733868 0.06847871 0.05321466 -0.13142268 0.1712193 -0.096823595

network.12.weight f4 [5, 64]
00000000: be79 59bd 589e 423e 7c7b 703e e2f5 92be
00000010: cd77 aebc 888f e83d 629a 983d 2c8f a7bd
00000020: 4906 25be 1be2 953c 7f94 70be 1998 8cbe
00000030: 5a1d 65bd 7c13 333d 05b1 be3e 711b 87be
00000040: c181 f43d 15df f1bc 56be ccbd 3709 323e
00000050: 54b0 03bd 7dd7 c33b 051e c6bd ba23 86bd
00000060: a3cf 81bd d705 82bb 9231 3c3e eda2 4c3d
00000070: bf8c b9bd 0756 41be 8734 c73e bf52 b53e
00000080: 9cd5 3abc 6b35 57bc 1c66 343e 6a92 71be
00000090: b0f3 1c3d 26d0 babe fff4 2cbd 7b4d 91be
000000a0: 8a1e 43be cab4 9b3d 8f2e e03d e64b 2dbe
000000b0: aa21 573e 69e6 f83c e38b 02bd ba20 8e3e
000000c0: 524e 1d3d 5ba8 3d3e 65e4 13bd 732e 0bbe
000000d0: 446f 5cbd 60a0 a1be 90ff efbd 902b 66bb
000000e0: 2f81 b7bd c72b 383d ab3d 563c b90f a93d
000000f0: b0c9 1bbe 5506 d23c 9223 8f3e 9913 713d
00000100: c020 3abc 18df c7be 2d3d f53e 0d59 7e3d
00000110: f3da bebc 35c0 4f3e bc55 d93c bfed 3d3d
00000120: 6737 85bd cb09 943d c330 26be c508 13bd
00000130: b8e7 d2bd 1724 a3be 44d2 5e3d 4b69 033b
00000140: 4f98 463d d255 60bd 6df9 83bc c2f7 edbd
00000150: fea3 f33b c7d3 9bbd 6a17 6abc 894a 383d
00000160: 8e9c 5ebe 89d4 f53c 17c1 e53d c853 fe3d
00000170: a73a 10bd b105 293e f22a a5bc 7660 2dbe
00000180: 5868 633d a9f2 053e a5f6 063e e4c9 d4bd
00000190: 3d24 8f3c 0a8d 883e 1b22 abbc 6ce2 a73c
000001a0: b215 f2bd cd39 35be 077c 2fbd 2ea9 06bd
000001b0: a218 333e 66ba 9cbc 2ef2 013e 41e1 6a3d
000001c0: 6a66 7ebe 97b7 6e3e a199 cabc 8cb6 0bbe
000001d0: c3dd be3d 4555 103e d203 7b3d 47d4 dcbd
000001e0: ea90 2bbd c5c2 213e 328e edbd 5af3 68bc
000001f0: 072f 50be ce05 343c c2d5 4d3e 6f84 2a39
00000200: 6ccc bf3c c8c9 b13d 63e2 873e a320 9a3e
00000210: dfbc 683e b0b6 dc3e 7e6c cc3e 892a b33f
00000220: 8965 eabe a460 4e3f 295d 6a3e bb70 5bbf
00000230: abaa 58be b8c1 a13d 1aae e53e a242 803e
00000240: 1a1c 6ebf 5ed6 b4be 9da6 05bd 4b61 003f
00000250: fbe3 ce3f 96ec 50be ff67 a43e 8cc5 813e
00000260: 1d8b a73e f7d8 48bf a25d c83e 5244 8f3e
00000270: c891 9e3e f31e a3bf 5d5b be3e 6425 38bf
00000280: cc18 bbbe 23aa 133f b644 2abe a2be 31be
00000290: bd22 a0bf 9b38 323e 9e82 943f 7728 04be
000002a0: 8378 a33e e864 073e 1039 093f 744b 383e
000002b0: 0241 8c3e eb74 42bf 0df5 353c 2b3b 89be
000002c0: f316 88bd eabd c03e 852e 4cbf 9250 efbd
000002d0: 1aa9 50bf a84d be3d 370f 52bf 8f9c c7be
000002e0: cf82 26bf 4167 6fbe 67cb 873e db41 f13e
000002f0: c4e4 c3be 8cb2 bfbe 88fe 1abe 577f cbbc
00000300: 3a2a 163e aedf 4abd f920 c0bb bfe6 163f
00000310: 3680 44bf f394 903e 16f4 edbc a7dd 95be
00000320: 16d8 db3b 4847 48be 8671 fb3d a135 a4be
00000330: 75b2 30bf f1f2 88be 3cba ce3e f7db 98bf
00000340: b0cc 733d 6c5c 41bd 0894 993e f87a 843e
00000350: 9b89 d5bd 66f3 0abf 5adc 523f 0ec6 41bf
00000360: 64aa c33d 9817 afbd bdd2 c3be 4e83 3ebf
00000370: 77b3 ad3e 087f 15be 9831 8dbf f5fa 0a3c
00000380: e550 4ebe 9526 8cbe 767a 2c3f b34b 0a3f
00000390: b710 a63e 09c1 4abe 5f88 703d 6a9b 02bf
000003a0: 9953 51bf d37d 563d 61f6 b3bd 0910 b0bd
000003b0: 25c7 db3d a8a3 27be 6f5b fe3d d149 a3be
000003c0: 1b36 5e3d a488 e83b 216c e3be 47e9 013f
000003d0: e7bd a53e ef81 4e3e 7e08 c03e c5af 97be
000003e0: 1c70 853e 96ea 07bf d04a ccbe f1ae f4bb
000003f0: be7a f0bd 2b82 e23e 8ac3 a73e 0661 8cbe
-0.053094618 0.19005716 0.23484606 -0.2870322 -0.02129736 0.113555014 0.07451321 -0.08181605
-0.16115679 0.018296292 -0.23494147 -0.2745979 -0.055936195 0.043719754 0.3724443 -0.26388124
0.11938811 -0.02952532 -0.09997241 0.17386328 -0.03215058 0.005976616 -0.096736945 -0.06549783
-0.06338432 -0.0039679813 0.18378285 0.049960066 -0.09060048 -0.18880473 0.38907263 0.35414693
-0.0114034675 -0.013135294 0.17617077 -0.23591009 0.038318336 -0.3648693 -0.042225834 -0.28379425
-0.19054618 0.07602842 0.1094638 -0.16923484 0.21008936 0.030383306 -0.031871688 0.27759343
0.03840477 0.18521254 -0.036106486 -0.13591938 -0.05381705 -0.3156767 -0.117186666 -0.003512118
-0.08960187 0.044963624 0.013076226 0.08254952 -0.15213656 0.025637785 0.27956825 0.05885658
-0.011360347 -0.39037395 0.47898236 0.062096644 -0.023297762 0.20288165 0.02653014 0.04636931
-0.06504708 0.0722843 -0.16229539 -0.035897035 -0.10298103 -0.31863472 0.054399744 0.0020051773
0.048485097 -0.054769345 -0.016110146 -0.11619522 0.007435321 -0.07608753 -0.014287809 0.044992957
-0.21739408 0.030008571 0.112184696 0.12418324 -0.035212185 0.16506077 -0.02016208 -0.16931328
0.05551943 0.13080849 0.13180025 -0.1039007 0.017473334 0.26670104 -0.020890286 0.020493709
-0.11820544 -0.1769783 -0.04284289 -0.032876186 0.17489865 -0.01913185 0.1269004 0.057343725
-0.24843755 0.23312221 -0.02473146 -0.13643855 0.093196414 0.14095028 0.06128294 -0.10782676
-0.041886248 0.15796955 -0.11599387 -0.014218176 -0.2033044 0.010987712 0.20101073 0.00016261799
0.023412906 0.08681065 0.26539907 0.30103025 0.22728299 0.4310813 0.39926523 1.3997356
-0.4578059 0.8061621 0.228871 -0.8571889 -0.21158855 0.07898277 0.4485939 0.25050837
-0.9301163 -0.353198 -0.032629598 0.5014846 1.6163324 -0.2040275 0.32110593 0.2534603
0.32723323 -0.7845606 0.39133936 0.27981812 0.30970597 -1.274382 0.3717908 -0.71932054
-0.36542356 0.57681483 -0.16627774 -0.17357877 -1.2510601 0.17404406 1.1602361 -0.12906061
0.3192788 0.13222086 0.53602695 0.17997533 0.27393347 -0.7595965 0.011105788 -0.26802954
-0.06645002 0.37644893 -0.79758483 -0.116852894 -0.8150803 0.092921555 -0.82054466 -0.38986632
-0.6504335 -0.23379232 0.2652237 0.47120556 -0.38260472 -0.37440908 -0.15136158 -0.024840994
0.14664546 -0.049529724 -0.0058633056 0.5894584 -0.76758134 0.2823864 -0.029047053 -0.2927067
0.006709109 -0.19558442 0.12277512 -0.32072166 -0.69022304 -0.2674785 0.4037646 -1.1942128
0.059521377 -0.04720728 0.2999575 0.25875068 -0.10426637 -0.54277647 0.8236748 -0.7569283
0.09553984 -0.08549422 -0.38246718 -0.74419105 0.33925983 -0.1459924 -1.103076 0.008482684
-0.20148046 -0.27373186 0.6737436 0.5402176 0.32434627 -0.198002 0.058723804 -0.51018393
-0.81768185 0.05236609 -0.087872274 -0.085968085 0.10731343 -0.16371024 0.12419783 -0.31892255
0.054250818 0.007096367 -0.44418433 0.5074658 0.32371446 0.20166753 0.3750648 -0.2962629
0.26062095 -0.53092325 -0.39900827 -0.0074671437 -0.11742161 0.44239935 0.32766372 -0.27417773

network.12.bias f4 [5]
00000000: 4f83 b03e 017d 513d 787a 203f b59f a83e
00000010: 99fc 843d
0.3447518 0.051144604 0.6268687 0.32934347 0.06493492
