Clean/models/no_xavier.pth (torch, 90448 bytes, 14 tensors)

network.0.weight f4 [64, 2]
0.35796094 0.5492982 -0.5551238 0.58007497 -0.06423292 0.15968125 -0.26292557 -0.7246853
-0.31212586 -0.8269384 -0.26811656 0.801799 -0.36854097 0.26249138 0.2835096 -0.8638407
0.27931994 -0.64366215 0.32722327 0.11886905 -0.47507355 -0.7006069 -0.29214227 1.4892493
-0.1707417 -0.6859111 -0.035070796 -0.19763047 -0.43236563 0.4959157 0.55008614 -0.6244073
0.05707618 0.2317293 -0.22597516 1.0575949 0.24132927 -0.7319838 -0.14182633 0.2608
-0.81326026 0.23244445 -0.8901412 0.44992614 -0.3950743 0.10813094 0.11591263 0.9623053
0.60770535 -0.14422378 -0.21542154 -0.33542675 0.4593869 -1.0929126 -0.57952636 0.43208534
-0.6767363 -0.48334643 0.767936 -0.0803072 -0.38461527 -0.68650746 0.02935104 -0.30745164
-0.36237973 -1.3075145 -0.48467964 -0.5121675 0.6730387 -0.53816736 0.14168024 0.275963
0.5030664 -0.6598311 0.09057289 -0.8492723 -0.2660337 -0.8970391 -0.033717386 1.3660315
-0.5326621 1.0044558 -0.5371818 -0.6317902 0.56243885 -0.73137903 0.5886102 -0.85370666
-0.4268758 -0.9940245 0.53847724 -0.97865415 0.90519935 -1.4099624 -0.21455142 -0.801608
0.45828456 -0.6841191 0.3882019 -0.50390726 0.20103453 0.6828091 0.9420551 -0.84520954
-2.1605334 -0.7862019 -0.54265845 -0.82906085 0.33827472 -0.22007334 -0.023402672 -1.0857484
-0.19829439 1.0047286 -0.50109 0.4791895 0.1302925 -0.88429993 -0.5652938 0.6051975
0.30395526 -0.44607198 -0.5609827 0.3490144 -0.13225128 0.34109756 -0.321943 1.0523028
00000000: a846 b73e cf9e 0c3f 981c 0ebf cb7f 143f
00000010: 8d8c 83bd 7b83 233e 2e9e 86be fa84 39bf
00000020: f6ce 9fbe 3cb2 53bf 9346 89be b342 4d3f
00000030: 67b1 bcbe 4565 863e 2c28 913e aa24 5dbf
00000040: 0603 8f3e 0bc7 24bf cf89 a73e 9e71 f33d
00000050: d73c f3be f95a 33bf ac93 95be b99f be3f
00000060: ead6 2ebe df97 2fbf 65a6 0fbd a45f 4abe
00000070: 075f ddbe aae8 fd3e 72d2 0c3f 28d9 1fbf
00000080: b6c8 693d 724a 6d3e 0866 67be 455f 873f
00000090: 051f 773e 4a63 3bbf ec3a 11be 9487 853e
000000a0: d331 50bf eb05 6e3e 4be0 63bf b85c e63e
000000b0: 2e47 cabe c173 dd3d 9a63 ed3d a459 763f
000000c0: 9492 1b3f 66af 13be 7797 5cbe 0ebd abbe
000000d0: c234 eb3e 8fe4 8bbf d75b 14bf 4a3a dd3e
000000e0: 973e 2dbf 2f79 f7be 7497 443f 1a78 a4bd
000000f0: 4bec c4be f4be 2fbf 9871 f03c 4d6a 9dbe
00000100: d689 b9be a35c a7bf ee27 f8be 691d 03bf
00000110: 444c 2c3f 56c5 09bf a014 113e 064b 8d3e
00000120: f6c8 003f b1ea 28bf 487e b93d e969 59bf
00000130: 9235 88be 5ba4 65bf 3e1b 0abd 1fda ae3f
00000140: 8b5c 08bf 0292 803f bf84 09bf 01bd 21bf
00000150: fefb 0f3f a83b 3bbf 28af 163f 858c 5abf
00000160: 778f dabe 6478 7ebf a5d9 093f 1489 7abf
00000170: 25bb 673f a679 b4bf 5eb3 5bbe 2f36 4dbf
00000180: 46a4 ea3e 6e22 2fbf 66c2 c63e 1100 01bf
00000190: ffdb 4d3e 94cc 2e3f 862a 713f a75f 58bf
000001a0: 2e46 0ac0 8744 49bf aaeb 0abf 553d 54bf
000001b0: 5832 ad3e e85a 61be f6b6 bfbc cef9 8abf
000001c0: af0d 4bbe f29a 803f 6f47 00bf 5358 f53e
000001d0: 666b 053e 7b61 62bf 18b7 10bf 39ee 1a3f
000001e0: 06a0 9b3e 8c63 e4be 909c 0fbf 04b2 b23e
000001f0: e16c 07be 57a4 ae3e b7d5 a4be dcb1 863f

network.0.bias f4 [64]
-0.5868437 0.59427005 -0.09048485 0.63780415 0.81023675 -0.3654686 0.2670989 0.079095796
0.37031138 -0.43751597 0.67817026 -0.5008595 0.42617172 0.18613048 0.43194312 -0.2074193
-0.2100316 -0.17467926 0.024638228 -0.0001329435 0.6585345 0.7232388 0.31618813 -0.5524838
-0.5051432 -0.12490536 0.05139327 -0.012691246 0.8442689 -0.7047554 0.78032565 0.17827055
0.9457108 0.6955445 -0.39828327 -0.25320944 -0.35558668 0.18219239 0.73146456 -0.6458697
-0.17693709 0.8338319 -0.19186836 -0.17973642 0.859466 0.024499878 -0.21389835 0.5420081
0.17119566 0.22000287 -0.6104486 -0.62441385 -0.2617468 0.97214174 -0.27226004 0.6367077
-0.38253483 0.32980195 0.3873492 -0.239939 0.11358841 -0.25431144 -0.08938318 -0.061058424
00000000: 643b 16bf 1522 183f 1f50 b9bd 2247 233f
00000010: ad6b 4f3f b31e bbbe 30c1 883e fafc a13d
00000020: 7499 bd3e 1802 e0be 919c 2d3f 5438 00bf
00000030: 2e33 da3e fd98 3e3e a627 dd3e ba65 54be
00000040: 8612 57be 1fdf 32be 1cd6 c93c c066 0bb9
00000050: b895 283f 2e26 393f 69e3 a13e 946f 0dbf
00000060: 1151 01bf 62ce ffbd c081 523d f2ee 4fbc
00000070: 0222 583f da6a 34bf 6cc3 473f 8e8c 363e
00000080: 1a1a 723f 340f 323f c9eb cbbe aba4 81be
00000090: 750f b6be a490 3a3e 4341 3b3f b757 25bf
000000a0: ff2e 35be 0276 553f 2479 44be d30c 38be
000000b0: f705 5c3f f8b3 c83c 2b08 5bbe 0bc1 0a3f
000000c0: ea4d 2f3e 6f48 613e 5c46 1cbf 96d9 1fbf
000000d0: ad03 86be 48de 783f ab65 8bbe 47ff 223f
000000e0: 9bdb c3be cddb a83e a252 c63e 92b2 75be
000000f0: 0aa1 e83d 1c35 82be 870e b7bd 6618 7abd

network.2.weight f4 [64, 64]
0.0801244 -0.16485114 -0.07559386 -0.04487818 -0.07635026 -0.032524355 -0.05751066 0.0030591562
-0.13853517 -0.013067536 0.14756326 -0.025751514 0.053835105 -0.021992458 -0.05698025 -0.028516708
0.10207816 0.00097395305 -0.06953317 0.03037821 0.043173306 0.11944086 -0.15430996 0.09775436
0.092553064 -0.024107698 0.09407402 -0.038206525 0.007105257 0.18039793 -0.00593231 0.073151916
0.013733934 0.049128838 -0.038296357 -0.021276658 -0.039338835 -0.063575804 0.0851814 0.017174605
-0.057587236 0.05426733 -0.09109768 -0.04130294 -0.0868804 -0.098569736 -0.10864916 0.056138173
-0.060085624 0.015479581 -0.007588647 0.06959521 -0.12451469 0.006010235 0.05375779 0.06952836
-0.048864733 -0.053366937 0.007932892 -0.04434182 -0.14270402 -0.025810197 0.025953261 -0.12422822
-0.054720126 0.109610535 0.0088308565 -0.11944558 0.10845205 0.017199565 -0.08064569 -0.08422446
-0.008344697 -0.08448619 0.064549126 -0.043159995 -0.08673851 -0.102280736 0.110646926 -0.1100747
0.008997966 0.035833657 -0.11261011 -0.07068526 0.09871556 -0.005192793 0.11204362 -0.115081824
-0.08152356 0.09562831 0.08523933 -0.04239516 0.11735988 -0.034536857 -0.07543408 -0.054924928
0.01214476 0.025847245 0.032552388 0.0005998937 -0.07616782 0.04283573 0.073209114 -0.17645237
-0.013913117 0.20541203 -0.07241248 -0.040943433 0.1009317 -0.06561851 0.14277878 -0.07019498
-0.06965468 -0.06727006 -0.0817695 0.05024506 0.0005418998 0.08532484 -0.06669595 -0.0791266
-0.025001759 0.015299883 0.0987341 0.021637265 0.0066456213 -0.047966637 0.0386768 0.016476436
-0.093216024 -0.11211588 -0.054813318 -0.09567285 -0.16613941 -0.02701439 -0.06256781 0.010112403
0.053046133 0.02836245 0.0066049583 -0.037548304 0.033203844 0.10073192 -0.07110496 0.099511474
-0.045327317 -0.045184962 0.094444424 0.13738912 -0.039270844 -0.1283554 -0.003739133 0.13077277
0.08790609 -0.016270354 -0.0778975 -0.013198406 0.022601467 0.13180736 -0.1437665 -0.1446607
-0.13384451 -0.057551786 -0.03505368 0.023553949 0.03529423 -0.07790436 0.07481657 0.0378022
0.011197936 -0.061533578 -0.0137032345 -0.101031 -0.093556136 0.017622596 -0.1182825 -0.09375838
-0.0029459735 -0.0011549613 0.12253466 0.2497893 0.0051828725 0.041587 0.104247995 -0.045098122
0.038832128 -0.15874533 -0.030565562 -0.044542305 0.06714375 -0.10318174 0.08049791 0.026423534
-0.09404827 0.03483888 0.10244281 0.09387685 -0.039772835 0.117525384 -0.04882022 -0.030960776
0.03893876 0.09244903 0.12376005 0.101667084 0.09925215 -0.1324941 -0.08726872 0.0069057434
-0.08032882 -0.06131201 0.101839565 -0.06637884 -0.10104163 -0.12341906 0.02770795 0.11324507
-0.022349 -0.040388238 -0.04148067 0.12564822 0.111967064 -0.002548353 0.012942528 0.01336493
0.18600252 0.10734454 -0.1095825 -0.017094748 -0.07333933 0.05758814 0.02994463 -0.027636738
-0.039034825 -0.06760145 0.04445627 0.086796276 -0.11373461 -0.07352428 -0.038534418 -0.15168746
-0.15452504 0.06236889 0.08202634 0.13112651 -0.27591497 -0.048561327 0.1455395 -0.057673674
-0.088820845 0.016283715 -0.057794884 0.17562804 0.009662575 -0.07450518 -0.017983109 -0.02720346
00000000: 4318 a43d bdce 28be f4d0 9abd 2fd2 37bd
00000010: 865d 9cbd 4238 05bd 4c90 6bbd 207c 483b
00000020: 2adc 0dbe 3819 56bc d31a 173e d7f4 d2bc
00000030: 3382 5c3d 8729 b4bc 1f64 69bd df9b e9bc
00000040: 5b0e d13d e250 7f3a 6867 8ebd b9db f83c
00000050: 7ed6 303d 699d f43d 6e03 1ebe 7033 c83d
00000060: 768c bd3d 827d c5bc e1a9 c03d 727e 1cbd
00000070: 37d3 e83b 3cba 383e d363 c2bb acd0 953d
00000080: 4b04 613c 523b 493d a4dc 1cbd 634c aebc
00000090: c221 21bd 0834 82bd 9673 ae3d c2b1 8c3c
000000a0: 98e0 6bbd 6b47 5e3d 6c91 babd 462d 29bd
000000b0: 5aee b1bd eede c9bd 7383 debd 24f1 653d
000000c0: 581c 76bd 129e 7d3c 2faa f8bb ef87 8e3d
000000d0: 8f01 ffbd 81f1 c43b 2131 5c3d e364 8e3d
000000e0: 6326 48bd 4a97 5abd f6f8 013c c59f 35bd
000000f0: 0121 12be e86f d3bc ef9b d43c 5d6b febd
00000100: 3622 60bd 7d7b e03d 4caf 103c e29f f4bd
00000110: 1c1c de3d 1ae6 8c3c 9129 a5bd e07d acbd
00000120: 32b8 08bc 1807 adbd 5532 843d 89c8 30bd
00000130: f6a3 b1bd 9078 d1bd db9a e23d d86e e1bd
00000140: 346c 133c 50c6 123d 21a0 e6bd 6fc3 90bd
00000150: 622b ca3d 4e28 aabb 2077 e53d 05b0 ebbd
00000160: d3f5 a6bd c7d8 c33d f591 ae3d 8ca6 2dbd
00000170: 605a f03d 8576 0dbd 2f7d 9abd f6f8 60bd
00000180: d1fa 463c 9abd d33c a755 053d 2f42 1d3a
00000190: e0fd 9bbd 8574 2f3d a9ee 953d eeaf 34be
000001a0: d8f3 63bc 8857 523e ff4c 94bd 4db4 27bd
000001b0: 47b5 ce3d ff62 86bd 9a34 123e 63c2 8fbd
000001c0: 1da7 8ebd e3c4 89bd c576 a7bd c4cd 4d3d
000001d0: 480e 0e3a cabe ae3d e397 88bd 200d a2bd
000001e0: 7dd0 ccbc 5cac 7a3c 1b35 ca3d a240 b13c
000001f0: 83c3 d93b aa78 44bd 906b 1e3d 97f9 863c
00000200: 0be8 bebd 039d e5bd ee83 60bd 21f0 c3bd
00000210: 7320 2abe 484d ddbc 8d23 80bd 7eae 253c
00000220: e746 593d 5e58 e83c 686e d83b 40cc 19bd
00000230: c100 083d 894c ce3d 7a9f 91bd accc cb3d
00000240: 23a9 39bd de13 39bd 146c c13d bcaf 0c3e
00000250: 77da 20bd 996f 03be 3e0c 75bb 4ce9 053e
00000260: 1c08 b43d 6849 85bc b988 9fbd 213e 58bc
00000270: b626 b93c 82f8 063e 8637 13be ef21 14be
00000280: 890e 09be 6cbb 6bbd 7394 0fbd 36f4 c03c
00000290: af90 103d 528c 9fbd 6e39 993d 7bd6 1a3d
000002a0: 8c77 373c a20a 7cbd 8883 60bc 57e9 cebd
000002b0: 5c9a bfbd 435d 903c 183e f2bd 6504 c0bd
000002c0: 3c11 41bb 1262 97ba 74f3 fa3d c4c8 7f3e
000002d0: 16d5 a93b 2157 2a3d f97f d53d cfb8 38bd
000002e0: 700e 1f3d 238e 22be a164 fabc fe71 36bd
000002f0: aa82 893d f350 d3bd 17dc a43d 2b76 d83c
00000300: 619c c0bd 37b3 0e3d 89cd d13d 8242 c03d
00000310: d7e8 22bd 26b1 f03d b6f7 47bd 74a1 fdbc
00000320: 407e 1f3d eb55 bd3d e975 fd3d d536 d03d
00000330: b644 cb3d 89ac 07be f1b9 b2bd 9349 e23b
00000340: 7083 a4bd 4d22 7bbd 4391 d03d a1f1 87bd
00000350: eaee cebd 22c3 fcbd c8fb e23c 08ed e73d
00000360: 4015 b7bc 236e 25bd a3e7 29bd eda9 003e
00000370: fd4e e53d 4502 27bb e60c 543c 94f8 5a3c
00000380: 7277 3e3e 74d7 db3d ca6c e0bd 490a 8cbc
00000390: ee32 96bd 8be1 6b3d 714e f53c 7166 e2bc
000003a0: fbe2 1fbd a172 8abd c717 363d 3fc2 b13d
000003b0: b1ed e8bd e693 96bd 44d6 1dbd f553 1bbe
000003c0: d03b 1ebe 8576 7f3d 6dfd a73d 0746 063e
000003d0: ba44 8dbe 3ee8 46bd 4f08 153e 3b3b 6cbd
000003e0: b4e7 b5bd 6d65 853c 54ba 6cbd d6d7 333e
000003f0: c74f 1e3c 2c96 98bd 5051 93bc cad9 debc

network.2.bias f4 [64]
0.025563236 0.062647805 0.04610615 -0.049647063 0.13262938 0.13245977 -0.121371455 -0.09941945
-0.0038438078 0.010505718 -0.024595316 -0.19054586 -0.09225648 0.08086438 0.07146882 0.12311423
0.128332 0.058847774 0.26197177 -0.027205883 0.060163036 -0.031002574 0.19587535 -0.10474605
-0.065727636 0.2039181 0.065682754 0.07078451 0.0019872005 -0.18943146 0.06363361 0.3135429
0.283258 0.012019949 -0.073308155 -0.007925836 -0.04920178 0.09074843 -0.05344964 -0.03624641
0.20710707 -0.00588377 0.022742348 -0.027934603 -0.19387963 -0.06663815 -0.26082256 0.04259166
0.16023326 0.16624 -0.17686665 0.07482218 -0.08880123 -0.0071442737 -0.005063121 0.022093048
0.03379796 -0.04702854 0.063698515 -0.06431662 0.17362902 0.012100791 -0.06827067 -0.11049881
00000000: fe69 d13c 7e4d 803d cdd9 3c3d b85a 4bbd
00000010: ffcf 073e 89a3 073e 9991 f8bd 6d9c cbbd
00000020: 65e8 7bbb 2d20 2c3c 1e7c c9bc 741e 43be
00000030: f7f0 bcbd 399c a53d 3f5e 923d 5023 fc3d
00000040: 7769 033e 5d0a 713d 2a21 863e dfde debc
00000050: 846d 763d 1cf9 fdbc 8c93 483e 1985 d6bd
00000060: 369c 86bd e8cf 503e ae84 863d 78f7 903d
00000070: b13b 023b 52fa 41be 5752 823d b288 a03e
00000080: 3107 913e 52ef 443c 9622 96bd 5edb 01bc
00000090: ce87 49bd 50da b93d 02ee 5abd 1e77 14bd
000000a0: e013 543e a4cc c0bb 294e ba3c 1cd7 e4bc
000000b0: 6288 46be 9579 88bd 898a 85be 9874 2e3d
000000c0: 3014 243e d23a 2a3e 881c 35be 5f3c 993d
000000d0: 6bdd b5bd 831a eabb 8ae8 a5bb 7bfc b43c
000000e0: bb6f 0a3d 00a1 40bd 5e74 823d 6fb8 83bd
000000f0: cecb 313e 6542 463c 7ed1 8bbd 334d e2bd

network.4.weight f4 [64, 64]
0.016699813 0.15398793 -0.10465809 0.0890355 -0.09891068 0.05480495 0.088405535 -0.10819979
-0.04621758 0.016109616 -0.064595416 0.105705574 0.21880834 -0.2140428 -0.117816254 0.20441684
-0.23514798 0.027532669 0.19393018 0.015541804 -0.04894093 0.04983203 0.16639869 -0.12476277
0.06877926 0.054880522 -0.060371205 -0.012610844 0.11729229 -0.37915045 0.00041381488 -0.1174592
0.05036958 0.17568341 0.21681553 -0.018825926 0.07257718 -0.09716946 -0.017330984 0.12625314
-0.08857578 -0.10064153 0.09359218 0.0074922014 -0.006619484 0.08007161 0.030321462 0.14815886
-0.17337866 -0.006662378 0.13435511 0.2602736 -0.048156742 -0.0064982185 -0.1836823 -0.054446362
0.021426383 0.109145336 -0.040395103 0.02743607 0.08079505 0.039181415 0.005800579 -0.008653936
0.0034175825 -0.34397122 -0.023449901 -0.020893045 0.019615695 0.061763354 0.21230201 0.118805446
-0.055787995 -0.24588642 -0.27486885 0.06656981 -0.48497325 0.18222389 0.07865328 -0.44927207
0.26042935 0.005349257 -1.0540684 0.47598317 -0.23703602 -0.08090324 -0.0898756 -0.3046723
0.022147464 0.007821078 -0.05628247 0.0416548 -0.160729 0.28677934 -0.31850967 -0.24169396
-0.73108554 -0.5914697 -0.38244003 -0.056921538 -0.06934139 -0.29119736 0.010780781 -0.21297978
-0.046084344 0.04642517 -0.12930062 -0.026353765 -0.03763124 -0.022884285 -0.023429707 0.35629255
-0.038634054 0.19007958 0.26960316 -0.27978516 0.087516345 0.332964 -0.1571462 0.5757073
0.35035312 0.16010077 0.0023211741 0.20787811 0.10039095 -0.28837863 -0.46991464 0.44134274
0.015332482 0.056034405 -0.1515981 0.0015636451 0.03839105 -0.064524665 0.16313998 0.045816902
-0.028528634 0.09156606 -0.15277523 0.28834578 0.084663995 0.0068462677 -0.010351654 -0.08619742
-0.09393067 -0.026289942 -0.11386415 0.075227596 -0.20611653 0.04634879 0.03825421 -0.23081158
0.09624182 -0.009863959 0.007841928 0.056931067 -0.07795088 0.43739977 -0.15754487 -0.5043901
0.10411727 -0.119419195 -0.11529041 0.076063864 0.054378077 -0.50232404 0.047619283 -0.026440859
-0.15906361 0.13393283 0.11742163 -0.078721374 0.102728345 0.0110497 -0.08414335 0.31767452
-0.14941692 0.24793273 0.57964104 -0.053602386 -0.002820949 0.23567799 -0.1707628 -0.0167287
0.06905767 -0.013741423 0.076235816 0.18964362 0.14413117 -0.00036738746 -0.07780841 -0.019087188
0.013718708 -0.09973616 0.12025206 0.11295525 -0.14843507 -0.041630108 0.21043067 0.092197664
0.03850534 0.050171435 -0.056119855 -0.11337366 0.04451188 0.21196301 0.23636377 -0.0774384
0.07714163 -0.14948672 -0.037522417 0.15939495 -0.059923045 -0.20611775 -0.08009254 -0.017733077
-0.09424158 -0.021860803 0.011787752 0.119307555 -0.14206487 -0.2822545 -0.5021056 0.08672721
0.016309012 -0.16835035 -0.080015846 0.17807405 0.0051592174 -0.16882147 0.022235276 -0.17076923
-0.19404262 -0.028014656 -0.15474078 -0.041405067 0.001710039 0.17844744 -0.13303834 0.086981826
0.2050205 0.038346883 -0.47664145 -0.07049803 0.07276973 0.12579796 -0.11088296 0.008884975
0.12011932 -0.06897472 -0.13486643 0.14139637 0.022610769 0.03488666 0.036349926 0.01709105
00000000: 0cce 883c 03af 1d3e fb56 d6bd 3f58 b63d
00000010: af91 cabd 287b 603d f60d b53d da97 ddbd
00000020: a54e 3dbd 50f8 833c 9a4a 84bd 2a7c d83d
00000030: 4b0f 603e 092e 5bbe a649 f1bd a652 513e
00000040: a2ca 70be 318c e13c a295 463e 0da3 7e3c
00000050: 4976 48bd ac1c 4c3d 6b64 2a3e a083 ffbd
00000060: 24dc 8c3d 66ca 603d cc47 77bd b79d 4ebc
00000070: f136 f03d 0220 c2be 4bf5 d839 738e f0bd
00000080: 5550 4e3d 5ae6 333e e404 5e3e d438 9abc
00000090: 58a3 943d c800 c7bd b5f9 8dbc 8148 013e
000000a0: 3867 b5bd 251d cebd 42ad bf3d 2481 f53b
000000b0: 42e8 d8bb 96fc a33d b764 f83c f5b6 173e
000000c0: 2d8a 31be 1450 dabb 6394 093e 9542 853e
000000d0: 0140 45bd 02ef d4bb 3617 3cbe 2603 5fbd
000000e0: 6286 af3c 9787 df3d 5675 25bd 9cc1 e03c
000000f0: e077 a53d b17c 203d c912 be3b 3dc9 0dbc
00000100: 85f9 5f3b ff1c b0be 021a c0bc e427 abbc
00000110: 18b1 a03c 92fb 7c3d b365 593e 4550 f33d
00000120: f481 64bd a6c9 7bbe 9cbb 8cbe c155 883d
00000130: 6a4e f8be e698 3a3e f914 a13d fd06 e6be
00000140: ff56 853e d248 af3b b7eb 86bf 11b4 f33e
00000150: 92b9 72be 99b0 a5bd b310 b8bd 02fe 9bbe
00000160: 996e b53c fb23 003c 7288 66bd 399e 2a3d
00000170: 2596 24be bed4 923e b313 a3be 9f7e 77be
00000180: 6c28 3bbf 8f6a 17bf 2ecf c3be 8f26 69bd
00000190: dc02 8ebd d217 95be dfa1 303c 5f17 5abe
000001a0: f0c2 3cbd 5228 3e3d 6267 04be dae3 d7bc
000001b0: 3723 1abd d377 bbbc a8ef bfbc fa6b b63e
000001c0: be3e 1ebd 39a4 423e 6d09 8a3e 0040 8fbe
000001d0: c53b b33d 427a aa3e efea 20be 8e61 133f
000001e0: 7c61 b33e 75f1 233e d71e 183b 00de 543e
000001f0: c599 cd3d 5da6 93be a798 f0be adf7 e13e
00000200: 1735 7b3c 5584 653d 883c 1bbe 39f3 cc3a
00000210: ef3f 1d3d 8225 84bd 2b0e 273e 81aa 3b3d
00000220: e2b4 e9bc fd86 bb3d 1c71 1cbe 0fa2 933e
00000230: 5164 ad3d a856 e03b fc99 29bc 4688 b0bd
00000240: b95e c0bd 015e d7bc 9c31 e9bd ed10 9a3d
00000250: 3610 53be 3bd8 3d3d 72b0 1c3d df59 6cbe
00000260: 6e1a c53d 719c 21bc 6e7b 003c 8d30 693d
00000270: b6a4 9fbd ddf2 df3e 7153 21be b61f 01bf
00000280: 6f3b d53d 0d92 f4bd 611d ecbd 5fc7 9b3d
00000290: 8cbb 5e3d 4f98 00bf 700c 433d 809a d8bc
000002a0: 92e1 22be b025 093e c07a f03d ac38 a1bd
000002b0: 3d63 d23d cd09 353c 5953 acbd 3ca6 a23e
000002c0: c000 19be 14e2 7d3e 5b63 143f 2d8e 5bbd
000002d0: acdf 38bb 9255 713e 72dc 2ebe a00a 89bc
000002e0: 1c6e 8d3d b523 61bc 8621 9c3d f031 423e
000002f0: 1f97 133e e99d c0b9 045a 9fbd bc5c 9cbc
00000300: 6fc4 603c 7942 ccbd b646 f63d 1555 e73d
00000310: 5dff 17be 5584 2abd 237b 573e 21d2 bc3d
00000320: c7b7 1d3d 9080 4d3d efdd 65bd 7330 e8bd
00000330: 1752 363d d50c 593e 5809 723e 0698 9ebd
00000340: 6efc 9d3d 0c13 19be 1bb1 19bd 6e38 233e
00000350: de71 75bd 8810 53be 8f07 a4bd f544 91bc
00000360: bb01 c1bd 6d15 b3bc 6a21 413c 8557 f43d
00000370: 7479 11be a983 90be fe89 00bf 099e b13d
00000380: 7a9a 853c 0964 2cbe 59df a3bd 0b59 363e
00000390: a70e a93b 89df 2cbe c126 b63c 21de 2ebe
000003a0: 1cb3 46be fe7e e5bc 5e74 1ebe 5c98 29bd
000003b0: 6323 e03a edba 363e 343b 08be 8723 b23d
000003c0: e5f0 513e 9f11 1d3d 590a f4be 4561 90bd
000003d0: 4c08 953d 2ed1 003e 9b16 e3bd 4992 113c
000003e0: 1e01 f63d 9e42 8dbd 6d1a 0abe 36ca 103e
000003f0: 383a b93c 50e5 0e3d a9e3 143d 8802 8c3c

network.4.bias f4 [64]
-0.13897246 -0.14155014 -0.15107554 0.12732609 0.061850704 -0.11569932 -0.048613884 -0.07545485
-0.08585107 -0.13898033 -0.13218774 -0.0859211 0.06889209 -0.046613365 0.03638597 -0.17009991
-0.05799063 0.013671637 -0.070331484 -0.20147015 0.013953166 -0.2530371 -0.14867242 0.082043104
-0.07286507 -0.10422903 -0.03024703 0.11149517 -0.02986168 0.050398573 -0.051518004 -0.09561398
0.08906392 -0.07889065 0.016606104 -0.07671288 0.15139472 0.1813349 0.19199045 -0.13231488
-0.15873785 -0.09120835 0.010531144 0.02879259 0.02261638 0.11319928 0.0781083 0.10575975
0.0046583833 -0.01821102 -0.034707278 0.086904794 -0.056202915 0.013743985 -0.035701957 -0.030743273
0.024291664 0.048774973 -0.035331454 -0.20864749 -0.09059668 -0.1634956 -0.080818415 0.27546346
00000000: cc4e 0ebe 85f2 10be 8cb3 1abe c561 023e
00000010: 2a57 7d3d c4f3 ecbd 5a1f 47bd 1388 9abd
00000020: b0d2 afbd dc50 0ebe 395c 07be 67f7 afbd
00000030: 4c17 8d3d a8ed 3ebd 7409 153d ac2e 2ebe
00000040: 9587 6dbd 00ff 5f3c f409 90bd 314e 4ebe
00000050: d29b 643c 148e 81be 953d 18be 3706 a83d
00000060: 483a 95bd 0876 d5bd 9fc8 f7bc 9457 e43d
00000070: 7ba0 f4bc bc6e 4e3d 8b04 53bd 43d1 c3bd
00000080: 2567 b63d 6c91 a1bd 8609 883c a41b 9dbd
00000090: 3807 1b3e dbaf 393e 2599 443e 8d7d 07be
000000a0: 2d8c 22be 72cb babd d28a 2c3c 70de eb3c
000000b0: fd45 b93c 06d5 e73d 3ff7 9f3d 9198 d83d
000000c0: 5aa5 983b 472f 95bc 3829 0ebd 24fb b13d
000000d0: 0735 66bd 742e 613c 373c 12bd 51d9 fbbc
000000e0: 50ff c63c 44c8 473d b7b7 10bd b0a7 55be
000000f0: c18a b9bd 646b 27be 2084 a5bd 8c09 8d3e

network.6.weight f4 [64, 64]
0.1699942 0.06102395 -0.14115143 0.0051055667 -0.08484674 0.12536013 -0.10543272 0.05388489
0.034677535 -0.024559671 0.16461961 0.0051079863 -0.049827617 -0.08072812 0.24385406 0.07559871
-0.10763978 -0.10869135 -0.09496121 -0.17559029 -0.09448219 0.19980146 -0.012345122 0.068306096
-0.007326718 0.025027934 -0.08638203 -0.03330207 0.22995442 0.30763716 -0.12498473 0.081410274
-0.02271044 -0.22313878 -0.053106923 -0.002386533 0.07277813 0.042610023 -0.019125845 -0.034149762
-0.15939486 -0.026010545 0.111438654 0.03945167 0.09816623 -0.41180843 -0.08626818 0.13032001
0.13639112 -0.14295797 -0.07347902 0.043542642 0.13656068 0.0882049 0.07931833 -0.08342034
-0.12647009 0.10811956 0.2990388 -0.081269495 -0.013455644 0.005157304 0.075085536 -0.05847041
-0.03786922 -0.013912363 0.123606056 -0.088387 -0.07970538 0.02268385 0.07338281 0.05194409
-0.045931604 0.09091363 -0.07892869 -0.14879902 0.06046845 -0.11492481 -0.10925101 0.03749002
0.067187525 -0.006097931 0.015116984 0.012610367 0.020502781 -0.44894403 0.016577996 -0.14206746
-0.0059613315 0.29577622 -0.016408086 -0.0037186856 0.011150231 0.10767008 0.043554433 -0.16043127
0.5904506 0.07492469 0.023764925 0.03526452 0.012522651 0.07446916 0.04170609 0.022943048
-0.05886554 -0.026232217 0.6955717 -0.391949 -0.0926083 0.16228984 -0.013055673 0.22088999
-0.16144562 0.042373296 -0.038801074 -0.0030201196 -0.0016484231 0.09053732 -0.0815734 -0.029001432
0.06517582 -0.089019224 -0.1570856 -0.23181987 0.040448546 -0.32044533 -0.063715585 0.45408976
-0.063272215 0.20880672 0.007099174 -0.029961672 0.4654718 0.04768624 -0.06722959 -0.21973224
0.07152647 -0.060891 -0.017209865 0.17927976 -0.13391386 0.23231016 -0.106320955 0.29520962
-0.10095675 -0.23414502 0.09369313 -0.11216802 0.4194356 -0.16197863 0.032516886 -0.07709789
-0.02820573 0.062250316 -0.11074801 -0.023150736 0.16863361 0.2560812 -0.17847113 0.0537712
0.27063346 -0.101801485 0.016596178 -0.016268259 0.13491152 0.09692887 0.08447651 -0.10037072
0.011655844 -0.12441824 0.08370535 -0.09798036 0.3038026 0.11607263 0.34930256 0.7196122
-0.0013546209 0.067086995 0.024119256 0.107435904 0.060443275 0.017970266 0.14562458 0.008730659
0.16118681 -0.043924797 -0.0122688655 0.062346496 -0.042710777 -0.26603162 0.3194919 -0.094228305
0.07147833 0.1413932 0.11382888 0.17970592 0.086300686 0.14499523 -0.09456852 -0.22480468
0.12760255 -0.11105257 -0.022247562 -0.13812329 0.018396357 0.015479127 0.038403608 0.27323323
-0.10873503 -0.099492095 0.12516099 0.06782359 0.016344674 -0.17303051 0.11972119 -0.048659395
0.1730027 -0.097779006 -0.055966396 -0.13356218 0.13628009 0.042525426 -0.16231759 -0.16330418
-0.17911865 -0.022039922 -0.024831023 0.024277389 0.080032736 0.15788059 0.08358857 -0.028528731
-0.022723759 -0.028955385 -0.08106867 -0.16022423 0.05284599 -0.0678208 -0.08968159 -0.076407686
-0.04746656 -0.014033775 -0.03224249 -0.037895188 0.09869932 -0.023906015 -0.07615201 -0.12712328
-0.007836652 0.07946768 0.07865673 0.03638226 0.05771642 -0.0635354 0.0894445 -0.16854651
00000000: f612 2e3e 40f4 793d 008a 10be 994c a73b
00000010: 21c4 adbd 685e 003e 1ced d7bd 67b6 5c3d
00000020: 080a 0e3d 5d31 c9bc 0b92 283e e560 a73b
00000030: 0b18 4cbd c954 a5bd e1b4 793e 7fd3 9a3d
00000040: 3f72 dcbd 9299 debd 067b c2bd f1cd 33be
00000050: e17f c1bd c198 4c3e 3243 4abc 11e4 8b3d
00000060: f714 f0bb 6207 cd3c 10e9 b0bd c067 08bd
00000070: 2c79 6b3e 9e82 9d3e fef7 ffbd 6eba a63d
00000080: 3f0b babc 7e7e 64be a586 59bd 6167 1cbb
00000090: b30c 953d d987 2e3d cead 9cbc 9fe0 0bbd
000000a0: 6838 23be 1114 d5bc f339 e43d 1398 213d
000000b0: 600b c93d 8ed8 d2be 5fad b0bd 9c72 053e
000000c0: 1daa 0b3e 9363 12be 2b7c 96bd c559 323d
000000d0: 90d6 0b3e c5a4 b43d a671 a23d 49d8 aabd
000000e0: 6081 01be ca6d dd3d 9d1b 993e 9f70 a6bd
000000f0: 1075 5cbc 9afe a83b 72c6 993d ab7e 6fbd
00000100: c11c 1bbd aef0 63bc 2c25 fd3d 3e04 b5bd
00000110: 933c a3bd 7bd3 b93c ba49 963d 53c3 543d
00000120: c722 3cbd ed30 ba3d 5da5 a1bd c55e 18be
00000130: c4ad 773d b35d ebbd febe dfbd 238f 193d
00000140: 9d99 893d 27d1 c7bb 3aad 773c b69b 4e3c
00000150: 73f5 a73c fedb e5be 94ce 873c 227a 11be
00000160: 4657 c3bb fb6f 973e 406a 86bc 31b5 73bb
00000170: 75af 363c 2282 dc3d 2266 323d 1848 24be
00000180: c527 173f 1e72 993d a9ae c23c 8871 103d
00000190: ce2b 4d3c 4983 983d 01d4 2a3d 0ff3 bb3c
000001a0: fe1c 71bd f2e4 d6bc fd10 323f 8aad c8be
000001b0: 6ca9 bdbd 4f2f 263e 76e7 55bc fc30 623e
000001c0: 0052 25be 9f8f 2d3d e0ed 1ebd 33ed 45bb
000001d0: e70f d8ba a16b b93d f40f a7bd 6994 edbc
000001e0: e67a 853d b64f b6bd 0cdb 20be 3062 6dbe
000001f0: 60ad 253d 6911 a4be 517d 82bd 747e e83e
00000200: dd94 81bd 6ed1 553e 30a0 e83b 2e72 f5bc
00000210: 5252 ee3e a652 433d abaf 89bd 7d01 61be
00000220: 787c 923d d768 79bd b4fb 8cbc 1d95 373e
00000230: b720 09be b7e2 6d3e cdbe d9bd b725 973e
00000240: 6ac2 cebd b6c3 6fbe 2fe2 bf3d 59b8 e5bd
00000250: 43c0 d63e badd 25be 6d30 053d 80e5 9dbd
00000260: b40f e7bc 30fa 7e3d dacf e2bd 9da6 bdbc
00000270: 4aae 2c3e 131d 833e 23c1 36be 313f 5c3d
00000280: 7890 8a3e 4c7d d0bd b5f4 873c 0345 85bc
00000290: 3f26 0a3e a582 c63d 0502 ad3d 2a8f cdbd
000002a0: 27f8 3e3c fdce febd b66d ab3d eda9 c8bd
000002b0: 048c 9b3e 7db7 ed3d c9d7 b23e 8138 383f
000002c0: 898d b1ba e864 893d bf95 c53c 5b07 dc3d
000002d0: 5e93 773d 6136 933c 9c1e 153e 0a0b 0f3c
000002e0: 280e 253e 7dea 33bd 5a03 49bc 0a5f 7f3d
000002f0: 7ff1 2ebd 4c35 88be 7194 a33e c5fa c0bd
00000300: 3b63 923d 61c9 103e 1e1f e93d d404 383e
00000310: 6abe b03d a179 143e 24ad c1bd 3333 66be
00000320: 3eaa 023e 886f e3bd 8540 b6bc 3170 0dbe
00000330: f5b3 963c 2a9c 7d3c 1a4d 1d3d 3ae5 8b3e
00000340: 79b0 debd 83c2 cbbd 342a 003e 18e7 8a3d
00000350: 44e5 853c e92e 31be 6230 f53d 134f 47bd
00000360: 9f27 313e 5c40 c8bd 053d 65bd 86c4 08be
00000370: 028d 0b3e 242f 2e3d 9536 26be 3639 27be
00000380: e16a 37be 118d b4bc 6e6a cbbc 60e1 c63c
00000390: 34e8 a33d 73ab 213e 7c30 ab3d 16b5 e9bc
000003a0: 2d27 babc d833 edbc 5507 a6bd d211 24be
000003b0: 0975 583d a2e5 8abd fbaa b7bd a27b 9cbd
000003c0: 4c6c 42bd ebed 65bc b410 04bd fc37 1bbd
000003d0: de22 ca3d 8cd6 c3bc 96f5 9bbd 9b2c 02be
000003e0: 4d65 00bc f3bf a23d c816 a13d 9105 153d
000003f0: 0e68 6c3d d91e 82bd ae2e b73d 7597 2cbe

network.6.bias f4 [64]
0.11842927 -0.014558784 -0.0051512867 0.075132035 0.14803356 -0.16021788 -0.009896159 -0.25837743
0.048327412 0.355466 0.14326826 -0.0079252375 0.028070182 0.024983807 -0.12076151 -0.27373555
-0.13300937 -0.077385984 -0.019261425 0.012376544 0.09736393 -0.22842078 -0.06056558 0.33568135
-0.10549067 0.122745134 -0.18693632 -0.14714757 -0.13770156 0.0644496 -0.17210184 0.10495748
0.0013710039 -0.11838955 0.049450748 -0.17394458 0.021435754 0.038711462 0.1404161 0.11379168
-0.014684255 0.11989731 -0.06355639 -0.10703267 -0.08027333 -0.028579216 0.12919955 -0.15176149
0.052029233 0.017971465 -0.039513804 0.05655963 -0.03821166 0.23034306 0.015858235 -0.060961466
0.19960205 0.05438855 0.06490318 -0.023122624 -0.042568255 -0.061034463 0.07678322 0.1420629
00000000: 0c8b f23d f787 6ebc 20cc a8bb d3de 993d
00000010: 1c96 173e 2810 24be 8023 22bc 0c4a 84be
00000020: f7f2 453d a4ff b53e eab4 123e dbd8 01bc
00000030: 70f3 e53c d7aa cc3c d051 f7bd 1127 8cbe
00000040: 9c33 08be 8b7c 9ebd 23ca 9dbc fdc6 4a3c
00000050: bd66 c73d 23e7 69be 9d13 78bd 6dde ab3e
00000060: 7e0b d8bd cd61 fb3d 3c6c 3fbe daad 16be
00000070: a301 0dbe 27fe 833d 773b 30be f3f3 d63d
00000080: 42b3 b33a 3876 f2bd de8c 4a3d 871e 32be
00000090: 099a af3c e98f 1e3d 3dc9 0f3e 9d0b e93d
000000a0: 3b96 70bc b98c f53d da29 82bd f233 dbbd
000000b0: 5866 a4bd f61e eabc e34c 043e 5d67 1bbe
000000c0: 9b1c 553d e538 933c 3ad9 21bd 12ab 673d
000000d0: d483 1cbd 0ddf 6b3e 21e9 813c bbb2 79bd
000000e0: 7b64 4c3e 87c6 5e3d f5eb 843d a86b bdbc
000000f0: 0d5c 2ebd 46ff 79bd 8540 9d3d f078 113e

network.8.weight f4 [64, 64]
-0.054397244 -0.031197678 -0.11681909 0.087438315 -0.24891064 0.007811005 0.014416369 0.08950008
-0.11061099 -0.07965038 -0.13305452 -0.0671289 0.07528827 0.1110733 -0.091734484 0.27685538
-0.09525499 -0.1268377 0.11477087 0.05463946 -0.009166071 -0.02162496 -0.14533736 0.07564754
0.010776013 0.06352367 -0.009408553 0.11296528 0.016795069 -0.102783516 0.042959955 0.07900623
-0.07030099 0.15038511 -0.17366147 -0.10182301 -0.017673083 0.12818782 0.0913516 0.066178545
-0.049148276 0.085874215 0.10654408 0.0038744984 0.052799497 0.0061383997 -0.1106334 0.13219291
-0.071864285 -0.0976625 0.018245926 0.013912218 -0.026005732 -0.08913994 0.099966876 -0.1716288
-0.26675573 -0.20848027 0.02357135 0.14031391 0.065809466 0.06922309 -0.010162795 -0.09781812
0.042920876 0.034903917 0.06534652 -0.077600665 0.036739465 -0.016390549 0.03758252 -0.091744214
-0.045243744 -0.053058762 0.043299824 -0.062960446 -0.013435673 0.018432451 0.11172 0.074580126
-0.0043205577 -0.12374573 0.105297655 0.016174473 -0.010212999 -0.21401887 -0.12862973 -0.055089958
0.0687025 0.05762708 0.006227017 -0.09467722 0.16781515 0.04982763 -0.03335644 0.08038001
0.037344404 0.023301402 0.039872013 -0.06573485 -0.12902546 0.017467558 -0.082855396 0.07671367
-0.09400366 0.017624747 0.026682155 -0.020080753 -0.056461133 0.023464566 -0.11302951 -0.07058167
-0.034762807 0.045479387 0.009279016 0.21249989 0.036882482 0.011137387 0.06814267 0.13063614
0.14689161 -0.038785476 -0.09359764 0.21326086 -0.09971378 0.08426005 0.18534806 0.06770227
-0.19927526 0.15127364 -0.07535969 0.057756655 -0.073204614 0.023782033 -0.23598193 -0.010739256
-0.0032867168 0.0037647588 -0.031263493 -0.117249385 0.011346981 0.085892625 0.15881361 0.21169934
-0.057583943 -0.0387812 -0.11093082 -0.081147745 0.13426629 0.060192075 0.07011487 0.011093939
0.03680116 -0.0005994933 -0.030923018 -0.018289624 -0.06646484 -0.13584405 -0.11981854 0.1485279
0.08072096 0.05914145 0.23788379 -0.13685235 -0.15222028 0.1166318 0.13818422 0.14413647
-0.03809543 0.012103585 0.03126657 -0.040637024 -0.12063518 0.13270968 -0.02119231 -0.14894497
0.0026827725 0.08582449 -0.032676075 0.05725942 -0.059976853 -0.13955282 0.04847787 -0.057848632
-0.11700584 -0.025838433 -0.11119669 -0.031340126 -0.108207844 -0.00031760024 -0.1011673 8.8401204e-05
-0.021887252 0.056820996 -0.13127157 -0.098323666 0.03295395 -0.18871668 -0.026607739 -0.054654542
0.073200315 0.0103780795 -0.10007333 -0.0775065 -0.07599109 0.20432675 -0.048516776 0.24153817
0.172164 -0.1275973 -0.010550683 0.064963944 0.039699133 -0.10580744 -0.09952417 -0.05573784
0.16215377 -0.0020031575 -0.048864946 -0.00451382 -0.07181946 0.11261602 0.079366446 0.08009787
0.04949 -0.12628399 -0.066744864 -0.018104272 -0.029166976 -0.0062736166 -0.06070127 -0.118481606
0.07175553 0.1175588 -0.12859517 0.06204157 0.011455645 -0.07016069 0.14909038 -0.07176372
-0.099003494 -0.08275822 -0.069010176 -0.00082788983 0.16469721 0.07559881 0.048359774 -0.015136674
-0.12812282 0.03056032 0.0425224 -0.026359538 -0.012136084 0.012308145 0.009045881 0.029432071
00000000: a5cf 5ebd 4692 ffbc d93e efbd dc12 b33d
00000010: 6ee2 7ebe 76f3 ff3b a232 6c3c d14b b73d
00000020: 0488 e2bd bd1f a3bd 723f 08be e07a 89bd
00000030: bd30 9a3d 667a e33d 4adf bbbd fdbf 8d3e
00000040: 0c15 c3bd bee1 01be fd0c eb3d a0cd 5f3d
00000050: 4a2d 16bc d426 b1bc 51d3 14be 19ed 9a3d
00000060: e08d 303c b318 823d 5526 1abc 575a e73d
00000070: d095 893c 2a80 d2bd c7f6 2f3d 05ce a13d
00000080: f7f9 8fbd 8efe 193e 50d4 31be 9588 d0bd
00000090: 24c7 90bc ab43 033e 8c16 bb3d 9e88 873d
000000a0: b44f 49bd d2de af3d c833 da3d 4ceb 7d3b
000000b0: 4944 583d a124 c93b c493 e2bd 945d 073e
000000c0: 952d 93bd 4703 c8bd 7b78 953c 12f0 633c
000000d0: f909 d5bc 008f b6bd 6fbb cc3d 76bf 2fbe
000000e0: 3594 88be da7b 55be b418 c13c 73ae 0f3e
000000f0: 1dc7 863d d6c4 8d3d da81 26bc de54 c8bd
00000100: cdcd 2f3d 69f7 0e3d 65d4 853d 19ed 9ebd
00000110: 1f7c 163d 7945 86bc 21f0 193d 64e4 bbbd
00000120: 8151 39bd 2554 59bd 285b 313d 68f1 80bd
00000130: 4c21 5cbc a7ff 963c 75cd e43d 77bd 983d
00000140: 7793 8dbb 676e fdbd 4ca6 d73d 5480 843c
00000150: 6c54 27bc c327 5bbe 83b7 03be 02a6 61bd
00000160: e5b3 8c3d 5f0a 6c3d 010c cc3b 21e6 c1bd
00000170: bcd7 2b3e 0f18 4c3d c3a0 08bd 469e a43d
00000180: 72f6 183d 95e2 be3c d650 233d fe9f 86bd
00000190: 401f 04be 2018 8f3c 17b0 a9bd 0e1c 9d3d
000001a0: fe84 c0bd c661 903c 8994 da3c 6480 a4bc
000001b0: ca43 67bd c338 c03c 047c e7bd 1f8d 90bd
000001c0: 7263 0ebd 9848 3a3d 0407 183c 9299 593e
000001d0: 1612 173d 9679 363c 628e 8b3d 7bc5 053e
000001e0: c16a 163e 85dd 1ebd 1fb0 bfbd 0e61 5a3e
000001f0: bd36 ccbd 8890 ac3d e2cb 3d3e 7da7 8a3d
00000200: d00e 4cbe 7ae7 1a3e 2e56 9abd 3e92 6c3d
00000210: 4dec 95bd 8ad2 c23c 3fa5 71be b4f3 2fbc
00000220: f565 57bb 2cba 763b 260e 00bd 7220 f0bd
00000230: b0e8 393c 79e8 af3d 09a0 223e b6c7 583e
00000240: 24dd 6bbd 09d9 1ebd b32f e3bd ca30 a6bd
00000250: 1a7d 093e f78b 763d 6398 8f3d 5ac3 353c
00000260: d0bc 163d 5027 1dba 4552 fdbc 1fd4 95bc
00000270: b81e 88bd b41a 0bbe 6c63 f5bd b317 183e
00000280: 0851 a53d 4e3e 723d cf97 733e 0623 0cbe
00000290: a2df 1bbe a7dc ee3d 2a80 0d3e 8398 133e
000002a0: f409 1cbd 1d4e 463c 6011 003d 0273 26bd
000002b0: 940f f7bd 0ce5 073e 7f9b adbc 0885 18be
000002c0: 74d1 2f3b c0c4 af3d 59d7 05bd db88 6a3d
000002d0: 4aaa 75bd efe6 0ebe bb90 463d b0f2 6cbd
000002e0: c2a0 efbd 1fab d3bc 17bb e3bd 815e 00bd
000002f0: 139c ddbd 9583 a6b9 cd30 cfbd 0964 b938
00000300: e54c b3bc 22bd 683d 0e6c 06be eb5d c9bd
00000310: b9fa 063d f23e 41be 79f8 d9bc 71dd 5fbd
00000320: 0cea 953d d208 2a3c 3ff3 ccbd babb 9ebd
00000330: 37a1 9bbd 083b 513e 87b9 46bd c855 773e
00000340: c24b 303e dea8 02be c6dc 2cbc d10b 853d
00000350: 8f9b 223d 92b1 d8bd 54d3 cbbd 5c4d 64bd
00000360: a30b 263e 6847 03bb 9c26 48bd abe8 93bb
00000370: 1516 93bd 3aa3 e63d e08a a23d 5a0a a43d
00000380: 07b6 4a3d 9750 01be 88b1 88bd 694f 94bc
00000390: 95ef eebc e992 cdbb e5a1 78bd 7ca6 f2bd
000003a0: 90f4 923d abc2 f03d 74ae 03be 4d1f 7e3d
000003b0: 75b0 3b3c 68b0 8fbd 26ab 183e dbf8 92bd
000003c0: 58c2 cabd 247d a9bd 3555 8dbd bf06 59ba
000003d0: 63a6 283e 8dd3 9a3d e614 463d d0ff 77bc
000003e0: a132 03be a359 fa3c f82b 2e3d f5ef d7bc
000003f0: 6dd6 46bc 1aa8 493c 2d35 143c 871b f13c

network.8.bias f4 [64]
-0.046125606 -0.06871221 0.0010655613 0.09487203 -0.03062762 0.07553858 0.015239814 0.12741546
-0.17650688 -0.19371423 -0.22242747 -0.13692185 0.14391614 0.0047459104 0.038709253 -0.015149046
-0.19451596 -0.23954217 -0.016089156 -0.11667279 0.073730804 -0.08592388 -0.13725501 0.10920142
0.16043413 -0.17276944 0.028310757 -0.14738744 -0.027749136 -0.21703266 0.09721094 -0.299044
0.120808214 -0.15305582 -0.04976789 0.069613524 0.18695243 0.08201524 -0.09093533 -0.15203707
-0.23889183 0.08919821 0.027027166 0.07429607 -0.082958974 -0.11913562 -0.109775916 0.049913052
0.2891109 0.270872 -0.1842298 0.05446366 -0.06350076 -0.4454493 -0.0058361953 -0.24989294
0.06928642 -0.2892606 -0.09864651 0.13478237 0.2062847 -0.3065906 -0.22300799 0.014985859
00000000: 34ee 3cbd fdb8 8cbd 4eaa 8b3a 444c c23d
00000010: c6e6 fabc f9b3 9a3d 6ab0 793c 3379 023e
00000020: 38be 34be 065d 46be 07c4 63be 3e35 0cbe
00000030: c15e 133e 9583 9b3b 988d 1e3d b433 78bc
00000040: 312f 47be 8b4a 75be 68cd 83bc 25f2 eebd
00000050: 2d00 973d dcf8 afbd 948c 0cbe fea4 df3d
00000060: d848 243e 79ea 30be f6eb e73c bcec 16be
00000070: 2852 e3bc cf3d 5ebe 8816 c73d 4c1c 99be
00000080: 4c6a f73d aaba 1cbe 6ad9 4bbd 8991 8e3d
00000090: 7570 3f3e 9bf7 a73d 4d3c babd 9baf 1bbe
000000a0: 0fa0 74be 8dad b63d 1368 dd3c 8a28 983d
000000b0: 65e6 a9bd 60fd f3bd 32d2 e0bd a171 4c3d
000000c0: 5806 943e bcaf 8a3e bda6 3cbe 4915 5f3d
000000d0: b00c 82bd ee11 e4be 8e3d bfbb efe3 7fbe
000000e0: 0ae6 8d3d f719 94be 2e07 cabd 6404 0a3e
000000f0: 4c3c 533e 71f9 9cbe 355c 64be 4087 753c

network.10.weight f4 [64, 64]
-0.025426086 -0.035680242 -0.068599656 0.10784793 0.03432861 0.047519162 -0.009375219 0.064096056
0.12624092 0.047491577 0.008090776 0.0022782807 -0.032763157 -0.049999606 -0.038182262 0.0033476634
-0.021351505 -0.03588065 0.031928733 -0.06469353 0.05971756 0.08098648 0.009803878 0.0009961417
-0.0013281894 0.09486688 0.03437967 0.018611675 -0.025204971 0.042978738 0.02056543 0.022189189
-0.008787466 0.043079 0.03967477 0.028510107 0.04038026 -0.0011826231 0.059360303 -0.020553024
0.0009681028 0.026141468 -0.010016549 -0.012990508 0.013190562 -0.004122782 0.028572371 -0.02146109
0.06920712 -0.021363702 0.012216419 0.010876467 -0.014052068 -0.017060013 -0.045903053 -0.025992842
-0.08249042 -0.07000332 -0.024756022 0.0473773 -0.029555034 0.038951892 0.029824967 0.014361163
0.032505233 0.04649005 0.08978523 -0.012913906 0.024343738 -0.020950159 -0.02479613 -0.03707547
-0.011871597 -0.0033023523 0.010863271 -0.017426806 0.0022377851 0.07854891 0.035011455 0.08785524
-0.03229109 -0.03930271 -0.052337818 -0.0025513154 -0.014459283 0.04541265 0.015214531 -0.03712006
0.049911764 0.03667939 0.029501595 0.10783614 0.036718063 -0.0051357583 -0.016700622 -0.028952153
-0.021528574 0.08250363 0.006529924 0.047998365 -0.077954024 0.02147535 -0.041800667 -0.040193077
0.031166954 -0.040941287 -0.022043739 -0.086654626 -0.0016599441 -0.007249917 0.026095744 -0.015241156
-0.02165202 -0.029404495 0.0052616033 0.0048885057 -0.022415733 -0.011900635 0.0006143071 -0.026023852
-0.08951688 0.015800873 0.035887577 -0.0008804368 0.015216071 -0.05196809 0.06562034 0.04705244
0.040638316 0.013545556 0.007484078 -0.02538047 -0.0006621019 -0.04261563 -0.05747213 0.005047455
-0.13986012 -0.013376297 0.028140048 -0.04849357 0.03427723 0.069422536 -0.10108077 0.040364444
0.09061958 0.010166859 0.015709467 0.009859053 0.0127508575 -0.029546635 -0.050852403 0.00725386
0.021916201 -0.13410181 0.061579514 -0.064310424 0.053808734 -0.040947832 -0.02770291 -0.0016523299
0.022932434 -0.049376413 -0.11871371 0.038673747 -0.06225334 0.012324274 -0.06288312 0.053954754
-0.07861943 -0.049278148 -0.09679589 0.0047457223 0.004347788 0.06373243 -0.055303846 -0.0053211283
0.045779683 0.012966219 -0.0077971406 -0.07049907 -0.0100773685 -0.026886916 -0.010706923 -0.0042402865
0.028624183 -0.01534017 0.08202466 -0.07191568 0.094335146 -0.02143369 0.14567362 -0.0037732632
0.04774512 0.026376808 -0.013418285 -0.012974623 -0.03212278 -0.013025019 0.09010202 0.031016825
0.036256954 0.07256226 -0.04511876 0.07192363 -0.022038357 0.07884685 -0.063963056 0.0032272018
-0.044969965 0.039574765 -0.06258549 -0.009733682 0.05414138 0.07882554 -0.002881729 -0.085565306
0.062207453 -0.028123965 0.021024732 -0.0031497008 -0.038730975 0.013554083 0.011086382 -0.007383377
0.045379657 -0.032524634 -0.009172436 -0.059262045 0.048242714 -0.019328203 0.015120142 0.06363891
-0.035095114 0.038990963 0.029383264 0.010501815 -0.015342444 0.045145776 -0.040384077 0.039992876
0.10784299 -0.017451001 -0.01778755 -0.020660328 0.046840753 0.06710618 0.04079542 0.066537306
-0.029876675 0.042368904 -0.01009928 0.030298958 0.010999793 -0.080168515 0.020631896 -0.076442145
00000000: 5e4a d0bc 7225 12bd fa7d 8cbd 60df dc3d
00000010: 289c 0c3d 74a3 423d 859a 19bc cb44 833d
00000020: 4d45 013e 8786 423d 2d8f 043c 354f 153b
00000030: a932 06bd 63cc 4cbd 0165 1cbd 7964 5b3b
00000040: 5ae9 aebc 97f7 12bd b4c7 023d 0b7e 84bd
00000050: 669a 743d 3ddc a53d 72a0 203c f890 823a
00000060: a416 aeba 9149 c23d b2d1 0c3d 8377 983c
00000070: a87a cebc 790a 303d d578 a83c 1ac6 b53c
00000080: 4ef9 0fbc 9b73 303d 0382 223d 078e e93c
00000090: c665 253d 3f02 9bba ca23 733d d15e a8bc
000000a0: 47c8 7d3a a226 d63c 741c 24bc 24d6 54bc
000000b0: 3a1d 583c 6718 87bb 9b10 ea3c 2bcf afbc
000000c0: 76bc 8d3d ee02 afbc 6027 483c 3633 323c
000000d0: a53a 66bc 71c1 8bbc d704 3cbd f1ee d4bc
000000e0: bdf0 a8bd e75d 8fbd 24cd cabc b30e 423d
000000f0: 661d f2bc 058c 1f3d 7d53 f43c 154b 6b3c
00000100: 3524 053d 5a6c 3e3d 52e1 b73d d994 53bc
00000110: 856c c73c ab9f abbc 4121 cbbc 73dc 17bd
00000120: 1681 42bc 476c 58bb dcfb 313c a9c2 8ebc
00000130: cea7 123b 40de a03d 2c68 0f3d 73ed b33d
00000140: a943 04bd e1fb 20bd 2e60 56bd f833 27bb
00000150: a1e6 6cbc 9d02 3a3d 5e46 793c 340b 18bd
00000160: 4770 4c3d 213d 163d 54ad f13c 32d9 dc3d
00000170: ae65 163d dd49 a8bb becf 88bc 112d edbc
00000180: b15c b0bc aaf7 a83d f9f8 d53b ef99 443d
00000190: 5ca6 9fbd 13ed af3c 2d37 2bbd 7fa1 24bd
000001a0: d751 ff3c 0db2 27bd 1295 b4bc fb77 b1bd
000001b0: 7b92 d9ba b690 edbb bec6 d53c 0bb6 79bc
000001c0: 945f b1bc b2e1 f0bc 8769 ac3b c22f a03b
000001d0: 33a1 b7bc e2fa 42bc 7409 213a f92f d5bc
000001e0: a054 b7bd d570 813c dafe 123d 1dcd 66ba
000001f0: d44c 793c 7edc 54bd f563 863d 0fba 403d
00000200: 5d74 263d 2eee 5d3c ff3c f53b b4ea cfbc
00000210: e890 2dba ba8d 2ebd e567 6bbd 1f65 a53b
00000220: 7e37 0fbe 4228 5bbc f585 e63c 32a1 46bd
00000230: 4866 0c3d 672d 8e3d 6f03 cfbd 3055 253d
00000240: c296 b93d e692 263c 24b1 803c de87 213c
00000250: f9e8 503c c90b f2bc 9c4a 50bd cab1 ed3b
00000260: 9b89 b33c fc51 09be cd3a 7c3d 2fb5 83bd
00000270: 8c66 5c3d eab8 27bd 37f1 e2bc fe92 d8ba
00000280: cddc bb3c ec3e 4abd 2c20 f3bd 5d68 1e3d
00000290: 5cfd 7ebd c0eb 493c ddc8 80bd a9ff 5c3d
000002a0: 3903 a1bd e2d7 49bd ec3c c6bd 0182 9b3b
000002b0: e477 8e3b 2686 823d 4986 62bd dc5c aebb
000002c0: 7a83 3b3d 4470 543c 287f ffbb d161 90bd
000002d0: 8c1b 25bc f341 dcbc 176c 2fbc 1af2 8abb
000002e0: 437d ea3c 5655 7bbc 8cfc a73d 8748 93bd
000002f0: c932 c13d b595 afbc 772b 153e da48 77bb
00000300: 6390 433d 2d14 d83c 5ed8 5bbc 8393 54bc
00000310: 2d93 03bd e466 55bc 6887 b83d ff16 fe3c
00000320: 2c82 143d 869b 943d 73ce 38bd b24c 933d
00000330: c989 b4bc 757a a13d 10ff 82bd 767f 533b
00000340: 6d32 38bd 2619 223d d22c 80bd 057a 1fbc
00000350: 5ac3 5d3d 496f a13d 64db 3cbb dd3c afbd
00000360: 3ecd 7e3d 3b64 e6bc 0f3c ac3c 366b 4ebb
00000370: 5fa4 1ebd f211 5e3c a8a3 353c 41f0 f1bb
00000380: 05e0 393d 8d38 05bd fc47 16bc c2bc 72bd
00000390: 279a 453d 2e56 9ebc 79ba 773c 1e55 823d
000003a0: e5bf 0fbd fdb4 1f3d 2cb5 f03c ce0f 2c3c
000003b0: e05e 7bbc c7ea 383d c669 25bd 92cf 233d
000003c0: c9dc dc3d 67f5 8ebc 32b7 91bc d93f a9bc
000003d0: 17dc 3f3d f76e 893d 1919 273d b644 883d
000003e0: eebf f4bc 048b 2d3d 7377 25bc 8535 f83c
000003f0: 7a38 343c 642f a4bd 3904 a93c b38d 9cbd

network.10.bias f4 [64]
-0.0028019259 0.123163365 -0.09586421 0.052340213 -0.08179512 0.0057205064 0.14799596 0.3668687
-0.031663977 -0.087442175 -0.056899235 -0.2007579 -0.024507917 -0.06515114 0.36185408 -0.121245265
0.017173484 0.04682157 -0.09929055 0.009455431 0.03252611 0.23824249 -0.10790468 0.16441317
-0.3750003 -0.2860525 -0.39248812 0.1579798 -0.1757501 0.07168278 -0.10846317 -0.011069104
-0.24751946 0.014837813 -0.14261283 -0.09763668 -0.18914065 0.1777723 0.057714593 0.064173706
0.08078829 0.15865056 -0.18513511 -0.16111027 0.3184186 -0.06140652 -0.4763125 0.24291545
0.1374687 0.098042086 0.11802877 -0.011838233 -0.23755698 0.075431235 -0.062146313 0.09959672
-0.16990042 0.028985864 0.11263333 0.13656585 0.041497592 -0.030706774 -0.14355794 -0.029457867
00000000: 84a0 37bb 133d fc3d 7454 c4bd b162 563d
00000010: 3384 a7bd 1673 bb3b 418c 173e 37d6 bb3e
00000020: 16b2 01bd e214 b3bd 2c0f 69bd 7b93 4dbe
00000030: d4c4 c8bc f66d 85bd f044 b93e 704f f8bd
00000040: 68af 8c3c f9c7 3f3d d858 cbbd f4ea 1a3c
00000050: 193a 053d d7f5 733e 21fd dcbd ed5b 283e
00000060: 0a00 c0be 7975 92be 34f4 c8be 75c5 213e
00000070: d6f7 33be 6cce 923d f021 debd 305b 35bc
00000080: be75 7dbe 4c1a 733c 1909 12be bdf5 c7bd
00000090: 16ae 41be f109 363e 2366 6c3d 816d 833d
000000a0: 5574 a53d 4b75 223e 0f94 3dbe 17fa 24be
000000b0: c307 a33e 6785 7bbd 3bdf f3be d4be 783e
000000c0: 98c4 0c3e 4aca c83d 11b9 f13d 26f5 41bc
000000d0: 2342 73be b17b 9a3d 228d 7ebd 5df9 cb3d
000000e0: 60fa 2dbe c373 ed3c 4eac e63d ebd7 0b3e
000000f0: 61f9 293d c68c fbbc da00 13be a051 f1bc

network.12.weight f4 [5, 64]
0.0043222713 0.016849812 0.05554515 -0.051330056 -0.03826633 -0.038916398 -0.09689881 -0.006537625
0.0544859 0.005832436 0.03780952 -0.021744719 -0.042259786 -0.021462366 0.008534097 0.0043939142
-0.011156821 -0.005248308 -0.17149709 -0.06901969 0.005099611 0.0021382535 -0.02523997 0.028085282
-0.23953468 0.0018007864 -0.030888021 -0.0059298924 -0.04738484 0.046023555 -0.014001191 -0.03601642
-0.09270124 -0.022048669 -0.0032844543 -0.0070001585 0.19541743 0.10413243 0.03420165 -0.042491764
0.024441723 0.08342763 -0.013611451 -0.0032981085 0.05809744 0.020458132 -0.39063954 0.07496025
0.0049449266 0.43420118 0.0049063335 0.010424236 -0.4060116 -0.03880156 0.016161976 0.029897513
0.02941482 -0.007907407 0.005442786 -0.0020327014 -0.0144836735 0.055470582 -0.006378505 0.034199886
-0.008956498 0.0010095758 0.034861565 -0.04009949 0.025702056 0.013385644 0.01234938 0.00015772782
-0.054371573 -0.039690554 -0.00713986 -0.0010189026 0.009514981 -0.03261026 -0.0068310965 -0.011859242
-0.0034876328 -0.025565118 -0.0862166 0.006815052 -0.0007305982 -0.0064250543 -0.005833729 -0.009926222
0.08908181 -0.13598974 -0.007975843 -0.07028771 -0.042652354 0.044126563 -0.0034954434 0.00539321
-0.06787557 -0.0251734 -0.0032692899 0.003698275 -0.18865986 -0.26269403 -0.012890671 -0.030355103
0.14982592 0.047708392 0.092865825 -0.013753753 -0.053185564 0.011131238 -0.09689343 0.043649644
-0.020014023 0.06512158 0.012460451 0.041343257 0.026379846 0.029518018 -0.015825406 -0.033391282
-0.047636647 -0.087436505 0.03816944 0.023085965 0.0004895065 0.029229162 -0.02009117 -0.04023922
0.047130235 0.032291062 0.020915886 -0.046717964 0.0013465799 0.008996858 0.17296712 0.9387895
0.013278321 0.0027128812 -0.022068108 -0.1475993 0.061854724 -0.019297823 0.5140514 0.0053575356
-0.0045859907 0.044658408 0.18844453 0.0053301365 -0.031980686 0.79115397 -0.0047147884 0.04706915
-0.13533624 0.0065350463 -0.63782334 -0.07274014 -0.015294524 0.016543603 -0.060177576 -0.00797475
-0.06000112 -0.057444792 -0.31654796 -0.022347463 -0.25498366 -0.011520322 0.025618406 0.026733696
-0.20435943 -0.1383647 0.012096474 0.062144022 0.30452436 -0.076367065 -0.33586523 0.109714456
0.46071652 -0.16440304 0.035806965 0.020889446 0.055682734 0.05909665 -0.062231667 -0.0114531135
0.06724207 0.0024286492 0.035717517 0.009239598 1.3667105 -0.0051924186 -0.035119366 -0.03238923
-0.061036203 -0.06116863 0.04732635 -0.011845328 -0.007236049 -0.045310523 -0.07434944 0.17854199
0.025494106 -0.03169284 0.049903795 0.12808704 -0.0063000815 -0.00584347 0.27052367 0.013999091
0.009015292 0.011941298 -0.24111314 0.030342057 0.059529845 0.13318494 0.023290705 0.030082177
-0.009172636 -0.4074945 -0.106493406 0.49298596 0.07986011 0.019107578 -0.033648584 0.06309482
0.564417 -0.015550972 0.51452875 -0.019458901 0.0015534912 0.027565245 0.037370402 -0.0006562018
0.23146093 0.49230206 -0.27938747 -0.023928123 0.008090762 -0.047295824 -0.23014143 -0.47915313
0.3902008 -0.083525084 0.004922437 -0.0043366896 0.037761945 -0.06299034 0.002745532 -0.004273624
0.091269895 -0.049943626 0.018423134 0.02846765 -0.070216455 0.0049228454 -0.6843202 -0.04340619
00000000: d7a1 8d3b 9e08 8a3c 5083 633d 773f 52bd
00000010: 28bd 1cbd cd66 1fbd e272 c6bd 9339 d6bb
00000020: 9b2c 5f3d 051e bf3b 28de 1a3d fb21 b2bc
00000030: 9918 2dbd d8d1 afbc 99d2 0b3c d3fa 8f3b
00000040: 19cb 36bc 00fa abbb ef9c 2fbe 325a 8dbd
00000050: a31a a73b f121 0c3b 0ec4 cebc 1b13 e63c
00000060: 9448 75be 5d08 ec3a e008 fdbc 8b4f c2bb
00000070: 9b16 42bd 3283 3c3d 4065 65bc f485 13bd
00000080: 26da bdbd 699f b4bc 0040 57bb 9661 e5bb
00000090: 821b 483e 6243 d53d 0817 0c3d d80b 2ebd
000000a0: 023a c83c 1bdc aa3d 9002 5fbc 1425 58bb
000000b0: 95f7 6d3d d097 a73c e801 c8be c284 993d
000000c0: 0d09 a23b 9e4f de3e 4fc5 a03b 6aca 2a3c
000000d0: c1e0 cfbe 62ee 1ebd 1f66 843c a1eb f43c
000000e0: 59f7 f03c 128e 01bc 6659 b23b 1237 05bb
000000f0: ee4c 6dbc 1f35 633d c702 d1bb 2e15 0c3d
00000100: 46be 12bc be53 843a 00cb 0e3d 5d3f 24bd
00000110: 1e8d d23c 764f 5b3c 0e55 4a3c bd63 2539
00000120: bab4 5ebd 9092 22bd 7df5 e9bb b38c 85ba
00000130: b9e4 1b3c 5692 05bd 64d7 dfbb 444d 42bc
00000140: c590 64bb f06d d1bc 5492 b0bd cd50 df3b
00000150: 9e85 3fba 4389 d2bb de28 bfbb 98a1 22bc
00000160: 8670 b63d e540 0bbe 1cad 02bc 01f3 8fbd
00000170: 3cb4 2ebd 0ebe 343d cf13 65bb 86b9 b03b
00000180: 5902 8bbd 7238 cebc 9541 56bb c25e 723b
00000190: 0d30 41be d57f 86be 6533 53bc 44ab f8bc
000001a0: f76b 193e e069 433d 7030 be3d 6c57 61bc
000001b0: 1bd9 59bd cc5f 363c 1070 c6bd f8c9 323d
000001c0: 73f4 a3bc 775e 853d eb26 4c3c 8c57 293d
000001d0: 8c1a d83c c5cf f13c 48a4 81bc 4cc5 08bd
000001e0: a51e 43bd e911 b3bd 8f57 1c3d c71e bd3c
000001f0: 3a52 003a ff71 ef3c 3d96 a4bc e1d1 24bd
00000200: a20b 413d a243 043d cb57 ab3c 565b 3fbd
00000210: b97f b03a 8f67 133c 4b1e 313e 8254 703f
00000220: 518d 593c 98ca 313b 2dc8 b4bc 4524 17be
00000230: 615b 7d3d 7816 9ebc df98 033f 448e af3b
00000240: 1446 96bb bceb 363d 9af7 403e 6da8 ae3b
00000250: 2efe 02bd 1189 4a3f 837e 9abb 95cb 403d
00000260: 9595 0abe f123 d63b 6448 23bf c8f8 94bd
00000270: e295 7abc 7386 873c c37c 76bd 87a8 02bc
00000280: bcc3 75bd 3b4b 6bbd 9312 a2be 0712 b7bc
00000290: 388d 82be bcbf 3cbc b1dd d13c a000 db3c
000002a0: 9943 51be 7aaf 0dbe 4a30 463c bb8a 7e3d
000002b0: 9eea 9b3e 5666 9cbd 87f6 abbe f9b1 e03d
000002c0: 09e3 eb3e 4559 28be 53aa 123d 5820 ab3c
000002d0: 9413 643d 540f 723d a2e6 7ebd d7a5 3bbc
000002e0: 36b6 893d f929 1f3b 884c 123d af61 173c
000002f0: 5ff0 ae3f 2a25 aabb 53d9 0fbd 92aa 04bd
00000300: 1901 7abd f58b 7abd 46d9 413d e812 42bc
00000310: 611c edbb 8797 39bd 8544 98bd b6d3 363e
00000320: 04d9 d03c 5ad0 01bd ec67 4c3d 4029 033e
00000330: ea70 cebb 947a bfbb 1482 8a3e 725c 653c
00000340: e0b4 133c 6fa5 433c 5de6 76be e88f f83c
00000350: 91d5 733d a261 083e 26cc be3c e66e f63c
00000360: d348 16bc 1ea3 d0be 3719 dabd a868 fc3e
00000370: b38d a33d 7f87 9c3c 19d3 09bd db37 813d
00000380: a27d 103f 81c9 7ebc 28b8 033f 4668 9fbc
00000390: 849e cb3a 82d0 e13c b511 193d f504 2cba
000003a0: 1804 6d3e 040f fc3e e00b 8fbe e904 c4bc
000003b0: 1e8f 043c 44b9 41bd 32aa 6bbe 8f53 f5be
000003c0: 66c8 c73e 330f abbd 654c a13b ca1a 8ebb
000003d0: 45ac 1a3d 1401 81bd 62ee 333b c209 8cbb
000003e0: b6eb ba3d b091 4cbd 1dec 963c fd34 e93c
000003f0: a5cd 8fbd d24f a13b 9c2f 2fbf b0ca 31bd
