Clean/models/no_xavier1_6_64.pth (torch, 90556 bytes, 14 tensors)

network.0.weight f4 [64, 2]
0	0x3f49bd53	0.7880451
1	0x3e74d32b	0.23908679
2	0x3ec84a83	0.39119348
3	0xbf3c19d6	-0.7347692
4	0xbf4535a5	-0.7703498
5	0x3f9cdb18	1.2254362
6	0x3f471e4f	0.7778062
7	0x3e9863bd	0.29763594
8	0x3f1dcd23	0.6164114
9	0xbf9089da	-1.1292069
10	0x3dde80d9	0.108644195
11	0x3ee195a9	0.44059494
12	0x3dcc0e11	0.099636205
13	0xbf0def0e	-0.55442894
14	0xbea81d26	-0.32834738
15	0x3fb02a3d	1.376289
16	0x3dbd7068	0.092499554
17	0x3df16208	0.11786276
18	0x3ecd889e	0.40143293
19	0x3f402036	0.7504915
20	0x3c169648	0.009191103
21	0x3eec4946	0.46149653
22	0xbf36607a	-0.7124096
23	0xbd288066	-0.041138075
24	0x3f036d8e	0.5133904
25	0xbf1138eb	-0.56727475
26	0x3ebf8ca4	0.37411988
27	0xbf6345a7	-0.88778156
28	0xbeba5eb7	-0.36400387
29	0x3ec3ce23	0.38243207
30	0x3d8f992b	0.07011636
31	0x3f792a71	0.97330385
32	0xbf26717a	-0.650169
33	0xbf206dd9	-0.62667614
34	0x3ee007dc	0.43755996
35	0xbf2ef508	-0.6834264
36	0xbf06b9bf	-0.52627176
37	0xbe030327	-0.12794171
38	0x3dcc5af8	0.099782884
39	0xbf9bb008	-1.2163095
40	0x3b829ff2	0.003986352
41	0x3edf3333	0.4359375
42	0xbd5aa1b4	-0.05337687
43	0xbf67574a	-0.9036757
44	0xbf29413e	-0.66115177
45	0xbf16790f	-0.5877847
46	0x3ef5c2b3	0.48000106
47	0xbebf6c61	-0.37387374
48	0x3eceb28f	0.40370604
49	0x3d0f86a6	0.03504052
50	0xbc9e212c	-0.019302927
51	0xbcc87780	-0.024471045
52	0xbe760e0d	-0.24028797
53	0x3eb544fe	0.354042
54	0x3e2c40c7	0.16821586
55	0x3f783dff	0.969696
56	0xbe3c6d20	-0.18401003
57	0x3f67cb7d	0.90544873
58	0xbf01d42a	-0.5071436
59	0xbf7da251	-0.990758
60	0x3f3d955c	0.7405603
61	0xbfa53071	-1.2905408
62	0xbe2662b1	-0.16248585
63	0xbf651697	-0.89487594
64	0x3ea35b9d	0.31905833
65	0x3f4bc17e	0.7959212
66	0xbea17d5e	-0.3154096
67	0x3cc21264	0.02369041
68	0x3c05c696	0.008165022
69	0x3ad0c0d3	0.0015926607
70	0x3b8aca00	0.004235506
71	0x3ba086eb	0.004898896
72	0x3ea9e3be	0.33181566
73	0xbf79cebe	-0.9758109
74	0xbf00eb66	-0.5035919
75	0x3f852f74	1.0405107
76	0xbf03ffaa	-0.5156199
77	0x3ed29ef5	0.411369
78	0xbef63a01	-0.48091128
79	0x3fb2ac24	1.3958783
80	0xbe347381	-0.17622186
81	0xbd69946b	-0.057026308
82	0xbea059de	-0.31318563
83	0xbf78f721	-0.9725209
84	0xbeb309ab	-0.34968314
85	0xbeb68138	-0.3564546
86	0xbe99b4ff	-0.30020902
87	0x3f436393	0.76323813
88	0x3bd77813	0.0065755933
89	0x3b1b55a3	0.0023702167
90	0xbeb1f0e3	-0.34754094
91	0x3e16ee6b	0.14739387
92	0xbf30107a	-0.6877514
93	0x3f333d18	0.70015097
94	0x3f3749ea	0.7159716
95	0xbe47f392	-0.19526508
96	0xbed1c315	-0.40969148
97	0xbf185c62	-0.59515965
98	0xbf596373	-0.8491737
99	0x3f0fbee5	0.56150657
100	0x3c296cbb	0.010340865
101	0x3e9af967	0.30268404
102	0xbf1fca58	-0.6241813
103	0xbf170835	-0.589969
104	0xbdc425db	-0.09577533
105	0xbf91184c	-1.133554
106	0xbe25911f	-0.1616864
107	0xbf0de66d	-0.55429727
108	0xbf162a08	-0.58657885
109	0x3f4f5fdd	0.8100565
110	0x3f1854c4	0.5950434
111	0xbf4ee7d5	-0.808225
112	0xbef15244	-0.47133076
113	0xbf1916dd	-0.5980051
114	0x40265492	2.5989118
115	0x3e3746ca	0.17898098
116	0x3f148b1c	0.58024764
117	0xbd941640	-0.07230806
118	0x3ed5c0f1	0.41748765
119	0xbf4bf6b2	-0.796733
120	0xbe22190b	-0.15829866
121	0x3b31873a	0.0027088658
122	0x3e7ba32c	0.24573964
123	0x3f086323	0.5327627
124	0x3ec327d1	0.38116315
125	0xbf8bc72e	-1.092016
126	0xbf242c9e	-0.6413058
127	0x3f25512b	0.6457698

network.0.bias f4 [64]
0	0xbf5aa53f	-0.85408396
1	0xbdc62331	-0.09674681
2	0x3e07b7f1	0.13253762
3	0xbf6fb559	-0.9363609
4	0xbd6ff5a6	-0.058583878
5	0xbea90918	-0.3301475
6	0x3e807609	0.25090054
7	0xbe9f0b61	-0.3106337
8	0xbe022595	-0.12709649
9	0xbf404b51	-0.75114924
10	0xbe88f1dc	-0.26747024
11	0x3f3432a0	0.7038975
12	0xbefbbec9	-0.49168995
13	0x3d8d4b71	0.06899155
14	0x3e8c533a	0.27407247
15	0xbee07775	-0.43841138
16	0x3f725c04	0.94671655
17	0x3ebc5699	0.3678482
18	0x3f19b431	0.60040575
19	0x3f13c7e8	0.5772691
20	0xbe2e79f1	-0.17038704
21	0x3eb5d619	0.35514906
22	0x3d8f17a3	0.0698693
23	0xbea93bcf	-0.33053443
24	0xbf08abb4	-0.53387
25	0x3cd61bf8	0.026136383
26	0x3dd9a171	0.10626496
27	0xbf1dd796	-0.61657083
28	0xbe515191	-0.20441271
29	0x3f7dd6fc	0.99156165
30	0xbe1d9c8b	-0.15391748
31	0x3f222cdc	0.633497
32	0xbf3a753c	-0.72835135
33	0x3ea36870	0.31915617
34	0xbc891620	-0.016734183
35	0x3b2e9997	0.002664184
36	0x3e434867	0.19070588
37	0xbe09cb99	-0.13456573
38	0x3eccd1fb	0.40003952
39	0xbe844140	-0.25831032
40	0x3e3e542c	0.18586797
41	0x3f44fabf	0.7694511
42	0x3efddfe1	0.4958487
43	0xbd355254	-0.044267967
44	0xbb4bda61	-0.0031105506
45	0x3eb01858	0.34393573
46	0xbd2fc286	-0.04291012
47	0xbf28c33d	-0.6592291
48	0x3f1691cc	0.5881622
49	0x3f0d8e4e	0.55295265
50	0xbdb234b6	-0.0870146
51	0x3f58b756	0.8465475
52	0x3f349b79	0.7054973
53	0x3eb86b5f	0.36019418
54	0xbe918b52	-0.28426605
55	0xbe8503a6	-0.25979346
56	0x3f4cbd4b	0.7997634
57	0x3eba073e	0.3633365
58	0xbf0781c4	-0.5293238
59	0xbd88bcee	-0.066766605
60	0x3e19b306	0.15009698
61	0xbef499ab	-0.4777349
62	0x3e6989d8	0.2280649
63	0x3ed79059	0.42102316

network.2.weight f4 [64, 64]
0	0x3e46ca04	0.19413
1	0xbe0c5833	-0.1370552
2	0x3e07ea81	0.1327305
3	0x3d8374c9	0.064187594
4	0xbdf10fa7	-0.117705636
5	0xbdc40805	-0.09571842
6	0x3c106d1b	0.008815075
7	0x3cd99bcd	0.02656355
8	0xbd920b49	-0.07131059
9	0xbdfea863	-0.12434461
10	0xbe50fe71	-0.20409562
11	0xbe30a573	-0.17250614
12	0xbd2776d7	-0.04088482
13	0xbe08eec6	-0.13372335
14	0xbe1c7124	-0.15277535
15	0xbd9eecc2	-0.07760002
16	0xbda394e2	-0.079873815
17	0x3e2fd55d	0.17171235
18	0xbd69c918	-0.057076544
19	0x3d12a2fe	0.035799973
20	0x3d747b79	0.059688065
21	0x3c8f2b22	0.017476622
22	0x3d658c45	0.056041975
23	0x3dc1f82e	0.09471165
24	0x39da3868	0.00041622226
25	0xba7e352e	-0.00096972554
26	0xbcefba51	-0.029263647
27	0x3b8c4fcb	0.004281973
28	0x3e00da45	0.12583263
29	0x3e0a4e0e	0.13506338
30	0xbd14e668	-0.036352545
31	0xbd352402	-0.044223793
32	0xbe2a0d0b	-0.16606538
33	0xbd8bf2a4	-0.068333894
34	0xbd925343	-0.07144787
35	0xbdc23ec6	-0.09484629
36	0xbd9442e3	-0.0723932
37	0xbdea01bc	-0.11426112
38	0xbad05274	-0.0015893714
39	0x3dc2d59e	0.095134005
40	0xbca91244	-0.020638593
41	0x3dda4627	0.10657912
42	0xbd1ecb19	-0.038767908
43	0x3d4a9b66	0.049464606
44	0xbcb5f7b6	-0.022212844
45	0x3d48f716	0.049063765
46	0xbe46f489	-0.1942922
47	0x3b19b2bf	0.0023452488
48	0x3df2832f	0.118414275
49	0x3dbd56b0	0.0924505
50	0xbd44885f	-0.047981616
51	0x3dba7013	0.09103408
52	0x3dc0d0b4	0.09414807
53	0xbc87c750	-0.016574532
54	0xbe13772d	-0.1440093
55	0xbdf22f4c	-0.118254274
56	0xbdb0acc2	-0.08626701
57	0xbe4b32cd	-0.19843598
58	0x3d98c431	0.074592955
59	0x3c805dc8	0.015669718
60	0xbce21a90	-0.027600557
61	0x3cb7705e	0.022392448
62	0xbd93d973	-0.072192095
63	0x3d8491e0	0.06473136
64	0x3e17b3e1	0.14814712
65	0x3e0a31e9	0.13495602
66	0x3dd47b80	0.10375118
67	0xbd911006	-0.07083134
68	0x3c8fe84a	0.017566819
69	0x3e03532e	0.128247
70	0xbda3df41	-0.08001567
71	0x3e1ae127	0.15124951
72	0x3d5b9586	0.053609394
73	0x3c8825a6	0.016619515
74	0x3ca9b3be	0.02071559
75	0xbd56a4e3	-0.052403342
76	0x3d36b4d5	0.04460605
77	0xbd4bb591	-0.049733702
78	0xbe3720c1	-0.17883588
79	0xbe088054	-0.13330203
80	0x3df8dfa6	0.121520326
81	0x3d044c41	0.032299284
82	0xbdf00dec	-0.117214054
83	0x3ded9ba1	0.116019495
84	0x3d5f3fdc	0.05450426
85	0x3d2abaeb	0.041682165
86	0xbc8c5d6e	-0.017134394
87	0xbc45a74c	-0.012063812
88	0x3dcaf9c7	0.099109225
89	0x3d6c2f0b	0.05766205
90	0xbe2d72e3	-0.16938357
91	0xbdd52ef8	-0.10409349
92	0x3da801d6	0.08203475
93	0x3d25f40e	0.04051595
94	0xbe4b6059	-0.19860972
95	0x3daf6813	0.085647725
96	0x3d8b45f9	0.068004556
97	0x3c506527	0.012719429
98	0xbd4d48f5	-0.050118405
99	0xbdce46fa	-0.100721315
100	0xbd8df571	-0.0693158
101	0x3e59e9bc	0.21280569
102	0xbe26574f	-0.16244243
103	0x3c445b1b	0.011984612
104	0xbbe3ca60	-0.006951615
105	0x3e19dd6b	0.1502587
106	0x3d0863f4	0.033298448
107	0xbe15c2e2	-0.14625123
108	0x3ddd4e8d	0.10805998
109	0x3d5e9920	0.05434525
110	0x3e3277b3	0.17428474
111	0x3e3047b1	0.17214848
112	0xbbc47026	-0.0059948144
113	0x3dc60565	0.09668998
114	0xbcb2e508	-0.021837726
115	0xbc1fc1be	-0.009750782
116	0xbc5ef76c	-0.013608795
117	0x3d284233	0.041078757
118	0x3e293415	0.16523774
119	0x3d9bb109	0.07602126
120	0x3d218739	0.0394356
121	0x3e8e2ccb	0.2776855
122	0x3e1881ff	0.1489334
123	0x3db089c6	0.08620028
124	0x3cd33e2b	0.02578648
125	0xbdc4c8af	-0.0960859
126	0xbde742cf	-0.112920396
127	0xbe191da6	-0.14952716
128	0x3e1c8a86	0.15287217
129	0x3e4c3d73	0.19945316
130	0x3e3c429f	0.18384789
131	0xbda01e97	-0.078183345
132	0x3cd01ae2	0.025403444
133	0xbc9541e5	-0.018219898
134	0xbe1e7e79	-0.15477933
135	0x3d9acb95	0.075583614
136	0x3d7c399d	0.06157838
137	0x3e7206e3	0.2363544
138	0x3d7a4e94	0.061110094
139	0xbe236149	-0.1595508
140	0x3e7200b9	0.23633088
141	0x3dbd9ef6	0.09258835
142	0xbec49ba8	-0.38400006
143	0xbe81731c	-0.25283134
144	0x3d9adc5d	0.07561562
145	0xbe8d3b3d	-0.27584258
146	0xbd792c00	-0.060832977
147	0x3e249105	0.16070946
148	0xbe0d7a9c	-0.13816303
149	0x3e96f6cd	0.2948517
150	0x3e378630	0.17922282
151	0x3d9339d7	0.071887664
152	0x3e288587	0.16457187
153	0x3dbd6f68	0.09249765
154	0xbddf4f74	-0.10903826
155	0xbdf32a37	-0.11873286
156	0xbe9e4adb	-0.30916485
157	0xbbc1b685	-0.0059116506
158	0x3b854422	0.00406696
159	0x3db1575f	0.08659243
160	0xbdcc1712	-0.09965338
161	0xbe4bd851	-0.19906737
162	0x3d917c26	0.071037576
163	0x3d17b7b3	0.037040424
164	0x3d30de97	0.04318103
165	0x3dc57b0e	0.096426114
166	0xbea01e4b	-0.31273112
167	0x3dc2fe1f	0.09521126
168	0x3c6c11a7	0.0144085055
169	0xbd84527a	-0.06461044
170	0x3dfe43ca	0.124152735
171	0xbd3ae234	-0.04562588
172	0x3b123838	0.002231134
173	0xbe58ff21	-0.21191074
174	0x3e18badb	0.1491503
175	0x3e74309d	0.2384667
176	0x3e40da54	0.18833286
177	0x3ccc4ce1	0.024939002
178	0xbd359f73	-0.044341516
179	0x3e3a566e	0.18197033
180	0xbd6784b6	-0.056523047
181	0x3e6bbe25	0.23021753
182	0x3df6f818	0.12059039
183	0x3d46a5d4	0.04849799
184	0xbe926983	-0.28596124
185	0xbe4100f5	-0.18848021
186	0x3d6e2737	0.058142867
187	0xbd30e57a	-0.043187596
188	0x3cce552c	0.025187097
189	0xbd409812	-0.047020026
190	0xbddae033	-0.10687294
191	0xbe22ceff	-0.15899275
192	0xbdb755fa	-0.089519456
193	0xbe1c0aa3	-0.15238433
194	0x3e285a3a	0.16440669
195	0x3d14117c	0.036149487
196	0xbe23461d	-0.15944715
197	0xbbef123e	-0.007295876
198	0xbe206468	-0.15663302
199	0x3d5b3e38	0.053526133
200	0x3dc80f48	0.0976854
201	0x3e4738b8	0.1945523
202	0x3daba26c	0.08380589
203	0xbd899a74	-0.06718913
204	0xbc25850d	-0.010102523
205	0xbdb6cf23	-0.08926227
206	0x3e2f149c	0.17097706
207	0xbe0327a0	-0.12808084
208	0xbdd6ae40	-0.10482454
209	0xbe3459d7	-0.17612396
210	0x3e0d35fe	0.13790128
211	0x3926f03a	0.00015920485
212	0x3de3cc67	0.11122971
213	0x3e294194	0.16528922
214	0x3eaefcd7	0.34177276
215	0xbe14fc1d	-0.14549299
216	0xbde680f1	-0.11255062
217	0x3c3690bd	0.011142907
218	0x3e09ac36	0.134446
219	0x3e09c759	0.13454951
220	0x3da74458	0.081673324
221	0xbcb5b96e	-0.022183146
222	0xbdff85eb	-0.12476715
223	0xbdc386db	-0.09547206
224	0x3e2e0b8d	0.16996594
225	0x3e1e3f34	0.15453798
226	0x3b84ca04	0.0040524025
227	0xbd68ed45	-0.056866903
228	0xbde512b6	-0.111852095
229	0x3db64c7f	0.08901309
230	0x3d39d288	0.045366794
231	0x3dddd7f1	0.10832203
232	0xbc2fcc44	-0.010729853
233	0xbe2bd558	-0.16780603
234	0x3e0b598f	0.13608383
235	0x3df92d89	0.12166888
236	0xbd3e9ff8	-0.046539277
237	0x3dbda1be	0.092593655
238	0x3e2ceed6	0.16887984
239	0xbd601820	-0.054710507
240	0x3e75e964	0.24014813
241	0x3dc0ceca	0.09414442
242	0xbcdbe594	-0.02684287
243	0x3e0b11b3	0.1358097
244	0xbbba1a0a	-0.0056793736
245	0x3c8e0bee	0.017339673
246	0x3e94889e	0.2901048
247	0xbdecb72c	-0.11558375
248	0xbd5c9c5f	-0.053860065
249	0xbedbc075	-0.4292027
250	0xbe1cfc21	-0.15330555
251	0xbe3afe91	-0.18261172
252	0x3e02b26b	0.12763374
253	0x3d00e722	0.031470425
254	0xbe6a726f	-0.22895215
255	0x3e29d6af	0.16585802

network.2.bias f4 [64]
0	0xbc6cb4db	-0.014447416
1	0x3d37c216	0.04486283
2	0xbea4fad4	-0.32222617
3	0x3dc557e1	0.09635902
4	0x3db05372	0.08609666
5	0xbdbbcc62	-0.09169842
6	0xbe2bac72	-0.16765001
7	0xbd913ba0	-0.07091451
8	0x3d989f8d	0.07452307
9	0x3d66a4b2	0.05630941
10	0x3ea694bc	0.3253535
11	0x3dc4828b	0.095952116
12	0x3e16366c	0.14669198
13	0xbe0426a7	-0.1290537
14	0x3da6ef6d	0.081511356
15	0xba5f0732	-0.0008507847
16	0xbe005894	-0.1253379
17	0xbd52e007	-0.05148318
18	0x3d97021a	0.07373448
19	0x3d97ab45	0.07405714
20	0x3d87362a	0.06602128
21	0x3ad6c601	0.0016385914
22	0xbccdb09e	-0.025108632
23	0x3da1b3db	0.07895633
24	0x3e838c1d	0.25692835
25	0xbca81998	-0.020520017
26	0xbe1ad963	-0.15121989
27	0x3bd9d194	0.006647298
28	0x3e170261	0.14747001
29	0x3dd4aa68	0.10384065
30	0x3d2c2fd2	0.042037793
31	0x3d28a84a	0.041176118
32	0xbe05c7f2	-0.13064554
33	0xbc4313c7	-0.011906571
34	0x3e8d944b	0.276522
35	0x3e7611a0	0.24030161
36	0xbe9f1601	-0.31071475
37	0x3e1fb6a8	0.15597022
38	0xbdfb80f1	-0.12280453
39	0xbdb17334	-0.086645514
40	0x3920d7c5	0.0001533917
41	0xbd608c3b	-0.054821234
42	0x3e6e5575	0.23274787
43	0x3d847ef7	0.06469529
44	0xbaaf2222	-0.0013361613
45	0xbec966bc	-0.39336193
46	0x3e02c443	0.1277018
47	0xbc14ec8f	-0.009089603
48	0x3e27e25e	0.16394946
49	0x3d435533	0.047688674
50	0x3d0f71f5	0.035020787
51	0xbddea724	-0.10871723
52	0x3dacb82f	0.08433568
53	0xbcd284b1	-0.025698038
54	0x3c6d2464	0.014474008
55	0xbcf4425f	-0.029816804
56	0x3e67da53	0.22641878
57	0xbd932e0f	-0.07186519
58	0xbcc07a97	-0.023495955
59	0x3c7f6d79	0.015590065
60	0xbea2c500	-0.31790924
61	0x3d636a85	0.055521507
62	0xbe1a6f63	-0.15081553
63	0xbd5b5994	-0.053552225

network.4.weight f4 [64, 64]
0	0x3d42fd97	0.047605123
1	0x3dd62809	0.10456855
2	0x3d12aced	0.035809446
3	0xbe2d1a8e	-0.16904661
4	0xbd7e03ea	-0.06201545
5	0xbd8999e6	-0.06718807
6	0xbd46fbe5	-0.04858007
7	0x3e2d6d69	0.16936268
8	0x3e2045e8	0.15651667
9	0x3e03a34d	0.12855263
10	0x3cb1f756	0.021724384
11	0xbc9c3b4c	-0.019071244
12	0x3dc856df	0.09782194
13	0xbdae9dcd	-0.08526192
14	0x3d020e83	0.03175212
15	0x3d4fed3f	0.050763365
16	0x3c165d8a	0.009177575
17	0xbe374044	-0.17895609
18	0x3dee2e0b	0.11629876
19	0x3d0c64be	0.034275763
20	0xbc2dd85c	-0.010610666
21	0x3dddf00b	0.108368
22	0xbcda6a68	-0.026662067
23	0x3e406249	0.18787493
24	0x3d34ec67	0.044170763
25	0x3d786e0a	0.060651816
26	0xbed53273	-0.41640052
27	0x3d76e9ca	0.060281552
28	0x3dbd8060	0.09253001
29	0xbdae7530	-0.085184455
30	0x3de79a2a	0.11308701
31	0x3e1ac4fb	0.15114205
32	0xbd7fa112	-0.062409468
33	0xbe9bc681	-0.30424884
34	0x3d99271d	0.074781634
35	0x3e9b50c6	0.30335063
36	0xbe94f107	-0.2909014
37	0x3d1a0e67	0.03761139
38	0xbe16d6b3	-0.14730339
39	0xbebfb70f	-0.3744435
40	0xbde2371f	-0.1104567
41	0xbcaeef02	-0.021354202
42	0x3e61f0e1	0.22064544
43	0xbcd3e02d	-0.025863731
44	0x3cd6dc78	0.026228175
45	0x3d945648	0.07243019
46	0xbe7cea42	-0.24698737
47	0x3e41493e	0.18875596
48	0x3d97f971	0.07420624
49	0x3e15c227	0.14624844
50	0x3d2e9386	0.042621158
51	0xbb6718c0	-0.0035262555
52	0x3e5a9a4a	0.21347919
53	0xbd4f154a	-0.050557412
54	0x3cb92d25	0.022604534
55	0xbe8dfca8	-0.27731824
56	0x3e9e3fca	0.30908042
57	0xbe05b6d4	-0.13058025
58	0xbe2fb96d	-0.17160578
59	0xb8da48be	-0.00010408599
60	0x3e32e6c2	0.1747084
61	0x3e1bf745	0.15231045
62	0xbd0e8229	-0.0347921
63	0xbeb0aef4	-0.3450848
64	0x3c1c106c	0.0095254
65	0x3dbe2d06	0.09285931
66	0x3e5a3e40	0.21312809
67	0xbeb89225	-0.36049
68	0x3d497978	0.049188107
69	0x3d673b5b	0.05645309
70	0x3ccdc0a9	0.025116282
71	0xbe0c4a60	-0.13700247
72	0xbd574323	-0.05255426
73	0xbe406caf	-0.1879146
74	0xbea57cfe	-0.32321924
75	0x3c5948fc	0.01326203
76	0x3dd303f7	0.103034906
77	0xbcc882a8	-0.024476364
78	0x3c226faa	0.009914318
79	0xbe02b0a2	-0.12762693
80	0xbdcd5ecf	-0.10027849
81	0xbe172141	-0.14758779
82	0x3caca9bd	0.021077031
83	0xbc330c5a	-0.010928238
84	0x3bbc0dd6	0.005738954
85	0x3b1093e5	0.0022060808
86	0x3dc8283b	0.09773298
87	0xbd8ef738	-0.06980747
88	0x3c219675	0.009862532
89	0x3dc7e059	0.09759588
90	0x3e4bab82	0.19889644
91	0x3c9dc1e6	0.019257497
92	0xbdc70d84	-0.09719375
93	0x3d8e91a4	0.069613725
94	0xbd4fe72a	-0.050757565
95	0xbda0dd04	-0.078546554
96	0xbc8e5235	-0.017373184
97	0xbd95a6fd	-0.07307241
98	0x3d2322fb	0.03982828
99	0xbc9d9c2a	-0.019239504
100	0xbd8c23a3	-0.06842735
101	0x3d8e60bf	0.069520466
102	0xbe00a08b	-0.12561242
103	0xbe080066	-0.13281402
104	0xbd192ef7	-0.037398305
105	0x3d24ca5c	0.040232047
106	0x3d47363a	0.0486357
107	0xbd6ac016	-0.057312094
108	0x3dbe8c86	0.093041465
109	0xbd0b5f30	-0.034026325
110	0xbe0ef2b4	-0.13959771
111	0x3ba21743	0.0049466207
112	0xbd738cda	-0.0594605
113	0xbd24541f	-0.040119287
114	0xbd02541a	-0.031818487
115	0x3e1a7217	0.15082584
116	0xbda87cdc	-0.0822694
117	0x3d72dedf	0.059294578
118	0x3dc25e6e	0.09490667
119	0x3db6baaf	0.08922326
120	0x3e8ffba5	0.28121677
121	0xbdf6ebff	-0.120567314
122	0x3c6ab853	0.014326173
123	0xbd9dffc7	-0.07714801
124	0xbde9c04b	-0.1141363
125	0xbd80a5c7	-0.062816195
126	0xbd52630b	-0.051363986
127	0xbe1815e1	-0.14852096
128	0xbd600c34	-0.054699138
129	0x3d1ed4bf	0.03877711
130	0xbe28dec0	-0.16491222
131	0x3e95dcbc	0.2926997
132	0x3d3dd12f	0.04634207
133	0xbc226e76	-0.009914031
134	0x3c394acb	0.011309336
135	0x3e11b5bb	0.14229481
136	0x3df612b2	0.120152846
137	0x3dd739c4	0.10509065
138	0xbc1d94e1	-0.009618015
139	0x3f42b019	0.76049954
140	0xbd1beba2	-0.038066514
141	0xbbcdc4b9	-0.0062795547
142	0xbd2a7407	-0.04161456
143	0x3e601532	0.21883085
144	0xbdc2e623	-0.09516551
145	0x3da60146	0.08105712
146	0x3c829f47	0.01594509
147	0xbceb4464	-0.028719135
148	0x3a037799	0.0005015075
149	0x3f03b4b3	0.514476
150	0xbd56f296	-0.05247744
151	0x3ea00083	0.3125039
152	0xbce648f6	-0.028110962
153	0x3d6bc1fb	0.05755804
154	0xbe03b6d3	-0.1286271
155	0xbb91a3ae	-0.004444561
156	0xbd45c12e	-0.048279934
157	0x3c3b1ac1	0.011419953
158	0xbbf7a7dd	-0.0075578527
159	0x3cb4b2c8	0.022057906
160	0x3ba63646	0.005072388
161	0x3e155656	0.14583716
162	0xbc07a9bf	-0.008280217
163	0x3e881c67	0.2658417
164	0xbea69481	-0.32535174
165	0x3cc096c0	0.023509383
166	0xbd306c32	-0.043071933
167	0xbec225b6	-0.37919396
168	0xbf31a96f	-0.6939916
169	0x3ba39d35	0.004993106
170	0x3c91abde	0.017782148
171	0xbb36d38c	-0.0027897088
172	0x3e6c5c71	0.23082139
173	0xbf660d50	-0.89864063
174	0x3d2ac225	0.041689057
175	0x3d5e08a7	0.05420747
176	0xbbe0ed02	-0.006864191
177	0x3e12f1ed	0.143501
178	0xbcd7fb41	-0.026364924
179	0xbe494668	-0.19655764
180	0x3f0b98f3	0.54530257
181	0xbca671f6	-0.020318013
182	0xbcee0969	-0.029057221
183	0xbe867be8	-0.26266408
184	0x3e2c4432	0.1682289
185	0xbdcef875	-0.10105983
186	0xbe12e6f7	-0.14345919
187	0x3e2cc651	0.16872527
188	0x3c5965cd	0.0132689
189	0xbe00f36f	-0.12592863
190	0x3ca9d7f6	0.020732861
191	0xbe91061e	-0.2832498
192	0x3e1dd128	0.15411818
193	0xbc994987	-0.018711818
194	0xbe2b22c3	-0.1671248
195	0xbe2fb366	-0.17158279
196	0xbd9ff050	-0.07809508
197	0xbd9c650c	-0.07636461
198	0xbd20835d	-0.039187778
199	0x3e76c414	0.24098235
200	0x3e1138ee	0.14181873
201	0x3e818d0c	0.25302923
202	0x3e56a630	0.20961833
203	0x3da0ad25	0.07845525
204	0x3d978877	0.073990755
205	0xbd530177	-0.05151507
206	0x3d3d4a6a	0.046213545
207	0xbe44bb94	-0.1921218
208	0x3d05fac9	0.03270987
209	0xbe5a7c5d	-0.21336503
210	0xbc88cc0b	-0.016698858
211	0x3da35540	0.079752445
212	0x3a62842e	0.0008640912
213	0xbd9a6196	-0.07538144
214	0xbd1618b7	-0.036644664
215	0x3d863c27	0.06554442
216	0x3d43bd8d	0.04778819
217	0xbe041ce9	-0.12901653
218	0x3e42fc2b	0.19041507
219	0xbd66b680	-0.05632639
220	0xbe094b8a	-0.13407722
221	0xbda0b68c	-0.07847318
222	0x3cf59c04	0.02998162
223	0x3d3ef85f	0.046623584
224	0xbc557cbc	-0.013030227
225	0xbe36fe9d	-0.17870565
226	0xbf0d7bb9	-0.5526691
227	0xbde3f1b3	-0.11130085
228	0xbc5c422f	-0.013443514
229	0x3d129b74	0.035792783
230	0xbdbc4bb5	-0.091941275
231	0x3dd568fb	0.10420414
232	0x3ddf429c	0.109013766
233	0x3cf31b87	0.029676212
234	0x39894d04	0.00026188057
235	0x3d07c584	0.03314735
236	0x3be1b66f	0.006888203
237	0x3e1da37d	0.15394397
238	0xbd0cdf8a	-0.03439287
239	0x3de596d2	0.11210407
240	0x3ea19c20	0.31564426
241	0x3e40da15	0.18833192
242	0xbec0b791	-0.3764005
243	0xbe348cd3	-0.17631845
244	0xbda228c4	-0.07917932
245	0x3cf5da28	0.030011252
246	0xbe64daef	-0.22349142
247	0xbcd9eef3	-0.026603198
248	0x3a921cc9	0.0011147495
249	0xbe7e845e	-0.24855182
250	0xbdefa23a	-0.11700864
251	0x3cc3c146	0.02389587
252	0x3ebb824c	0.36622846
253	0x3ea7e423	0.32791242
254	0xbca213fb	-0.019784918
255	0x3e7b00e3	0.24512057

network.4.bias f4 [64]
0	0x3e970920	0.2949915
1	0x3dbe25b6	0.092845365
2	0x39aafc97	0.0003261312
3	0xbdbbc83b	-0.0916905
4	0xbc8718c4	-0.016491301
5	0x3d57d81c	0.052696332
6	0x3dee9007	0.11648565
7	0xbef1023f	-0.47072026
8	0x3c52b8a0	0.012861401
9	0x3e3606cc	0.1777603
10	0xbe311852	-0.17294434
11	0xbdb54009	-0.08850104
12	0x3db390d0	0.08767855
13	0x3db4d0ba	0.08828874
14	0x3cd24547	0.0256678
15	0xbda6788a	-0.0812846
16	0x3d43102f	0.047622856
17	0x3db38ae1	0.087667234
18	0xbcef0071	-0.029175015
19	0xbe33e4d8	-0.17567766
20	0x3de47db0	0.111567855
21	0xbe1940e0	-0.14966154
22	0x3de3791c	0.11107084
23	0x3cd078d4	0.02544824
24	0xbe250bb7	-0.1611775
25	0xbdca7fa8	-0.0988763
26	0xbe318d10	-0.17338967
27	0x3db3d057	0.08779972
28	0x3d06a016	0.032867514
29	0xbdab8f21	-0.08376909
30	0xbd1dc94e	-0.038522057
31	0xbe5ca4c3	-0.21547227
32	0xbcf07388	-0.029351965
33	0x3d3fb2ac	0.046801254
34	0x3d0cd672	0.0343842
35	0x3e318b77	0.17338358
36	0xbd1eaf2c	-0.038741276
37	0x3d92c461	0.071663626
38	0x3e8a115f	0.26966378
39	0x3d792882	0.060829647
40	0x3e521316	0.20515093
41	0x3e243a06	0.16037759
42	0x3db6280d	0.08894358
43	0x3caba1f7	0.020951254
44	0x3d1a37dc	0.037650928
45	0xbd2ccaba	-0.042185523
46	0xbc8902b8	-0.01672493
47	0x3bae33ee	0.005316249
48	0xbd7b49cf	-0.061349686
49	0xbdfdcfb7	-0.12393134
50	0x3bd87140	0.0066052973
51	0x3da744e1	0.081674345
52	0xbd76c3e8	-0.060245425
53	0x3c363a39	0.01112228
54	0x3e1ec5a4	0.15505081
55	0x3adc3183	0.0016799424
56	0xbc5c1beb	-0.013434391
57	0x3c6e7b18	0.014555715
58	0xbd0b83c4	-0.03406121
59	0x3bedf8a7	0.0072623077
60	0xbd961b25	-0.07329396
61	0x3d611d68	0.054959685
62	0x3e12c98e	0.143347
63	0xbe873a6a	-0.26411754

network.6.weight f4 [64, 64]
0	0x3b571d31	0.0032823796
1	0x3de6a34e	0.11261617
2	0xbf6399d4	-0.889066
3	0x3da470d1	0.080293305
4	0xbd822a4e	-0.06355725
5	0xbd85ed18	-0.06539363
6	0xbe156a4e	-0.14591333
7	0x3e7dbcb4	0.24779016
8	0xbc39429d	-0.011307386
9	0xbe18202f	-0.14856027
10	0x3d683ae3	0.056696784
11	0xbdba507c	-0.090973824
12	0x3daf7de5	0.08568934
13	0xbe0374e2	-0.12837556
14	0x3e35bd2f	0.17747949
15	0x3d95bdbb	0.07311579
16	0xbd509483	-0.05092288
17	0xbe115a5f	-0.1419463
18	0x3e556cf3	0.20842342
19	0x3e8d06d0	0.2754426
20	0x3da330a1	0.079682596
21	0xbd7c5ad5	-0.06161006
22	0x3d4f82aa	0.05066172
23	0x3d1ec9b7	0.03876659
24	0xbd388ba3	-0.045055043
25	0x3dfda411	0.12384809
26	0x3e480623	0.19533591
27	0xbe01ab20	-0.12662935
28	0xbd23e13f	-0.040009733
29	0xbe04a98a	-0.12955299
30	0x3d82c939	0.063860364
31	0xbdcc1226	-0.09964399
32	0x3c084845	0.008318012
33	0xbe5635ba	-0.20918933
34	0x3e48687c	0.19571108
35	0xbe54a184	-0.20764738
36	0xbe1a461d	-0.15065809
37	0x3d2fbeb0	0.042906463
38	0xbce5a217	-0.028031392
39	0xbc289966	-0.010290479
40	0xbe2aa9ea	-0.1666638
41	0xbe74e83b	-0.23916714
42	0xbe2b43c2	-0.16725066
43	0xbe6b02f3	-0.22950344
44	0xbd017324	-0.031603947
45	0x3c817866	0.01580448
46	0x3d5725d3	0.052526306
47	0xbe63fece	-0.22265169
48	0xbd34d1c4	-0.04414536
49	0x3d9624fc	0.07331273
50	0xbca86d06	-0.020559799
51	0xbcd5c6b2	-0.026095722
52	0x3e40f02a	0.18841615
53	0xbf1397c6	-0.5765346
54	0x3c2b6651	0.010461406
55	0xbc88886b	-0.016666612
56	0xbd2e0201	-0.04248238
57	0xbdc44980	-0.095843315
58	0xbcc01aee	-0.023450341
59	0xbd38d9ee	-0.04512971
60	0xbd1902c7	-0.037356164
61	0x3c5a78ae	0.013334436
62	0xbe66270f	-0.22475837
63	0xbedd9dd8	-0.43284488
64	0xbddc0d5c	-0.107447356
65	0x3dad9239	0.084751554
66	0x3e15f97a	0.14645949
67	0xbdf53ceb	-0.1197451
68	0xbc424af8	-0.011858694
69	0xbe3c4f22	-0.18389562
70	0xbec77ee7	-0.38964006
71	0xbdc5a422	-0.096504465
72	0x3d656721	0.056006555
73	0xbca822f1	-0.020524474
74	0xbf17a804	-0.59240746
75	0xbd12266f	-0.035681184
76	0xbe3acaf8	-0.18241489
77	0xbd02f2b4	-0.03196974
78	0x3c9dba28	0.019253805
79	0x3ce74607	0.028231634
80	0x3d1290a1	0.03578246
81	0xbe380845	-0.17971905
82	0x3ee046a4	0.43803895
83	0x3f0607e1	0.5235577
84	0x3cb752e6	0.022378396
85	0x3e34b627	0.1764761
86	0xbc8d4e5e	-0.017249282
87	0x3d243ec4	0.04009892
88	0xbe493b2b	-0.19651477
89	0xbcdbb593	-0.02681998
90	0xbdb658ad	-0.08903632
91	0x3d838162	0.06421162
92	0x3b7b0d0d	0.003830734
93	0xbd023607	-0.031789806
94	0xbd21a2e0	-0.03946197
95	0xbf0199ad	-0.50625116
96	0x3e0b7428	0.13618529
97	0x3c3bbf14	0.011459131
98	0x3cd30850	0.0257608
99	0xbec5ecec	-0.3865732
100	0xbd777e2c	-0.06042306
101	0x3daa88a0	0.083268404
102	0xbd04b738	-0.032401294
103	0x3ca75ba7	0.020429445
104	0x3dd82307	0.10553556
105	0x3eb06153	0.34449252
106	0x3da50099	0.080567546
107	0x3dc2898a	0.0949889
108	0xbca2dd02	-0.019880775
109	0xbd4008b3	-0.046883296
110	0xbd5e4c9e	-0.054272287
111	0xbe407c9c	-0.18797535
112	0x3d8738b9	0.06602616
113	0x3e0f46f2	0.13991907
114	0xbd9123b5	-0.07086889
115	0x3dfdaeb8	0.123868406
116	0x3e644bc1	0.22294523
117	0xbea784fc	-0.32718647
118	0xbdc1d001	-0.09463502
119	0x3de4b6df	0.111676924
120	0xbc8489af	-0.016178934
121	0x3d6fb687	0.05852368
122	0xbbd07424	-0.0063615013
123	0x3e10895b	0.14114897
124	0xbea690f4	-0.32532465
125	0x3d0cfe00	0.03442192
126	0xbec6fdd3	-0.38865528
127	0x3e959906	0.2921831
128	0x3d14600d	0.036224414
129	0xbc7024de	-0.014657227
130	0xbf69aee4	-0.91282487
131	0xbcc8f8b1	-0.024532648
132	0x3d8b1ef9	0.06793017
133	0x3e10f6f2	0.14156702
134	0x3eaad73d	0.3336734
135	0x3d0d3ea7	0.034483578
136	0x3ce85ac5	0.028363595
137	0xbd8659dc	-0.06560108
138	0x3d224ca3	0.039623868
139	0x3d3e8ed0	0.046522915
140	0x3e3309b5	0.17484172
141	0xbdb3c3fb	-0.08777615
142	0xbc5df2ca	-0.013546655
143	0x3ebde16b	0.37086043
144	0xbd88a892	-0.06672777
145	0x3cc623be	0.024186965
146	0xbd3e9950	-0.04653293
147	0x3e7acfe0	0.2449336
148	0xbe44dd74	-0.19225103
149	0xbd5691a4	-0.052384987
150	0xbdc1a515	-0.09455315
151	0xbd6dbc56	-0.05804094
152	0x3d83348f	0.06406509
153	0xbe1f9d44	-0.15587336
154	0x3de57fe5	0.112060346
155	0xbbb44127	-0.005500931
156	0x3e2aef05	0.16692741
157	0x3b270563	0.0025485388
158	0x3e55b78e	0.20870802
159	0xbdec9ffa	-0.115539506
160	0xbd8c312e	-0.06845318
161	0xbe79896e	-0.24368832
162	0xbc6a96f3	-0.014318216
163	0x3e3f6c7a	0.18693724
164	0xbe777d4f	-0.24168895
165	0x3e019900	0.12656021
166	0x3e11c7c3	0.1423636
167	0xbb8154d3	-0.0039468794
168	0xbba1cb43	-0.0049375608
169	0xbe6d29ea	-0.2316052
170	0x3dceddea	0.101009205
171	0x3ce3710a	0.027763862
172	0xbbaff4c0	-0.0053697526
173	0xbcf12a66	-0.029439162
174	0x3b982e32	0.004644179
175	0x3d2ab6f0	0.04167837
176	0xbd3f6526	-0.046727322
177	0x3d268ae8	0.040659815
178	0x3df8615f	0.12127947
179	0x3d08e070	0.033417165
180	0xbc6f1f2c	-0.014594834
181	0x3eb218ad	0.3478445
182	0xbaabbc4b	-0.001310238
183	0x3d3db0e1	0.046311263
184	0xbbb95aa6	-0.005656558
185	0xbdbb2f08	-0.0913983
186	0x3cbf4895	0.02335004
187	0xbe309928	-0.17245924
188	0x3d5f073d	0.054450262
189	0x3e49dd2f	0.19713281
190	0xbc3636da	-0.011121476
191	0xbd8c6769	-0.068556614
192	0x3e209d16	0.15684924
193	0x3e0523bd	0.13001914
194	0x3d15ec69	0.03660241
195	0x3deaf032	0.11471595
196	0xbd280ef0	-0.04102987
197	0x3ca7f7cb	0.0205039
198	0xbdbc1418	-0.0918352
199	0x3e419be8	0.1890713
200	0xbd3c8de1	-0.046033744
201	0x3d51da08	0.05123332
202	0x3d842fb2	0.0645441
203	0x3d83a51b	0.06427976
204	0x3e1972e2	0.1498523
205	0x3ea24fb2	0.31701428
206	0xbeb986d4	-0.36235678
207	0xbcd5acc2	-0.026083354
208	0xbc07807d	-0.00827038
209	0xbd942d49	-0.072352
210	0xbe6ccf8e	-0.23126051
211	0x3d89c18a	0.06726368
212	0xbdda3ad9	-0.106557555
213	0xbc902e38	-0.017600164
214	0xbce0d945	-0.027447352
215	0xbde5c805	-0.11219791
216	0xbe69d603	-0.22835545
217	0x3d1c2807	0.03812411
218	0x3c3ecdda	0.0116457585
219	0xbd83e365	-0.064398564
220	0xbdcfc3e3	-0.10144784
221	0x3cf15263	0.02945823
222	0xbe173ab7	-0.14768492
223	0xbd8d1a89	-0.06889827
224	0x3d15c247	0.03656223
225	0xbe119be1	-0.1421962
226	0x3db36b71	0.08760727
227	0x3c2e7886	0.010648852
228	0xbc4dd1c2	-0.012562217
229	0x3db7c454	0.089729935
230	0xbd9b74fe	-0.07590674
231	0xbe359dec	-0.17736024
232	0x3e21e44c	0.15809745
233	0xbd308f8e	-0.043105654
234	0xbd229294	-0.03969057
235	0xbdb231eb	-0.08700927
236	0x3acb1846	0.0015494905
237	0x3b69db14	0.003568356
238	0x3e1eb3cd	0.15498276
239	0xbd717abd	-0.058954943
240	0x3c252499	0.010079526
241	0xbbf85609	-0.0075786156
242	0xbdb6fc93	-0.089348935
243	0xbe745aa1	-0.23862697
244	0xbd61b3d0	-0.055103123
245	0x39b16ead	0.0003384253
246	0x3d20a229	0.039217148
247	0xbd827c31	-0.06371344
248	0x3e353a77	0.17698084
249	0x3e1069d8	0.14102876
250	0x3d699c86	0.057034038
251	0xbe5e6081	-0.21716501
252	0xbed6a84b	-0.41925272
253	0xbe5f76ae	-0.21822616
254	0xbd3234bd	-0.043507326
255	0xbdebb4f5	-0.11509124

network.6.bias f4 [64]
0	0xbdb06c7a	-0.0861444
1	0x3d0d3963	0.034478556
2	0x3e1b22a4	0.15149933
3	0xbc6a84ba	-0.014313871
4	0x3d808aa6	0.06276445
5	0x3d9f6656	0.07783191
6	0xbe00a4d7	-0.12562881
7	0xbdcc9d78	-0.09990972
8	0xbdf18361	-0.11792637
9	0x3d53a507	0.051671054
10	0xbd74dede	-0.059782855
11	0x3e8ac43f	0.2710285
12	0x3e218c99	0.1577629
13	0xbcd2726d	-0.025689328
14	0xbdc34883	-0.09535315
15	0xbe616d18	-0.22014272
16	0xbd45863a	-0.04822371
17	0x3df0ab63	0.117514394
18	0xbcb0bdce	-0.02157488
19	0xbd7c91ef	-0.06166261
20	0xbb8026cb	-0.0039108745
21	0xbc25299e	-0.010080723
22	0x3b1c99a5	0.002389529
23	0xbe0314e9	-0.12800945
24	0xbc362b64	-0.011118744
25	0xbc9db770	-0.019252509
26	0x3de3fed0	0.11132586
27	0xbdd83443	-0.10556843
28	0xbe06dd67	-0.13170396
29	0xbdd3bc10	-0.103386045
30	0x3d328040	0.04357934
31	0xbd526685	-0.0513673
32	0x3dcb3f59	0.09924192
33	0xbd566dc2	-0.052350767
34	0xbe263266	-0.16230163
35	0x3dd21351	0.102575906
36	0xbda64a58	-0.08119649
37	0xbd434d0a	-0.047680892
38	0xbd52466f	-0.051336702
39	0xbe8e5605	-0.27800003
40	0x3dfd08e5	0.12355212
41	0xbdd6ee85	-0.10494713
42	0xbdb20bc4	-0.0869365
43	0xbe0d83bd	-0.13819785
44	0x3e2bcf51	0.16778304
45	0x3d5c9e10	0.053861678
46	0x3e1d51fb	0.15363304
47	0xb84db993	-4.9048638e-05
48	0xbd038e31	-0.032118026
49	0xbd6a9d81	-0.057279114
50	0xbbfcde6e	-0.0077169454
51	0xbde87554	-0.113505036
52	0x3c77d14f	0.015125587
53	0x3d836ca5	0.06417207
54	0x3d1eabb3	0.038737964
55	0x3e17cc67	0.14824067
56	0x3a645870	0.0008710688
57	0x3d78e269	0.060762797
58	0x3ccae363	0.02476663
59	0x3d240c7a	0.04005096
60	0xbddf0bdf	-0.10890936
61	0x3e17db8b	0.14829843
62	0x3cd94296	0.026521008
63	0xbcb6e4d1	-0.022325905

network.8.weight f4 [64, 64]
0	0x3ba28192	0.0049592936
1	0xbed6bd90	-0.419415
2	0x3e55ff0e	0.20898077
3	0x3d9101c8	0.07080418
4	0xbdddfbd8	-0.10839051
5	0xbd354a25	-0.044260163
6	0x3d5ef880	0.054436207
7	0xbdf1908c	-0.11795148
8	0x3dc98e6d	0.09841619
9	0xbd6c6458	-0.057712883
10	0x3d34abb3	0.044109058
11	0x3e1fb2a6	0.15595493
12	0xbd6bad79	-0.057538483
13	0x3e3615cf	0.17781757
14	0x3c8cba87	0.017178787
15	0xbe6f7d6e	-0.23387691
16	0xbd5169e7	-0.051126387
17	0xbc979335	-0.018502811
18	0xbe56b380	-0.20966911
19	0x3dafff60	0.08593631
20	0x3dbff138	0.09372181
21	0xbd9d2374	-0.07672778
22	0xbdd8c507	-0.10584455
23	0x3e1f65dc	0.155662
24	0x3e00df4f	0.12585185
25	0xbd48634c	-0.048922822
26	0x3d2edfc7	0.04269388
27	0xbc8047f9	-0.01565932
28	0xbd29b1cd	-0.04142933
29	0x3dab23a5	0.08356408
30	0xbde28a7d	-0.11061571
31	0xbd96881e	-0.07350181
32	0x3cca630a	0.024705429
33	0x3e2880cc	0.16455382
34	0x3c0d96b5	0.008641888
35	0xbd41e3c9	-0.047336373
36	0xbda51016	-0.08059709
37	0x3d6f1929	0.058373604
38	0x3cb3a880	0.021930933
39	0xbd6c3812	-0.05767066
40	0x3c7020d6	0.014656266
41	0x3cf6332f	0.030053703
42	0xbd043b53	-0.03228314
43	0xbdfaa5b3	-0.12238636
44	0xbd97ccdb	-0.0741212
45	0x3e27c868	0.16385043
46	0xbed7608f	-0.42065856
47	0x3e12a5ec	0.14321107
48	0xbe73c1e1	-0.23804428
49	0xbd209a43	-0.039209615
50	0x3e2bd7b9	0.1678151
51	0x3d9544aa	0.07288487
52	0xbcdf8ce1	-0.027288856
53	0x3b47af01	0.00304693
54	0x3daebfc5	0.08532671
55	0xbd5abadd	-0.053400863
56	0xbce3a2a9	-0.027787523
57	0x3dd984a2	0.10621001
58	0xbe9c2778	-0.30498862
59	0x3e9d1705	0.30681625
60	0x3d63a77e	0.055579655
61	0xbbc28320	-0.0059360415
62	0x3c70cd6e	0.014697416
63	0x3dafd153	0.08584847
64	0xbd31b6ad	-0.043387104
65	0xbd93bb59	-0.07213468
66	0x3dbc702b	0.09201082
67	0x3c8d4c4c	0.017248295
68	0xbd8b0a30	-0.067890525
69	0xbdf902ca	-0.12158735
70	0x3e0be48c	0.13661402
71	0xbc0a46f5	-0.008439769
72	0xbd9256e0	-0.07145476
73	0x3ce46695	0.027880946
74	0xbdfa367b	-0.122174226
75	0x3d0a9b28	0.033839375
76	0xbe1a4e73	-0.15068989
77	0xbca68380	-0.020326376
78	0xbde13824	-0.10997036
79	0xbe3ef8ba	-0.18649569
80	0xbe067ea2	-0.13134244
81	0x3da9e3ac	0.08295378
82	0xbe0204cf	-0.12697147
83	0x3ded8657	0.11597889
84	0x3e4f02c4	0.20215899
85	0xbdc7d952	-0.097582474
86	0x3c45bcd3	0.012068945
87	0x3df9d777	0.121993
88	0x3da913ce	0.082557306
89	0x3d381202	0.04493905
90	0xbd949d95	-0.07256619
91	0x3cb4a7df	0.022052703
92	0x3c864bf5	0.016393641
93	0xbdb4e099	-0.08831901
94	0x3d1c73dd	0.038196433
95	0x3c9e7d6a	0.019346911
96	0xbcb6528c	-0.022256158
97	0x3dd0c86c	0.101944774
98	0x3e6502a5	0.2236429
99	0xbc7308e6	-0.0148336645
100	0xbd93b822	-0.07212855
101	0xbded5ac3	-0.11589577
102	0xbe067bd8	-0.1313318
103	0xbda03b72	-0.07823838
104	0x3bd76b39	0.0065740612
105	0xbc46a381	-0.012123943
106	0xbc4a0c97	-0.012332103
107	0x3dc7b2e6	0.09750919
108	0xbd5615fe	-0.052267067
109	0x3db234a3	0.08701446
110	0x3e0dc1c2	0.13843444
111	0xbe3db7e7	-0.18527184
112	0xbd760546	-0.060063623
113	0xbd424a23	-0.047433984
114	0xbe06b126	-0.13153514
115	0xbb504193	-0.0031777367
116	0xbca05980	-0.019573927
117	0x3d925243	0.071445964
118	0x3bc57f9e	0.006027176
119	0x3cce5322	0.025186125
120	0x3e235a1a	0.1595234
121	0x3ce1df6a	0.027572352
122	0xbdb08a15	-0.08620087
123	0xbda3f043	-0.08004811
124	0x3d6cdb87	0.057826545
125	0xbd65d54f	-0.05611163
126	0x3e32be80	0.17455482
127	0xbd8c7149	-0.06857545
128	0xbd9108aa	-0.07081731
129	0xbde47e59	-0.111569114
130	0xbe245292	-0.16047123
131	0x3cb722b2	0.022355411
132	0xbd235e00	-0.039884567
133	0x3ca69764	0.02033586
134	0xbe525105	-0.20538719
135	0xbd0547f3	-0.03253932
136	0xbd84afc9	-0.06478841
137	0x3dc0ef1f	0.09420609
138	0x3bc2b06e	0.005941442
139	0x3e7515c8	0.2393409
140	0xbd0b98fe	-0.03408145
141	0x3e1584db	0.14601462
142	0x3e74bbfa	0.23899832
143	0x3d6664d3	0.056248497
144	0xb9219aa0	-0.00015411759
145	0x3d22d724	0.039755955
146	0x3cdea487	0.027178062
147	0x3d9514e1	0.07279373
148	0xbe0465f7	-0.12929522
149	0x3ddb1504	0.10697368
150	0x3c420f3a	0.011844451
151	0x3d3c25b2	0.045934387
152	0xbe3dcf7d	-0.18536182
153	0xbcddc723	-0.027072495
154	0x3d864c6e	0.065575466
155	0xbc9c2c01	-0.019063951
156	0xbd1e517a	-0.03865192
157	0x3dae2dfb	0.08504864
158	0x3d905339	0.070471235
159	0xbdee0f8a	-0.116240576
160	0x3dbccc60	0.09218669
161	0xbd9221dd	-0.07135365
162	0x3e2a9620	0.1665883
163	0x3dcb9944	0.099413425
164	0x3d9c5512	0.076334134
165	0x3d7bdada	0.06148801
166	0x3e237b16	0.15964922
167	0xbdfcf08b	-0.123505674
168	0x3c9e4695	0.019320766
169	0x3d99f4e0	0.07517409
170	0x3c9fb90b	0.019497415
171	0x3e28a282	0.16468242
172	0x3d33e5db	0.04392038
173	0x3d39f99c	0.04540406
174	0xbd4fdbee	-0.05074685
175	0xbc861272	-0.016366217
176	0xbde2052a	-0.11036141
177	0xbc2913b1	-0.010319636
178	0x3e74e724	0.23916298
179	0xbd3832de	-0.044970386
180	0xbcce85dc	-0.025210313
181	0x3e59701d	0.21234174
182	0xbd991021	-0.074737795
183	0xbdaf7c1d	-0.085685946
184	0xbdbe2ea1	-0.092862375
185	0xbe101ef1	-0.14074303
186	0x3cdcc1b6	0.026947837
187	0xbe03e2ba	-0.12879458
188	0xbc373831	-0.011182831
189	0x3b5fec6b	0.0034168016
190	0xbd9ed2b8	-0.07755035
191	0xbc89e9b7	-0.016835077
192	0x3c45fa38	0.012083583
193	0x3d352a9a	0.04423008
194	0x3bc91241	0.0061362092
195	0x3b9308c7	0.0044871303
196	0xbd3c6f94	-0.046004847
197	0x3e06126e	0.13092968
198	0x3d30ae9f	0.04313528
199	0x3d8d18f9	0.06889529
200	0xbd1c57a9	-0.038169537
201	0xbdae491f	-0.085100405
202	0x3d04a933	0.032387923
203	0xbb1e8c59	-0.002419254
204	0xbc2e9651	-0.010655955
205	0x3cb59fe0	0.02217096
206	0xbc86d66b	-0.016459664
207	0x3e268f53	0.16265611
208	0xbd4a52fd	-0.04939555
209	0x3c2e8834	0.010652591
210	0x3d868083	0.065674804
211	0x3c7abbab	0.015303533
212	0x3daa19c4	0.08305696
213	0x3db79aac	0.08965048
214	0xbe5c6f8d	-0.21526928
215	0x3e422a30	0.18961406
216	0xbd15e5ef	-0.036596235
217	0xbe045eed	-0.12926836
218	0xbbe77060	-0.0070629567
219	0xbe49740b	-0.19673173
220	0x3e93cd66	0.28867644
221	0x3daf8f66	0.08572273
222	0x3da1ebb7	0.07906287
223	0x3c73e992	0.0148872305
224	0x3dc91b75	0.0981969
225	0xbe0f3031	-0.13983227
226	0x3cdcc216	0.026948016
227	0xbdb7e0c1	-0.08978415
228	0x3c2da562	0.010598512
229	0x3de7adee	0.11312471
230	0x3d7d3d5a	0.061826088
231	0xbb7b91af	-0.0038386395
232	0xbd2b31fe	-0.041795723
233	0x3de43008	0.11141974
234	0xbdb7ecb4	-0.089806944
235	0x3e46b3de	0.19404551
236	0x3bee1583	0.007265748
237	0x3dbb3385	0.09140686
238	0xbdbcfeee	-0.092283115
239	0xbacd374d	-0.001565674
240	0x3e1d99ed	0.1539075
241	0x3cdbda95	0.026837626
242	0x3d989443	0.07450154
243	0xbda51f29	-0.08062584
244	0xbe8057f7	-0.25067112
245	0x3e5efd12	0.21776226
246	0x3bf9f1cd	0.007627702
247	0xbe4a7bb7	-0.19773756
248	0xbe353631	-0.17696454
249	0x3e966ed7	0.2938144
250	0xbe03e45e	-0.12880084
251	0xbd64694e	-0.05576449
252	0xbd10d2f6	-0.035357438
253	0xbd9ba86c	-0.07600483
254	0x3e1a3af0	0.15061545
255	0x3deb6b71	0.11495102

network.8.bias f4 [64]
0	0xbe63ea42	-0.22257331
1	0x3e496678	0.19667995
2	0xbdcc2414	-0.09967819
3	0x3e204102	0.15649799
4	0x3e4fef9a	0.20306244
5	0x3dfe68c6	0.12422328
6	0xbc2d1b28	-0.010565557
7	0x3dc651a6	0.09683542
8	0x3e29a9ba	0.16568652
9	0x3e052077	0.13000666
10	0xbe413d3c	-0.18871015
11	0xbe481066	-0.19537506
12	0x3ea2414f	0.31690452
13	0xbdce7e5a	-0.100826934
14	0xbe42555e	-0.18977877
15	0xbe06b784	-0.13155943
16	0xbe413ece	-0.18871614
17	0xbda9747e	-0.08274172
18	0xbe4077a7	-0.18795644
19	0xbda73dd1	-0.081660874
20	0xbcf57e24	-0.029967375
21	0x3dabd14b	0.08389529
22	0xbdc44717	-0.09583872
23	0xbd17c12b	-0.037049454
24	0xbe119abb	-0.14219181
25	0xbe32625a	-0.1742033
26	0x3e91ef34	0.2850281
27	0xbd098bef	-0.033580717
28	0x39f3e72a	0.00046520802
29	0xbe17daf5	-0.14829619
30	0x3e04ef6e	0.1298196
31	0xbe498055	-0.19677861
32	0xbd66eadc	-0.056376323
33	0xbcc86676	-0.02446292
34	0xbe2a3451	-0.1662152
35	0x3cb695c3	0.022288209
36	0xbe9509f8	-0.29109168
37	0xbe9fbfa0	-0.31200886
38	0x3ccbd2ed	0.02488085
39	0x3d936006	0.071960494
40	0xbe0195e4	-0.12654835
41	0xbd094795	-0.03351553
42	0xbe0a755a	-0.13521329
43	0xbe88eb2f	-0.2674193
44	0x3cd4ab23	0.02596051
45	0xbeb3fb49	-0.35152653
46	0xbc13cb52	-0.009020643
47	0xbe9877e9	-0.29778984
48	0xbdd051e4	-0.101718694
49	0x3e50ed90	0.20403123
50	0x3e81b5e8	0.25334096
51	0x3e198cd0	0.14995122
52	0x3d51890d	0.051156092
53	0xbd2ca311	-0.0421477
54	0x3ddd4e29	0.108059235
55	0xbd2504ab	-0.040287655
56	0x3dfd2825	0.123611726
57	0xbe5dd3e8	-0.21662867
58	0x3e300a2b	0.17191379
59	0x3d9198bf	0.07109212
60	0xbc57301e	-0.013134031
61	0xbeb4f01b	-0.35339436
62	0x3e26eb60	0.16300726
63	0x3dd34ead	0.103177406

network.10.weight f4 [64, 64]
0	0xbd1a23aa	-0.03763167
1	0xbc8656bf	-0.016398786
2	0x3d962c79	0.07332701
3	0x3cba8be2	0.02277178
4	0xbc38781d	-0.011259106
5	0x3c397f23	0.011321816
6	0xbd507185	-0.05088951
7	0x3caeb158	0.021324798
8	0xbccba18a	-0.024857301
9	0xbd5b89e0	-0.053598285
10	0x3d8dc017	0.06921404
11	0x3d8abafc	0.06773946
12	0xbd32b1e6	-0.04362669
13	0xbc9dbdef	-0.019255606
14	0x3d4767a1	0.048682813
15	0x3cd88c08	0.02643396
16	0x3d85e731	0.06538237
17	0xbd946ea3	-0.07247665
18	0xbce83c54	-0.02834908
19	0x3c638a3d	0.013887939
20	0xbcfd2fcb	-0.030906579
21	0xbc9d7392	-0.019220147
22	0x3db9d02c	0.09072909
23	0x3cc23226	0.023705553
24	0x3d7b5369	0.061358843
25	0xbd6098fa	-0.05483339
26	0x3d579b9b	0.05263863
27	0x3d17b7a1	0.037040357
28	0xbc0d4c41	-0.008624137
29	0x3cc14788	0.02359368
30	0xbc267f26	-0.0101621505
31	0xbc38354e	-0.011243178
32	0xbcfeef06	-0.031119835
33	0xbd15ddab	-0.036588352
34	0x3d1746c3	0.036932718
35	0x3d0ee65d	0.03488766
36	0x3c276bbc	0.010218557
37	0xbd7cc918	-0.061715215
38	0xbd5453e1	-0.051837806
39	0x3d760bc5	0.060069818
40	0xba772aa5	-0.0009428657
41	0xbc2f374f	-0.010694339
42	0x3cb150eb	0.02164503
43	0x3d401cc7	0.046902444
44	0x3da76ae6	0.08174686
45	0xbdb237a6	-0.0870202
46	0x3c25e9f6	0.010126581
47	0x3d7b1451	0.061298672
48	0x3d8e7e10	0.06957638
49	0x3d312c71	0.043255273
50	0x3d4f95ba	0.0506799
51	0xbd35b8c5	-0.044365663
52	0x3d887b2a	0.06664117
53	0xbd405f78	-0.046966046
54	0xbd9252fe	-0.07144736
55	0x3d0f7c13	0.035030436
56	0x3d8b1bfe	0.067924485
57	0x3c6bb42c	0.014386218
58	0x3d7a50e1	0.06111229
59	0xbcb9ebdc	-0.022695474
60	0x3df22fc7	0.11825519
61	0x3d8c04c3	0.06836846
62	0xbc4dab8f	-0.01255311
63	0x3dbd25cb	0.09235724
64	0xbdb19556	-0.08671062
65	0xbdfba50d	-0.1228734
66	0x3d66d4fd	0.056355465
67	0x3c24e9b4	0.010065485
68	0xbe67d1c4	-0.22638613
69	0xbe1b484d	-0.151643
70	0xbc8c9138	-0.01715909
71	0xbdce6822	-0.100784555
72	0xbcf16246	-0.029465806
73	0xbe0e54eb	-0.13899581
74	0xbdcd5058	-0.1002509
75	0x3cbe6973	0.023243641
76	0xbd668dd6	-0.05628761
77	0x3cadbaaf	0.021207182
78	0x3e056ec3	0.13030533
79	0x3c93fe17	0.018065495
80	0x3d2e43d0	0.04254514
81	0x3dd6cbd4	0.10488096
82	0xbd55d38b	-0.052203696
83	0xbe0b478a	-0.13601509
84	0xbd019593	-0.031636786
85	0xbd8b34cb	-0.06797179
86	0xbe1f0652	-0.15529755
87	0x3dcd59ad	0.1002687
88	0xbdb6c54b	-0.089243494
89	0xbd29fbe0	-0.041499972
90	0xbdb59ed4	-0.08868185
91	0xbeb4dffc	-0.35327137
92	0x3dbab234	0.09116021
93	0x3b9ed5bd	0.004847257
94	0xbebf2397	-0.3733184
95	0x3e278ad2	0.1636155
96	0x3e5cd3a4	0.2156511
97	0x3e222624	0.15834862
98	0x3dc73f76	0.09728901
99	0x3cbaa357	0.022782965
100	0x3db6f1ad	0.08932815
101	0x3e39f22b	0.18158786
102	0xbd493d67	-0.049130823
103	0xbea2dcac	-0.31808984
104	0xbe73e9d4	-0.23819667
105	0x3e0df471	0.13862778
106	0x3e496352	0.19666794
107	0x3e6c21b5	0.23059733
108	0x3d7300d1	0.05932695
109	0xbdbccfd2	-0.09219326
110	0xbd3fe757	-0.046851482
111	0x3d5334c7	0.051564004
112	0xbdc4764c	-0.09592876
113	0xbdd71909	-0.10502822
114	0x3b8729d3	0.004124859
115	0xbde26632	-0.110546485
116	0x3d1faa63	0.038980853
117	0xbcb5340e	-0.022119548
118	0xbe18d1c5	-0.1492377
119	0xbda5365d	-0.080670096
120	0xbe6385ab	-0.22218959
121	0xbd35bc15	-0.044368822
122	0xb88bac6f	-6.660155e-05
123	0x3cc4501d	0.023963982
124	0x3cb1a895	0.021686831
125	0x3d7f87d2	0.062385388
126	0x3da8d017	0.08242815
127	0xbd9a04e9	-0.07520468
128	0xbd0ba5be	-0.03409361
129	0xbd53dacc	-0.051722333
130	0xbd22c9cd	-0.039743233
131	0xbc7bb668	-0.015363313
132	0x3d95339a	0.07285233
133	0xbdcf636c	-0.10126385
134	0x3d260687	0.04053357
135	0xbc9d43db	-0.019197395
136	0x3d8313c6	0.06400256
137	0x3d77aa0f	0.060464915
138	0x3d7b3688	0.061331302
139	0x3d448574	0.047978833
140	0x3c818261	0.01580924
141	0xbde168c4	-0.110063106
142	0x3d752557	0.059850063
143	0x3dfe673a	0.12422033
144	0xbd0db857	-0.03459963
145	0x3d452108	0.048127204
146	0xbd8d6f2c	-0.0690597
147	0x3cd4d5d2	0.025980864
148	0xbd90413b	-0.07043692
149	0x3de22d2d	0.11043773
150	0xbc06e0c6	-0.008232301
151	0xbcf753be	-0.030191299
152	0x3d529c4a	0.05141858
153	0xbb3816c6	-0.0028089746
154	0x3b7fa51a	0.003900832
155	0xbc04ead6	-0.00811263
156	0xbcbcf05b	-0.02306383
157	0xbd8c377b	-0.068465196
158	0x3cf93cf9	0.030424582
159	0xbd1a298e	-0.037637286
160	0xbc551549	-0.013005563
161	0x3dfe1f17	0.12408274
162	0x3be554c3	0.00699863
163	0x3d807b31	0.06273497
164	0xbc86ddb6	-0.016463142
165	0x3d9acbd4	0.075584084
166	0x3d9d0fa1	0.076689966
167	0x3d733288	0.059374362
168	0xbd076cfa	-0.033062913
169	0xbd79d567	-0.060994532
170	0x3c3d9b84	0.011572722
171	0xbda4c960	-0.08046222
172	0xbde80722	-0.113294855
173	0xbc9266b6	-0.017871242
174	0x3a9dfbcd	0.0012053192
175	0x3b57ec66	0.00329473
176	0xbd22848a	-0.03967718
177	0x3aa4e2ee	0.0012579837
178	0xbd8bba89	-0.06822688
179	0xbc2b1e7a	-0.010444278
180	0x3de01518	0.10941523
181	0x3e5111ed	0.20416994
182	0xbbd4be41	-0.0064924066
183	0xbd5e5da7	-0.054288533
184	0x3c5539ec	0.013014298
185	0x3dd25c0a	0.10271461
186	0x3c98e16c	0.018662177
187	0x3d485b33	0.0489151
188	0x3d418b2f	0.047251876
189	0x3db83c99	0.08995933
190	0x3c241725	0.010015284
191	0xbd998dbc	-0.07497737
192	0x3d36f3c3	0.044666063
193	0x3d1bf7a7	0.038077977
194	0x3db69c8f	0.0891658
195	0xbcd37726	-0.02581365
196	0xbbd16e54	-0.006391326
197	0xbdbd3d28	-0.0924018
198	0xbccce268	-0.025010303
199	0xbd998959	-0.074969
200	0x3b67d6fc	0.0035375943
201	0xbd309db5	-0.04311915
202	0x3cca9785	0.024730453
203	0x3d094789	0.033515487
204	0x3d04b335	0.032397468
205	0xbcfb33ca	-0.030664343
206	0xbd0df8be	-0.034661047
207	0xbb02e548	-0.0019973088
208	0x3c233848	0.009962149
209	0xbd1319fb	-0.03591345
210	0xbd1afccc	-0.037838742
211	0x3d4d5297	0.050127592
212	0xbd0518cf	-0.032494362
213	0xbc983e66	-0.018584441
214	0x3d10f98b	0.035394233
215	0x3baf390a	0.0053473758
216	0xbd1aef40	-0.037825823
217	0x3bf46ab2	0.007459008
218	0x3ce576e5	0.028010795
219	0xbd27bdbf	-0.04095244
220	0x3c463b4c	0.012099098
221	0x3b0cb8ee	0.0021472531
222	0xbb49e705	-0.0030807864
223	0xbd514f9b	-0.05110131
224	0x3d14c658	0.036321968
225	0x3cc61bd5	0.024183193
226	0x3cc50ea9	0.024054842
227	0x3d464862	0.048408873
228	0x3cb211e9	0.021737056
229	0xbc69f2ae	-0.014279051
230	0xbc1e35c7	-0.009656376
231	0x3c891e8d	0.0167382
232	0x3d51156e	0.051045828
233	0xbd3ab38e	-0.045581393
234	0xbcde0c57	-0.027105493
235	0xbd5f87be	-0.054572813
236	0xbb306f37	-0.0026921758
237	0x3c8f55ae	0.01749691
238	0xbca34ef1	-0.019935103
239	0xb9aa32d1	-0.00032462788
240	0xbce8b93f	-0.028408645
241	0xb92c0c30	-0.00016407738
242	0x3d3388fb	0.043831807
243	0xbcdfd4c0	-0.027323127
244	0xbbf4c948	-0.0074702837
245	0x3d092ccb	0.033489984
246	0x3d0ad476	0.033894025
247	0x3c75b404	0.014996532
248	0xbcd57ae3	-0.026059574
249	0x3c8d1720	0.01722294
250	0xbd917872	-0.07103051
251	0x3c96790c	0.018368267
252	0x3c55bbf6	0.013045302
253	0xbc6ddbf0	-0.014517769
254	0x3d6a7fbb	0.05725072
255	0xbd3644fd	-0.044499386

network.10.bias f4 [64]
0	0x3cc12c5f	0.023580728
1	0xbee17d42	-0.44040877
2	0x3e1e4b7c	0.15458483
3	0x3aa55a4d	0.0012615413
4	0xbea6d395	-0.325833
5	0x3e2cb62a	0.16866365
6	0xbed413a5	-0.41421238
7	0x3c4c06f5	0.012452831
8	0xbd329f5a	-0.043609
9	0xbd2aab7b	-0.041667443
10	0x3e25377a	0.16134444
11	0x3c8b3d68	0.016997054
12	0x3d796057	0.060882892
13	0xbe61a801	-0.22036745
14	0xbd289df9	-0.04116628
15	0x3d9ce7d4	0.07661405
16	0x3e4b49c6	0.19852361
17	0xbc21df97	-0.009879968
18	0x3befcbe4	0.007318007
19	0x3dd9aebf	0.10629033
20	0xbd2a260e	-0.041540198
21	0x3dbfa200	0.09357071
22	0xbdf564b2	-0.11982097
23	0x3b590b0c	0.0033118157
24	0xbe16c638	-0.14724052
25	0xbceebf1a	-0.029143859
26	0xbe9ee4b1	-0.31033853
27	0x3d25c2cd	0.04046898
28	0xbe358955	-0.1772817
29	0x3eb1028a	0.3457225
30	0xbe5d0fc0	-0.2158804
31	0xbdcebd4a	-0.10094698
32	0xbc910938	-0.017704591
33	0x3aa9e1fa	0.0012961023
34	0xbcbd510d	-0.023109937
35	0xbca67420	-0.020319045
36	0xbae9b459	-0.0017830237
37	0xbbf27ff9	-0.0074005094
38	0xbd6c6866	-0.05771675
39	0x3dc5a229	0.0965007
40	0xbe79051a	-0.24318352
41	0x3ca8f88c	0.020626329
42	0x3d96cce9	0.07363302
43	0x3d39450f	0.045231875
44	0xbd997987	-0.074938826
45	0x3d199140	0.037492037
46	0x39bcc378	0.0003600379
47	0x3d64197c	0.055688366
48	0xbebdddee	-0.3708338
49	0xbec0b7c1	-0.37640193
50	0x3bfbafea	0.0076808827
51	0x3e7f101c	0.24908489
52	0xbda0fe7a	-0.078610376
53	0x3e0dfa1c	0.1386494
54	0x3af3fe3a	0.0018615194
55	0x3e896c11	0.2684026
56	0xbcc17f95	-0.023620406
57	0x3cebf8c7	0.02880515
58	0xbe050f1e	-0.12994048
59	0x3e85c48b	0.26126513
60	0xbcf3d481	-0.029764416
61	0x3e37529b	0.17902605
62	0xbc7eaa94	-0.015543599
63	0x3cca9e0a	0.024733562
