Clean/models/r15_base.pth (torch, 89508 bytes, 14 tensors)

network.0.weight f4 [64, 2]
0	0xbd1d8089	-0.03845266
1	0x3f576d5f	0.8415126
2	0x3f1b15bf	0.60580057
3	0xbe042a85	-0.12906845
4	0xbcff3c02	-0.031156544
5	0x3f851b23	1.0398906
6	0x3f26c12b	0.651385
7	0xbf0c3a5b	-0.54776543
8	0x3ed62ff2	0.41833454
9	0x3ecbeb25	0.3982784
10	0xbe28f9b0	-0.16501498
11	0xbe5237c2	-0.20529082
12	0x3e8f06a7	0.27934763
13	0x3ef76210	0.48317003
14	0xbec010a5	-0.375127
15	0x3d6844c3	0.0567062
16	0x3e17bffc	0.1481933
17	0x3e0ea181	0.13928796
18	0xbea29691	-0.31755498
19	0xbe3411f8	-0.1758498
20	0x3eae6c2c	0.34066904
21	0x3f0eb34e	0.5574235
22	0x3e5d42c2	0.21607497
23	0x3ea403e7	0.32034227
24	0xbe9ac07d	-0.30224982
25	0xbf301907	-0.6878819
26	0xbede6050	-0.43432856
27	0x3fa46a83	1.2845005
28	0x3f1d330b	0.6140601
29	0xbfc8545f	-1.5650748
30	0x3db9efa6	0.090789124
31	0xbf39202d	-0.7231472
32	0x3e85438d	0.260281
33	0x3e6109f1	0.21976449
34	0x3ee70941	0.45124248
35	0xbed7465e	-0.42045873
36	0xbe167c6c	-0.146959
37	0x3e93e1ce	0.28883213
38	0xbf0d7248	-0.55252504
39	0x3e60dee1	0.21960022
40	0x3f112bf8	0.56707716
41	0x3e013a4b	0.12619893
42	0x3f34662f	0.7046842
43	0x3f4ff36e	0.8123082
44	0xbedb98dc	-0.4289006
45	0x3f330b26	0.69938886
46	0xbe6799a6	-0.22617206
47	0x3f4a538c	0.7903373
48	0xbf0d0695	-0.5508817
49	0x3f7e0c37	0.9923739
50	0x3f1be615	0.6089795
51	0xbf5a53e4	-0.85284257
52	0xbb49fd75	-0.0030821238
53	0x3c0c14ef	0.008549913
54	0xbd1e73e9	-0.03868476
55	0xbe7a4a9e	-0.24442527
56	0xbe61072a	-0.21975389
57	0x3ecde0b6	0.40210503
58	0x3eae3984	0.34028256
59	0x3f4e572d	0.8060177
60	0xbf97a404	-1.1846929
61	0xbf19ff09	-0.6015478
62	0xbf2851d4	-0.6574986
63	0x3ebf4d61	0.37363723
64	0xbe935277	-0.28773853
65	0xbe0dc084	-0.1384297
66	0xbcd4a307	-0.025956644
67	0xbe846c81	-0.25864032
68	0xbe701e7b	-0.23449127
69	0xbed43449	-0.4144614
70	0xbed5cbbb	-0.41756997
71	0x3f82fe8d	1.0233933
72	0xbf49e6b6	-0.7886766
73	0x3e2d5a13	0.16928892
74	0x3dbfab16	0.09358804
75	0x3f0573c9	0.521298
76	0x3eda926e	0.42689842
77	0xbf2a3487	-0.664864
78	0xbedfd0b1	-0.43713906
79	0xbb968da4	-0.0045945216
80	0x3f12a4fd	0.57283
81	0xbe2f2b6d	-0.1710641
82	0x3d81020a	0.06299217
83	0x3e811deb	0.25218138
84	0xbde2083f	-0.11036729
85	0xbf17cd6c	-0.59297824
86	0xbda9faac	-0.08299765
87	0x3e3eaace	0.18619844
88	0x3f237cb9	0.63862187
89	0xbec939a2	-0.39301783
90	0xbe642cef	-0.22282766
91	0x3f5a0dd6	0.8517736
92	0xbf081dac	-0.53170276
93	0x3eeccd8c	0.4625057
94	0xbe830f93	-0.2559782
95	0x3e766091	0.24060275
96	0xbfe60f0e	-1.7973344
97	0xbf372561	-0.7154141
98	0x3f27421a	0.6533524
99	0xbe2a8515	-0.1665233
100	0xbed4ecdb	-0.41586956
101	0x3ee74a45	0.4517385
102	0xbc5ff140	-0.013668358
103	0x3f7a1dfb	0.97701997
104	0x3c5d066b	0.0134903
105	0x3c93df9e	0.018050965
106	0x3edec1e7	0.4350731
107	0x3eeb6823	0.45977888
108	0xb9a5592d	-0.00031537694
109	0xbf914da2	-1.1351817
110	0x3f12cc8e	0.57343376
111	0x3f271b11	0.65275675
112	0xbf048abe	-0.51774204
113	0x3e3ab293	0.18232183
114	0x3ee93d57	0.4555461
115	0xbf96399d	-1.1736332
116	0x3f1e0ffc	0.6174314
117	0xbf2c58dd	-0.67323095
118	0xbcff0e55	-0.031134764
119	0xbdcbce1a	-0.0995142
120	0x3f275293	0.65360373
121	0xbf31f3f6	-0.6951288
122	0x3f37c22b	0.7178065
123	0xbf35e105	-0.7104648
124	0x3e0d4dca	0.13799205
125	0x3f69697f	0.911766
126	0x3ed69dca	0.41917259
127	0x3da18bea	0.078880146

network.0.bias f4 [64]
0	0xbe6bdddc	-0.23033851
1	0xbf2e9ec3	-0.68211
2	0xbed49a41	-0.41523936
3	0xbee8399e	-0.45356458
4	0xbf116e78	-0.56809187
5	0x3e146784	0.14492613
6	0xbf02cc57	-0.5109305
7	0x3e871781	0.2638512
8	0xbe85443e	-0.26028627
9	0x3ef65e8c	0.4811901
10	0xbf1af7d3	-0.605344
11	0xbed4703c	-0.41491878
12	0xbe082f3f	-0.13299273
13	0xbf015d79	-0.5053325
14	0x3e2eff0f	0.17089485
15	0x3e311a36	0.17295155
16	0xbeb1a9c9	-0.34699848
17	0xbe60a306	-0.21937189
18	0x3d795af4	0.060877755
19	0x3ed593f2	0.41714436
20	0xbf34750d	-0.70491105
21	0xbf685fc2	-0.90771115
22	0x3d0ee6e9	0.03488818
23	0xbe454587	-0.19264804
24	0xbe8a11f7	-0.2696683
25	0xbe95f445	-0.29287925
26	0xbcde9c41	-0.027174117
27	0x3e5bf6df	0.21480893
28	0xbce1cf77	-0.027564747
29	0xbefe7d1a	-0.4970482
30	0xbeaaf628	-0.33390927
31	0x3f113089	0.56714684
32	0x3e940ce5	0.28916088
33	0x3e450fb9	0.19244279
34	0x3edcf55b	0.4315594
35	0xbec1b72a	-0.37835056
36	0x3f48e505	0.78474456
37	0xbeb6226e	-0.35573143
38	0x3e346a6d	0.17618723
39	0x3dbbab3d	0.091635205
40	0xbf13d80a	-0.57751524
41	0xbe44fdcb	-0.1923744
42	0xbd30a731	-0.043128196
43	0xbcb26341	-0.021775844
44	0xbf0dee27	-0.55441517
45	0xbed9a71b	-0.42510304
46	0x3eb39816	0.3507697
47	0xbeaafdd6	-0.33396786
48	0xbe744c71	-0.23857285
49	0xbf1dbf09	-0.6161962
50	0x3e81c998	0.25349116
51	0xbef78157	-0.48340866
52	0xbd468984	-0.04847099
53	0xbf2be0a9	-0.6713968
54	0x3efe7845	0.49701133
55	0xbf4ab22f	-0.79178137
56	0x3ef436b2	0.4769798
57	0x3ef3cbab	0.47616324
58	0xbe2747f8	-0.16336048
59	0x3df32b13	0.1187345
60	0xbe811305	-0.25209823
61	0xbecdf21e	-0.40223783
62	0xbf1a3a66	-0.6024536
63	0xbf0865ed	-0.53280526

network.2.weight f4 [64, 64]
0	0x3c4678e3	0.012113783
1	0x3e1f6a32	0.15567854
2	0xbc1605f0	-0.009156689
3	0x3dab646f	0.083687656
4	0x3e690337	0.22755133
5	0xbde7d508	-0.11319929
6	0x3e34c365	0.17652662
7	0xbd18b049	-0.037277494
8	0xbda585a4	-0.080821306
9	0xbe4b250d	-0.19838353
10	0x3b248258	0.0025102105
11	0xbcab67a8	-0.02092345
12	0xbdc5fd83	-0.09667494
13	0xbdf95256	-0.121739075
14	0x3dd448e7	0.103654675
15	0x3d579e93	0.052641463
16	0xbda34cc1	-0.07973624
17	0x3e349338	0.17634284
18	0xbc8a16ef	-0.016856639
19	0xbe23e2b0	-0.16004443
20	0x3e024132	0.12720183
21	0x3eb2af4d	0.3489937
22	0xbe334c19	-0.17509498
23	0xbe823f2d	-0.25438824
24	0xbe14f4e2	-0.1454654
25	0x3e0ecbb7	0.13944899
26	0x3c1b092c	0.009462636
27	0x3c0c1e28	0.008552112
28	0xbd479166	-0.048722647
29	0x3df2f9ad	0.11864028
30	0x3ce70e89	0.028205173
31	0xbe151f2f	-0.14562677
32	0xbe1a6f41	-0.15081502
33	0xbc4f387e	-0.012647746
34	0xbda87670	-0.08225715
35	0xbe6497ef	-0.22323583
36	0xbe931fb5	-0.28735128
37	0x3e1fb117	0.15594898
38	0x3ddb5421	0.10709406
39	0xbc9960e3	-0.018722957
40	0x3e96fa26	0.29487723
41	0xbd7460f3	-0.05966277
42	0x3a94ae0f	0.0011343377
43	0xbd35288f	-0.044228133
44	0x3e7261b3	0.23670082
45	0xbe1cafbb	-0.15301411
46	0xbdd0a928	-0.10188514
47	0xbdad137e	-0.084509835
48	0x3dc2661b	0.09492131
49	0x3e078057	0.13232552
50	0xbdd100d4	-0.10205236
51	0xbd8807b2	-0.06642093
52	0xbb03dd8e	-0.002012107
53	0x3e61cf86	0.2205182
54	0x3b95394c	0.0045539495
55	0x3d59ec94	0.053204134
56	0xbd7dcf06	-0.06196501
57	0x3cee4daf	0.029089777
58	0x3e4af0bd	0.19818397
59	0x3cdf0da0	0.027228177
60	0x3ddfd0bf	0.10928487
61	0x3e4b2992	0.19840077
62	0xbdb7aa4f	-0.08968031
63	0x3e82a998	0.25520015
64	0x3c606d6f	0.013697966
65	0x3e942170	0.2893176
66	0x3f2745b2	0.6534072
67	0x3c1a59e6	0.0094208475
68	0x3f182505	0.5943149
69	0x3dd06916	0.101762936
70	0x3f380e94	0.71897244
71	0x3ccd1125	0.02503259
72	0x3dacfbb3	0.08446445
73	0xbec74b0d	-0.38924447
74	0x3f0fe1b3	0.56203765
75	0x3ed86a95	0.42268816
76	0x3de5dd01	0.11223794
77	0x3e987759	0.29778555
78	0xbeb87c59	-0.3603237
79	0xbbb1a7a9	-0.005421598
80	0x3debc2d5	0.11511771
81	0x3cd1a76e	0.025592532
82	0xbd9301dc	-0.07178089
83	0xbdef3ffe	-0.116821274
84	0x3edb6518	0.42850566
85	0x3f52ff45	0.8242076
86	0x3d9c0f34	0.07620087
87	0x3e8dc58d	0.27689782
88	0x3e44efe7	0.1923214
89	0xbe1bc252	-0.15210846
90	0x3c1692b1	0.009190247
91	0xbe2e2725	-0.1700712
92	0x3e1fac77	0.15593134
93	0x3f13596e	0.57558334
94	0x3e49111d	0.19635434
95	0xbc838c35	-0.016058067
96	0xbe34b673	-0.17647724
97	0xbe709968	-0.2349602
98	0xbe7e3f25	-0.24828775
99	0x3e8791bd	0.26478377
100	0xbe71c544	-0.23610407
101	0x3f16ba80	0.58878326
102	0x3c897b37	0.016782386
103	0xbd4476c3	-0.047964823
104	0x3e610da9	0.21977867
105	0x3e1394fe	0.14412305
106	0x3d6f448f	0.058414992
107	0xbb70b6b4	-0.0036729993
108	0x3e0464d7	0.12929092
109	0x3ea54c7c	0.32284915
110	0xbcb789f4	-0.022404648
111	0x3e3c807e	0.18408391
112	0x3d64db66	0.055873297
113	0x3e468017	0.193848
114	0x3daf8f60	0.085722685
115	0x3f370854	0.7149708
116	0x3d631c4b	0.055446904
117	0x3ef63eb8	0.48094726
118	0xbf38dda4	-0.72213197
119	0x3ec5436f	0.3852801
120	0xbe3aed8f	-0.18254684
121	0xbe802281	-0.25026324
122	0x3d9c8a7c	0.07643601
123	0xbd8e4e91	-0.06948579
124	0xbcb7c4fe	-0.0224328
125	0x3df65193	0.12027278
126	0x3f62671b	0.88438576
127	0x3e1a29cf	0.15055011
128	0xbc97da9f	-0.018536864
129	0xbe0a4962	-0.13504556
130	0x3dbf9438	0.09354442
131	0xbc7bb8ec	-0.015363913
132	0xbe448b87	-0.1919385
133	0xbbfd0293	-0.007721254
134	0xbdaf355a	-0.08555098
135	0xbe0d644d	-0.13807793
136	0x3d8fd226	0.070225045
137	0x3d27d689	0.04097608
138	0xbdc832a0	-0.09775281
139	0x3d26b7d5	0.04070266
140	0x3c4bdb88	0.012442477
141	0xbccdfe61	-0.025145711
142	0x3df15811	0.117843755
143	0x3cb6e6be	0.022326823
144	0xbd593285	-0.053026695
145	0xbc93ee39	-0.01805793
146	0x3e26d52e	0.16292259
147	0x3c61184f	0.013738706
148	0x3ac59aef	0.0015076081
149	0xbd6f9871	-0.05849499
150	0x3d572115	0.052521784
151	0xbbb28e4e	-0.005449093
152	0x3d63e08b	0.055634063
153	0xbdeaa3de	-0.114570364
154	0x3cee6299	0.02909975
155	0x3c1e799e	0.0096725505
156	0x3e117190	0.14203477
157	0xbdfef98f	-0.12449943
158	0x3c905b07	0.01762153
159	0x3d581566	0.052754782
160	0xbd803943	-0.06260922
161	0x3cc2dd5b	0.023787191
162	0xbdcc8144	-0.09985593
163	0xbd1c105a	-0.03810153
164	0x3e1cd5af	0.15315889
165	0x3d2f5ea3	0.042814862
166	0xbd2b1ac0	-0.041773558
167	0x3d6bd0d8	0.057572216
168	0x3c32675c	0.010888901
169	0x3dbf0b18	0.09328288
170	0x3c800179	0.015625702
171	0xbc21efb3	-0.009883809
172	0xbdb42a04	-0.08797076
173	0xb9bd10ec	-0.00036061497
174	0x3d7c5017	0.061599817
175	0x3d9b3270	0.075779796
176	0xbcd2fd24	-0.025755472
177	0xbe06b023	-0.13153128
178	0x3d05082e	0.032478504
179	0x3ba17153	0.0049268394
180	0x3cfc239f	0.030778704
181	0xbe568bd9	-0.20951785
182	0x3dfc9997	0.123339824
183	0xbcbdec68	-0.023184016
184	0x3d9ec861	0.07753063
185	0xbd3f469a	-0.04669819
186	0xbdd4d677	-0.103924684
187	0xbd55ec7e	-0.05222749
188	0xbd94b17a	-0.072604135
189	0x3dea914f	0.11453497
190	0xbdf2216e	-0.118227825
191	0x3c82867c	0.015933268
192	0xbd1e7bb6	-0.0386922
193	0xbe3d35aa	-0.18477502
194	0x3f1c2f86	0.61010015
195	0xbe0363a1	-0.12830974
196	0x3da76ca0	0.081750154
197	0x38bae751	8.912257e-05
198	0x3d29c855	0.041450817
199	0x3d9e7ba6	0.07738428
200	0xbe458b01	-0.19291307
201	0x3e734db5	0.23760112
202	0x3e05c127	0.13061963
203	0xbd9500f1	-0.0727557
204	0x3babfada	0.0052484097
205	0x3ee37fcb	0.44433436
206	0xbf062ec0	-0.52415085
207	0x3d131cdf	0.035916205
208	0xbda0b647	-0.07847267
209	0xbede4f11	-0.43419698
210	0xbdd54531	-0.10413588
211	0x3e6d16be	0.23153207
212	0xbd90bd18	-0.07067317
213	0x3db1d8e6	0.08683948
214	0x3ec442a2	0.38332087
215	0x3ed32931	0.41242364
216	0x3ea562cb	0.32301936
217	0xbee9b3b4	-0.45644915
218	0x3d52752c	0.051381275
219	0x3d4f5ef2	0.050627656
220	0x3e537e24	0.20653588
221	0x3eb40d7b	0.35166535
222	0x3d11c14f	0.035584744
223	0x3e77e9af	0.24210237
224	0x3dcd6172	0.10028352
225	0xbd1addc0	-0.037809134
226	0x3dea0d20	0.11428285
227	0x3ea74de3	0.3267661
228	0x3e37c0c2	0.17944625
229	0x3e1235c8	0.14278328
230	0xbe5f5d41	-0.21812917
231	0x3db4e0ad	0.08831916
232	0xbe2cfd0a	-0.16893402
233	0x3ca41eac	0.020034157
234	0x3c95e176	0.018295985
235	0x3db966fb	0.09052845
236	0xbe1a39f6	-0.15061173
237	0x3e918a09	0.28425625
238	0x3e664a24	0.2248922
239	0x3c7578a8	0.01498238
240	0x3df047c7	0.117324404
241	0xbe24e07c	-0.16101259
242	0x3e1574ad	0.1459529
243	0x3f459a5e	0.7718867
244	0x3d828f20	0.06374955
245	0xbd6f362e	-0.05840128
246	0xbee7441c	-0.4516915
247	0x3a89722d	0.0010486298
248	0x3ea6b03e	0.32556337
249	0xbe9ae69b	-0.30254063
250	0xbec3aad4	-0.3821627
251	0x3bf28879	0.0074015227
252	0xbeab88d1	-0.3350282
253	0xbe62e0f8	-0.22156131
254	0x3e8503d1	0.25979474
255	0xbe21ef50	-0.15813947

network.2.bias f4 [64]
0	0xbd3e381b	-0.046440225
1	0xbeadbc13	-0.33932552
2	0xbd48f450	-0.04906112
3	0xbd044de6	-0.032300852
4	0x3d91631d	0.070989825
5	0xbcb43054	-0.0219957
6	0xbced3efd	-0.0289607
7	0x3dd8c38b	0.10584172
8	0x3dae427a	0.08508773
9	0xbded2312	-0.11578955
10	0xbe7e14d6	-0.24812636
11	0xbeb43fb8	-0.35204864
12	0x3dccf653	0.1000792
13	0xbd9aa797	-0.075514965
14	0x3ca24463	0.019808
15	0xbd52727c	-0.051378712
16	0x3e5d1a72	0.2159212
17	0xbdf23e42	-0.11828281
18	0xbe64652d	-0.2230422
19	0x3dd5c4dd	0.10437939
20	0x3da2ea5e	0.07954858
21	0x3de3711e	0.1110556
22	0xbd85bffe	-0.0653076
23	0xbebb9013	-0.36633357
24	0xbe488847	-0.19583236
25	0xbd8b37ac	-0.06797728
26	0x3d2ec837	0.04267141
27	0xbdfd29de	-0.12361501
28	0xbca31aff	-0.019910334
29	0xbeb120d5	-0.3459536
30	0xbe021299	-0.12702407
31	0x3e6683b4	0.22511178
32	0xba96916a	-0.0011487429
33	0xbe83e3c7	-0.25759718
34	0xbe2030a4	-0.15643555
35	0xbe589665	-0.21151121
36	0xbc830fd9	-0.015998768
37	0xbcd91732	-0.026500318
38	0x3d910321	0.07080675
39	0xbd032b97	-0.032023992
40	0x3e074e73	0.1321352
41	0x3d1b6687	0.037939575
42	0x3c27312f	0.010204597
43	0xbd89ccdc	-0.06728527
44	0xbda7d7b3	-0.08195438
45	0x3e25fbd1	0.16209342
46	0x3dd04883	0.101700805
47	0xbd49792f	-0.049187835
48	0x3decdc0d	0.11565409
49	0xbe0198aa	-0.12655893
50	0xbb025701	-0.0019888284
51	0xbb8e45c5	-0.0043418133
52	0xbe63b76c	-0.22237939
53	0x3dbe6d5d	0.09298203
54	0x3d716086	0.058929943
55	0x3d6328a2	0.055458672
56	0x3e210e22	0.15728047
57	0x3c86d632	0.016459558
58	0xbd5b1ce0	-0.053494334
59	0x3d0bf25e	0.034166686
60	0x3db6206e	0.08892904
61	0xbdbe79aa	-0.09300549
62	0x3d1a9861	0.037742976
63	0xbe1e7327	-0.15473615

network.4.weight f4 [64, 64]
0	0x3d476797	0.048682775
1	0x3e015453	0.12629823
2	0x3b4b22aa	0.0030996003
3	0xbd8b2e56	-0.06795947
4	0x3e0cc1d8	0.1374582
5	0xbdd20d34	-0.102564245
6	0x3e010111	0.12598063
7	0x3d415102	0.047196396
8	0xbc32b7bd	-0.010908064
9	0x3c5947cb	0.013261746
10	0x3e828865	0.25494686
11	0x3e1a8bed	0.1509244
12	0xbcf469e4	-0.029835649
13	0xbe9a3cbd	-0.30124465
14	0x3db417d1	0.08793605
15	0x3c102892	0.008798735
16	0xbdbe934e	-0.0930544
17	0x3edc9e24	0.43089402
18	0xbd82e188	-0.06390673
19	0x3e873d45	0.26413932
20	0xbe00e1c7	-0.12586127
21	0xbdde7155	-0.1086146
22	0x3e0ccb88	0.13749516
23	0xbdd14f5a	-0.10220213
24	0xbdfd2cd1	-0.12362064
25	0xbd8b939a	-0.06815262
26	0x3db6c886	0.089249656
27	0x3e2b3f0c	0.16723269
28	0x3d44f1b9	0.048082087
29	0xbd6cd5ea	-0.05782119
30	0xbd12f92d	-0.035882164
31	0xbe2c9c5a	-0.16856518
32	0x3ddbf353	0.1073977
33	0xbe1f98c1	-0.15585615
34	0xbdd24f3c	-0.10269019
35	0xbe107ca1	-0.14110042
36	0x3d9dd002	0.0770569
37	0x3dda6bfd	0.106651284
38	0x3d04f07a	0.0324559
39	0x3e1501b9	0.14551438
40	0x3dbbf085	0.09176735
41	0x3df6e231	0.12054861
42	0xbe08f504	-0.13374716
43	0xbd0e9184	-0.034806743
44	0x3d021a2e	0.03176325
45	0x3d81acce	0.06331788
46	0x3bbcd7fc	0.005763052
47	0xbda5e18f	-0.080996625
48	0x3cc35cba	0.023847926
49	0x3dbb4654	0.091442734
50	0xbd1253b1	-0.035724346
51	0xbded9b3f	-0.116018765
52	0xbdef52a9	-0.11685688
53	0x3d1287fc	0.035774216
54	0xbda767a4	-0.08174065
55	0x3c96dd44	0.018416055
56	0x3e4f2c78	0.20231807
57	0xbcd8566c	-0.026408397
58	0x3dfcac49	0.12337548
59	0xbd3d5b90	-0.0462299
60	0xbd6b875c	-0.057502136
61	0xbe05be5f	-0.13060902
62	0x3e3147c2	0.1731253
63	0xbd3299f9	-0.04360387
64	0xbe30bdfa	-0.1725997
65	0x3dd12dca	0.10213812
66	0x3dd3c481	0.103402145
67	0xbda63042	-0.08114673
68	0xbd637b08	-0.055537254
69	0xbd98f2a5	-0.07468156
70	0x3d8c68ea	0.06855948
71	0x3cf1a557	0.029497785
72	0x3de4c985	0.11171249
73	0xbd1b74ec	-0.037953302
74	0xbe52fa09	-0.20603193
75	0x3d56d1b3	0.05244608
76	0xbbcd96a2	-0.0062740603
77	0xbde78683	-0.11304953
78	0xbd502c2e	-0.050823383
79	0xbe959e71	-0.29222444
80	0xbc05fd9d	-0.008178142
81	0x3d2266c6	0.039648794
82	0x3cdfce3b	0.027320018
83	0xbd3a658b	-0.045506995
84	0x3dcb4f15	0.09927193
85	0x3a037f0b	0.00050161843
86	0xbd2d7e40	-0.04235673
87	0x3e09b35b	0.13447325
88	0xbde066d7	-0.10957115
89	0xbdf5ddad	-0.12005172
90	0xbd3987cf	-0.045295533
91	0xbd89269f	-0.066968195
92	0x3e98abc5	0.2981855
93	0xbd08e1c5	-0.033418436
94	0x3e98d14e	0.29847187
95	0xbd8c7f2d	-0.06860194
96	0xbe1c1252	-0.15241364
97	0xbc08d769	-0.008352139
98	0x3ba9525d	0.005167289
99	0x3e738f0a	0.23785034
100	0xbdf2513b	-0.118319
101	0x3e5eb994	0.2175048
102	0x3c7ae608	0.015313633
103	0xbdd86d68	-0.105677426
104	0x3dfcb87a	0.123398736
105	0x3ccf4192	0.025299821
106	0x3c4d1051	0.012516097
107	0xbd8db65e	-0.069195494
108	0x3e2eab91	0.17057635
109	0x3d9838e6	0.074327275
110	0xbd94d9bf	-0.07268094
111	0xbd216efb	-0.03941248
112	0x3da0a59d	0.07844088
113	0x3cab1b90	0.020887166
114	0x3d640d55	0.055676777
115	0x3d8176fe	0.06321524
116	0xbcc29f55	-0.023757616
117	0x3ce6e5e8	0.0281858
118	0x3e32f3d9	0.17475833
119	0xbcf266eb	-0.02959009
120	0xbc3aa31f	-0.01139143
121	0x3dc24fe8	0.09487897
122	0xbe719b42	-0.23594382
123	0x3da3114c	0.079622835
124	0x3da25516	0.07926385
125	0x3e48ffa2	0.19628766
126	0xbddc4ad6	-0.10756461
127	0xbe389c0f	-0.18028282
128	0xbe21cd3f	-0.15800951
129	0x3ce61782	0.028087381
130	0x3db88aa6	0.0901082
131	0x3e05f01e	0.13079879
132	0xbda743c6	-0.08167224
133	0xbe2a063b	-0.16603939
134	0x3d0aa60b	0.033849757
135	0x3e35a900	0.1774025
136	0x3df5b70e	0.119978055
137	0x3c4b568d	0.012410772
138	0xbe30374b	-0.17208593
139	0xbe2380d4	-0.15967113
140	0xbda4011d	-0.08008025
141	0x3d47b417	0.04875573
142	0xbad26ce1	-0.0016054177
143	0xbe8a0f3e	-0.26964754
144	0xbdd9f6ae	-0.106427535
145	0xbdb7198a	-0.08940418
146	0xbd0f7a45	-0.035028715
147	0x3d992006	0.07476811
148	0xbd06ad2d	-0.032879997
149	0x3d5741b4	0.052552894
150	0xbcd7d01a	-0.026344348
151	0x3e42d587	0.19026767
152	0xbcfaf39c	-0.03063374
153	0xbb6c3445	-0.0036041897
154	0x3e18f689	0.14937796
155	0xbcb53ecb	-0.022124669
156	0xbd3c6cdf	-0.046002265
157	0xbc29b0bd	-0.010357079
158	0xbd303677	-0.04302069
159	0x3e344668	0.17604983
160	0xbe904c1e	-0.28183073
161	0xbd613df8	-0.05499074
162	0x3dd5fa7c	0.10448167
163	0x3eae11e0	0.33998013
164	0xbd4e5e61	-0.050382975
165	0x3d556ea0	0.052107453
166	0xbd8dce7e	-0.06924151
167	0x3cb4656c	0.022021018
168	0x3d6b17d6	0.05739578
169	0x3c8c7d2f	0.017149536
170	0xbedb3078	-0.42810416
171	0x3c9d9655	0.019236723
172	0xbd8448ad	-0.06459174
173	0xbd5d756d	-0.054067064
174	0xbe35a9d6	-0.17740569
175	0xbb80d8f4	-0.003932113
176	0xbe1b9388	-0.15192997
177	0xbd97ab13	-0.07405677
178	0x3d3752e6	0.044756792
179	0xbcc5b68d	-0.024134899
180	0xbe37f1ac	-0.17963284
181	0xbe5c67aa	-0.2152392
182	0x3d97cede	0.07412504
183	0xbe02e2e1	-0.1278186
184	0x3d928fb3	0.07156315
185	0x3bc839c2	0.006110401
186	0x3d067ae7	0.032832053
187	0xbd9a515a	-0.07535048
188	0x3e51a68a	0.20473686
189	0x3b46983c	0.003030314
190	0x3ca7c1ef	0.020478217
191	0x3a6f8950	0.00091375876
192	0xbe506eef	-0.20354818
193	0x3de93045	0.1138616
194	0xbe1f5e7a	-0.15563384
195	0xbd8429ec	-0.064533085
196	0x3dec21d7	0.11529892
197	0xbdc99db7	-0.09844535
198	0xbdabaf93	-0.083830975
199	0xbd2f45a5	-0.042791028
200	0x3e1cb2ec	0.15302628
201	0x3d909122	0.07058932
202	0xbd77842a	-0.060428776
203	0xbe4653c8	-0.19367898
204	0xbc486ca2	-0.012232931
205	0x3e066b44	0.13126856
206	0xbdb472e9	-0.0881098
207	0xbddf5341	-0.10904551
208	0xbe2a7b6b	-0.16648643
209	0x3d65f113	0.05613811
210	0x3e06ed92	0.13176563
211	0x3e1487a2	0.14504865
212	0x3d07e4ad	0.033177067
213	0xbce6f9d8	-0.028195307
214	0xbbe63f76	-0.007026608
215	0x3e6a04c3	0.22853379
216	0x3c04d50b	0.008107434
217	0x3cd34e55	0.025794188
218	0x3e03a211	0.12854792
219	0x3cbb5b87	0.022870792
220	0xbe04b867	-0.12960969
221	0xbd4d4825	-0.05011763
222	0x3de308b8	0.11085647
223	0xbdfde496	-0.12397115
224	0xbde3a770	-0.111159205
225	0x3dac5a60	0.08415675
226	0xba75c006	-0.0009374622
227	0x3cadc02a	0.021209795
228	0x3dc630bc	0.09677264
229	0xbe21ba6f	-0.15793775
230	0xbd38d108	-0.045121223
231	0x3d8912fb	0.06693073
232	0x3d8a3960	0.06749225
233	0x3d5fdcf2	0.05465407
234	0x3ca05632	0.019572351
235	0x3d2b7780	0.04186201
236	0x3d3b1609	0.04567531
237	0xbd8858c3	-0.06657555
238	0x3dd64016	0.10461442
239	0x3c325318	0.010884069
240	0xbd854ce1	-0.06508804
241	0xbd81363e	-0.06309174
242	0xbd0ebe09	-0.0348492
243	0xbe062eda	-0.1310381
244	0xbcc25278	-0.023720965
245	0xbaaa428b	-0.0012989802
246	0x3d9edddc	0.0775716
247	0x3e09635f	0.13416813
248	0x3e821088	0.25403237
249	0x3c0d6669	0.0086303735
250	0x3dcccd88	0.100001395
251	0x3bfeddc7	0.0077779028
252	0x3d098227	0.03357139
253	0xbdebb929	-0.11509926
254	0xbd31f4d9	-0.043446396
255	0xbda677de	-0.081283316

network.4.bias f4 [64]
0	0xbcfabf7e	-0.030608889
1	0x3da0e9b3	0.078570746
2	0xbe45dfdb	-0.19323675
3	0x3caec65d	0.021334821
4	0x3e4b1da3	0.19835524
5	0x3e0fe509	0.14052214
6	0xbd3d7101	-0.046250347
7	0x3d8fb376	0.07016651
8	0x3d59a0ae	0.05313175
9	0xba3175d6	-0.0006769573
10	0x3c1dcd84	0.009631518
11	0x3c1e5de6	0.009665942
12	0xbcd6073f	-0.026126502
13	0xbe25b279	-0.16181363
14	0x3e524272	0.2053316
15	0xbe34f5c3	-0.17671876
16	0x3e22ec73	0.1591051
17	0x3db65f4b	0.089048944
18	0xbd75d57d	-0.06001805
19	0x3da3cb7f	0.07997798
20	0x3da87370	0.08225143
21	0xbd13b453	-0.036060642
22	0xbdd39119	-0.103304096
23	0x3d3f39e9	0.046686087
24	0x3e3756df	0.17904232
25	0x3d9c7ad9	0.07640619
26	0x3cbc4cf0	0.022985905
27	0xbe0c5cdf	-0.13707303
28	0x3d69f042	0.057113893
29	0xbe5de08f	-0.21667694
30	0xbd14b03c	-0.036300883
31	0x3e220b82	0.15824702
32	0x3dac6397	0.08417433
33	0xbe3fe27f	-0.18738745
34	0xbd3c3abb	-0.045954447
35	0xbe375752	-0.17904404
36	0xbcb691a7	-0.02228625
37	0xbaa36d18	-0.0012468426
38	0xbe693ac3	-0.22776322
39	0x3e51ae82	0.20476726
40	0xbe334f1c	-0.17510647
41	0x3e0592b5	0.13044246
42	0x3e2a68e9	0.16641583
43	0x3dc12f83	0.0943289
44	0x3c970fbc	0.01844012
45	0xbe4b6a71	-0.19864823
46	0xbe1d5e8b	-0.15368097
47	0x3cb24109	0.021759527
48	0x3b97f6f8	0.0046375953
49	0xba203b20	-0.0006112326
50	0x3e8538f2	0.26020008
51	0xbe860051	-0.26172116
52	0x3e79f9cc	0.24411696
53	0xbd245d75	-0.04012819
54	0xbd29d61c	-0.041463956
55	0x3debe632	0.11518516
56	0xbd4b951a	-0.04970274
57	0xbdb8e4be	-0.09028004
58	0x3e906ced	0.28208104
59	0x3e3346f4	0.17507535
60	0x3e3cbe11	0.1843188
61	0x3d5f0a26	0.054453038
62	0xbd881e53	-0.06646409
63	0x3e8214ad	0.254064

network.6.weight f4 [64, 64]
0	0x3d4febd8	0.050762028
1	0xbc1cfa72	-0.009581195
2	0x3df84ade	0.12123655
3	0x3cf78016	0.030212443
4	0xbe3f8165	-0.18701704
5	0xbeb18721	-0.34673408
6	0x3db8d06a	0.09024127
7	0x3dd8109f	0.10550045
8	0x3b41afb1	0.0029554183
9	0xbd52019b	-0.051271062
10	0xbed78a7f	-0.42097852
11	0x3c9055b3	0.01761899
12	0xbc9b5471	-0.018961163
13	0x3e4457f3	0.19174175
14	0x3e1c68ba	0.15274325
15	0x3dd6be99	0.10485572
16	0xbdc344e4	-0.09534624
17	0xbd2a0867	-0.04151192
18	0x3dc42fe0	0.09579444
19	0xbdc59305	-0.096471824
20	0xbe402796	-0.18765101
21	0xbcfe1d4a	-0.031019825
22	0x3dfa92e3	0.12235048
23	0x3e274c1f	0.16337632
24	0x3e840746	0.257868
25	0xbda2b7f4	-0.079452425
26	0xbd5a2156	-0.053254448
27	0x3d2f95e7	0.042867567
28	0xbda57e15	-0.08080689
29	0xbd39501d	-0.045242418
30	0x3e31ab29	0.17350449
31	0xbf508011	-0.81445414
32	0x3dca375b	0.098738395
33	0xbf0d6e72	-0.5524665
34	0xbc2023cd	-0.009774161
35	0xbe4ed04b	-0.20196645
36	0x3d82dc14	0.06389633
37	0xbe060173	-0.1308649
38	0x3df52efc	0.11971852
39	0x3db4c211	0.08826078
40	0x3e19b1f8	0.15009296
41	0xbe9fd16d	-0.31214467
42	0x3e91e985	0.28498474
43	0xbe4a80da	-0.19775715
44	0xbe1dc045	-0.15405376
45	0xbeaa1d15	-0.33225313
46	0x3b562bc7	0.0032679902
47	0xbddc4100	-0.10754585
48	0xbe4fe922	-0.20303777
49	0x3ea1e518	0.31620097
50	0xbe1b6b19	-0.15177573
51	0xbda953e3	-0.08267953
52	0x3d8f5ef5	0.070005335
53	0x3e21c444	0.15797526
54	0xbcd1b702	-0.02559996
55	0x3de7b3aa	0.11313565
56	0x3d105be4	0.035243884
57	0xbd65ff26	-0.05615153
58	0x3ec40650	0.38286066
59	0x3e19e2d1	0.1502793
60	0xbe0c14dd	-0.13679834
61	0x3dcb00ee	0.09912287
62	0x3e14c3e2	0.14527848
63	0x3de768b3	0.11299267
64	0x3dfc39ab	0.12315687
65	0xbe2b2fe8	-0.16717494
66	0xbe8885d3	-0.266646
67	0xbd404e67	-0.04694977
68	0xbeb2cc47	-0.34921476
69	0x3e1fe0ac	0.1561305
70	0xbd5de3e1	-0.0541724
71	0x3d8941d1	0.067020066
72	0x3eb5c43a	0.3550127
73	0xbd468ca2	-0.04847396
74	0x3e39a15d	0.18127961
75	0xbd95f6bb	-0.07322451
76	0xbade8f13	-0.0016979895
77	0xbebd0c9e	-0.3692369
78	0xbe0d850c	-0.13820285
79	0xbdd8227e	-0.10553454
80	0xbddd4f2b	-0.10806116
81	0xbdb27ab5	-0.08714811
82	0x3e21ab6c	0.15788049
83	0xbcd637a8	-0.026149586
84	0x3e21c6f7	0.15798555
85	0x3e0095b8	0.12557113
86	0xbe4678e2	-0.1938205
87	0xbdaae7c2	-0.083449855
88	0xbe29105f	-0.16510151
89	0x3ddd7a58	0.10814351
90	0x3d1fdc5d	0.039028514
91	0xbe540956	-0.20706686
92	0x3c8cd374	0.017190672
93	0x3d9ad715	0.07560555
94	0x3e78eaad	0.24308272
95	0xbdb0e1cb	-0.086368166
96	0x3e9874cb	0.29776606
97	0xbe13d148	-0.14435303
98	0x3dc7a57c	0.097483605
99	0x3e26bf63	0.16283946
100	0x3bbf8871	0.0058451225
101	0x3d8b9c21	0.068168886
102	0xbca37fa9	-0.019958334
103	0x3e00cfe4	0.12579304
104	0xbd580b6e	-0.052745275
105	0xbda8d092	-0.08242907
106	0x3df79176	0.12088291
107	0x3db42a22	0.08797099
108	0xbeb74728	-0.35796475
109	0x3e2040ce	0.15649721
110	0xbdc1e2cb	-0.094670855
111	0xbbea35c9	-0.007147525
112	0x3e10981b	0.14120524
113	0xbe3ff3ae	-0.187453
114	0xbdd03567	-0.10166436
115	0xbd36f10c	-0.044663474
116	0x3e873002	0.26403815
117	0x3aeaba09	0.0017908226
118	0xbe033621	-0.12813617
119	0xbd39b039	-0.045334075
120	0x3d830fea	0.0639952
121	0xbd25e0c0	-0.04049754
122	0x3ca1a9d5	0.019734303
123	0xbefdd0f3	-0.49573478
124	0xbe703d4e	-0.23460886
125	0x3dfc9c69	0.1233452
126	0xbd0e6753	-0.034766506
127	0x3da90ec5	0.0825477
128	0x3d4e14c9	0.05031279
129	0xbd7f0b8c	-0.06226687
130	0xbeb0e43f	-0.34549138
131	0xbd1f2e55	-0.038862545
132	0xbdb5ba07	-0.088733725
133	0x3de8e48a	0.11371715
134	0xbd795686	-0.06087353
135	0x3d9283e7	0.071540646
136	0xbe24455f	-0.16042088
137	0x3db47755	0.08811823
138	0xbe118a2f	-0.14212869
139	0x3d7db7ab	0.061942738
140	0xbe395cd7	-0.18101822
141	0xbedfd0ca	-0.4371398
142	0x3e0d9924	0.1382795
143	0x3ce5258b	0.027972003
144	0xbda4c385	-0.08045105
145	0xbc8622d9	-0.016374039
146	0xbdf3fcfa	-0.11913486
147	0x3d07e39a	0.033176042
148	0xbba4f9fd	-0.0050346837
149	0x3e10b06e	0.14129803
150	0xbe13932e	-0.14411613
151	0x3d85bd0c	0.065301985
152	0xbda3a58a	-0.079905584
153	0xbe90997b	-0.28242096
154	0xbe496015	-0.19665559
155	0xbed58289	-0.41701153
156	0xbd99edf4	-0.07516089
157	0xbeffd9ca	-0.49970847
158	0x3d5c02f2	0.053713746
159	0x3edb5cc9	0.42844227
160	0x3ebd8d51	0.37021878
161	0xbe6d7483	-0.23188977
162	0xbcc906ab	-0.024539312
163	0x3db54ed1	0.08852924
164	0xbe3c60ed	-0.18396349
165	0x3d0cf27a	0.03441093
166	0xbebe7c5b	-0.3720425
167	0x3e41eeb6	0.18938717
168	0x3d4c10d0	0.04982072
169	0xbd81d743	-0.06339886
170	0xbed092ea	-0.40737087
171	0x3c8d5b3b	0.017255416
172	0xbe6d9ca6	-0.23204288
173	0x3dfb6fa3	0.122771524
174	0xbe0fa755	-0.14028676
175	0x3dddbd93	0.10827174
176	0xbea79d45	-0.32737175
177	0x3e371e8c	0.17882746
178	0x3e0a7a5e	0.13523242
179	0xbea4dbeb	-0.32199034
180	0x3e9fe8f8	0.3123243
181	0xbc910eae	-0.017707195
182	0x3d358daf	0.044324573
183	0x3e176534	0.147847
184	0x3e1b60c4	0.15173632
185	0xbce209a2	-0.027592484
186	0xbe10abff	-0.14128111
187	0x3e0e74c7	0.13911735
188	0x3e39a340	0.18128681
189	0x3e09d431	0.13459851
190	0xbbcf740c	-0.0063309725
191	0x3d932480	0.07184696
192	0x3d94a9b3	0.0725893
193	0x3cc3be87	0.023894561
194	0xbc22df70	-0.009940967
195	0xbe1522b6	-0.14564022
196	0xbc951adf	-0.01820129
197	0x3e7670fc	0.24066538
198	0xbda712c8	-0.08157879
199	0xbdc7f488	-0.097634375
200	0x3cba0ad5	0.022710243
201	0x3db95df9	0.09051127
202	0x3ec5ad11	0.38608602
203	0x3e3c78a3	0.18405394
204	0xbdbdde63	-0.092709325
205	0x3e03aab3	0.12858085
206	0x3c3fa859	0.011697852
207	0xbe1da116	-0.1539348
208	0xbe292cfa	-0.16521063
209	0x3e2d9c9e	0.16954276
210	0x3df7698e	0.1208068
211	0xbd38e82a	-0.045143284
212	0xbe25f60b	-0.16207139
213	0xbe6b8365	-0.22999342
214	0x3bfa89d9	0.0076458273
215	0xbbf2ea58	-0.00741319
216	0xbecd6c5f	-0.40121743
217	0xbe96c280	-0.29445267
218	0xbe4892ed	-0.19587298
219	0xbe5fa502	-0.21840289
220	0xbc9011ad	-0.017586553
221	0xbddbc8f5	-0.10731689
222	0x3c4238e1	0.011854381
223	0xbea47beb	-0.32125792
224	0x3d88cc71	0.06679619
225	0x3e1b0739	0.15139474
226	0xbe614cf3	-0.2200201
227	0x3e0392ba	0.1284894
228	0x3d294189	0.041322265
229	0x3dd39e04	0.103328735
230	0x3dc19370	0.094519496
231	0xbdaa1c9d	-0.08306239
232	0x3de37678	0.111065805
233	0xbcabeb84	-0.020986326
234	0x3ddf802b	0.10913118
235	0xbe69279d	-0.22769018
236	0x3df1d256	0.118076965
237	0xbdc453e2	-0.09586312
238	0xbe2cce45	-0.1687556
239	0x3e6d1fe5	0.23156698
240	0xbd8c6862	-0.06855847
241	0x3e5f7959	0.21823634
242	0xbe610640	-0.2197504
243	0xbe3b2093	-0.18274145
244	0x3d04f7f0	0.032463014
245	0xbe173500	-0.14766312
246	0xbdb113b0	-0.08646333
247	0x3e44e202	0.1922684
248	0x3e9ad45b	0.3024014
249	0x3e2c237e	0.16810414
250	0x3e985a72	0.29756504
251	0xbc43208c	-0.011909615
252	0xbe36f706	-0.1786767
253	0xbd411c63	-0.047146212
254	0x3d4be204	0.049776092
255	0xbbf391a4	-0.007433133

network.6.bias f4 [64]
0	0x3d574b87	0.052562263
1	0xbd81ac4a	-0.0633169
2	0x3e6991ac	0.22809476
3	0xbe164f55	-0.146787
4	0xbe272a42	-0.16324714
5	0xbc8417cf	-0.016124634
6	0x3e1e8895	0.1548179
7	0xbe9b7e82	-0.30369955
8	0x3b318334	0.002708626
9	0x3dd4a9a2	0.103839174
10	0xbe199f98	-0.15002286
11	0xbe84fe65	-0.25975338
12	0xbdc79c3b	-0.097465955
13	0x3b67b964	0.0035358304
14	0xbb6b4619	-0.0035899936
15	0xbe246c5a	-0.16056958
16	0xbe124d18	-0.14287221
17	0x3d02c13e	0.03192257
18	0xbe41f9f1	-0.18943001
19	0xbd14ba91	-0.036310736
20	0xbe6acdd5	-0.22930081
21	0x3d29e0a4	0.041474
22	0x3c326fb2	0.010890888
23	0xbd9f11de	-0.0776708
24	0x3e7cbc8e	0.24681303
25	0x3ce7a0af	0.028274862
26	0x3e25e918	0.162022
27	0xbd976d2c	-0.0739387
28	0xbabd2d3f	-0.001443304
29	0xbe06c6a3	-0.13161711
30	0x3d9ab97f	0.07554912
31	0xbccec42b	-0.025240025
32	0x3d9877cf	0.07444727
33	0xbe1a4047	-0.15063582
34	0x3dba2c8e	0.090905294
35	0x3e170402	0.14747623
36	0x3ce68338	0.028138742
37	0xbe2d3313	-0.16914015
38	0x3d8c41ad	0.06848464
39	0x3dd9fe2e	0.10644184
40	0xbe2ccd79	-0.16875257
41	0x3e0e1e52	0.13878754
42	0xbd5d9a0d	-0.054101992
43	0x3e34351f	0.17598389
44	0x3d4e349e	0.05034315
45	0xbe081f19	-0.13293113
46	0xbd589ddc	-0.05288492
47	0x3d8296e0	0.06376433
48	0xbe75e700	-0.24013901
49	0x3ca9a7a5	0.020709822
50	0x3db7e2a2	0.08978774
51	0xbe29ae06	-0.16570291
52	0xbca2b058	-0.019859478
53	0x3e05c696	0.13064036
54	0xbe27de26	-0.16393337
55	0x3dcfd7b9	0.10148568
56	0x3d851b2c	0.06499323
57	0x3e2c787c	0.16842836
58	0x3def58c0	0.116868496
59	0xbd9330c0	-0.07187033
60	0x3d61e871	0.055153314
61	0xbd4b25c4	-0.049596563
62	0xbe57c20f	-0.21070121
63	0xbc2d284b	-0.010568689

network.8.weight f4 [64, 64]
0	0x3ce37d9f	0.027769862
1	0xbd14c679	-0.03632209
2	0xbd631524	-0.055440083
3	0xbcd04b3e	-0.025426503
4	0xbe2aaabe	-0.16666695
5	0x3dc0c76b	0.09413036
6	0xbbcc4478	-0.006233748
7	0x3cf94237	0.030427082
8	0x3da0568d	0.07829008
9	0x3d741805	0.05959322
10	0xbe01ad2a	-0.12663713
11	0xbd646bf6	-0.055767022
12	0x3d828324	0.06372669
13	0x3e2fb7a7	0.17159902
14	0xbdec068b	-0.115246855
15	0xbd4bc836	-0.049751483
16	0xbce025aa	-0.02736171
17	0xbd6b0fba	-0.057388045
18	0x3d71e096	0.059052072
19	0x3d01fabd	0.031733263
20	0xbe2ad06b	-0.16681068
21	0x3e0ead5c	0.13933319
22	0xbd56d7ef	-0.052452024
23	0x3cc0402d	0.023468101
24	0xbe26538e	-0.16242811
25	0x3d66c095	0.056336004
26	0x3e3b547c	0.18293947
27	0x3dce1f9e	0.10064624
28	0xbd8324a5	-0.06403474
29	0xbd40d3ea	-0.047077097
30	0x3e24b40e	0.1608431
31	0x3daceb43	0.0844331
32	0xbcc08a77	-0.023503525
33	0x3d57c644	0.052679315
34	0xbd732f78	-0.05937144
35	0xbcee6963	-0.029102987
36	0x3e172c16	0.14762911
37	0x3d8e2f26	0.069425866
38	0xbd21cc81	-0.03950167
39	0xbe1ab7e1	-0.15109207
40	0xbd9bc358	-0.07605618
41	0xbd28c6f2	-0.041205354
42	0x3e193f67	0.14965592
43	0x3dd8c851	0.10585082
44	0xbdaf1e13	-0.08550658
45	0xbcbb0457	-0.022829218
46	0xbd4c139f	-0.0498234
47	0x3dacfa46	0.08446173
48	0xbc925fae	-0.01786789
49	0x3dd0a812	0.10188307
50	0xbdaac2d8	-0.08337945
51	0x3c371986	0.011175519
52	0x3bec9710	0.0072201565
53	0x3c3c4a5e	0.01149234
54	0xbdc33101	-0.09530831
55	0xbd98ebe3	-0.07466867
56	0xbe2f51f9	-0.17121114
57	0x3e011d5f	0.1260886
58	0x3cbeb75d	0.023280794
59	0xbd223986	-0.03960564
60	0xbe02aadf	-0.12760495
61	0xbd9f1c22	-0.07769038
62	0x3d5dbf9d	0.054137815
63	0xbcf1c9dd	-0.029515201
64	0xbe16e75f	-0.14736699
65	0x3dff9ee3	0.12481477
66	0xbe80015e	-0.25001043
67	0x3e3c7756	0.18404898
68	0xbc9ab4a8	-0.018884972
69	0x3d81f35f	0.063452475
70	0xbe56dbde	-0.2098231
71	0xbe226c55	-0.15861638
72	0x3e1c2947	0.15250121
73	0xbcefb7e3	-0.029262489
74	0xbd91987d	-0.07109163
75	0xbd8f52d4	-0.0699822
76	0x3d2c2748	0.04202965
77	0xbdde676b	-0.10859569
78	0xbda96d4d	-0.082728006
79	0xbd427c6c	-0.04748194
80	0xbc024f7f	-0.007953524
81	0xbe17d894	-0.14828712
82	0xbd109834	-0.035301402
83	0xbe027c75	-0.12742789
84	0xbe26fcc4	-0.1630736
85	0x3d8a9c85	0.06768135
86	0xbc51b562	-0.012799593
87	0xbdeb969c	-0.11503336
88	0x3cb841b2	0.022492263
89	0x3da9d90d	0.08293352
90	0x3e5a184c	0.21298331
91	0xbdcee990	-0.10103142
92	0xbe013c38	-0.12620628
93	0x3cde5569	0.027140336
94	0x3c3adef0	0.0114056915
95	0x3ca0ac0f	0.019613294
96	0x3dbdbca3	0.09264495
97	0xbdab7214	-0.08371368
98	0x3aa82c6a	0.0012830619
99	0xbe19871d	-0.14992948
100	0x3e44f380	0.19233513
101	0x3cedaa94	0.029012002
102	0x3e15c7c8	0.14626992
103	0x3ce03ddd	0.027373249
104	0x3e088698	0.13332593
105	0xbd18ef21	-0.037337426
106	0x3b97a977	0.004628356
107	0x3e1a1147	0.15045653
108	0xbda68854	-0.08131471
109	0xbd9d8ddb	-0.076930724
110	0x3c693f28	0.014236249
111	0xbd91a823	-0.07112148
112	0xbe0c4afa	-0.13700476
113	0x3d954474	0.07288447
114	0xbd035a0a	-0.03206829
115	0x3c6550df	0.013996332
116	0xbc48ae95	-0.012248655
117	0x3e3541c6	0.17700872
118	0xbd7d2a85	-0.061808128
119	0xbe00508e	-0.12530729
120	0xbda8cc11	-0.082420476
121	0x3db33191	0.087496884
122	0x3ae1db0e	0.0017231421
123	0x3db415d4	0.08793226
124	0xbccd8466	-0.025087547
125	0x3b191c8f	0.002336297
126	0x3e4af82c	0.19821233
127	0xbd33c8e4	-0.043892756
128	0xbde2d8f3	-0.11076536
129	0xbe0e2389	-0.13880743
130	0xbdbbdb32	-0.091726676
131	0xbe17757a	-0.14790908
132	0xbcaa5cdb	-0.02079623
133	0x3c9c65cc	0.01909151
134	0xbd4bcb2b	-0.049754303
135	0x3e3520d0	0.17688298
136	0x3d695aba	0.05697129
137	0xbd8758a9	-0.066087075
138	0xbe3d6e9d	-0.18499227
139	0x3a1a178f	0.00058781443
140	0x3e0b7322	0.13618138
141	0x3d65f53d	0.05614208
142	0xbc26c306	-0.010178333
143	0xbd8154c2	-0.063149944
144	0x3e008018	0.12548864
145	0x3d99d2c4	0.075109035
146	0xbddc025a	-0.10742636
147	0x3d440fdc	0.047866687
148	0xbea95710	-0.33074236
149	0x3e132bd5	0.1437219
150	0x3d9e4398	0.07727736
151	0x3dee6251	0.11639846
152	0xbdab63f0	-0.08368671
153	0x3cd852d9	0.026406692
154	0xbd73738f	-0.059436377
155	0x3dd3d172	0.10342683
156	0x3c363dd5	0.01112314
157	0x3d9002fc	0.07031819
158	0x3dd246b8	0.10267395
159	0xbdab2533	-0.083567046
160	0x3d7e82f5	0.06213661
161	0xbdba4a44	-0.09096196
162	0x3e4aba05	0.19797523
163	0xbd2b36a3	-0.041800153
164	0x3dae3d78	0.08507818
165	0x3d7f8e96	0.06239184
166	0xbd8f0787	-0.069838576
167	0x3da3924a	0.07986887
168	0xbd7eddb8	-0.062223166
169	0x3e4c8183	0.1997128
170	0xbdbf2162	-0.09332539
171	0x3d0bc07e	0.03411912
172	0xbe3d33ef	-0.18476842
173	0xbc9ded63	-0.019278234
174	0x3c6615f7	0.014043323
175	0xbd7dd0d5	-0.061966736
176	0x3d83f40f	0.06443035
177	0xbcddce3d	-0.027075881
178	0xbda14b4f	-0.07875692
179	0x3d2f0fa0	0.04273951
180	0x3d250e17	0.04029664
181	0xbcacdb9b	-0.02110081
182	0x3de98eae	0.11404167
183	0x3d12b177	0.035813775
184	0x3defdde9	0.11712248
185	0xbcb83b3b	-0.02248918
186	0xbd9dbcc7	-0.07702022
187	0xbdec4836	-0.11537211
188	0xbd681b05	-0.056666393
189	0xbd822493	-0.06354632
190	0x3c3864ad	0.011254472
191	0x3ce53dea	0.027983624
192	0xbde179cc	-0.11009559
193	0xbcb70fad	-0.022346342
194	0x3b855574	0.0040690247
195	0x3ce2efcb	0.027702233
196	0xbdbb5e5f	-0.09148859
197	0x3dc225f7	0.094798975
198	0xbdcd0fda	-0.10012789
199	0xbca8e74e	-0.020618107
200	0xbc0a1de9	-0.008429983
201	0x3d2ed31f	0.04268181
202	0x3d6d1619	0.057882402
203	0x3e165f7b	0.1468486
204	0x3e1ff424	0.15620476
205	0x3e9a545d	0.3014249
206	0x3d1b6b7e	0.03794431
207	0xbd631a08	-0.055444747
208	0xbe92f0e7	-0.2869942
209	0x3e03ec14	0.12883025
210	0xbe3a7751	-0.18209578
211	0x3df193e4	0.11795786
212	0xbdbca8ab	-0.09211858
213	0x397111ba	0.00022990155
214	0x3d7c61af	0.061616596
215	0xbdf071f3	-0.11740484
216	0xbcac7436	-0.021051507
217	0x3e8bd2fa	0.273094
218	0xbb89df8c	-0.004207557
219	0xbdbc181f	-0.09184288
220	0x3d12878b	0.035773795
221	0x3e93bf5a	0.28856927
222	0x3daf7b5a	0.08568449
223	0x3de2798b	0.11058339
224	0x3ed37756	0.41301984
225	0x3e8e0c22	0.27743632
226	0xbe43207e	-0.19055364
227	0x3db52d8c	0.08846578
228	0x3e18ba92	0.14914921
229	0xbea7104e	-0.32629627
230	0xbd506775	-0.050879914
231	0xbd4581bc	-0.048219427
232	0x3e33e427	0.17567502
233	0xbe350a07	-0.17679606
234	0x3e4e9405	0.20173652
235	0xbd0243ed	-0.03180306
236	0xbd18601f	-0.037201043
237	0x3e317dce	0.17333147
238	0x3d78bc0a	0.060726203
239	0x3e93c5a2	0.2886172
240	0x3df3142d	0.118690826
241	0xbe543b3a	-0.20725718
242	0x3ddd2e61	0.10799862
243	0x3df848e6	0.12123279
244	0xbd8fafa1	-0.070159204
245	0x3c470b17	0.01214864
246	0x3e7997eb	0.24374358
247	0x3d957a54	0.07298723
248	0x3e119f0f	0.14220832
249	0x3d93c026	0.07214384
250	0xbe94bbe1	-0.2904959
251	0xbd6b6db0	-0.057477653
252	0xbd04c05a	-0.032410003
253	0x3da8c6b1	0.082410224
254	0xbf068d80	-0.5255966
255	0xbda7589e	-0.08171199

network.8.bias f4 [64]
0	0xbe39eaa4	-0.18155915
1	0xbb7b1468	-0.0038311724
2	0xbe4ef48e	-0.20210478
3	0x3dfa51ea	0.12222655
4	0xbe17bd3b	-0.1481828
5	0x3ea28aff	0.3174667
6	0xbbfdc0ca	-0.0077439295
7	0xbe850d10	-0.25986528
8	0x3e4f20b8	0.20227325
9	0x3e3ee6ef	0.18642782
10	0x3e2c1172	0.1680353
11	0x3de5f369	0.112280674
12	0xbca8deb3	-0.020614004
13	0x3e80936b	0.2511247
14	0xbdd34ed3	-0.10317769
15	0x3e252e1d	0.16130872
16	0x3cd6a843	0.02620328
17	0x3ea16ff3	0.31530723
18	0x3d29ea00	0.041482925
19	0xbe0432a5	-0.12909944
20	0xbd196d1c	-0.03745757
21	0xbe7e9424	-0.24861199
22	0x3d056be3	0.032573592
23	0x3e0f055c	0.13966888
24	0x3e2ebaa5	0.17063387
25	0xbd3055f3	-0.043050718
26	0x3d166dbe	0.036725752
27	0xbd38d5ea	-0.04512588
28	0x3e0f1213	0.13971739
29	0xbcae535d	-0.021279985
30	0x3dd0dc91	0.1019832
31	0x3d17e88e	0.037087016
32	0xbe163e67	-0.14672242
33	0xbd7bd327	-0.061480667
34	0x3a2aea11	0.0006519864
35	0xbe04f9ec	-0.12985963
36	0xbe60885f	-0.21927021
37	0x3e902564	0.28153527
38	0x3e47e46b	0.19520728
39	0xbe23c3d4	-0.15992671
40	0xbd1c1028	-0.038101345
41	0x3d2f34d7	0.042775
42	0xbde4d6ce	-0.11173783
43	0xbe2c7656	-0.16842017
44	0xbdc535eb	-0.09629425
45	0xbd872390	-0.0659858
46	0x3dffd4d3	0.12491765
47	0xbdd31f4d	-0.103087045
48	0xbd8171cd	-0.06320534
49	0xbe1f4583	-0.1555386
50	0x3dc92f9f	0.09823536
51	0x3e2f72b0	0.17133594
52	0xbe2b4711	-0.16726328
53	0xbcfb4b1d	-0.030675465
54	0xbd1de12a	-0.03854481
55	0xbe6923d0	-0.22767568
56	0xbcd2ded7	-0.025741024
57	0x3d475f08	0.048674613
58	0x3e0a6b03	0.13517384
59	0xbd84113f	-0.06448602
60	0x3d753b49	0.05987099
61	0x3e2566af	0.16152452
62	0x3df6423f	0.12024354
63	0xbdc95213	-0.098301075

network.10.weight f4 [64, 64]
0	0xbd54c97b	-0.05194996
1	0x3d433d4a	0.04766587
2	0xbd84a8af	-0.06477486
3	0xbc961d5d	-0.018324548
4	0x3d8ebde6	0.06969814
5	0x3c156f09	0.009120711
6	0x3cf4e8f8	0.029896244
7	0xbc788c30	-0.015170142
8	0xbd0c9fec	-0.0343322
9	0x3cb89a5d	0.022534544
10	0xbce558fa	-0.027996529
11	0xbd137314	-0.03599842
12	0x3c27bef0	0.010238394
13	0x3d07197b	0.032983284
14	0xbd2b4df9	-0.041822407
15	0x3c550fc1	0.013004244
16	0xbbba2b58	-0.0056814365
17	0xbd463a8f	-0.04839569
18	0x3cb25343	0.021768218
19	0x3ba4b64d	0.0050266148
20	0xb9b1b08c	-0.00033891608
21	0x3c346995	0.011011501
22	0xbd6ea0b8	-0.058258742
23	0xbc46010a	-0.012085209
24	0xbd072168	-0.032990843
25	0xbd8a8c84	-0.067650825
26	0x3cf147ed	0.029453242
27	0x3d87d3db	0.06632205
28	0x3d534800	0.051582336
29	0xbbbc3941	-0.00574413
30	0x3d38dbeb	0.045131605
31	0xbbe5d6f9	-0.007014152
32	0x3998b4e2	0.00029126467
33	0x3d740163	0.059571635
34	0xbb676355	-0.003530701
35	0x3cfc8bc1	0.030828359
36	0x3c59f57c	0.013303157
37	0xbda5b9fa	-0.08092113
38	0x3a2511be	0.0006296894
39	0x3d33c96f	0.043893274
40	0xbcc8a70e	-0.02449372
41	0xbc83c99c	-0.016087346
42	0x3d7cb8ee	0.0616998
43	0xbcec43e3	-0.028840965
44	0xba1fe527	-0.0006099515
45	0xbca4ee80	-0.020133257
46	0xbcf4d658	-0.029887363
47	0x3d109727	0.0353004
48	0x3cb956aa	0.022624332
49	0x3c386ee4	0.011256907
50	0x3d310034	0.043213084
51	0xbdb68c9b	-0.08913537
52	0xbd7a8602	-0.061162956
53	0x3d14cf72	0.036330648
54	0x3d80aa10	0.06282437
55	0xbcf5f3ac	-0.030023418
56	0x3c41f868	0.01183901
57	0x3ccf0181	0.025269272
58	0x398bca55	0.00026662895
59	0xbcb759cc	-0.022381686
60	0xbd3ac9a1	-0.045602445
61	0x3c8cb427	0.017175747
62	0xbccffcc0	-0.025389075
63	0x3caf68d5	0.021412292
64	0xbb2448e3	-0.0025067858
65	0xbdac8dd3	-0.08425488
66	0x3d1c878f	0.038215216
67	0x3dc1cef7	0.094633035
68	0x3e4d6423	0.2005773
69	0x3cbcebe5	0.023061702
70	0xbda1dbc4	-0.07903245
71	0xbe7716a8	-0.24129736
72	0x3dd730e3	0.10507371
73	0xbc7ee72b	-0.015558044
74	0xbdd0f450	-0.10202849
75	0xbdc5321e	-0.096287
76	0x3e02c80b	0.12771623
77	0x3e513e0a	0.20433822
78	0x3e312f71	0.17303254
79	0x3e8c3c82	0.27389914
80	0xbcbbf996	-0.02294616
81	0x3d5b0ff9	0.05348203
82	0xbe729e04	-0.2369309
83	0x3df49162	0.11941792
84	0xbd82b8e6	-0.06382923
85	0xbd36056d	-0.04443877
86	0xbc988b35	-0.018621067
87	0xbe3e3b02	-0.18577197
88	0x3e00d9e4	0.12583119
89	0xbdf05cb0	-0.11736429
90	0x3e7c76b8	0.24654663
91	0xbea19764	-0.31560814
92	0x3e2b9265	0.16755064
93	0x3c47d0fb	0.012195821
94	0x3da92461	0.08258892
95	0x3b2b0cd2	0.002610017
96	0x3e58bedc	0.21166557
97	0x3ca715af	0.020396082
98	0xbe0faed5	-0.14031537
99	0xbd964cf6	-0.07338898
100	0x3db4158d	0.08793173
101	0x3ecf4906	0.404854
102	0xbd864e04	-0.06557849
103	0x3e3ac5e0	0.18239546
104	0x3ec48bf9	0.3838804
105	0x3e85ec8b	0.2615703
106	0x3e2c137b	0.16804306
107	0xbd41ff3c	-0.04736255
108	0x3ec37096	0.38171834
109	0xbebedae5	-0.37276378
110	0xbd4b83f9	-0.049686406
111	0x3e9cb419	0.30606154
112	0xbd8f3502	-0.06992532
113	0x3e1d5fdf	0.15368603
114	0xbe84c834	-0.25933993
115	0xbe626566	-0.22108993
116	0xbd910589	-0.07081134
117	0x3d15915c	0.03651558
118	0x3e19207c	0.14953798
119	0xbdce358d	-0.10068808
120	0x3e022822	0.12710622
121	0x3cb5a04d	0.022171164
122	0x3dac0ce7	0.084008984
123	0xbe80e051	-0.2517114
124	0x3d41bad3	0.04729731
125	0xbe6ae89f	-0.229403
126	0xbd74b6b0	-0.059744537
127	0x3bba4294	0.0056842063
128	0x3d728abf	0.05921435
129	0xbd003ff2	-0.031310983
130	0x3d9eaa0c	0.077472776
131	0x3c05836d	0.00814901
132	0xbd67366e	-0.056448393
133	0x3c897a00	0.016781807
134	0xbcb87319	-0.02251582
135	0xbd44b8b5	-0.048027713
136	0xbda33292	-0.0796863
137	0x3d0488b7	0.032356944
138	0xbd634b11	-0.05549151
139	0x3ced8668	0.028994754
140	0xbba000c3	-0.0048829033
141	0xbd9528c1	-0.07283164
142	0x3d5002bc	0.050783858
143	0xbcf1160f	-0.029429464
144	0xbc8c79cb	-0.01714792
145	0xbcb505ab	-0.02209743
146	0x3d679b3f	0.05654454
147	0x3ca6e1bd	0.020371312
148	0x3d1478d9	0.03624806
149	0x3cb54941	0.022129657
150	0xbbd4e426	-0.006496924
151	0xbcdca4d5	-0.026934067
152	0x3d9b28ba	0.07576127
153	0xbd843dc2	-0.06457092
154	0x3d4d0732	0.05005569
155	0x3c1486f8	0.009065382
156	0xb96773b2	-0.00022072977
157	0x3dc5c1af	0.09656083
158	0xbcc7b070	-0.024376124
159	0xbbc31681	-0.0059536104
160	0xbd926444	-0.071480304
161	0xbcadd7a7	-0.021220995
162	0x3db5414e	0.088503465
163	0x3d0c2051	0.034210507
164	0x3c4c75d0	0.012479261
165	0x3caa1ad0	0.020764738
166	0xbd3b166f	-0.04567569
167	0xbd682676	-0.056677304
168	0x3d66208f	0.056183394
169	0xbd540a06	-0.05176737
170	0x3d2d8e40	0.04237199
171	0x3cddb1ce	0.027062323
172	0xbd798d69	-0.060925875
173	0xbb0dea75	-0.002165464
174	0xbd949743	-0.072554134
175	0x3d280766	0.04102268
176	0x3d9e5e6e	0.07732855
177	0x3baa3339	0.0051940945
178	0xbd0ee5b0	-0.034887016
179	0x3d22ad0c	0.03971581
180	0x3d63fdad	0.055661846
181	0xbc91b698	-0.017787263
182	0x3dc12bbf	0.09432172
183	0x3cc98d00	0.024603367
184	0xbc02d937	-0.007986358
185	0xbd5f4a72	-0.054514356
186	0x3be187bc	0.006882636
187	0x3d38ab12	0.04508502
188	0xbd22a146	-0.039704584
189	0x3d169557	0.036763515
190	0xbcbebaa1	-0.023282351
191	0xbd9756d9	-0.07389612
192	0x3b76a52b	0.003763507
193	0x3e52eb1d	0.20597501
194	0xbdd3ba0e	-0.103382215
195	0x3dcf984c	0.1013647
196	0xbdf40666	-0.11915283
197	0xbd3522f5	-0.04422279
198	0xbc27254b	-0.010201762
199	0x3ba549e9	0.005044211
200	0xbd57b88a	-0.052666225
201	0x3c26e9b0	0.010187551
202	0xbd4a9877	-0.049461808
203	0xbbe099cc	-0.0068542715
204	0xbcd45dc7	-0.025923623
205	0xbdf9f3ee	-0.12204729
206	0x3e2e901b	0.1704716
207	0xbe071c99	-0.13194503
208	0xbb005867	-0.0019583942
209	0xbd95498f	-0.07289421
210	0xbd9ad04a	-0.07559259
211	0x3e6adaaa	0.22934976
212	0xbe1fc426	-0.15602168
213	0xbe82aab0	-0.2552085
214	0xbc54dbde	-0.012991874
215	0xbda8fdff	-0.08251571
216	0xbdc46d9d	-0.095912196
217	0xbd2fd5e6	-0.0429286
218	0x3bde80a1	0.006790236
219	0xbdb9eaf2	-0.090780154
220	0x3e22ce19	0.15898933
221	0xbe123a2c	-0.14280003
222	0x3c01609c	0.007896569
223	0x3d0d647d	0.03451966
224	0x3e6f63b8	0.23377883
225	0xbd5cd2a1	-0.05391181
226	0x3cf459b4	0.02982793
227	0xbe1e7d16	-0.15477404
228	0x3e39cd9a	0.18144837
229	0xbdaea6bb	-0.08527895
230	0xbe5bdd3f	-0.21471117
231	0x3dcad507	0.09903913
232	0x3e30070d	0.1719019
233	0xbdc6a505	-0.09699444
234	0xbd599746	-0.05312278
235	0x3e0e96d5	0.13924725
236	0x3e46d0b9	0.19415559
237	0x3d27938b	0.040912192
238	0xbe8f15aa	-0.27946216
239	0x3db34bb0	0.087546706
240	0xbbfa2b68	-0.007634569
241	0x3dd1ad3e	0.102381214
242	0x3d3e250e	0.046422057
243	0xbd09e62d	-0.03366678
244	0x3e9719b5	0.295118
245	0xbc284fdf	-0.010272949
246	0x3d46cce8	0.048535258
247	0x3d5c0ebc	0.05372499
248	0x3ca943bd	0.020662183
249	0xbd18336c	-0.037158415
250	0x3c9f4128	0.019440249
251	0x3dbb286d	0.0913857
252	0xbdb6022c	-0.08887133
253	0xbd9ade04	-0.07561877
254	0xbd836530	-0.06415784
255	0x3e18ba44	0.14914805

network.10.bias f4 [64]
0	0x3d96834e	0.07349263
1	0xbe9010a6	-0.28137702
2	0x3ddac5b0	0.10682237
3	0xbe478dc3	-0.19487672
4	0xbeceea04	-0.40412915
5	0xbe08a806	-0.13345346
6	0x3e56bc3f	0.20970248
7	0x3d860489	0.06543834
8	0x3d9c8d01	0.07644082
9	0xbdc07088	-0.09396464
10	0xbeaa277c	-0.3323325
11	0xbd9ef949	-0.07762391
12	0x3dd936cd	0.106061555
13	0xbda8418f	-0.08215629
14	0xbded209e	-0.11578487
15	0x3d87628b	0.066105925
16	0x3cb7f2de	0.022454675
17	0x3cb7d028	0.022438124
18	0x3d523eb3	0.051329326
19	0xbdfb56f8	-0.12272447
20	0xbda10013	-0.07861342
21	0xbe998cbb	-0.2999018
22	0xbac67289	-0.0015140335
23	0xbd957118	-0.072969615
24	0x3e722ec4	0.23650652
25	0xbbc6d56f	-0.0060679237
26	0xbd94c235	-0.072636046
27	0x3cc79613	0.024363553
28	0x3eb5bf0b	0.35497317
29	0xbda905ed	-0.082530834
30	0x3ad499f3	0.0016220197
31	0x3c5ec28f	0.013596191
32	0xbd1c3ba2	-0.038142808
33	0xbd4e4f95	-0.050368864
34	0x3dea0d5d	0.1142833
35	0xbd31d496	-0.04341563
36	0xbea3b1c6	-0.31971568
37	0x3d48fb1a	0.049067594
38	0xbdfa79af	-0.122302406
39	0x3cd4136d	0.02588817
40	0x38dcfcfc	0.000105375395
41	0xbd171be7	-0.036891844
42	0xbd15f731	-0.036612693
43	0xbda153e8	-0.07877332
44	0x3d75b9cc	0.059991643
45	0xbc51dba4	-0.012808714
46	0x3dea2b33	0.11434021
47	0xbd9fffa3	-0.07812431
48	0xbcb66c91	-0.022268565
49	0x3d362648	0.0444701
50	0x3e24bde0	0.16088057
51	0xbdd07440	-0.10178423
52	0xbb133a53	-0.0022465184
53	0xbe1b8fa0	-0.15191507
54	0x3deaee86	0.11471276
55	0xbdab65be	-0.08369015
56	0xbdf8a973	-0.12141695
57	0x3db26619	0.0871088
58	0xbd81d707	-0.06339841
59	0x3e2912c2	0.16511062
60	0xbeb463b6	-0.35232323
61	0x3eed53c1	0.46352962
62	0x3e512500	0.2042427
63	0x3d5b6bd6	0.053569637
