Clean/models/xavier1.pth (torch, 89900 bytes, 14 tensors)

network.0.weight f4 [64, 2]
000000 80 90 d1 be f1 3c 1e 3f f2 1d bc be 06 b0 d7 3c
       -0.40930557 0.6181174 -0.36741596 0.026329052
000010 39 73 7f 3e c2 0b 10 be 66 02 36 3e 54 57 5f 3e
       0.24946298 -0.14066985 0.17774352 0.21810657
000020 a1 b6 52 bd 69 d7 72 bd b9 e5 ce 3e dd 83 0d bf
       -0.0514437 -0.059287462 0.4040964 -0.5527933
000030 e9 02 4b be af 85 f6 3c 48 a1 c0 3e a4 87 92 be
       -0.19825329 0.030093042 0.37623048 -0.2861911
000040 41 20 fa 3d 28 d0 04 3f f9 9e 99 3d 7a e6 03 3f
       0.12213183 0.5188012 0.07501025 0.51523554
000050 4a ab 89 3e fe f2 a3 bd 5a 42 a2 be 5a e9 3c be
       0.26888496 -0.080053315 -0.31691247 -0.18448392
000060 0b 44 cd 3d d5 1c 6b be fb ed ab bd b6 93 c3 be
       0.10022744 -0.22960217 -0.083950005 -0.38198632
000070 2b 7b 83 be 14 5e 30 3e d8 ae e7 bd 84 dc 7d 3d
       -0.25679907 0.17223388 -0.11312646 0.06197788
000080 0f d4 75 be c6 f4 0f be 41 54 28 3e f8 ee 9d 3e
       -0.24006675 -0.14058217 0.1643839 0.3084638
000090 ba a5 42 3d c2 6b 31 3f 70 d9 44 3e e0 4f b7 be
       0.04752133 0.6930505 0.19223571 -0.35803127
0000a0 de 55 cb 3a ac 00 f0 be 24 3c 81 3e 13 c4 06 be
       0.0015513261 -0.46875513 0.25241196 -0.13160734
0000b0 c0 be 79 be 76 d5 4f be 29 91 a7 3e 07 ef e3 be
       -0.24389172 -0.20296273 0.32727936 -0.445183
0000c0 59 a1 f8 bd 9a b0 6f bc 97 42 a1 3d c4 0b 0a 3f
       -0.121401496 -0.014629507 0.07874029 0.539242
0000d0 8e 8f 6f 3e d5 0a ed 3c bb 0d fd bb b1 3b b1 be
       0.23394606 0.02893583 -0.007722584 -0.34615853
0000e0 d6 b7 61 3e 03 3a 92 3e da 9d cc be 72 98 0f 3f
       0.22042784 0.28559884 -0.3996418 0.5609199
0000f0 85 c6 d0 be df 95 c4 3e 5c 02 a4 bd 44 73 69 3d
       -0.40776458 0.38395593 -0.080082625 0.05699469
000100 b1 1f 45 be 49 ee 3b be b7 e2 1c bc e5 9c 91 3f
       -0.1925037 -0.18352617 -0.009575537 1.1376005
000110 b7 01 b8 be b9 45 a3 be a3 15 e4 bd 07 b7 09 3f
       -0.35938808 -0.31889132 -0.111369394 0.537949
000120 80 03 50 3e 1b 52 13 be d4 a4 b7 bd ee a0 ef 3e
       0.20313835 -0.1438679 -0.08966985 0.46802467
000130 c0 b5 d2 3e 1e f5 d7 3d d5 17 91 3c 97 b3 4d bf
       0.4115429 0.10544799 0.01771156 -0.8035216
000140 8f 4d 11 3e 00 0b 99 3d 42 be 47 be b0 95 44 3d
       0.14189743 0.07472801 -0.19506171 0.047994316
000150 6e 1d 73 3e 42 16 d1 be 07 55 44 be a0 0c b2 be
       0.23741695 -0.40837294 -0.1917306 -0.34775257
000160 04 b7 3b 3e 8c f1 f8 bd d1 b6 f0 bd 7d 91 22 3e
       0.18331534 -0.121554464 -0.117536195 0.15875812
000170 9e 00 59 3e 41 84 d7 be e4 2a 73 be 74 0b b9 be
       0.21191642 -0.4209309 -0.2374683 -0.3614155
000180 ab 99 2e bd a6 d9 7b be fe f6 15 3e 6f 87 c1 3e
       -0.042627018 -0.24594745 0.14645001 0.3779864
000190 e7 a2 34 be e0 b2 bb be 59 62 be bc dd 83 24 be
       -0.17640267 -0.36659908 -0.023240255 -0.16065927
0001a0 49 f3 05 3e 2c 70 47 be 9c d5 b5 bd bb ec 40 be
       0.13081087 -0.19476384 -0.088786334 -0.18840306
0001b0 14 b1 99 3d 10 66 f0 3e b1 de a9 bd a3 9f 6f be
       0.07504478 0.46952868 -0.08294428 -0.2340074
0001c0 1f c5 27 3c 24 78 9b bd 6a d1 6f be 25 8d fa bd
       0.010239868 -0.075912744 -0.23419729 -0.122339524
0001d0 a7 0d 7b bd 77 da ec 3e 00 ad 46 3c f7 59 61 be
       -0.061292317 0.46260425 0.012126207 -0.22006975
0001e0 fa f0 23 3e ba 42 9b bc 0f c8 32 be ae a8 be 3e
       0.16009894 -0.018952716 -0.17459129 0.37238067
0001f0 ad 2c 5e be db 94 ba bd be b4 88 3e d0 08 0a be
       -0.2169673 -0.09110423 0.26700395 -0.13479924

network.0.bias f4 [64]
000000 cc 29 13 3d b6 a1 cb 3e f3 a8 36 be d3 a0 6b be
       0.035928532 0.39771813 -0.17837887 -0.23010568
000010 48 8b b2 3d da f2 11 be 26 18 55 3e df 87 a7 bd
       0.08717972 -0.14252797 0.20809993 -0.08180212
000020 c6 75 82 be f4 18 ad be ed 15 fb bd 31 2d e3 3e
       -0.2548048 -0.338081 -0.122600414 0.44370416
000030 82 27 a8 3c 6d 2f 72 3e ac e8 48 3d f1 98 ef 3d
       0.020526651 0.23650904 0.04905002 0.11699093
000040 47 27 a2 3e de 19 b4 be a8 e6 75 be a0 4e 82 3d
       0.3167059 -0.35175985 -0.2401377 0.06362653
000050 45 63 3f 3e d2 10 dd bd 36 f8 a9 3e c6 6b e5 3d
       0.18690212 -0.10794224 0.33197182 0.11202197
000060 c8 26 62 3e a5 c3 6a be 98 5a a8 be 53 16 f4 3d
       0.22085106 -0.22926195 -0.32881618 0.119183205
000070 32 73 87 be a2 8e 0d 3e bc b6 6e 3e 0e b2 87 3d
       -0.26455075 0.13823941 0.23311895 0.06625758
000080 a8 64 38 3e 72 30 09 bf e2 5a 07 3f b1 a2 55 be
       0.18007147 -0.53589547 0.5287305 -0.20862843
000090 05 58 10 be ee 4f 26 be 14 5e e0 be dc 08 96 3e
       -0.14096077 -0.16241428 -0.43821776 0.29303634
0000a0 a1 7a 06 be 5c ac 05 3e 88 07 d6 3c cc 6e c3 3e
       -0.13132717 0.13054031 0.026126638 0.3817047
0000b0 8d 59 48 bd 8a 60 ed 3d 2f b1 8b bc 40 98 50 bc
       -0.048913527 0.11590679 -0.017052261 -0.012731612
0000c0 f6 66 3b 3e d8 ac 8c be fb 2e c0 3e 48 73 2b 3d
       0.18300995 -0.2747562 0.37535843 0.041857988
0000d0 ae e7 4b 3d 26 55 11 3e 07 3b 7f be 39 8a 3f 3e
       0.049781494 0.14192638 -0.24924861 0.18705072
0000e0 1b 3d 09 3e 34 2d 5c 3e b4 66 9e bd 9e 80 8f 3d
       0.13402216 0.21501619 -0.07734433 0.07006954
0000f0 39 76 9d bd 25 ab fb bd db 29 8d 3e a2 af 26 be
       -0.07688565 -0.122885026 0.27570996 -0.16277936

network.2.weight f4 [64, 64]
000000 04 08 2f 3e bd fb 28 3e 0b 4a 0d be 23 e6 00 3d
       0.17092901 0.1650228 -0.13797776 0.031469475
000010 0b a3 12 3e c9 1f 2b be db c8 cf bd c3 1a fb 3d
       0.14320008 -0.16711344 -0.10145732 0.12260964
000020 f1 bb 1a 3d ec 99 6d bd 28 a6 27 be 22 55 36 bc
       0.03777689 -0.05800812 -0.16371977 -0.011128696
000030 68 39 3b be c7 48 13 3c 92 e3 b5 bd f7 1a 55 bc
       -0.18283617 0.008989519 -0.08881296 -0.013006917
000040 79 df 01 3e 4b 6f 18 be c4 d0 54 bd c7 03 ee 39
       0.12682904 -0.14886205 -0.051956907 0.00045397712
000050 be 8a 3f be bb cc b0 3c 13 57 28 3e a1 ce 02 3e
       -0.1870527 0.021581998 0.16439466 0.12774135
000060 46 33 e4 3d 23 ea ab bd 84 95 67 bd 7e d7 ba 3b
       0.11142592 -0.083942674 -0.056539074 0.005701958
000070 25 61 59 be d0 5e df 3d 75 44 77 3e 14 0a 9a bd
       -0.21228464 0.10906756 0.24147208 -0.075214535
000080 b6 d3 33 3d 9b 53 d8 3d 7c 82 8e 3c 01 35 ab bb
       0.043903075 0.105628215 0.017396204 -0.0052248244
000090 27 5a 1e bd 68 14 06 3e c6 f8 67 be 59 1f 90 3c
       -0.038660195 0.13093722 -0.22653493 0.017593073
0000a0 29 ca 6f 3d 27 85 4d 3e ee af bf 3d 87 c7 f5 bd
       0.058542404 0.20070325 0.09359728 -0.120009474
0000b0 3c 29 5a 3d 05 ae 32 3e a0 2f c4 bd e8 42 6c bd
       0.05326198 0.17449196 -0.09579396 -0.057680994
0000c0 c2 f7 a5 3d 22 20 3e be 9e c0 52 3d 66 d9 6b bc
       0.08103897 -0.18566945 0.051453225 -0.014395094
0000d0 a0 16 2f 3e 5e e2 97 bd eb b0 20 bd 6e a2 d8 bd
       0.17098475 -0.07416223 -0.039231222 -0.10577856
0000e0 46 4a 1d be f9 4d 40 3e d9 ab a2 3c f2 21 00 bd
       -0.15360364 0.18779744 0.019857334 -0.031282373
0000f0 2e d6 06 bd 19 f3 94 3d ed 1a 0c 3e 95 57 46 3e
       -0.0329191 0.0727293 0.13682146 0.19369347
000100 c8 aa d2 bd 16 ee 32 3e 5c 7c 04 bd 24 cf 1b bd
       -0.1028648 0.17473635 -0.03234516 -0.03803934
000110 d2 73 99 3d 93 2c 40 be 7a 75 c4 bd 59 ef 7c be
       0.07492794 -0.18767004 -0.095927194 -0.24700679
000120 c7 24 92 bd f0 66 c3 bd 06 bb 34 bd 98 04 47 3e
       -0.07135921 -0.09541118 -0.044123672 0.19435346
000130 8f 86 a3 3c 9f 6c 46 3e 1a 1f 20 3e 17 94 b5 3d
       0.019961623 0.19377373 0.15636864 0.088661365
000140 ab 66 79 3e 14 1d 50 3c 92 2f 7e 3e f2 33 5a 3e
       0.24355571 0.012702245 0.24822834 0.21308878
000150 31 4f 9a bd 73 5a 02 bd 61 00 a6 bb 98 54 44 be
       -0.07534636 -0.03182454 -0.005065963 -0.19172895
000160 2b 49 53 3e 5a 23 01 3e 55 3c ca bd bf e5 81 3c
       0.2063338 0.12611142 -0.09874789 0.015856622
000170 92 14 40 3b 59 33 35 bd a3 37 81 3e 09 db e8 bd
       0.0029309136 -0.044238422 0.2523776 -0.11369903
000180 32 ed cb bd 3c 0c fc 3d 9a d3 34 3d 52 85 69 3e
       -0.09957351 0.12307021 0.04414711 0.22804764
000190 55 20 71 be 0e 8f f3 bd 37 b1 5e be 40 d0 b0 3d
       -0.2354749 -0.1189252 -0.2174729 0.086334705
0001a0 39 de 79 bd 64 b3 63 bd 4c 66 97 3a 1f 71 5f bd
       -0.061002944 -0.055591002 0.0011550873 -0.05455124
0001b0 9d 26 96 3d c9 a7 b6 ba b2 72 ab bd 1a 16 c5 bd
       0.07331584 -0.0013935502 -0.08371486 -0.09623356
0001c0 48 aa e9 bd a4 16 66 be 88 33 3a 3e 76 76 80 bc
       -0.11409432 -0.22469574 0.1818372 -0.015681487
0001d0 9f 18 c9 bd bc c4 15 be 7a c1 b1 bd 5d d8 1e bd
       -0.09819149 -0.1462583 -0.08679481 -0.03878056
0001e0 9d 2a 47 bd 09 27 14 be b3 f4 e5 bd 0e 0b 16 be
       -0.048624624 -0.14468016 -0.11228313 -0.14652655
0001f0 d4 b0 7a 3c eb 11 c3 bd 63 31 17 bd 93 f6 00 3e
       0.015300948 -0.09524902 -0.036912333 0.1259406
000200 a2 13 84 3c cf 1b dd bd d2 c9 1a be 40 3d 01 3e
       0.016122643 -0.1079632 -0.15116051 0.12621021
000210 e6 0a 2d bd fd 7a ef bd be 50 d6 3b 7a 5c e3 3d
       -0.04224672 -0.1169338 0.006540387 0.11101623
000220 85 84 01 3d 43 48 05 be 0a 8d 20 be 37 34 04 3e
       0.03162052 -0.13015847 -0.15678802 0.12910543
000230 4b d3 6a bd 33 fa 97 3c 87 a8 9f 3d 13 b1 28 be
       -0.05733041 0.018551921 0.07795816 -0.16473798
000240 c3 dc 96 3d 34 62 51 be 93 d8 0d be 7e 53 23 be
       0.07366326 -0.20447618 -0.13852148 -0.15949818
000250 b3 8a 9b 3e 0f 8e c9 bd 82 e2 23 3e 55 46 66 3e
       0.30379257 -0.09841549 0.16004375 0.22487767
000260 03 6f 00 be a7 d7 c1 bb 62 e0 10 be 2c b5 92 bd
       -0.12542348 -0.0059156003 -0.14148095 -0.07163462
000270 cc 2d ff 3d 61 be 50 bd 56 21 3c 3e 6b 9d eb 3d
       0.12459907 -0.05096281 0.18372092 0.115046345
000280 34 5b 93 bd d5 b3 a2 3d 51 86 cc 3d dc 34 1e 3e
       -0.0719513 0.079444565 0.09986556 0.15449852
000290 3b 04 41 bc 01 df 52 3d e5 96 11 3e 52 84 2f bd
       -0.011780794 0.051482204 0.14217718 -0.0428508
0002a0 64 f1 44 3e 7f 35 09 be 5d 30 02 be c2 60 20 3d
       0.19232708 -0.13399313 -0.12713762 0.039154775
0002b0 82 3f fe 3c 65 fb 7c be c3 b9 99 bd 16 ed 18 be
       0.031036142 -0.24705274 -0.07506134 -0.14934191
0002c0 51 29 dc ba 4d 72 48 3e 4b c5 bd 3d ba 1d 03 be
       -0.0016796981 0.19574852 0.09266146 -0.12804309
0002d0 41 a1 d7 bd 9e 72 ef bc 0c 2b 51 3d f0 26 83 bd
       -0.105288036 -0.029229458 0.051066443 -0.06403911
0002e0 5b a8 0f 3e bb e5 fb bd e7 3d 9e 3d 91 98 1e 3e
       0.14029066 -0.12299677 0.07726651 0.15487887
0002f0 a0 7d 32 3e 45 e4 db bd e5 c6 bc 3b d3 54 92 bd
       0.17430735 -0.10736898 0.0057610148 -0.07145085
000300 e6 22 6f bd f4 a6 d3 3c 04 78 ba 3d 9c ac 88 3d
       -0.05838289 0.025836445 0.091049224 0.066735476
000310 08 6f f1 3c 63 e0 c1 3c 3b dc 66 bd c3 6b 7a 3d
       0.02947189 0.023666566 -0.056362372 0.061137926
000320 7a 5d c8 3d cd bf 2f be 55 1f 22 3e 5f 62 d0 bd
       0.09783454 -0.1716301 0.15832265 -0.10175013
000330 0a 1f 8b be 66 c8 7b 3e c1 2b 4d 3d 0f 30 e8 bd
       -0.27172118 0.24588165 0.050090555 -0.113372914
000340 a5 07 2b 3e 1b 3c a3 3c 05 bc 37 3e af 31 fa 3d
       0.16702135 0.019926121 0.17942818 0.12216508
000350 aa 61 c7 3d d0 04 8a 3d 65 db 2f 3d 60 b5 4d be
       0.09735425 0.06739199 0.04293384 -0.2008872
000360 c6 4a f4 3c 3f 94 6e bd 2b 8a 8a bb e1 b7 0a 3e
       0.029820811 -0.058246847 -0.0042278967 0.13546707
000370 ef f1 01 3e 8a 6f a6 3c 38 2a 12 3e b8 88 db bd
       0.12689947 0.020316858 0.14273918 -0.107194364
000380 03 8f fd bd 54 04 15 be 02 cd 03 3e 75 02 21 3e
       -0.12380793 -0.14552432 0.12871173 0.15723594
000390 bf 9e e6 bd 62 87 87 3d 36 b0 79 3d ac 5e 3a 3e
       -0.11260747 0.06617619 0.060959063 0.18200177
0003a0 ec 01 62 3e 17 c2 18 be ad 1c 39 3d fc 78 60 3d
       0.22071046 -0.1491779 0.045193363 0.05480288
0003b0 61 ec 2d 3d 54 5c 0c 3e cd fd 9d bd 1a 50 49 be
       0.042461757 0.13707095 -0.07714424 -0.19659463
0003c0 e5 c4 5c 3e 05 82 10 3d d1 54 5c bd 3a 86 49 3e
       0.21559484 0.035280246 -0.053791825 0.1968011
0003d0 dd b0 1f 3e 1d ed 54 3e 48 87 5c 3e 59 b0 ce 3d
       0.15594812 0.20793577 0.2153598 0.100922294
0003e0 78 6d 35 be 49 14 53 3d 22 b0 7b bd 0a 9e fd 3c
       -0.1771754 0.051533017 -0.06144727 0.030959148
0003f0 09 e1 5f 3e 82 7c 32 3e 19 c8 3e 3e a5 b5 b0 bd
       0.21863188 0.17430308 0.18631019 -0.08628396

network.2.bias f4 [64]
000000 4a 14 e1 3d e8 3d eb 3c cc 0b d8 3c 85 00 ee bc
       0.10990198 0.028716043 0.026372813 -0.029052982
000010 ba ec 93 bd 1e 6e aa bc ed f8 25 3d 6e bc 4d bd
       -0.072228864 -0.020804461 0.040520597 -0.05022853
000020 76 fe 5c 3e 0e 92 72 3c 5c 35 de bc 9c 31 78 3e
       0.21581444 0.01480533 -0.027125053 0.24237674
000030 9d 38 c0 bd 05 51 93 bd b1 f8 33 3c 0a dc 82 be
       -0.09385798 -0.071931876 0.010984586 -0.255585
000040 f2 fe 2b 3d 6f 1f 8b 3d f8 33 e8 3c 22 5d 02 3d
       0.04199118 0.06793105 0.028345093 0.0318271
000050 40 64 a6 3d f8 18 9b 3d df 79 a1 3d f9 e5 1a 3e
       0.0812459 0.07573122 0.07884573 0.1512679
000060 84 5f be 3d ed 41 2e 3d 64 7b 6e bd c3 ab b2 3d
       0.09295562 0.04254334 -0.058223143 0.08724167
000070 73 84 a2 bc 56 a0 83 bd 72 51 a0 bd 0d ce ef 3d
       -0.019838547 -0.06427066 -0.078280345 0.11709223
000080 da ba 88 3e d4 90 05 3c f5 3b 9a bd e2 39 66 bc
       0.26705056 0.0081522055 -0.07530967 -0.014051886
000090 b2 de 97 bd a4 44 73 3d 81 32 d0 3d c8 33 97 3d
       -0.07415523 0.059391633 0.10165883 0.07382923
0000a0 39 c2 bf 3c b0 d5 8c 3d 9a 8f 28 bc 03 f0 74 3d
       0.023408042 0.06876695 -0.0102881435 0.059799206
0000b0 22 2c b3 3b 96 04 19 3d 61 be f6 ba 84 1f d2 bd
       0.0054679075 0.03735789 -0.0018825048 -0.102599174
0000c0 b3 d9 17 3e f6 3d 68 3c 26 2c 80 be 7e a0 87 3c
       0.1482914 0.014174929 -0.25033683 0.01655602
0000d0 14 1a 12 3d a5 03 08 3e a0 b1 95 3d 25 e0 b9 bd
       0.0356694 0.1328264 0.0730927 -0.09075955
0000e0 e4 5e 8d bd 76 74 5b bd ea a2 28 be 78 be df bb
       -0.069028646 -0.053577863 -0.16468397 -0.0068281256
0000f0 c2 27 41 3d 6b f2 8e bd ce c7 1d 3d 0d 8f 8d bd
       0.047157057 -0.06979831 0.038520627 -0.069120504

network.4.weight f4 [64, 64]
000000 f9 5c 93 bd 22 bf 40 bd 5a 81 14 3d 19 36 d6 3c
       -0.071954675 -0.04705728 0.03625617 0.026148843
000010 94 b9 de bc ad 11 f0 bc f9 75 0c be 7e a4 4f bd
       -0.0271881 -0.029305303 -0.13716878 -0.05069398
000020 85 81 12 bd 90 ab 92 bb 45 5e 03 be 99 05 84 be
       -0.03576805 -0.0044760182 -0.1282893 -0.2578552
000030 53 8c fa 3d ef 2c 6e 3c f2 93 d0 bd 92 28 10 3a
       0.12233796 0.01453708 -0.10184468 0.00054992095
000040 d8 e5 2b 3e 85 cb 89 3d 43 fc 3b 3e af 50 84 bb
       0.16786897 0.067282714 0.18357949 -0.0040379385
000050 bc 46 30 bd 77 e0 ad 3d 5f d6 e3 bd 40 63 34 bd
       -0.043036208 0.08490079 -0.111248724 -0.044039965
000060 79 b6 3b be ab 67 bd 3c 3b d2 ee bd 0d 0e 20 bd
       -0.18331327 0.023120722 -0.11661192 -0.0390759
000070 20 6d 18 be 58 09 87 ba 80 1e 26 be 9b ca 48 be
       -0.14885378 -0.0010302467 -0.16222572 -0.19608538
000080 2f ba d6 3d ea c8 b3 3d e5 64 71 3e b0 d8 d6 bd
       0.104847305 0.08778556 0.23573644 -0.104905486
000090 53 d5 0f be 8c dd 00 be 02 0c 14 3e f0 8f d4 bd
       -0.1404622 -0.12584513 0.14457706 -0.103790164
0000a0 36 be 21 3e ab 09 ad 3d c5 6a a1 bd ca 19 db 3d
       0.15795216 0.0844911 -0.07881693 0.10698278
0000b0 84 4b 05 3e a7 69 a3 3d 32 45 c5 3d d7 09 89 3b
       0.13017088 0.07979136 0.096323386 0.004182081
0000c0 65 83 2f 3e 82 bf 14 bd 7c 2e 8f 3e 65 73 96 3b
       0.17139967 -0.03631545 0.27965152 0.004591393
0000d0 1b 35 a3 bd a0 54 83 3e b7 d0 e1 bd 0b 54 6f be
       -0.079691134 0.256505 -0.11026137 -0.23371904
0000e0 b6 f9 af bd f0 4c 50 bd 77 c1 29 3d fc cb 99 bc
       -0.085925505 -0.050854623 0.041444268 -0.018774025
0000f0 00 57 22 3e 67 59 56 3d 17 ea 74 3e c2 6f 39 be
       0.158535 0.052331354 0.23917423 -0.18109038
000100 0c 4c 57 bc dd fd b6 3d a7 71 a3 bd 64 d9 38 3d
       -0.01314069 0.08935139 -0.07980662 0.045129195
000110 79 29 89 3d 6c 2d 7f bc 10 a3 57 3d 7c 57 0a bd
       0.066973634 -0.015574794 0.052645743 -0.033774838
000120 05 55 ab 3e e6 53 3d be 3f e2 f0 bd 0e b6 a2 3e
       0.33463302 -0.18489036 -0.11761903 0.31779522
000130 78 00 26 be c3 b2 ba bd 1b 92 67 3e e9 7a 2d 3c
       -0.16211116 -0.09116127 0.22614329 0.010588386
000140 c7 f6 b9 bd 3f 7d f3 3b 20 ff f0 3d 27 e2 95 3e
       -0.09080272 0.007430702 0.11767411 0.29274103
000150 57 c4 2f 3e ae da 33 be d2 81 ac 3d 28 27 2a 3e
       0.17164741 -0.17563888 0.08423199 0.166165
000160 7c 93 27 bd bd 8a c7 3b 1c 63 4b bd 50 16 8f bc
       -0.040912136 0.006089537 -0.049655065 -0.017466694
000170 12 e6 b1 bd 8a 6e e6 bd da da 3a 3e 93 89 cd bd
       -0.086864606 -0.112515524 0.18247548 -0.10036006
000180 39 c8 b5 bd 84 1a e1 bd 07 98 4f be 8f 2b a2 3d
       -0.0887608 -0.109913856 -0.20272838 0.079184644
000190 56 0f 23 be a0 27 68 be 3e 3b ab bd bc d9 82 3e
       -0.15923819 -0.22671366 -0.08360909 0.25556743
0001a0 37 95 3a be a5 8f 83 3e c7 33 a6 bd 3d dc 2c 3d
       -0.18220983 0.2569553 -0.081153445 0.042202223
0001b0 25 23 09 3c 12 ef dc bc a5 53 b7 bd 4a 25 39 3e
       0.0083701955 -0.026969466 -0.08951501 0.18080631
0001c0 8c 43 ed bd 47 a0 e2 bd 62 52 34 3d be 43 cd bd
       -0.11585149 -0.11065727 0.04402388 -0.100226864
0001d0 29 b1 ba 3c d3 21 1e be 2d b7 06 3e 2c ea 0c be
       0.022789555 -0.1544259 0.13155814 -0.13761204
0001e0 48 58 52 bd 66 14 13 bc 24 6b 07 be 39 e9 82 be
       -0.051353723 -0.008977031 -0.13224465 -0.2556856
0001f0 b3 bd 27 3e 86 cc b7 bd c3 3c 4b be ce 7b c1 3d
       0.16380958 -0.089745566 -0.19847398 0.09447442
000200 46 82 aa bd 8b c7 b6 3c fe dd 62 bb 2a 8c 88 3d
       -0.08325629 0.022311946 -0.003461718 0.06667359
000210 83 9b 31 be 13 32 3c be 11 79 c6 bd c8 e6 c6 3d
       -0.1734448 -0.18378477 -0.0969106 0.09711987
000220 57 a0 91 bd 06 27 93 bd 74 3f 4d 3c ba d7 93 3d
       -0.071106605 -0.071851775 0.012527335 0.07218881
000230 9a 83 07 3d 24 c8 22 3d 83 74 56 3d 96 37 13 3e
       0.03308449 0.03974165 0.052357208 0.14376673
000240 cb df 92 3d 23 cb a0 bd 5a e4 47 3d db f9 0a be
       0.07171591 -0.07851245 0.048801757 -0.13571875
000250 62 2d 8e bb 49 fb 69 be 4b c0 fe bd c3 4f 8b bd
       -0.004338906 -0.22849764 -0.12439021 -0.06802323
000260 18 cc ba 3d 51 0a 22 3d f4 a2 ed 3d 4a 5f 1e bc
       0.09120959 0.03956062 0.116033465 -0.009666273
000270 a2 54 01 be 8f c1 26 be 23 12 2d be 34 04 45 3e
       -0.12629941 -0.16284774 -0.1690145 0.19239885
000280 08 ef dc bd d4 ff 22 be 9d 0a c4 bd d9 cc b3 3d
       -0.10787779 -0.15917903 -0.09572337 0.08779306
000290 cb 77 f1 bc a4 b7 16 be c4 0c 9f bd ba a1 7e bd
       -0.029476067 -0.14718491 -0.07766107 -0.062165953
0002a0 ce b8 f1 bd 51 23 1c 3e 11 76 e9 bb 3e 10 59 be
       -0.11802827 0.15247847 -0.0071246703 -0.21197602
0002b0 81 2c c2 3d 20 65 14 be db 0e af bd f5 7b 9a bb
       0.09481145 -0.14491701 -0.08547755 -0.004714484
0002c0 26 88 df bd 1c 25 c1 3d 86 85 60 be db 7c fa 3d
       -0.1091464 0.09430906 -0.21925935 0.122308455
0002d0 4f 61 34 be 99 ee 40 bb 03 c5 9c bd f3 7c 4a 3d
       -0.17615245 -0.002943909 -0.076547645 0.049435567
0002e0 1c a7 9c be ad 42 dd 3c 69 f2 59 bd 94 cc d3 3d
       -0.30596244 0.027009333 -0.053209696 0.103417546
0002f0 c6 3b 62 3d 5d 10 18 be 7c 67 0a 3e e9 fe 34 3e
       0.055232786 -0.14849992 0.13516039 0.17675366
000300 71 ec 82 3e 14 ad 65 bd 6c cc ce bd f3 1d d0 3d
       0.25571015 -0.056073263 -0.10097584 0.10161962
000310 8c e3 b0 bd cb b3 e6 bc 6c 8c 40 3b c1 5e ae 3d
       -0.08637151 -0.028161904 0.0029380573 0.085141666
000320 f3 46 0c 3f bc a3 ca bd ec 64 54 3d 68 68 a3 3e
       0.5479576 -0.09894511 0.05185406 0.31915593
000330 bf e2 9b be 2e dd 7b 3e 56 d0 60 3e 1d 8c c5 be
       -0.3044643 0.24596092 0.21954474 -0.3858346
000340 55 ea 5f 3d 45 4a d9 3b 77 9d 70 bd 78 5f 77 bf
       0.054666836 0.006631168 -0.05874392 -0.9663005
000350 01 32 8f 3e a9 b8 d0 3d 93 35 0b bd bc 68 c1 3e
       0.27967837 0.10191471 -0.03398664 0.37775218
000360 a5 82 f2 3b d4 de 3d bd 5f 29 cc bd ba a0 62 3e
       0.007400828 -0.046355084 -0.099688284 0.22131625
000370 6c 27 e4 b8 53 10 51 be d6 c2 4b 3e f4 ca ec 3d
       -0.0001087923 -0.20416383 0.19898543 0.11562148
000380 51 8d 07 3f 3a 91 8c be fa 1e 6f 3e a0 e8 0e 3e
       0.52950007 -0.2745455 0.2335166 0.13955927
000390 47 ab 16 bd 76 28 fe bd da e0 61 3e 70 aa 3a 3e
       -0.036784437 -0.12410061 0.2205843 0.18229079
0003a0 46 22 66 be f5 94 9f 3c 9f ac 22 be bb a0 64 3e
       -0.22474012 0.019480208 -0.15886162 0.22326939
0003b0 03 c8 b8 ba 5f a6 64 be ef b3 88 3d 3e 1c b7 3e
       -0.0014097694 -0.2232909 0.066749446 0.35763735
0003c0 40 65 11 bc 4d 99 b0 3e a9 18 70 3e 7b 7b 44 be
       -0.008874238 0.3449196 0.23446907 -0.19187729
0003d0 44 cd 06 3e 5b e1 4e bd d6 c5 8c 3e 53 fa 80 be
       0.1316424 -0.050507884 0.27494687 -0.25190982
0003e0 86 50 c5 be 1c c3 dc bd 8d 76 09 bf b2 6b a2 bc
       -0.38537997 -0.10779402 -0.5369652 -0.019826744
0003f0 d4 e2 ad bd 49 4c a2 be d7 09 8d be fc 84 eb 3d
       -0.0849053 -0.31698826 -0.2754657 0.11499974

network.4.bias f4 [64]
000000 6f b9 fe 3d 82 64 85 bd 0f ed d6 bc 43 a1 2a 3e
       0.124377124 -0.06513311 -0.026236085 0.16663079
000010 6b 26 bf bd 58 45 2f bd f9 4f cf bd 8b ed c9 bd
       -0.093334995 -0.04279074 -0.101226754 -0.09859761
000020 6c bb 0f 3d 60 b5 66 bd dd bd 09 3e c5 be bd 3e
       0.03509085 -0.056325316 0.13451333 0.37059608
000030 e3 7f e6 3d 13 91 0e 3d f7 ed 1f 3e 2a 96 84 bd
       0.11254861 0.034806322 0.1561812 -0.06473954
000040 4f 90 e6 3d 83 a4 d0 3d ae d8 fb 3d be cb a1 bd
       0.112579934 0.10187628 0.12297188 -0.07900189
000050 20 fd 8a bd 8b 84 2d 3d ef aa 9d bc 46 19 03 bd
       -0.06786561 0.04236273 -0.019246547 -0.032006525
000060 06 6b 96 3d bd 74 20 bd ab 10 8a 3d b6 59 bf 3d
       0.07344632 -0.03917383 0.067414604 0.09343283
000070 46 6f d7 bb de dc 44 3b e1 df 5c 3c 91 4c ba 3d
       -0.006574544 0.0030038874 0.013481111 0.09096635
000080 b0 cf bf bd f5 e6 e3 3c 52 27 27 3e b3 65 36 be
       -0.09365785 0.02782009 0.16323593 -0.17812233
000090 79 61 7a 3b 46 cb 10 be 59 af 43 3e 61 b0 22 3e
       0.003820507 -0.14140043 0.19109859 0.15887596
0000a0 2a c7 94 3e 00 bb 00 be 2b 93 0b 3b 33 d5 45 3d
       0.290582 -0.12571335 0.0021297436 0.048299026
0000b0 85 88 63 3e ac bf ae bd cd 02 12 3c 87 d9 8f bc
       0.22220047 -0.08532652 0.008911801 -0.01755978
0000c0 05 d6 5b 3c 63 ea c0 3c 29 af 14 be b8 de 77 3e
       0.013417725 0.023549264 -0.14519943 0.24206054
0000d0 47 4e d6 bd 98 20 35 3e a6 93 12 3e ef e5 98 3c
       -0.10464149 0.17688215 0.14314136 0.018664328
0000e0 b9 3b 0b 3d 30 08 66 bb f3 b1 2a 3e ed ca 9d bd
       0.033992503 -0.0035100095 0.16669445 -0.07704721
0000f0 6c 28 92 be a6 a6 07 3e b5 fd b7 bd d6 50 9a be
       -0.28546464 0.13247165 -0.08983938 -0.30139798

network.6.weight f4 [64, 64]
000000 e3 79 57 be e6 bc 0e 3e 9c 84 6c ba 37 d3 96 be
       -0.2104259 0.13939247 -0.0009022446 -0.2945802
000010 77 44 82 3e f9 4b b3 3e ba da 83 3d f8 6a 75 3d
       0.2544286 0.350189 0.06438203 0.059916466
000020 47 88 14 3d 93 e3 7d 3d ce f5 15 be f1 24 a1 be
       0.036262777 0.06198461 -0.14644548 -0.31473497
000030 3d 7d 0a 3e c1 d4 95 3e 8b 2f 51 3d 14 01 32 3e
       0.13524337 0.2926388 0.05107073 0.17383224
000040 5e d3 fc 3d 94 c8 67 bd 24 8e 33 3d 68 7d 09 be
       0.123450026 -0.05658777 0.043836728 -0.13426745
000050 6b b2 09 3e 43 e6 9b bd 25 9f 2e 3e 72 64 14 bd
       0.13446967 -0.07612278 0.17052896 -0.036228605
000060 5a 10 c4 bc 10 72 76 be d6 e1 56 3e 9f 10 ad 3b
       -0.023933578 -0.24066949 0.20984587 0.0052815224
000070 46 eb 85 bd bd 46 f0 be f5 7d e9 bd 9c 19 c9 bd
       -0.065390155 -0.4692897 -0.114009775 -0.09819338
000080 f6 b3 32 bc ae 66 22 bd fa cb 2d 3e 88 3d 87 3e
       -0.010907164 -0.039648704 0.16972342 0.26414132
000090 b5 7d 93 bd 21 84 33 3e a5 9e fe 3d c2 8b 27 3d
       -0.07201711 0.17530872 0.12432603 0.040904768
0000a0 f4 1f 63 be 27 c7 61 bd a8 c3 90 3c d9 4e 15 bd
       -0.22180158 -0.055121567 0.017671421 -0.036452148
0000b0 4d 2f 6e be 46 22 a9 3d a9 9a ca 3d 5f 82 17 3c
       -0.23260231 0.0825849 0.0989278 0.0092473915
0000c0 2f 27 6a 3c 86 99 50 bd 0b b2 b3 3d 46 20 36 be
       0.014291569 -0.05092766 0.087741934 -0.17785749
0000d0 5b 63 a9 3d 66 01 96 be 99 f2 fb bc 86 97 8a 3d
       0.08270904 -0.29297942 -0.030755328 0.06767182
0000e0 50 bd 39 bc 5d 7c 0c 3e 30 19 b4 bc 0b d4 4e bc
       -0.0113366395 0.13719316 -0.021984667 -0.012623797
0000f0 1b 38 aa 3e 1f 89 6a be 0d a7 e9 bd c9 dc d9 3d
       0.3324593 -0.2290387 -0.114088155 0.106378146
000100 c4 12 db 3d b4 f3 d6 bd a1 8b f1 3d 34 9b da bd
       0.10696939 -0.104957014 0.1179421 -0.10674134
000110 d6 05 48 3e f8 5e 12 be a8 10 76 bd 14 d0 7c be
       0.19533476 -0.1429404 -0.06007448 -0.2468875
000120 86 9c fe bd f6 c6 c6 3d e2 f7 ac 3d b6 34 20 3c
       -0.12432198 0.097059175 0.084457174 0.009778192
000130 a7 36 b9 bd a6 5a be bc f2 0a 4c bd 2d 95 9e 3d
       -0.09043627 -0.023236584 -0.049815126 0.07743297
000140 5a ec 2b be 42 c6 2f be 46 5d 8d 3d de eb 36 3e
       -0.1678938 -0.17165473 0.06902556 0.17863414
000150 a3 e5 a7 bd 2b 99 75 bd 50 5e 6a bc f7 ad 80 be
       -0.081980966 -0.059960525 -0.014304712 -0.25132725
000160 b7 6d d6 3d 49 3f 8c 3c b5 cb 20 3d da 68 e4 3d
       0.10470145 0.01712002 0.03925677 0.11152811
000170 58 ec 08 3e 13 74 ad bc 4d 3e ce 3c ab da 39 be
       0.13371408 -0.021173513 0.025176192 -0.18149821
000180 8f 1e 4f be 8d 3a 85 be f1 a0 93 bc 49 de c1 3d
       -0.20226501 -0.26021233 -0.018021079 0.09466226
000190 d1 a9 70 bc 53 57 d1 bd b8 24 57 3d 63 b1 c9 bd
       -0.014688925 -0.10221734 0.052525252 -0.09848287
0001a0 2b f4 53 3e af 95 3b bd e9 af 10 be ff 7c c7 3c
       0.20698611 -0.045797046 -0.14129604 0.024351595
0001b0 06 09 0c be 4f a9 6b 3d 94 a0 43 bc 15 16 ae 3c
       -0.13675317 0.057534512 -0.01194014 0.021250764
0001c0 d2 79 64 3e 3c 4a ae bd 12 a8 ca 3d b8 84 2f bd
       0.22312096 -0.08510253 0.09895338 -0.04285118
0001d0 36 63 14 3c 00 4d 26 be d8 ee ca bc c8 e6 12 be
       0.009056857 -0.1624031 -0.024772093 -0.14345849
0001e0 c4 1e 85 3e 25 f9 91 3c 73 80 93 3e e3 f7 9b bc
       0.26000035 0.017818997 0.28808936 -0.0190391
0001f0 4b 45 2e bc a4 fe ec bd ab f1 8d bd 47 57 8d bd
       -0.010636638 -0.11572006 -0.0693086 -0.069014125
000200 f4 8b 14 be 86 fc 2e be d4 12 83 3d 46 18 ea 3e
       -0.14506513 -0.17088518 0.064000756 0.45721644
000210 35 29 7f bd ea fd 28 be c1 79 9d 3e 55 cb f3 bd
       -0.062295157 -0.1650311 0.30756953 -0.11904017
000220 52 1c 0e 3e 81 93 c3 be 05 3a d9 3d fd 94 39 3e
       0.13877991 -0.38198474 0.106067695 0.18123241
000230 d4 12 18 3e a9 f8 c1 3c 5c f3 2c 3e 55 6d 83 3d
       0.14850932 0.02367814 0.16889709 0.06417338
000240 25 ad 58 3e 8d 29 32 3e de 1a f3 3c a7 a6 f1 3d
       0.211598 0.17398663 0.029675897 0.117993645
000250 be c7 99 3d df fb da bd e6 57 d7 bc a4 e1 51 bd
       0.07508801 -0.10692572 -0.02628703 -0.05124058
000260 96 e3 42 3e ef 1c 7c bd 8e 07 5e 3e 24 87 44 be
       0.1903213 -0.06155103 0.2168257 -0.19192177
000270 5f ee 74 3d 4a 30 b8 3e 91 07 a2 3c 49 c8 21 3e
       0.05979764 0.35974342 0.019778999 0.15799059
000280 fe 08 17 be 63 a1 dc bd eb 7b 82 bd f6 fd 9c be
       -0.14749524 -0.107729696 -0.06371292 -0.30662507
000290 14 7d 2d 3e 7f 73 67 be d8 c4 d3 bd ef f0 c6 3d
       0.16942245 -0.22602652 -0.10340279 0.09713923
0002a0 92 14 67 bd ef 95 24 be cd 11 84 be 91 fe 3c be
       -0.0564161 -0.1607282 -0.2579483 -0.18456484
0002b0 9e 13 22 3d c2 dd 04 be 99 e2 7c 3b 25 b0 ac 3d
       0.03956949 -0.12975219 0.0038587211 0.084320344
0002c0 86 00 5b 3b fc 07 8d 3d 79 2a c2 3c 13 aa 17 3e
       0.003341706 0.068862885 0.023701893 0.14810972
0002d0 b1 5a 20 be 26 fa 20 3e 74 bc 44 3d 4c dd d2 bd
       -0.15659596 0.15720424 0.048031285 -0.10296115
0002e0 7d 6e 0d bd 3e ec ae 3d 79 c0 95 3d d3 01 61 be
       -0.034529198 0.08541153 0.07312102 -0.21973352
0002f0 3b f3 5d be 69 09 88 3d 2c 6a e5 3b e5 2f 53 be
       -0.21674816 0.0664242 0.007001182 -0.20623739
000300 89 48 2a be 20 f6 82 3d fb e8 27 3e 9b e1 ed 3c
       -0.16629232 0.06394601 0.16397469 0.029038241
000310 c7 f5 3a be 5a 82 58 3e 89 6d 36 3d 4c ef 13 3e
       -0.18257819 0.21143475 0.044538055 0.14446753
000320 7c 1f ee bd b4 5f 0c 3e dc ab 56 3d 9c 24 f7 bc
       -0.11627099 0.13708383 0.05240999 -0.030168824
000330 8b 3b 94 3d 78 81 c4 bd cd 9b ca 3c df 00 2c 3e
       0.072379194 -0.09595007 0.024732495 0.16797207
000340 27 04 92 3b 28 80 9f bd b1 39 76 3e 4a fd ea 3d
       0.0044560614 -0.07788116 0.24045445 0.11474092
000350 70 9a ed 3d d1 d4 8d bd 9c 4d 45 be bf 92 e9 3d
       0.11601722 -0.06925357 -0.19267887 0.11404943
000360 cd b7 b0 3d ce ba 1c 3d 0b 74 04 3e a9 09 33 be
       0.08628807 0.03826409 0.12934892 -0.17484154
000370 de 40 00 3e eb fd ae 3a 11 9d df bd a0 f8 58 3c
       0.12524745 0.001335082 -0.1091863 0.013242871
000380 6a 77 d4 3d 71 7b ed bd 5a 45 99 bd 55 50 48 3d
       0.10374339 -0.1159581 -0.07483931 0.048904736
000390 ca fd c5 bd de 2a 16 3e fa 51 3e be c3 5f e9 bc
       -0.09667547 0.1466479 -0.18585959 -0.028488046
0003a0 b2 6c 4e 3e 3d 09 05 be c2 45 e6 bd 62 61 97 bd
       0.20158651 -0.12991805 -0.11243774 -0.07391621
0003b0 e0 45 be 3d ab 4d d6 3c e0 42 64 be db cf ce bc
       0.09290671 0.026160082 -0.22291136 -0.025245598
0003c0 67 01 78 3d 82 f2 2d bd 58 6b d2 3d c7 9d bd 3e
       0.060548212 -0.0424676 0.102743804 0.37034437
0003d0 a2 58 d0 3d 2e a6 ae bd d0 63 ad bd 77 21 92 bd
       0.10173155 -0.0852779 -0.08466303 -0.07135289
0003e0 83 52 eb 3d 17 89 bf 3c 0b 5c 1b be 72 5e 37 3e
       0.11490347 0.0233808 -0.1517183 0.17907122
0003f0 aa ea f7 3d 92 4a 74 be f1 67 25 be 94 d3 1e be
       0.121053055 -0.23856571 -0.16152932 -0.15510398

network.6.bias f4 [64]
000000 f6 5c 7d be eb 66 42 3c 2a 11 fe 3d 9a de 1a 3e
       -0.24742493 0.011865358 0.124056175 0.15123978
000010 f6 cc f7 3d 50 67 5c 3d 3b ae bf 3d 11 70 75 3e
       0.1209964 0.053809464 0.09359404 0.23968531
000020 bc 13 32 3c a3 c7 26 bb 36 b0 34 3d a1 4c 67 3e
       0.010868963 -0.0025448583 0.04411336 0.22587825
000030 f7 00 d2 bd 30 b0 e2 bc b9 e6 f4 bd 0d cc 8a bb
       -0.1025409 -0.027671903 -0.11958069 -0.0042357505
000040 c0 85 b3 3d 9c 83 44 bc 23 a2 bb bd 58 06 e9 bd
       0.08765745 -0.011994269 -0.091617845 -0.11378163
000050 66 e9 d3 3d 64 6f 34 bd ea f0 9a 3d 9c e2 a3 3e
       0.103472516 -0.044051543 0.07565482 0.32008827
000060 50 34 58 bc 79 cc 9f bd 02 4b 1d bd 8e 42 00 3e
       -0.013196066 -0.07802672 -0.03840161 0.12525389
000070 85 42 ca bd 5d 1f f9 bd 59 a6 8a be 46 81 ec 3d
       -0.09875969 -0.12164185 -0.27080038 0.115480945
000080 2a 7a 15 3e 94 1d 71 be 87 c8 90 bb e9 e3 57 3d
       0.14597383 -0.2354644 -0.004418436 0.052707586
000090 69 15 20 be b3 bf 8c bd ba 6c c4 bd 4f b1 d1 bc
       -0.15633167 -0.06872501 -0.095910504 -0.025597243
0000a0 a1 5b 1a 3e 9d 46 d0 bd a6 8b 82 3d 49 b4 f1 bd
       0.15074016 -0.101697184 0.06374292 -0.11801965
0000b0 7e 62 df 3d b4 64 d1 3d ae 77 a4 be df da 79 bc
       0.10907458 0.10224286 -0.32122558 -0.015249937
0000c0 82 e4 25 3e b2 18 56 be c7 5e 61 be 41 2e e8 3d
       0.1620045 -0.20907858 -0.22008811 0.11336947
0000d0 85 3b af bd f0 d3 1b be 2a 48 9a 3e 96 2d 28 3e
       -0.08556274 -0.15217566 0.30133182 0.1642364
0000e0 45 1e d5 bd fb e7 b3 3c 67 6e 4b be 9c fc 46 bd
       -0.10406164 0.021961203 -0.19866334 -0.04858075
0000f0 99 50 45 3d e4 c8 e5 bc 44 48 36 be 77 f9 d9 3c
       0.048172567 -0.028049894 -0.17801005 0.026608212

network.8.weight f4 [64, 64]
000000 b1 e9 b7 be 71 86 da bc 67 62 0d be 1e 41 2f bc
       -0.3592048 -0.026675435 -0.13807069 -0.0106966775
000010 69 f5 87 be 05 bb b2 3c 1c af 43 38 03 53 ec 3d
       -0.2655442 0.021817693 4.6654706e-05 0.11539271
000020 b9 4d 8f 3e c5 a7 2a bd 8e e1 9f bd c2 b4 92 3e
       0.27988985 -0.041663904 -0.07806693 0.28653532
000030 d1 dc 76 3c 51 d2 47 3b 25 f6 2a be 67 46 0f 3e
       0.015067295 0.0030490349 -0.16695459 0.139917
000040 29 94 9d bc 61 3e 4d be f0 10 c9 bd 20 36 10 be
       -0.019235687 -0.20043327 -0.09817684 -0.14083147
000050 61 85 13 3e 36 08 89 3d e6 cd 9c bd 4e dc be 3d
       0.14406349 0.06691019 -0.076564595 0.093193635
000060 42 7d 3d 3e 57 8a cd bc e2 03 e6 3d a4 a8 8a 3d
       0.18504813 -0.02509038 0.11231209 0.06770447
000070 03 35 e8 bc 6a c8 c0 3c e1 16 5c be 98 e4 3e be
       -0.02834559 0.023533065 -0.21493103 -0.18641889
000080 7d f1 e1 3d f3 e3 70 3e 8f f9 ce bd 74 83 88 3e
       0.11032388 0.23524456 -0.10106193 0.2666279
000090 ae 6f bd bd a3 1a 3f be 1b 2b 6a bd ac de ca bd
       -0.09249817 -0.18662505 -0.057170015 -0.099057525
0000a0 91 ef c7 bd d3 28 b8 be 53 c3 20 3e e1 5c a2 bd
       -0.097624905 -0.35968646 0.1569951 -0.079278715
0000b0 dc 86 39 be 3e 97 f1 3c 82 7c af 3d 9e 56 de 3d
       -0.18117851 0.029491063 0.0856867 0.10856365
0000c0 d1 f9 e5 3d fd f3 b2 bd 33 44 44 3e ca 3b 60 3b
       0.11229289 -0.08737943 0.19166641 0.0034215325
0000d0 a0 22 d9 bd f9 19 5e bd c0 30 2a bd a2 e4 2a be
       -0.10602307 -0.05422399 -0.041550398 -0.16688779
0000e0 79 15 82 3d 79 f9 35 bd 0c 8c 9e be ce 31 0a bd
       0.06351752 -0.04442737 -0.30966222 -0.033738904
0000f0 96 0c 72 3d 77 eb 85 be ac f0 3b bc 4c 5b 18 3e
       0.059094034 -0.26156208 -0.011470955 0.14878577
000100 7f 80 6f 3e 4c f0 e0 bd 78 e9 15 bd 43 62 46 3d
       0.23388861 -0.10983333 -0.036599606 0.048433553
000110 65 45 ff 3d 39 f2 21 be 6d ba 17 3e 4a f3 8c bd
       0.12464408 -0.15815057 0.1481721 -0.06882341
000120 8a eb 66 3e 55 38 f5 bc ee 44 0e be 76 7a 1d 3d
       0.22550789 -0.029934088 -0.13893482 0.038446866
000130 e0 10 69 3d 1a ca 65 3d 8d c5 26 3e b8 56 17 3c
       0.05690086 0.056100942 0.16286297 0.009236984
000140 1f cd 33 3e 1f 08 bf 3d 6e 15 23 bc f1 29 15 3c
       0.17558716 0.09327721 -0.00995384 0.009104238
000150 dd 19 05 be 50 45 e0 3d 39 57 99 bd ec f9 e7 bd
       -0.12998147 0.1095072 -0.074873395 -0.11326966
000160 11 73 35 3e e9 e6 b9 3d 0a 86 22 3e 4e 68 c9 3d
       0.17719676 0.09077246 0.15871444 0.09834348
000170 c1 6a a4 bd 96 9b e9 3d 76 d0 0c bc 6d b9 1a bc
       -0.08028174 0.11406629 -0.008594623 -0.009443623
000180 01 51 08 3e 7d 65 4d 3d f6 24 1c be 4b d4 5e 3e
       0.1331215 0.050145615 -0.15248474 0.21760671
000190 b1 dc 8a 3e b8 10 f0 3d 90 a3 1e bb 5a 41 bf 3c
       0.271215 0.11721939 -0.0024206378 0.023346592
0001a0 c3 05 5c 3e 44 d6 99 3e 65 9d 07 be 5d 54 00 be
       0.21486573 0.30046284 -0.13243635 -0.12532182
0001b0 d6 03 26 3e 96 20 e9 bd f9 00 67 3e a8 24 d1 bc
       0.16212401 -0.113831684 0.22558965 -0.025530174
0001c0 85 ea 1b 3d 25 dd 28 bc 6b 68 9c 3d 3f 82 4e 3e
       0.038065452 -0.010306631 0.07637104 0.20166872
0001d0 2c 66 3d 3d 90 aa 7e be 79 34 9c bc ac de ef bd
       0.046240017 -0.24869752 -0.01906799 -0.11712393
0001e0 19 1b d3 bc ca 0a 3f bd cc 08 64 bc 9a e9 0f bd
       -0.025769757 -0.04664115 -0.013918113 -0.03513489
0001f0 c1 44 8c 3d aa 58 53 3e 42 f0 9f bd 17 8d 47 be
       0.06849051 0.20639291 -0.078094974 -0.19487415
000200 40 45 32 3e b3 b7 10 3d fb ac a4 3e d1 9a 02 be
       0.1740923 0.03533144 0.32163224 -0.1275437
000210 a6 cd ed 3d ae 4e 04 3e 06 8b c0 bd da e8 cf be
       0.1161149 0.12920639 -0.094015166 -0.4060734
000220 b3 30 c9 be b1 40 fb 3d b4 74 04 3e 18 d1 26 3e
       -0.39294967 0.12268198 0.12935144 0.162907
000230 25 89 06 bd c9 70 f3 3c 93 58 a6 bd 0d c9 32 3d
       -0.032845635 0.029716866 -0.08122363 0.04364877
000240 20 a4 af 3d 18 f6 bf 3c 5e a1 f1 bc 4e 68 65 3d
       0.08576226 0.023432776 -0.029495891 0.056007676
000250 bd 84 b9 bd c1 70 65 bc 19 6f 23 3e 72 f3 91 3e
       -0.09058521 -0.014003933 0.15960349 0.28506047
000260 06 e5 b4 bd a4 e4 30 3e b7 84 e5 bd 10 ad a5 3c
       -0.08832745 0.1727472 -0.11206954 0.020224124
000270 ed 9e 1b 3e d4 6f 2f 3e 98 42 20 bd 67 f1 9b 3e
       0.15197344 0.17132503 -0.03912601 0.30457613
000280 57 fb 2f 3e e1 cf 20 3e 6d a1 3f be 22 d1 90 be
       0.17185722 0.157043 -0.18713923 -0.28284556
000290 76 93 21 bb c7 89 bc 3d e0 ad 49 bd 96 ea 90 3d
       -0.0024654544 0.092059664 -0.049238086 0.07075994
0002a0 ae e9 ad bd bd cb e2 be f5 1a cb be 59 95 37 3e
       -0.084918365 -0.44296065 -0.39669004 0.17928065
0002b0 a2 57 18 3e d2 a8 28 3e d5 a1 d6 bd 9a b1 ae bc
       0.1487718 0.1647065 -0.10480086 -0.021324921
0002c0 d8 dd 95 3d ce de 64 bd 06 f6 a6 bd c9 d2 5e 3e
       0.07317704 -0.055876546 -0.08152394 0.21760096
0002d0 39 4b ab bc 62 82 9a bd b4 c1 c2 3d eb bf e7 3d
       -0.020909892 -0.075444 0.09509602 0.11315902
0002e0 af 35 b9 3c e9 f6 88 be 7c 62 1d 3e aa f5 d8 be
       0.022608606 -0.26750877 0.153696 -0.42374927
0002f0 3b 76 e7 3d 4f c6 9b 3e 22 ba 12 bd 3a 10 22 be
       0.113018475 0.30424735 -0.03582204 -0.15826502
000300 dc 7c e7 3d d2 a0 65 be ce 53 b6 bd d8 3c 4f 3e
       0.11303112 -0.2242463 -0.08902703 0.20238054
000310 b1 1d 5c bb aa 52 a7 3d bb 93 84 3e e8 37 71 bd
       -0.0033587033 0.08170064 0.2589396 -0.058891207
000320 07 fd 4b be 6e 69 37 bd 4b 6f 52 3d 98 13 92 3d
       -0.19920741 -0.04477828 0.05137567 0.071326435
000330 0b 43 07 bd c7 9f 07 3e cc 5d 30 3c 61 4f 8d bd
       -0.03302292 0.13244544 0.01076455 -0.06899906
000340 b1 49 57 bd bc ed c7 bc 08 db 54 bd 37 25 09 be
       -0.052560512 -0.024405353 -0.051966697 -0.13393103
000350 bc 0b 41 bc fb 0a 54 bd d6 70 c5 3b 4d bf a8 bd
       -0.011782583 -0.051768284 0.006025414 -0.08239613
000360 5b 4f eb 3c cc b3 90 be a5 fd 02 bf 3d ae 04 3e
       0.028724363 -0.28262174 -0.5116828 0.12957092
000370 72 30 3a 3d 7a 9a 69 bd 5b 6a d9 3d ae d0 ff bd
       0.045456357 -0.057032086 0.10615989 -0.12490974
000380 2f 0d 42 3e 50 a1 9f 3c 9d 1a b7 bd 5e f9 d1 bd
       0.18950342 0.0194861 -0.08940623 -0.10252641
000390 bf d3 78 be ec 1d 34 bd 71 36 44 3e f6 fc d5 3c
       -0.24299525 -0.04397385 0.19161393 0.026121598
0003a0 82 f7 eb bb ee d1 80 be 8d b3 0f 3d 56 bd 79 bd
       -0.007201136 -0.25160164 0.035083342 -0.06097158
0003b0 ad 56 d9 3d f9 05 79 be d6 fe 48 be ec 15 b3 3b
       0.10612235 -0.24318685 -0.19628462 0.00546526
0003c0 8c 1b 90 bd 5f 25 2f 3e 06 45 e9 bd 8e e7 05 be
       -0.07036504 0.171041 -0.11390118 -0.13076612
0003d0 97 2b 42 3e be 52 34 3e 9a 40 22 be 57 b4 02 be
       0.1896194 0.17609689 -0.15844956 -0.12764107
0003e0 14 36 fe bb 49 6e 6d 3e 81 54 4a 3e 30 23 ce 3d
       -0.0077579115 0.23186602 0.19758798 0.10065305
0003f0 43 0e 4d 3c f3 cd 2a be db 8d 85 bd c9 cd 46 be
       0.012515607 -0.16680126 -0.065211974 -0.19414438

network.8.bias f4 [64]
000000 aa 5c 7c 3d 57 86 cd bc 17 1a 1e be ae 96 17 3b
       0.06161181 -0.025088472 -0.1543964 0.0023130584
000010 f2 b7 13 3e c8 a3 71 be 20 f4 5f bd 1a 0a af 3e
       0.14425638 -0.23597634 -0.054676175 0.34187394
000020 12 b3 17 be 89 bf 19 3e 84 8c bd bd 5d c0 2e be
       -0.14814404 0.15014471 -0.09255317 -0.17065568
000030 1e c1 da 3c a4 07 6c bc eb b5 c5 3c 95 83 a2 3d
       0.026703414 -0.014406119 0.024134597 0.079352535
000040 da b0 b9 3c 79 c6 a4 3c 49 47 91 bd 45 b3 94 3e
       0.022667337 0.02011417 -0.07093675 0.29043022
000050 d5 46 bb 3c ed 90 48 3e 2e 79 00 be f2 6c 85 bd
       0.022860924 0.19586535 -0.12546226 -0.0651492
000060 50 05 c1 be 70 6b 63 3e bf 3a 65 be ab 80 2b 3e
       -0.37699366 0.22208953 -0.22385691 0.16748302
000070 a7 13 a7 bb f2 e1 14 3e bc ef 43 bd 51 d3 8e bd
       -0.0050987783 0.14539316 -0.04783605 -0.06973899
000080 b9 62 82 bd c1 0e a9 bc 3a 64 d2 bb 84 b2 12 3d
       -0.06366486 -0.020636918 -0.0064206393 0.035814777
000090 91 97 b3 bd d9 6e 87 bc a0 c2 af bd 33 67 d4 3c
       -0.087691434 -0.016532348 -0.08582044 0.025928115
0000a0 73 79 0b be a5 87 56 be b4 0d d6 3d c6 94 b8 bc
       -0.13620548 -0.20950182 0.104518324 -0.022531878
0000b0 7a c9 45 bd 27 7c 26 be cc 06 36 be b8 9e 70 3d
       -0.048287846 -0.16258298 -0.1777603 0.058745116
0000c0 13 1c 69 bd ff 2b 8a 3c 0e 60 2c 3d 2f 06 49 3d
       -0.05691154 0.016866682 0.042083792 0.049078163
0000d0 10 a9 1a 3e 62 e1 24 3d 75 22 c7 3b e1 33 b6 3d
       0.15103555 0.040254004 0.0060771056 0.08896614
0000e0 9c 55 77 3d e1 3d f2 3d ea 54 82 be 0a 8c 95 bc
       0.060384378 0.11828209 -0.2545541 -0.018255252
0000f0 1c a7 2f 3d 35 ec d4 3c d2 9c 12 be 44 c0 8b 3c
       0.042883977 0.025991539 -0.14317635 0.017059453

network.10.weight f4 [64, 64]
000000 86 00 2b bd cf 14 7e be ae 77 65 be 10 c8 b5 bd
       -0.041748546 -0.24812625 -0.22408935 -0.088760495
000010 41 87 67 bd f8 4c 8e be e3 5a 60 bd 5f 96 6d 3e
       -0.056525473 -0.27793097 -0.054774176 0.23201893
000020 da 34 34 bd 22 32 01 3e 23 7a 20 3e 6d 82 4e be
       -0.043995716 0.1261678 0.15671591 -0.20166941
000030 f6 94 58 be f2 c4 8b 3e b3 da 09 3e 5b 10 19 3e
       -0.21150574 0.27298695 0.13462333 0.14947645
000040 02 9f ee 3c 83 b4 a7 bd af 2b 3d be a8 fa 9b bd
       0.029128555 -0.08188727 -0.18473695 -0.07616168
000050 c8 f3 85 bd 19 72 82 3e 71 bf 36 bd d4 c4 01 3b
       -0.06540638 0.25477675 -0.044616167 0.0019801157
000060 b3 b9 95 3d 46 fe 72 3d 8f 1e f8 bd 4c 35 98 3d
       0.0731081 0.059324525 -0.121152036 0.074320406
000070 69 f1 33 3d 20 3f c4 3d 22 0b 9d bd 0e ff 58 3d
       0.0439314 0.09582353 -0.07668139 0.052977614
000080 32 97 30 3e 4c 42 00 3e 81 39 92 3d d5 20 51 be
       0.17245176 0.1252529 0.07139874 -0.2042268
000090 83 ea c9 3d 37 6b 91 3c ef f6 f1 bb 06 96 5f 3e
       0.09859183 0.01775132 -0.007384173 0.21834573
0000a0 d6 2c 1c 3e 1b c3 92 be 28 3e 7b bd 34 e4 5c 3d
       0.15251479 -0.2866448 -0.061338574 0.05392857
0000b0 a3 fb 35 3e f1 fe 1e bd cf 3d 52 bc 32 1b 82 bd
       0.17771773 -0.03881735 -0.012832119 -0.06352843
0000c0 24 f9 f4 bc de b2 60 bd 90 55 db 3c 67 06 22 bd
       -0.029903956 -0.05485808 0.026774198 -0.039556887
0000d0 e1 b7 47 3e 6f 92 bc 3d 63 eb 94 3d b4 a0 de 3c
       0.19503738 0.092076175 0.07271459 0.027176239
0000e0 dc a2 1a 3e aa ea c4 bd fe 12 6c bd b3 ec 2c 3e
       0.15101188 -0.09615071 -0.0576353 0.16887169
0000f0 e2 15 cb 3d a7 ee e0 3d 17 63 e9 bd ec d3 da 3d
       0.09916283 0.10983019 -0.11395853 0.10684952
000100 cc c7 8d 3e 31 80 db 3d 2a 5d 60 3e 69 c7 07 be
       0.27691495 0.1071781 0.2191054 -0.13259663
000110 11 cd 29 be eb 16 30 3e 06 32 03 be 32 80 73 bd
       -0.16582133 0.17196243 -0.12812051 -0.05944843
000120 4c 36 fe 3d 4e 3b 66 3e 9a 00 e1 3e 9c 0f 2e be
       0.124127 0.2248356 0.4394577 -0.16998142
000130 2b 82 11 be 41 6b 5c 3e 8e 12 6a 3d 91 ef 84 bd
       -0.14209811 0.21525289 0.0571466 -0.06491006
000140 02 27 7b 3d 17 99 b3 3d 94 7b a8 be 03 0c 9b bc
       0.061316498 0.08769434 -0.32906783 -0.018926626
000150 41 bb ba 3d 15 ea f2 be fd 7b 01 bc 25 da 97 bd
       0.09117747 -0.47444215 -0.007903096 -0.07414655
000160 55 76 90 3e 1d 1f ec be 63 97 70 3c 46 9f 21 be
       0.2821528 -0.46117488 0.014684531 -0.15783414
000170 a8 5f b9 3d 54 d7 0a 3e 4b 13 ab 3d 7f 1f b0 be
       0.09051448 0.13558704 0.08353289 -0.3439903
000180 65 21 1d 3e b1 15 c1 bd c0 1c 09 be 3b 80 86 3d
       0.1534477 -0.094279654 -0.13389874 0.06567427
000190 26 6c d9 3e b8 1e c2 3d 01 30 3c be 53 25 6a be
       0.42465323 0.094785154 -0.18377687 -0.228658
0001a0 4c 2c 1f 3e ce c7 88 3e d5 e7 86 bd 96 2f cd bd
       0.15544242 0.2671494 -0.06587187 -0.10018842
0001b0 09 5e 8e be a0 e2 28 be f4 81 24 bd 67 7b e4 bd
       -0.27806118 -0.164927 -0.040162995 -0.1115635
0001c0 e1 a9 13 bd 80 ba 59 bd 17 63 72 3e 81 f9 56 3e
       -0.03605068 -0.053156376 0.23670612 0.20993616
0001d0 75 38 bc be 99 b9 07 bd aa 4d 26 3f 13 72 37 be
       -0.36761823 -0.033135984 0.64962256 -0.1791461
0001e0 a7 01 73 bd d0 4f 1d be 40 9a f8 3d 0f 4e 9b 3d
       -0.059327748 -0.15362477 0.12138796 0.07583248
0001f0 98 2c c6 3d 66 ce 52 be eb 3a 53 3e 01 14 3b 3e
       0.09676474 -0.20586547 0.20627944 0.1826935
000200 e2 59 30 3e 54 23 7d be a1 89 4c bd 90 ea 89 3e
       0.17221788 -0.24720508 -0.04993594 0.2693677
000210 a2 e2 ab bd a8 6e 8c 3c 8e d9 0c 3e 1e a0 77 be
       -0.08392836 0.017142609 0.13754866 -0.24182174
000220 e6 07 27 3e 30 4c ce bc df b2 7b be 77 ac 25 3e
       0.16311607 -0.025182813 -0.24579953 0.16179071
000230 04 aa 53 3e 13 03 cf 3e 73 f0 26 be c3 37 2a 3d
       0.20670325 0.40432033 -0.16302662 0.041557085
000240 c1 4d ab 3e af 8c e1 3b 09 83 6c 3d 88 90 f5 3c
       0.3345776 0.006883226 0.057742152 0.029976144
000250 ea e8 b4 3d 22 b7 50 3e 3e 31 21 bd 8d 43 7f be
       0.08833487 0.2038236 -0.0393536 -0.24928112
000260 22 b6 94 3b e0 da 8e be bc 7a 73 3e 73 9c 9c 3e
       0.0045383135 -0.27901363 0.23777288 0.3058811
000270 b6 b1 af 3e 17 6c bc 3d 81 96 85 3c e9 26 bd 3c
       0.3431527 0.09200304 0.016307117 0.023089843
000280 9e 34 b1 3c 26 d8 b4 3e 7f ab 7d bd 51 1c ba bd
       0.021631535 0.35321158 -0.06193113 -0.09087432
000290 87 18 88 3e f1 0b 03 3e 90 45 b5 bc e3 3b 80 3e
       0.26581213 0.12797524 -0.022127897 0.2504569
0002a0 b3 16 45 be 71 c2 0c be d1 4b bf bd c4 f4 ea 3d
       -0.1924694 -0.13746049 -0.09340633 0.114724666
0002b0 1b c2 01 3e 9c 8a ba 3d 42 af e3 bd e2 80 d2 bd
       0.12671702 0.09108469 -0.11117412 -0.10278489
0002c0 d6 2f 2a be 05 7e 94 bd 85 91 0c be 0f 4e 47 bd
       -0.1661981 -0.07250599 -0.13727386 -0.048658427
0002d0 17 26 62 be 30 ca a5 3d b2 51 8e 3e 21 e5 92 bc
       -0.22084843 0.08095205 0.27796704 -0.017931523
0002e0 be e4 a9 3d 4f c4 aa 3e 40 24 66 3e 8d c5 f3 3d
       0.08295582 0.33352897 0.22474766 0.11902914
0002f0 4e 46 72 3c 82 fd 38 3e 15 ce b4 3c 78 a7 81 3d
       0.01478727 0.18065456 0.022070924 0.0633077
000300 50 8f 98 3e d4 3c 9c be 6e cd d5 3c 5f 0e ed 3d
       0.2979684 -0.30515158 0.026098933 0.11575007
000310 3f f6 d8 3b d0 4e 6c be 77 a7 03 be 1c 9f 6b 3d
       0.0066211517 -0.2307694 -0.12856852 0.057524785
000320 16 ca 40 bd 9b 69 07 3e 6f be 15 be 43 fb 3c 3e
       -0.047067724 0.13223879 -0.14623426 0.18455224
000330 8e 18 06 be ca 7c 11 3d b6 13 48 3e df fa 58 3d
       -0.13095304 0.0355194 0.19538769 0.052973624
000340 74 af 97 3e 92 18 2e be 81 9f 1f 3e 6b 22 8f 3e
       0.29626048 -0.1700156 0.1558819 0.27955946
000350 de dc df 3d 78 cb 72 3c 90 da b1 bd b9 b9 ab bb
       0.10930799 0.014819019 -0.086842656 -0.0052406457
000360 d6 b1 aa bc 7a 50 a3 bd a3 3b ca bd c4 a9 2e 3e
       -0.020836752 -0.07974334 -0.09874656 0.17056948
000370 46 c6 b8 3d 27 17 f4 3d 9e c9 8e bd 6f 27 19 be
       0.09022193 0.119184785 -0.06972049 -0.14956449
000380 c0 52 b4 bd 36 98 a3 3e ba 46 90 be bf a2 8a be
       -0.08804846 0.31952065 -0.2817896 -0.2707729
000390 1c a5 6e be 5e e4 35 be 51 2a 4b be 2f 76 79 be
       -0.23305172 -0.17762896 -0.19840361 -0.2436149
0003a0 31 23 ae 3d ef 3c 70 bd 80 96 53 3d a3 31 73 3e
       0.08502806 -0.05865186 0.0516572 0.23749404
0003b0 0e 99 ff bd 66 02 e4 bd ec 0e 97 bd 59 ad 05 3d
       -0.12480365 -0.1113327 -0.07375893 0.03263602
0003c0 d7 ab a4 3d 01 ed 4b be c7 27 62 bc 21 da 6a be
       0.08040588 -0.19914629 -0.013803429 -0.22934772
0003d0 7d 12 a0 bd c9 46 1f 3d 5a b2 5a be 11 39 36 3e
       -0.07816026 0.038885865 -0.21357098 0.17795207
0003e0 0a 19 88 3e 59 06 bb 3d fd 8f 82 be 72 93 c1 3d
       0.26581603 0.0913207 -0.2550048 0.09451951
0003f0 b3 d6 72 bd 1a 9d 83 bd 37 d3 2d be 83 78 e3 bd
       -0.059286784 -0.06426449 -0.16975103 -0.1110697

network.10.bias f4 [64]
000000 4c 92 88 3e 1d eb 91 3c 85 c3 32 be a2 ca 2b 3e
       0.26674116 0.017812306 -0.17457397 0.16776517
000010 7c fb 7b bd 7f 79 e8 bd 4e 07 85 3d 01 ec 85 be
       -0.06151913 -0.113512985 0.06495534 -0.2615662
000020 b6 ec d5 3d d9 ab c9 3c a1 82 4f bd 27 97 35 bd
       0.1044554 0.024618076 -0.050661687 -0.044333603
000030 ac 75 e3 3c 31 99 a2 bd 88 5b e7 3d 9e b4 ab bd
       0.027766071 -0.07939375 0.11296755 -0.08384059
000040 72 f0 51 bc d7 7b 8c 3d 4c 09 44 bd 12 28 4e 3e
       -0.012813674 0.06859558 -0.04786043 0.20132473
000050 7c b9 a3 bd ec 0e 2c 3e 2c 68 10 3c b4 e2 cb 3d
       -0.07994363 0.16802567 0.008813899 0.099553496
000060 14 15 3a 3e 91 3b 71 3c f3 c9 73 3e 4f 6c 6a 3c
       0.18172103 0.014723674 0.23807506 0.014308049
000070 bc 4c 60 be 6e a7 ed bd 73 14 b8 3d 1c 3d 08 be
       -0.21904272 -0.116042 0.089882754 -0.13304561
000080 da 0b 6e 3e c6 de c6 bc d4 f9 d1 3d 5d 4c 26 3d
       0.23246709 -0.024276149 0.10252729 0.04060017
000090 75 27 41 bd 6a 9d 78 3d 04 4c c7 3d 56 65 31 3d
       -0.04715677 0.060696997 0.09731296 0.043309532
0000a0 cf ad 05 bd 4c 30 6d bd 03 b5 45 3d e3 ce e8 bc
       -0.03263646 -0.057907388 0.04826833 -0.028418964
0000b0 aa 4e 62 3d da e8 91 be 47 98 83 bc a3 6c 9e bc
       0.0552508 -0.28497964 -0.016063822 -0.019338911
0000c0 cf 7a b3 3d 13 13 23 be fb f3 94 bb 32 23 7f be
       0.08763658 -0.15925245 -0.0045456863 -0.2491577
0000d0 a3 1e 6d be 44 c1 5b be cc f1 a1 3c 77 31 b8 bd
       -0.23156218 -0.21460444 0.019768618 -0.0899381
0000e0 2b 1d 5f be 24 ec 5c bd 4c 6b 9d bd a6 36 cd 3c
       -0.2178847 -0.05393614 -0.07686481 0.025050472
0000f0 17 ef 49 3e ca 86 12 be b4 f9 ac 3d c1 4d a6 bc
       0.19720112 -0.1430923 0.084460646 -0.020300748
