Meshing/models/plate_hole_test.pth (torch, 122746 bytes, 52 tensors)

node_encoder.0.weight f4 [32, 2]
0	0x3cc1f3c7	0.023675812
1	0xbf362a64	-0.7115843
2	0x3f1c1d4c	0.60982203
3	0xbee86eaf	-0.45396945
4	0x3eb21afa	0.34786206
5	0xbf318664	-0.6934569
6	0xbf0d8f07	-0.5529637
7	0x3ea979e6	0.33100814
8	0x3e828589	0.25492504
9	0xbeba1f2a	-0.363519
10	0x3d4a0e4b	0.049330037
11	0xbf0846d3	-0.5323307
12	0xbd402c30	-0.04691714
13	0xbed54b15	-0.41658846
14	0xbec215c3	-0.37907228
15	0xbdbce0f2	-0.092225924
16	0xbdc5b750	-0.09654105
17	0xbed247d1	-0.41070417
18	0xbdc60b58	-0.096701324
19	0xbf16381a	-0.58679354
20	0x3dd7e19f	0.10541081
21	0x3ee3ac39	0.44467333
22	0xbf23041b	-0.6367814
23	0xbecde1ac	-0.40211236
24	0x3edac1b5	0.42725912
25	0x3ec78d5b	0.38975033
26	0xbdd30280	-0.10303211
27	0xbf0804ba	-0.5313221
28	0xbf3dec10	-0.7418833
29	0x3ec99c99	0.39377287
30	0x3e3a2fc0	0.18182278
31	0xbe888d18	-0.26670146
32	0xbeb0911b	-0.34485707
33	0xbe58afc0	-0.21160793
34	0xbeee3569	-0.46525124
35	0xbe72af95	-0.23699792
36	0x3e010c74	0.12602407
37	0xbf01a6e8	-0.50645304
38	0x3df237d9	0.11827058
39	0xbefa68b7	-0.48908016
40	0xbebe5db9	-0.3718088
41	0x3e037122	0.12836125
42	0xbf0658a4	-0.52479005
43	0xbef8872e	-0.48540634
44	0xbe34d1e4	-0.17658192
45	0x3eb1956e	0.34684318
46	0x3eca99d5	0.3957049
47	0xbeb73fa9	-0.35790756
48	0xbd13a030	-0.03604144
49	0xbce70200	-0.028199196
50	0xbe13fc04	-0.14451605
51	0xbe368c70	-0.1782701
52	0x3f143397	0.5789122
53	0x3e1a2760	0.15054083
54	0xbed71d0e	-0.42014354
55	0xbd88b422	-0.066749826
56	0xbeb498d1	-0.3527284
57	0xbe767c82	-0.24070933
58	0xbe3ce385	-0.18446167
59	0x3f9519c1	1.1648484
60	0x3ee4cccb	0.44687495
61	0xbf207a18	-0.626863
62	0x3f2a7e1c	0.6659868
63	0x3da0cf7c	0.078520745

node_encoder.0.bias f4 [32]
0	0x3ea95a64	0.33076775
1	0xbe912f5e	-0.2835645
2	0x3dab9606	0.08378224
3	0xbf0f1182	-0.5588609
4	0x3e4ed259	0.20197429
5	0x3e8eb0ef	0.27869365
6	0xbe9313de	-0.28726095
7	0x3ef1194d	0.47089615
8	0xbf2c88c0	-0.67396164
9	0xbe53fed0	-0.20702672
10	0x3e09e424	0.13465935
11	0xbe0e7b34	-0.13914186
12	0xbede987d	-0.43475714
13	0xbe4af55c	-0.1982016
14	0x3ef7ef31	0.48424676
15	0xbf06d34a	-0.5266615
16	0xbeb2478b	-0.34820208
17	0x3f26a4c2	0.6509515
18	0xbe88cf4d	-0.26720658
19	0x3ddb4a98	0.10707587
20	0x3eb4700f	0.35241744
21	0xbf2d9f09	-0.67820793
22	0xbefdfc3f	-0.4960651
23	0x3ea9b5af	0.33146426
24	0xbf092625	-0.5357383
25	0xbe75f452	-0.24018982
26	0xbf2c38c3	-0.6727411
27	0x3ed24799	0.4107025
28	0xbe80b1aa	-0.25135547
29	0xbecc3319	-0.39882734
30	0x3e890dfb	0.2676848
31	0xbf1fec6e	-0.6247014

node_encoder.2.weight f4 [32, 32]
0	0xbe5ba5ee	-0.21450016
1	0x3d7761f3	0.060396146
2	0x3dc5eb99	0.09664077
3	0xbe1d24c9	-0.15346064
4	0xbdecc840	-0.11561632
5	0x3df21a69	0.118214436
6	0x3d925748	0.07145554
7	0xbe2d719e	-0.16937873
8	0xbdc1fced	-0.0947207
9	0x3e0db7e7	0.13839684
10	0xbe52cacf	-0.20585178
11	0xbc009250	-0.007847384
12	0x3d8e4d0f	0.069482915
13	0x3d099614	0.03359039
14	0xbd6250d5	-0.05525287
15	0x3d837e32	0.06420554
16	0x3dd5a2be	0.10431431
17	0x3c78abd1	0.015177683
18	0xbe2d2111	-0.16907145
19	0x3b31c390	0.002712462
20	0xbe0c8c68	-0.13725436
21	0xbe11a67c	-0.14223665
22	0x3df33b3e	0.11876534
23	0xbe2ef031	-0.17083813
24	0x3e2cb29b	0.16865008
25	0x3e332bbf	0.17497157
26	0x3c029959	0.007971131
27	0x3e0c81a0	0.13721323
28	0xbd88e86c	-0.06684956
29	0xbd9ac537	-0.07557147
30	0x3d8c02a4	0.06836441
31	0xbe1f4e3f	-0.15557192
32	0x3f4fcc02	0.81170666
33	0x3ed1fee4	0.4101478
34	0x3e4e28fb	0.2013282
35	0xbd1a39d8	-0.03765282
36	0xbc470978	-0.012148254
37	0x3eb21ff2	0.34789997
38	0x3d4942d8	0.049136013
39	0x3e3607e2	0.17776445
40	0xbe1911ca	-0.14948192
41	0xbd07ea74	-0.033182576
42	0xbe71809a	-0.23584214
43	0xbc4b6b70	-0.012415752
44	0xbe95dba5	-0.29269138
45	0xbce48d98	-0.027899548
46	0x3eb9c047	0.36279508
47	0xbe093ce4	-0.13402134
48	0x3d96e4da	0.07367869
49	0x3df90a33	0.121601485
50	0x3e8141bf	0.25245473
51	0x3ee35357	0.4439952
52	0xbd4157ed	-0.047202993
53	0xbe1e29ae	-0.15445587
54	0xbdd8ba59	-0.10582418
55	0x3d84fcff	0.06493568
56	0x3dff7b2e	0.124746665
57	0xbda50917	-0.080583744
58	0xbe42d194	-0.1902526
59	0x3fb7f2cf	1.4370974
60	0xbdf524fc	-0.11969945
61	0x3e35e43a	0.17762843
62	0xbd108a90	-0.035288393
63	0x3e048d40	0.12944508
64	0x3f1e1ce5	0.6176284
65	0x3ec80a41	0.39070323
66	0x3de78879	0.11305327
67	0xbd194e80	-0.03742838
68	0x3d0307f7	0.031990018
69	0x3d9b4cb8	0.07582992
70	0x3dace552	0.08442177
71	0xbb3fdf62	-0.0029277434
72	0x3d3daee0	0.046309352
73	0xbe0907a4	-0.13381821
74	0x3d8c2255	0.06842486
75	0x3e09e1e7	0.13465081
76	0x3d5db1d5	0.054124672
77	0x3a68d600	0.0008881986
78	0xbe57b781	-0.21066095
79	0xbce69050	-0.028144985
80	0xbe174e7c	-0.14776033
81	0x3cd217aa	0.02564605
82	0x3e36e3a5	0.17860277
83	0x3f2f7e3f	0.6855201
84	0x3da6f59f	0.08152317
85	0x3dcabd1e	0.098993525
86	0x3e0280eb	0.12744491
87	0x3c2dd962	0.01061091
88	0xbdd3712b	-0.103243195
89	0xbdf51f02	-0.11968805
90	0x3e4cb3fb	0.19990532
91	0xbe852674	-0.260059
92	0xbd8fa98d	-0.07014761
93	0x3f0ee116	0.55812204
94	0x3d31780b	0.043327373
95	0x3e9597d4	0.29217398
96	0x3dd095c6	0.10184817
97	0xbe21a112	-0.157841
98	0xbdee9152	-0.116488114
99	0xbe1e3887	-0.15451251
100	0xbe30bda4	-0.17259842
101	0xbdd936ab	-0.1060613
102	0xbe1cc9de	-0.15311381
103	0xbd2bf224	-0.04197897
104	0x3c1e5990	0.009664908
105	0x3d2e7d70	0.042600095
106	0xbdc182e8	-0.094487965
107	0x3e0ec855	0.13943608
108	0xbc07ba50	-0.008284166
109	0x3d24e8f8	0.04026124
110	0xbde7863e	-0.113049015
111	0x3b49a480	0.0030768216
112	0xbe046e2e	-0.12932655
113	0xbdf89efa	-0.121396974
114	0x3ca6d7d8	0.020366594
115	0x3b41c600	0.002956748
116	0xbdfb0d99	-0.12258453
117	0xbdee5bd6	-0.1163861
118	0xbe04779c	-0.12936252
119	0xbd5426f2	-0.051794954
120	0xbdfb1da1	-0.12261511
121	0xbd06716c	-0.03282301
122	0x3c7cf4b0	0.015439197
123	0xbde3fa70	-0.111317515
124	0x3e0b6205	0.1361161
125	0xbd90c8b7	-0.07069533
126	0xbdf3df27	-0.11907797
127	0x3c0a3ee0	0.008437842
128	0xbc677ee0	-0.01412937
129	0x3d934544	0.07190946
130	0x3d13343c	0.035938486
131	0xbdd708bd	-0.104997136
132	0x3d0f9ab8	0.03505966
133	0x3e05e067	0.13073884
134	0x3da483fe	0.08032988
135	0xbe01fdd3	-0.12694483
136	0xbd86a03e	-0.065735325
137	0xbe1d0f1e	-0.15337798
138	0x3d25aa8c	0.04044585
139	0x3da60db2	0.08108081
140	0x3d1af100	0.03782749
141	0xbdc76eb6	-0.09737913
142	0xbd12ebc8	-0.03586939
143	0xbe1b5708	-0.15169919
144	0xbe31fffb	-0.17382805
145	0x3cf0cd08	0.029394642
146	0x3dde0d82	0.1084242
147	0x3bb26e60	0.0054452866
148	0x3dd52bce	0.10408746
149	0x3dc5867e	0.09644793
150	0x3c861238	0.01636611
151	0xbd341090	-0.043961108
152	0xbe0436f0	-0.12911582
153	0xbcc5aeb8	-0.024131164
154	0x3da77f4a	0.08178575
155	0x3decf016	0.1156923
156	0x3d72aa28	0.059244305
157	0xbcd06d90	-0.025442868
158	0xbe2712e2	-0.16315797
159	0x3cf2d6a0	0.029643357
160	0xbca8f806	-0.02062608
161	0xbde9f688	-0.11423975
162	0xbe2b476a	-0.16726461
163	0xbdb9b489	-0.090676375
164	0xbddb0d5a	-0.10695906
165	0x3de268e4	0.110551625
166	0x3cb66410	0.02226451
167	0x3d3e4ba5	0.04645886
168	0x3ce0a850	0.027424008
169	0xbe0f75a8	-0.14009726
170	0x3d84907b	0.0647287
171	0xbe0f374a	-0.13985935
172	0x3dc0f07d	0.094208695
173	0xbe1fd4d5	-0.15608533
174	0x3dda6138	0.10663074
175	0x3c7fd230	0.015614077
176	0x3b558d00	0.0032585263
177	0xbd84ed13	-0.06490531
178	0x3e5d9ea6	0.21642551
179	0x3dc0b37e	0.094092354
180	0xbd81bc31	-0.06334723
181	0xbdc895f0	-0.09794223
182	0x3d9ea08a	0.07745464
183	0xbe45e109	-0.19324125
184	0x3da1b1e2	0.078952566
185	0x3e00fbbf	0.12596034
186	0xbe18d712	-0.14925793
187	0xbefa692a	-0.4890836
188	0xbe34a19b	-0.17639773
189	0xbdbe8d91	-0.093043454
190	0xbd92cb61	-0.07167698
191	0xbdd2c3ba	-0.10291238
192	0x3c9e7e3e	0.019347306
193	0xbe18a268	-0.14905703
194	0xbe35ccd5	-0.17753918
195	0xbe305b33	-0.1722229
196	0x3de84ac7	0.11342388
197	0xbd26f509	-0.040761027
198	0x3e20d8f5	0.15707763
199	0x3b9ffa2f	0.004882119
200	0x3c663310	0.01405026
201	0xbc40a1e0	-0.011757344
202	0xbd7bb341	-0.061450247
203	0xbdb1de3b	-0.08684965
204	0xbb324fa1	-0.0027208107
205	0x3de057be	0.109542355
206	0xbd412a98	-0.04715976
207	0x3c6c2300	0.0144126415
208	0x3e118b4f	0.14213298
209	0x3da522dc	0.080632895
210	0xbdd18fd7	-0.102325134
211	0x3dbe691f	0.09297394
212	0xbd1fbc2a	-0.038997807
213	0xbd48c968	-0.0490202
214	0xbe226e7c	-0.15862459
215	0xbe42482f	-0.18972848
216	0x3c4ce890	0.012506619
217	0x3e0d20a7	0.13781987
218	0x3c44e35d	0.012017098
219	0xbd905020	-0.07046533
220	0x3d0574a8	0.032581955
221	0xbc3214c6	-0.010869211
222	0x3debcd34	0.11513749
223	0xbe07fb21	-0.13279392
224	0x3f623280	0.88358307
225	0x3ed964a2	0.4245959
226	0xbe141a10	-0.14463067
227	0xbe04d1d6	-0.12970671
228	0x3d1658d9	0.036705825
229	0xbe34f562	-0.17671731
230	0xbde31d64	-0.1108959
231	0xbdfb9fda	-0.12286349
232	0x3e04731b	0.12934534
233	0xbe00f72b	-0.12594287
234	0xbe395473	-0.18098621
235	0x3e20c1a5	0.1569887
236	0x3d3f7804	0.046745315
237	0xbe28b959	-0.16476955
238	0xbe9a5fe1	-0.30151275
239	0x3c85d290	0.016335756
240	0xbe0e23b8	-0.13880813
241	0xbf245bec	-0.6420276
242	0x3e9bdc1d	0.3044137
243	0x3f1fdcff	0.6244659
244	0xbf1ec878	-0.6202464
245	0xbcf85910	-0.030315906
246	0x3e112a35	0.14176257
247	0x3de7ad66	0.1131237
248	0xbdae2120	-0.08502412
249	0xbe088139	-0.13330545
250	0x3f0fefd0	0.562253
251	0xbf89ed94	-1.0775628
252	0xbe021274	-0.12702352
253	0x3f9fc102	1.2480776
254	0xbd40c12c	-0.047059223
255	0x3ea1117a	0.31458646

node_encoder.2.bias f4 [32]
0	0x3dad3c7c	0.08458802
1	0x3d4663dc	0.048435077
2	0xbe00572f	-0.12533258
3	0xbd56e2b2	-0.052462287
4	0xbd967a45	-0.0734754
5	0x3d00fa49	0.03148869
6	0xbe663cb8	-0.224841
7	0x3b5bf008	0.0033559818
8	0xbdbf9b72	-0.09355821
9	0x3db8e30a	0.09027679
10	0x3e37935d	0.17927308
11	0xbc6d3560	-0.014478058
12	0xbd08bef0	-0.033385217
13	0xbdd17234	-0.10226861
14	0xbe24df09	-0.16100706
15	0xbe6365e8	-0.22206843
16	0x3d8ac64d	0.06776104
17	0xbe02041a	-0.12696877
18	0x3e44a026	0.19201717
19	0x3e452ba1	0.19254924
20	0xbe04860b	-0.12941758
21	0xbde71788	-0.11283785
22	0xbe1660f5	-0.14685424
23	0x3df959ea	0.12175353
24	0xbd5805bd	-0.052739847
25	0x3d271ca2	0.04079879
26	0xbe3dbfe0	-0.18530226
27	0xbea1ca07	-0.31599447
28	0xbdde0f02	-0.10842706
29	0xbc4461e2	-0.011986228
30	0x3d8bcee2	0.06826569
31	0xbcd202eb	-0.025636157

node_encoder.4.weight f4 [32]
0	0x3f632d4d	0.88741
1	0x3fbd6d5a	1.4798996
2	0x3f9df544	1.2340474
3	0x3f7206bb	0.9454152
4	0x3f67b432	0.9050933
5	0x3f77ff8f	0.96874326
6	0x3f81ed81	1.0150605
7	0x3f924acd	1.1429077
8	0x3f5d2dfd	0.863983
9	0x3f7620c4	0.96143746
10	0x3f964956	1.174113
11	0x3f6cd342	0.92509854
12	0x3f661fb2	0.89892113
13	0x3f552568	0.832602
14	0x3fccd65f	1.6002921
15	0x3f67eb5c	0.90593505
16	0x3f886ba5	1.065785
17	0x3f929280	1.1450958
18	0x3fb2abfd	1.3958737
19	0x3f9dae5e	1.2318838
20	0x3f70be0c	0.9403999
21	0x3f9c620c	1.2217422
22	0x3f9bff48	1.2187281
23	0x3f7e3fba	0.9931599
24	0x3f9b3fe9	1.2128879
25	0x3f8a0786	1.0783546
26	0x3f60473e	0.87608707
27	0x3f704e3f	0.93869394
28	0x3f7c67bd	0.9859579
29	0x3f91b03f	1.1381911
30	0x3f7c3e4b	0.9853255
31	0x3f97d235	1.1861025

node_encoder.4.bias f4 [32]
0	0x3dd98c90	0.10622513
1	0xbd7a71f6	-0.061143838
2	0xbd8f6e6f	-0.070034854
3	0x3e1439d7	0.14475189
4	0x3d4b0ee2	0.04957474
5	0xbc9c6d2e	-0.01909503
6	0xbbd79c13	-0.006579885
7	0xbd51b927	-0.051201966
8	0x3e075410	0.13215661
9	0xbd95dfc9	-0.07318074
10	0x3c8e4223	0.01736552
11	0xbac3e518	-0.0014945595
12	0x3e20fb5b	0.15720885
13	0x3e63c1ac	0.22241849
14	0xbd5dd12c	-0.05415456
15	0x3db6de53	0.08929124
16	0xbc8c61b1	-0.017136427
17	0x3e11149f	0.14168023
18	0xbd6ec7d6	-0.058296047
19	0x3cb5091a	0.022099067
20	0x3d5a51d8	0.05330071
21	0xbd37bdee	-0.044858865
22	0x3d58ff4a	0.052977838
23	0x3d91b370	0.07114303
24	0xbd452350	-0.04812938
25	0x3d0aa18c	0.03384547
26	0x3e13d29e	0.14435813
27	0x3c9a0877	0.018802864
28	0x3dbd3d9c	0.09240267
29	0xbd534d50	-0.051587403
30	0x3db5e622	0.08881785
31	0xbc59b02c	-0.013286632

edge_encoder.0.weight f4 [32, 1]
0	0x3d229fa0	0.03970301
1	0xbaa04400	-0.0012227297
2	0xbf3d46a9	-0.73935944
3	0x3e9c8ee9	0.30577782
4	0x3f7acb46	0.9796642
5	0xbec93233	-0.3929611
6	0x3f4d4e9e	0.80198085
7	0xbf59c63a	-0.85068095
8	0xbee4b154	-0.4466654
9	0xbeb480b4	-0.35254443
10	0xbf7ba1fb	-0.9829404
11	0xbe95c32c	-0.29250467
12	0xbf09f46b	-0.5388858
13	0xbdeb8b20	-0.11501145
14	0x3e939474	0.28824198
15	0x3e7f61b9	0.24939622
16	0xbf350106	-0.70704687
17	0x3eccb5f8	0.3998258
18	0xbeb8a05d	-0.36059847
19	0x3f46b018	0.7761245
20	0x3d64e1e4	0.05587949
21	0x3e12b0c0	0.14325237
22	0xbe84a7e8	-0.25909352
23	0xbe96edc8	-0.29478288
24	0xbe34ea38	-0.17667472
25	0xbf35cc9c	-0.71015334
26	0xbf709bce	-0.9398774
27	0x3d249c49	0.040188108
28	0x3f3373e1	0.7009869
29	0x3f347780	0.7049484
30	0x3ed58f6c	0.41710985
31	0xbe5bfb48	-0.21482575

edge_encoder.0.bias f4 [32]
0	0xbf48a56e	-0.78377426
1	0xbf5d507e	-0.86450946
2	0x3efee5d6	0.49784726
3	0x3e213968	0.15744555
4	0xbd977470	-0.073952556
5	0x3e70a24e	0.23499414
6	0xbf0607f6	-0.523559
7	0xbf15c648	-0.5850568
8	0xbf5d601c	-0.86474776
9	0x3e03faa6	0.12888584
10	0x3e7b892a	0.24564043
11	0xbe32ba10	-0.1745379
12	0x3efe7862	0.4970122
13	0xbe96faf0	-0.29488325
14	0x3eec4872	0.4614902
15	0x3ebc74df	0.36807916
16	0xbf53fad4	-0.8280461
17	0xbf0ffc08	-0.56243944
18	0x3e12259b	0.14272158
19	0x3ed8751e	0.42276853
20	0x3f16cdf6	0.5890802
21	0xbf413c14	-0.75482297
22	0x3f34fe28	0.7070031
23	0xbf677a32	-0.9042083
24	0xbea0c8b8	-0.31403136
25	0x3ebf3614	0.37345946
26	0x3e27b173	0.16376285
27	0x3f06f92e	0.5272397
28	0x3f5a2cf3	0.8522484
29	0xbe1c0e28	-0.15239775
30	0xbefe9310	-0.49721575
31	0xbf7e2312	-0.99272263

edge_encoder.2.weight f4 [32, 32]
0	0x3d7aab60	0.061198592
1	0x3ca35748	0.01993908
2	0xbe0cff7a	-0.13769332
3	0xbe42e2b6	-0.19031796
4	0x3d11ab1c	0.035563573
5	0x3dddaf51	0.108244546
6	0x3d502634	0.050817683
7	0xbca486a0	-0.020083725
8	0xbdd3f96b	-0.10350307
9	0xbdad0451	-0.08448089
10	0xbe4cd522	-0.20003179
11	0x3d9ae206	0.07562642
12	0xbe15d657	-0.14632545
13	0xbdfda28b	-0.12384518
14	0xba18ac23	-0.000582399
15	0x3def6715	0.11689583
16	0x3ddef566	0.1088665
17	0xbd497054	-0.04917939
18	0x3cc865ef	0.024462668
19	0x3d18f226	0.037340306
20	0x3ddf9f37	0.1091904
21	0x3e110537	0.14162146
22	0xbcc9c962	-0.02463216
23	0xbbfceea0	-0.007718876
24	0x3dad0302	0.08447839
25	0xbe289a82	-0.1646519
26	0xbe5d2155	-0.21594746
27	0xbe1fb041	-0.1559458
28	0x3dba5b45	0.090994395
29	0xbddbdba5	-0.10735253
30	0xbe18c54f	-0.14919017
31	0xbde21ce0	-0.11040664
32	0xbac18680	-0.0014764816
33	0xbd3009f4	-0.042978242
34	0x3d4734d3	0.04863436
35	0x3da121a2	0.07867743
36	0x3d7cab74	0.061686948
37	0xbdda90df	-0.10672163
38	0xbcc1e888	-0.02367045
39	0xbe0110ab	-0.12604015
40	0xbdeec931	-0.11659468
41	0xbc8656b2	-0.016398761
42	0xbdf2d715	-0.1185743
43	0xbac51080	-0.0015034825
44	0x3e29e6f7	0.16592012
45	0xbe038629	-0.12844147
46	0xbe1488af	-0.14505266
47	0xbbfa7142	-0.007642896
48	0xbd973db0	-0.07384813
49	0x3e24e6d9	0.16103686
50	0x3d9cb3ab	0.076514564
51	0xbd44b8fb	-0.048027974
52	0x3d220586	0.03955605
53	0x3c63ecc0	0.013911426
54	0x3d535070	0.051590383
55	0xbdeb25f8	-0.11481851
56	0xbe1a4020	-0.15063524
57	0xbe09e34d	-0.13465615
58	0x3c84a996	0.016194146
59	0x3e393dad	0.18089934
60	0x3e2dab6b	0.16959922
61	0x3d87361a	0.06602116
62	0xbd72db7a	-0.05929134
63	0x3e19e927	0.15030347
64	0x3e19d6b9	0.15023316
65	0xbe2e8a64	-0.1704498
66	0x3df8caf9	0.12148089
67	0x3e27140d	0.16316243
68	0x3df59b2a	0.11992486
69	0x3e4d7b04	0.20066458
70	0xbb8ab140	-0.0042325556
71	0x3dcd3d82	0.10021497
72	0xbca9ce48	-0.020728245
73	0x3e746970	0.23868346
74	0x3e05a80c	0.13052386
75	0xbdac1ee2	-0.08404328
76	0x3e0f99b0	0.14023471
77	0x3db220ba	0.08697648
78	0x3e31b7ee	0.1735532
79	0x3e0c91b9	0.13727464
80	0x3e0b5685	0.13607223
81	0xbe21f6f6	-0.15816864
82	0xbd656e51	-0.05601341
83	0x3c1d6b38	0.0096080825
84	0x3d8e647e	0.06952761
85	0x3e0f517f	0.13995932
86	0x3e20149c	0.15632862
87	0x3d87ee32	0.06637229
88	0xbe2897aa	-0.16464105
89	0x3e5a5e90	0.21325135
90	0x3ce06b48	0.027394906
91	0xbd16ae52	-0.03678734
92	0x3e10cff4	0.14141828
93	0xbe101652	-0.14071015
94	0x3cd0b4c8	0.025476828
95	0xbdc8e994	-0.098101765
96	0x3d95561a	0.07291813
97	0xbdc8c9b4	-0.09804097
98	0x3cda0448	0.02661337
99	0x3e0ff275	0.14057334
100	0xbe327b22	-0.17429784
101	0x3e14ff3b	0.14550488
102	0x3c4c9370	0.012486324
103	0xbd97dc58	-0.07415074
104	0xbdf81961	-0.12114216
105	0xbe10ae0f	-0.14128898
106	0xbe12e5ed	-0.14345522
107	0xbe2f4470	-0.1711595
108	0x3c715630	0.014730021
109	0xbe322f53	-0.17400865
110	0xbe0fc69c	-0.14040607
111	0xbcda0550	-0.026613861
112	0xbe082dca	-0.13298717
113	0xbcb85bc0	-0.022504687
114	0x3d3cbebc	0.046080336
115	0xbdbac2ce	-0.09119187
116	0xbd6c6836	-0.05771657
117	0x3dfb3846	0.12266593
118	0x3cfd3610	0.030909568
119	0x3e045df5	0.12926467
120	0x3d9d8632	0.07691611
121	0xbd011714	-0.03151615
122	0xbd313238	-0.043260783
123	0xbd3ef660	-0.04662168
124	0x3df6425a	0.12024374
125	0xbbcf4820	-0.0063257366
126	0x3d502d78	0.050824612
127	0x3e092add	0.13395257
128	0x3e0adbf1	0.13560463
129	0xbde5faf5	-0.11229507
130	0x3e0d5947	0.13803588
131	0x3d38266a	0.04495851
132	0xbd221bf0	-0.039577425
133	0x3e6043a5	0.21900804
134	0xbe0433cc	-0.12910384
135	0x3e175511	0.14778544
136	0x3d25d760	0.0404886
137	0x3e7b8533	0.2456253
138	0x3e48b854	0.19601566
139	0x3ddd2b42	0.107992664
140	0x3e37b2fa	0.17939368
141	0x3e21bb39	0.15794076
142	0x3e0ebca6	0.13939151
143	0x3e2c4555	0.16823323
144	0x3e1ad907	0.15121852
145	0x3c9d65e8	0.019213632
146	0x3d9a19b4	0.07524434
147	0x3d96c4bf	0.07361745
148	0xbc1992ab	-0.009373347
149	0x3cec23d8	0.028825685
150	0x3c843ab2	0.01614127
151	0xbdbbc69f	-0.09168743
152	0xbde5f20b	-0.11227807
153	0x3e781cad	0.24229689
154	0x3dd818d4	0.105516106
155	0x3df27e76	0.11840527
156	0x3dc68905	0.09694103
157	0x3d9624de	0.073312506
158	0xbe31e13d	-0.17371078
159	0xbb8d9a20	-0.0043213516
160	0xbe2151ea	-0.15753904
161	0x3e1cc675	0.1531008
162	0xbde65a24	-0.11247662
163	0xbd4e70d8	-0.050400585
164	0x3e1474af	0.14497636
165	0x3d8f129c	0.06985971
166	0x3dd9443a	0.10608716
167	0xbc10eaa0	-0.008845001
168	0x3cdaa678	0.026690707
169	0x3d756b08	0.059916526
170	0xbd0a2c50	-0.033733666
171	0xbe21f685	-0.15816696
172	0xbd3ef484	-0.046619907
173	0xbdc8dbd5	-0.09807555
174	0xbceaf950	-0.028683335
175	0x3db3a1aa	0.08771069
176	0x3e1512b7	0.1455792
177	0xbe26a7db	-0.1627497
178	0xbdd7475f	-0.1051166
179	0x3dfd7016	0.12374894
180	0x3bd9fa40	0.0066521466
181	0xbc8a8628	-0.016909674
182	0x3de26522	0.11054446
183	0x3dcb5532	0.09928359
184	0xbe0b4cd6	-0.1360353
185	0xbb8218c0	-0.0039702356
186	0xbdac6576	-0.0841779
187	0xbce62ba8	-0.028096989
188	0xbd192868	-0.03739205
189	0x3d00fe28	0.031492382
190	0xbc0a2690	-0.008432046
191	0x3ca9cb88	0.020726934
192	0x3e08307f	0.1329975
193	0x3da7b302	0.0818844
194	0xbdc686ec	-0.09693703
195	0xbcacfc53	-0.021116411
196	0x3d1d2684	0.03836681
197	0x3d9cfde7	0.076656155
198	0xbdb8607b	-0.09002777
199	0x3d867b4c	0.06566486
200	0xbc8393a8	-0.016061619
201	0xbc4d0edc	-0.01251575
202	0xbde5e357	-0.11225002
203	0x3dc94062	0.09826733
204	0xbd7a2783	-0.061072838
205	0x3daf8266	0.085697934
206	0x3dafb4eb	0.08579429
207	0x3d22bbb5	0.039729793
208	0x3e002899	0.12515487
209	0x3cea9968	0.028637603
210	0xbd338cc3	-0.043835413
211	0x3d889a92	0.06670107
212	0x3dcd67b3	0.10029545
213	0x3d971ed2	0.073789254
214	0x3d1eea53	0.038797688
215	0xbd1e9360	-0.038714767
216	0x3df6a5c2	0.120433345
217	0xbdef8c21	-0.11696649
218	0x3d475646	0.04866626
219	0xbe37d70a	-0.17953125
220	0x3da003ff	0.07813262
221	0xbd771276	-0.06032034
222	0xbdbec56f	-0.09315001
223	0x3d28fdf0	0.0412578
224	0xbe064869	-0.1311356
225	0x3d71cb54	0.0590318
226	0x3c1c65d0	0.009545758
227	0xbd9ba273	-0.07599344
228	0x3d8aa544	0.06769803
229	0xbd5ae54e	-0.05344134
230	0xbd843320	-0.06455064
231	0x3c36a4a0	0.011147648
232	0x3d771e38	0.060331553
233	0xbcbf4c20	-0.023351729
234	0xbd58b49e	-0.052906625
235	0x3d603b9c	0.054744348
236	0xbda08b9f	-0.078391306
237	0xbce2bc30	-0.027677625
238	0xbe03ea29	-0.12882294
239	0xbc8e9598	-0.017405316
240	0x3aeace80	0.0017914325
241	0x3e13970b	0.14413087
242	0x3dd4ee3a	0.103970006
243	0x3d7698f4	0.06020446
244	0x3d880804	0.06642154
245	0xbe099a9e	-0.13437888
246	0xbe33f170	-0.1757257
247	0x3dc722ce	0.09723435
248	0x3d6172ac	0.055041
249	0xbda562c5	-0.080754794
250	0xbe0591a6	-0.13043842
251	0xbc526400	-0.012841225
252	0x3e158e23	0.14605002
253	0xbe120fdf	-0.14263867
254	0xbd94d2dc	-0.07266781
255	0x3e053f59	0.13012446

edge_encoder.2.bias f4 [32]
0	0xbe4772e1	-0.19477417
1	0x3d16397f	0.036675926
2	0x3c7882d8	0.015167914
3	0xbdb8a3f5	-0.09015647
4	0x3d6ac6c3	0.05731846
5	0xbd3948e8	-0.045235544
6	0xbd44beff	-0.04803371
7	0xbe1b9ec8	-0.15197289
8	0xbdfadca4	-0.12249115
9	0xbdd01449	-0.10160119
10	0xbde8955d	-0.11356614
11	0x3e3446b5	0.17605098
12	0xbdf47dae	-0.11938034
13	0x3d61d4ab	0.055134457
14	0x3cebbb10	0.028775722
15	0xbc088b00	-0.008333921
16	0xbe30b9fa	-0.17258444
17	0xbd9ee3b0	-0.07758272
18	0xbd10af50	-0.03532344
19	0xbe02f579	-0.12788953
20	0x3e14ba61	0.14524223
21	0xbe165808	-0.14682019
22	0xbe19084c	-0.14944571
23	0x3cb86ecc	0.02251377
24	0x3d132af1	0.035929624
25	0x3ded2e5e	0.115811095
26	0xbd80736f	-0.06272017
27	0x3d736065	0.0594181
28	0x3db16bce	0.0866314
29	0x3d455907	0.048180606
30	0x3ce4a138	0.027908906
31	0xbe1c7067	-0.15277253

edge_encoder.4.weight f4 [32]
0	0x3f75d5ab	0.96029156
1	0x3f6783d1	0.9043551
2	0x3f64c5b9	0.893642
3	0x3f5db057	0.865972
4	0x3f640604	0.8907168
5	0x3f7ff3fc	0.99981666
6	0x3f683a4d	0.9071396
7	0x3f714d56	0.9425863
8	0x3f599d45	0.850056
9	0x3f66c152	0.90138733
10	0x3f84db4b	1.0379423
11	0x3f81a786	1.0129249
12	0x3f778321	0.9668446
13	0x3f60b5c4	0.8777735
14	0x3f7d7966	0.99013364
15	0x3f616f3e	0.8806037
16	0x3f689f76	0.9086832
17	0x3f5a94e7	0.85383457
18	0x3f47772d	0.7791622
19	0x3f66c985	0.90151244
20	0x3f36f0ea	0.71461356
21	0x3f5f7909	0.8729406
22	0x3f6f1564	0.93392015
23	0x3f8553d3	1.0416206
24	0x3f45a117	0.7719893
25	0x3f80f461	1.0074579
26	0x3f552a18	0.83267355
27	0x3f47c8ec	0.7804096
28	0x3f59e7c7	0.8511929
29	0x3f8c34e6	1.0953643
30	0x3f80e5ea	1.0070164
31	0x3f6342bd	0.8877371

edge_encoder.4.bias f4 [32]
0	0x3c9c286c	0.019062243
1	0xbcf6f149	-0.03014435
2	0xbda5adb2	-0.080897704
3	0x3e0890d9	0.13336505
4	0xbca99485	-0.020700702
5	0x3b9811f4	0.004640812
6	0xbe0f41f8	-0.13990009
7	0x3d7f70c1	0.06236339
8	0x3e200aab	0.1562907
9	0xbbb85132	-0.0056249136
10	0xbd0ced96	-0.034406267
11	0xbc369964	-0.01114497
12	0x3d0fb2d9	0.03508267
13	0xbd0a5305	-0.03377058
14	0x3c733d8e	0.014846219
15	0x3e0177dc	0.12643379
16	0x3dc0f7a0	0.09422231
17	0x3e191430	0.14949107
18	0x3e6830ec	0.22674912
19	0x3db91296	0.09036748
20	0xbd9dbb79	-0.07701773
21	0x3cf99fed	0.030471766
22	0xbd407094	-0.046982363
23	0xbd1dd300	-0.038531303
24	0x3bba561b	0.005686534
25	0xb969b989	-0.00022289729
26	0x3de298f8	0.11064333
27	0xbdb346cb	-0.08753737
28	0x3e15e78e	0.14639112
29	0xbdc7060b	-0.097179495
30	0xbc4d3374	-0.012524474
31	0xbd29e54d	-0.041478444

layers.0.edge_net.0.weight f4 [32, 96]
0	0x3ce2ab4f	0.027669577
1	0xbd082da5	-0.033246655
2	0xbc86b5a0	-0.016444027
3	0x3e2d2b20	0.16910982
4	0x3d73da6a	0.059534468
5	0x3d6bc8d6	0.05756458
6	0x3e00305a	0.12518445
7	0x3c602ce4	0.013682578
8	0x3d34e723	0.04416574
9	0x3de22688	0.110425055
10	0xbdbbcee8	-0.091703236
11	0x3e0db029	0.13836731
12	0x3df06b79	0.11739249
13	0x3bf7cc98	0.0075622313
14	0xbd826b79	-0.06368155
15	0x3e2b1eb6	0.16710934
16	0xbd4cd41e	-0.05000698
17	0x3e0e9c7c	0.13926882
18	0x3da69573	0.08133974
19	0xbd7f206e	-0.062286787
20	0x3e164f7b	0.14678757
21	0x3cd9ea87	0.02660109
22	0xbbe51d33	-0.006992006
23	0x3d059a8e	0.032618098
24	0x3d0b5d80	0.034024715
25	0x3e036c51	0.12834288
26	0x3e35d49b	0.17756884
27	0x3b439361	0.0029842483
28	0x3e01bab1	0.12668873
29	0xbd786e4b	-0.06065206
30	0x3be3994c	0.0069457646
31	0xbc16399c	-0.009169009
32	0x3e12ef47	0.1434909
33	0x3e0e0c37	0.13871847
34	0x3d8f06f1	0.06983746
35	0xb78179be	-1.5434689e-05
36	0xbc58818e	-0.013214482
37	0xbb82e232	-0.0039942497
38	0x3df98b8b	0.12184819
39	0xbdd0635b	-0.101752006
40	0xbbfe0bc2	-0.0077528665
41	0x3c182566	0.00928626
42	0xbc3c32f8	-0.011486761
43	0xbb3ad9e7	-0.0028511228
44	0x3d83d148	0.064364016
45	0x3ce73ddd	0.02822774
46	0xbe01dc5a	-0.12681714
47	0x3e050cd3	0.12993173
48	0x3bd756fd	0.006571649
49	0x3d88ced4	0.06680074
50	0xbcda88c9	-0.026676552
51	0xbe2440d0	-0.16040349
52	0x3d0dba74	0.034601644
53	0x3e12bc31	0.14329602
54	0x3d988d1b	0.07448789
55	0x3deca1b2	0.115542784
56	0xbd143943	-0.03618742
57	0x3e221caf	0.15831254
58	0x3cc35e45	0.023848662
59	0x3c6cf265	0.014462088
60	0x3d36aa03	0.04459573
61	0xbe17a77f	-0.14809988
62	0x38a93d38	8.069951e-05
63	0xbdd75932	-0.105150595
64	0xbbe59581	-0.0070063476
65	0xbdc17e32	-0.09447898
66	0xbcb9c504	-0.022676952
67	0x3e2cc2ca	0.16871181
68	0x3c2649a4	0.010149393
69	0x3d3ff5fe	0.046865456
70	0xbdbc809b	-0.09204217
71	0x3d973a7e	0.073842034
72	0x3cbb1a8c	0.022839807
73	0x3dab0d94	0.08352199
74	0x3d026d97	0.031842794
75	0xbc55f8f2	-0.0130598415
76	0x3b2cb7eb	0.002635474
77	0xbd2839ea	-0.041070856
78	0x3b790d7a	0.0038002417
79	0xbbbb7af3	-0.005721444
80	0x3e0999ed	0.13437624
81	0x3d3b76d0	0.045767605
82	0x3d30a710	0.043128073
83	0x3d14337e	0.03618192
84	0xbd0eeec7	-0.034895685
85	0xbcca2fb2	-0.024680946
86	0xbd8b71c3	-0.06808808
87	0x3e339ad5	0.17539532
88	0x3ca2919f	0.019844828
89	0x3e0032eb	0.12519424
90	0x3dc8e3c7	0.0980907
91	0xbdaf76f8	-0.08567613
92	0x3caaca26	0.020848345
93	0x3e20bb67	0.15696488
94	0x3ca154f2	0.019693825
95	0xbc5b1daf	-0.013373776
96	0x3cc14858	0.023594067
97	0x3e7bc8cf	0.24588321
98	0x3e77d389	0.24201788
99	0xbdda6c5d	-0.106652
100	0xbc5c9e59	-0.013465487
101	0x3e122932	0.14273527
102	0xbe059eb6	-0.13048825
103	0x3d87dee8	0.06634313
104	0xbd82306f	-0.06356894
105	0xbe78ccac	-0.24296826
106	0x3d6d2990	0.057900965
107	0xbd927a16	-0.07152192
108	0xbd4b911e	-0.04969894
109	0xbc1249ee	-0.008928759
110	0x3e0d07aa	0.13772455
111	0xbe194a8a	-0.1496984
112	0xbd1ef9af	-0.038812336
113	0xbdcb6caf	-0.09932839
114	0xbd4075c0	-0.046987295
115	0x3e19eab5	0.1503094
116	0xbe173a32	-0.14768293
117	0x3e015898	0.12631452
118	0x3ca04325	0.019563267
119	0xbd0d2437	-0.034458365
120	0x3d37ffeb	0.044921797
121	0xbd4f444b	-0.05060224
122	0xbdb82316	-0.08991067
123	0x3ca59de4	0.02021689
124	0xbc5373e5	-0.012906049
125	0x3dbe9fac	0.09307799
126	0xbd654b77	-0.055980172
127	0x3d48ddc0	0.049039602
128	0xbde5f065	-0.11227492
129	0x3e6ec9f7	0.23319231
130	0x3e00719e	0.12543342
131	0xbd324eef	-0.04353231
132	0xbd9c6feb	-0.07638534
133	0x3cfaa6f3	0.030597186
134	0xbd41b341	-0.04729009
135	0x3cbff378	0.023431525
136	0xbdf4bff6	-0.11950676
137	0xbe8444b1	-0.25833657
138	0x3da5da90	0.08098328
139	0x3c833b24	0.016019411
140	0xbe206f6c	-0.15667504
141	0xbdd984ab	-0.106210075
142	0x3d9ad928	0.075609505
143	0xbcb44b38	-0.022008523
144	0x3d3aedf7	0.045637097
145	0xbe16d24b	-0.14728658
146	0xbd07b858	-0.03313479
147	0x3ddc138c	0.10745916
148	0xbd9309fc	-0.07179639
149	0x3e5ecd54	0.21758014
150	0xbdbf51d1	-0.09341777
151	0xbcb0c218	-0.021576926
152	0xbd286b65	-0.041118044
153	0x3c4b3aca	0.012404153
154	0xbe1aa47e	-0.15101811
155	0xbe1596a0	-0.1460824
156	0x3cfd74ad	0.030939424
157	0xbb90a2ee	-0.004413954
158	0xbd531bd3	-0.051540207
159	0x3e2b4a67	0.16727601
160	0xbd53d493	-0.0517164
161	0xbc19f8a8	-0.009397663
162	0x3dbbd4c8	0.09171444
163	0x3cf2eb4c	0.029653214
164	0xbc018c5e	-0.007907001
165	0xbe09b05c	-0.13446182
166	0x3dffd3b1	0.12491549
167	0x3d01d9ab	0.031701725
168	0x3d05494a	0.032540597
169	0xbd932fba	-0.071868375
170	0x3d10faf3	0.035395574
171	0xbe220658	-0.15822732
172	0xbd7ecd07	-0.062207248
173	0xbb8ce410	-0.004299648
174	0xbe13b9c5	-0.14426334
175	0xbda7c8cf	-0.08192598
176	0xbc7bcc42	-0.015368523
177	0xbdf51382	-0.119666114
178	0xbdb523df	-0.088447325
179	0xbd843148	-0.06454712
180	0xbe15a1d2	-0.14612511
181	0xbe0554e7	-0.13020669
182	0x3dbc36e9	0.09190161
183	0xbdf96de7	-0.12179165
184	0xbde454d3	-0.111489914
185	0xbbc9d382	-0.006159247
186	0xbd83092c	-0.06398234
187	0xbd28473d	-0.041083563
188	0xbe103c72	-0.14085558
189	0xbde73386	-0.11289124
190	0xbe19c1a1	-0.1501527
191	0x3c35f589	0.011105903
192	0xbe21df6a	-0.15807882
193	0x3dcb98b1	0.09941233
194	0x3c5bef48	0.013423748
195	0xbe0d7f42	-0.13818076
196	0xbb97de99	-0.00463469
197	0x3d7433b2	0.059619613
198	0xbe02bddd	-0.1276774
199	0xbd91ce54	-0.07119432
200	0xbdc67d68	-0.09691888
201	0xbe1972bc	-0.14985174
202	0x3c05efec	0.008174878
203	0x3bd09189	0.0063650054
204	0xbd2d4710	-0.0423041
205	0xbd961956	-0.07329051
206	0x3d932436	0.07184641
207	0xbe0ad7cc	-0.13558882
208	0x3cc82cc8	0.024435416
209	0xbe18e8ec	-0.14932603
210	0xbe269bad	-0.16270323
211	0x3e0c9fe9	0.13732876
212	0xbd2eefce	-0.042709164
213	0x3acb7958	0.0015523834
214	0x3b5e3bd8	0.0033910181
215	0xbe138508	-0.14406216
216	0xbddd6733	-0.10810699
217	0xbe088a57	-0.13334022
218	0xbd30d540	-0.04317212
219	0xbd9cfc98	-0.07665366
220	0xbbdbc890	-0.0067072585
221	0x3d00f404	0.03148271
222	0xbdbeb6e8	-0.0931223
223	0x3c97a71d	0.018512303
224	0x3d2bc0d5	0.041931946
225	0x3d62734d	0.05528574
226	0x3e3a92ae	0.18220016
227	0xbd5b4f2a	-0.053542294
228	0xbd935bd4	-0.07195249
229	0xbbb2b773	-0.0054539978
230	0xbd95a687	-0.07307153
231	0xbd33a5ea	-0.0438594
232	0x3d14a3ce	0.03628903
233	0xbdf21f68	-0.118223965
234	0x3d3a88aa	0.04554049
235	0xbdc93e7b	-0.0982637
236	0xbd475c4d	-0.04867201
237	0xbd7041d6	-0.058656536
238	0x3b802aff	0.0039113755
239	0x3cb58ae8	0.022160962
240	0x3dd852d2	0.10562672
241	0xbd982f11	-0.07430852
242	0xbe1b5d14	-0.15172225
243	0x3e4678e0	0.19382048
244	0xbd83657d	-0.06415842
245	0xbda25460	-0.079262495
246	0xbdc49bbe	-0.09600018
247	0xbe1279f1	-0.1430433
248	0xbca33d52	-0.0199267
249	0x39c0a94e	0.00036747236
250	0xbd9e0add	-0.07716916
251	0xbddfde6b	-0.10931095
252	0x3c7febcb	0.015620182
253	0x3de9092a	0.11378701
254	0xbbaa543a	-0.005198029
255	0x3ddd7e9e	0.10815166

layers.0.edge_net.0.bias f4 [32]
0	0xbd39d5a8	-0.045369774
1	0x3e0309a9	0.12796654
2	0x3ddedd12	0.108820096
3	0xbb904ccf	-0.0044036875
4	0xbe60a204	-0.21936804
5	0xbc4e3ef9	-0.012588256
6	0xbd3ca670	-0.046057165
7	0x3c8bc980	0.017063856
8	0xbd545822	-0.051841862
9	0x3dd3f6c6	0.10349803
10	0x3e11c447	0.1423503
11	0xbccdca96	-0.025121015
12	0x3c90552a	0.017618734
13	0xbda3dacc	-0.080007166
14	0xbd7d7994	-0.061883524
15	0xbc8e5158	-0.017372772
16	0xbd6e5a87	-0.058191802
17	0x3cff3035	0.031150917
18	0x3cd7ce99	0.02634363
19	0xbd2351f1	-0.039873067
20	0xbcb84fe7	-0.022499038
21	0xbd2c0d6a	-0.04200498
22	0xbd3ec09f	-0.046570417
23	0xbdb241dc	-0.08703968
24	0xbd36c666	-0.0446228
25	0x3e0e292e	0.13882896
26	0xbc629871	-0.01383029
27	0xbdf79998	-0.120898426
28	0xbdb5b4bd	-0.08872364
29	0xbe88bfba	-0.26708776
30	0xbdc9e9af	-0.09859025
31	0xbdbfa6cf	-0.09357988

layers.0.edge_net.2.weight f4 [32, 32]
0	0xbd8de988	-0.06929308
1	0x3e0efd56	0.13963827
2	0x3db6f9d8	0.08934373
3	0x401be8ad	2.4360764
4	0x3e7249d8	0.23660982
5	0xbe99e8c8	-0.3006041
6	0xbd9329eb	-0.071857296
7	0xbd3255a0	-0.04353869
8	0x3e0f80f5	0.14014037
9	0xbe6fe9b8	-0.23429
10	0xbd753edf	-0.05987441
11	0xbec2bbba	-0.3803385
12	0x3f539f59	0.8266502
13	0x3f064f8f	0.52465147
14	0xbe47059c	-0.19435734
15	0xbe4cd4ad	-0.20003004
16	0xbd3a090a	-0.045418777
17	0xbe51b20f	-0.2047808
18	0x3e16e238	0.14734733
19	0xbd721994	-0.059106424
20	0xbe1cbf8f	-0.15307449
21	0x3e40614d	0.18787117
22	0xbe00c911	-0.12576701
23	0x3c918d08	0.017767444
24	0xbe242b9c	-0.1603226
25	0xbe34a733	-0.17641906
26	0x3ea38dc2	0.3194409
27	0xbe10b0f7	-0.14130007
28	0xbbbb0049	-0.005706821
29	0x3d921903	0.07133677
30	0xbe3129cc	-0.173011
31	0xbe172134	-0.1475876
32	0x3d0bcb44	0.034129396
33	0xbe3a0c38	-0.18168724
34	0xbec74244	-0.38917744
35	0x3e1794f9	0.14802922
36	0x3e347ca5	0.17625673
37	0xbe9aee6a	-0.3026002
38	0xbe26f18b	-0.16303079
39	0x3ddb8f9a	0.10720749
40	0xbda0efc1	-0.078582294
41	0xbe9eb97c	-0.31000888
42	0xbe2be4c7	-0.1678649
43	0xbdf36d3b	-0.118860684
44	0x3c17cef7	0.009265653
45	0x3ea3223e	0.31862062
46	0xbe75abd9	-0.23991336
47	0xbe2ff3c7	-0.17182837
48	0xbe05e3d7	-0.13075195
49	0xbea53be0	-0.32272243
50	0x3dbb9102	0.091585174
51	0x3b688280	0.0035478175
52	0xbbf30344	-0.007416161
53	0xbe1276e9	-0.14303173
54	0xbcc32c58	-0.023824856
55	0x3b983160	0.004644558
56	0xbe27b6a5	-0.16378267
57	0x3a69b478	0.00089151366
58	0xbdfc593e	-0.12321709
59	0xbcbecc68	-0.023290828
60	0x3d515614	0.05110748
61	0x3d94a650	0.07258284
62	0x3d521fa4	0.051299706
63	0xbdcf6dcc	-0.10128364
64	0xbdce5765	-0.10075263
65	0xbd9ced3d	-0.07662437
66	0xbe9d5061	-0.30725387
67	0xbe1f9601	-0.15584566
68	0xbdd722fd	-0.1050472
69	0xbe605e36	-0.21910939
70	0x3e171b43	0.14756493
71	0x3e157ed9	0.1459917
72	0x3e03f477	0.12886225
73	0xbe10cf5e	-0.14141604
74	0xbe2cd6e1	-0.16878845
75	0x3e040c9f	0.1289544
76	0xbe67bd64	-0.2263084
77	0xbd99d60c	-0.07511529
78	0x3df4e26a	0.119572476
79	0x3dca8d36	0.09890215
80	0xbdcae6d6	-0.0990731
81	0xbdb08921	-0.08619905
82	0xbe1c8d7f	-0.15288351
83	0x3e0db009	0.13836683
84	0xbcfdeca7	-0.030996634
85	0xba433c00	-0.00074476004
86	0xbe1e9cb6	-0.15489468
87	0x3dd5bfc6	0.104369685
88	0xbdc26fb4	-0.09493962
89	0xbe93841a	-0.28811723
90	0xbdd26302	-0.102727905
91	0x3db5abda	0.08870669
92	0xbe187c18	-0.14891088
93	0xbc651b40	-0.013983548
94	0x3cefbbc0	0.02926433
95	0x3ddfaa2e	0.10921131
96	0xbdf349c1	-0.11879302
97	0xbe1e5e4b	-0.15465657
98	0xbda5c049	-0.08093316
99	0xbdc4baad	-0.09605918
100	0xbd9c4dbf	-0.076320164
101	0xba021e00	-0.0004963577
102	0xbdaad7a6	-0.08341913
103	0x3c1ae140	0.009453118
104	0xbd8dd39d	-0.06925128
105	0xbe21154c	-0.1573078
106	0x3d803128	0.06259376
107	0xbd994465	-0.07483748
108	0xbd07496c	-0.033029005
109	0xbdefdc3a	-0.11711927
110	0x3dc65d5e	0.09685777
111	0xbe267782	-0.16256526
112	0xbc7a0720	-0.015260488
113	0xbd9d5fed	-0.07684312
114	0xbdd95a55	-0.106129326
115	0x3da2caee	0.07948862
116	0xbe098256	-0.13428625
117	0x3c40b840	0.011762679
118	0xbe09fbb0	-0.13474917
119	0xbcf8fb90	-0.030393392
120	0x3d970b86	0.07375245
121	0x3d3a2440	0.045444727
122	0xbc0a6a90	-0.008448258
123	0xbde300e0	-0.11084151
124	0x3e059ebd	0.13048835
125	0xbd94a754	-0.07258478
126	0x3d8c86bc	0.06861636
127	0xbd8b4e50	-0.06802046
128	0x3e33a6ec	0.17544144
129	0xbda9bd91	-0.0828811
130	0xbce44ddc	-0.027869157
131	0xbdc91c28	-0.098198235
132	0x3e683c4f	0.22679256
133	0x3d9667f5	0.07344047
134	0x3e6d5ba4	0.2317949
135	0x3dd80a55	0.10548846
136	0xbd726380	-0.05917692
137	0x3e77d21f	0.24201249
138	0x3d390df6	0.04517933
139	0x3e0c367c	0.13692659
140	0x3cca1e69	0.024672704
141	0xbda74a0b	-0.081684195
142	0x3df9464e	0.12171613
143	0x3e0aa5fc	0.1353988
144	0xbd73051f	-0.059331056
145	0x3e158a85	0.14603622
146	0xbe39e48c	-0.1815359
147	0xba9dfb56	-0.0012053053
148	0x3e55458c	0.20827311
149	0xbd4de1e2	-0.050264247
150	0x3d2dbcf1	0.042416517
151	0x3d3864ea	0.045018114
152	0x3d1f9321	0.038958672
153	0xbc312c3f	-0.010813772
154	0xbda641d9	-0.08118028
155	0x3d69152c	0.056904957
156	0x3d6d4ad8	0.057932705
157	0xbe1ef45d	-0.15522905
158	0x3df60365	0.12012366
159	0xbdab1807	-0.08354192
160	0x3db7a8c7	0.089677386
161	0xbdd841cc	-0.10559425
162	0xbe4124df	-0.18861721
163	0x3e1843b7	0.14869581
164	0x3d2d416f	0.04229873
165	0xbe22bb38	-0.15891731
166	0x3d5bde63	0.05367888
167	0x3d98ec0a	0.07466896
168	0xbccb1610	-0.024790794
169	0xbdb8a77c	-0.0901632
170	0xbe703116	-0.23456225
171	0x3e15c1fa	0.14624777
172	0x3e41be48	0.18920243
173	0xbd196823	-0.03745283
174	0x3d343dc3	0.044004213
175	0xbd39e394	-0.04538305
176	0xbdab1923	-0.08354404
177	0xbe443486	-0.19160661
178	0xbd54ca12	-0.05195052
179	0x3ddae3bd	0.10687969
180	0x3d9fabdb	0.07796451
181	0xbe2ef461	-0.1708541
182	0xbe2d2507	-0.16908656
183	0x3dbc39e2	0.09190728
184	0x3e430fc8	0.19048989
185	0xbdbb6d94	-0.0915176
186	0xbb3da863	-0.0028939478
187	0xbd1c8d54	-0.03822072
188	0x3e5aaab8	0.21354187
189	0xbd3eb9e8	-0.046564013
190	0x3dc34f7e	0.09536646
191	0x3e00c435	0.12574847
192	0x3e13e256	0.14441809
193	0x3e83ebfc	0.2576598
194	0x3e296817	0.16543613
195	0xbc979f74	-0.01850865
196	0xbe21b703	-0.1579247
197	0x3e864802	0.26226813
198	0x3cc6f5ae	0.024287071
199	0x3d916aed	0.071004726
200	0x3d909c8d	0.0706111
201	0xbdf76753	-0.120802544
202	0x3eab177c	0.33416355
203	0xbd488b4d	-0.048960973
204	0x3dcfbe00	0.101436615
205	0xbda072e4	-0.07834414
206	0xbdb16456	-0.08661716
207	0xbdb6ee6a	-0.089321926
208	0x3d148355	0.03625806
209	0x3d5ff2da	0.05467496
210	0xbe8e7880	-0.2782631
211	0xbd0d9585	-0.03456642
212	0x3e099702	0.13436511
213	0xbd88ea34	-0.06685296
214	0xbe59101a	-0.21197549
215	0x3dbd8af4	0.09255019
216	0x3d790ea2	0.06080497
217	0x3dbb9fe9	0.0916136
218	0x3e3dc81e	0.1853337
219	0xbda4e313	-0.080511235
220	0xbd7086fb	-0.058722477
221	0xbdb753af	-0.08951508
222	0xbcd36465	-0.025804708
223	0xbc8e6118	-0.017380282
224	0xbdf591b7	-0.119906835
225	0x3ccafecc	0.0247797
226	0xbe28c736	-0.16482243
227	0xbea69ac7	-0.3253996
228	0xbbad0cc0	-0.005281061
229	0xbe7776d8	-0.24166429
230	0x3da37985	0.079821624
231	0xbaadc880	-0.0013258606
232	0x3e15980b	0.14608781
233	0xbc858119	-0.01629691
234	0xbe93ca46	-0.2886526
235	0x3d78d1a1	0.060746793
236	0xbe902203	-0.2815095
237	0x3c47afc5	0.012187903
238	0xbddc324c	-0.10751781
239	0x3d83704e	0.06417905
240	0x3de22412	0.11042036
241	0xbe663c8d	-0.22484036
242	0xbd6122f8	-0.05496499
243	0xbe1afcd2	-0.15135506
244	0xbe04ad49	-0.12956728
245	0xbc6fe550	-0.014642075
246	0xbd092f08	-0.033492118
247	0x3dc3d79e	0.0956261
248	0x3cfff6a6	0.03124554
249	0x3c49f21c	0.01232579
250	0x3b0fd9ca	0.002194988
251	0xbcb46c40	-0.022024274
252	0xbd8c8580	-0.068614006
253	0xbdb033cf	-0.08603632
254	0x3d6f30a0	0.05839598
255	0xbdf100be	-0.1176772

layers.0.edge_net.2.bias f4 [32]
0	0x3c9e21d3	0.019303238
1	0xbe4c3a8c	-0.19944209
2	0xbe58c713	-0.21169691
3	0xbd83a0b8	-0.06427139
4	0xbd459940	-0.048241854
5	0xbd5ebf52	-0.054381676
6	0x3e6bf970	0.23044372
7	0xbcfc7caa	-0.030821163
8	0x3e57cc2a	0.21073976
9	0x3ddefb25	0.10887746
10	0x3ce377dd	0.027767116
11	0xbe847f71	-0.2587848
12	0x3d364622	0.044500478
13	0x3dee4f88	0.11636263
14	0xbd7c091b	-0.06153212
15	0xbe2dd20a	-0.16974655
16	0xbd79eae0	-0.06101501
17	0xbd6c4ad3	-0.057688545
18	0xbdefa727	-0.11701804
19	0x3d33707d	0.04380845
20	0xbd340b70	-0.04395622
21	0xbe2017cd	-0.1563408
22	0xbd832f7e	-0.06405543
23	0xbd9d096e	-0.07667814
24	0xbd46f437	-0.048572745
25	0x3c24e434	0.0100641735
26	0x3d338ea3	0.0438372
27	0x3c7810ea	0.015140751
28	0x3de92688	0.113843024
29	0x3cee15ba	0.029063094
30	0x3e278314	0.16358596
31	0xbe68e22e	-0.2274253

layers.0.edge_net.4.weight f4 [32]
0	0x3f86644f	1.0499362
1	0x3f822aba	1.0169289
2	0x3f86af9b	1.052234
3	0x3f73db03	0.9525606
4	0x3f7e0743	0.9922983
5	0x3f7a8678	0.97861433
6	0x3f83e090	1.0302906
7	0x3f6643ae	0.8994702
8	0x3f8cb641	1.099312
9	0x3f65267d	0.89511853
10	0x3f95c310	1.1700153
11	0x3f5e5194	0.8684323
12	0x3f841c16	1.0321071
13	0x3f60aa0f	0.8775949
14	0x3f82df52	1.0224402
15	0x3f80b041	1.0053788
16	0x3f690fcd	0.91039735
17	0x3f800571	1.000166
18	0x3f9450ff	1.1587218
19	0x3f78800a	0.9707037
20	0x3f7d8dce	0.990445
21	0x3f6dbbbc	0.92864585
22	0x3f61db0d	0.8822487
23	0x3f873987	1.0564431
24	0x3f77cd09	0.96797234
25	0x3f77f89b	0.96863717
26	0x3f85ba33	1.0447448
27	0x3f725bcc	0.9467132
28	0x3f6bc49f	0.92096895
29	0x3f6b8332	0.91997063
30	0x3f6011ce	0.8752717
31	0x3f5b524c	0.8567245

layers.0.edge_net.4.bias f4 [32]
0	0xbc3ca515	-0.011513968
1	0xbc601fa3	-0.013679418
2	0xbd668f16	-0.0562888
3	0x3d1f097b	0.0388274
4	0x3d296621	0.041357163
5	0xbc8a3561	-0.016871156
6	0x3d360f38	0.044448107
7	0x3d9e104d	0.07717953
8	0x3d7957dd	0.06087481
9	0xbbd8b07d	-0.006612836
10	0xbd833644	-0.06406835
11	0x3e0d2c8a	0.13786522
12	0xbc3ae612	-0.011407392
13	0x3dfc5aed	0.1232203
14	0xbd53cab1	-0.051706973
15	0xbd3551d8	-0.044267505
16	0x3da1945f	0.07889628
17	0xbce69370	-0.028146476
18	0xbd1b5b99	-0.03792915
19	0xbcdd72bf	-0.027032254
20	0xbb47b3f1	-0.0030472244
21	0x3d8bb807	0.0682221
22	0x3d49d443	0.049274694
23	0xbd942ef8	-0.07235521
24	0x3c5116b1	0.012761758
25	0xbd2bc9af	-0.041940387
26	0x3c9cbe7f	0.019133804
27	0xbda64a83	-0.08119681
28	0x3bdb239a	0.0066875936
29	0xbc747b78	-0.014922015
30	0xbc7652bf	-0.015034377
31	0x3ae4da0c	0.0017460003

layers.0.node_net.0.weight f4 [32, 64]
0	0xbc480eb3	-0.012210536
1	0xbe721821	-0.23642017
2	0x3eabe42f	0.33572528
3	0x3e3c5d3a	0.18394938
4	0x3e037152	0.12836197
5	0xbd51829d	-0.051149953
6	0x3bb8249a	0.0056195976
7	0x3df7fc90	0.12108719
8	0x3de01e6a	0.10943301
9	0xbd440487	-0.04785588
10	0x3bec02a9	0.0072024656
11	0x3dd97de6	0.10619716
12	0x3ddcea79	0.107869096
13	0x3d195918	0.037438482
14	0xbe38bd4b	-0.1804096
15	0x3e1f1e59	0.1553892
16	0xbdde4c96	-0.10854451
17	0x3e1191cb	0.14215772
18	0xbeef08d6	-0.4668643
19	0x3ba58a5d	0.0050518946
20	0x3d104163	0.035218608
21	0xbdcd6404	-0.10028842
22	0x3d349cdd	0.04409491
23	0xbd0b86f8	-0.034064263
24	0x3dde60d0	0.10858309
25	0x3d887108	0.06662184
26	0x3dae3377	0.0850591
27	0x3df7d795	0.12101666
28	0x3e4a111f	0.19733094
29	0xbe1f8697	-0.15578686
30	0x3e040d24	0.12895638
31	0xbdaa4a57	-0.083149604
32	0x3e0de5cb	0.1385719
33	0x3e317c92	0.17332676
34	0x3ce7ba52	0.028287087
35	0x3c7604a1	0.015015752
36	0x3e14f8b5	0.14547999
37	0x3e6f6ece	0.23382112
38	0xbe3c7cf9	-0.18407048
39	0xbcdbe205	-0.026841173
40	0xbc62b064	-0.013836
41	0xbd5d20d7	-0.053986397
42	0x3cb1e0a9	0.021713572
43	0x3d7ae9cb	0.06125812
44	0x3d68d334	0.056842044
45	0xbd37e330	-0.044894397
46	0xbbf342c7	-0.007423732
47	0xbdd810d9	-0.105500884
48	0xbcfe9995	-0.031079093
49	0x3da026c8	0.07819897
50	0x3b90fc08	0.0044245757
51	0x3ddb7571	0.107157595
52	0x3e186ee6	0.14886054
53	0xbd48ffe2	-0.049072154
54	0x3e29ca0c	0.16580981
55	0x3d6f9390	0.058490336
56	0xbc7d73ac	-0.015469473
57	0x3c942b87	0.018087162
58	0xbe300404	-0.17189032
59	0x3c755306	0.014973408
60	0xbdf92212	-0.121647015
61	0xbda46ed1	-0.08028949
62	0xbe99a52c	-0.3000883
63	0x3b934d17	0.004495274
64	0x3d8c2807	0.06843572
65	0xbe78be64	-0.24291378
66	0xbdaa00a8	-0.083009064
67	0xbda9526d	-0.082676746
68	0xbe0a7b8e	-0.13523695
69	0x3de946d8	0.113904655
70	0x3c16e945	0.009210889
71	0x3ea4c775	0.32183424
72	0x3d58c1b9	0.052919123
73	0xbe005b45	-0.12534817
74	0x3dbf2774	0.09333697
75	0xbda52658	-0.08063954
76	0x3d54c46c	0.051945135
77	0x3d28323a	0.041063525
78	0x3df3b793	0.119002484
79	0x3cec7ec6	0.028869044
80	0x3e1faa2b	0.15592258
81	0xbdc89f00	-0.09795952
82	0xbe3b4281	-0.18287088
83	0xbe133d4e	-0.14378855
84	0xbdbf4da2	-0.09340979
85	0xbe5eb48a	-0.21748558
86	0xbe324d38	-0.17412269
87	0x3d779d92	0.060453005
88	0x3d698391	0.057010237
89	0xbcca096b	-0.024662694
90	0xbd223489	-0.039600883
91	0xbe1673c3	-0.14692597
92	0x3d3b1d5c	0.045682296
93	0xbdf26ee2	-0.118375555
94	0xbdd1a037	-0.10235637
95	0x3e54c241	0.20777227
96	0xbd15b34c	-0.036547944
97	0xbda58a26	-0.0808299
98	0xbda11de2	-0.07867028
99	0xbdcc0700	-0.09962273
100	0x3db89a42	0.09013797
101	0xbd882e15	-0.066494144
102	0x3c8bd0d3	0.017067349
103	0x3d83db85	0.064383544
104	0xbd8d247e	-0.06891726
105	0xbdb56e2d	-0.08858905
106	0x3dd07d6a	0.10180171
107	0x3d6d00b8	0.057862014
108	0xbdb459bc	-0.08806178
109	0xbe11254f	-0.14174388
110	0xbdcf47e5	-0.10121135
111	0xbe1bbbfa	-0.15208426
112	0x3d46b819	0.048515413
113	0xbc521603	-0.012822631
114	0xbe7d1f58	-0.24718988
115	0xbdb58913	-0.088640355
116	0xbc91e6f3	-0.01781032
117	0x3c14d345	0.009083574
118	0x3cc5e0a3	0.024154967
119	0x3c9491c1	0.018135907
120	0x3d211285	0.039324302
121	0xbdd5bb8e	-0.10436164
122	0xbe5a5051	-0.21319701
123	0x3e0c06d2	0.13674477
124	0x3db63405	0.08896641
125	0xbc9c211b	-0.019058755
126	0x3e1c4bc3	0.15263276
127	0x3bebbec2	0.007194371
128	0x3d907026	0.070526406
129	0x3d6b3764	0.05742587
130	0x3b4ee1a7	0.0031567605
131	0x3d4164cd	0.04721527
132	0xbcc2e583	-0.02379108
133	0x3e054eda	0.1301836
134	0x3da06a4f	0.07832777
135	0xbe1cac38	-0.15300071
136	0xbd60ab71	-0.054851
137	0x3dcd3d93	0.1002151
138	0x3c058206	0.008148676
139	0x3cb722d0	0.022355467
140	0xbcfc3c92	-0.0307906
141	0x3d8a3fc1	0.06750441
142	0xbdd1f0d0	-0.102510095
143	0x3d3e75c9	0.046499047
144	0xbe031077	-0.1279925
145	0x3de90289	0.11377437
146	0x3e1059ec	0.14096802
147	0x3d2ad771	0.041709367
148	0xbd812c81	-0.063073166
149	0xbd14903d	-0.03627037
150	0xbcf9ee1b	-0.030509045
151	0x3cdd7ff3	0.02703855
152	0xbdbba230	-0.09161794
153	0x3d25806a	0.04040567
154	0x3db03854	0.08604494
155	0xbc86b8d3	-0.016445553
156	0x3c5f4067	0.013626195
157	0x3d49939d	0.04921304
158	0x3e0c9198	0.13727415
159	0x3b191e24	0.0023363912
160	0x3d8d376a	0.06895335
161	0xbc486aae	-0.012232466
162	0xbbc8da84	-0.0061295647
163	0xbcf390e8	-0.029732183
164	0x3ceebaf1	0.029141875
165	0xbba2358b	-0.0049502305
166	0x3d20367c	0.03911446
167	0x3d76ae98	0.0602251
168	0xbdd4dee9	-0.10394079
169	0xbd24349f	-0.040089246
170	0xbd4ac6e3	-0.04950608
171	0x3b0a16f0	0.00210708
172	0xbc03d9b8	-0.008047514
173	0x3c548548	0.01297123
174	0x3c3db1b5	0.011578013
175	0x3e0d45eb	0.13796203
176	0x3e2bdad3	0.16782694
177	0x3d8ed384	0.06973937
178	0x3e11986e	0.14218304
179	0xbcb18350	-0.02166906
180	0x3e02f8f2	0.12790278
181	0x3df3e329	0.11908562
182	0x3c74beba	0.014938051
183	0x3d7054c9	0.058674607
184	0xbe021ebf	-0.12707041
185	0x3e00d620	0.12581682
186	0x3d65c020	0.056091428
187	0x3d2f9ee1	0.042876128
188	0xbdcc2b57	-0.09969204
189	0x3d069a14	0.032861784
190	0xbdfb6a91	-0.12276185
191	0x3c903a31	0.017605873
192	0x3da1af71	0.07894791
193	0xbeb076dc	-0.34465683
194	0xbe567b46	-0.20945463
195	0xbe052a9a	-0.13004532
196	0xbdde1bb6	-0.10845129
197	0xbdb94cec	-0.09047875
198	0xbdc53500	-0.096292496
199	0xbe8e366a	-0.2777589
200	0x3c187fe6	0.009307837
201	0x3e958360	0.29201794
202	0x3dd372ef	0.10324656
203	0xbda24c06	-0.079246566
204	0x3db898b3	0.090135
205	0x3c5af9dc	0.013365235
206	0x3d2fe3d4	0.042941883
207	0xbdbc9809	-0.09208686
208	0x3d097b8f	0.0335651
209	0x3dda2abc	0.10652682
210	0x3ef1bcb8	0.47214293
211	0x3e798f43	0.24371056
212	0xbddac3fd	-0.10681913
213	0xbd2ac3bd	-0.041690577
214	0xbe208f99	-0.15679778
215	0x3dfb1fac	0.122619
216	0xbe1fbc58	-0.15599191
217	0x3d0aab75	0.03385492
218	0xbd8063f6	-0.06269066
219	0xbde16712	-0.11005987
220	0xbd6632d9	-0.056200836
221	0x3ccd806d	0.025085652
222	0x3dd10703	0.102064155
223	0xbd5033bc	-0.050830588
224	0x3d6ebd8f	0.058286246
225	0x3a06d60b	0.0005143589
226	0x3db0e106	0.0863667
227	0x3e0d95a6	0.13826618
228	0x3d83ee47	0.06441932
229	0x3b00547e	0.0019581611
230	0x3cf4a73b	0.029864898
231	0x3d046889	0.032326255
232	0xbd9d11d2	-0.076694146
233	0xbd3b965c	-0.04579769
234	0x3c129343	0.008946243
235	0xbd459e14	-0.04824646
236	0x3d202e97	0.03910693
237	0x3d9c0307	0.07617765
238	0x3e22c505	0.1589547
239	0xbe130861	-0.14358665
240	0x3d885708	0.06657225
241	0xbd94d9c8	-0.07268101
242	0xbc8133e5	-0.015771816
243	0x3e1b04c2	0.15138534
244	0x3dbadd11	0.09124196
245	0xbd49df1f	-0.04928505
246	0xbdc655c6	-0.09684329
247	0xbdba5874	-0.09098902
248	0x3c48565a	0.012227619
249	0x3cfafec2	0.030639056
250	0xbdd580f8	-0.104249895
251	0x3ddc686e	0.10762106
252	0xbdeb1a07	-0.11479574
253	0x3da84283	0.08215811
254	0x3bb373f1	0.005476468
255	0xbe279d6e	-0.16368648

layers.0.node_net.0.bias f4 [32]
0	0x3c39ce1d	0.011340645
1	0x3da9b74b	0.082869135
2	0x3d963d47	0.073359065
3	0x3e14bcd4	0.14525157
4	0xbd21bb0b	-0.03948502
5	0x3de8683b	0.113480054
6	0xbda11f7b	-0.078673325
7	0x3e0de018	0.13855016
8	0x3df01e5b	0.1172454
9	0x3d11fe02	0.03564263
10	0x3c8103cc	0.01574888
11	0x3dcf67d5	0.10127226
12	0x3c1615e1	0.00916049
13	0xbce084cf	-0.027407078
14	0x3d893b3b	0.067007504
15	0x3db4f088	0.0883494
16	0xbd90f023	-0.070770524
17	0x3d93ed7e	0.072230324
18	0x3e15aeed	0.1461751
19	0x3e3f5eac	0.18688458
20	0xbdf5127c	-0.11966416
21	0xbd9bd30f	-0.076086156
22	0xbe10541b	-0.14094584
23	0xbd86ad93	-0.065760754
24	0xbd97bd56	-0.0740916
25	0xbdf8c69a	-0.12147255
26	0xbab1f7b1	-0.0013577846
27	0xbcd5fcbb	-0.026121488
28	0xbd1d94b1	-0.03847188
29	0xbd5f3d4d	-0.05450182
30	0xbd5cfd1f	-0.053952333
31	0xbdc12b23	-0.09432056
