Other/Clean/models/no_xavier3_6_64.pth (torch, 90556 bytes, 14 tensors)

network.0.weight f4 [64, 2]
0	0x3ea08c68	0.3135712
1	0xbeeeaabb	-0.46614632
2	0x3e99bcb9	0.30026796
3	0x3ef5373e	0.4789371
4	0x3ddbd4fe	0.107339844
5	0x3f364860	0.71204185
6	0x3f462427	0.77398914
7	0xbf85b43f	-1.0445632
8	0xbe0b1eff	-0.13586043
9	0xbea4e5dc	-0.3220662
10	0x3f2398d9	0.639051
11	0xbf08938a	-0.53350127
12	0xbe8e61b5	-0.2780892
13	0xbf08a17d	-0.5337141
14	0xbe49e15a	-0.19714871
15	0xbd123555	-0.035695393
16	0x3f15be19	0.5849319
17	0x3d38b604	0.04509546
18	0xbed2785a	-0.41107446
19	0xbd6451ff	-0.05574226
20	0x3ed94c8b	0.4244121
21	0xbf79cd98	-0.97579336
22	0x3e9c915d	0.30579653
23	0x3effda05	0.49971023
24	0x3ef02a0a	0.46907073
25	0x3d8c811c	0.06860563
26	0x3f0d69eb	0.55239743
27	0xba7b9030	-0.0009596376
28	0xbee46e13	-0.4461523
29	0x3e8dc589	0.2768977
30	0x3e97f973	0.29682502
31	0x3f322b98	0.6959777
32	0x3ec78bf5	0.38973966
33	0xbf781dc4	-0.9692042
34	0xbf546fe4	-0.8298323
35	0x3ee2db43	0.44307908
36	0x3f17b506	0.59260595
37	0x3e0c6c74	0.13713247
38	0x3eda3cc6	0.4262449
39	0xbf954c2a	-1.1663868
40	0xbdde13bf	-0.1084361
41	0x3e7095b6	0.2349461
42	0xbe878710	-0.26470232
43	0xbefbe4bb	-0.49197945
44	0x3f11344f	0.5672044
45	0xbd4829bc	-0.048867926
46	0x3f0140a2	0.50489247
47	0xbe66c7f8	-0.2253722
48	0xbe306bed	-0.1722867
49	0x3c78af00	0.015178442
50	0xbe963c98	-0.29343104
51	0xbce0889b	-0.027408889
52	0x3dcb9390	0.09940255
53	0x3f163587	0.58675426
54	0xbf1ec600	-0.62020874
55	0x3e8449a6	0.2583744
56	0xbd67f493	-0.05662973
57	0xbe784cb3	-0.24248008
58	0x3eb076a2	0.3446551
59	0x3f133e2b	0.57516736
60	0xbf36d6e6	-0.7142166
61	0x3e92f108	0.28699517
62	0x3ef59263	0.47963247
63	0xbf9f08b3	-1.242453
64	0x3dee96b8	0.11649841
65	0xbf958407	-1.1680917
66	0x3e115c63	0.14195399
67	0x3e4c5b29	0.1995665
68	0x3d1909f4	0.037363008
69	0xbe4a83e5	-0.19776876
70	0x3f128962	0.5724088
71	0xbe523f35	-0.20531924
72	0xbe79f347	-0.24409209
73	0xbee42279	-0.4455755
74	0x3dfe6ecf	0.12423479
75	0xbdaa4490	-0.083138585
76	0x3ed8852a	0.42289096
77	0xbf431ecf	-0.76218885
78	0xbd54f50b	-0.051991504
79	0xbf4478f1	-0.7674704
80	0x3fbc2c95	1.4701105
81	0x3f544299	0.8291412
82	0xbefed851	-0.4977441
83	0xbf2e4d8a	-0.68087065
84	0x3ff04a5b	1.8772691
85	0x3eca94af	0.39566562
86	0xbe075249	-0.13214983
87	0x3f5a3e2e	0.8525113
88	0xbea35c0c	-0.31906164
89	0xbe514d47	-0.20439635
90	0xbf0e1dc1	-0.5551415
91	0x3eccfa2d	0.4003462
92	0x3e2a07f6	0.166046
93	0xbf2962d1	-0.66166407
94	0x3f308042	0.68945706
95	0xbed7a2ab	-0.42116293
96	0x3ef2348e	0.4730572
97	0x3f09d730	0.53843975
98	0x3ecd50e2	0.4010077
99	0xbed86421	-0.42263892
100	0x3f3c31de	0.7351359
101	0xbf3e320a	-0.74295104
102	0x3c08530f	0.008320584
103	0xbf0dbb88	-0.55364275
104	0x3f1d957b	0.61556214
105	0xbe93516a	-0.28773052
106	0xbedc53a3	-0.4303256
107	0x3e9564cf	0.29178473
108	0x3f2291b3	0.6350357
109	0xbead57d9	-0.33856085
110	0x3e0e6a74	0.13907796
111	0x3e33324e	0.17499658
112	0x3f1ef05b	0.62085503
113	0xbeff4a8f	-0.4986157
114	0x3f165579	0.5872417
115	0xbf58fc9e	-0.84760463
116	0xbf415fb2	-0.75536644
117	0x3f273416	0.6531385
118	0x3e406e9a	0.18792191
119	0xbf48b982	-0.7840806
120	0xbe788d35	-0.24272616
121	0x3f3f834c	0.7480972
122	0x3dee6196	0.11639707
123	0xbf2ab20d	-0.66677934
124	0x3f12744c	0.57208705
125	0x3e0a0c83	0.13481335
126	0x3e090fee	0.13384983
127	0x3ea30d19	0.3184593

network.0.bias f4 [64]
0	0xbe5dfa5e	-0.21677539
1	0xbf2265c7	-0.6343655
2	0xbf240f8b	-0.64086217
3	0x3c88b616	0.016688388
4	0x3f075ebc	0.5287893
5	0xbe371fe9	-0.17883267
6	0x3e8b26cd	0.2717804
7	0x3e8ba6ed	0.27275792
8	0xbf38e9d0	-0.7223177
9	0x3f0e87bc	0.55675864
10	0x3e14329d	0.14472432
11	0xbf4082c1	-0.75199515
12	0xbf21fcdc	-0.6327646
13	0xbed768b1	-0.4207206
14	0xbe3f71a4	-0.18695694
15	0xbf38d726	-0.7220329
16	0x3eb0d74c	0.34539258
17	0x3ed739f5	0.42036405
18	0xbf36319f	-0.71169466
19	0x3ee0eadf	0.43929192
20	0xbe96ebdc	-0.2947682
21	0xbe0cbf73	-0.13744907
22	0xbf1e1e52	-0.61765015
23	0x3d8b628c	0.06805906
24	0x3e1074ac	0.14107007
25	0xbe3079e9	-0.17234005
26	0xbf188d71	-0.5959082
27	0x3e9e401b	0.30908284
28	0x3ef6e519	0.48221663
29	0xbf5a94ee	-0.853835
30	0x3f147674	0.57993245
31	0x3eab0e43	0.33409318
32	0x3f13a26f	0.5766973
33	0xbf0eaab4	-0.5572922
34	0x3ed99f05	0.42504135
35	0xbc89ba2c	-0.016812406
36	0x3f12c188	0.57326555
37	0xbeba0433	-0.3633133
38	0x3e6fe870	0.23428512
39	0x3f1f83e6	0.62310636
40	0xbd76b244	-0.0602286
41	0x3f5fab89	0.87371117
42	0x3eb45531	0.35221246
43	0xbee5f0b6	-0.4491021
44	0x3f1891e0	0.5959759
45	0x3ee2863a	0.44243032
46	0xbe4b9044	-0.19879252
47	0xbeaa666e	-0.33281273
48	0xbf5c71cb	-0.86111134
49	0xbea810b9	-0.32825258
50	0xbd5a8378	-0.053348035
51	0x3f1d1440	0.61359024
52	0xbe4b72eb	-0.19868056
53	0x3e3d27ca	0.1847221
54	0xbd07c9cb	-0.03315143
55	0x3d031489	0.032002006
56	0xbeb4a7a0	-0.35284138
57	0xbe66b631	-0.22530438
58	0x3e185616	0.14876589
59	0x3ee98c01	0.45614627
60	0xbd318824	-0.043342724
61	0x3ecfaa19	0.40559462
62	0xbf4fa0c1	-0.81104666
63	0xbf1d6361	-0.61479765

network.2.weight f4 [64, 64]
0	0x3ddf1094	0.10891834
1	0x3e5e1660	0.21688223
2	0x3f513577	0.81722206
3	0xbe72a45f	-0.23695515
4	0xbef2f721	-0.4745417
5	0xbe443202	-0.19159701
6	0xbcd438b3	-0.025905943
7	0x3db8f6c5	0.090314426
8	0x3e0dc3a8	0.13844168
9	0xbd591edc	-0.053007945
10	0xbe2ced46	-0.16887388
11	0x3ef718a4	0.48260987
12	0x3e2f62e5	0.17127569
13	0xbd03e9e9	-0.032205496
14	0x3e3b656f	0.18300413
15	0x3f3c35f6	0.7351984
16	0xbda00c66	-0.07814865
17	0xbde75cf6	-0.11297028
18	0x3e9abe23	0.30223188
19	0xbe279aca	-0.16367641
20	0x3e7f3ef5	0.2492636
21	0x3e8f509c	0.27991188
22	0x3e8a062e	0.2695784
23	0xbe952d62	-0.29136187
24	0x3e5b8f03	0.21441273
25	0x3e86e932	0.2634979
26	0x3eafd5ae	0.34342712
27	0xbcbb0293	-0.022828376
28	0xbe6c0603	-0.23049168
29	0x3f07a06f	0.5297918
30	0xbdb29519	-0.08719844
31	0xbea80cf3	-0.3282238
32	0xbee9f856	-0.45697278
33	0x3e8124c0	0.2522335
34	0xbee7e2a5	-0.45290104
35	0xbe7dbd4b	-0.24779241
36	0xbe7b14fb	-0.24519722
37	0x3e04c0a0	0.12964106
38	0xbeca7b94	-0.39547408
39	0xbf6ed063	-0.9328672
40	0xbe5b7da6	-0.2143465
41	0xbed98a18	-0.4248817
42	0xbe7d02ef	-0.2470815
43	0x3e5946b3	0.21218376
44	0xbeae87f7	-0.34088108
45	0xbdbc1a3a	-0.0918469
46	0xbdd02aec	-0.10164437
47	0xbcb9dbf1	-0.022687884
48	0x3f1088b3	0.56458586
49	0x3de647a0	0.1124413
50	0xbe7f3dd9	-0.24925937
51	0xbf210a30	-0.6290617
52	0xbe86e175	-0.26343885
53	0x3e36527e	0.17804906
54	0xbe6b3f05	-0.22973259
55	0xbdb90e11	-0.09035886
56	0x3d8c483d	0.06849716
57	0x3de29aa6	0.11064653
58	0xbd7cb08a	-0.0616918
59	0xbf3d2ed4	-0.7389958
60	0x3e06af68	0.1315285
61	0xbe3e5b53	-0.18589525
62	0x3e12f0e6	0.14349708
63	0x3e3163a8	0.17323172
64	0xbdb0e2e9	-0.0863703
65	0x3cdda790	0.02705744
66	0x3e90b98c	0.2826656
67	0xbe2e21d0	-0.17005086
68	0xbe3afd50	-0.18260694
69	0xbcac347a	-0.021021117
70	0xbd7fe1a3	-0.062471043
71	0xbd1820d0	-0.037140667
72	0x3ceb35f6	0.028712254
73	0x3d5fd074	0.054642156
74	0xbdd856d1	-0.10563434
75	0x3e308a72	0.17240313
76	0x3d082df4	0.03324695
77	0x3e0b2af7	0.13590609
78	0xbe2f05b6	-0.17092022
79	0x3e5fc9b2	0.21854284
80	0xbe6622a0	-0.22474146
81	0xbcd47722	-0.025935713
82	0x3da1512a	0.07876809
83	0xbe5a899e	-0.2134156
84	0xbdd7ebbd	-0.105430104
85	0xbdae9b31	-0.08525694
86	0x3dd9d3f6	0.106361315
87	0x3cadbee4	0.021209188
88	0xbcefb574	-0.029261328
89	0xbe0236e8	-0.12716258
90	0x3ea2a052	0.3176294
91	0xbced05e3	-0.028933471
92	0x3df4630c	0.11932954
93	0x3e797a27	0.24363004
94	0xbdbbb7bd	-0.09165905
95	0xbea46481	-0.32107928
96	0xbea807b2	-0.3281837
97	0x3d70fca5	0.05883469
98	0x3e30afc7	0.17254554
99	0x3dc89cfb	0.09795567
100	0xbe9404de	-0.28909963
101	0x3d35c531	0.04437751
102	0xbe68c1e1	-0.22730209
103	0xbecd52ec	-0.40102327
104	0x3cdac77c	0.02670645
105	0xbe8bdeb2	-0.2731834
106	0x3c84781d	0.016170556
107	0x3dd17da7	0.102290444
108	0xbc83f4cb	-0.016107937
109	0x3e183292	0.14863041
110	0xbec850e2	-0.3912421
111	0x3dbc7e44	0.09203771
112	0x3e0ec570	0.13942504
113	0xbe0bcb3d	-0.13651748
114	0xbd3c2d0a	-0.04594139
115	0xbe787da1	-0.24266674
116	0x3e8becf6	0.27329224
117	0xbdf17d06	-0.117914245
118	0x3df8a6d3	0.12141194
119	0x3e81a5ee	0.25321907
120	0xbdac2b1c	-0.0840666
121	0x3e139a85	0.14414413
122	0xbbda201c	-0.0066566598
123	0xbe260c22	-0.16215566
124	0x3e5e9bc1	0.21739103
125	0xbdf833e0	-0.12119269
126	0x3e17ca40	0.14823246
127	0x3df6f31b	0.120580874
128	0xbe5a01ee	-0.21289799
129	0xbd9874d0	-0.07444155
130	0x3e8022de	0.25026602
131	0xbe89d5db	-0.2692097
132	0xbc679be3	-0.014136287
133	0xbe468a4b	-0.19388692
134	0x3d269224	0.040666714
135	0x3e630cf3	0.22172908
136	0xbe0037c0	-0.12521267
137	0x3b43fd4b	0.0029905613
138	0xbe94a682	-0.29033285
139	0xbd2e38cc	-0.042534634
140	0xbdb6ad4a	-0.08919771
141	0x3da88ce1	0.082299955
142	0xbe29841c	-0.16554302
143	0x3e8fdf94	0.28100264
144	0xbea37efb	-0.31932816
145	0x3c6e1678	0.014531724
146	0xbd9dbe2c	-0.07702288
147	0xbece5697	-0.40300438
148	0xbc81eae5	-0.015859077
149	0xbe9e6d43	-0.30942735
150	0x3c4a0f9e	0.012332825
151	0xbd6723f5	-0.056430776
152	0x3d25a24f	0.040437993
153	0xbe63fc1f	-0.22264145
154	0x3dcd921c	0.10037634
155	0x3e55042d	0.20802374
156	0x3e58a382	0.21156123
157	0x3e4ce55d	0.2000937
158	0x3e704d8a	0.23467079
159	0xbed4a63b	-0.41533074
160	0xbeb929ec	-0.36164796
161	0xbd95da64	-0.07317045
162	0x3e159b4a	0.1461002
163	0x3d3a3f73	0.045470666
164	0x3d027d12	0.031857558
165	0xbe192cc5	-0.14958484
166	0xbe1bc6a9	-0.15212502
167	0xbe83b912	-0.25727135
168	0x3d88d296	0.06680791
169	0x3c694329	0.014237204
170	0xbd3fd3c9	-0.046832833
171	0xbcebd322	-0.0287872
172	0xbcab0442	-0.020876054
173	0x3dcef914	0.10106102
174	0xbe4716a5	-0.19442232
175	0xbe08cde9	-0.13359798
176	0x3dcb439d	0.099250056
177	0xbe0b254f	-0.13588451
178	0xbdaa72c0	-0.08322668
179	0xbd2782fb	-0.040896397
180	0xbd60ccaf	-0.0548827
181	0x3d25badc	0.040461406
182	0xbd767ded	-0.060178686
183	0x3e0529c7	0.13004218
184	0xbe8dc58e	-0.27689785
185	0x3d62dacc	0.055384442
186	0x3e597f05	0.2123986
187	0xbed8e92a	-0.4236539
188	0x3e2998da	0.16562214
189	0xbe509ffb	-0.20373528
190	0xbdcc60c1	-0.09979392
191	0x3cdc84a4	0.026918717
192	0x3d3edb89	0.046596084
193	0xbe3e7d6d	-0.18602534
194	0xbd23ad4f	-0.0399602
195	0x3c6104f5	0.013734092
196	0xbd190074	-0.037353948
197	0xbe15f894	-0.14645606
198	0x3de14e89	0.110013075
199	0x3d642e01	0.055707935
200	0x3c368e76	0.011142364
201	0xbc47fe76	-0.012206664
202	0x3d0c07d6	0.03418716
203	0xbd0561af	-0.03256386
204	0xbd65fd1d	-0.05614959
205	0xbd580d5e	-0.052747123
206	0x3d821ce2	0.06353165
207	0xbe88c6ca	-0.26714164
208	0x3a8ae5dd	0.0010597069
209	0x3e2210f7	0.15826784
210	0xbd142366	-0.03616657
211	0x3daffc43	0.08593037
212	0xbdaa0ac4	-0.08302835
213	0x3d7b3281	0.06132746
214	0xbd2f0241	-0.04272676
215	0xbd666361	-0.05624712
216	0xbda1fa29	-0.079090424
217	0x3da8c693	0.08241
218	0xbdecfde0	-0.1157186
219	0xbaa19f67	-0.0012330831
220	0xbba0278b	-0.0048875264
221	0xbe8b1343	-0.27163133
222	0xbbce0748	-0.006287489
223	0x3e017a38	0.12644279
224	0x3e420595	0.18947442
225	0xbe23a1c0	-0.15979671
226	0x3c5f3c91	0.01362528
227	0x3dd81224	0.10550335
228	0xbd25238b	-0.0403171
229	0xbd58ba20	-0.052911878
230	0x3dfd4634	0.12366906
231	0x3ced11af	0.028939096
232	0x3ce4b82d	0.027919853
233	0x3dfc8b95	0.12331311
234	0xbe1865fc	-0.14882654
235	0x3cbd352e	0.023096647
236	0x3e3afc31	0.18260266
237	0xbcf9105a	-0.030403305
238	0xbd87159a	-0.06595917
239	0x3dbbd718	0.09171885
240	0xbde02d9d	-0.109462
241	0xbd23d49b	-0.03999768
242	0xbd473491	-0.048634116
243	0x3e012744	0.12612635
244	0x3dd888bc	0.10572955
245	0x3df2201c	0.118225306
246	0xbc588019	-0.013214135
247	0xbdc7a241	-0.09747744
248	0xbcc40e5e	-0.023932632
249	0x3e098438	0.13429344
250	0x3d2d18e1	0.042260054
251	0x3dca9c36	0.09893076
252	0xbc1a9b1c	-0.009436395
253	0x3dcd0dfc	0.10012433
254	0xbc8c4313	-0.017121827
255	0xbe3b83ff	-0.18312071

network.2.bias f4 [64]
0	0xbe779cd7	-0.24180923
1	0xbd47497a	-0.048654057
2	0xbd0bc87a	-0.034126736
3	0xbe02d2a3	-0.12775664
4	0x3db8e3da	0.09027834
5	0x3d1218e5	0.035668273
6	0x3de60007	0.11230474
7	0xbe39dd0b	-0.18150727
8	0xbe357ff8	-0.17724597
9	0xba1cd323	-0.00059823896
10	0x3e499080	0.19684029
11	0xbe4d899a	-0.20072022
12	0xbf15d7ff	-0.5853271
13	0xbe15f0fb	-0.14642708
14	0xbb818595	-0.003952692
15	0x3ea046a6	0.313039
16	0x3e5871fe	0.21137235
17	0xbc8b1764	-0.016978927
18	0x3e6372ac	0.22211713
19	0xbe576c4b	-0.21037404
20	0x3e4d2b60	0.20036077
21	0x3d3b6f6f	0.04576057
22	0xbe24a850	-0.16079831
23	0x3c8ce57b	0.017199269
24	0x3e8efbf2	0.27926594
25	0x3da59f5f	0.08087038
26	0xbe32fa37	-0.17478262
27	0xbdfaa3de	-0.122382864
28	0x3daa90c4	0.08328393
29	0x3d6dbb38	0.058039874
30	0x3e60fd18	0.21971548
31	0xbe36e4f6	-0.17860779
32	0x3de8ee98	0.11373633
33	0x3e0f87a9	0.14016594
34	0x3de1f9c4	0.11033967
35	0xbe9750bf	-0.29553792
36	0x3e7f1808	0.24911511
37	0xbc8651a2	-0.016396347
38	0x3d8b9d11	0.068170674
39	0x3d00395a	0.031304695
40	0xbdafa3f0	-0.085761905
41	0xbe8d358a	-0.2757991
42	0xbcdecf0d	-0.027198339
43	0x3dc5db39	0.09660954
44	0xbc294272	-0.010330783
45	0xbe3c25f0	-0.18373847
46	0x3e34070f	0.17580818
47	0x3e467916	0.19382128
48	0x3e7c6075	0.2464617
49	0xbe93b8e2	-0.28851992
50	0xbe350b17	-0.17680012
51	0xbe956adf	-0.291831
52	0x3d8a28df	0.06746077
53	0x3e8efa01	0.27925113
54	0x3e8381e4	0.25685036
55	0xbd3435d3	-0.043996643
56	0x3c6a3570	0.014294967
57	0xbebbed6f	-0.36704585
58	0xbc99e97f	-0.018788097
59	0xbe3e56cf	-0.18587802
60	0xbec997c1	-0.39373592
61	0xbe057c05	-0.13035591
62	0x3e800676	0.2500493
63	0xbd8d7230	-0.06906545

network.4.weight f4 [64, 64]
0	0x3c09098c	0.008364093
1	0xbd8742ac	-0.066045135
2	0xbdb601ce	-0.08887063
3	0x3dc6538f	0.09683906
4	0x3db2afcf	0.08724939
5	0xbe069f73	-0.13146763
6	0xbd163259	-0.03666911
7	0x3d2801db	0.041017395
8	0xbe6a913a	-0.22906962
9	0x3cda2b54	0.026631989
10	0x3e132d66	0.14372787
11	0xbdc17268	-0.094456494
12	0xbe2ab150	-0.16669202
13	0xbd8705a2	-0.06592871
14	0x3d1adca3	0.03780807
15	0x3e80673d	0.25078765
16	0xbe1d65c5	-0.15370853
17	0xbd0ff443	-0.035145056
18	0x3cf20e32	0.029547784
19	0x3dbbba6c	0.091664165
20	0x3dd15536	0.10221331
21	0x3cf74882	0.030185942
22	0xbd4013f4	-0.04689403
23	0x3db92959	0.090410896
24	0xbe2d40a4	-0.1691919
25	0x3d59ac74	0.05314298
26	0xbd9a032b	-0.075201355
27	0x3c99864a	0.018740792
28	0x3d5badd3	0.05363257
29	0x3d926f84	0.07150176
30	0x3e74752b	0.23872821
31	0x3b097f38	0.002098037
32	0x3e3aad67	0.1823021
33	0xbea9a852	-0.3313623
34	0xbe94fee8	-0.29100728
35	0xbd9183c8	-0.071052134
36	0x3df1ed30	0.11812818
37	0x3d3b30fc	0.045701012
38	0xbcbfe680	-0.02342534
39	0xbc8db957	-0.017300291
40	0xbe2fb369	-0.17158283
41	0x3d19324d	0.037401486
42	0xbdd952d2	-0.106115
43	0xbe6c0aaf	-0.2305095
44	0xbdd18306	-0.10230069
45	0x3cf551bb	0.029946199
46	0x3d64b1b2	0.055833526
47	0xbe2d2ca0	-0.16911554
48	0x3ca57d55	0.020201365
49	0x3d8ed1a8	0.069735825
50	0x3d922d0b	0.071374975
51	0xbd85aac0	-0.065267086
52	0x3deb5810	0.11491406
53	0x3d8c493c	0.06849906
54	0x3e9df636	0.30851907
55	0x3cb381d5	0.021912495
56	0x3afadd4b	0.0019139437
57	0x3ea30f59	0.31847647
58	0xbde0dbaf	-0.10979401
59	0xbe2241d9	-0.15845431
60	0x3a6450e9	0.00087095663
61	0x3e3b6733	0.18301086
62	0x3e70ce7a	0.23516265
63	0xbd828e61	-0.06374813
64	0x3e7cd14c	0.24689215
65	0x3e865443	0.26236162
66	0xbe8a402f	-0.27002093
67	0x3c5b335a	0.013378942
68	0xbe4180f2	-0.18896845
69	0x3dbc15de	0.09183858
70	0x3d8fee90	0.07027924
71	0xbed3886b	-0.41315016
72	0x3d940806	0.07228093
73	0xbe36fb9f	-0.17869423
74	0xbeb70322	-0.35744578
75	0xbe803abf	-0.2504482
76	0xbf8dda4a	-1.1082242
77	0xbed1c546	-0.4097082
78	0xbd2315a8	-0.039815575
79	0x3f084d44	0.532429
80	0x3d39d233	0.045366477
81	0x3ea174fd	0.31534567
82	0xbd5cc23a	-0.053896166
83	0xbe0d71ec	-0.13812989
84	0x3e58e14d	0.21179695
85	0x3c6c1712	0.014409797
86	0x3e3c7ac9	0.18406214
87	0x3e665505	0.2249337
88	0x3f5d6ac1	0.8649102
89	0xbc3ac4ec	-0.011399489
90	0xbe7c70b2	-0.24652365
91	0x3e8ed031	0.27893212
92	0x3d2e74a9	0.042591725
93	0xbdf41e69	-0.11919863
94	0xbe93404f	-0.2876
95	0x3e02ecac	0.12785596
96	0xbe697033	-0.22796707
97	0x3e31ba93	0.17356329
98	0x3e63847b	0.22218506
99	0xbd893b7a	-0.067007974
100	0xbdcdc589	-0.100474425
101	0x3e983a78	0.29732108
102	0x3c7fa3ae	0.015602989
103	0x3cb74fba	0.022376884
104	0x3e955c00	0.29171753
105	0x3d071d60	0.032987
106	0x3f24b95b	0.6434533
107	0x3ed0571e	0.40691465
108	0xbdcc964e	-0.09989606
109	0xbd9cfb98	-0.07665175
110	0x3e7c394c	0.24631232
111	0x3ec0ef13	0.376824
112	0x3e5088d6	0.20364699
113	0xbe9f548c	-0.31119192
114	0xbe475a88	-0.19468129
115	0x3e9ebe57	0.31004593
116	0xbe11779b	-0.14205782
117	0x3e6cdb04	0.23130423
118	0xbed78c7e	-0.42099375
119	0xbdbf3ace	-0.09337388
120	0xbe02a932	-0.12759855
121	0xbf6fbf6c	-0.9365146
122	0x3e7192aa	0.23591104
123	0x3eb8714d	0.36023942
124	0x3e9a79a1	0.3017092
125	0xbd4c177b	-0.04982708
126	0x3e40fedc	0.18847221
127	0x3ded1ab9	0.115773626
128	0xbe0446d9	-0.12917651
129	0xbbdcd15f	-0.006738826
130	0xbdcca8c1	-0.09993125
131	0x3dd114b9	0.10209031
132	0x3d342386	0.04397919
133	0xbd71b6a0	-0.059012055
134	0xbdd082e8	-0.101812184
135	0xbe029074	-0.12750417
136	0x3dc4a4fd	0.096017815
137	0x3cd12a04	0.02553273
138	0x3d4b4563	0.04962672
139	0xbe384c26	-0.17997798
140	0xbec3d54e	-0.38248676
141	0xbd8bf243	-0.06833317
142	0x3d997c24	0.07494381
143	0x3e89f74c	0.26946485
144	0xbd76af18	-0.060225576
145	0x3e4058cf	0.18783878
146	0xbc98ac22	-0.018636767
147	0x3e466957	0.19376121
148	0x3e3f1816	0.18661532
149	0xbdc206e7	-0.09473973
150	0x3c759da7	0.0149912005
151	0xbca5bb7f	-0.020231007
152	0x3e74cefd	0.23907085
153	0xbc7128e1	-0.014719219
154	0xbe68fecf	-0.22753452
155	0xbd6972dc	-0.056994304
156	0x3cb0c53f	0.02157843
157	0xbcb3e8c3	-0.021961575
158	0x3e261341	0.16218282
159	0x3f32b9e5	0.698149
160	0xbd14dcff	-0.03634357
161	0xbd9ed544	-0.07755521
162	0x3e49bcf2	0.19700983
163	0xbdc2ae1a	-0.095058635
164	0x3e08834c	0.13331336
165	0x3d82bece	0.06384049
166	0xbdc18eff	-0.094511025
167	0x3e519541	0.20467092
168	0xbcf5c79b	-0.030002406
169	0xbd9622c4	-0.0733085
170	0x3e914d0a	0.2837909
171	0x3d8f4a9c	0.069966525
172	0x3dfc2258	0.12311238
173	0x3d292d68	0.04130307
174	0x3e0ee7db	0.13955633
175	0x3daf35cb	0.08555182
176	0xbe0cf6c8	-0.13766015
177	0xbdf618de	-0.12016462
178	0xbbebc214	-0.007194767
179	0x3d9ae1d7	0.07562607
180	0xbd80f453	-0.06296601
181	0x3db2f976	0.08738987
182	0xbcbee021	-0.023300232
183	0x3cedc77d	0.029025787
184	0x3ba7713a	0.005109933
185	0xbe876b3e	-0.26449007
186	0xbe779177	-0.24176584
187	0x3c9889eb	0.018620452
188	0x3d02629a	0.031832315
189	0x3d4c7a6b	0.049921434
190	0x3e8b5e51	0.27220395
191	0x3c68c531	0.01420717
192	0xbcb0e4bd	-0.021593446
193	0x3e2ca231	0.16858746
194	0xbd83c0f2	-0.06433286
195	0xbe3064ec	-0.17225999
196	0xbdff1850	-0.12455809
197	0xbe10fd5c	-0.14159149
198	0xbdd40017	-0.1035158
199	0xbd0144d2	-0.031559773
200	0x3daac44a	0.083382204
201	0x3e3def8b	0.1854841
202	0xbd8cc986	-0.06874375
203	0xbc5fb93e	-0.013655005
204	0xbe74a08b	-0.23889367
205	0x3e1c2a1b	0.15250437
206	0xbbe074ef	-0.006849877
207	0xbe27e8a3	-0.16397338
208	0x3d88e6f1	0.066846736
209	0x3d9c9d1c	0.07647154
210	0x3d3636dd	0.044485915
211	0x3de2b2d1	0.11069263
212	0xbd777b71	-0.060420457
213	0x3dbe541c	0.09293386
214	0x3b9c454b	0.0047690026
215	0xbdcebbd9	-0.10094423
216	0x3ea583c9	0.32327107
217	0xbe220098	-0.15820539
218	0x3d8fdd29	0.07024605
219	0xbe14c80f	-0.14529441
220	0x3df5b988	0.11998278
221	0xbbc27189	-0.0059339446
222	0xbb978a1d	-0.0046246187
223	0xbeb17000	-0.34655762
224	0xbbe21302	-0.0068992386
225	0xbd784e85	-0.060621757
226	0xbd2af0a3	-0.041733395
227	0xbd4855b9	-0.048909876
228	0xbd1107ec	-0.035407946
229	0x3e8effa7	0.27929422
230	0x3d1cd635	0.03829022
231	0x3b47bb54	0.0030476646
232	0x3c0baacd	0.008524609
233	0x3d917387	0.07102113
234	0x3dd4fcdd	0.10399792
235	0xbd337a0f	-0.043817576
236	0xbe10ffd3	-0.14160089
237	0xbe37e46b	-0.17958228
238	0x3cc30711	0.02380708
239	0x3d8f36ff	0.069929115
240	0x3de502b4	0.11182156
241	0xbbb4b6df	-0.005514964
242	0x3ce5162d	0.027964676
243	0xbd56a3a0	-0.05240214
244	0xbe53cc63	-0.20683436
245	0x3ca84f39	0.020545589
246	0x3d80d254	0.06290117
247	0x3e165ba2	0.14683393
248	0x3dbcf5c7	0.09226566
249	0xbee77827	-0.45208856
250	0x3c83cd29	0.016089039
251	0xbe01057a	-0.12599745
252	0x3d9855fe	0.07438277
253	0xbdb48065	-0.08813552
254	0xbda76942	-0.08174373
255	0x3d8d8c44	0.06911519

network.4.bias f4 [64]
0	0x3e386cd2	0.18010262
1	0x3ecf8c9c	0.40536964
2	0x3d607255	0.054796536
3	0x3e9bf0d0	0.30457163
4	0x3ec41b84	0.38302243
5	0xbdb8e776	-0.09028523
6	0xbe05e5e0	-0.13075972
7	0x3e58bc8b	0.21165673
8	0xbd80ea20	-0.06294656
9	0xbe1a9633	-0.15096359
10	0x3d8bb9c4	0.06822541
11	0x3d6d5b73	0.05794854
12	0xbe9f1d00	-0.31076813
13	0xbd27749f	-0.040882703
14	0xbea6da85	-0.32588592
15	0x3e3d4cff	0.18486403
16	0x3d060aaa	0.032725014
17	0xbd5b0a34	-0.053476527
18	0xbe2ac59b	-0.16676943
19	0xbe1fc50c	-0.15602511
20	0x3ce444ee	0.0278649
21	0x3e13b7a5	0.14425524
22	0x3e89f23c	0.26942623
23	0x3e17cc88	0.14824116
24	0x3e18a039	0.1490487
25	0xbe1e23e9	-0.15443386
26	0xbe66ea13	-0.2255023
27	0x3e95a869	0.2923005
28	0x3eb59cd0	0.354712
29	0x3e64db53	0.2234929
30	0x3d1e8b78	0.038707227
31	0xbe89e65e	-0.2693357
32	0xbef9caca	-0.48787528
33	0x3e82889e	0.25494856
34	0x3e471218	0.19440496
35	0x3e176af4	0.14786893
36	0x3dae2efa	0.08505054
37	0xbea98e4a	-0.3311637
38	0xbcdd8f6e	-0.027045932
39	0x3dadabbd	0.08480022
40	0xbe97a2c6	-0.29616374
41	0xbd418ea9	-0.047255192
42	0xbe9e7879	-0.30951288
43	0xbd0955d8	-0.033529133
44	0x3e7ec4a4	0.248797
45	0x3bdc5ca8	0.0067249127
46	0x3e146ea6	0.14495334
47	0xbdf26206	-0.11835103
48	0x3e480ad7	0.19535385
49	0xbdb0baa1	-0.08629347
50	0x3b802162	0.0039102295
51	0x3e443642	0.19161323
52	0xbe8c4729	-0.2739804
53	0xbe476505	-0.1947213
54	0x3d293f8e	0.041320376
55	0xbe116789	-0.14199652
56	0x3e897765	0.26848903
57	0x3e5cb75c	0.21554321
58	0x3de1141a	0.10990162
59	0x3d3f544a	0.046711244
60	0x3d431488	0.047627002
61	0x3dae5cc3	0.08513787
62	0x3ced54fa	0.028971184
63	0xbc994d15	-0.018713513

network.6.weight f4 [64, 64]
0	0x3e60d651	0.21956755
1	0x3e310c4e	0.1728985
2	0x3ad83a4b	0.0016496865
3	0xbe9eb14b	-0.3099464
4	0x3e1bb876	0.15207085
5	0x3e33bbe1	0.17552139
6	0x3d709539	0.05873606
7	0xbdd05d9f	-0.10174107
8	0x3df1b556	0.11802165
9	0x3d5214ae	0.051289253
10	0x3e01fadd	0.12693353
11	0xbbbe599e	-0.005809023
12	0x3dfdf605	0.1240044
13	0xbd267ae3	-0.040644538
14	0x3e28511a	0.16437188
15	0xbd45a108	-0.048249274
16	0xbbec63c9	-0.0072140438
17	0xbe16a7b0	-0.14712405
18	0x3d54404f	0.051819142
19	0xbdccf8dd	-0.100084044
20	0x3dbeb258	0.0931136
21	0x3dd44782	0.103652015
22	0x3d9b9378	0.07596487
23	0x3cb5e94b	0.02220597
24	0xbe6cc69b	-0.23122637
25	0x3d4866e9	0.048926268
26	0x3e1a615e	0.15076205
27	0x3deed2fa	0.11661334
28	0x3e39d9f9	0.18149556
29	0x3e04cf25	0.12969644
30	0x3dbd453c	0.09241721
31	0xbd721d33	-0.059109878
32	0x3d83504f	0.06411802
33	0x3e7642ed	0.24048968
34	0x3d53aaff	0.051676746
35	0xbdb364b3	-0.08759441
36	0x3d5216d1	0.05129129
37	0x3cbfabb2	0.0233973
38	0x3e412e3c	0.18865293
39	0xbdc2f41e	-0.09519218
40	0x3e6b728c	0.22992915
41	0xbe4e28d1	-0.20132758
42	0xbdba78bb	-0.09105059
43	0xbecf200f	-0.40454146
44	0x3b0b4116	0.002124851
45	0xbc90e782	-0.017688517
46	0x3e24c559	0.16090907
47	0xbe318d6e	-0.17339107
48	0x3dd51fc4	0.104064494
49	0x3e681ff5	0.2266844
50	0x3c25442d	0.010087055
51	0x3d8b1580	0.0679121
52	0xbdb459bc	-0.08806178
53	0x3d205a48	0.0391486
54	0x3df9ed87	0.12203508
55	0x3d0a11a5	0.033708233
56	0x3e89d829	0.2692273
57	0x3d22cfad	0.039748836
58	0x3e7edcdc	0.24888939
59	0xbe8f34b3	-0.27969894
60	0xbe192923	-0.14957099
61	0x3d8abc7f	0.06774234
62	0xbd2ff2b7	-0.04295608
63	0x3ca16678	0.019702181
64	0x3e1f0492	0.15529087
65	0x3eb68974	0.35651743
66	0x3ba7b0a3	0.0051174923
67	0xbe300ac6	-0.1719161
68	0x3db66819	0.08906574
69	0x3cb4baf9	0.022061812
70	0xbd43b528	-0.047780186
71	0x3d19f2f3	0.03758521
72	0xbdfaae2b	-0.12240251
73	0xbdef68c1	-0.11689902
74	0x3e75fed5	0.24022992
75	0xbe1813ab	-0.14851253
76	0xbe12caf8	-0.14335239
77	0xbdf42034	-0.11920205
78	0xbd98bf9f	-0.07458424
79	0x3e834330	0.25637197
80	0x3d7387b7	0.0594556
81	0x3da408a7	0.08009463
82	0x3d481fca	0.04885844
83	0x3c6f324b	0.014599393
84	0xbd9e7736	-0.077375814
85	0x3e551521	0.20808841
86	0x3e05852d	0.13039084
87	0xbcacc0be	-0.021088
88	0x3e558e9f	0.20855187
89	0xbddc39de	-0.10753225
90	0x3d9cf44e	0.07663785
91	0xbb4a014c	-0.0030823527
92	0x3e26ac2c	0.16276616
93	0x3c89d857	0.016826792
94	0x3ea991ad	0.33118954
95	0xbd28bd32	-0.041196056
96	0xbc66edcb	-0.01409478
97	0xbe93c812	-0.2886358
98	0xbe0457a3	-0.12924056
99	0xbe0f209a	-0.1397728
100	0xbdc38b10	-0.095480084
101	0xbf0ab8de	-0.54188335
102	0xbe9f7380	-0.31142807
103	0x3e8becf8	0.2732923
104	0xbcc75e99	-0.0243371
105	0x3e39541e	0.18098494
106	0xbe6ab85e	-0.22921893
107	0x3e83346c	0.25625932
108	0x3cb0f09f	0.021599112
109	0x3ddff69c	0.10935709
110	0x3ddf8353	0.1091372
111	0xbb939c08	-0.0045046844
112	0x3e82ce72	0.2554813
113	0x3e742000	0.23840332
114	0xbe725dc6	-0.23668584
115	0x3e5134a7	0.20430242
116	0xbdfe6770	-0.12422073
117	0xbd21d602	-0.039510734
118	0x3dba7a93	0.091054104
119	0xbc409485	-0.01175416
120	0x3e1c714b	0.15277593
121	0x3d978577	0.07398503
122	0xbd129ab4	-0.035792068
123	0x3c72d47e	0.01482117
124	0x3ab67e5c	0.0013923156
125	0xbe15439f	-0.14576577
126	0xbe9e002f	-0.30859515
127	0xbe48eb01	-0.19620897
128	0xbde1baf5	-0.11021987
129	0xbe732e64	-0.23748165
130	0xbe88677b	-0.2664145
131	0x3d9ee4ac	0.077584594
132	0x3d33f2b9	0.04393265
133	0x3cdfef4b	0.027335783
134	0x3dcaa42a	0.09894593
135	0xbdd96801	-0.1061554
136	0x3de87a65	0.1135147
137	0xbd40413d	-0.046937216
138	0xbe3b4055	-0.1828626
139	0x3e340b1c	0.17582363
140	0x3e33e00e	0.17565939
141	0xbe503b45	-0.2033511
142	0xbc5c8892	-0.013460295
143	0xbc4e99e7	-0.012609935
144	0x3d84a2a8	0.06476337
145	0x3dafc2cf	0.08582079
146	0xbc4553de	-0.012043921
147	0x3ebbcb62	0.36678606
148	0xbd50cf0b	-0.0509787
149	0xbe691017	-0.22760044
150	0x3c70cb8a	0.014696965
151	0x3e289752	0.16463974
152	0x3dd57f7b	0.104247056
153	0x3e52e266	0.20594177
154	0xbe4a77da	-0.19772282
155	0xbe2ffa06	-0.1718522
156	0xbe9b212d	-0.3029875
157	0xbde530d3	-0.11190953
158	0xbe77eda9	-0.24211754
159	0x3d8c6b86	0.06856446
160	0x3e272fed	0.16326876
161	0xbefa74dc	-0.48917282
162	0xbdf36703	-0.11884882
163	0xbdb701de	-0.08935903
164	0x3df3f065	0.11911086
165	0x3ebcaa4f	0.36848685
166	0x3df78642	0.120861545
167	0xbe89a5d2	-0.26884323
168	0x3db8e18a	0.09027393
169	0xbd737a57	-0.059442844
170	0xbc1266d5	-0.00893565
171	0x3db6a7cb	0.08918723
172	0xbd694f51	-0.056960408
173	0xbe442b6a	-0.19157186
174	0xbd828d48	-0.063746035
175	0xbc761830	-0.015020415
176	0xbe823a29	-0.25434998
177	0x3d8e4211	0.06946195
178	0xbdefc8e0	-0.11708236
179	0xbe38c98d	-0.18045636
180	0x3d597808	0.053092986
181	0x3b3e9fd2	0.002908696
182	0xbe4b44e6	-0.19850501
183	0x3e369bd4	0.17832881
184	0xbd973a3a	-0.07384153
185	0x3e5c9984	0.21542937
186	0xbe5605a0	-0.20900583
187	0x3e6553da	0.22395268
188	0xbe53265f	-0.20620106
189	0x3d42405d	0.047424663
190	0x3e241cd9	0.1602663
191	0x3e04f615	0.12984498
192	0x3ba570ab	0.0050488315
193	0xbe1f0bf7	-0.15531908
194	0x3e1ed961	0.15512611
195	0xbeb43918	-0.3519981
196	0xbe2cd3c2	-0.16877654
197	0x3debc453	0.11512055
198	0xbd8647c5	-0.06556658
199	0x3db279ce	0.08714639
200	0x3e9f4d2e	0.3111357
201	0x3e2a9239	0.16657342
202	0xbe4a2a7e	-0.19742772
203	0x3e61a6a0	0.22036219
204	0x3e7b5de4	0.24547535
205	0x3d8348b9	0.06410355
206	0xbd7ef81a	-0.062248327
207	0x3ce7845f	0.028261362
208	0xbe9d0457	-0.30667374
209	0xbe99bf0e	-0.30028576
210	0xbd253ba3	-0.040340077
211	0xbdb08fb4	-0.08621159
212	0x3e2716fa	0.16317359
213	0x3e229dc5	0.15880497
214	0xbdead532	-0.11466445
215	0x3e140d17	0.14458118
216	0x3c4f96d9	0.012670242
217	0x3dc88672	0.097912684
218	0x3eb47a27	0.35249445
219	0xbe0bd5a2	-0.13655713
220	0xbcb341a6	-0.02188189
221	0xbd1a6d0b	-0.037701648
222	0xbeba45a6	-0.36381263
223	0x3e5b0521	0.21388675
224	0x3e38391a	0.17990533
225	0xbe3a5503	-0.18196492
226	0xbe8d561f	-0.27604768
227	0x3e4bc5e0	0.19899702
228	0x3d52c27d	0.05145501
229	0xbd28de17	-0.041227426
230	0x3e4a348c	0.19746608
231	0x3c83e57c	0.016100638
232	0xbe865a14	-0.262406
233	0xbeacb44b	-0.33731303
234	0x3e7a715b	0.24457304
235	0xbe50bab4	-0.20383722
236	0xbe783575	-0.24239142
237	0xbdc8cb77	-0.09804433
238	0xbd39a8a3	-0.04532684
239	0xbe061641	-0.13094427
240	0xbe8c46cf	-0.27397773
241	0x3ea784f2	0.32718617
242	0x3c13de54	0.009025175
243	0xbe0a0492	-0.13478306
244	0xbe4173a5	-0.18891771
245	0x3e6b50a0	0.22979975
246	0xbd9e97be	-0.07743786
247	0xbc3350d9	-0.010944569
248	0xbe975158	-0.29554248
249	0xbe8e7b56	-0.27828473
250	0x3e479be7	0.19493066
251	0xbe35950f	-0.17732643
252	0x3b869728	0.0041073747
253	0x3cba4b2f	0.022740928
254	0x3c90e584	0.017687567
255	0x3dd517c6	0.10404925

network.6.bias f4 [64]
0	0x3e5f5925	0.2181135
1	0x3e73d950	0.23813367
2	0xbe62b914	-0.22140914
3	0xbe4a9f98	-0.19787443
4	0x3e3817b2	0.17977789
5	0x3e858b3d	0.26082793
6	0x3d7a8829	0.06116501
7	0x3db5ec4b	0.0888296
8	0xbb366be8	-0.0027835313
9	0x38f936c8	0.00011883449
10	0xbe78c08d	-0.24292202
11	0xbdb624bd	-0.08893726
12	0x3d98cb56	0.07460658
13	0x3eb9a2d6	0.36257046
14	0xb877cc09	-5.907941e-05
15	0xbe86d7cf	-0.26336524
16	0x3e30f0f6	0.1727942
17	0x3d24a09d	0.040192235
18	0x3e02efe2	0.1278682
19	0xbe5d7f33	-0.21630554
20	0x3cd07b42	0.025449399
21	0x3d82a410	0.06378949
22	0xbae98f3b	-0.0017819175
23	0x3cba00bf	0.022705434
24	0x3da6b08b	0.08139142
25	0x3e5a1a70	0.21299148
26	0x3e0d6b0c	0.13810366
27	0x3de6a41d	0.11261771
28	0x3ec96529	0.39334992
29	0xbea5b5aa	-0.3236516
30	0xbe9bb6ea	-0.3041299
31	0xbb1498db	-0.0022674117
32	0x3ecb1334	0.39663088
33	0x3e4d1c46	0.20030317
34	0x3e41909d	0.18902822
35	0xbe95bb20	-0.29244328
36	0xbcb9f177	-0.022698147
37	0xbe117163	-0.1420341
38	0x3c9d3b76	0.019193392
39	0xbc56258e	-0.013070477
40	0x3e3441d9	0.17603244
41	0xbde9cbb1	-0.11415804
42	0x3ca5c682	0.020236257
43	0xbde1dbac	-0.11028227
44	0xbe55e39d	-0.20887609
45	0x3c5f79e0	0.013639897
46	0xbdda0b9f	-0.10646748
47	0x3e24d22c	0.16095799
48	0xbe96562c	-0.2936262
49	0xbe2fb55a	-0.17159024
50	0x3e1b2211	0.15149714
51	0x3e6db76b	0.232145
52	0xbd4c81b2	-0.049928375
53	0xbdada138	-0.08478016
54	0xbd2dc6fd	-0.0424261
55	0xbec59196	-0.38587636
56	0x3d8b15f3	0.06791296
57	0xbd8281b8	-0.06372398
58	0x3dfb45e6	0.122691914
59	0x3e0c8ae1	0.13724853
60	0xbe4b396f	-0.19846128
61	0xbe671fdc	-0.22570747
62	0xbd48cb96	-0.04902228
63	0x3df39fe3	0.1189573

network.8.weight f4 [64, 64]
0	0x3e767374	0.2406748
1	0x3e23f9bd	0.16013236
2	0xbd9c1041	-0.07620288
3	0xbe05f2d7	-0.13080917
4	0xbcf462f9	-0.02983235
5	0x3ca23db2	0.01980481
6	0x3dc846e2	0.09779145
7	0x3da8c1f5	0.08240119
8	0x3ddc5c2b	0.10759767
9	0xbd6b46bf	-0.057440516
10	0xbdf5d0e2	-0.12002732
11	0x3de03632	0.10947837
12	0x3cec24b7	0.0288261
13	0x3e9be2ed	0.30446568
14	0x3c75622b	0.014977018
15	0xbd4b9e4b	-0.049711507
16	0x3c407fa7	0.011749185
17	0xbe08f907	-0.13376246
18	0x3e55215c	0.20813507
19	0xbe4c8fb5	-0.19976695
20	0x3cb58ebc	0.022162788
21	0x3e523a09	0.20529951
22	0x3ee71b44	0.4513799
23	0x3d6af01a	0.057357885
24	0x3ecfb786	0.40569705
25	0x3d8e1df2	0.06939305
26	0x3dc7c3a4	0.09754112
27	0xbe15a9ef	-0.14615606
28	0x3e384c34	0.17997819
29	0xbe44c3f7	-0.1921538
30	0xbde07093	-0.10958972
31	0xbda0e9b6	-0.07857077
32	0xbdf7638b	-0.12079533
33	0x3d0eeb55	0.0348924
34	0x3e3e5147	0.18585692
35	0xbca0ae66	-0.01961441
36	0x3de5e09a	0.1122448
37	0xbe6b3d4d	-0.22972603
38	0x3d99d91f	0.07512116
39	0x3ea99bd8	0.33126712
40	0x3e83bf9a	0.25732118
41	0x3e16df32	0.1473358
42	0xbe2b86fb	-0.1675071
43	0x3c39244f	0.011300161
44	0xbe2b1b2a	-0.16709581
45	0xbdac832d	-0.08423457
46	0xbe48837c	-0.19581407
47	0xbd169cab	-0.036770504
48	0xbe7bd0c0	-0.2459135
49	0xbe33c14b	-0.17554204
50	0xbe8c4d47	-0.27402708
51	0x3e490f5c	0.19634765
52	0xbe15841a	-0.14601174
53	0x3d14ba7e	0.036310665
54	0xbd8105b1	-0.06299914
55	0xbe0c2539	-0.13686074
56	0x3e024a71	0.1272371
57	0x3be87313	0.007093796
58	0xbddc316c	-0.10751614
59	0x3d20b04c	0.03923063
60	0xbdffa5fc	-0.12482831
61	0xbd9a351a	-0.075296596
62	0xbe1e0b58	-0.15434015
63	0x3f04cf2f	0.5187864
64	0x3e1a6e6c	0.15081185
65	0xbe27ca1b	-0.16385691
66	0x3da25b92	0.07927622
67	0x3dbaf0c2	0.09127952
68	0x3e3fccc4	0.18730456
69	0xbd520643	-0.051275503
70	0xbd963e86	-0.07336144
71	0x3d26e2e6	0.04074373
72	0xbdeaee0f	-0.11471187
73	0xbd656b96	-0.056010805
74	0xbcbfe706	-0.02342559
75	0x3ed1288e	0.40851253
76	0x3d9c11eb	0.07620605
77	0x3d97b29b	0.07407113
78	0xbd09ef07	-0.03367522
79	0xbe11a275	-0.14222129
80	0x3dd6d76a	0.10490306
81	0xbd4c2fac	-0.04985015
82	0xbe23d04a	-0.15997425
83	0xbe5afeb6	-0.21386227
84	0x3d1abd06	0.037777923
85	0x3b68be80	0.0035513937
86	0xbe6e4ffe	-0.23272702
87	0xbdf382d8	-0.11890191
88	0x3d878430	0.0661701
89	0xbdc13261	-0.09433437
90	0xbe92cbc3	-0.28671083
91	0x3da5ec29	0.081016846
92	0xbdb05f7c	-0.08611962
93	0x3e65e655	0.22451146
94	0x3e1f439f	0.15553139
95	0x3dd386c0	0.10328436
96	0xbe851aa2	-0.25996882
97	0xbd64305c	-0.05571018
98	0xbe3aaa4b	-0.18229024
99	0x3e2435c2	0.16036132
100	0xbc45d975	-0.012075772
101	0x3ecaed4b	0.39634165
102	0xbe48aab2	-0.19596365
103	0x3cb2b756	0.021815937
104	0x3c8d5a17	0.017254872
105	0x3ddc95f5	0.107707895
106	0x3da138da	0.07872172
107	0xbdeb7289	-0.11496455
108	0xbe413bdb	-0.1887049
109	0xbcfbd29a	-0.030740071
110	0xbe782c1d	-0.24235578
111	0x3cfc6363	0.03080911
112	0xbde2c8de	-0.110734686
113	0xbdeb8896	-0.11500661
114	0xbdd4c9d6	-0.1039006
115	0xbe89bdd9	-0.26902655
116	0xbe465b4d	-0.19370766
117	0x3dc10dbb	0.09426447
118	0xbdcde8df	-0.10054182
119	0x3f2cde1f	0.6752643
120	0x3e293014	0.16522247
121	0x3e6c1e7c	0.23058504
122	0xbd33d0ef	-0.043900426
123	0xbe07b26d	-0.13251658
124	0x3e9cf7dd	0.30657855
125	0x3dbf52ab	0.093419395
126	0x3e853446	0.26016444
127	0xbd843617	-0.06455629
128	0x3c669888	0.014074452
129	0xbe030c3e	-0.12797639
130	0x3da52a53	0.08064713
131	0x3e018018	0.1264652
132	0x3db5eaed	0.08882699
133	0xbdd00c06	-0.10158543
134	0xbe3bb3e6	-0.18330345
135	0x3cdb4e8c	0.026770853
136	0x3e2cc554	0.1687215
137	0x3eca589d	0.39520732
138	0xbe4712ab	-0.19440715
139	0xbdefd390	-0.11710274
140	0xbd3f4df1	-0.04670519
141	0xbe261403	-0.16218571
142	0x3d868ebe	0.06570195
143	0x3dff316e	0.124606
144	0xbd50df88	-0.050994426
145	0x3e0768de	0.13223597
146	0x3cd697ba	0.026195396
147	0x3b8d045f	0.0043034996
148	0x3d8cf11e	0.06881927
149	0x3e12c099	0.14331283
150	0x3d90e543	0.07074978
151	0x3d52d99f	0.05147707
152	0x3e2569f4	0.16153699
153	0xbe2d01ae	-0.16895172
154	0x3c5c6fa2	0.01345435
155	0xbce191f1	-0.02753541
156	0x3d2fe2ed	0.042941023
157	0x3bfba690	0.007679768
158	0xbdaace68	-0.0834015
159	0xbd847e4e	-0.06469403
160	0xbe1a2081	-0.15051462
161	0xbea65f55	-0.32494608
162	0xbe12b92f	-0.14328454
163	0x3c9f3864	0.019436069
164	0x3e1513b0	0.14558291
165	0x3d4a6685	0.049414176
166	0xbdf52e4e	-0.119717225
167	0x3d9de189	0.07709033
168	0xbd907424	-0.07053402
169	0x3d25d057	0.04048189
170	0xbd8f61b9	-0.07001061
171	0xbd0c9999	-0.03432617
172	0x3e684607	0.22682963
173	0x3cdc98e3	0.02692837
174	0x3cc6b28f	0.024255065
175	0x3d650766	0.05591526
176	0x3e6a3423	0.22871451
177	0x3e9f3830	0.31097555
178	0xbdb5a22e	-0.08868824
179	0x3dc4f290	0.096165776
180	0x3ecc64eb	0.39920744
181	0xbd242795	-0.04007681
182	0x3e8bd4d5	0.27310815
183	0xbdbae1cc	-0.091250986
184	0x3ce7a028	0.02827461
185	0x3dd3c69c	0.10340616
186	0xbdf96815	-0.12178055
187	0xbe6d6604	-0.23183447
188	0x3dc37018	0.095428646
189	0xbbfe7726	-0.0077656684
190	0x3d4c8828	0.049934536
191	0x3ba54237	0.005043294
192	0x39b3072e	0.0003414689
193	0x3d90ae02	0.07064439
194	0xbe69ba63	-0.22825007
195	0xbdb61dc2	-0.088923946
196	0xbe3edccc	-0.18638915
197	0x3d93e66b	0.07221683
198	0x3e9d1a8a	0.3068431
199	0xbe7f4165	-0.2492729
200	0x3bec45d3	0.007210472
201	0xbe01951f	-0.12654541
202	0x3e01f54b	0.12691228
203	0xbdc2af09	-0.095060416
204	0x3dca3323	0.09873035
205	0xbe3860ff	-0.18005751
206	0xbd3fbddc	-0.046811923
207	0xbd815af7	-0.06316178
208	0xbd922406	-0.07135777
209	0xbd59b1be	-0.053148024
210	0x3c972656	0.018450897
211	0xbd581f0d	-0.052763987
212	0xbd2570cf	-0.040390786
213	0xbe144ded	-0.14482851
214	0x3e2c6a30	0.16837382
215	0x3c7c42d1	0.01539679
216	0x3d97647f	0.07392215
217	0x3cec645a	0.028856445
218	0x3c8f474b	0.01749005
219	0x3ce4877c	0.027896635
220	0x3c5366ab	0.012902896
221	0x3e9816c8	0.2970488
222	0xbd6f5f51	-0.05844051
223	0x3e20d52f	0.15706323
224	0x3cc74f9e	0.024329957
225	0x3e33bcc7	0.17552482
226	0x3e6e9b9d	0.2330155
227	0xbdd15e22	-0.102230325
228	0xbed2df14	-0.4118582
229	0xbd42aaaa	-0.04752604
230	0xbd45d0bf	-0.04829478
231	0x3d43bf0d	0.047789622
232	0xbde8c35c	-0.11365387
233	0xbd31d566	-0.043416403
234	0xbee4b5e5	-0.44670025
235	0x3f1505df	0.58212084
236	0x3e19d48a	0.15022483
237	0x3d5ac9ad	0.05341499
238	0xbe45d224	-0.19318444
239	0x3e26b6bd	0.16280647
240	0xbda00f30	-0.07815397
241	0x3e183ed8	0.14867723
242	0xbe593649	-0.21212114
243	0xbde5356c	-0.1119183
244	0x3c4e8a05	0.012606149
245	0xbdd60a2b	-0.10451158
246	0x3c8a8679	0.016909825
247	0x3e0c3e36	0.13695607
248	0xb9e9ed93	-0.0004461823
249	0xbd2416fa	-0.040060975
250	0xbb85ead1	-0.00408683
251	0xbea8c87f	-0.32965466
252	0xbc8307e4	-0.015994973
253	0x3e2b2dc3	0.16716675
254	0xbdf439e3	-0.119251035
255	0x3caa6a13	0.020802533

network.8.bias f4 [64]
0	0x3ce92395	0.02845935
1	0xbe1a927f	-0.15094946
2	0xbe852d2e	-0.26011032
3	0x3deaaba3	0.11458518
4	0x3becdf61	0.0072287773
5	0xbe47f7ff	-0.19528197
6	0xbe9e0010	-0.30859423
7	0x3ea0d459	0.31412008
8	0xbe5a0388	-0.2129041
9	0xbe88b55e	-0.26700872
10	0xbe1c5203	-0.1526566
11	0xbe23e372	-0.16004732
12	0xbe9fc406	-0.31204242
13	0xbef2c993	-0.47419414
14	0xbe0ee9fc	-0.13956445
15	0x3e56ba8f	0.20969604
16	0x3ede85be	0.43461412
17	0xbd1ba793	-0.038001608
18	0x3c071eef	0.008247121
19	0xbcb2a033	-0.021804905
20	0xbe9089a9	-0.28230026
21	0xbeb71271	-0.35756257
22	0xbea7e7a1	-0.32793906
23	0x3da0f1b3	0.078586005
24	0xbe4a9012	-0.19781521
25	0xbe32f013	-0.17474394
26	0x3ebe1ae6	0.37129897
27	0x3df9201d	0.12164328
28	0xbd2b40cd	-0.041809846
29	0xbe51ee92	-0.20501164
30	0x3eaa5e85	0.33275238
31	0x3d3ba9c5	0.0458162
32	0x3e8706a1	0.26372245
33	0xbe580f10	-0.21099496
34	0x3e16efc9	0.14739908
35	0xbe927ac1	-0.2860928
36	0x3e2b5ed9	0.167354
37	0xbe692e32	-0.22771528
38	0x3b2c8ba8	0.0026328359
39	0x3e20c210	0.15699029
40	0x3d1f18ed	0.03884213
41	0xbdb711f2	-0.0893897
42	0x3da06b2c	0.078329414
43	0xbcccba7a	-0.024991263
44	0x3e211efc	0.15734476
45	0xbd96f90a	-0.07371719
46	0x3e35c149	0.17749514
47	0x3d72285d	0.059120525
48	0x3de70303	0.11279871
49	0x3e259a6f	0.16172193
50	0xbe3d9772	-0.18514803
51	0x3eacd29d	0.33754435
52	0xbc4a0bff	-0.012331962
53	0x3d04016a	0.03222791
54	0xbe413bb8	-0.18870437
55	0x3e623be3	0.22093157
56	0x3e527655	0.20552953
57	0xbe6f6566	-0.23378524
58	0x3e59edf9	0.21282186
59	0x3d83d10d	0.06436358
60	0x3e4f2544	0.2022906
61	0xbe4b1a57	-0.19834267
62	0x3e1d28e5	0.15347631
63	0xbce08d39	-0.02741109

network.10.weight f4 [64, 64]
0	0xbe957e78	-0.2919805
1	0x3e882130	0.2658782
2	0x3b1015c8	0.002198564
3	0xbe4acba7	-0.1980425
4	0x3d4cae44	0.04997088
5	0x3d90f675	0.07078258
6	0x3b222d5f	0.0024746282
7	0x3d9d260e	0.07673274
8	0x3df60703	0.12013056
9	0xbe50ff49	-0.20409884
10	0x3e087aa6	0.13328037
11	0xbdd4bec8	-0.10387951
12	0xbe26c54f	-0.16286205
13	0xbe7cf96e	-0.24704525
14	0x3d5b4068	0.05352822
15	0x3e048fff	0.12945555
16	0x3e7383a4	0.23780686
17	0x3eb2ccae	0.34921783
18	0x3dc83e8c	0.09777555
19	0x3c1a892d	0.009432119
20	0xbd425afa	-0.047450043
21	0xbe3b8706	-0.18313226
22	0xbd42fc54	-0.04760392
23	0x3cde2635	0.027117828
24	0x3dda1b41	0.106497295
25	0x3d71521d	0.0589162
26	0x3da95bab	0.082694374
27	0x3c9fd534	0.019510843
28	0xbe363645	-0.1779414
29	0xbe962442	-0.29324538
30	0x3d5ae3e9	0.05344001
31	0x3d8b2a43	0.0679517
32	0x3d84cca9	0.06484348
33	0xbd86a787	-0.06574922
34	0xbdca490b	-0.09877213
35	0xbd1c9568	-0.038228422
36	0xbe6e03d6	-0.23243651
37	0x3e139425	0.14411981
38	0x3e9df609	0.30851772
39	0x3bf82034	0.0075721983
40	0xbe3a91dc	-0.18219703
41	0xbd4cb77f	-0.049979683
42	0xbd389335	-0.045062263
43	0x3dd5bcc5	0.104363956
44	0xbd47c6fd	-0.048773754
45	0x3d8ab8e7	0.067735486
46	0xbdb3704c	-0.08761653
47	0xbc950221	-0.018189492
48	0x3d9dd206	0.077060744
49	0x3c024093	0.007949966
50	0x3e084aa3	0.13309722
51	0x3e210882	0.15725902
52	0xbd6b263d	-0.057409514
53	0x3e92ad5e	0.28647894
54	0xbd87a4fe	-0.06623267
55	0xbd38060a	-0.044927634
56	0x3cfa4619	0.030551003
57	0xbdeab455	-0.11460177
58	0xbe35f8bf	-0.1777067
59	0x3c1bb955	0.009504636
60	0x3dc6aec1	0.097013004
61	0xbd161536	-0.036641322
62	0xbdc4f59f	-0.09617161
63	0xbe337fc1	-0.17529203
64	0xbcfc4092	-0.030792508
65	0x3cd68874	0.026188113
66	0x3e63a95e	0.22232577
67	0x3e6a13b6	0.22859082
68	0xbe106be5	-0.14103658
69	0x3e221ba3	0.15830855
70	0x3ea3473f	0.31890294
71	0xbe48dc45	-0.19615276
72	0x3dfcc35e	0.12341951
73	0x3e3bc620	0.18337297
74	0x3e71141c	0.23542827
75	0x3cb83946	0.022488248
76	0x3e0d52c7	0.13801108
77	0x3d865cf0	0.06560695
78	0x3e8101c6	0.25196666
79	0x3dec53dd	0.11539433
80	0xbd79cf0d	-0.060988475
81	0x3e0bc63a	0.13649836
82	0x3c6986b4	0.014253307
83	0xbda98fed	-0.08279405
84	0xbe45b356	-0.19306692
85	0xbe0903a4	-0.13380295
86	0x3e85fa7f	0.26167676
87	0x3d3a5e0e	0.045499854
88	0x3d9ceac1	0.07661963
89	0xbde1d012	-0.110260144
90	0xbd59abf3	-0.0531425
91	0xbe1e3458	-0.15449655
92	0x3a95c8d2	0.0011427647
93	0x3d17e99e	0.03708803
94	0xbdf80f11	-0.12112249
95	0x3e11585c	0.14193863
96	0x3d4798ff	0.048729893
97	0xbe61db02	-0.22056201
98	0xbdc264e8	-0.094919026
99	0x3e3c901a	0.18414345
100	0xbe1dcdb8	-0.15410507
101	0x3e362dbb	0.17790882
102	0x3d8f094d	0.06984196
103	0x3e3bd292	0.18342045
104	0xbe3c9074	-0.1841448
105	0x3b6428a3	0.003481426
106	0x3d42e72e	0.04758375
107	0xbd83f22c	-0.06442675
108	0x3de6f538	0.112772405
109	0xbdba9485	-0.09110359
110	0xbcb6fec6	-0.022338282
111	0x3e12df46	0.14342985
112	0x3d093456	0.033497177
113	0xbd73380e	-0.05937963
114	0xbc9df7a2	-0.01928312
115	0x3dc0f355	0.09421412
116	0x3dc9b8e2	0.09849717
117	0xbdc65d95	-0.09685818
118	0x3e88c77b	0.26714692
119	0xbd2ea407	-0.042636897
120	0x3e20223d	0.15638061
121	0xbda7af56	-0.081877396
122	0x3d839898	0.06425589
123	0x3e287716	0.16451678
124	0xbcdce32d	-0.026963795
125	0xbda9326a	-0.08261569
126	0x3e2b7971	0.16745545
127	0x3dd0e982	0.10200788
128	0xbcea7cb5	-0.028623918
129	0x3ce6f509	0.028193014
130	0x3b2a028a	0.0025941455
131	0xbd0c63ea	-0.034274973
132	0x3c1df257	0.009640298
133	0xbd80d7f7	-0.06291192
134	0xbd77d509	-0.0605059
135	0xbcaeedbc	-0.021353595
136	0xbbdae285	-0.0066798353
137	0xbe98e741	-0.29863933
138	0xbd388d97	-0.045056906
139	0x3c80ea01	0.015736582
140	0xbe3f751c	-0.18697017
141	0xbdd1058b	-0.10206135
142	0xbe1f1ab1	-0.15537526
143	0xbd58bda1	-0.05291522
144	0x3b305e1b	0.002691156
145	0x3e31121a	0.17292061
146	0xbcbc8c99	-0.023016261
147	0x3da95d9d	0.082698084
148	0xbce0301c	-0.02736669
149	0xbd1cfa76	-0.038324796
150	0x3d3a7445	0.04552104
151	0x3bd2f1cd	0.0064375163
152	0x3be10e11	0.006868132
153	0x3ce99835	0.02851496
154	0x3d0eef0e	0.03489595
155	0xbdb28175	-0.08716098
156	0x3d8e4d60	0.06948352
157	0xbe053982	-0.13010219
158	0xbc5daf88	-0.013530619
159	0xbda83938	-0.082140386
160	0x3d85eb64	0.06539038
161	0x3d2769cb	0.040872376
162	0xbd00e61d	-0.031469453
163	0xbdda29b7	-0.10652488
164	0xbdb33b0f	-0.08751499
165	0xbe6b1708	-0.22958004
166	0xbe29afce	-0.1657097
167	0x3e074e7e	0.13213536
168	0x3d802618	0.06257266
169	0xbc96234b	-0.018327376
170	0xbd449431	-0.04799289
171	0xbe3d5656	-0.18489966
172	0xbd436068	-0.047699362
173	0xbcf4d4e7	-0.029886676
174	0x3bddc8f9	0.0067683426
175	0xbb8a5dac	-0.0042225923
176	0xbc97278d	-0.018451476
177	0xbcf8680a	-0.030323047
178	0xbd7f26b4	-0.06229277
179	0xbd91325a	-0.07089682
180	0x3cdcd685	0.02695776
181	0x3dc16c2b	0.094444595
182	0x3bb39cef	0.0054813544
183	0xbda2ad2b	-0.079431854
184	0x3cbf37bf	0.023342011
185	0x3d960ba1	0.07326437
186	0x3c232f52	0.0099600125
187	0x3dac8f44	0.08425763
188	0xbc398781	-0.011323811
189	0xbb4acaab	-0.0030943553
190	0xbde34c5f	-0.11098551
191	0xbd3895fd	-0.045064915
192	0xbb5e8f5f	-0.0033959968
193	0xbd696275	-0.05697866
194	0x3d3762df	0.044772025
195	0xbd6108bc	-0.05493997
196	0x3da9eeca	0.082974985
197	0x3c62e9fa	0.01384973
198	0x3de6b93b	0.11265799
199	0xbce0f7e9	-0.027461963
200	0x3d222ce3	0.03959359
201	0xbdda6c0a	-0.10665138
202	0x3dd799a1	0.10527349
203	0x3c5778d3	0.013151365
204	0xbd9bd160	-0.076082945
205	0x3cd258fc	0.025677197
206	0x3c7ffc70	0.015624151
207	0xbc70d5a8	-0.014699377
208	0x3d53d453	0.05171616
209	0x3e30d859	0.1727003
210	0xbe875e11	-0.26438954
211	0x3e189ab4	0.14902765
212	0xbe102937	-0.14078222
213	0xbc99f62d	-0.018794144
214	0x3dba0dce	0.09084664
215	0x3dfb12c3	0.12259438
216	0x3e1fb0a5	0.15594728
217	0x3dbeaf77	0.09310811
218	0xbb4bf122	-0.0031119068
219	0xbdfe9c9b	-0.12432214
220	0x3e780bbd	0.24223228
221	0xbd1b000a	-0.037841834
222	0xbd67e063	-0.056610476
223	0x3e1ad2d7	0.15119492
224	0x3d1bf0a8	0.038071305
225	0xbe0e7cfd	-0.13914867
226	0xbce8bd81	-0.028410675
227	0x3d4b98ff	0.049706455
228	0x3bcd46bd	0.006264536
229	0xbe10d235	-0.14142688
230	0x3de3910f	0.11111652
231	0x3d7514f8	0.05983445
232	0xbcbc41ca	-0.02298059
233	0xbd78c427	-0.06073394
234	0x3e295279	0.16535367
235	0x3d3f9d21	0.04678071
236	0x3d32b63e	0.04363083
237	0xbebd9ea0	-0.37035084
238	0x3be2b949	0.0069190604
239	0x3bf3b9bc	0.0074379127
240	0x3e43382e	0.190644
241	0xbde93939	-0.113878675
242	0x3d28f4b6	0.041249
243	0xbdc94b11	-0.09828771
244	0x3ce47129	0.02788599
245	0x3b767ae0	0.003760986
246	0x3cde4eb1	0.027137132
247	0xbd24a953	-0.040200543
248	0x3dfff801	0.12498475
249	0x3e42bc8a	0.19017234
250	0xbd5a2aea	-0.053263582
251	0xbb477b53	-0.0030438497
252	0xbd98bfcf	-0.074584596
253	0x3e816d27	0.2527859
254	0xbde10f74	-0.109892756
255	0xbe52eac8	-0.20597374

network.10.bias f4 [64]
0	0x3d1a3ea6	0.037657402
1	0xbed06f95	-0.4071013
2	0xbe1df859	-0.15426768
3	0xbd48ef3b	-0.049056273
4	0x3ed2adfa	0.4114836
5	0xbde71c13	-0.112846516
6	0xbdea5522	-0.11442019
7	0xbe2846e3	-0.16433291
8	0x3ed00c17	0.40634224
9	0x3e6ac5a3	0.22926955
10	0xbb9d1d20	-0.0047947317
11	0xbd4136dc	-0.04717146
12	0x3e794c7c	0.24345583
13	0xbd198433	-0.03747959
14	0xbd3919a0	-0.045190454
15	0xbe04258f	-0.12904952
16	0x3dd1e37d	0.10248468
17	0xbeb4ed57	-0.35337326
18	0x3d975a68	0.073902905
19	0x3bb69eac	0.0055731144
20	0x3d363935	0.04448815
21	0xbe5df877	-0.21676813
22	0x3e8329cf	0.25617835
23	0xbd7fd886	-0.062462352
24	0xbe84a199	-0.2590454
25	0x3d13c974	0.036080793
26	0x3eeca42c	0.46219003
27	0xbe1c6184	-0.15271574
28	0x3bcac5b1	0.0061881174
29	0x3df9f472	0.12204827
30	0x3f1ebd93	0.6200802
31	0x3a9b3cb8	0.0011843657
32	0xbe3f2b7d	-0.18668933
33	0xbe2b3378	-0.16718853
34	0x3d14128c	0.0361505
35	0x3ef71d3e	0.48264498
36	0x3ef76907	0.48322317
37	0xbe8d456d	-0.2759203
38	0x3c291624	0.01032022
39	0x3e897a81	0.26851276
40	0x3e0627ee	0.1310117
41	0x3d3de3b7	0.046359744
42	0x3e55af8a	0.20867744
43	0xbeef6d4a	-0.46763068
44	0x3e08f2b7	0.13373838
45	0x3d0be55e	0.03415429
46	0xbc9a35c6	-0.01882447
47	0x3ec415a0	0.3829775
48	0x3d24a48e	0.040195994
49	0x3df2bac7	0.11852031
50	0x3ddf527d	0.10904405
51	0x3c71d9a4	0.014761362
52	0x3d8d5f4c	0.06902942
53	0xbc856f6c	-0.016288482
54	0x3dd894b9	0.105752416
55	0xbe100b7e	-0.14066884
56	0x3ea09433	0.31363067
57	0x3ea09367	0.3136246
58	0x3e94490e	0.28961986
59	0xbca67f3c	-0.020324342
60	0x3e551538	0.20808876
61	0xbdce96bb	-0.10087343
62	0x3c370917	0.011171601
63	0xbcad3a8c	-0.021146081
