Other/Clean/models/r15_base_6_64.pth (torch, 90520 bytes, 14 tensors)

network.0.weight f4 [64, 2]
0.14618544 0.044574585 -0.07505122 -0.4590366 -0.16643433 -0.1563197 -0.13006055 -0.25702637
0.30816722 -0.32548112 -0.2906171 -0.04426577 0.21487929 -0.22435555 0.23791604 -0.35492852
-0.08667136 0.15218823 0.24351999 0.19001192 -0.27955103 0.17148533 0.017587159 -0.20215122
-0.11880177 0.012015558 -0.11092527 -0.31502676 0.08350479 0.19520898 -0.1968389 -0.34665892
-0.30645376 0.60837364 0.17088406 0.24589325 -0.007101502 -0.15651634 -0.21466282 0.15772341
0.22269572 0.38896865 -0.23598653 0.17382807 0.16193993 -0.46352553 -0.069231346 0.3704379
0.19489712 -0.26200762 -0.13870624 -0.20824061 0.27392897 -0.41936564 0.27315512 -0.12097966
0.31159124 -0.24458668 -0.10662341 -0.12268877 0.0558542 0.40852267 0.036386 -0.18059033
0.1345737 -0.130606 -0.20611522 -0.019826263 0.14863746 0.20759583 -0.1614667 -0.15552607
0.14493752 0.33343732 0.05071019 0.06584303 0.04024688 -0.31344253 -0.05864706 0.42989284
-0.15240754 0.2946933 -0.13759905 -0.40371534 0.0449615 -0.41918984 -0.014861865 0.0074307616
-0.16554521 0.1519207 -0.08099632 -0.25191215 0.16524039 0.35303313 0.16721146 -0.541411
0.1028052 -0.3491923 0.02838783 0.40653116 -0.17928655 0.08223759 0.29334846 -0.5009345
-0.14180751 0.010173706 0.36260453 -0.19523014 0.07584123 -0.3940831 0.26651415 0.19910277
0.049089346 0.22163832 0.3168586 0.042494148 -0.14555846 -0.19448464 -0.18646139 0.04441003
-0.020536782 -0.40541434 -0.25780812 0.056624837 -0.23766011 -0.28018674 0.31973562 -0.13817292
00000000: a3b1 153e d793 363d 74b4 99bd d806 ebbe
00000010: c36d 2abe 4512 20be 982e 05be f698 83be
00000020: 18c8 9d3e 76a5 a6be c4cb 94be 0650 35bd
00000030: 5109 5c3e 76bd 65be 43a0 733e 31b9 b5be
00000040: c180 b1bd 3bd7 1b3e 4e5d 793e 7c92 423e
00000050: 5021 8fbe da99 2f3e f212 903c bb00 4fbe
00000060: 584e f3bd e7dc 443c ca2c e3bd 304b a1be
00000070: 8f04 ab3d dde4 473e 2390 49be 477d b1be
00000080: 82e7 9cbe 60be 1b3f 3bfc 2e3e 71cb 7b3e
00000090: b7b3 e8bb d245 20be 92d0 5bbe 3f82 213e
000000a0: 590a 643e e626 c73e 74a6 71be fcff 313e
000000b0: 95d3 253e 3853 edbe 2ac9 8dbd 09aa bd3e
000000c0: 1c93 473e dd25 86be 0209 0ebe 073d 55be
000000d0: 6b40 8c3e 18b7 d6be fdda 8b3e 2fc4 f7bd
000000e0: e388 9f3e ee74 7abe 605d dabd 4044 fbbd
000000f0: 60c7 643d e229 d13e 7d09 153d acec 38be
00000100: b0cd 093e 94bd 05be de0f 53be b06a a2bc
00000110: 6b34 183e 0094 543e 8757 25be 3a42 1fbe
00000120: 806a 143e 4cb8 aa3e 7db5 4f3d b6d8 863d
00000130: ead9 243d 8a7b a0be e637 70bd ea1a dc3e
00000140: b910 1cbe 0ae2 963e c4e6 0cbe c7b3 cebe
00000150: 8d29 383d 0da0 d6be 2e7f 73bc bf7d f33b
00000160: af84 29be 1a91 1b3e 66e1 a5bd a1fa 80be
00000170: c734 293e c2c0 b43e 7b39 2b3e e999 0abf
00000180: 888b d23d 55c9 b2be 988d e83c da24 d03e
00000190: e596 37be 2e6c a83d c531 963e 3e3d 00bf
000001a0: fd35 11be 9eaf 263c 4da7 b93e 69ea 47be
000001b0: a652 9b3d 43c5 c9be 8b74 883e 99e1 4b3e
000001c0: e911 493d 28f5 623e 4a3b a23e 580e 2e3d
000001d0: 470d 15be fb26 47be bcef 3ebe 4be7 353d
000001e0: c13c a8bc 7892 cfbe 6dff 83be 72ef 673d
000001f0: 2c5d 73be a374 8fbe 63b4 a33e 347d 0dbe

network.0.bias f4 [64]
-0.17904378 0.21051688 0.25868815 0.16067357 -0.09974064 0.20830676 -0.07202984 -0.007314713
0.042115416 -0.35485932 0.14348954 0.17358352 0.029969705 0.21423633 -0.27248195 0.31906086
-0.032609813 -0.14943777 0.06763259 0.14754815 -0.35177526 0.13138802 0.08130376 -0.078830734
-0.17391138 0.24203284 -0.056595527 -0.15643544 -0.28075257 0.17077702 -0.18630923 0.12264109
-0.051252577 0.19534144 -0.16453487 0.17258929 -0.29333413 -0.072159134 0.23829634 -0.16313295
-0.011148179 0.227808 0.045274377 0.0450605 -0.052682925 0.22422189 -0.3473233 0.06852602
0.13943169 -0.112696216 0.22614585 0.072886996 0.16815783 -0.30673358 0.07740384 -0.1504801
-0.08343542 -0.24950428 0.22661957 0.15315835 0.29522878 0.19938543 0.38367862 -0.18934122
00000000: 4157 37be bd91 573e c672 843e 9d87 243e
00000010: d244 ccbd 5e4e 553e 6184 93bd 43b0 efbb
00000020: 3781 2c3d 1fb0 b5be ecee 123e e1bf 313e
00000030: 0783 f53c c560 5b3e c182 8bbe f25b a33e
00000040: de91 05bd 3706 19be f582 8a3d dd16 173e
00000050: e31b b4be 958a 063e 9682 a63d 0272 a1bd
00000060: d315 32be 75d7 773e b6d0 67bd 9d30 20be
00000070: cdbe 8fbe 2ce0 2e3e d9c7 3ebe 402b fb3d
00000080: 39ee 51bd 9607 483e d47b 28be 3fbb 303e
00000090: e42f 96be 2bc8 93bd f503 743e 530c 27be
000000a0: daa6 36bc 8046 693e a071 393d 5c91 383d
000000b0: 0dca 57bd 6c9a 653e 5cd4 b1be 5f57 8c3d
000000c0: 2ec7 0e3e 46cd e6bd c792 673e c745 953d
000000d0: 9131 2c3e 2f0c 9dbe e885 9e3d 7517 1abe
000000e0: 31e0 aabd 0d7e 7fbe f60e 683e 8bd5 1c3e
000000f0: 3a28 973e b22b 4c3e 8671 c43e aae2 41be

network.2.weight f4 [64, 64]
0.15584198 -0.14137192 -0.18917595 -0.24531226 -0.03764945 -0.04797974 -0.17229004 0.092439026
-0.21034503 0.1356679 0.16806066 -0.17107761 0.078804106 -0.28576684 0.05205187 0.08186373
0.0133261 0.098380454 0.007439413 -0.15227258 0.13513514 -0.056844342 -0.11480661 -0.19462171
0.20606573 -0.06647259 0.025307287 -0.085545905 -0.06599258 0.09920138 0.14169335 0.008914196
-0.14093916 -0.03759068 -0.024401484 0.10642742 -0.08058211 0.00038390365 0.10687626 0.0808002
-0.2513134 -0.010092989 -0.11300238 0.08449061 0.0018287015 -0.22499402 -0.04170579 -0.06337127
0.07892817 0.1603462 0.0073616616 0.21167791 -0.052451078 0.1277438 0.014578213 -0.11359643
-0.21579792 -0.16344547 0.062056717 -0.1882583 -0.27444413 -0.0377063 -0.050349396 0.03814742
0.11308069 0.16091056 0.04001461 -0.10573575 0.0603082 0.10808381 0.11829393 0.082634
-0.03336861 -0.15000278 0.022241961 -0.06616888 -0.13685092 -0.14053822 -0.04634868 0.12548968
-0.25514767 0.15081477 0.14390986 -0.0030483303 -0.103664435 -0.03781137 -0.09657709 0.14075863
-0.10560401 0.1331618 0.124052666 -0.12639074 -0.088939436 -0.14026847 -0.053566944 -0.23476477
0.033806127 -0.19548927 -0.08562761 -0.15483615 -0.023659306 0.023529314 -0.23273723 -0.14997813
-0.108055875 0.0075953268 0.0003494707 -0.029115763 -0.024779994 0.012625935 -0.2362853 0.103033975
-0.05672791 -0.13704231 0.096011415 -0.0293431 -0.14299212 0.10691251 0.08070168 -0.13871667
-0.034473848 -0.17007266 -0.042559363 -0.12884052 0.016599134 -0.1917166 -0.1906929 -0.13348852
-0.17104113 0.291399 0.041228388 0.19624346 -0.13007535 0.01902191 -0.13396776 -0.055824324
0.029425628 0.021387346 0.03061987 0.03259437 0.010918689 0.053403087 -0.014965343 0.095275044
-0.19267365 -0.045771457 0.1800261 -0.16808513 0.0073452713 -0.13178726 -0.049588524 -0.2654337
0.2032032 -0.026765509 0.14094539 0.121100396 -0.0705571 -0.07917139 0.07922312 -0.18608464
0.16728282 -0.19415419 0.13150796 0.14061946 0.107121564 -0.020240575 0.087376736 -0.08891817
0.15306216 -0.10077323 0.14076617 -0.16768931 -0.0892022 0.22134614 -0.17445306 -0.018897885
-0.24377409 -0.16157514 -0.08940223 -0.0059125405 0.07464044 -0.1667721 0.2178179 -0.20728573
-0.116037816 0.17472558 0.13017397 0.09630356 -0.11960896 0.20124589 -0.06917213 0.20048088
0.10612928 -0.07070499 0.14884187 0.16986938 0.14389586 -0.054913014 0.22896902 -0.010089075
-0.13589719 0.016563743 0.04697866 -0.16540325 0.029893134 -0.14471972 -0.068196304 -0.023481581
-0.017218279 0.11571284 -0.011729131 0.010951837 0.24989796 -0.15234493 0.06400411 -0.16067599
-0.20177908 -0.048252333 0.18105473 0.03537136 0.1878198 0.021261858 0.14887469 -0.11802431
0.023024213 0.024086433 0.06705409 -0.14812991 0.22580202 -0.1874004 0.022449939 -0.14323626
-0.05890778 -0.012826742 -0.16108334 0.16655754 0.10300285 -0.07425037 0.08837116 0.17343087
0.031073192 0.24499398 -0.032687247 -0.038490236 -0.041064914 0.045494612 -0.18110262 -0.13422567
-0.28584418 0.013142773 0.070248105 -0.052771606 -0.08938012 -0.20442238 -0.1249264 0.17508884
00000000: 0a95 1f3e cdc3 10be 57b7 41be 2333 7bbe
00000010: 4f36 1abd 6786 44bd cd6c 30be ac50 bd3d
00000020: b064 57be 87ec 0a3e 1818 2c3e f82e 2fbe
00000030: 0c64 a13d 0850 92be 5734 553d 2ca8 a73d
00000040: b755 5a3c b17b c93d 52c6 f33b 58ed 1bbe
00000050: de60 0a3e 9dd5 68bd ba1f ebbd ea4a 47be
00000060: e502 533e c822 88bd 3a51 cf3c b132 afbd
00000070: 1e27 87bd 182a cb3d 1018 113e d90c 123c
00000080: 5b52 10be aff8 19bd 9fe5 c7bc 9ff6 d93d
00000090: 3c08 a5bd ad46 c939 f1e1 da3d 937a a53d
000000a0: 26ac 80be 105d 25bc cb6d e7bd 6a09 ad3d
000000b0: 0ab1 ef3a d564 66be b1d3 2abd ccc8 81bd
000000c0: 18a5 a13d cb31 243e 183a f13b 18c2 583e
000000d0: f1d6 56bd 45cf 023e 75d9 6e3c 3fa5 e8bd
000000e0: 21fa 5cbe 405e 27be 2f2f 7e3d c9c6 40be
000000f0: f183 8cbe ec71 1abd 2b3b 4ebd 7840 1c3d
00000100: d996 e73d bdc5 243e 5ce6 233d fc8b d8bd
00000110: bb05 773d 0b5b dd3d 1744 f23d 043c a93d
00000120: 86ad 08bd 549a 19be c634 b63c 8d83 87bd
00000130: a622 0cbe 40e9 0fbe 1dd8 3dbd 5e80 003e
00000140: b7a2 82be 306f 1a3e 1b5d 133e 7fc6 47bb
00000150: 054e d4bd 18e0 1abd 36ca c5bd 0823 103e
00000160: ea46 d8bd 915b 083e 530f fe3d 936c 01be
00000170: e125 b6bd 8aa2 0fbe 0369 5bbd 2d66 70be
00000180: 4b78 0a3d 572e 48be 875d afbd 5e8d 1ebe
00000190: 29d1 c1bc 8cc0 c03c ab52 6ebe de93 19be
000001a0: 664c ddbd 38e2 f83b 2a39 b739 2e84 eebc
000001b0: 6aff cabc 02dd 4e3c c6f4 71be 7a03 d33d
000001c0: 865b 68bd d254 0cbe a2a1 c43d f160 f0bc
000001d0: 876c 12be f2f4 da3d ec46 a53d be0b 0ebe
000001e0: 7334 0dbd 8727 2ebe ba52 2ebd c5ee 03be
000001f0: e8fa 873c 5b51 44be 0045 43be 37b1 08be
00000200: 6825 2fbe 4032 953e 19df 283d 0cf4 483e
00000210: 7932 05be d6d3 9b3c d82e 09be 0ca8 64bd
00000220: 040e f13c 8434 af3c 86d6 fa3c ad81 053d
00000230: 4de4 323c 32bd 5a3d 3331 75bc 901f c33d
00000240: 3e4c 45be da7a 3bbd c358 383e 821e 2cbe
00000250: 9ab0 f03b 3df3 06be 561d 4bbd ede6 87be
00000260: 8014 503e 5743 dbbc fd53 103e 7c03 f83d
00000270: 3e80 90bd 9c24 a2bd bb3f a23d f98c 3ebe
00000280: 304c 2b3e 5bd0 46be 06aa 063e 8cfe 0f3e
00000290: 8d62 db3d 90cf a5bc 93f2 b23d bb1a b6bd
000002a0: 54bc 1c3e 3262 cebd 0225 103e bfb6 2bbe
000002b0: a5af b6bd 90a8 623e d3a3 32be bdcf 9abc
000002c0: ea9f 79be f473 25be 8418 b7bd fcbd c1bb
000002d0: 16dd 983d 4ec6 2abe a80b 5f3e b642 54be
000002e0: 3ca5 edbd 43eb 323e 534c 053e cd3a c53d
000002f0: 8bf5 f4bd 6713 4e3e 1eaa 8dbd dc4a 4d3e
00000300: 4f5a d93d c7cd 90bd 016a 183e 3df2 2d3e
00000310: 7059 133e 78ec 60bd db76 6a3e a64c 25bc
00000320: a228 0bbe b0b0 873c b26c 403d 785f 29be
00000330: 72e2 f43c 6831 14be 81aa 8bbd 725c c0bc
00000340: 590d 8dbc dafa ec3d 8b2b 40bc 556f 333c
00000350: 40e5 7f3e 4f00 1cbe 9614 833d 3f88 24be
00000360: 2d9f 4ebe 3da4 45bd 6966 393e 8fe1 103d
00000370: d553 403e 592d ae3c 9b72 183e bbb6 f1bd
00000380: 469d bc3c e950 c53c a853 893d 5eaf 17be
00000390: a538 673e e4e5 3fbe efe8 b73c 87ac 12be
000003a0: 4949 71bd 4127 52bc 08f3 24be 0f8e 2a3e
000003b0: 29f3 d23d 9410 98bd f0fb b43d dd97 313e
000003c0: 358d fe3c b4df 7a3e 10e3 05bd f0a7 1dbd
000003d0: af33 28bd 8f58 3a3d f772 39be 7472 09be
000003e0: 2b5a 92be c954 573c 3dde 8f3d 0a27 58bd
000003f0: ed0c b7bd 1a54 51be 6ad9 ffbd 7d4a 333e

network.2.bias f4 [64]
0.025932947 0.061102867 -0.15235221 -0.08765871 -0.03561701 -0.0013074763 0.19786689 -0.02937754
-0.08108542 -0.12693647 0.031881962 -0.06857293 -0.37695903 0.14141552 0.0040428005 -0.073619574
0.09863285 0.01743583 -0.010404592 -0.027709508 0.0089111235 -0.17270242 0.114546135 0.0037522744
-0.01612935 0.31916797 -0.04472605 -0.27084044 0.016570106 -0.11309199 0.2946022 -0.14019495
-0.08659695 -0.054892063 -0.030666076 -0.039726947 0.022577684 0.082567304 0.029045967 0.07355736
-0.15049364 0.09964754 -0.23046818 0.0012132534 -0.014005977 0.1070135 -0.15076816 -0.057292283
-0.025483089 0.06492753 0.11733827 -0.095767885 -0.4364046 0.092348024 0.009427352 0.05563407
0.05604271 -0.0055548265 -0.08497473 0.016169375 -0.0463916 0.10527897 0.1848255 -0.17952298
00000000: 5571 d43c 0047 7a3d 3802 1cbe 6986 b3bd
00000010: 24e3 11bd a05f abba 9e9d 4a3e 2ba9 f0bc
00000020: 1d10 a6bd a2fb 01be a996 023d f76f 8cbd
00000030: c600 c1be 3bcf 103e 7879 843b dcc5 96bd
00000040: 0500 ca3d 96d5 8e3c 0678 2abc 0dff e2bc
00000050: f6ff 113c e7d8 30be 2a97 ea3d b8e8 753b
00000060: b321 84bc fc69 a33e aa32 37bd 99ab 8abe
00000070: 08be 873c c69c e7bd 19d6 963e 448f 0fbe
00000080: be59 b1bd 80d6 60bd 6c37 fbbc b9b8 22bd
00000090: d6f4 b83c 0c19 a93d cff1 ed3c 3ea5 963d
000000a0: 011b 1abe 0214 cc3d daff 6bbe 0706 9f3a
000000b0: 5379 65bc e529 db3d f862 1abe 50ab 6abd
000000c0: e9c1 d0bc baf8 843d 0c4f f03d f421 c4bd
000000d0: 6c70 dfbe f620 bd3d 2e75 1a3c 8de0 633d
000000e0: 0a8d 653d 4305 b6bb 3b07 aebd a375 843c
000000f0: 1e05 3ebd 809c d73d e542 3d3e dfd4 37be

network.4.weight f4 [64, 64]
0.062265363 -0.15953937 -0.18155228 -0.16191326 0.025719758 0.15258417 -0.05186064 0.10876133
-0.16757882 0.076663606 -0.08513083 0.16626579 -0.26884693 0.24010831 -0.056753702 -0.06434182
-0.17522225 -0.118650846 -0.21089661 -0.06279799 -0.044463627 0.08449691 0.18914908 -0.13480483
-0.081722975 0.16752297 -0.008568832 0.08292615 0.012613332 0.14583467 0.049549807 0.0823307
-0.2173055 -0.04092505 0.17489499 0.057996172 0.21799685 0.14559615 -0.121406645 -0.2397068
0.1510355 -0.12486707 0.12757193 0.07274209 -0.091535926 0.034944836 -0.055268895 0.03002649
0.1381375 0.04687472 0.044538394 -0.1543537 0.09769342 0.10792961 0.14070457 -0.08834513
0.12699252 -0.031166155 -0.05244676 0.14985116 0.05830418 0.18819648 -0.16670412 0.2617232
-0.09378684 0.0009432881 0.04488347 -0.33550033 -0.3027033 0.07320927 0.33362275 0.07487018
-0.23143771 -0.8223328 -0.17802925 -0.08536864 0.1497841 0.33854455 0.19295178 -0.24742907
0.039328016 0.024970489 -0.24716155 -0.029419247 -0.17811443 -0.53019196 -0.0722565 0.37198013
0.07902544 0.101071045 0.10435054 -0.022708707 -0.0672468 -0.2192332 0.5055359 0.09059671
-0.21733002 -0.06433175 0.09608445 -0.08696141 0.34403548 0.0022165498 -0.0083345715 -0.17741454
-0.021785233 -0.26526192 -0.39635432 0.038125545 -0.113410056 0.10302243 -0.33222345 -0.18394586
0.3142165 0.031803504 0.17345287 -0.3435102 -0.008660092 0.175947 -0.16976263 0.06172772
-0.15282857 0.21852641 -0.40792662 -0.035668455 -0.07981235 -0.05673286 -0.22617698 -0.2096371
0.005291183 0.12063987 -0.16999114 0.08282773 0.24252139 -0.113999 0.09494526 0.08253899
0.1432024 0.1339909 0.073421024 0.14832541 -0.23752297 -0.02040686 0.08739933 0.113685444
0.05811803 -0.06701575 0.03781865 0.2549458 0.19711766 -0.20815223 -0.13152653 -0.32075918
0.15215799 0.1246005 0.02133536 -0.09508681 0.18332483 -0.27562022 -0.03506481 0.18614615
0.047429845 0.15302178 -0.21889791 0.18579285 -0.119164996 0.37547004 -0.08414194 0.15392362
0.01787447 0.22934318 0.28253642 0.12850584 0.2859312 0.2025974 0.037527025 0.18002805
-0.07631625 -0.088845424 0.011688582 0.22987421 0.06749128 0.001064989 0.1981944 -0.1782369
0.11778719 0.033505384 0.13254392 0.10310061 -0.11146804 0.031461257 0.04887864 -0.30752695
-0.14880706 0.006744551 0.10623087 0.10373648 0.15664843 0.20227236 0.122727945 -0.043626007
0.08955588 0.21530072 -0.032545775 0.0006059712 0.08733839 0.103795886 0.31196964 0.066737846
0.03451767 0.07255332 -0.13322745 -0.1686276 -0.014596548 -0.06548359 -0.06676259 0.12394301
-0.18646015 0.20238689 -0.1726979 -0.101722166 -0.06922194 0.08690201 0.20476383 -0.05532401
-0.15905531 0.113451675 0.118322305 -0.2967467 -0.17062324 -0.08180936 -0.022869885 0.26593348
-0.22310044 0.051194575 0.029786864 -0.17107725 0.110729374 -0.15973476 -0.086377054 0.10328551
-0.05847561 -0.14777711 0.080989085 0.2143735 0.24006066 0.05719964 0.1943332 0.20011814
0.03223879 0.15801322 -0.08686778 0.035052344 -0.17733258 0.060032852 0.19988212 -0.040362302
00000000: f709 7f3d 4a5e 23be d7e8 39be 97cc 25be
00000010: 3eb2 d23c 063f 1c3e d36b 54bd 43be de3d
00000020: c899 2bbe cf01 9d3d 1359 aebd 9441 2a3e
00000030: 4ea6 89be f4de 753e 9276 68bd a5c5 83bd
00000040: 766d 33be 37ff f2bd 48f5 57be 3c9c 80bd
00000050: 7e1f 36bd b70c ad3d 4cb0 413e 470a 0abe
00000060: 605e a7bd 248b 2b3e 4964 0cbc 2fd5 a93d
00000070: 26a8 4e3c af55 153e bdf4 4a3d ff9c a83d
00000080: 5585 5ebe 06a1 27bd ac17 333e 658d 6d3d
00000090: 913a 5f3e 2817 153e 0ca4 f8bd b375 75be
000000a0: 0da9 1a3e 4eba ffbd 37a2 023e cef9 943d
000000b0: 3077 bbbd 5122 0f3d a361 62bd 1dfa f53c
000000c0: eb73 0d3e b5ff 3f3d e46d 363d e50e 1ebe
000000d0: 7d13 c83d 330a dd3d dc14 103e 4bee b4bd
000000e0: 540a 023e 2a50 ffbc 6ad2 56bd 9572 193e
000000f0: 5dd0 6e3d 94b6 403e 7cb4 2abe 9500 863e
00000100: 5113 c0bd fe46 773a bbd7 373d b3c6 abbe
00000110: edfb 9abe beee 953d 9ad0 aa3e 8955 993d
00000120: 02fe 6cbe 6784 52bf 4d4d 36be c1d5 aebd
00000130: 0161 193e b655 ad3e 2795 453e 0c5e 7dbe
00000140: 6a16 213d e98e cc3c eb17 7dbe a200 f1bc
00000150: a163 36be a9ba 07bf 37fb 93bd 2e74 be3e
00000160: 17d8 a13d 56fe ce3d bcb5 d53d 9c07 babc
00000170: b1b8 89bd ab7e 60be cd6a 013f c58a b93d
00000180: c38b 5ebe 5dc0 83bd edc7 c43d d318 b2bd
00000190: 6b25 b03e 8943 113b ba8d 08bc 28ac 35be
000001a0: f276 b2bc 69d0 87be f4ee cabe 8829 1c3d
000001b0: 8843 e8bd 6cfd d23d 3119 aabe 4e5c 3cbe
000001c0: fce0 a03e 6444 023d a19d 313e 92e0 afbe
000001d0: 0fe3 0dbc 732b 343e 41d6 2dbe 35d6 7c3d
000001e0: 187f 1cbe 63c5 5f3e c2db d0be 1619 12bd
000001f0: a874 a3bd b760 68bd f09a 67be 1cab 56be
00000200: a961 ad3b 0912 f73d 2812 2ebe 96a1 a93d
00000210: 8757 783e 4f78 e9bd a972 c23d 340a a93d
00000220: a6a3 123e e934 093e c35d 963d 9ee2 173e
00000230: 3939 73be 4a2c a7bc 6cfe b23d ead3 e83d
00000240: 2c0d 6e3d 8e3f 89bd bbe7 1a3d 4288 823e
00000250: 36d9 493e dc25 55be e4ae 06be 8c3a a4be
00000260: 4ecf 1b3e 8c2e ff3d 7ec7 ae3c e0bc c2bd
00000270: 81b9 3b3e 181e 8dbe 1ea0 0fbd 199d 3e3e
00000280: cc45 423d beb1 1c3e c626 60be 7b40 3e3e
00000290: c70c f4bd 9c3d c03e 9c52 acbd 279e 1d3e
000002a0: 7b6d 923c f0d8 6a3e 9da8 903e 0997 033e
000002b0: 9365 923e b175 4f3e f0b5 193d 4659 383e
000002c0: b24b 9cbd 97f4 b5bd 7781 3f3c 2564 6b3e
000002d0: de38 8a3d 1a97 8b3a 79f3 4a3e bc83 36be
000002e0: 693a f13d f13c 093d 98b9 073e 6a26 d33d
000002f0: 5b49 e4bd 85dd 003d f834 483d 2c74 9dbe
00000300: e160 18be 6501 dd3b 928f d93d cb73 d43d
00000310: 7268 203e 7c20 4f3e ca58 fb3d 2fb1 32bd
00000320: 1369 b73d cb77 5c3e b84e 05bd 0ada 1e3a
00000330: 78de b23d f092 d43d 7cba 9f3e daad 883d
00000340: 6662 0d3d d696 943d c76c 08be b7ac 2cbe
00000350: 5c26 6fbc 431c 86bd d3ba 88bd d5d5 fd3d
00000360: 69ef 3ebe 823e 4f3e b8d7 30be b653 d0bd
00000370: 3cc4 8dbd aef9 b13d 9cad 513e 6e9b 62bd
00000380: 65df 22be 5a59 e83d f752 f23d 2fef 97be
00000390: dcb7 2ebe aa8b a7bd a059 bbbc 6f28 883e
000003a0: 7174 64be 67b1 513d 9503 f43c e02e 2fbe
000003b0: 15c6 e23d 8291 23be 74e6 b0bd 5a87 d33d
000003c0: 1f84 6fbd e252 17be 9bdd a53d ba84 5b3e
000003d0: 76d2 753e 2b4a 6a3d 48ff 463e c5eb 4c3e
000003e0: d20c 043d 38ce 213e bce7 b1bd 0c93 0f3d
000003f0: ac96 35be 02e5 753d e6ad 4c3e f152 25bd

network.4.bias f4 [64]
0.05925424 0.12869348 -0.04210621 -0.02885239 0.14735888 -0.20515828 0.23428784 -0.0408216
0.00066638115 -0.002365791 0.04372324 -0.001644798 0.07468252 -0.16600461 0.010493112 -0.008516411
0.033531237 -0.016858373 -0.12246643 0.004130449 -0.08856357 0.07755462 -0.048004176 -0.06767
0.0531857 0.10744444 -0.006477633 0.19147152 0.0001174348 0.026352122 0.08077958 0.11597452
0.053858284 0.058318436 0.08574704 -0.055816516 0.023140628 -0.07975798 -0.13810612 -0.023035219
-0.14293402 0.017134687 0.047466505 -0.25199687 -0.001113144 -0.11588541 0.0023977829 -0.017732723
-0.10784861 0.016064556 -0.019455388 -0.012065196 0.019165296 -0.100846566 -0.019230302 0.04963084
-0.07413816 0.10609894 0.06912649 0.11087781 -0.120838866 0.0017499527 -0.036744267 0.12528749
00000000: 93b4 723d 39c8 033e 9077 2cbd d95b ecbc
00000010: 3fe5 163e 0315 52be 27e9 6f3e 8d34 27bd
00000020: 15b0 2e3a 630b 1bbb 2417 333d 4396 d7ba
00000030: 26f3 983d 1dfd 29be 4deb 2b3c 6b88 0bbc
00000040: 0d58 093d 921a 8abc aecf fabd b858 873b
00000050: d160 b5bd f5d4 9e3d 07a0 44bd 9296 8abd
00000060: 40d9 593d d50b dc3d 5342 d4bb 1c11 443e
00000070: 5447 f638 68e0 d73c c46f a53d 0d84 ed3d
00000080: 819a 5c3d 50df 6e3d 259c af3d dc9f 64bd
00000090: 6a91 bd3c 2758 a3bd b16b 0dbe 5bb4 bcbc
000000a0: 4c5d 12be 0b5e 8c3c 3d6c 423d bc05 81be
000000b0: eae6 91ba 5455 edbd 1f24 1d3b 3744 91bc
000000c0: bbdf dcbd d199 833c e860 9fbc 1aad 45bc
000000d0: 8a00 9d3c a588 cebd de88 9dbc b549 4b3d
000000e0: bfd5 97bd 674a d93d 3092 8d3d e813 e33d
000000f0: 5e7a f7bd ab5e e53a 2881 16bd 5d4b 003e

network.6.weight f4 [64, 64]
0.20578153 0.26536933 -0.36260834 0.012377983 0.027117874 -0.59373546 0.7828295 0.07753202
-0.1827862 0.0112646455 -0.229877 -0.119241714 0.14925633 -0.10959983 0.053971868 0.02996841
0.2411088 -0.08666894 -0.047897413 0.18665664 0.03297528 0.11066264 0.006851077 0.19304138
0.23447745 -0.14852953 0.12275088 0.32186517 0.083580025 -0.012417478 0.2105858 0.161701
0.082786165 0.2951309 -0.08805468 -0.13519515 0.12230017 -0.18284951 -0.47919142 0.030352827
-0.24537848 0.18095957 -0.19110484 0.0474213 -0.45582217 0.12803672 0.1534119 -0.010756411
0.02504261 -0.17808947 -0.09798957 -0.01686601 0.0663519 -0.2148164 0.18918252 -0.010170267
-0.15638904 0.102728665 -0.19171365 -0.1704738 0.075220644 0.20597942 0.24037461 0.3703102
0.04904023 0.04100294 0.040488027 0.077215925 0.14915146 0.4037551 -0.10595694 -0.024710445
0.17618361 -0.09430386 0.027908904 0.1782998 0.11400528 -0.19973992 -0.11790564 -0.13747384
0.055264838 0.104757175 0.2704793 0.021866838 -0.11320185 -0.05734885 -0.12279721 0.02952675
0.17282596 -0.11620741 0.092750534 -0.14343566 0.02876922 0.14185917 -0.13775995 0.07974368
0.03318275 -0.13810381 0.006723556 -0.03652126 -0.06055933 -0.16062577 0.02810395 0.039521605
-0.050688293 0.17954493 -0.03274615 -0.038965564 0.019266032 -0.04443067 0.04556195 0.020130143
-0.113318406 -0.17283012 0.0566535 0.114684515 -0.07407251 -0.086162336 -0.10040249 0.059143405
0.04079107 -0.030614836 0.13970277 -0.12966889 0.17152841 0.047194205 -0.055415474 0.047427267
-0.09691087 0.024271216 0.16222392 0.18619385 0.0634575 -0.20344055 0.34277013 -0.16884503
0.052832857 -0.18282683 -0.10485692 -0.03459122 0.33048925 0.07025622 0.09746267 0.04992054
-0.18750623 0.2170443 -0.12806116 0.0011931974 0.16698752 0.067958295 -0.03726525 0.024905082
0.042625953 0.07326408 -0.023133358 0.004037777 0.08089178 -0.25740385 -0.10225877 -0.28008327
0.13513109 -0.13906153 0.40133205 0.19171223 -0.23937812 0.28590465 0.032966763 -0.09206907
0.16187128 -0.12061932 -0.028504549 0.10492617 -0.030335186 0.102889754 0.095855065 0.22593147
-0.14348981 0.30621892 -0.2447346 -0.03211304 -0.04135139 0.1290877 -0.26155078 -0.20619859
0.0006044646 0.030925833 0.0722959 0.30067486 0.010514713 0.041242495 -0.0746937 0.10246717
-0.06799006 0.17019512 -0.10016171 0.08353992 -0.0491437 0.10763176 -0.18064277 0.34023902
0.0606417 -0.20810893 0.18093768 0.055495314 0.10833033 -0.06635664 -0.04168957 0.06823602
-0.02532947 -0.071690015 -0.2136893 -0.036273725 0.21364747 0.017125499 -0.15719382 0.13242231
0.020928644 0.19909571 -0.024550403 -0.059295036 -0.15209532 -0.19258204 0.025269067 -0.11945848
-0.019768665 -0.2438634 0.109060325 -0.16077308 -0.11424414 -0.27998874 -0.007899576 -0.14314835
0.31294075 0.20909518 0.10049723 0.099339515 -0.1145775 0.053653926 -0.16820477 0.079234205
-0.1059591 0.104747854 -0.03280703 0.19443677 0.08806875 0.16870674 -0.033133104 -0.08064632
0.17531937 0.13439171 -0.110481665 -0.31955975 0.051605493 0.25084633 -0.1123284 -0.06339392
00000000: 65b8 523e 7dde 873e cda7 b9be 06cd 4a3c
00000010: 4e26 de3c 0cff 17bf 8467 483f 1cc9 9e3d
00000020: 4e2c 3bbe 598f 383c e064 6bbe 0035 f4bd
00000030: a7d6 183e e075 e0bd 9b11 5d3d 5080 f53c
00000040: 3ae5 763e 7c7f b1bd 1430 44bd eb22 3f3e
00000050: 1611 073d 18a3 e23d 007f e03b a4ac 453e
00000060: db1a 703e 2018 18be d064 fb3d 83cb a43e
00000070: 012c ab3d ad72 4bbc cea3 573e f294 253e
00000080: cb8b a93d 661b 973e 0356 b4bd 9970 0abe
00000090: 8378 fa3d e73c 3bbe 9458 f5be 7ea6 f83c
000000a0: 7f44 7bbe 774d 393e fdb0 43be d63c 423d
000000b0: 8661 e9be 0f1c 033e 0218 1d3e a83b 30bc
000000c0: 2926 cd3c 165d 36be c1ae c8bd 962a 8abc
000000d0: 81e3 873d d5f8 5bbe 10b9 413e 31a1 26bc
000000e0: 7324 20be 6863 d23d 9550 44be af90 2ebe
000000f0: 480d 9a3d 45ec 523e c324 763e 4c99 bd3e
00000100: 69de 483d b3f2 273d c6d6 253d 6223 9e3d
00000110: 29bb 183e fdb8 ce3e f4ff d8bd 8f6d cabc
00000120: 7a69 343e 6222 c1bd 37a1 e43c 3994 363e
00000130: 9a7b e93d 9f88 4cbe 8378 f1bd f1c5 0cbe
00000140: 625d 623d ee8a d63d 437c 8a3e 1522 b33c
00000150: 5fd6 e7bd a1e6 6abd 1b7d fbbd 15e2 f13c
00000160: 4af9 303e 27fe edbd fef3 bd3d cce0 12be
00000170: 6dad eb3c 8843 113e f210 0dbe a850 a33d
00000180: a3ea 073d 166b 0dbe 4751 dc3b 5197 15bd
00000190: 0f0d 78bd 157b 24be 413a e63c 68e1 213d
000001a0: 879e 4fbd a0da 373e d420 06bd 5b9a 1fbd
000001b0: ccd3 9d3c effc 35bd 2b9f 3a3d f8e7 a43c
000001c0: 7b13 e8bd 61fa 30be 800d 683d b7df ea3d
000001d0: 54b3 97bd e175 b0bd d29f cdbd 5b40 723d
000001e0: 8914 273d f7cb fabc 3e0e 0f3e ecc7 04be
000001f0: 25a5 2f3e b64e 413d 56fb 62bd 1843 423d
00000200: 3579 c6bd 6ed4 c63c 071e 263e 9aa9 3e3e
00000210: 01f6 813d b852 50be 917f af3e b6e5 2cbe
00000220: 4467 583d f536 3bbe 3abf d6bd 86af 0dbd
00000230: e335 a93e 7ee2 8f3d 829a c73d 7b79 4c3d
00000240: a201 40be dc40 5e3e 7722 03be 1065 9c3a
00000250: c7fe 2a3e b82d 8b3d 72a3 18bd be05 cc3c
00000260: 8d98 2e3d 7a0b 963d 2b82 bdbc 544f 843b
00000270: 97aa a53d 70ca 83be 0c6d d1bd 1367 8fbe
00000280: ce5f 0a3e 2566 0ebe 657b cd3e 3650 443e
00000290: 8a1f 75be 1862 923e 2808 073d b58e bcbd
000002a0: 96c1 253e 4307 f7bd 5f82 e9bc 88e3 d63d
000002b0: 7f81 f8bc ddb7 d23d a94f c43d 945a 673e
000002c0: feee 12be bac8 9c3e b59b 7abe f788 03bd
000002d0: 1360 29bd 912f 043e fce9 85be b925 53be
000002e0: ef74 1e3a 2c58 fd3c df0f 943d 0ef2 993e
000002f0: e745 2c3c e4ed 283d 03f9 98bd 4fda d13d
00000300: 5f3e 8bbd a147 2e3e 9521 cdbd fa16 ab3d
00000310: e84a 49bd 0a6e dc3d 6bfa 38be cf33 ae3e
00000320: 6e63 783d 821a 55be ba47 393e 0e4f 633d
00000330: 4bdc dd3d fde5 87bd afc2 2abd 54bf 8b3d
00000340: c07f cfbc 37d2 92bd 5ed1 5abe c293 14bd
00000350: 67c6 5a3e c64a 8c3c 6bf7 20be b799 073e
00000360: 8c72 ab3c bfdf 4b3e ed1d c9bc 5adf 72bd
00000370: e0be 1bbe 3a34 45be 1301 cf3c a6a6 f4bd
00000380: e5f1 a1bc 54b7 79be 055b df3d b3a1 24be
00000390: d5f8 e9bd af5a 8fbe 396d 01bc 7b95 12be
000003a0: c539 a03e 0c1d 563e 7ed1 cd3d 8472 cb3d
000003b0: 9ca7 eabd 38c4 5b3d df3d 2cbe 8b45 a23d
000003c0: 1601 d9bd 0b86 d63d aa60 06bd 6f1a 473e
000003d0: 645d b43d 76c1 2c3e 94b6 07bd e629 a5bd
000003e0: ec86 333e fb9d 093e 3644 e2bd 569d a3be
000003f0: 4860 533d ee6e 803e 6f0c e6bd acd4 81bd

network.6.bias f4 [64]
0.11618597 0.02477547 -0.026212687 0.17602986 -0.22494215 -0.05710631 -0.027889121 0.17508855
0.111292005 0.054985054 -0.04584367 0.2983748 0.12516671 -0.0064019496 -0.057126172 -0.3455108
-0.059617326 -0.03130648 0.07157031 -0.15167989 -0.07563046 0.26986596 0.032043017 0.06583718
0.007464121 0.12793659 -0.04734517 -0.096441075 0.02188816 -0.042618178 -0.07843118 0.06518486
0.019483533 0.0053705247 -0.08381318 -0.0497174 -0.09424016 -0.08077293 -0.17514214 0.1621017
-0.16482066 0.13657267 0.029182967 -0.13220355 -0.22762112 0.1254395 -0.028137363 0.17994145
0.09463363 -0.30680615 -0.0861035 0.22677416 -0.17862286 -0.16897118 -0.116421506 0.043349165
0.0025638738 0.15645245 -0.14716172 -0.17996223 -0.07730088 -0.32233799 0.19657668 -0.082059905
00000000: e9f2 ed3d edf5 ca3c fdbb d6bc 2c41 343e
00000010: 3c57 66be 4ee8 69bd ba77 e4bc 6a4a 333e
00000020: 10ed e33d 0238 613d 92c6 3bbd 95c4 983e
00000030: b42b 003e 72c7 d1bb 22fd 69bd cbe6 b0be
00000040: 4c31 74bd 393b 00bd 7493 923d f951 1bbe
00000050: 25e4 9abd df2b 8a3e 8a3f 033d a5d5 863d
00000060: 9695 f43b cf01 033e 02ed 41bd e682 c5bd
00000070: cc4e b33c 6690 2ebd 87a0 a0bd a47f 853d
00000080: ee9b 9f3c 3afb af3b 3fa6 abbd 79a4 4bbd
00000090: fc00 c1bd 476c a5bd 7658 33be fdfd 253e
000000a0: bfc6 28be b5d9 0b3e 1e11 ef3c 5e60 07be
000000b0: 8315 69be 3673 003e 5480 e6bc 9242 383e
000000c0: 47cf c13d b215 9dbe 0857 b0bd 7c37 683e
000000d0: e9e8 36be c806 2dbe 666e eebd e58e 313d
000000e0: aa06 283b 1235 203e 90b1 16be 0548 38be
000000f0: ec4f 9ebd 7c09 a5be 664b 493e 060f a8bd

network.8.weight f4 [64, 64]
0.07645402 0.020218506 0.21392447 -0.14191268 0.22056414 -0.02842176 -0.22059004 -0.013173885
0.036215253 0.20643601 0.19674094 -0.08457797 0.11067617 -0.095598504 0.103430584 -0.048086733
0.0046442063 0.21967925 -0.00048495657 -0.046916433 0.032307338 0.05495002 0.01786353 -0.2349545
0.11218524 0.17331189 -0.045668416 -0.08528283 -0.13386305 0.66743934 -0.12221666 0.20004724
-0.121454276 -0.15561946 -0.11928122 -0.1701941 -0.06390626 0.043770406 0.037048902 0.010543765
0.13497534 -0.031186366 -0.044043384 -0.2837606 0.04507018 0.012705596 -0.17946723 0.12844072
0.13278374 0.19969922 -0.14377232 0.14220968 0.06974338 0.12405294 0.22842075 0.1330247
0.007400637 0.07366235 -0.029501192 0.0039226254 0.043193296 0.46344757 0.0146397 -0.101049885
0.08472676 0.0052930037 0.16212633 -0.25413114 -0.057244282 0.07725584 0.014141256 -0.15537462
0.08368395 0.065971404 -0.0523817 0.0974039 -0.16651048 -0.046486784 0.16331537 -0.030063486
-0.11661851 0.07765379 0.20890155 0.043004714 0.1415007 0.07874007 0.09577266 0.12441069
0.07363699 -0.01606218 0.2271362 0.058465976 0.20605287 0.055855323 0.009576945 -0.26565096
-0.008281429 0.082461536 -0.06974648 0.14434236 0.11890239 -0.14301635 -0.17523919 0.04921295
-0.059727278 0.15646698 0.3272678 0.28816876 -0.0058540455 -0.09352813 -0.019237278 0.049170572
0.025949266 -0.14614393 -0.005009406 0.032758486 0.1367964 -0.15236503 0.10149793 -0.04773368
-0.06983648 0.019528419 -0.12563577 0.22979632 0.1388471 0.25822684 -0.019465867 -0.124403544
0.10923449 0.1331841 -0.07591006 -0.1763847 -0.11660566 -0.028274795 0.17334351 -0.027312275
0.035783865 -0.16978663 0.06121345 0.16332354 0.032447718 0.1030712 -0.015454347 0.008647942
0.11230966 0.08858391 -0.07103277 -0.07762027 -0.02033463 0.1307753 -0.025023423 -0.18785903
0.23930493 0.014839784 -0.14848043 -0.17872597 -0.082358465 -0.032879528 -0.023758965 0.04070342
0.10754847 -0.123628944 0.25867286 0.061323944 0.03376998 0.18997516 0.11665005 -0.085478395
-0.08689139 -0.15086931 -0.04553316 -0.19623138 -0.097268045 0.1691546 -0.121872224 -0.0020349722
0.02861741 -0.0009533117 0.04997006 0.101585 0.16439494 -0.06828854 0.09796155 -0.29535836
-0.05478673 0.011799127 0.103913404 -0.22184606 0.13467798 0.33322948 -0.058250822 -0.40564403
-0.2773127 0.15725876 0.110229775 -0.15261614 0.14506547 0.15365829 0.029260125 -0.057403024
-0.08333963 -0.18027276 0.21778764 -0.20839572 0.004537411 -0.1302486 0.22599319 -0.3130403
0.22099373 -0.04645929 -0.22879384 0.08423227 0.11069129 0.047291186 -0.056226317 0.38918734
-0.04890939 0.061538044 0.018168816 0.116569914 0.29268557 0.32075036 -0.12529497 0.20237976
-0.036128648 -0.08266623 0.099144824 0.17866175 0.26646093 -0.15189604 -0.078412555 -0.04758129
0.14840174 0.02928674 -0.23750605 -0.2292463 0.20204039 0.07966539 0.053354084 -0.027765175
0.08776364 0.15511648 0.06474155 -0.15385287 0.17658605 -0.22050111 -0.11929412 0.16519633
0.034750555 -0.18983996 -0.087492645 0.13332589 0.01997244 0.19873106 -0.16654985 0.101205155
00000000: ed93 9c3d 48a1 a53c 040f 5b3e 8f51 11be
00000010: 91db 613e c0d4 e8bc 5be2 61be 47d7 57bc
00000020: 7256 143d f663 533e 7576 493e 3737 adbd
00000030: 30aa e23d 26c9 c3bd 6ad3 d33d 98f6 44bd
00000040: 6d2e 983b 99f3 603e c541 feb9 722b 40bd
00000050: b354 043d 4613 613d 8a56 923c ea97 70be
00000060: 60c1 e53d ac78 313e ce0e 3bbd c4a8 aebd
00000070: 6513 09be 4edd 2a3f ba4c fabd 2fd9 4c3e
00000080: 05bd f8bd b55a 1fbe b649 f4bd 5d47 2ebe
00000090: 49e1 82bd 9948 333d 97c0 173d c1bf 2c3c
000000a0: fa36 0a3e 8d7a ffbc d666 34bd 1249 91be
000000b0: 829b 383d 222b 503c 42c6 37be f785 033e
000000c0: 76f8 073e f47d 4c3e 0d39 13be 6a9f 113e
000000d0: 9ed5 8e3d 780f fe3d 21e7 693e a137 083e
000000e0: 0b81 f23b 49dc 963d 7cac f1bc 5e89 803b
000000f0: 74eb 303d 0049 ed3e 5adb 6f3c 3ef3 cebd
00000100: 3985 ad3d ef70 ad3b 7204 263e 7a1d 82be
00000110: fb78 6abd 4f38 9e3d bab0 673c 861a 1fbe
00000120: 7e62 ab3d 041c 873d 328e 56bd b27b c73d
00000130: b981 2abe ed68 3ebd 253c 273e b347 f6bc
00000140: afd5 eebd f308 9f3d 4aea 553e b625 303d
00000150: 8fe5 103e 7942 a13d 7524 c43d 08cb fe3d
00000160: fdce 963d d594 83bc 6496 683e 057a 6f3d
00000170: 86ff 523e 8dc8 643d 9ee8 1c3c 6703 88be
00000180: d5ae 07bc 98e1 a83d 3ed7 8ebd 7cce 133e
00000190: 1983 f33d e172 12be e771 33be 8593 493d
000001a0: 97a4 74bd e138 203e a58f a73e db8a 933e
000001b0: 4bd3 bfbb ad8b bfbd 7f97 9dbc 1567 493d
000001c0: 8e93 d43c c1a6 15be f125 a4bb c32d 063d
000001d0: 5b14 0c3e 9405 1cbe 26de cf3d 6484 43bd
000001e0: 6e06 8fbd 10fa 9f3c aaa6 00be ba4f 6b3e
000001f0: ef2d 0e3e 4f36 843e e276 9fbc 49c7 febd
00000200: 55b6 df3d 6a61 083e bc76 9bbd 319e 34be
00000210: f3ce eebd 8ba0 e7bc f680 313e febd dfbc
00000220: 1a92 123d 8cdc 2dbe f4ba 7a3d 493e 273e
00000230: e6e7 043d fe16 d33d 3b34 7dbc 19b0 0d3c
00000240: 9b02 e63d 7b6b b53d a179 91bd 60f7 9ebd
00000250: cf94 a6bc f6e9 053e ecfd ccbc 1e5e 40be
00000260: 5a0c 753e 9122 733c 410b 18be f103 37be
00000270: 8eab a8bd afac 06bd 29a2 c2bc a1b8 263d
00000280: 5f42 dc3d 2c31 fdbd c570 843e d12e 7b3d
00000290: 6452 0a3d d988 423e 39e6 ee3d 4c0f afbd
000002a0: 1df4 b1bd 7c7d 1abe fb80 3abd e1f0 48be
000002b0: 7834 c7bd dd36 2d3e 2598 f9bd 2b5d 05bb
000002c0: 0f6f ea3c aae7 79ba 68ad 4c3d cc0b d03d
000002d0: 2657 283e ddda 8bbd 11a0 c83d 3639 97be
000002e0: 0d68 60bd 2051 413c 8dd0 d43d 9d2b 63be
000002f0: 06e9 093e 0e9d aa3e 6a98 6ebd 93b0 cfbe
00000300: eefb 8dbe 7108 213e 26c0 e13d 6847 1cbe
00000310: 0b8c 143e 9958 1d3e eeb2 ef3c 6f1f 6bbd
00000320: f8ad aabd 6c99 38be b903 5f3e b065 55be
00000330: 90ae 943b e45f 05be c26a 673e d146 a0be
00000340: 2e4c 623e 194c 3ebd ef48 6abe f881 ac3d
00000350: 1db2 e23d 67b4 413d 914d 66bd 9043 c73e
00000360: 3655 48bd 510f 7c3d c5d6 943c 35bc ee3d
00000370: e2da 953e 6439 a43e 534d 00be a43c 4f3e
00000380: a2fb 13bd ea4c a9bd 710c cb3d 1bf3 363e
00000390: 916d 883e a38a 1bbe c396 a0bd 99e4 42bd
000003a0: a0f6 173e bfea ef3c c934 73be 8bbf 6abe
000003b0: ade3 4e3e 9c27 a33d d089 5a3d cb73 e3bc
000003c0: 6cbd b33d dbd6 1e3e 3897 843d 9b8b 1dbe
000003d0: f9d2 343e 0bcb 61be 7a50 f4bd 3a29 293e
000003e0: 9956 0e3d 6865 42be 582f b3bd 9586 083e
000003f0: 3e9d a33c 2880 4b3e 0b8c 2abe a644 cf3d

network.8.bias f4 [64]
-0.11225361 0.039984964 -0.044807173 -0.13956514 0.1583865 -0.22583582 0.040335666 0.15638775
0.054073542 0.19388552 -0.1562765 0.05805584 -0.07366153 0.06100154 -0.05400499 0.28452197
0.14197084 -0.17439723 0.034285385 -0.115558855 -0.0397133 0.00053084164 0.099830724 0.055801295
0.08654901 0.10648067 0.074515924 -0.0191539 0.0029021676 -0.012929146 0.05717916 0.06340456
0.020286785 0.091899455 -0.03304688 -0.022596525 0.040961698 0.09887007 0.19495963 0.103363656
0.06781486 0.037028007 -0.0901739 0.0065135253 -0.043127768 -0.12408156 -0.08364699 -0.10640399
0.028153516 -0.05027188 -0.1728663 0.12025317 0.25097504 0.048589785 -0.023784256 -0.00766031
0.10520564 -0.13264413 0.17781433 -0.10610056 -0.044145774 -0.18085475 0.025428038 -0.1723725
00000000: 38e5 e5bd 46c7 233d ba87 37bd 2aea 0ebe
00000010: 1230 223e 8141 67be 0337 253d 1c24 203e
00000020: 387c 5d3d ed89 463e f206 20be f6cb 6d3d
00000030: dbdb 96bd c0dc 793d 5634 5dbd ddac 913e
00000040: ce60 113e 3095 32be d56e 0c3d 1faa ecbd
00000050: 6aaa 22bd 2e28 0b3a 0d74 cc3d e68f 643d
00000060: 9b40 b13d 8a12 da3d ce9b 983d a4e8 9cbc
00000070: 4b32 3e3b c5d4 53bc b234 6a3d 40da 813d
00000080: 7930 a63c c835 bc3d 2a5c 07bd 591c b9bc
00000090: 74c7 273d 647c ca3d 7fa3 473e 53b0 d33d
000000a0: 84e2 8a3d aeaa 173d 18ad b8bd 696f d53b
000000b0: bea6 30bd 791e febd 1d4f abbd 56ea d9bd
000000c0: 34a2 e63c e3e9 4dbd dd03 31be 4b47 f63d
000000d0: cd7f 803e 1506 473d 33d7 c2bc 5603 fbbb
000000e0: 0e76 d73d ddd3 07be f614 363e 404b d9bd
000000f0: 33d2 34bd fd31 39be 764e d03c 6b82 30be

network.10.weight f4 [64, 64]
-0.4108339 0.03560757 -0.042769235 -0.10330507 0.16572024 0.1550246 -0.21839984 0.16033055
0.027711704 0.042529017 -0.14399643 0.249505 0.033585466 0.024180608 0.13326736 0.13322808
-0.07425407 -0.021276532 -0.20977429 -0.3197613 -0.13191238 -0.04526624 -0.069190785 -0.044541717
-0.04918105 0.12908807 -0.03997484 0.23002489 0.25923845 0.010269832 -0.013795615 0.026259903
-0.023571866 0.047527064 0.25315347 -0.16371407 0.13799877 -0.06189594 -0.11416005 0.027368622
-0.27523044 0.16911745 0.0278857 -0.28419033 0.12689166 0.1414351 -0.065260194 -0.1117963
0.09063725 0.16123946 -0.105017655 -0.100366116 -0.20330538 -0.09444452 -0.43827885 0.17133877
-0.07023506 0.04577238 -0.21590535 -0.43647352 -0.03194167 0.20815587 -0.23128085 -0.16407368
0.20437366 -0.14194289 0.044795495 -0.03269512 -0.14295459 0.13218161 -0.23848018 0.28833523
-0.10326841 0.057786584 0.02680007 -0.2538381 0.028727211 -0.05493231 0.044313297 -0.4162901
0.08753732 0.059634086 -0.09774227 -0.10606167 0.07642863 0.09969277 -0.0011231636 0.1796575
0.096206024 -0.011308529 -0.047301326 -0.09736264 0.21715328 -0.09407482 0.10275947 -0.25494123
-0.2921298 -0.05180692 0.12719698 0.12612015 -0.19608769 -0.27716073 0.022732964 -0.34528437
-0.22861521 -0.107477255 0.078057215 -0.06441462 0.089202836 0.01459268 -0.16575982 0.4097209
-0.1746552 -0.25805646 0.25668922 0.26401824 -0.21292023 -0.14189251 -0.2190414 0.19483913
-0.27764055 0.24396367 -0.3062021 0.28226262 -0.050640438 0.11311343 -0.4043805 0.1646076
0.19325298 -0.08430456 0.14164127 -0.22467072 0.15778215 -0.19636412 -0.06668295 0.067460135
-0.14268918 -0.014832199 0.051502228 -0.15605283 0.33216605 0.052621916 -0.109227486 -0.10616611
-0.34479788 0.029617252 0.059160862 0.052727096 -0.2608585 -0.08964633 0.006418191 0.15619381
-0.019860262 -0.2321221 -0.32700226 -0.36215597 -0.2676413 0.07978406 -0.092771955 0.05762419
-0.007276591 0.099588454 0.09527952 0.22583485 -0.089876115 -0.112995 0.03977758 0.20903498
0.034700777 -0.20832482 0.072937645 -0.19479164 0.068132505 0.15598038 0.14592977 0.35687765
-0.44652313 -0.029371705 0.28652045 0.16532795 -0.14124903 -0.12578222 -0.19365332 -0.16451876
-0.06703272 0.015055407 0.08410489 0.17183521 0.14948995 -0.43011945 0.06369609 0.27397645
0.050511196 -0.035484113 -0.06752531 -0.09315639 -0.12102301 -0.35717714 -0.0636652 0.07030801
0.013675872 0.054441027 0.13196063 -0.071441494 -0.2992339 -0.14213897 0.12305416 0.3151014
-0.092933945 -0.17020555 -0.002707474 0.044137217 -0.19126944 0.13332722 -0.00049850374 -0.066821985
0.14095095 0.27145535 0.22738516 -0.016026486 -0.009915056 0.08494582 -0.18233263 -0.061905082
-0.24983843 0.117526434 -0.17871225 -0.04315255 -0.054228067 0.14164437 0.0044323974 0.25081587
0.35497224 -0.024699513 -0.093347624 -0.2959338 0.3184952 -0.21032463 -0.27953818 -0.02446101
0.09166603 0.11077251 -0.4183594 -0.22126487 0.2925962 -0.1803814 0.16748661 -0.15299839
0.010662688 0.10248481 -0.45050707 0.09022826 -0.014344974 -0.078183435 -0.10087248 0.0053256126
00000000: d258 d2be 3ed9 113d cb2e 2fbd 9c91 d3bd
00000010: 91b2 293e c5be 1e3e 35a4 5fbe b12d 243e
00000020: a803 e33c e832 2e3d cd73 13be 3d7e 7f3e
00000030: ea90 093d 6916 c63c 3d77 083e f16c 083e
00000040: 8512 98bd 1f4c aebc 12cf 56be c1b7 a3be
00000050: 0a14 07be 1869 39bd e6b3 8dbd 6071 36bd
00000060: 1272 49bd aa2f 043e a8bc 23bd a58b 6b3e
00000070: e7ba 843e cc42 283c 0107 62bc 021f d73c
00000080: c919 c1bc bdab 423d 559d 813e a9a4 27be
00000090: 8d4f 0d3e 9986 7dbd bfcc e9bd 2934 e03c
000000a0: 01eb 8cbe 202d 2d3e 8d70 e43c 6581 91be
000000b0: e3ef 013e 5dd4 103e 23a7 85bd 75f5 e4bd
000000c0: 06a0 b93d f51b 253e 7f13 d7bd c08c cdbd
000000d0: 492f 50be 216c c1bd 1666 e0be 6e73 2f3e
000000e0: 66d7 8fbd d27b 3b3d 4b16 5dbe 7579 dfbe
000000f0: 45d5 02bd d026 553e e3d4 6cbe ee02 28be
00000100: 5447 513e 7a59 11be 7b7b 373d 51eb 05bd
00000110: b062 12be 9e5a 073e 2634 74be ada0 933e
00000120: 637e d3bd a0b1 6c3d d28b db3c 11f7 81be
00000130: 5455 eb3c b400 61bd dc81 353d fa23 d5be
00000140: c446 b33d df42 743d 192d c8bd dc36 d9bd
00000150: 9d86 9c3d b92b cc3d 1e37 93ba 23f8 373e
00000160: aa07 c53d 6947 39bc 09bf 41bd 1066 c7bd
00000170: 6e5d 5e3e 4daa c0bd 8f73 d23d a887 82be
00000180: 0a92 95be 7e33 54bd ed3f 023e a425 013e
00000190: 36cb 48be 03e8 8dbe 7b3a ba3c 1dc9 b0be
000001a0: 1b1a 6abe 091d dcbd 76dc 9f3d d0eb 83bd
000001b0: faaf b63d 2316 6f3c f1bc 29be f0c6 d13e
000001c0: d0d8 32be fa1f 84be c56c 833e 662d 873e
000001d0: c307 5abe 454c 11be 644c 60be e983 473e
000001e0: e726 8ebe 9dd1 793e 86c6 9cbe ba84 903e
000001f0: 596c 4fbd 04a8 e73d f60a cfbe e58e 283e
00000200: 1ce4 453e dfa7 acbd 690a 113e 1510 66be
00000210: a591 213e ad13 49be 1291 88bd 8a28 8a3d
00000220: 1d1d 12be c002 73bc 00f4 523d 50cc 1fbe
00000230: ab11 aa3e 148a 573d a9b2 dfbd 9e6d d9bd
00000240: 5989 b0be e19f f23c a952 723d 5ef8 573d
00000250: 3f8f 85be 7f98 b7bd b04f d23b 45f1 1f3e
00000260: fdb1 a2bc 6ab1 6dbe d76c a7be 826c b9be
00000270: 4808 89be d365 a33d 39ff bdbd 5807 6c3d
00000280: 7870 eebb 08f5 cb3d e921 c33d 4041 673e
00000290: f810 b8bd ec69 e7bd d1ed 223d 440d 563e
000002a0: 6722 0e3d 1a53 55be 5560 953d 7677 47be
000002b0: 0e89 8b3d 52b9 1f3e 9d6e 153e abb8 b63e
000002c0: ae9e e4be ee9c f0bc cfb2 923e bb4b 293e
000002d0: 96a3 10be 0ecd 00be 0e4d 46be 9b77 28be
000002e0: 7348 89bd f4aa 763c 2f3f ac3d 92f5 2f3e
000002f0: e513 193e 9e38 dcbe 1873 823d a446 8c3e
00000300: d4e4 4e3d ca57 11bd b64a 8abd c7c8 bebd
00000310: e9da f7bd ecdf b6be e662 82bd a5fd 8f3d
00000320: c410 603c 8efd 5e3d b020 073e eb4f 92bd
00000330: 3035 99be e18c 11be d203 fc3d f854 a13e
00000340: 2754 bebd 5d4a 2ebe e06f 31bb 3ac9 343d
00000350: 23dc 43be ee86 083e 05ae 02ba f7d9 88bd
00000360: 7255 103e 32fc 8a3e a8d7 683e fa49 83bc
00000370: c272 22bc 13f8 ad3d 68b5 3abe 2f90 7dbd
00000380: a5d5 7fbe b3b1 f03d 5800 37be bac0 30bd
00000390: 401e 5ebd 390b 113e a53d 913b f06a 803e
000003a0: ecbe b53e a256 cabc 0a2d bfbd a384 97be
000003b0: ce11 a33e 575f 57be a11f 8fbe 7562 c8bc
000003c0: 66bb bb3d b3dc e23d 3433 d6be 4293 62be
000003d0: 2bcf 953e e7b5 38be 9c81 2b3e 9cab 1cbe
000003e0: 8eb2 2e3c 8ee3 d13d dda8 e6be 98c9 b83d
000003f0: 2f07 6bbc a31e a0bd 3b96 cebd 7a82 ae3b

network.10.bias f4 [64]
-0.07616602 -0.21972512 0.03188238 0.008245773 -0.089487195 0.011025005 0.04157782 0.00097529084
-0.14669359 -0.18774074 -0.23385265 0.012744037 0.019418482 -0.05933361 -0.084051356 0.22069028
0.005085557 -0.013393405 -0.06945795 -0.0471199 0.034912 -0.087669894 -0.21642585 -0.0790224
0.006115208 -0.12405942 0.1808621 -0.029259702 -0.109072335 0.07902035 0.057717107 0.042851925
-0.05207588 -0.20517391 0.020712348 -0.13859555 0.09457787 0.11113513 0.09862782 -0.033134863
-0.066418365 -0.07947399 -0.24642764 0.15705404 0.043796103 -0.092863105 -0.03398303 0.113104306
-0.124583125 0.028638635 0.115029044 -0.15895301 -0.15795958 -0.038246796 -0.040234804 0.09186288
-0.05530479 0.21109515 0.107520916 -0.054784633 0.07311798 -0.052851643 0.02155252 0.06809449
00000000: eefc 9bbd 9fff 60be 1997 023d 4719 073c
00000010: 1045 b7bd 39a2 343c 814d 2a3d a9aa 7f3a
00000020: d836 16be 1c3f 40be 1277 6fbe 5ecc 503c
00000030: 8213 9f3c cd07 73bd 1e23 acbd a2fc 613e
00000040: bea4 a63b 0370 5bbc f83f 8ebd cc00 41bd
00000050: e3ff 0e3d 468c b3bd bd9e 5dbe 7fd6 a1bd
00000060: 1562 c83b dd12 febd ea33 393e 0bb2 efbc
00000070: 5161 dfbd 6cd5 a13d c668 6c3d 8085 2f3d
00000080: 854d 55bd 1c19 52be f1ac a93c feeb 0dbe
00000090: 0bb2 c13d d19a e33d 62fd c93d 6cb8 07bd
000000a0: 5a06 88bd 42c3 a2bd 8757 7cbe c6d2 203e
000000b0: 8b63 333d 032f bebd ca31 0bbd 3ba3 e73d
000000c0: 7025 ffbd 929b ea3c 5994 eb3d 94c4 22be
000000d0: 28c0 21be aca8 1cbd 40cd 24bd 9b22 bc3d
000000e0: 4787 62bd 5429 583e ed33 dc3d da65 60bd
000000f0: e1be 953d f77a 58bd e98e b03c 2075 8b3d

network.12.weight f4 [5, 64]
0.08120014 -0.17407668 0.065583155 0.00094010716 0.014602759 0.057136994 0.09803248 5.1404175e-05
-0.03732792 -0.12610766 0.0014826137 -0.0054932744 -0.074304916 -0.0073367343 -0.043217603 0.04669849
-0.03927978 -0.013609752 -0.035488427 0.0053837923 -0.005286277 0.024837803 -0.035955075 -0.014999013
0.0033694801 -0.030698046 0.11026713 -0.06963457 -0.058018662 -0.07125556 -0.007321847 0.17526878
-0.012124499 -0.080216706 -0.020159906 -0.24391715 -0.10877287 0.07499227 0.003824206 0.052519448
-0.020879395 -0.07584236 -0.0951761 -0.00055207824 0.091027305 0.03465911 0.23391534 0.09676796
0.027633494 -0.006745622 -0.06166529 0.105929255 -0.055071432 0.0049149557 0.06986744 -0.014950129
-0.0019710865 0.20675887 0.1647531 -0.22094955 0.15738638 -0.096545205 0.03621906 0.019360242
-0.002030335 -0.019345358 -0.036754843 0.04174951 -0.035520256 0.10056319 0.022229437 -0.028547756
0.016766923 -0.0071847676 0.015248915 -0.013971658 -0.065876275 -0.0048 -0.006741944 0.019246966
0.03226998 0.00987954 -0.017048063 0.01809613 -0.009282339 -0.0054255985 0.0037261185 -0.098927036
-0.047021598 -0.01940784 0.15616488 -0.0017138302 0.0023770335 -0.0060795536 -0.024036117 0.022798326
-0.0035641834 -0.036568098 -0.036891676 0.0036093874 -0.003132731 -0.0002688577 0.09671692 0.048500657
-0.06612436 -0.005126347 -0.0008784487 0.012416344 -0.02289279 -0.011614334 -0.0879835 -0.012171639
-0.026467169 -0.055845115 0.07796278 0.14204451 -0.08300315 -0.019458087 -0.0025849391 0.0838066
0.017153822 -0.015975917 0.042848434 0.16481352 -0.1269307 -0.00823243 0.024084134 -0.052371893
-0.5482 -0.43107623 -0.048281495 -0.7919433 -0.58514994 0.025195234 -0.11566422 0.037139196
0.12502167 0.023615053 -0.27356327 0.16253814 0.012350986 -0.28431964 -0.09325709 0.19743648
0.20528083 -0.019864874 -0.16417336 0.78944314 -0.4660406 -0.08382121 -0.55119866 -0.039766066
-0.14127848 -0.061923314 -0.18865627 -0.10183503 -0.32040495 0.50731415 0.44773078 -0.1364112
-0.535948 -0.30052775 -0.06571371 -0.25974762 0.5463962 0.19292378 0.020444833 0.0276505
-0.17747842 0.026432965 -0.3993152 0.76503843 0.53359294 -0.4185039 -0.10671092 -0.21372661
-0.5162799 -0.45725846 -0.18582244 -0.29330075 -0.41462165 -0.23227264 -0.08519652 -0.13557936
-0.22228222 0.2642619 0.12261532 -0.42097563 0.012585241 0.6633986 -0.07961399 -0.40098256
0.14525516 0.18050906 -0.16289982 0.1744099 -0.17832576 0.101751305 0.062443897 -0.020474162
-0.6120789 -0.68714 -0.22511688 -0.6019543 -0.067938335 -0.54699385 -0.14172731 -0.046555888
-0.5936006 0.5634315 -0.16698243 0.017797122 0.059611943 -0.04639922 -0.046593074 -0.5290631
0.06113235 -0.9184282 -0.31158844 0.211811 -0.22681108 0.04033055 0.26544413 -0.009465004
0.03039314 0.4562051 -0.61636263 0.39590535 0.28267893 -0.05163738 0.02130979 -0.046129767
0.13283019 -0.090138406 0.17366503 0.12434961 0.18158661 0.026301151 -0.15290108 0.045806956
0.354707 1.0870957 -0.0069451886 0.10162253 0.06266798 -0.52921265 0.16113237 0.65140915
0.20754848 -0.3157546 0.0906992 0.23629922 -0.2882811 -0.692399 -0.062065136 0.32161227
00000000: 424c a63d 2841 32be 7650 863d 8671 763a
00000010: 6940 6f3c 7b08 6a3d 41c5 c83d d09a 5738
00000020: 29e5 18bd 5e22 01be 4354 c23a ed00 b4bb
00000030: 2d2d 98bd fd68 f0bb f104 31bd ea46 3f3d
00000040: d6e3 20bd 70fb 5ebc 505c 11bd 866a b03b
00000050: 8138 adbb a678 cb3c a145 13bd 6cbe 75bc
00000060: 7fd2 5c3b 787a fbbc bcd3 e13d 929c 8ebd
00000070: faa4 6dbd 6fee 91bd 1bec efbb a979 333e
00000080: d6a5 46bc a848 a4bd 6326 a5bc 6bc5 79be
00000090: 4fc4 debd 8c95 993d 889f 7a3b a21e 573d
000000a0: 440b abbc 3d53 9bbd b0eb c2bd 58b9 10ba
000000b0: 866c ba3d b6f6 0d3d 8187 6f3e 482e c63d
000000c0: a35f e23c 610a ddbb be94 7cbd 70f1 d83d
000000d0: 9592 61bd a30d a13b a916 8f3d 63f1 74bc
000000e0: 582d 01bb 99b8 533e 09b5 283e 9940 62be
000000f0: e529 213e 7eb9 c5bd 705a 143d 5f99 9e3c
00000100: 5e0f 05bb 287a 9ebc 3f8c 16bd 8901 2b3d
00000110: b07d 11bd 13f4 cd3d 821a b63c fcdc e9bc
00000120: c95a 893c 336e ebbb 96d6 793c 62e9 64bc
00000130: 24ea 86bd 5249 9dbb 86eb dcbb d0ab 9d3c
00000140: 872d 043d cbdd 213c 61a8 8bbc 563e 943c
00000150: f414 18bc 38c9 b1bb e531 743b 429a cabd
00000160: b899 40bd 31fd 9ebc b0e9 1f3e 99a2 e0ba
00000170: 01c8 1b3b fe36 c7bb 64e7 c4bc 8ec3 ba3c
00000180: 1395 69bb 6ec8 15bd ba1b 17bd 798b 6c3b
00000190: 814e 4dbb 78f5 8cb9 8513 c63d a0a8 463d
000001a0: 356c 87bd eafa a7bb b247 66ba ec6d 4b3c
000001b0: a989 bbbc 0c4a 3ebc b130 b4bd 8e6b 47bc
000001c0: add1 d8bc d9bd 64bd f3aa 9f3d 1e74 113e
000001d0: 8efd a9bd 9166 9fbc 1568 29bb cba2 ab3d
000001e0: 2c86 8c3c eddf 82bc d781 2f3d e0c4 283e
000001f0: 1ffa 01be 50e1 06bc 174c c53c e983 56bd
00000200: d656 0cbf 06b6 dcbe d1c2 45bd ccbc 4abf
00000210: 63cc 15bf 3c66 ce3c 5de1 ecbd 451f 183d
00000220: ae05 003e 5b74 c13c 7c10 8cbe 6670 263e
00000230: ca5b 4a3c 5892 91be 93fd bebd ca2c 4a3e
00000240: 2335 523e a9bb a2bc 101d 28be f218 4a3f
00000250: e09c eebe 74aa abbd 5b1b 0dbf bee1 22bd
00000260: 4eab 10be 4da3 7dbd 1c2f 41be e28e d0bd
00000270: 1e0c a4be 57df 013f f83c e53e 61af 0bbe
00000280: e333 09bf c6de 99be e994 86bd a4fd 84be
00000290: 9fe0 0b3f d08d 453e ec7b a73c 4d83 e23c
000002a0: e7bc 35be f289 d83c 0b73 ccbe 8fd9 433f
000002b0: 8c99 083f 2546 d6be 418b dabd 26db 5abe
000002c0: eb2a 04bf c81d eabe 3d48 3ebe 842b 96be
000002d0: 4a49 d4be e1d8 6dbe 837b aebd 51d5 0abe
000002e0: f39d 63be 564d 873e be1d fb3d 1e8a d7be
000002f0: 5432 4e3c 7ed4 293f a90c a3bd 964d cdbe
00000300: c5bd 143e 5ed7 383e 36cf 26be 8298 323e
00000310: 079b 36be fd62 d03d 2cc5 7f3d 6eb9 a7bc
00000320: 34b1 1cbf 68e8 2fbf 0a85 66be ad19 1abf
00000330: 4123 8bbd ca07 0cbf f720 11be 63b1 3ebd
00000340: 35f6 17bf 0c3d 103f 71fd 2abe 45cb 913c
00000350: a72b 743d 1c0d 3ebd 61d8 3ebd ae70 07bf
00000360: ea65 7a3d 1c1e 6bbf 8588 9fbe fce4 583e
00000370: 2a41 68be a631 253d 4be8 873e 1b13 1bbc
00000380: 09fb f83c b793 e93e f1c9 1dbf 1bb4 ca3e
00000390: 4bbb 903e b881 53bd de91 ae3c 91f2 3cbd
000003a0: a304 083e 7c9a b8bd 3fd5 313e 02ab fe3d
000003b0: d7f1 393e 8375 d73c 1a92 1cbe 13a0 3b3d
000003c0: 289c b53e f425 8b3f 7794 e3bb 791f d03d
000003d0: 1258 803d 7b7a 07bf e2ff 243e c0c2 263f
000003e0: 9787 543e 96aa a1be 81c0 b93d 6cf8 713e
000003f0: 9599 93be 1041 31bf 0338 7ebd 5daa a43e

network.12.bias f4 [5]
0.67428017 -0.12136032 0.058503937 0.04041304 0.012634366
00000000: a09d 2c3f c28b f8bd d3a1 6f3d 2588 253d
00000010: 5f00 4f3c
