Other/Clean/models/xavier1_6_64.pth (torch, 90502 bytes, 14 tensors)

network.0.weight f4 [64, 2]
0	0x3d3c787d	0.046013344
1	0x3eb13523	0.34610853
2	0xbdf530fc	-0.11972234
3	0xbf352585	-0.70760375
4	0x3cb620a1	0.022232356
5	0x3e8b15be	0.27165025
6	0xbe71e6ad	-0.23623152
7	0xbeb7313b	-0.35779747
8	0x3e7f8ab3	0.24955253
9	0xbdd934bf	-0.10605764
10	0x3e2d46a9	0.16921486
11	0xbecdc124	-0.40186417
12	0x3e43aec6	0.1910964
13	0xbec0e559	-0.37674978
14	0xbd68838b	-0.056766074
15	0x3f052bb8	0.52019835
16	0x3e6aa561	0.2291465
17	0xbdd933e3	-0.106056
18	0x3e713432	0.23555067
19	0xbe820b45	-0.25399223
20	0x3e94c5bb	0.29057106
21	0xbe27aa40	-0.16373539
22	0x3e1b81da	0.15186253
23	0xbe9c1de7	-0.30491564
24	0xbe6a7301	-0.22895433
25	0xbd471819	-0.048606966
26	0x3dd014af	0.10160195
27	0xbf0ecd13	-0.5578167
28	0xbe904cd4	-0.28183615
29	0xbe221fc9	-0.15832438
30	0x3e5640ac	0.20923108
31	0x3e2deb6c	0.16984338
32	0x3eb09eb7	0.3449609
33	0xbf0a9466	-0.5413269
34	0x3db1434e	0.086554155
35	0x3dd07107	0.10177808
36	0x3c2498d7	0.0100462055
37	0x3e06951d	0.1314282
38	0x3e6c83a2	0.23097089
39	0xbef1bf0e	-0.47216076
40	0xbe9e1855	-0.3087794
41	0x3ee4df95	0.4470183
42	0xbd92b0fe	-0.07162665
43	0xbea6799a	-0.3251465
44	0x3def92ad	0.11697898
45	0x3d6a2829	0.057167206
46	0x3eac56dd	0.3366002
47	0x3ed107b5	0.40826192
48	0x3e659e3b	0.22423641
49	0x3eb8e47e	0.36111826
50	0xbebdb283	-0.37050256
51	0x3f003d01	0.50093085
52	0xbeaf873b	-0.3428286
53	0x3ecbce9f	0.39806077
54	0x3e21298a	0.15738502
55	0x3e5933e9	0.21211208
56	0xbdc2588f	-0.094895475
57	0x3d73ca38	0.059519023
58	0x3e9d6fd5	0.30749384
59	0xbe85d164	-0.26136315
60	0xbe30f816	-0.17282137
61	0xbd8b7dc0	-0.06811094
62	0x3e9cba00	0.30610657
63	0xbe87dbbb	-0.2653483
64	0x3dfd31d3	0.12363019
65	0xbee192ed	-0.44057408
66	0x3d8b16be	0.06791447
67	0x3e87969b	0.2648209
68	0x3e8572fb	0.26064286
69	0x3e13b2cd	0.14423676
70	0xbeb7193d	-0.35761443
71	0xbd49155b	-0.04909263
72	0x3e84744a	0.25869972
73	0xbea25422	-0.31704813
74	0x3e9a063e	0.30082887
75	0xbe379ecd	-0.17931671
76	0x3e3eefad	0.18646117
77	0x3e2571f3	0.1615675
78	0x3c832037	0.016006572
79	0x3f1f63d7	0.6226172
80	0x3e1ad938	0.15121925
81	0x3ef15668	0.47136235
82	0xbe937257	-0.28798172
83	0x3c8c3edc	0.017119817
84	0xbe07591e	-0.1321759
85	0x3ee10c92	0.43954903
86	0x3e2778f6	0.16354737
87	0x3e29c9e9	0.16580929
88	0x3e39f2ae	0.18158981
89	0x3ebbea75	0.36702314
90	0x3e10d627	0.14144193
91	0xbf1c636b	-0.610892
92	0xbe8b0f50	-0.2716012
93	0x3e55b79a	0.2087082
94	0x3bfb1530	0.007662438
95	0xbe7a92fb	-0.24470131
96	0x3e724591	0.2365935
97	0x3e64e873	0.22354297
98	0xbdeebae5	-0.11656741
99	0xbdf8eb5e	-0.12154268
100	0xbe4cedc1	-0.20012571
101	0x3f0fcc0e	0.5617074
102	0x3da0ae08	0.07845694
103	0x3ecfb467	0.40567324
104	0xbe237ee6	-0.15966377
105	0xbe0094ce	-0.12556764
106	0xbe90d426	-0.28286856
107	0xbe8ed396	-0.27895802
108	0x3d34a668	0.04410401
109	0xbed509f8	-0.41609168
110	0x3eadc33f	0.33938023
111	0xbee9378c	-0.4555019
112	0xbd6fdf73	-0.058562707
113	0xbe84b916	-0.2592246
114	0xbe113feb	-0.14184539
115	0xbefab92d	-0.48969403
116	0xbeb9b8dd	-0.36273852
117	0x3db72d97	0.089442424
118	0x3e704509	0.23463835
119	0x3eaed00c	0.34143102
120	0x3e7535ba	0.23946276
121	0x3e6261d8	0.22107637
122	0xbe67e893	-0.22647314
123	0x3de8a6c0	0.1135993
124	0x3eb4fda2	0.35349756
125	0xbd974c63	-0.073876165
126	0x3ecbe530	0.39823294
127	0x3c85c172	0.016327593

network.0.bias f4 [64]
0	0xbe4b0d17	-0.19829212
1	0x3ee9a48d	0.45633355
2	0xbda03264	-0.07822111
3	0x3eb4f985	0.35346618
4	0xbe4c1011	-0.19928004
5	0x3d98e42b	0.074653946
6	0x3d91cffb	0.07119747
7	0xbe497279	-0.19672574
8	0xbe1328e6	-0.1437107
9	0xbdaf3877	-0.08555692
10	0xbe2b2bf2	-0.16715983
11	0xbd9f3d01	-0.077753074
12	0x3e57bce0	0.21068144
13	0x3e82112f	0.25403735
14	0x3e9aaf8e	0.30212063
15	0xbe6489bf	-0.22318171
16	0xbe30fb18	-0.17283285
17	0xbe010473	-0.12599353
18	0xbc5713a4	-0.013127241
19	0x3d8080d4	0.06274572
20	0x3ddc2fdd	0.10751317
21	0x3e2de37c	0.1698131
22	0xbe055b46	-0.130231
23	0xbef7594e	-0.48310322
24	0xbeb446b2	-0.35210186
25	0x3e21c4cf	0.15797733
26	0x3e1e22c4	0.1544295
27	0xbe3b1447	-0.18269454
28	0x3d893fe5	0.0670164
29	0xbe776553	-0.24159746
30	0x3e67fbc8	0.2265464
31	0xbe0d5137	-0.13800512
32	0x3e08675e	0.13320681
33	0xbe01aea7	-0.12664281
34	0xbec65550	-0.38736963
35	0x3eca08e9	0.39459923
36	0xbd928906	-0.071550414
37	0xbdc26c64	-0.0949333
38	0xbea04c82	-0.3130837
39	0xbe9cb070	-0.3060336
40	0xbea0bf45	-0.31395927
41	0x3e8bad11	0.27280477
42	0xbde61dc9	-0.1123615
43	0xbea0e12c	-0.31421793
44	0xbea23eb9	-0.3168848
45	0x3e6f0ec1	0.23345472
46	0x3dc28a8e	0.094990835
47	0x3d250ec8	0.0402973
48	0xbe8bd67f	-0.27312085
49	0x3e176573	0.14784794
50	0x3d74ef3a	0.059798457
51	0xbe1e1c83	-0.15440564
52	0x3dee321e	0.11630653
53	0x3eeafd07	0.4589617
54	0x3d998b82	0.07497312
55	0xbd8376a8	-0.06419116
56	0x3e3d663c	0.1849603
57	0x3ea90257	0.33009598
58	0x3e85b340	0.2611332
59	0xbe87fbaa	-0.26559192
60	0xbe873e10	-0.26414537
61	0x3e096f6e	0.13421413
62	0xbe8a7a7c	-0.27046573
63	0xbeeadcef	-0.45871684

network.2.weight f4 [64, 64]
0	0x3e1f3559	0.15547694
1	0x3e830e35	0.25596777
2	0xbc482da0	-0.012217909
3	0x3e2e1d28	0.1700331
4	0x3db0dcf5	0.08635894
5	0x3e180b5f	0.14848088
6	0x3df3c585	0.11902908
7	0xbd5c5415	-0.053791124
8	0x3ce56308	0.028001323
9	0xbd22486c	-0.039619848
10	0xbd86d8f8	-0.06584352
11	0x3e137121	0.14398624
12	0xbd95c36b	-0.07312664
13	0xbdbfcc62	-0.09365155
14	0x3d3b1afe	0.04568004
15	0x3d86ae6b	0.06576236
16	0xbd5d1f07	-0.053984668
17	0xbe050c4e	-0.12992975
18	0xbccfdf2a	-0.025374968
19	0xbde9a770	-0.11408889
20	0x3ce607fa	0.028079975
21	0xbe351ead	-0.17687483
22	0x3e35ee1f	0.17766617
23	0x3e23bdb3	0.15990333
24	0x3dc5f3d1	0.09665645
25	0x3daac1d5	0.08337752
26	0xbdfeb688	-0.12437159
27	0x3d1b5f29	0.03793255
28	0xbe604f06	-0.21905145
29	0x3e077900	0.13229752
30	0x3d1b212e	0.03787344
31	0x3e0978c9	0.13424982
32	0x3ddc4a8a	0.10756405
33	0xbd50b3a2	-0.05095256
34	0xbe1414f0	-0.14461112
35	0xbe4c4836	-0.19949421
36	0xbccc8839	-0.0249673
37	0xbd5526ac	-0.052038833
38	0xbe390779	-0.18069257
39	0xbd9bdc29	-0.076103516
40	0x3d5b946d	0.053608347
41	0x3e4b39e2	0.198463
42	0xbe55c98e	-0.20877668
43	0xbe424ea4	-0.18975312
44	0x3d55c298	0.052187532
45	0x3e5c3d42	0.21507743
46	0x3dcd5551	0.100260384
47	0x3e415aed	0.18882342
48	0x3e2d30e6	0.16913185
49	0x3d823796	0.063582584
50	0xbd77be40	-0.06048417
51	0x3e116870	0.14199996
52	0xbe2091e1	-0.15680648
53	0xbe011f18	-0.12609518
54	0x3e0a11f2	0.13483408
55	0x3e55e0f4	0.20886594
56	0xbe8afd1f	-0.2714624
57	0x3dcafb37	0.09911197
58	0x3d15b081	0.03654528
59	0x3dd943e6	0.10608654
60	0x3e6326cb	0.22182767
61	0xbe548650	-0.20754361
62	0x3bc1cf97	0.005914639
63	0xbc37e5e2	-0.011224242
64	0xbc046186	-0.008079892
65	0xbc255079	-0.010089987
66	0x3bcaef52	0.00619308
67	0x3d5a73b7	0.05333301
68	0x3d335ebb	0.043791514
69	0x3d9881ac	0.07446608
70	0xbe46cc30	-0.19413829
71	0xbd3491d9	-0.044084404
72	0xbe051e7b	-0.12999909
73	0xbe527c61	-0.2055526
74	0x3e13b107	0.14423
75	0x3e6907d9	0.227569
76	0x3df206be	0.11817692
77	0x3d89f724	0.067365915
78	0x3e4d6d60	0.20061255
79	0xbe1b6d12	-0.15178326
80	0x3e7b6787	0.24551211
81	0x3dbdb104	0.09262279
82	0x3ce65fcc	0.028121851
83	0x3e17d186	0.1482602
84	0x3de5bf1f	0.11218094
85	0x3dbe69a8	0.09297496
86	0xbdb1b4b9	-0.08677048
87	0xbd4c2e77	-0.049849
88	0x3de111d5	0.10989729
89	0xbde23ebd	-0.11047123
90	0xbe5e4366	-0.21705398
91	0x3c91bad2	0.017789278
92	0xbe1079ba	-0.14108935
93	0x3e4e2218	0.20130193
94	0xbdab61f0	-0.083682895
95	0xbd9abedb	-0.07555934
96	0x3e9ad966	0.30243987
97	0x3db27460	0.08713603
98	0x3d078757	0.033088055
99	0xbdb5cc59	-0.08876867
100	0xbe0175c9	-0.12642588
101	0x3e444732	0.19167784
102	0xbd31d320	-0.043414235
103	0x3c8d9bc6	0.017286193
104	0x3deb0130	0.11474836
105	0xbd7c0a0f	-0.06153303
106	0xbd06f91c	-0.032952413
107	0x3c118a0a	0.008883009
108	0xbe4eb229	-0.2018515
109	0x3e8be51b	0.2732323
110	0xbdce49fa	-0.10072704
111	0xbcc9e208	-0.024643913
112	0xbd82d6ff	-0.063886635
113	0xbdf6e37a	-0.120551065
114	0xbe860012	-0.2617193
115	0x3d8b9258	0.06815022
116	0x3e507331	0.20356442
117	0x3e40d738	0.188321
118	0x3e0e36de	0.13888118
119	0x3e2f23d1	0.17103507
120	0xbe449dd7	-0.19200836
121	0x3d16df85	0.03683426
122	0x3d330631	0.043707076
123	0xbd99af73	-0.075041674
124	0xbbcb2954	-0.006199995
125	0x3b479b67	0.0030457617
126	0x3dbd77db	0.09251376
127	0x3b657b89	0.003501626
128	0x3dba4a7e	0.090962395
129	0xbdda8222	-0.10669352
130	0xbd0f6f40	-0.035018206
131	0x3b1c4124	0.0023842538
132	0xbe31f3ed	-0.17378207
133	0x3e05a1ff	0.13050078
134	0x3e20e547	0.15712462
135	0xbc946946	-0.018116605
136	0x3dcc7d33	0.09984817
137	0xbe2eae5d	-0.17058702
138	0xbdd82443	-0.105537914
139	0x3c363170	0.011120185
140	0x3e385232	0.18000105
141	0x3dcd0db9	0.10012383
142	0x3e36909b	0.178286
143	0x3d812cb3	0.06307354
144	0x3dbbd7f9	0.09172053
145	0xbe11d6ee	-0.14242145
146	0xbe498829	-0.19680847
147	0x3de42b05	0.11141018
148	0xbd11b4c8	-0.035572797
149	0xbd93fb8f	-0.07225715
150	0xbdd2e80f	-0.10298168
151	0xbe3ae998	-0.18253171
152	0xbe3e6a4c	-0.18595237
153	0x3da58043	0.080811046
154	0x3e4a86dc	0.19778007
155	0xbd1359b8	-0.035974234
156	0x3d1c0fa0	0.03810084
157	0x3dd1e48c	0.1024867
158	0xbe41cfd8	-0.18926942
159	0xbcf63d75	-0.030058602
160	0xbe62f393	-0.22163229
161	0xbdc64c18	-0.096824825
162	0x3dd4b8eb	0.10386833
163	0x3e4b31b5	0.1984318
164	0x3bc50932	0.006013059
165	0xbd9b2396	-0.07575147
166	0x3d9dcda7	0.07705241
167	0xbe35e82d	-0.1776435
168	0x3e308388	0.17237675
169	0x3e0811ae	0.13287994
170	0x3c59cbaf	0.013293191
171	0xbe076b5f	-0.13224553
172	0xbda85b2e	-0.08220516
173	0x3e5ad3c4	0.21369845
174	0xbbdb49c2	-0.006692142
175	0xbd1e7217	-0.038683023
176	0xbc0c7653	-0.008573133
177	0xbe7d3e51	-0.24730803
178	0xbe141938	-0.14462745
179	0xbdbd3229	-0.09238083
180	0xbe0c3934	-0.13693696
181	0xba9b1127	-0.0011830673
182	0x3e2bc847	0.16775618
183	0xbd39483b	-0.0452349
184	0x3e083e4a	0.13305011
185	0xbdefcb7a	-0.11708732
186	0xbe296f74	-0.16546422
187	0xbda10c67	-0.07863694
188	0x3cc0c41c	0.023531012
189	0xbbfc4aea	-0.00769936
190	0xbda583d3	-0.08081784
191	0xbdc4a7ab	-0.096022926
192	0xbe1216b1	-0.14266469
193	0x3966bdf4	0.00022005272
194	0xbd71227c	-0.058870777
195	0xbddef610	-0.108867764
196	0x3e385e00	0.18004608
197	0x3d5a13ed	0.05324166
198	0x3dbd5a93	0.09245791
199	0x3d30638e	0.043063693
200	0x3e2a2140	0.16614246
201	0x3e5f4bbe	0.21806237
202	0x3e1ae83c	0.15127653
203	0x39d3fc38	0.00040432974
204	0xbe5001d3	-0.20313196
205	0x3e6e785f	0.23288105
206	0x3b8e4635	0.0043418654
207	0x3da3a852	0.07991089
208	0xbe32fd9f	-0.17479561
209	0x3da3cd04	0.07998088
210	0xbe2c1b10	-0.16807199
211	0xbcf5caa9	-0.030003862
212	0xbd8d045e	-0.068855986
213	0xbc84f69f	-0.01623088
214	0x3e6db37d	0.23213
215	0xbe000265	-0.12500913
216	0xbd3beee8	-0.045882136
217	0x3e0f41d8	0.13989961
218	0xbcdbbbdb	-0.026822975
219	0x3df9449c	0.12171289
220	0x3cc3ec31	0.023916336
221	0x3c5f6f1c	0.01363733
222	0xbe262c18	-0.16227758
223	0xbd86fb0e	-0.06590854
224	0x3dd85ea4	0.10564926
225	0x3e65c2b1	0.2243755
226	0x3d94bb6c	0.072623104
227	0x3dfe4c5a	0.12416907
228	0x3e3ad5f3	0.18245678
229	0x3e9dbb16	0.30806798
230	0xbd1de380	-0.03854704
231	0xbda5952c	-0.08085093
232	0xbc62b84c	-0.013837885
233	0xbe4684fb	-0.19386666
234	0xbe17b6a8	-0.14815772
235	0x3db4e7f0	0.08833301
236	0x3e8a9656	0.27067822
237	0xbd39b940	-0.045342684
238	0x3dcb0a5e	0.09914087
239	0x3e133e85	0.14379318
240	0x3ea322f2	0.318626
241	0x3e1b0e4b	0.15142171
242	0x3e15eb2d	0.14640494
243	0x3e51ec6b	0.20500343
244	0x3d317f98	0.043334574
245	0x3ddf3be7	0.10900097
246	0x3e058047	0.13037215
247	0x3e75a6cb	0.23989408
248	0xbe330748	-0.17483246
249	0xbddd3175	-0.10800449
250	0x3de2f85c	0.11082527
251	0x3df6ee37	0.120571546
252	0xbd9687db	-0.07350131
253	0xbd9219b7	-0.07133811
254	0x3da09a0a	0.078418806
255	0xbd7c27f3	-0.061561536

network.2.bias f4 [64]
0	0x3d4cfd63	0.050046336
1	0xbd23e6cf	-0.040015038
2	0x3d41d1d9	0.047319267
3	0x3e5be0b1	0.21472432
4	0x3e390caf	0.18071245
5	0x3d91af65	0.07113532
6	0xbc5fb31a	-0.013653541
7	0x3dddb554	0.10825601
8	0xbe0fe621	-0.14052631
9	0x3d997e05	0.074947394
10	0x3e086f94	0.13323814
11	0x3c1c45d8	0.009538136
12	0x3becdbd3	0.0072283535
13	0x3ce59b6e	0.028028216
14	0xbdb29c59	-0.08721227
15	0xbd0340b4	-0.032044128
16	0x3e538bf3	0.20658855
17	0x3d3768de	0.044777744
18	0x3dd738c9	0.10508878
19	0xbd634542	-0.05548597
20	0x3e3cce24	0.18438011
21	0x3ced184b	0.028942248
22	0x3dafdb5e	0.08586763
23	0x3db58655	0.088635124
24	0xbd55c273	-0.052187394
25	0xbdc5621a	-0.09637852
26	0xbe1e47ef	-0.15457128
27	0x3e527742	0.20553306
28	0x3d21e627	0.03952613
29	0xbd455b94	-0.04818304
30	0x3d7fb5a0	0.06242907
31	0xbc6660de	-0.014061181
32	0xbe459fec	-0.19299287
33	0xbc4a371b	-0.01234224
34	0x3dc33bcd	0.095328905
35	0x3c37c26d	0.011215788
36	0xbe3ca47b	-0.1842212
37	0xbd79136f	-0.06080955
38	0x3dc61117	0.096712284
39	0x3c1cc42e	0.009568257
40	0xbca2682b	-0.019825062
41	0x3e4eb222	0.2018514
42	0xbe2b274f	-0.16714214
43	0x3d431157	0.04762396
44	0x3db474eb	0.08811363
45	0x3e1caf53	0.15301256
46	0xbe2312c7	-0.15925132
47	0x3de2a3bd	0.11066387
48	0x3e53a7ec	0.20669526
49	0xbd4bd04b	-0.04975919
50	0x3dafe891	0.085892804
51	0xbd2c384b	-0.042045873
52	0x3d82bb6a	0.06383403
53	0x3d10418b	0.035218757
54	0xbdc26c27	-0.09493285
55	0xb9b0f00a	-0.0003374818
56	0x3c65e5f6	0.014031878
57	0xbe844ed1	-0.25841382
58	0x3d88b8ae	0.0667585
59	0xbe16cdfe	-0.14727017
60	0xbd0f5d21	-0.035000924
61	0x3d9bb68a	0.07603176
62	0xbca94b6b	-0.020665845
63	0x3d21330a	0.039355315

network.4.weight f4 [64, 64]
0	0xbd4a6c37	-0.049419608
1	0xbd8f8cd3	-0.07009282
2	0xbe2acb8a	-0.16679206
3	0x3e48fb79	0.19627179
4	0x3e60c497	0.21949993
5	0x3e0bba29	0.13645233
6	0x3e87557d	0.2643241
7	0xbc76fc79	-0.015074843
8	0x3dd1802f	0.10229527
9	0x3e59d38f	0.2127211
10	0x3e72353e	0.23653123
11	0x3e2749fc	0.16336817
12	0x3e5eb372	0.2174814
13	0x3d681bb4	0.056667045
14	0x3e244d13	0.16045026
15	0x3d58ab85	0.05289795
16	0x3dd38b4a	0.10329302
17	0xbe4f05df	-0.20217083
18	0x3e3d5a21	0.18491413
19	0x3d87a498	0.06623191
20	0xbe423f65	-0.18969496
21	0xbd30c57f	-0.043157097
22	0x3e874c4e	0.26425403
23	0xbdd12397	-0.10211866
24	0x3e78dc44	0.24302775
25	0x3e0fd955	0.1404775
26	0xbc8eb6e7	-0.017421199
27	0xbccd8ac2	-0.025090579
28	0xbc8256b6	-0.015910488
29	0xbe841d20	-0.2580347
30	0x3dd85b21	0.105642565
31	0xbce8307f	-0.028343437
32	0xbdf1020c	-0.117679685
33	0xbe0a56ed	-0.13509722
34	0x3e02cec1	0.12774183
35	0xbe0648c5	-0.13113697
36	0x3d0ef12c	0.03489797
37	0xbdb704af	-0.0893644
38	0x3e50aa25	0.20377405
39	0xbdee27a5	-0.11628655
40	0xbd073745	-0.033011694
41	0x3d82291a	0.06355496
42	0xbe81151a	-0.25211412
43	0xbd97499b	-0.07387086
44	0xbd28f29f	-0.041247007
45	0x3e938601	0.28813174
46	0x3dfc55e5	0.123210706
47	0xbe06c0dd	-0.13159509
48	0xbdd7c4ce	-0.105355844
49	0xbde8faf5	-0.11375991
50	0xbd30edcf	-0.043195542
51	0x3c04aa17	0.008097193
52	0x3df6ee09	0.1205712
53	0xbc8e1903	-0.01734591
54	0xbbba3979	-0.005683121
55	0x3e0be7d1	0.1366265
56	0xbe35194f	-0.17685436
57	0x3e6b2359	0.22962703
58	0xbd30cc21	-0.043163422
59	0x3f021862	0.50818455
60	0xbe2bf2cf	-0.16791843
61	0xbde6954b	-0.11258944
62	0xbbb52282	-0.0055277953
63	0x3e470229	0.19434418
64	0xbdf6e4a2	-0.12055327
65	0xbe465700	-0.19369125
66	0x3e47b84c	0.19503897
67	0xbe33249d	-0.17494436
68	0x3d8d8902	0.06910898
69	0xbd13a660	-0.03604734
70	0xbe511191	-0.20416857
71	0xbdfa05fd	-0.122081734
72	0xbddb1ee5	-0.10699252
73	0xbe858b42	-0.26082808
74	0xbe17acef	-0.14812063
75	0x3d1b7c5b	0.03796039
76	0x3cd93b20	0.02651745
77	0x3d270dd8	0.040784687
78	0x3d2d7fa9	0.042358074
79	0xbdbd73bd	-0.09250591
80	0x3e482ad1	0.19547583
81	0x3e0becea	0.13664594
82	0xbd4ad6e1	-0.04952133
83	0xbc031004	-0.007999424
84	0x3e29aea6	0.1657053
85	0xbe63dc6b	-0.22252052
86	0x3d221a74	0.03957601
87	0xbe2c2b57	-0.16813408
88	0xbe73d212	-0.23810604
89	0x3d41f818	0.04735574
90	0x3dc137cc	0.094344705
91	0xbceb6b95	-0.028737823
92	0xbd3f1fb7	-0.046661105
93	0xbe2feda9	-0.17180504
94	0x3e0116e1	0.12606384
95	0x3c633821	0.013868363
96	0xbcc057be	-0.023479339
97	0xbe0b626f	-0.13611768
98	0x3d4d7906	0.050164245
99	0xbc1a6584	-0.009423617
100	0xbe63fb2e	-0.22263786
101	0x3be6b9d1	0.007041194
102	0xbe10ef07	-0.14153682
103	0x3da07b2a	0.07835992
104	0x3c8ab319	0.016931104
105	0xbc52d9cd	-0.012869311
106	0x3d706752	0.058692284
107	0x3e0a63d9	0.13514651
108	0xbe3a2913	-0.18179731
109	0x3eab6d32	0.33481747
110	0xbe48b151	-0.19598891
111	0xbd98a4d0	-0.074533105
112	0xbd2228c9	-0.039589677
113	0x3e5b2cda	0.21403828
114	0xbdac4882	-0.08412267
115	0xbe726287	-0.23670398
116	0xbdc65354	-0.09683862
117	0x3d95146d	0.072792865
118	0xbe42ac7a	-0.19011107
119	0x3d57de3e	0.05270218
120	0x3e2978d6	0.16550002
121	0xbe8f284a	-0.27960426
122	0x3e8988d2	0.26862198
123	0xbe6f956e	-0.23396847
124	0xbc156f13	-0.00912072
125	0x3d9f54d4	0.077798516
126	0x3d8d1a69	0.06889803
127	0x3d58c84c	0.052925393
128	0xbea5f9af	-0.32417056
129	0xbe0d2af9	-0.13785924
130	0xbdec0ec0	-0.11526251
131	0xbf0827f7	-0.5318598
132	0xbe8f9242	-0.28041273
133	0x3db7862f	0.0896114
134	0xbdeff4f8	-0.11716646
135	0xbc898c9c	-0.01679068
136	0x3db128ec	0.08650383
137	0xbe286008	-0.16442883
138	0xbe85c796	-0.26128834
139	0x3dfe3b2a	0.124136284
140	0x3e39723a	0.1810998
141	0xbd69ed38	-0.057110995
142	0x3dc277e2	0.09495522
143	0xbe0e10c4	-0.13873583
144	0xbedf761e	-0.43644804
145	0x3e75d809	0.24008192
146	0xbddbb83f	-0.107285015
147	0x3edf875a	0.43657953
148	0x3e86ff07	0.26366445
149	0xbae58f6e	-0.0017514059
150	0x3ce6d77d	0.028178925
151	0xbe9d912c	-0.3077482
152	0x3e0a6238	0.1351403
153	0xbef905df	-0.48637292
154	0xbe106b19	-0.14103355
155	0xbe91193c	-0.28339565
156	0xbe580312	-0.21094921
157	0xbde5f755	-0.112288155
158	0xbf18a254	-0.59622693
159	0xbdaddb47	-0.084890895
160	0x3ea03cea	0.31296474
161	0xbd1a5d3f	-0.037686583
162	0xbaeccf0a	-0.0018067074
163	0xbd8d9995	-0.06914059
164	0x3e4847b4	0.19558603
165	0x3ec3f70d	0.38274422
166	0x3d861b5a	0.06548186
167	0xbcee9173	-0.02912209
168	0x3de7853a	0.11304708
169	0x3dc10afb	0.094259225
170	0x3e9d2d75	0.30698743
171	0x3e0de812	0.13858059
172	0xbe2791d1	-0.16364218
173	0x3f319d3b	0.6938054
174	0x3ece06fd	0.40239707
175	0xbd9dfa98	-0.077138126
176	0xbe592142	-0.21204093
177	0x3ee43d8f	0.44578215
178	0x3ca64da7	0.0203007
179	0xbe5dfb68	-0.21677935
180	0xbe6a1b76	-0.22862038
181	0xbdbd7c3b	-0.09252211
182	0x3db55364	0.08853796
183	0x3e083844	0.13302714
184	0x3d87ea35	0.06636468
185	0x3f6af755	0.9178365
186	0x3e34e618	0.17665899
187	0x3f7410c9	0.9533811
188	0x3d25e52f	0.04050177
189	0xbe4b023f	-0.19825076
190	0xbdc79908	-0.09745985
191	0xbe91dd45	-0.28489128
192	0xbe1d2edd	-0.15349908
193	0x3d95cd54	0.07314554
194	0xbdcf86ea	-0.10133155
195	0xbe797bbb	-0.24363606
196	0xbe45ce6d	-0.19317026
197	0x3c8a027f	0.016846893
198	0x3ddd4804	0.108047515
199	0xbe48e204	-0.19617468
200	0xbd4206a4	-0.047369614
201	0xbe0e999a	-0.13925782
202	0xbdcf6454	-0.10126558
203	0x3e065afd	0.13120647
204	0xbe394252	-0.18091705
205	0xbe08b5a8	-0.13350546
206	0xbe10daaa	-0.14145914
207	0xbe57d698	-0.21077955
208	0xbdd68c89	-0.10476024
209	0xbb9f67b1	-0.004864656
210	0xbe20b902	-0.15695575
211	0x3c87734a	0.016534466
212	0x3d082df2	0.033246942
213	0x3e29bea0	0.16576624
214	0xbc81e1f1	-0.015854808
215	0xbe9ba015	-0.3039557
216	0xbdec1c5c	-0.115288466
217	0xbe22e4f3	-0.1590765
218	0xbe12d380	-0.14338493
219	0xbe356379	-0.17713727
220	0xbdf3d93a	-0.11906667
221	0xbcf5f9ca	-0.030026335
222	0xbcd79bb0	-0.026319355
223	0xbe12a793	-0.14321737
224	0xbcb9ff08	-0.022704616
225	0xbd987eee	-0.07446085
226	0xbd71e23b	-0.05905364
227	0x3d2045d8	0.03912911
228	0x3db9fb48	0.09081131
229	0x3e6a8d75	0.22905524
230	0x3e30b4f7	0.17256533
231	0x3ca7d9cc	0.020489596
232	0x3b9058b4	0.0044051055
233	0xbe06672f	-0.13125299
234	0x3dd846e4	0.10560396
235	0xbc7c7a51	-0.015410022
236	0xbe97a7c4	-0.29620183
237	0xbe26fe30	-0.16307902
238	0x3d1d9adb	0.03847776
239	0x3e2a69a0	0.16641855
240	0xbda53b0b	-0.08067902
241	0x3e2daacf	0.1695969
242	0x3d18e42e	0.037326984
243	0x3d04889f	0.032356855
244	0xbdbf47f8	-0.09339899
245	0x3e07255f	0.1319785
246	0x3e08a79a	0.13345185
247	0xbd6fc6b3	-0.058539104
248	0x3e25b964	0.16184002
249	0xbe70b3b9	-0.23506059
250	0xbd70e11d	-0.058808435
251	0xbec11f6e	-0.3771929
252	0x3daf6f15	0.08566109
253	0xbe53252f	-0.20619653
254	0xbcd7d7ef	-0.026348082
255	0xbd816333	-0.06317749

network.4.bias f4 [64]
0	0x3e11480a	0.14187637
1	0x3c3fef87	0.011714823
2	0xbe7fc6d8	-0.24978197
3	0xbdb6269b	-0.08894082
4	0x3dc590ce	0.0964676
5	0x3d46910b	0.048478168
6	0xbc7dad8a	-0.0154832695
7	0x3dab87e2	0.08375527
8	0x3d0bece7	0.034161475
9	0x3cb2dd1e	0.021833953
10	0x3cf74e67	0.030188752
11	0xbcd71f61	-0.02626008
12	0x3c5701a5	0.013122951
13	0x3e4cbdab	0.19994228
14	0x3e247f48	0.16064179
15	0xbd7d86f2	-0.061896272
16	0xbd4b2015	-0.049591143
17	0x3eb3d946	0.35126704
18	0x3c48e35a	0.012261236
19	0x3df874a4	0.121316224
20	0xbdd5c6a5	-0.10438279
21	0x3dec7c32	0.11547126
22	0xbd3a359b	-0.04546128
23	0xbdbb652c	-0.091501564
24	0xbdb043ff	-0.08606719
25	0x3e1e6caf	0.15471147
26	0xbda0333b	-0.078222714
27	0x3dd65875	0.104660906
28	0x3ca7a318	0.020463511
29	0xbd129cbb	-0.035794
30	0xbd54071b	-0.05176459
31	0x3eaac04d	0.3334984
32	0x3cd029ed	0.025410617
33	0xbe8e4fed	-0.27795354
34	0xbc882314	-0.016618289
35	0x3caacf4b	0.020850798
36	0xbd0e2a1e	-0.034708135
37	0xbc8d1e62	-0.017226402
38	0xbe341ede	-0.175899
39	0x3db630d4	0.08896032
40	0x3e33f153	0.17572527
41	0xbbffc8b9	-0.0078059104
42	0xbce55b71	-0.027997704
43	0x3ce340c3	0.027740842
44	0xbd98616a	-0.07440455
45	0xbc3c5d1f	-0.011496811
46	0x3cca7465	0.024713704
47	0xbd48361c	-0.048879728
48	0xbbbf4d77	-0.005838092
49	0xbe08aef3	-0.13347988
50	0xbda86c59	-0.08223791
51	0x3d8784d6	0.06617133
52	0x3dd1b5de	0.102397665
53	0x3e0147bf	0.12625025
54	0xbdf7fb9e	-0.12108539
55	0x3cb6a8ac	0.022297226
56	0xbd99da5c	-0.07512352
57	0x3cf6a602	0.030108456
58	0xbe0589a5	-0.13040788
59	0xbe350c9f	-0.17680596
60	0xbe3376c5	-0.17525776
61	0x3d862490	0.065499425
62	0x3cfc84c0	0.030825019
63	0x3de7c084	0.11316016

network.6.weight f4 [64, 64]
0	0xbd933320	-0.07187486
1	0x3e4b694b	0.19864385
2	0x3d6d80bd	0.057984103
3	0x3e713f5b	0.23559324
4	0x3dd7b024	0.10531643
5	0xbd4e30d2	-0.050339527
6	0x3da3827b	0.079838715
7	0xbe90c076	-0.28271836
8	0xbd797b16	-0.0609084
9	0xbdc4e1a4	-0.0961335
10	0x3e2fa0e8	0.17151225
11	0x3d5c8ed9	0.053847168
12	0x3dfb7a07	0.12279134
13	0xbd8d2c0d	-0.06893168
14	0xbe1b0347	-0.15137969
15	0xb9815218	-0.00024665962
16	0x3d296443	0.041355383
17	0x3d1f085b	0.038826328
18	0x3d7f95f1	0.062398855
19	0x3c3af285	0.01141036
20	0x3db63c66	0.08898239
21	0x3d3ad87a	0.045616604
22	0x3de26a7f	0.11055469
23	0xbda992a4	-0.082799226
24	0x3e0a9b85	0.13535888
25	0x3deaaf87	0.114592604
26	0x3cfb7ecc	0.03070011
27	0xbe76b419	-0.2409214
28	0x3df143e1	0.11780525
29	0xbd91a132	-0.07110824
30	0x3dc16afe	0.09444235
31	0xbe61d77c	-0.22054857
32	0xbccbbdec	-0.024870835
33	0xbec33a87	-0.3813059
34	0x3e1a9e89	0.15099539
35	0x3e5107f6	0.20413193
36	0x3d7aeb23	0.0612594
37	0xbe7322fc	-0.23743814
38	0x3e6cb807	0.23117076
39	0xbd31dc66	-0.04342308
40	0xbe6eb7db	-0.23312323
41	0x3e378ab9	0.17924012
42	0x3c55744e	0.0130282175
43	0x3dd63bf3	0.10460653
44	0x3d13d9f8	0.036096543
45	0x3d336e0e	0.04380613
46	0xbe0f3ba1	-0.1398759
47	0xbcea33cc	-0.028589152
48	0xbe429dab	-0.19005458
49	0x3e41ac0c	0.18913287
50	0x3e27a717	0.16372333
51	0x3d10cb7c	0.035350308
52	0xbd25fcb5	-0.040524203
53	0xbe301b40	-0.17197895
54	0x3e425a5e	0.18979785
55	0x3e666279	0.22498502
56	0xbe1c8d19	-0.152882
57	0x3d8c02ca	0.068364695
58	0xbe5e6293	-0.2171729
59	0xbe080cb6	-0.13286099
60	0x3cd77228	0.026299551
61	0xbe9d2147	-0.3068945
62	0xbd76a1fb	-0.06021307
63	0xbe143e91	-0.14476992
64	0xbe0467a4	-0.12930161
65	0x3debfb02	0.11522485
66	0x3e4ada4a	0.19809833
67	0xbd97f091	-0.07418931
68	0xbcc8aa1f	-0.024495183
69	0x3d473b32	0.048640437
70	0xbdd259b3	-0.10271015
71	0x3cf3d5bf	0.029765008
72	0x3e0e02a3	0.13868193
73	0xbda0e4ba	-0.07856126
74	0xbe17cc31	-0.14823987
75	0xbde58f9f	-0.11209034
76	0xbe6c9b5b	-0.23106138
77	0xbd20ac6d	-0.039226938
78	0x3e2144b0	0.15748858
79	0x3ed9568f	0.4244885
80	0x3d8ecf4d	0.06973133
81	0x3daaa7dd	0.08332799
82	0x3d73cce7	0.059521582
83	0xbe1b85a9	-0.15187706
84	0xbe3aff2d	-0.18261404
85	0xbb060863	-0.0020451776
86	0x3d68f4c4	0.05687405
87	0x3e28455b	0.16432707
88	0x3cc50d90	0.024054319
89	0x3dbab2f4	0.09116164
90	0xbc8e0a28	-0.017338827
91	0x3e151f03	0.14562611
92	0xbdcfb99e	-0.101428255
93	0xbe2d8672	-0.16945818
94	0xbccb2ec5	-0.024802575
95	0x3d2d32c1	0.04228473
96	0x3cacca31	0.021092506
97	0xbd3f9761	-0.046775226
98	0x3dce4378	0.100714624
99	0xbe0d03aa	-0.13770929
100	0x3e61d449	0.22053637
101	0xbdee386e	-0.11631857
102	0x3d8094f1	0.06278408
103	0x3dbe93e6	0.09305553
104	0x3c94219b	0.01808243
105	0x3bb197b8	0.0054196976
106	0xbe0eb583	-0.13936429
107	0x3d7c2584	0.061559215
108	0xbe28a3c0	-0.16468716
109	0x3e6902ba	0.22754946
110	0xbdf1ce2e	-0.11806904
111	0xbd7eead8	-0.062235683
112	0xbe172853	-0.14761476
113	0xbd4a7a70	-0.04943317
114	0x3d12fa02	0.035882957
115	0x3df6a314	0.120428234
116	0xbd93571f	-0.071943514
117	0xbdb4c9bd	-0.08827541
118	0x3d0141f1	0.031557027
119	0x3d66ca2e	0.056345157
120	0x3e275c04	0.16343695
121	0xbe87bd5e	-0.26511663
122	0x3e409cc5	0.18809803
123	0x3e4f08ca	0.20218197
124	0x3ca78485	0.020448932
125	0xbdc6206f	-0.09674155
126	0x3dc17b94	0.09447399
127	0xbe416b6c	-0.18888634
128	0x3c96bca2	0.018400494
129	0x3d008780	0.031379223
130	0x3e7346f6	0.23757538
131	0x3c365e2b	0.01113085
132	0xbddeff81	-0.10888577
133	0xbddd9088	-0.10818583
134	0x3e0d707a	0.13812438
135	0xbe4b6432	-0.1986244
136	0xbdd2e25b	-0.1029708
137	0xbe26ea84	-0.16300398
138	0xbe28b4d3	-0.16475229
139	0x3d259e41	0.040434126
140	0x3c34910e	0.011020912
141	0x3e128d63	0.14311747
142	0x3df983b3	0.12183323
143	0xbe9e2faf	-0.30895755
144	0x3e0becac	0.13664502
145	0xbed74c81	-0.42050555
146	0x3e549f0d	0.20763798
147	0xbde44008	-0.111450255
148	0x3e4e2786	0.20132264
149	0xbe2fa1c2	-0.1715155
150	0x3d4d3941	0.05010343
151	0xbe53c79a	-0.2068161
152	0xbe3b34db	-0.18281882
153	0x3eaeccf6	0.34140748
154	0x3e980d67	0.29697725
155	0xbcf2aa0b	-0.029622098
156	0xbe316d6a	-0.17326894
157	0xbe026d85	-0.12737091
158	0x3e14c854	0.14529544
159	0xbd97d6d6	-0.074140236
160	0xbdbe2a90	-0.09285462
161	0x3c3f8060	0.011688322
162	0x3d64fd4f	0.055905636
163	0xbe30bfcc	-0.17260665
164	0xbdc66543	-0.09687283
165	0x3e3eff83	0.18652157
166	0x3e3ee9b3	0.18643837
167	0xbdaa2ef4	-0.08309737
168	0xbc9fb136	-0.01949368
169	0x3da397a7	0.0798791
170	0xbdc042ec	-0.09387764
171	0x3d8dde0a	0.06927116
172	0xbd0f8df5	-0.03504749
173	0x3e11dd03	0.14244466
174	0x3c8db437	0.017297847
175	0x3e658c90	0.22416902
176	0x3e71744f	0.23579524
177	0xbdd08362	-0.10181309
178	0xbe3be90b	-0.18350618
179	0xbe3f7917	-0.18698536
180	0x3de7e06a	0.113221005
181	0x3bc56878	0.0060244165
182	0xbdeef415	-0.11667649
183	0xbdb3572c	-0.08756861
184	0xbe5c859d	-0.21535344
185	0xbeb309bc	-0.34968364
186	0x3e579b63	0.21055369
187	0x3d1399ac	0.036035225
188	0xbdbf289d	-0.09333918
189	0xbd93cd97	-0.072169475
190	0xbaa415a0	-0.0012518652
191	0x3e35fe8f	0.17772888
192	0x3d0471bc	0.032335028
193	0x3edcc459	0.4311855
194	0xbe1eaa4a	-0.15494648
195	0xbda18fdc	-0.07888767
196	0x3e56689c	0.20938343
197	0xbd4cf9fd	-0.050043095
198	0x3d9a54ae	0.075356826
199	0xbe14a227	-0.14514981
200	0xbd956604	-0.072948486
201	0xbcb8d4d7	-0.022562427
202	0xbc74ab43	-0.01493341
203	0xbebb9c18	-0.36642528
204	0x3b8fe3c9	0.004391168
205	0xbd37ca87	-0.04487088
206	0x3e317983	0.1733151
207	0xbe700e3c	-0.2344293
208	0x3e46e9e0	0.19425154
209	0x3f404c62	0.7511655
210	0x3cc2bb5c	0.02377098
211	0xbc3301f7	-0.010925761
212	0xbe16d159	-0.14728297
213	0x3d51f992	0.0512634
214	0xbeceaa8b	-0.4036449
215	0xbe3c4859	-0.18386973
216	0xbf0cc89f	-0.54993623
217	0x3f154d97	0.5832152
218	0xbe98289d	-0.29718485
219	0x3ec4bcf7	0.3842542
220	0x3c3af491	0.011410848
221	0x3e408fb5	0.1880482
222	0xbb079eb1	-0.0020693953
223	0xbd38f80a	-0.045158423
224	0xbd0c5855	-0.034263927
225	0xbf891af1	-1.0711347
226	0xbe307994	-0.17233878
227	0x3cf051cc	0.029335879
228	0xbc9cfea0	-0.019164383
229	0x3e28e7d9	0.16494693
230	0x3c01a2c8	0.007912345
231	0xbd593390	-0.05302769
232	0xbe3a709c	-0.1820702
233	0xbd7209b4	-0.059091285
234	0xbe534e03	-0.20635228
235	0xbe136d73	-0.1439722
236	0xbe55bde8	-0.20873225
237	0x3da3845a	0.079842284
238	0xbdbb2b1b	-0.09139081
239	0x3d86b986	0.065783545
240	0xbeec04f4	-0.4609753
241	0x3e598ae8	0.21244395
242	0xbb534b9f	-0.0032241119
243	0x3dbbd003	0.091705345
244	0x3cc61aee	0.024182763
245	0x3dca7b33	0.0988678
246	0x3d06afc3	0.032882463
247	0xbd9193a6	-0.0710824
248	0x3d6b4357	0.057437267
249	0xbe92f8ad	-0.2870535
250	0x3cb24a3d	0.021763915
251	0xbd7711c9	-0.060319696
252	0xbe6aec4d	-0.22941704
253	0x3dcedb8a	0.101004675
254	0xbe2937cf	-0.16525196
255	0xbe42a817	-0.19009434

network.6.bias f4 [64]
0	0xbdd90ce1	-0.105981596
1	0xbd59cb37	-0.053172316
2	0xba8f7031	-0.001094347
3	0xbde7c128	-0.113161385
4	0x3d684505	0.056706447
5	0xbd5ffbb2	-0.054683395
6	0xbe5d6c85	-0.21623428
7	0x3db3f4b9	0.087869115
8	0xbcf18f86	-0.029487383
9	0x3d0e4ee5	0.03474321
10	0x3d483b22	0.04888452
11	0x3d90370d	0.0704175
12	0x3d9bd8a4	0.0760968
13	0x3c0bbcca	0.008528898
14	0xbcaa7962	-0.020809833
15	0xbe6b6781	-0.22988702
16	0xbdb79c8c	-0.08965406
17	0x3c3a4413	0.011368769
18	0x3db2d8a6	0.08732729
19	0x3dd91d8e	0.1060134
20	0x3dc60161	0.09668232
21	0x3e7fe1be	0.24988458
22	0xbd81607b	-0.0631723
23	0x3b345bc9	0.0027520529
24	0x3bbd69f9	0.005780455
25	0x3df213ee	0.118202075
26	0xbdc4db00	-0.096120834
27	0xbd110fef	-0.035415586
28	0x3e7976e7	0.24361764
29	0xbe5d5d77	-0.21617685
30	0x3e1cceb8	0.15313232
31	0xbdb0faf3	-0.08641615
32	0x3c56729d	0.013088849
33	0xbc23489c	-0.009966042
34	0xbe2847c4	-0.16433626
35	0xbe2a5280	-0.16633034
36	0x3d99f053	0.07516541
37	0xbd9bba53	-0.07603898
38	0xbdabdec2	-0.08392097
39	0xbe0c715a	-0.13715115
40	0xbd54e0c5	-0.05197217
41	0xbd63aca6	-0.055584572
42	0x3ed1949c	0.40933692
43	0xbe3642f7	-0.17798983
44	0xbe3ae699	-0.18252029
45	0x3d04a91b	0.032387834
46	0x3d8bb6f9	0.06822009
47	0x3c0c92bf	0.008579909
48	0xbe8f5628	-0.2799542
49	0x3dfc3b35	0.1231598
50	0x3c9ce4ce	0.019152071
51	0x3e7e9860	0.24862814
52	0xbdf829bb	-0.121173345
53	0xbbfaf67b	-0.0076587773
54	0xbcfcc960	-0.030857742
55	0x3dff7c3f	0.1247487
56	0xbd273303	-0.040820133
57	0x3cd577c3	0.026058083
58	0xba8d673e	-0.0010788215
59	0x3bc9eed0	0.006162502
60	0xbe902d87	-0.28159735
61	0x3dc04532	0.09388198
62	0xbd2b2374	-0.041781858
63	0x3e5c5a9c	0.2151894

network.8.weight f4 [64, 64]
0	0x3e01f1f4	0.12689954
1	0x3e659eaf	0.22423814
2	0xbdb7f9cd	-0.089831926
3	0x3d7aef88	0.06126359
4	0xbd153a38	-0.036432475
5	0x3e29d80e	0.16586325
6	0xbe6cab5c	-0.23112243
7	0x3d1833fc	0.03715895
8	0xbe100d72	-0.14067629
9	0xbbfae2a5	-0.0076564127
10	0xbcc758be	-0.024334308
11	0xbdf4d271	-0.11954201
12	0x3ddfe25f	0.10931849
13	0x3dfa022b	0.12207445
14	0x3c9adf93	0.018905437
15	0xbd88169b	-0.06644937
16	0x3e5837a6	0.21114978
17	0xbc68b051	-0.014202193
18	0xbe4ad15d	-0.19806428
19	0xbddaf83f	-0.106918804
20	0xbcbc1b56	-0.022962254
21	0x3ded8d20	0.11599183
22	0xbdbfe866	-0.09370498
23	0xbbb5e9f3	-0.0055515706
24	0x3e0fc356	0.14039358
25	0xbcfe9e2a	-0.031081278
26	0x3d7d177a	0.061789967
27	0x3ceae3b4	0.02867303
28	0x3dcfb18a	0.10141285
29	0x3c1ea2ab	0.009682338
30	0xbe474c66	-0.19462737
31	0x3d7853f7	0.06062695
32	0xbe5f0eeb	-0.21783035
33	0x3e1df987	0.15427218
34	0xbd014a6d	-0.03156512
35	0xbe6692ab	-0.22516887
36	0xbd8d5007	-0.0690003
37	0x3e53d58e	0.20686933
38	0xbe0ac57e	-0.135519
39	0xbda4ff82	-0.08056547
40	0x3d9373d6	0.07199828
41	0xbd85f5ed	-0.06541047
42	0xbdd1dfe2	-0.102477804
43	0x3b9e3069	0.0048275483
44	0xbe3a845b	-0.18214552
45	0xbdd46f2a	-0.10372765
46	0xbbd1b8c7	-0.006400201
47	0xbce7a786	-0.028278124
48	0x3dd4f6f3	0.10398664
49	0xbdf8316c	-0.121188015
50	0x3dfafc58	0.12255162
51	0x3cb3aa47	0.02193178
52	0x3c37e8e5	0.01122496
53	0x3e5b514e	0.21417734
54	0x3e090255	0.13379796
55	0x3e208b63	0.15678172
56	0xbe1f88ff	-0.15579604
57	0xbe5d7024	-0.2162481
58	0x3e84a660	0.25908184
59	0xbdeea858	-0.11653203
60	0xbe428782	-0.18997005
61	0x3e6507c4	0.22366244
62	0x3e9510cd	0.2911438
63	0x3e3af4c2	0.1825743
64	0xbe079c6e	-0.13243267
65	0x3e492b86	0.19645509
66	0x3e3f0123	0.18652777
67	0xbe8317f3	-0.2560421
68	0x3ebacd82	0.36484915
69	0xbce39193	-0.027779376
70	0x3e06eadf	0.13175534
71	0xbdb7487b	-0.089493714
72	0x3ccc071d	0.024905736
73	0xbe79390e	-0.24338171
74	0x3c8150aa	0.015785534
75	0x3c397e9f	0.011321693
76	0xbd86e6d7	-0.06586998
77	0xbe2cf832	-0.16891554
78	0xbda00318	-0.0781309
79	0x3d72d77c	0.059287533
80	0x3d026192	0.03183133
81	0xbf04f0ab	-0.5192973
82	0x3ea3e253	0.3200861
83	0xbdcd1e1a	-0.10015507
84	0x3ca8adb2	0.020590637
85	0xbceb0621	-0.028689446
86	0xbdd30941	-0.103044994
87	0x3de2e1d4	0.110782295
88	0x3e2c37f9	0.16818227
89	0x3e1167f6	0.14199814
90	0xbe4f7432	-0.20259169
91	0xbeab43e5	-0.33450237
92	0xbd06d401	-0.032917026
93	0xbdcaa934	-0.09895554
94	0xbd9f9734	-0.077925116
95	0xbea49c9d	-0.32150736
96	0x3ee0adbb	0.43882546
97	0x3de170d3	0.11007848
98	0xbabee0d1	-0.001456285
99	0x3d077d29	0.033078346
100	0x3e7d32c9	0.24726404
101	0x3c99c361	0.018769922
102	0xbe6ac52a	-0.22926775
103	0x3d69e217	0.05710038
104	0xbe62dcd0	-0.22154546
105	0xbdf5f9d6	-0.12010543
106	0x3e7cfd99	0.24706115
107	0x3da28311	0.07935155
108	0xbd1f8e61	-0.038954142
109	0x3e3628f4	0.1778906
110	0x3de11ac6	0.10991435
111	0xbbed0b55	-0.007234017
112	0x3e949b7f	0.29024884
113	0xbdbfb0a3	-0.09359863
114	0x3d88dd10	0.06682789
115	0x3e42047f	0.18947028
116	0x3c829fb7	0.015945299
117	0x3dee3623	0.116314195
118	0xbd3df31e	-0.046374433
119	0x3e37b9d8	0.17941988
120	0x3b4ef864	0.0031581158
121	0xbdb9541c	-0.09049246
122	0x3def2704	0.116773635
123	0xbe010508	-0.12599576
124	0xbdce5085	-0.10073952
125	0xbee888aa	-0.45416766
126	0x3db10c73	0.086449526
127	0x3e531fc8	0.20617592
128	0x3e7a505a	0.24444714
129	0x3e6964b5	0.22792323
130	0xbd157a73	-0.03649373
131	0xbdf4c14c	-0.11950931
132	0x3c40e86b	0.011774163
133	0xbd77c1a6	-0.060487412
134	0xbcaca292	-0.021073613
135	0xbbdd2616	-0.006748925
136	0xbe473293	-0.19452886
137	0x3c89882a	0.01678856
138	0xbdb977b7	-0.09056037
139	0xbd870975	-0.06593601
140	0x3dcc9455	0.099892296
141	0x3c301cb5	0.010749032
142	0xbe03cfb1	-0.12872197
143	0xbe2c5ae9	-0.16831554
144	0x3d475c4a	0.048671998
145	0x3e75d566	0.24007186
146	0x3dd73a1a	0.10509129
147	0x3d0a4824	0.033760205
148	0x3cd5ca31	0.026097389
149	0x3e440f9b	0.19146578
150	0x3ea0ad4b	0.31382212
151	0x3d495296	0.049151026
152	0x3e29f2d1	0.16596533
153	0x3e2df578	0.1698817
154	0xba72b13e	-0.00092579785
155	0x3dda15d9	0.10648698
156	0xbd1a40ac	-0.037659332
157	0x3da6636f	0.08124434
158	0xbe0b381d	-0.13595624
159	0x3d32b6fa	0.04363153
160	0x3ea39773	0.31951484
161	0x3dd615c6	0.10453372
162	0xbdb54218	-0.08850497
163	0xbe07d85e	-0.13266131
164	0x3dbe1162	0.09280659
165	0x3e6100d6	0.21972975
166	0xbdb2be44	-0.087276965
167	0x3d8a953d	0.06766746
168	0x3e58a13e	0.21155259
169	0xbded91aa	-0.11600049
170	0xbd99343b	-0.07480665
171	0x3e1e1e42	0.1544123
172	0x3e799df6	0.24376664
173	0x3e0f4287	0.13990222
174	0xbdb1dff4	-0.08685294
175	0xbce812c1	-0.028329255
176	0xbd777a60	-0.06041944
177	0x3c8812a3	0.01661045
178	0x3de40230	0.1113323
179	0xbd321c4a	-0.04348401
180	0xbe048306	-0.12940606
181	0xbdbd4715	-0.092420734
182	0x3dc46f48	0.09591538
183	0xbc5225bd	-0.01282638
184	0x3ddc6c38	0.107628286
185	0x3e5683d4	0.20948726
186	0x3e9f325f	0.31093118
187	0xbc528d76	-0.01285111
188	0xbd82361c	-0.06357977
189	0xbd2c015f	-0.041993495
190	0xbdafb879	-0.08580107
191	0xbdeedaed	-0.116628505
192	0x3d973540	0.073832035
193	0x3c835237	0.016030414
194	0x3e5cb468	0.21553195
195	0xbdaa7b83	-0.08324339
196	0x3d233b1e	0.0398513
197	0x3ba9a4e5	0.0051771277
198	0xbe8e267f	-0.27763745
199	0xbcfbe9ff	-0.030751226
200	0xbe34fba8	-0.17674124
201	0xbe00df50	-0.12585187
202	0x3d899062	0.06716992
203	0x3da4a1ea	0.08038695
204	0x3d895dfe	0.06707381
205	0x3cab3ad0	0.020902067
206	0xbe7997f5	-0.24374373
207	0xbdaa7e1b	-0.08324834
208	0x3d2393cf	0.039935883
209	0xbc0ac830	-0.00847058
210	0xbdaa2c93	-0.08309283
211	0x3e20fb4e	0.15720865
212	0xbd5b5378	-0.0535464
213	0x3e42ece5	0.1903568
214	0x3d056325	0.032565255
215	0xbde555b0	-0.11197984
216	0x3da3e497	0.080025844
217	0x3b17e2a3	0.0023175857
218	0xbe236d24	-0.15959603
219	0x3e7ae1ea	0.24500242
220	0x3e33cd12	0.17558697
221	0xbdbf9642	-0.09354831
222	0xbbe59ee0	-0.0070074648
223	0xbe29cfeb	-0.1658322
224	0x3e45d951	0.19321181
225	0x3e73b75c	0.23800415
226	0x3cbd06d2	0.023074541
227	0xbe2cfaeb	-0.16892593
228	0xbd9f5371	-0.07779587
229	0xbe163757	-0.14669548
230	0xbdfd208f	-0.12359726
231	0x3da434bd	0.080178715
232	0x3d9dab70	0.07698715
233	0xbc87a5e9	-0.016558604
234	0x3e196cbf	0.1498289
235	0xbe15d3bb	-0.1463155
236	0x3c25b1b5	0.010113169
237	0xbd8d5259	-0.06900472
238	0xbde4bd55	-0.11168925
239	0xbd5a6459	-0.053318355
240	0xbdf2a2ee	-0.118474826
241	0x3e552c63	0.20817713
242	0x3e03f4f6	0.12886414
243	0x3df52a7a	0.119709924
244	0xbcc85300	-0.02445364
245	0x3d12c6c3	0.035834085
246	0xbd8086c6	-0.06275706
247	0xbdb1eb62	-0.08687474
248	0xbb0fc39b	-0.0021936658
249	0x3d9b1b5f	0.0757358
250	0xbf04da0b	-0.5189521
251	0xbd4879ed	-0.048944402
252	0xbd5e3965	-0.054253954
253	0xbecd7f8c	-0.40136373
254	0x3d213a08	0.039361984
255	0xbdcddebc	-0.10052249

network.8.bias f4 [64]
0	0x3b500001	0.0031738284
1	0x3e25d810	0.16195703
2	0xbcdd09ef	-0.026982276
3	0x3de7884a	0.11305292
4	0x3e536c3a	0.20646754
5	0x3e4c3283	0.19941144
6	0xbd4cd543	-0.05000807
7	0x3c56bf59	0.013107144
8	0x3d42eeb1	0.047590915
9	0xbe2e15be	-0.17000481
10	0x3d2bf80b	0.0419846
11	0x3ba16fd3	0.0049266606
12	0x3da263c3	0.07929184
13	0x3e0ea848	0.13931382
14	0x3e0afeee	0.1357381
15	0x3c09f3e5	0.008419965
16	0xbde1aff8	-0.110198915
17	0xbdb522aa	-0.08844502
18	0x3de89d3c	0.11358115
19	0xbce8a2cc	-0.02839794
20	0x3d54b778	0.051932782
21	0xbd5b1415	-0.05348595
22	0x3be8262b	0.007084628
23	0xbe4b807a	-0.19873229
24	0x3be67cd1	0.0070339222
25	0x3d9161e1	0.07098747
26	0xbdb1690a	-0.08662613
27	0x3c8f78d8	0.017513677
28	0xbd18b71a	-0.037283994
29	0xbd14b3dd	-0.036304343
30	0xbce8b303	-0.028405672
31	0x3dda94b0	0.10672891
32	0xbc0b3075	-0.00849544
33	0xbdc6b7cc	-0.09703025
34	0xbd5c7e52	-0.053831406
35	0x3c6909d9	0.014223539
36	0xbdef767f	-0.11692523
37	0x3bb4ee04	0.0055215377
38	0xbd6f5776	-0.05843302
39	0xbcbc849e	-0.023012456
40	0x3e5d7e37	0.21630178
41	0xbe879a08	-0.26484704
42	0xbe216f31	-0.15765072
43	0xbd3f4edd	-0.04670607
44	0x3d85028d	0.06494627
45	0x3def76d4	0.116925865
46	0xbe5eebbc	-0.21769613
47	0x3da34842	0.079727665
48	0x3e82c7f1	0.25543168
49	0x3e419387	0.18903933
50	0x3d318cfa	0.043347336
51	0xbddc5a92	-0.107594624
52	0x3d546693	0.051855635
53	0xbb272ecf	-0.0025510078
54	0xbdb2981c	-0.08720419
55	0x3daf4132	0.08557357
56	0xbe875a82	-0.2643624
57	0xbcf45a35	-0.02982817
58	0xbedd177b	-0.43181977
59	0x3d84d349	0.06485612
60	0xbdcde0e7	-0.10052662
61	0x3cdc39e9	0.026883082
62	0xbd9cbe05	-0.07653431
63	0xbdb31c7a	-0.08745666

network.10.weight f4 [64, 64]
0	0x3e42197f	0.18955038
1	0xbdb3ad62	-0.087733045
2	0x3e3e8e93	0.18609075
3	0x3dd82e68	0.10555726
4	0x3e82c7c3	0.2554303
5	0x3e744ae3	0.23856692
6	0x3d90669e	0.07050823
7	0x3ddcd79b	0.10783311
8	0xbdb98697	-0.09058874
9	0x3d13720e	0.035997443
10	0x3dc11a6c	0.09428868
11	0x3d9b1b5a	0.07573576
12	0xbe04940f	-0.12947105
13	0xbafa487d	-0.001909509
14	0x3e3bc0f6	0.18335328
15	0x3d81ca56	0.06337421
16	0xbe2d845c	-0.16945022
17	0x3e1d6979	0.15372266
18	0x3d460930	0.048348606
19	0x3e6586f6	0.22414765
20	0xbe0057ce	-0.12533495
21	0xbd7787d6	-0.060432278
22	0xb9ef8085	-0.00045681387
23	0xbd931b86	-0.07182984
24	0x3e26a273	0.16272907
25	0x3decfda8	0.115718186
26	0xbe013a73	-0.12619953
27	0xbe3ad565	-0.18245466
28	0xbec7f0ca	-0.39050895
29	0x3e4aeb09	0.19816221
30	0xbe42bfdb	-0.190185
31	0x3e133322	0.14374974
32	0x3cd75c2e	0.026289072
33	0x3e0722f2	0.13196924
34	0xbe92e38d	-0.28689232
35	0xbe4f0091	-0.2021506
36	0x3e8029d5	0.25031915
37	0x3ea29e4f	0.31761405
38	0xbe10a350	-0.14124799
39	0x3da7e5f4	0.08198157
40	0x3e84d93e	0.25946993
41	0x3e04d045	0.12970074
42	0x3cad8ee2	0.021186296
43	0xbe4e2e4e	-0.20134851
44	0xbe0dddf0	-0.13854194
45	0xbda3d532	-0.07999648
46	0xbe83933f	-0.25698277
47	0xbdf29e86	-0.11846642
48	0x3cc3b36d	0.023889268
49	0xbe151518	-0.14558828
50	0xbcfc8a6b	-0.030827722
51	0xbe24adac	-0.16081876
52	0x3e0b5b13	0.13608961
53	0xbdfa1307	-0.122106604
54	0x3e61971c	0.220303
55	0xbe0dc14f	-0.13843273
56	0xbd3885e8	-0.045049578
57	0xbdc0617b	-0.09393593
58	0xbe3b67de	-0.18301341
59	0x3d173f4a	0.03692559
60	0xbe636a96	-0.22208628
61	0x3ddabee3	0.1068094
62	0x3d7605e1	0.0600642
63	0xbcb37559	-0.021906542
64	0x3d93bdcd	0.07213936
65	0xbba5e01d	-0.005062117
66	0xbd65097b	-0.055917244
67	0xbdbc75f9	-0.09202189
68	0x3dee0789	0.11622531
69	0x3d6d649f	0.057957288
70	0xbe2a6b98	-0.16642606
71	0x3e2258a8	0.15854132
72	0x3e02301a	0.12713662
73	0x3e60cc91	0.21953036
74	0xbd814ef8	-0.0631389
75	0xbbd6609d	-0.006542279
76	0x3deb318a	0.11484058
77	0xbc9fcd00	-0.019506931
78	0x3ca249c8	0.019810572
79	0x3d4cbf3c	0.049987063
80	0xbe3def7a	-0.18548384
81	0x3e58b518	0.21162832
82	0x3df9f0f5	0.12204162
83	0xbd9aa304	-0.07550624
84	0xbe11e8af	-0.14248918
85	0xbe145fc2	-0.14489654
86	0xbb981872	-0.004641586
87	0xbb96db37	-0.004603769
88	0xbd80b91d	-0.062853076
89	0x3d27646a	0.040867247
90	0xbcf5634c	-0.029954575
91	0xbadfc186	-0.0017071224
92	0x3c7aa478	0.0152980015
93	0xbd27e5ed	-0.04099076
94	0x3e091782	0.13387874
95	0xbd938abb	-0.07204195
96	0x3dac4d8b	0.08413228
97	0x3d8e964a	0.06962259
98	0xbd34bbd3	-0.044124436
99	0xbcd04250	-0.025422245
100	0x3e38bf8c	0.1804182
101	0x3e6771ce	0.22602007
102	0x3d8bead7	0.068319015
103	0xbe13c23b	-0.14429562
104	0xbdddd57d	-0.10831735
105	0xbe285516	-0.16438708
106	0x3ce9c995	0.028538505
107	0x3ce15a53	0.02750889
108	0x3e19cb5f	0.15018986
109	0x3d95b8c4	0.07310632
110	0x3dd3f452	0.10349335
111	0x3d6e0c18	0.058117002
112	0x3d61cd2c	0.055127308
113	0x3d8ef2b6	0.06979887
114	0xbdb93672	-0.09043588
115	0xbe16ee31	-0.147393
116	0xbe4d0117	-0.20019947
117	0x3df5cef7	0.12002366
118	0xbde8dfe6	-0.1137083
119	0xbcda3a73	-0.026639199
120	0xbd2fb0a7	-0.04289308
121	0xbd50da3a	-0.050989367
122	0xbe4da9bc	-0.2008428
123	0x3e132937	0.14371191
124	0xbe1038a0	-0.140841
125	0x3e5dd925	0.21664865
126	0x3d388057	0.04504427
127	0xbd436f91	-0.04771382
128	0x3d3ac10f	0.04559427
129	0x3dd0fba6	0.10204248
130	0xbe420de8	-0.18950617
131	0x3e17ba23	0.148171
132	0xbda81a3a	-0.08208127
133	0xbdc06750	-0.09394705
134	0x3e7d844c	0.24757499
135	0x3a8f3eb7	0.0010928725
136	0x3a3aa1df	0.00071194576
137	0xbe0f8dbd	-0.14018913
138	0xbe497279	-0.19672574
139	0xbe55bce9	-0.20872845
140	0xbe0a5950	-0.13510633
141	0x3df3d7fb	0.119064294
142	0x3e2f4182	0.17114833
143	0xbc1b6bee	-0.009486182
144	0xbc0272ae	-0.007961912
145	0x3afc427f	0.0019245892
146	0x3e9417b2	0.28924328
147	0x3dc965da	0.0983388
148	0x3d5efd6c	0.0544409
149	0xbd0a2130	-0.033723056
150	0xbd2f05a8	-0.042730004
151	0xbd9f6c71	-0.077843554
152	0x3de0ed6e	0.10982786
153	0xbd6ddb9b	-0.05807076
154	0xbe062826	-0.13101253
155	0x3e4e39f4	0.20139295
156	0xbe9308ca	-0.28717643
157	0x3ea55e4d	0.32298508
158	0xbd5bd79f	-0.05367243
159	0x3e2c48cf	0.1682465
160	0x3e999a70	0.3000064
161	0xbe770cc7	-0.24125968
162	0xbdc691be	-0.09695767
163	0x3e4fe943	0.20303826
164	0x3dc41382	0.09574033
165	0x3d749d70	0.059720457
166	0x3db5041d	0.08838675
167	0xbda4efd1	-0.08053554
168	0xbcee7ff5	-0.029113749
169	0x3df0bb27	0.117544465
170	0x3dec6bd6	0.115440056
171	0xbe255bf9	-0.16148366
172	0x3e86f397	0.2635772
173	0xbe5fa342	-0.21839622
174	0xbe541a7e	-0.20713231
175	0xbdc2bf8b	-0.0950919
176	0xbd228a6c	-0.03968279
177	0xbe51bcbc	-0.20482153
178	0x3dceae72	0.100918666
179	0xbe7c21ed	-0.24622317
180	0x3c56cbe4	0.013110135
181	0xbe39fb66	-0.18162307
182	0xbeab3f34	-0.33446658
183	0xbe3b20da	-0.1827425
184	0xbdedde71	-0.11614693
185	0xbe892f71	-0.26794007
186	0xbcdc047c	-0.026857607
187	0xbd6155fd	-0.055013645
188	0xbd92d0be	-0.07168721
189	0xbd5136ba	-0.051077582
190	0x3e7dd806	0.24789438
191	0x3cc50d18	0.024054095
192	0x3d1e893c	0.038705096
193	0x3d2e9036	0.042618
194	0x3e3f48d5	0.18680127
195	0xbd70c60c	-0.058782622
196	0x3dcfa721	0.10139299
197	0xbe1ffcf2	-0.15623835
198	0x3df377a2	0.118880525
199	0x3cf4f3bc	0.029901378
200	0x3e091582	0.13387111
201	0x3e084f0b	0.13311402
202	0x3dd5ccbc	0.104394406
203	0xbe01bce0	-0.12669706
204	0x3dedac86	0.11605172
205	0x3e0da738	0.1383332
206	0xbda395fe	-0.07987593
207	0x3e0843fd	0.13307185
208	0xbd176f84	-0.036971584
209	0xbdf049e3	-0.11732843
210	0xbe9c374d	-0.3051094
211	0x3d830271	0.0639695
212	0xbe837d94	-0.25681746
213	0x3d875c23	0.066093706
214	0xbd64c039	-0.05584738
215	0xbea65583	-0.32487115
216	0x3bbed1f1	0.005823367
217	0xbd364800	-0.04450226
218	0xbe46aeac	-0.1940257
219	0x3dd16972	0.1022519
220	0x3e39613c	0.18103498
221	0x3dcc292d	0.09968791
222	0x3dbc5e97	0.09197729
223	0x3dd58755	0.10426203
224	0x3e24963d	0.16072936
225	0xbe10c712	-0.1413844
226	0x3d6ac22b	0.05731408
227	0x3cfc3d7f	0.030791042
228	0x3e085619	0.13314094
229	0x3e436eb3	0.19085197
230	0x3e841493	0.25796947
231	0xbe328941	-0.1743517
232	0x3e839dda	0.2570637
233	0xbead3edc	-0.3383702
234	0xbe436591	-0.19081713
235	0x3d09ba9d	0.033625234
236	0x3e5dabef	0.21647619
237	0x3e06e056	0.13171515
238	0xbe29fa00	-0.16599274
239	0x3e860e62	0.26182848
240	0xbe797ecc	-0.24364775
241	0x3e60e54b	0.21962468
242	0xbe2144d0	-0.15748906
243	0xbe5cf57f	-0.21578024
244	0xbe86c5c5	-0.2632276
245	0xbe5f9e49	-0.21837725
246	0xbe31e21d	-0.17371412
247	0x3e35dd60	0.17760229
248	0xbe79e1d9	-0.2440256
249	0x3c0fdac8	0.008780189
250	0xbe80f7b0	-0.2518897
251	0x3e5d33c5	0.2160178
252	0xbe19c35a	-0.15015927
253	0xbd2e2ab9	-0.042521212
254	0x3def713d	0.1169152
255	0xbb17d34a	-0.002316671

network.10.bias f4 [64]
0	0xbca14af7	-0.019689066
1	0x3c75508e	0.014972819
2	0xbd6b3a2c	-0.057428524
3	0x3e0da2d4	0.13831645
4	0x3d47b52a	0.048756756
5	0xbd2d89a3	-0.04236759
6	0x3c9157df	0.017742096
7	0x3d09450c	0.033513114
8	0x3e10bb3b	0.14133923
9	0x3d45bb4f	0.048274335
10	0xbdd2580e	-0.10270701
11	0x3d120959	0.035653446
12	0x3e905956	0.28193158
13	0xbc511e00	-0.0127635
14	0xbb3ca6c2	-0.002878592
15	0x3e176c75	0.14787467
16	0xbd37a082	-0.044830807
17	0x3dc6a0cb	0.096986376
18	0x3da43b22	0.08019091
19	0x3d17314f	0.03691226
20	0xbe2ef57d	-0.17085834
21	0x3dceb1a9	0.1009248
22	0xbe20eca3	-0.1571527
23	0xbca55af3	-0.02018497
24	0xbe1456ad	-0.14486189
25	0xbd5c5fdd	-0.05380236
26	0x3c30a281	0.010780931
27	0x3e37646c	0.17909402
28	0xbd8e74c3	-0.06955864
29	0xbcc6920f	-0.024239568
30	0xbe0662a7	-0.1312357
31	0x3e4228d1	0.18960883
32	0xbda9e595	-0.082957424
33	0xbca31d11	-0.01991132
34	0xbd86efea	-0.06588729
35	0x3d98936f	0.07449996
36	0x3e551adc	0.20811027
37	0xbd074ec7	-0.033034112
38	0xbdc3c23a	-0.0955853
39	0xbda925f5	-0.08259193
40	0x3baa1497	0.005190443
41	0xbd9d4c7d	-0.076806046
42	0xbe4c2e6a	-0.1993958
43	0x3c08ad44	0.008342091
44	0xbde83e3a	-0.11339994
45	0xbcdc5ad5	-0.02689878
46	0x3cc31812	0.023815189
47	0xbdd10a50	-0.10207045
48	0xbda0822b	-0.078373276
49	0xbe024e99	-0.12725295
50	0xbd831757	-0.06400936
51	0x3da3eee1	0.08004547
52	0x3e07d364	0.13264233
53	0xbddc5fee	-0.10760485
54	0xbe3b5e76	-0.18297753
55	0x3d541464	0.05177726
56	0xbcc83a1a	-0.024441767
57	0x3e00cd86	0.12578401
58	0xbc83556f	-0.016031949
59	0xbd0431e9	-0.03227416
60	0xbd8ab7fb	-0.06773373
61	0xbe0430ba	-0.12909213
62	0x3e5d64e7	0.21620522
63	0xbd1c556b	-0.0381674
