plane_stress/models/adam_6_64.pth (torch, 90448 bytes, 14 tensors)

network.0.weight f4 [64, 2]
0.21015444 0.28230655 -0.22969836 -0.43051282 0.20849122 -0.39269873 0.121972255 0.24674106
-0.1642314 -0.10391909 0.17191954 -0.21022609 -0.2713743 0.27043822 0.24832809 0.5038531
-0.0064153466 0.46746466 0.27124318 0.5219107 -0.1985898 0.409212 0.112994425 0.4399644
-0.07161543 0.42143068 0.104319744 -0.0026492204 0.025995702 0.066005506 -0.17441502 -0.36011532
-0.026292535 -0.06105025 -0.12535515 -0.074122176 0.23056307 0.43084213 0.15045127 0.2155573
-0.112364836 -0.25486332 -0.20314881 0.19395104 -0.14696229 0.2864282 0.020946162 0.46184844
0.17472291 -0.36675662 0.24258748 0.18315339 -0.18667552 0.44577163 -0.20881063 0.59402055
-0.18721211 -0.3319071 0.13711439 0.26893032 -0.011957504 0.077382185 -0.0038450623 -0.025222862
0.23148875 -0.043419197 -0.00701436 -0.004671672 0.24878232 0.14274533 -0.115698725 -0.45588607
-0.16071132 -0.35617116 -0.11060401 -0.4160513 0.14951044 -0.013373472 -0.21200602 -0.050701123
-0.11154014 -0.18774615 -0.003912652 0.050387748 -0.18630043 -0.009159868 -0.1278223 -0.020517368
0.069493026 0.3076859 0.15653571 -0.20142691 -0.089370735 -0.26863202 0.28991282 0.14341635
0.02998103 0.09775675 0.14870882 0.051752873 -0.23546909 0.16092646 0.35590512 -0.5820675
-0.24914002 0.2557874 0.024556085 0.055128034 -0.22248839 -0.14386575 -0.17389514 0.16760862
0.25298154 -0.38247806 0.24692203 0.24023728 -0.22440897 0.03713229 -0.28418836 0.057352226
-0.2614114 0.066445984 -0.20562473 -0.32197243 -0.19418864 0.31085768 0.21682556 0.20489526
00000000: ba32 573e 7c8a 903e 0c36 6bbe 2d6c dcbe
00000010: b97e 553e cf0f c9be 97cc f93d b0a9 7c3e
00000020: 472c 28be 88d3 d4bd ad0b 303e 8245 57be
00000030: 92f1 8abe e176 8a3e b849 7e3e 84fc 003f
00000040: d437 d2bb 8757 ef3e 63e0 8a3e f19b 053f
00000050: 205b 4bbe 3c84 d13e 9f69 e73d 0443 e13e
00000060: 1cab 92bd c3c5 d73e 97a5 d53d 8b9e 2dbb
00000070: f0f4 d43c e52d 873d da99 32be 0961 b8be
00000080: 7163 d7bc d40f 7abd 1a5d 00be 5ecd 97bd
00000090: ba18 6c3e 5797 dc3e e60f 1a3e 0ebb 5c3e
000000a0: 891f e6bd 727d 82be 3e06 50be 1a9b 463e
000000b0: 487d 16be b8a6 923e 4997 ab3c 6677 ec3e
000000c0: 90ea 323e 86c7 bbbe da68 783e 908c 3b3e
000000d0: de27 3fbe 2e3c e43e 74d2 55be bb11 183f
000000e0: 88b4 3fbe baef a9be b767 0c3e 3cb1 893e
000000f0: 68e9 43bc 8d7a 9e3d 71fd 7bbb 2da0 cebc
00000100: 630b 6d3e 54d8 31bd b7d8 e5bb d314 99bb
00000110: cbc0 7e3e d52b 123e 74f3 ecbd e669 e9be
00000120: 8291 24be 115c b6be 5b84 e2bd ad04 d5be
00000130: 4419 193e 681c 5bbc 1b18 59be fbab 4fbd
00000140: 286f e4bd 8740 40be b435 80bb 6263 4e3d
00000150: 8ac5 3ebe 4513 16bc d9e3 02be 0a14 a8bc
00000160: 5c52 8e3d 0289 9d3e e64a 203e db42 4ebe
00000170: 0108 b7bd 238a 89be 746f 943e bcdb 123e
00000180: c79a f53c b134 c83d 2047 183e d2fa 533d
00000190: cf1e 71be e8c9 243e 3239 b63e 6002 15bf
000001a0: 901e 7fbe 91f6 823e d829 c93c efcd 613d
000001b0: ffd3 63be 8b51 13be 9111 32be 98a1 2b3e
000001c0: cc86 813e 2ad4 c3be 21d9 7c3e c300 763e
000001d0: 77cb 65be 0718 183d 2381 91be 2bea 6a3d
000001e0: b7d7 85be d514 883d 4a8f 52be 92d9 a4be
000001f0: 63d9 46be bd28 9f3e 8507 5e3e 10d0 513e

network.0.bias f4 [64]
-0.32725507 0.36876202 -0.013876413 -0.21493086 0.23050217 -0.034253128 0.15211195 -0.4329202
-0.22323062 -0.51865125 0.01245397 -0.28254253 -0.12927401 -0.115545474 -0.08205715 0.34499598
0.04684797 0.16629696 -0.38976544 -0.22850296 0.247134 0.09188184 0.0069734477 -0.22090265
0.0038287053 -0.33548757 -0.01768679 -0.06257566 0.29845175 -0.21287948 -0.024636129 0.034188326
-0.19588038 0.028338712 -0.2647014 0.33266866 0.31683716 0.24525023 -0.15523136 0.19273205
0.22415975 -0.046060346 0.17490233 0.130367 -0.23421228 -0.027991993 0.19416021 -0.29748955
-0.07932667 -0.18085381 0.13326803 -0.091929756 0.085591674 -0.05462251 0.23618677 0.079285465
-0.065917484 -0.24208987 0.1668438 0.23007335 0.20419401 0.352899 0.022661537 -0.2590301
00000000: fa8d a7be 60ce bc3e e559 63bc d616 5cbe
00000010: c308 6c3e 024d 0cbd 3cc3 1b3e b7a7 ddbe
00000020: 9196 64be 54c6 04bf bc0b 4c3c 6aa9 90be
00000030: 6860 04be 1ba3 ecbd 940d a8bd 50a3 b03e
00000040: a8e3 3f3d c049 2a3e 568f c7be aefc 69be
00000050: b210 7d3e 8c2c bc3d 8581 e43b 4e34 62be
00000060: 04eb 7a3b 07c5 abbe e3e3 90bc ab27 80bd
00000070: abce 983e 14fd 59be b5d1 c9bc 0f09 0c3d
00000080: de94 48be 9626 e83c f186 87be 8c53 aa3e
00000090: 7b38 a23e e022 7b3e f8f4 1ebe 8d5b 453e
000000a0: 228a 653e c6a9 3cbd 9919 333e ed7e 053e
000000b0: 58d5 6fbe 774f e5bc efd1 463e 8d50 98be
000000c0: 0576 a2bd be31 39be 6a77 083e ab45 bcbd
000000d0: b04a af3d dabb 5fbd f2da 713e 6b60 a23d
000000e0: bfff 86bd 68e6 77be 1ad9 2a3e 5998 6b3e
000000f0: 3c18 513e 2daf b43e b0a4 b93c 989f 84be

network.2.weight f4 [64, 64]
0.20420937 0.12301403 0.362418 0.114784345 0.009201273 0.11737017 -0.38796076 -0.06797516
-0.30900055 0.31023335 -0.45955345 0.053419035 -0.040214643 0.05136709 -0.09178252 0.122515514
-0.029229345 -0.07482672 -0.0064063696 -0.0046806415 -0.25594738 -0.3469515 -0.07130066 0.033760633
0.34053004 0.06106863 -0.27941304 -0.124429345 -0.20876011 0.10928186 -0.15775096 -0.016397776
-0.039778695 0.00027217314 0.09977826 0.19252752 -0.03601736 0.050333884 0.2282193 -0.1231389
-0.12007086 0.12799369 -0.1623503 0.047485165 0.19847085 0.19537002 0.087718695 0.05706565
0.08488194 0.17795345 0.009410648 0.4994695 -0.026426041 0.1775577 0.08785063 -0.14405876
0.4316395 -0.13118382 -0.0922392 -0.34072852 -0.062459633 -0.10712456 -0.11431603 -0.06494924
-0.058506586 0.15231973 0.29537752 0.05267984 0.22977112 -0.11142713 0.061898798 -0.27614677
-0.08183998 -0.3428815 0.1545124 -0.0083859 -0.22234082 -0.1981648 -0.015641188 0.008359309
0.01621176 -0.033671454 0.02630796 0.13824935 -0.06681872 0.050984535 0.08614978 -0.258365
-0.015611985 0.03813234 0.11808521 -0.27066195 0.10251493 -0.01503102 0.023604505 0.03615008
-0.0007017447 0.05000217 0.09690632 0.28919205 0.019305184 -0.101614304 -0.006651705 -0.12809557
-0.0050761355 0.2661956 -0.172365 0.025609156 0.013447133 0.2688768 0.16671845 0.05112067
-0.16364165 -0.27182233 -0.04007474 -0.011826567 0.13880534 0.1698343 -0.032178402 -0.16314457
0.094727956 -0.119861305 -0.12589633 0.054195534 0.13427477 0.20400558 -0.014036106 -0.14866513
0.2031535 -0.0753768 -0.24652867 -0.14485128 0.20501436 0.16669482 -0.09873198 0.21432783
-0.05067386 0.13322477 0.23542832 -0.08274941 0.08412949 -0.09514172 0.2243527 0.1600721
-0.11399387 0.08196434 -0.065468974 -0.00078082 -0.16209255 0.15989849 -0.12448555 -0.041395903
-0.0071959416 0.1969704 0.22415672 -0.011995372 0.1323178 0.007425782 0.09914991 0.026118468
-0.082121715 0.019990845 -0.14036416 0.050740927 0.08961485 0.11636598 0.10362288 0.18621066
-0.13668288 -0.17612644 -0.04170047 0.13492373 0.12558946 -0.04238158 -0.074158855 0.0007836563
-0.072010934 0.005609294 -0.1680917 0.07728286 0.108162716 -0.10690539 0.09714249 -0.086857356
-0.05325115 -0.083985776 0.09018435 0.16368164 -0.12179637 -0.2212549 0.05363224 -0.013376475
-0.17375247 -0.13826329 -0.26166987 0.043764513 -0.06849242 -0.06327042 0.10404433 0.24073386
0.23809734 0.041780513 0.16623773 0.0076785865 -0.03238552 0.004971007 -0.17714636 0.03343897
0.18122081 -0.0909293 0.2578205 0.19591856 -0.20689152 -0.10804252 0.18268144 0.04548752
0.08556505 0.20291235 0.090692356 -0.10678794 0.14864132 0.15678853 -0.044958595 0.060667146
0.0013647608 0.06298518 -0.16781552 -0.1798653 0.045483403 -0.24471363 -0.062386103 0.078030854
0.13877122 0.04311791 0.04360773 -0.0332171 -0.2100771 0.13736661 0.05335077 -0.09906909
-0.16072766 -0.17603761 0.14754336 -0.113186084 0.19048934 0.031486716 0.033007532 -0.17712222
0.055698164 -0.17049041 -0.09236963 0.12281359 -0.15452655 0.03958444 0.10237694 0.17192881
00000000: 431c 513e c8ee fb3d da8e b93e 0e14 eb3d
00000010: f0c0 163c c65f f03d cba2 c6be 9036 8bbd
00000020: 5235 9ebe e8d6 9e3e 974a ebbe ebcd 5a3d
00000030: 1cb8 24bd 4c66 523d 79f8 bbbd 6ae9 fa3d
00000040: 6172 efbc c03e 99bd 86ec d1bb 1160 99bb
00000050: 890b 83be a1a3 b1be 1506 92bd 9748 0a3d
00000060: f459 ae3e 1a23 7a3d 3a0f 8fbe d0d4 febd
00000070: 36c5 55be 2bcf df3d 7889 21be a154 86bc
00000080: fcee 22bd 76b2 8e39 8b58 cc3d ef25 453e
00000090: f086 13bd e72a 4e3d 52b2 693e 3f30 fcbd
000000a0: b6e7 f5bd c710 033e 283f 26be ce7f 423d
000000b0: f13b 4b3e 140f 483e dca5 b33d acbd 693d
000000c0: 95d6 ad3d 6e39 363e 1e2f 1a3c 77ba ff3e
000000d0: 6d7b d8bc b0d1 353e 08eb b33d 2484 13be
000000e0: daff dc3e 0d55 06be e8e7 bcbd f873 aebe
000000f0: acd5 7fbd 1f64 dbbd 861e eabd 1b04 85bd
00000100: 9aa4 6fbd b4f9 1b3e b93b 973e d1c6 573d
00000110: 1f49 6b3e e833 e4bd 9889 7d3d 1c63 8dbe
00000120: b89b a7bd 2a8e afbe 8038 1e3e 0465 09bc
00000130: 50ad 63be b7eb 4abe f321 80bc 7cf5 083c
00000140: 86ce 843c 14eb 09bd ca83 d73c 3d91 0d3e
00000150: 41d8 88bd 29d5 503d 4c6f b03d 6b48 84be
00000160: 69c9 7fbc a830 1c3d a9d6 f13d 3494 8abe
00000170: 59f3 d13d ab44 76bc 3c5e c13c 1b12 143d
00000180: 4af5 37ba 13cf 4c3d d276 c63d fb10 943e
00000190: e825 9e3c 291b d0bd 8cf6 d9bb 7c2b 03be
000001a0: b655 a6bb ca4a 883e 7380 30be 4bca d13c
000001b0: 5d51 5c3c 38aa 893e 3eb8 2a3e e863 513d
000001c0: ad91 27be 4c2c 8bbe 6925 24bd 38c4 41bc
000001d0: fd22 0e3e 0be9 2d3e 80cd 03bd 5f0f 27be
000001e0: bb00 c23d d879 f5bd f8ea 00be 23fc 5d3d
000001f0: 537f 093e d7e6 503e b2f7 65bc ac3b 18be
00000200: 7907 503e 275f 9abd 0372 7cbe e553 14be
00000210: 49ef 513e 0cb2 2a3e fe33 cabd c178 5b3e
00000220: 658f 4fbd 136c 083e 1f14 713e 8678 a9bd
00000230: 154c ac3d a9d9 c2bd b7bc 653e f1e9 233e
00000240: 9e75 e9bd ebdc a73d 9914 86bd f1af 4cba
00000250: 97fb 25be 6ebc 233e 48f2 febd c08e 29bd
00000260: efcb ebbb 9cb2 493e 5789 653e 3d88 44bc
00000270: 517e 073e f953 f33b 1c0f cb3d 66f6 d53c
00000280: 6e2f a8bd d7c3 a33c 9fbb 0fbe b8d5 4f3d
00000290: fe87 b73d 4951 ee3d 3c38 d43d 02ae 3e3e
000002a0: 99f6 0bbe 7d5a 34be 1dce 2abd 7229 0a3e
000002b0: 869a 003e 4f98 2dbd 99e0 97bd 496e 4d3a
000002c0: 787a 93bd 2bce b73b 3b20 2cbe 7a46 9e3d
000002d0: 6a84 dd3d 37f1 dabd a4f2 c63d 45e2 b1bd
000002e0: e11d 5abd bc00 acbd 93b2 b83d 299c 273e
000002f0: 6070 f9bd a590 62be 7bad 5b3d 0129 5bbc
00000300: 2bec 31be e494 0dbe 98f9 85be 6b42 333d
00000310: c145 8cbd ec93 81bd 3215 d53d f082 763e
00000320: cacf 733e 0b22 2b3d 393a 2a3e a79c fb3b
00000330: aea6 04bd d4e3 a23b db65 35be 4df7 083d
00000340: f391 393e 2439 babd 0c01 843e e09e 483e
00000350: 5fdb 53be 6645 ddbd d810 3b3e 1f51 3a3d
00000360: bb3c af3d 41c8 4f3e eabc b93d a3b3 dabd
00000370: 6e35 183e 2c8d 203e 8126 38bd 1d7e 783d
00000380: c6e1 b23a 60fe 803d d5d7 2bbe 9c2e 38be
00000390: ce4c 3a3d 3696 7abe 9288 7fbd a4ce 9f3d
000003a0: 0b1a 0e3e 689c 303d 059e 323d a70e 08bd
000003b0: 741e 57be d5a9 0c3e 5686 5a3d bce4 cabd
000003c0: cb95 24be 3443 34be 9b15 173e 1bce e7bd
000003d0: a30f 433e 37f8 003d e832 073d 875f 35be
000003e0: c223 643d 0a95 2ebe 4a2c bdbd b185 fb3d
000003f0: 353c 1ebe 4b23 223d 00ab d13d 1b0e 303e

network.2.bias f4 [64]
-0.17768873 0.15944949 0.030010872 -0.06672162 -0.06802094 0.19031051 -0.09344284 -0.040096443
-0.0387672 -0.004755592 -0.02630533 -0.06126835 -0.21117258 0.04700451 -0.056887783 0.09272684
-0.043023527 0.054990783 -0.018503837 0.013181938 -0.18901025 0.126228 0.030420462 -0.017458787
0.029365972 0.12873505 0.3022865 0.0057404884 -0.030282771 0.082906574 0.046776548 -0.057490725
0.114359386 0.07444532 -0.031865116 -0.09123164 -0.024100857 0.21496025 0.037167326 -0.18845129
-0.19292274 -0.17732726 -0.11944093 0.03370778 -0.114420444 0.12927026 0.012911966 -0.29014942
-0.063293904 -0.12180839 0.061292406 -0.08482948 0.05909889 0.12142185 -0.05461319 -0.11218695
0.09262044 -0.063969456 0.012096122 -0.07350809 -0.058126617 -0.15974194 -0.0065472727 0.054670196
00000000: 09f4 35be ba46 233e 5cd9 f53c 58a5 88bd
00000010: 904e 8bbd c2e0 423e f65e bfbd 2b3c 24bd
00000020: 5bca 1ebd ccd4 9bbb 477e d7bc 85f4 7abd
00000030: a03d 58be cd87 403d 2a03 69bd 92e7 bd3d
00000040: 7039 30bd 043e 613d 5c95 97bc 0ef9 573c
00000050: e78b 41be ea41 013e 5534 f93c bb05 8fbc
00000060: e890 f03c 1fd3 033e 4cc5 9a3e b51a bc3b
00000070: 9313 f8bc ecca a93d c498 3f3d 657b 6bbd
00000080: 4135 ea3d ca76 983d ff84 02bd a7d7 babd
00000090: 296f c5bc 8a1e 5c3e c43c 183d 60f9 40be
000000a0: 8a8d 45be 4795 35be 729d f4bd 2b11 0a3d
000000b0: 4455 eabd 6c5f 043e b68c 533c 778e 94be
000000c0: 3ca0 81bd ad76 f9bd bf0d 7b3d 14bb adbd
000000d0: ad11 723d 05ac f83d 15b2 5fbd 46c2 e5bd
000000e0: c9af bd3d 6b02 83bd d02e 463c 698b 96bd
000000f0: 2d16 6ebd 6493 23be 818a d6bb dbed 5f3d

network.4.weight f4 [64, 64]
-0.017118322 -0.15187906 0.1481166 0.16251338 -0.1337238 0.008431201 -0.14747229 0.040598325
-0.16676785 -0.03006083 0.13596155 -0.1773702 -0.02375651 -0.0054062014 -0.08215481 -0.013849741
0.19940545 0.17534076 0.12210004 0.0065614376 -0.12459644 -0.11122812 0.12724268 -0.11516501
-0.05762657 -0.011337218 -0.1722976 -0.12434915 -0.08240873 0.19649942 -0.065415174 0.090131804
0.073453054 -0.08325451 0.29593942 0.20801517 0.20343946 0.20309079 -0.029909682 0.052154787
0.0134029165 -0.18212517 0.17015155 -0.095880456 -0.016090957 -0.12171476 -0.16029242 0.09533214
-0.1689901 -0.0855722 0.06237787 -0.3104767 0.15652928 -0.16015083 -0.05542058 -0.06444717
-0.14026324 -0.062168725 0.15434392 -0.030122645 -0.19522844 -0.02208071 0.1806195 0.25332868
0.05064332 -0.30661303 0.23512582 0.028144555 -0.18815945 -0.07898636 -0.054020967 0.1565289
-0.23846802 0.055981055 -0.076305926 0.25628126 0.04426864 -0.043450356 0.0058434294 -0.1506858
0.252053 -0.12262546 -0.06864114 -0.13288371 0.15200837 0.100391805 -0.10765894 -0.0781682
0.11638536 0.055233188 0.11719592 -0.094434425 -0.02471298 -0.19588828 0.11247825 0.120231405
-0.09368931 0.17101437 0.046301614 -0.12112822 0.074121974 0.057773884 0.071359836 -0.13393131
0.056785893 -0.09872364 -0.15013926 -0.047557354 0.07325084 -0.27787498 -0.003499302 0.014567733
-0.009276464 0.2254385 0.03497831 -0.035654474 -0.013958346 -0.082734674 0.024678165 0.21164848
-0.15590136 -0.17854558 -0.059217658 -0.28730154 0.06739538 0.15296918 0.26266077 0.13801259
-0.04329386 0.14969797 -0.14584027 -0.20154499 -0.07672301 0.04780678 0.04423536 -0.045234364
0.09389809 0.10186646 -0.06484406 -0.18012692 0.059706483 -0.21045004 -0.047694735 0.0076384954
-0.19605973 -0.099756196 -0.17494889 -0.01286988 -0.010126531 0.04919796 0.23885182 0.0051316847
-0.112435706 0.0028274523 -0.13318348 0.1020366 0.15873282 0.02550311 0.047390837 -0.15540732
0.26672015 -0.03144666 0.22208305 0.17153856 -0.05860035 -0.13332982 0.3059067 0.02857009
-0.102915764 -0.2100699 0.14541802 0.14515816 -0.006018175 -0.062471446 0.22794916 -0.112050086
-0.03879038 -0.04151249 0.1670973 0.18089135 0.11872925 -0.16388117 0.10355251 -0.038795896
-0.012477935 -0.1487164 -0.18561171 0.15644287 0.11732243 0.04192965 0.0016494925 0.05230276
-0.10481864 0.14346626 -0.04608918 -0.21020581 -0.18569465 0.3244189 -0.12770699 0.1694336
-0.025475686 -0.11058881 0.109243385 0.25539446 -0.20078614 0.26106954 0.10712014 0.21945642
-0.25520796 0.33898878 0.25410604 -0.00086560973 -0.61877304 0.25921187 0.018895837 -0.023436708
0.143766 0.18280375 0.40854222 0.12798674 -0.17146447 0.16582489 0.21134406 -0.16134028
-0.08905897 0.03632202 -0.15522814 -0.32196578 0.08216732 0.37603652 -0.2801575 -0.44092035
-0.23569803 -0.024539521 0.09861006 -0.006099178 -0.19963063 0.26774228 0.000918392 -0.4021089
-0.04882529 -0.26052314 0.34494677 -0.26574415 0.13739952 0.36753553 -0.22524947 -0.11971014
0.13827303 -0.27235228 0.08202277 -0.075045854 -0.010449008 -0.197558 0.15370211 0.072158135
00000000: b93b 8cbc 2f86 1bbe e1ab 173e e869 263e
00000010: e4ee 08be 0523 0a3c fa02 17be 6e4a 263d
00000020: 31c5 2abe 2142 f6bc 8139 0b3e 89a0 35be
00000030: 039d c2bc 8126 b1bb c840 a8bd 06ea 62bc
00000040: f130 4c3e 878c 333e 960f fa3d 5401 d73b
00000050: 6b2c ffbd 92cb e3bd e84b 023e a2db ebbd
00000060: d709 6cbd bdbf 39bc c86e 30be c4aa febd
00000070: e9c5 a8bd 2537 493e 64f8 85bd 0697 b83d
00000080: 8e6e 963d 5781 aabd 5f85 973e ee01 553e
00000090: 6f52 503e 08f7 4f3e 2605 f5bc 42a0 553d
000000a0: e897 5b3c 057f 3abe 353c 2e3e f95c c4bd
000000b0: 2fd1 83bc 9745 f9bd b223 24be 7f3d c33d
000000c0: be0b 2dbe 7a40 afbd f07f 7f3d cdf6 9ebe
000000d0: 3649 203e 94fe 23be b100 63bd e1fc 83bd
000000e0: 2ba1 0fbe a2a4 7ebd 550c 1e3e c4c3 f6bc
000000f0: f7e9 47be 9be2 b4bc 51f4 383e 4cb4 813e
00000100: 5f6f 4f3d 62fc 9cbe d3c4 703e 698f e63c
00000110: dfac 40be 9ac3 a1bd 1745 5dbd 1d49 203e
00000120: f630 74be 644c 653d 4846 9cbd 4c37 833e
00000130: 0953 353d 00f9 31bd 3d7a bf3b 614d 1abe
00000140: 170d 813e 0f23 fbbd ba93 8cbd ab12 08be
00000150: 15a8 1b3e 389a cd3d 4a7c dcbd a616 a0bd
00000160: 735b ee3d 323c 623d 6a04 f03d d666 c1bd
00000170: e072 cabc f096 48be ff5a e63d e23b f63d
00000180: 2ee0 bfbd 641e 2f3e c3a6 3d3d 1212 f8bd
00000190: 43cd 973d 4fa4 6c3d 1b25 923d 4a25 09be
000001a0: 5398 683d 9f2f cabd 1bbe 19be 80cb 42bd
000001b0: 8904 963d a145 8ebe 8c54 65bb 80ad 6e3c
000001c0: 4ffc 17bc 5ad9 663e 6b45 0f3d 6d0a 12bd
000001d0: 8cb1 64bc cc70 a9bd dd29 ca3c 61ba 583e
000001e0: 9ba4 1fbe a7d4 36be 378e 72bd 3019 93be
000001f0: 9706 8a3d f4a3 1c3e 797b 863e 2c53 0d3e
00000200: e754 31bd 6d4a 193e 2757 15be cf61 4ebe
00000210: f420 9dbd 0bd1 433d 2330 353d ab47 39bd
00000220: a44d c03d 5d9f d03d f6cc 84bd 3173 38be
00000230: c98e 743d 3780 57be 8e5b 43bd 584c fa3b
00000240: e2c3 48be fa4c ccbd cd25 33be 30dc 52bc
00000250: c0e9 25bc cd83 493d 9295 743e b127 a83b
00000260: b144 e6bd c74c 393b 4061 08be 91f8 d03d
00000270: db8a 223e e6eb d03c e51c 423d 1923 1fbe
00000280: 8b8f 883e 37ce 00bd bd69 633e cea7 2f3e
00000290: ec06 70bd 9d87 08be ce9f 9c3e d20b ea3c
000002a0: 80c5 d2bd 901c 57be 76e8 143e 57a4 143e
000002b0: 1c34 c5bb 0fe2 7fbd 816b 693e 847a e5bd
000002c0: a9e2 1ebd 0009 2abd 8e1b 2b3e 953b 393e
000002d0: 5228 f33d 77d0 27be 5713 d43d 72e8 1ebd
000002e0: 4170 4cbc 1d49 18be ff10 3ebe 8f32 203e
000002f0: be46 f03d 6dbe 2b3d c933 d83a 6b3b 563d
00000300: 28ab d6bd d2e8 123e 02c8 3cbd 3140 57be
00000310: bd26 3ebe 3c1a a63e 9fc5 02be 0080 2d3e
00000320: 63b2 d0bc 637c e2bd ffba df3d 10c3 823e
00000330: e29a 4dbe e8aa 853e ce61 db3d 2fb9 603e
00000340: 9eaa 82be f08f ad3e 301a 823e 16ea 62ba
00000350: e967 1ebf 6bb7 843e 71cb 9a3c 57fe bfbc
00000360: 6537 133e e830 3b3e 722c d13e f50e 033e
00000370: 6294 2fbe 00ce 293e 946a 583e 6336 25be
00000380: 8d64 b6bd 66c6 143d 20f4 1ebe b3d8 a4be
00000390: 5747 a83d dc87 c03e ce70 8fbe 50c0 e1be
000003a0: d35a 71be 1b07 c9bc 12f4 c93d 9ddb c7bb
000003b0: f96b 4cbe 8415 893e 3ec0 703a 38e1 cdbe
000003c0: 07fd 47bd 4a63 85be dd9c b03e 9e0f 88be
000003d0: 76b2 0c3e 9e2d bc3e cca7 66be 972a f5bd
000003e0: 7297 0d3e c271 8bbe 8efb a73d a4b1 99bd
000003f0: 5132 2bbc a54c 4abe 1664 1d3e a5c7 933d

network.4.bias f4 [64]
-0.013236343 -0.24926342 0.14965047 0.16745655 0.24417785 -0.022815926 -0.15655048 0.11780883
-0.16906531 0.100247204 0.10640174 0.09651655 0.0130839655 -0.12151974 -0.054947622 -0.051866286
-0.13647732 0.038482286 0.061103247 0.11795101 0.040804084 -0.16812454 -0.23722103 0.20493808
0.10223307 -0.22153677 -0.1185721 0.17111583 0.0034127685 -0.10388702 0.1518463 -0.12231033
-0.013277966 -0.05427132 -0.010572869 -0.037661508 -0.022188889 -0.019913081 0.26710576 -0.035103165
-0.15093158 -0.026999708 0.0274496 0.16053888 0.024804275 -0.24037345 0.011222442 0.07276307
0.07204884 -0.0130239045 0.1748561 0.099727534 0.017349193 -0.17841485 0.13761175 -0.08673842
0.011952298 0.24389784 0.03255886 -0.2253993 -0.09396989 0.09710641 -0.06414011 -0.046129152
00000000: 3fdd 58bc e93e 7fbe f93d 193e bb79 2b3e
00000010: c209 7a3e 77e8 babc c54e 20be c245 f13d
00000020: 751f 2dbe 684e cd3d 28e9 d93d 78aa c53d
00000030: 215e 563c 57df f8bd c210 61bd be71 54bd
00000040: b6c0 0bbe 9a9f 1d3d 6647 7a3d 4d90 f13d
00000050: 2f22 273d d728 2cbe 12ea 72be 4adb 513e
00000060: 925f d13d 89da 62be eed5 f2bd fd38 2f3e
00000070: c1a8 5f3b b8c2 d4bd 997d 1b3e d77d fabd
00000080: d38b 59bc 9b4b 5ebd d439 2dbc f442 1abd
00000090: 79c5 b5bc c220 a3bc 16c2 883e 56c8 0fbd
000000a0: cf8d 1abe 7e2e ddbc fcdd e03c 4e64 243e
000000b0: 5632 cb3c 7524 76be 55de 373c ce04 953d
000000c0: 588e 933d 3762 55bc 7a0d 333e f33d cc3d
000000d0: e51f 8e3c 62b2 36be 18ea 0c3e eaa3 b1bd
000000e0: 92d3 433c 5bc0 793e 705c 053d 13cf 66be
000000f0: 4973 c0bd badf c63d e45b 83bd ecf1 3cbd

network.6.weight f4 [64, 64]
-0.15364398 -0.01000823 0.15433949 0.25503072 0.36130235 0.24571241 0.2315197 -0.08457853
-0.011604067 -0.3244524 0.15457584 -0.015703192 -0.32892472 -0.020398578 0.28541484 -0.07421763
0.108124875 0.19081923 -0.19927546 0.24247853 0.29891494 -0.14071244 0.014082431 -0.10522126
-0.22826846 0.34210122 0.09104444 -0.12755433 0.059345946 -0.052122742 0.15370657 0.12333943
-0.1521612 0.025922885 0.13250776 -0.32742593 0.034683846 0.32223347 -0.09606969 -0.13326138
-0.21112278 0.106110275 -0.021104498 0.11155842 -0.07079243 -0.079372115 -0.43477798 0.102563135
-0.06525699 0.117322445 -0.096072115 -0.057528295 -0.24661417 -0.046207022 -0.014183911 -0.18575355
-0.33671924 0.15059158 -0.07623193 -0.052064925 0.14454891 0.15569055 -0.116385765 0.13869615
0.14120391 -0.010381715 -0.07810778 -0.19737765 0.22749954 0.24734288 0.15612565 0.045767486
0.06484296 -0.11122986 -0.107700735 0.0975473 -0.17788072 0.13313606 0.21127044 0.1978317
0.08728015 0.07095305 0.08301935 -0.15444669 -0.20263292 -0.28920463 -0.16398908 -0.10191788
0.015799679 -0.049596075 -0.13227949 -0.22081712 -0.046130504 0.07114801 0.072027035 -0.046992753
-0.2849966 -0.034857348 -0.051472723 0.15856203 -0.13054365 -0.029305682 0.11763223 0.21355596
-0.5220534 0.16107664 0.10441945 -0.078187585 0.19604586 0.1253125 0.115185 0.072383344
-0.1830876 -0.0384024 0.09251409 0.17705677 0.13778265 0.04891827 0.2593061 0.06796333
-0.07676789 0.2529009 0.061415404 -0.21750331 0.24062733 0.0062033883 0.010107977 0.02455223
0.07603156 0.3310012 -0.32748967 -0.09994039 -0.54765105 0.0061666365 0.38555127 -0.21780735
0.15015088 -0.016782532 -0.29786897 -0.017554726 0.12607369 0.6005531 0.12098758 0.27457803
0.26257837 -0.08461433 -0.08165669 0.010668014 -0.33679587 0.243389 0.4540827 -0.823287
-0.3556839 0.2193751 0.113395266 -0.30440027 -0.10349327 0.61781263 -0.19528367 0.22293417
0.13545185 -0.023527673 0.102553904 0.10784845 -0.41342354 0.07585311 -0.49248683 -0.3375467
-0.086337015 0.022472491 -0.12852491 -0.24418347 0.060817596 0.6611494 -0.22336088 -0.1320741
0.032736223 -0.17877132 -0.080168605 -0.21367778 -0.2503653 0.31441915 -0.36008275 0.12878858
-0.175948 0.15727003 -0.011028479 0.46892947 -0.09893725 0.08157514 0.00061202137 -0.09851684
-0.25362128 0.09815241 -0.06652123 0.25346228 0.19664444 -0.1438051 0.20918958 0.037116293
-0.11614209 -0.23894423 0.048757043 0.67526096 -0.23579516 0.06927166 0.072385 0.23464422
0.16152024 0.28960484 -0.046345066 -0.13656746 0.053529363 0.14586717 0.118462995 0.13521984
0.023347106 0.30994964 0.017064137 -0.025180362 0.27495673 -0.031042308 0.14330803 0.1506242
-0.055405952 0.1897932 -0.03645125 -0.2340641 0.05827435 -0.06667552 0.10253371 0.13556312
-0.22177172 0.10199969 0.035732053 0.1698833 -0.15255731 -0.05688118 -0.30818197 0.043194022
0.16108592 -0.05832691 -0.23550022 0.039858907 -0.25401127 -0.13600011 0.04009941 -0.1786032
-0.010179472 0.3689401 0.15140988 0.09728266 -0.090415694 0.074980415 -0.043012243 0.15990098
00000000: d954 1dbe 8ff9 23bc 2c0b 1e3e 6393 823e
00000010: 9ffc b83e 099c 7b3e 8013 6d3e 8237 adbd
00000020: fc1e 3ebc a01e a6be 2149 1e3e fba3 80bc
00000030: d268 a8be eb1a a7bc e521 923e 6aff 97bd
00000040: 9370 dd3d 1e66 433e de0e 4cbe 4b4c 783e
00000050: 610b 993e ec16 10be ffb9 663c 3e7e d7bd
00000060: 35bf 69be e427 af3e 8275 ba3d 9a9d 02be
00000070: bc14 733d a87e 55bd 4165 1d3e 6299 fc3d
00000080: 25d0 1bbe 3b5c d43c 1db0 073e 5fa4 a7be
00000090: a610 0e3d c9fb a43e 30c0 c4bd ac75 08be
000000a0: 9230 58be 5850 d93d 57e3 acbc be78 e43d
000000b0: 9ffb 90bd d98d a2bd 389b debe 9f0c d23d
000000c0: 75a5 85bd c046 f03d 75c1 c4bd caa2 6bbd
000000d0: 6d88 7cbe 9343 3dbd a263 68bc 2e36 3ebe
000000e0: 7766 acbe ae34 1a3e 7c1f 9cbd 0842 55bd
000000f0: a104 143e 586d 1f3e a95b eebd 5d06 0e3e
00000100: c297 103e 1218 2abc f9f6 9fbd 5e1d 4abe
00000110: a4f5 683e 7447 7d3e 67df 1f3e b076 3b3d
00000120: 63cc 843d 7bcc e3bd 3492 dcbd e1c6 c73d
00000130: 5d26 36be d254 083e 4757 583e 6594 4a3e
00000140: efbf b23d d54f 913d 0d06 aa3d 4627 1ebe
00000150: 017f 4fbe a112 94be c1ec 27be 52ba d0bd
00000160: 546e 813c 4125 4bbd 4674 07be e21d 62be
00000170: 57f3 3cbd 0cb6 913d e982 933d 797b 40bd
00000180: 13eb 91be 94c6 0ebd 10d5 52bd 165e 223e
00000190: 3cad 05be 7812 f0bc 2be9 f03d 6aae 5a3e
000001a0: 4ba5 05bf 46f1 243e ddd9 d53d d020 a0bd
000001b0: 3fc0 483e ec51 003e 1de6 eb3d b83d 943d
000001c0: 517b 3bbe d64b 1dbd 0778 bd3d 5f4e 353e
000001d0: e516 0d3e 865e 483d c5c3 843e 5c30 8b3d
000001e0: 7c38 9dbd 3a7c 813e b88e 7b3d 30b9 5ebe
000001f0: 0367 763e cb45 cb3b ee9b 253c c221 c93c
00000200: 6fb6 9b3d fd78 a93e baac a7be 8cad ccbd
00000210: dc32 0cbf 7f11 ca3b fa66 c53e e408 5fbe
00000220: 27c1 193e 857b 89bc 4882 98be eece 8fbc
00000230: 7619 013e d9bd 193f 56c8 f73d 7e95 8c3e
00000240: ac70 863e 474a adbd 9f3b a7bd e5c8 2e3c
00000250: 8270 acbe f73a 793e 877d e83e f0c2 52bf
00000260: 331c b6be dea3 603e c73b e83d 5ada 9bbe
00000270: 48f4 d3bd f828 1e3f 71f8 47be db48 643e
00000280: e4b3 0a3e 1bbd c0bc c807 d23d a6df dc3d
00000290: 40ac d3be e058 9b3d 3c27 fcbe ecd2 acbe
000002a0: 76d1 b0bd 3b18 b83c 099c 03be 3b0b 7abe
000002b0: df1b 793d 1641 293f b7b8 64be 6f3e 07be
000002c0: 6b16 063d d40f 37be 702f a4bd 59ce 5abe
000002d0: e12f 80be 8cfb a03e c45c b8be 27e1 033e
000002e0: b62b 34be 650b 213e cbb0 34bc 8617 f03e
000002f0: 9d9f cabd de10 a73d 0f70 203a 32c3 c9bd
00000300: a6da 81be 2104 c93d 483c 88bd cfc5 813e
00000310: 295d 493e a541 13be cb35 563e 4107 183d
00000320: e7db edbd ccad 74be 77b5 473d e7dd 2c3f
00000330: 4974 71be 4dde 8d3d 963e 943d 9346 703e
00000340: 9065 253e 1647 943e 53d4 3dbd 57d8 0bbe
00000350: 9b41 5b3d 345e 153e ba9c f23d 1277 0a3e
00000360: 6e42 bf3c b8b1 9e3e 17ca 8b3c 0c47 cebc
00000370: 21c7 8c3e 704c febc 57bf 123e 3b3d 1a3e
00000380: 5af1 62bd 2659 423e e84d 15bd 80ae 6fbe
00000390: 16b1 6e3d 2d8d 88bd 32fd d13d 0fd1 0a3e
000003a0: 2018 63be 37e5 d03d c65b 123d e3f5 2d3e
000003b0: fc37 1cbe 3dfc 68bd 07ca 9dbe 37ec 303d
000003c0: b5f3 243e 33e8 6ebd f826 71be 1843 233d
000003d0: c40d 82be 9d43 0bbe 473f 243d c2e3 36be
000003e0: cdc7 26bc b7e5 bc3e 310b 1b3e 223c c73d
000003f0: dd2b b9bd 558f 993d 9b2d 30bd 15bd 233e

network.6.bias f4 [64]
-0.046630785 0.007304115 -0.4604501 -0.17122775 0.013969918 0.17950134 0.16723575 -0.03934412
0.22245693 0.10683157 -0.21322687 0.11066167 -0.1219422 -0.09982205 -0.11359855 -0.026827425
-0.38815978 0.15408063 -0.1570716 0.021509508 0.2168227 0.039869122 -0.024694161 -0.032237254
-0.019285638 -0.08819572 -0.06336001 -0.13618346 0.013289859 0.061563093 -0.057197236 -0.05606994
0.219472 0.17538117 0.4048322 0.3474062 0.021059008 -0.008555935 0.062844016 0.018605702
-0.030162152 -0.14276946 0.010498156 0.10330305 -0.20639509 -0.19360518 0.20702462 -0.20896627
-0.29756054 -0.07837772 0.04219394 0.0050005615 0.03712614 -0.16437957 0.055867687 0.11268993
0.04268899 -0.1330325 -0.018198034 -0.24024756 0.16997391 -0.13458543 -0.0039281105 0.038737558
00000000: ecff 3ebd 5c57 ef3b 1ec0 ebbe 5456 2fbe
00000010: 15e2 643c 33cf 373e d93f 2b3e 4d27 21bd
00000020: c0cb 633e 83ca da3d 2558 5abe 96a2 e23d
00000030: d5bc f9bd 816f ccbd 5ba6 e8bd 30c5 dbbc
00000040: e1bc c6be 50c7 1d3e 61d7 20be b534 b03c
00000050: c506 5e3e ce4d 233d 694b cabc 360b 04bd
00000060: eafc 9dbc f59f b4bd e5c2 81bd ad73 0bbe
00000070: b5bd 593c 9529 7c3d a647 6abd 98a9 65bd
00000080: 45bd 603e 1f97 333e 2b46 cf3e 3adf b13e
00000090: f183 ac3c 312e 0cbc 5db4 803d fc6a 983c
000000a0: 9e16 f7bc 2832 12be 7500 2c3c 8d90 d33d
000000b0: 3c59 53be 7040 46be 43fe 533e 41fb 55be
000000c0: db59 98be 8084 a0bd 8ed3 2c3d c0db a33b
000000d0: 9411 183d 1e53 28be 84d5 643d fac9 e63d
000000e0: a6da 2e3d ac39 08be 0b14 95bc 7503 76be
000000f0: a40d 2e3e c3d0 09be 61b7 80bb 46ab 1e3d

network.8.weight f4 [64, 64]
-0.054976802 0.061514694 -0.018179404 -0.23687907 0.23967096 0.3494568 0.0012347592 0.20531595
0.21458112 -0.22986783 -0.265533 0.19014505 0.06652077 -0.048564725 -0.19575033 -0.29316786
-0.11907276 0.07345793 0.059874207 0.09912399 0.1253098 -0.16192396 -0.10015977 -0.023942009
-0.05042665 -0.16577724 -0.2694184 0.07513113 -0.13891307 -0.24829488 -0.16703705 0.019386826
0.13068676 -0.15141593 0.17568846 0.23238316 -0.278426 0.351163 -0.17267181 0.0809906
-0.3715193 -0.20125659 -0.304009 0.18262814 -0.14182635 -0.1182248 -0.49517247 -0.1228908
-0.26970568 -0.16543785 -0.007938664 -0.23919389 0.02768215 -0.2752367 0.08334526 -0.15818182
-0.22075877 -0.43010497 0.23900653 0.012169124 0.17167373 -0.19892105 0.012643 0.17185359
-0.22434716 0.023682734 0.38130847 0.33782738 -0.17978661 -0.34470955 -0.20888014 -0.29001203
-0.26844144 0.23051749 -0.0026050038 -0.3908467 0.16381705 0.039466396 0.09559353 -0.006582631
0.23263478 -0.0054849596 0.026769111 -0.10383411 0.014795963 -0.16736381 -0.19831978 -0.13708365
0.10302067 -0.017649425 0.017559988 -0.00937957 0.4725416 -0.14997038 0.041986614 0.057293624
-0.13739431 -0.19102612 -0.33402893 -0.41279855 0.064509116 -0.096620515 0.2047462 0.041188307
-0.02223132 0.13630827 -0.08678054 0.08488291 0.40329117 0.015354307 -0.119264126 0.097389385
0.18725051 0.033653278 -0.0475531 -0.20189694 -0.16952881 0.34605616 -0.030060345 0.09315716
0.14532785 0.10465275 0.054514717 0.28990322 -0.1667592 0.1940983 -0.10316975 -0.08397037
-0.06297333 0.107489355 0.013776319 -0.13597983 -0.0007491056 -0.14467898 -0.014316883 0.34711024
-0.023568803 0.153117 -0.05814082 -0.10644924 0.11353434 0.122239396 0.17474261 -0.10137879
0.07913408 -0.1935433 0.030561503 -0.15754873 0.13008595 -0.13814053 -0.0329062 0.057016145
-0.03715012 -0.2359688 0.048801314 -0.028359292 -0.082244754 -0.19324096 -0.07311908 -0.021592956
0.078943506 0.08074521 -0.16255797 0.063358165 0.028306207 -0.12283977 0.13265693 -0.055593625
0.4132005 0.08426994 -0.07119123 -0.09232543 -0.09144544 -0.116054595 0.13975549 -0.0814042
0.009873819 0.013077931 0.009955995 0.062368806 0.2538958 0.10908413 -0.067098 -0.05056974
0.05213405 0.097729474 -0.04659218 -0.15547392 -0.14423142 0.25214002 0.07739869 -0.1502
-0.18327956 -0.14750136 -0.19097514 0.20890932 -0.056962684 0.20454778 0.09704935 -0.18661304
-0.0626438 -0.08335223 -0.28249782 -0.20618373 -0.19191946 0.2724355 -0.14138794 -0.22881554
0.08712339 -0.16079926 0.010699584 0.26833472 0.18478183 0.11854331 0.04877253 0.04376741
0.14062478 -0.2704378 0.09576055 0.02403399 -0.08747254 0.06629587 -0.024805278 -0.19517307
-0.09067364 -0.15670219 0.039278965 0.07595725 -0.3490751 0.1779904 -0.062438235 -0.20945252
-0.08985708 -0.0010329386 -0.11716311 0.070729315 0.02695597 0.1300132 -0.10065296 0.23500356
0.08840428 0.07970298 0.015039185 0.17768162 0.26918745 0.0821261 -0.14842471 0.11850223
0.06556194 0.050577518 -0.15933116 0.06852828 -0.042780306 0.040309414 0.19201897 -0.12896532
00000000: 5b2f 61bd d5f6 7b3d f9ec 94bc 6d90 72be
00000010: 4e6c 753e 00ec b23e a5d7 a13a 583e 523e
00000020: 27bb 5b3e 7962 6bbe f1f3 87be 62b5 423e
00000030: 0b3c 883d ceeb 46bd c672 48be 191a 96be
00000040: 6bdc f3bd 1c71 963d a83e 753d 8501 cb3d
00000050: 3651 003e 65cf 25be 9120 cdbd 0822 c4bc
00000060: 2d8c 4ebd 82c1 29be 35f1 89be 5ade 993d
00000070: 3a3f 0ebe 0341 7ebe c30b 2bbe 1fd1 9e3c
00000080: c0d2 053e c70c 1bbe ade7 333e daf5 6d3e
00000090: da8d 8ebe a3cb b33e e1d0 30be 66de a53d
000000a0: c737 bebe 3516 4ebe 11a7 9bbe df02 3b3e
000000b0: ed3a 11be d81f f2bd 3f87 fdbe 2cae fbbd
000000c0: dd16 8abe 8a68 29be 2c11 02bc 3eef 74be
000000d0: adc5 e23c d3eb 8cbe ebb0 aa3d 6afa 21be
000000e0: 960e 62be b836 dcbe 21be 743e 0161 473c
000000f0: 3dcb 2f3e f6b1 4bbe 9624 4f3c 63fa 2f3e
00000100: 43bb 65be 4b02 c23c dd3a c33e b6f7 ac3e
00000110: fb19 38be c57d b0be ade4 55be 757c 94be
00000120: 2871 89be c70c 6c3e b6b8 2abb 0f1d c8be
00000130: a8bf 273e 84a7 213d 8ac6 c33d 1cb3 d7bb
00000140: d037 6e3e 2dbb b3bb e54a db3c faa6 d4bd
00000150: c46a 723c 6b61 2bbe 5714 4bbe a85f 0cbe
00000160: 80fc d23d 8795 90bc f7d9 8f3c c5ac 19bc
00000170: f9f0 f13e d691 19be 28fa 2b3d b8ac 6a3d
00000180: 18b1 0cbe 5a9c 43be d705 abbe 555a d3be
00000190: 5b1d 843d fae0 c5bd fda8 513e 12b5 283d
000001a0: 751e b6bc 6594 0b3e ffb9 b1bd 17d7 ad3d
000001b0: 2e7c ce3e a290 7b3c c040 f4bd 1674 c73d
000001c0: 99be 3f3e 05d8 093d 0ac7 42bd 12be 4ebe
000001d0: f698 2dbe 462e b13e 1d41 f6bc 2ec9 be3d
000001e0: d3d0 143e 2e54 d63d d34a 5f3d 326e 943e
000001f0: ecc2 2abe b4c1 463e a94a d3bd a8f8 abbd
00000200: 29f8 80bd 6123 dc3d 12b6 613c 4c3e 0bbe
00000210: a05f 44ba ba26 14be 5c91 6abc 6fb8 b13e
00000220: 5d13 c1bc b4ca 1c3e 1225 6ebd 0f02 dabd
00000230: b184 e83d a658 fa3d baef 323e af9f cfbd
00000240: 0c11 a23d 3730 46be 1e5c fa3c 7454 21be
00000250: 4035 053e b674 0dbe a7c8 06bd c389 693d
00000260: b92a 18bd cea1 71be e3e3 473d bf51 e8bc
00000270: f06f a8bd f5e0 45be 75bf 95bd b6e3 b0bc
00000280: 22ad a13d bf5d a53d 9975 26be edc1 813d
00000290: 6be2 e73c 6b93 fbbd 38d7 073e 24b6 63bd
000002a0: 048f d33e b895 ac3d b5cc 91bd 1d15 bdbd
000002b0: bf47 bbbd 08ae edbd 101c 0f3e 3fb7 a6bd
000002c0: ccc5 213c d144 563c 781e 233c 6f76 7f3d
000002d0: a1fe 813e 8067 df3d ad6a 89bd 3722 4fbd
000002e0: 838a 553d 6426 c83d 71d7 3ebd 8e34 1fbe
000002f0: 67b1 13be 7f18 813e 3483 9e3d 07ce 19be
00000300: a3ad 3bbe 990a 17be fd8e 43be 53ec 553e
00000310: b451 69bd f974 513e cfc1 c63d 7d17 3fbe
00000320: 654b 80bd 93b4 aabd 8ea3 90be d421 53be
00000330: 8986 44be aa7c 8b3e 00c8 10be 9f4e 6abe
00000340: bf6d b23d 90a8 24be 4f4d 2f3c 2b63 893e
00000350: 7337 3d3e d6c6 f23d b4c5 473d 7545 333d
00000360: f1ff 0f3e d376 8abe 1b1e c43d eee2 c43c
00000370: ce24 b3bd 21c6 873d 7034 cbbc 73db 47be
00000380: 1ab3 b9bd 8a76 20be fbe2 203d 7a8f 9b3d
00000390: f9b9 b2be 1e43 363e 3cbf 7fbd b97a 56be
000003a0: fd06 b8bd ab63 87ba 36f3 efbd 88da 903d
000003b0: c4d2 dc3c 2e22 053e 2423 cebd c6a4 703e
000003c0: 4e0d b53d 513b a33d ea66 763c 2cf2 353e
000003d0: f0d2 893e bb31 a83d a6fc 17be 4cb1 f23d
000003e0: 5745 863d 5f2a 4f3d b527 23be 8e58 8c3d
000003f0: 673a 2fbd 7c1b 253d 9fa0 443e 7c0f 04be

network.8.bias f4 [64]
0.10987028 -0.20989679 -0.015032959 -0.0382027 0.26770306 -0.106631674 0.19856068 -0.23857829
-0.12241062 0.019475227 -0.025301112 0.035583854 0.5100982 0.029461874 -0.13970187 -0.12797582
-0.033611715 0.04235549 0.0008294416 0.013668614 0.26149863 -0.025967605 0.03925774 0.0066549834
-0.18419567 -0.08031733 -0.065638594 0.20069368 -0.22950862 -0.023506891 0.10095665 -0.16284254
0.14310437 0.18519759 0.06109656 0.119633354 -0.031047788 0.05295552 -0.036101654 0.02203319
-0.20044984 -0.23195164 0.03352716 -0.22140783 -0.022114778 -0.16955379 -0.14337568 -0.15245697
0.030619258 0.078876905 0.18234423 -0.045419093 0.2926305 -0.13680002 0.23358764 0.15429749
-0.10289587 -0.023064353 0.08917439 -0.049352538 0.21183752 -0.15379146 0.11187806 0.07601806
00000000: ab03 e13d 2fef 56be cd4c 76bc 6f7a 1cbd
00000010: 6010 893e b561 dabd 7e53 4b3e de4d 74be
00000020: 6bb2 fabd 838a 9f3c 4744 cfbc 60c0 113d
00000030: cc95 023f 075a f13c 020e 0fbe 180c 03be
00000040: 70ac 09bd f37c 2d3d e26e 593a 53f2 5f3c
00000050: 26e3 853e 04ba d4bc b9cc 203d 0c12 da3b
00000060: ca9d 3cbe 6a7d a4bd 876d 86bd a582 4d3e
00000070: 4f04 6bbe 8691 c0bc 5cc2 ce3d 32c0 26be
00000080: f489 123e 70a4 3d3e 6340 7a3d 5502 f53d
00000090: ee57 febc e3e7 583d 54df 13bd f37e b43c
000000a0: b942 4dbe bb84 6dbe c653 093d bcb8 62be
000000b0: 0d2a b5bc 829f 2dbe 13d1 12be ae1d 1cbe
000000c0: 3dd5 fa3c 378a a13d 72b8 3a3e 5f09 3abd
000000d0: aad3 953e 4e15 0cbe 9931 6f3e 2900 1e3e
000000e0: 12bb d2bd 74f1 bcbc 10a1 b63d e325 4abd
000000f0: efeb 583e 827b 1dbe 5320 e53d 5baf 9b3d

network.10.weight f4 [64, 64]
0.122315586 0.23358461 -0.082485646 0.033599906 -0.015496546 -0.14385743 -0.23381667 0.08615658
0.20502488 -0.094295934 -0.22489166 0.06273239 0.082454845 -0.14758423 0.23489599 0.010560658
0.12918651 0.23920415 -0.13813709 0.0984264 -0.26884568 -0.0078360615 0.03686494 -0.19475268
0.071212135 0.005629836 -0.10283242 -0.19520922 0.46352416 0.04329756 -0.16623516 -0.11211784
0.038095925 -0.16418187 -0.29461095 -0.18943727 -0.2510702 -0.33536372 0.23455624 0.16419064
0.20925502 -0.019803708 0.017136576 0.036961906 0.19981666 0.091915235 0.13648431 -0.08244755
-0.1168133 0.10546828 -0.05470194 0.27782884 -0.047192812 -0.10676792 -0.22779955 -0.20779195
-0.10340643 0.10579947 -0.22456211 0.13895363 -0.035876147 0.17082909 0.07134963 -0.1615967
-0.0057848142 0.0057103545 -0.048651796 0.32352158 0.003315384 -0.20485936 -0.040209692 -0.258735
-0.16697668 -0.023631299 0.012680593 0.17257802 -0.011387916 0.21328251 -0.17131096 0.106882446
0.061414436 -0.067188464 0.10277036 0.2624563 0.34021667 -0.033638585 0.02839762 -0.006593158
0.018037578 0.058305327 0.20423754 -0.077444054 -0.06643666 0.1271985 -0.03111576 0.19147289
-0.06495048 -0.343676 0.066019565 -0.07367318 -0.0033577043 0.27687663 0.1473048 0.026079515
0.022052504 -0.19127126 0.11538496 0.11035919 -0.31614658 -0.06901782 -0.050187644 0.16755441
-0.13595465 -0.12952925 0.27131864 -0.14465998 0.12152768 0.21223815 0.06864997 -0.052224748
0.0937044 0.13772926 -0.12511462 0.1614985 -0.1463511 0.065867886 0.16653426 0.5529377
0.15438877 0.45887756 0.1711808 0.18911846 0.3935267 -0.20925702 0.08520723 -0.13032895
-0.14402236 -0.28644094 -0.06943204 0.11924755 -0.03374828 0.44060475 -0.2132959 -0.045381602
-0.039612472 0.14125594 -0.10385165 -0.102723114 0.14550325 -0.20618996 0.06787425 -0.19598892
0.038990982 -0.13760158 -0.06607848 0.012888603 -0.13868603 -0.016873483 0.24160005 -0.03560911
0.21472445 -0.21203898 0.036422532 0.0343257 0.0007766156 -0.03200318 0.18076567 -0.15336925
-0.11628386 -0.03356243 0.11197683 -0.18837625 -0.3710971 -0.25543115 -0.04559624 -0.03233725
0.012861784 0.1405061 -0.08026765 0.17963924 0.27923986 0.374842 0.12506959 0.05054907
-0.08456266 -0.38198164 0.1998391 -0.17846085 0.3319919 -0.3710047 0.17275909 0.11035315
-0.025472255 0.09760995 0.08812571 0.036646254 -0.06501715 -0.04527347 -0.0031981366 -0.14397152
0.09595361 0.05206564 0.033045582 0.04378501 0.041765504 0.1294624 0.017389346 0.034414846
0.05367668 0.03726791 0.086621076 -0.105938 0.054673057 -0.18265836 0.16132668 -0.05494902
0.07986269 -0.066104084 0.12789752 0.111017 -0.04364213 -0.036094368 -0.0025982421 0.13215815
0.14749093 0.015265859 -0.005204838 -0.017734326 -0.013999857 -0.0770484 0.035703566 0.0623444
0.09021957 -0.09523519 -0.036903623 -0.083366856 -0.010273965 -0.055152427 0.011870898 -0.078497164
0.06466296 0.19416441 -0.09746765 -0.12468577 0.033419352 0.06675598 -0.059749912 0.030421592
-0.06485871 0.09667285 -0.0198741 -0.059307344 0.10208225 0.1267047 -0.04775782 0.046019442
00000000: 9880 fa3d ce30 6f3e 3cee a8bd 0ea0 093d
00000010: 3ae5 7dbc 5d4f 13be a36d 6fbe dc72 b03d
00000020: 0bf2 513e 3a1e c1bd 004a 66be d779 803d
00000030: 16de a83d 5220 17be 9388 703e 9c06 2d3c
00000040: 7849 043e eff1 743e cf73 0dbe c893 c93d
00000050: 24a6 89be d362 00bc b1ff 163d 3f6d 47be
00000060: abd7 913d 7d7a b83b ce99 d2bd ede4 47be
00000070: 0a53 ed3e c858 313d 8d39 2abe 0a9e e5bd
00000080: 790a 1c3d 4b1f 28be 3fd7 96be d8fb 41be
00000090: 468c 80be cbb4 abbe 832f 703e 9721 283e
000000a0: f346 563e 633b a2bc 0162 8c3c 5e65 173d
000000b0: bd9c 4c3e 0e3e bc3d 8bc2 0b3e 43da a8bd
000000c0: d03b efbd c1ff d73d 240f 60bd 953f 8e3e
000000d0: 404d 41bd 24a9 dabd 4944 69be 6ac7 54be
000000e0: c0c6 d3bd 64ad d83d 9cf3 65be dc49 0e3e
000000f0: def2 12bd d2ed 2e3e c11f 923d 9b79 25be
00000100: 8a8e bdbb ed1d bb3b 1b47 47bd 9fa4 a53e
00000110: ea46 593b a7c6 51be ebb2 24bd ea78 84be
00000120: effb 2abe 6d96 c1bc 43c2 4f3c 4bb8 303e
00000130: 6294 3abc bb66 5a3e 246c 2fbe 2fe5 da3d
00000140: b48d 7b3d 1b9a 89bd 4479 d23d ac60 863e
00000150: e130 ae3e 9dc8 09bd 20a2 e83c 6b0b d8bb
00000160: 8bc3 933c 91d1 6e3d a523 513e fd9a 9ebd
00000170: f20f 88bd 5340 023e 7ae6 febc 7811 443e
00000180: c204 85bd 4df6 afbe 4435 873d f7e1 96bd
00000190: ee0c 5cbb c6c2 8d3e 12d7 163e b5a4 d53c
000001a0: 74a7 b43c 9ddc 43be f34e ec3d 0004 e23d
000001b0: f7dd a1be 3759 8dbd 8f91 4dbd 6293 2b3e
000001c0: b237 0bbe 51a3 04be 47ea 8a3e bf21 14be
000001d0: 81e3 f83d f554 593e 5b98 8c3d 9ee9 55bd
000001e0: 18e8 bf3d e608 0d3e 0c1e 00be dd5f 253e
000001f0: 10dd 15be bee5 863d f587 2a3e 538d 0d3f
00000200: 1718 1e3e 00f2 ea3e 054a 2f3e 45a8 413e
00000210: 557c c93e 7947 56be 2181 ae3d f474 05be
00000220: 997a 13be 63a8 92be 6332 8ebd 0f38 f43d
00000230: a33b 0abd f296 e13e 3e6a 5abe 0fe2 39bd
00000240: b040 22bd 66a5 103e 2db0 d4bd 7f60 d2bd
00000250: cefe 143e 7623 53be a801 8b3d 52b1 48be
00000260: 02b5 1f3d 6ee7 0cbe 2754 87bd b82a 533c
00000270: b603 0ebe 423a 8abc 0166 773e dcda 11bd
00000280: bae0 5b3e bf20 59be cb2f 153d 1b99 0c3d
00000290: ca95 4b3a c415 03bd a31a 393e d40c 1dbe
000002a0: 3b26 eebd c278 09bd 1c54 e53d b4e5 40be
000002b0: 7000 bebe dfc7 82be 1fc3 3abd 1074 04bd
000002c0: 3bba 523c d5e0 0f3e 5e63 a4bd 59f3 373e
000002d0: 87f8 8e3e 4aeb bf3e 3e12 003e 8b0c 4f3d
000002e0: 302f adbd 1993 c3be 9fa2 4c3e 71be 36be
000002f0: d8fa a93e 54f4 bdbe c2e7 303e d500 e23d
00000300: 31ab d0bc bae7 c73d 417b b43d 621a 163d
00000310: b627 85bd ad70 39bd d497 51bb 456d 13be
00000320: 5483 c43d c842 553d ce5a 073d e957 333d
00000330: 4e12 2b3d cb91 043e 1a74 8e3c 95f6 0c3d
00000340: 14dc 5b3d 3ca6 183d 6466 b13d 06f6 d8bd
00000350: dbf0 5f3d cb0a 3bbe d232 253e 3912 61bd
00000360: 0d8f a33d 9461 87bd 91f7 023e e25c e33d
00000370: 17c2 32bd b0d7 13bd 4547 2abb 7754 073e
00000380: dd07 173e a71d 7a3c 588d aabb 9447 91bc
00000390: a85f 65bc 8dcb 9dbd e73d 123d d75c 7f3d
000003a0: 0ac5 b83d ab0a c3bd 4128 17bd 3ebc aabd
000003b0: 2254 28bc 83e7 61bd 287e 423c 1fc3 a0bd
000003c0: 046e 843d 09d3 463e 1f9d c7bd 415b ffbd
000003d0: bbe2 083d 5cb7 883d 53bc 74bd b436 f93c
000003e0: a5d4 84bd 6afc c53d 02cf a2bc 42ec 72bd
000003f0: 8010 d13d e0be 013e b49d 43bd e27e 3c3d

network.10.bias f4 [64]
-0.18753506 0.1315954 0.21540254 -0.073365755 -0.11128043 -0.0051998636 0.003394398 0.19144005
0.017277047 -0.06318317 -0.15742765 -0.05635924 0.0060700006 0.09054765 -0.2744561 0.13654332
-0.007370007 0.030612048 -0.016200293 0.15730311 -0.042591266 -0.001543434 0.074149035 0.07059641
-0.03889335 -0.0010158605 -0.14163283 -0.18745075 0.15557404 0.064905815 -0.040623046 -0.023139521
-0.006081825 -0.00838603 0.019321803 0.033735808 -0.0032429849 0.029737173 0.058526084 0.1168431
-0.07790617 -0.014263364 -0.06021756 -0.046735737 0.09989809 0.15920526 -0.19900522 -0.053298436
-0.0800928 0.120607235 -0.019550169 0.07636913 -0.010933622 -0.03446963 -0.07126278 0.13796695
0.0033674475 -0.10650415 0.005744575 0.03761954 -0.08089474 0.20733202 0.053366005 0.1605727
00000000: 3109 40be f2c0 063e 7c92 5c3e c940 96bd
00000010: fee6 e3bd 9e63 aabb 8c74 5e3b dc08 443e
00000020: 9888 8d3c 2e66 81bd b734 21be f2d8 66bd
00000030: dbe6 c63b 0c71 b93d 8385 8cbe 03d2 0b3e
00000040: 1a80 f1bb 1ec6 fa3c 7ab6 84bc 1114 213e
00000050: 2e74 2ebd 0d4d caba 73db 973d da94 903d
00000060: a24e 1fbd 9f26 85ba 3208 11be 17f3 3fbe
00000070: cd4e 1f3e 57ed 843d 5a64 26bd 188f bdbc
00000080: 0c4a c7bb 8f65 09bc c248 9e3c 8f2e 0a3d
00000090: 4288 54bb 5f9b f33c 0cb9 6f3d 6f4b ef3d
000000a0: 458d 9fbd e2b0 69bc b0a6 76bd f96d 3fbd
000000b0: 5f97 cc3d b406 233e 06c8 4bbe 764f 5abd
000000c0: b207 a4bd ed00 f73d ad27 a0bc 6b67 9c3d
000000d0: ef22 33bc 0730 0dbd 38f2 91bd 3547 0d3e
000000e0: 65b0 5c3b d91e dabd fd3c bc3b f216 1a3d
000000f0: 24ac a5bd d84e 543e 5096 5a3d 2b6d 243e

network.12.weight f4 [5, 64]
-0.32988477 0.01953771 0.17203589 -0.03141075 0.006152928 0.10693254 -0.00302871 0.034956485
0.025860507 0.009743935 0.028417572 -0.02117403 -0.05006887 -0.09458595 -0.27519873 0.04600058
-0.15194322 0.0027033782 -0.1415752 0.00217469 -0.107862644 -0.014222171 0.015452209 -0.0038207076
-0.016019538 -0.010218182 -0.12409767 -0.06898573 0.00092271983 -0.019465128 -0.0044143754 -0.06647932
0.080523394 0.0245591 0.0870722 0.00482916 0.06086852 0.11161313 0.0068933633 0.055687897
0.002609295 -0.10293358 -0.09172775 -0.06578574 -0.04647262 0.0779272 0.021998482 -0.15448889
-0.12851657 0.071361855 0.056194164 0.00020459312 0.017899176 0.01848345 0.19835891 -0.011724471
0.006622433 -0.027568115 0.028044993 0.26170114 -0.0059466218 -0.018449496 -0.001854684 -0.0046695685
-0.10829649 0.006447822 -0.280444 0.04375207 0.014161877 0.037472103 -0.04159074 0.008798885
0.06049303 0.048580926 0.018130282 -0.022018835 0.020459518 -0.03669944 0.13644868 0.041334942
-0.064351074 -0.017399497 -0.014367044 0.002553037 -0.052154396 -0.02178826 0.053729422 0.015046992
-0.0015160014 -0.02941217 0.0677996 -0.06277327 0.0051840935 0.0030931013 0.0029856225 0.020769605
-0.085869886 -0.038449936 0.023082074 -0.021206195 0.01737661 0.04092912 0.047032982 0.022682335
-0.003983802 -0.039457053 -0.04355275 -0.037041683 0.058750436 -0.044935707 -0.009282226 0.08280542
-0.025676869 -0.044082444 0.020399919 -0.0011144938 0.015026906 0.057411596 -0.17102672 -0.016496863
0.033756536 0.014981633 0.0884313 -0.016273106 -0.065658934 0.012924426 -0.033643685 0.14137636
0.043157633 0.13336319 0.17238046 -0.00997414 -0.41327873 -0.03057923 0.13237812 0.014659024
-0.004487737 -0.0038502421 -0.09792209 -0.06317493 -0.022800602 0.22208089 -0.20526555 0.235076
-0.054313138 0.06309556 -0.1494558 0.11038679 0.20905048 -0.011869701 0.002515672 0.10700269
-0.00068823743 -0.019611835 0.20809425 -0.16114898 0.51957 0.37884918 -0.0021466974 0.06789167
0.2444696 -0.111999445 -0.084593154 0.11315791 -0.07942241 0.26139444 -0.065988526 0.17700575
-0.4582224 0.28739485 -0.17007338 0.05858429 0.06416642 0.05944958 0.03048525 0.095565476
-0.03516151 -0.17279913 -0.02236976 0.007731791 0.07633763 -0.16617869 -0.041368585 0.05284452
0.010646379 0.2255617 -0.021194303 0.11334921 0.01693584 0.1696541 -0.03524605 0.26440683
-0.16060776 -0.15472983 -0.05800677 0.024214504 -0.106851965 -0.044890158 -0.013286117 0.21887499
0.07393507 -0.02156276 0.20477271 0.07288807 -0.04159146 0.14473218 0.12071154 -0.2266569
0.071451835 -0.10883944 0.17643996 -0.022903388 -0.39354357 0.116070054 0.023756765 0.10468154
-0.0041546877 0.0097421985 0.0006379325 -0.062743865 -0.047479294 0.031690855 -0.19572505 -0.08105201
-0.19193986 -0.07465221 -0.24919257 -0.08967248 0.0037547518 0.0044288742 -0.3944166 -0.06270821
-0.013633383 -0.12191514 -0.09375046 -0.27143225 0.038683075 -0.00026793577 -0.30245265 0.124826975
-0.020601187 -0.022198224 0.012726352 -0.06312989 0.2937686 0.118365616 -0.0059299907 -0.04770644
-0.010568426 -0.1080557 -0.14626648 -0.029890323 0.04268541 -0.027511112 0.18354958 -0.19322917
00000000: a8e6 a8be 8c0d a03c 2d2a 303e 8fa8 00bd
00000010: 809e c93b 73ff da3d 527d 46bb 882e 0f3d
00000020: 6ad9 d33c 07a5 1f3c f8cb e83c 2975 adbc
00000030: 0415 4dbd 47b6 c1bd d9e6 8cbe 1b6b 3c3d
00000040: 0197 1bbe 292b 313b 17f9 10be 3e85 0e3b
00000050: 17e7 dcbd 1c04 69bc 432b 7d3c d664 7abb
00000060: 683b 83bc 296a 27bc eb26 febd 6448 8dbd
00000070: aee2 713a 5575 9fbc 77a6 90bb 4f26 88bd
00000080: 73e9 a43d 2a30 c93c e952 b23d ee3d 9e3b
00000090: 4551 793d 6d95 e43d b9e1 e13b fe18 643d
000000a0: b500 2b3b d7ce d2bd c2db bbbd adba 86bd
000000b0: 135a 3ebd 4c98 9f3d 2936 b43c 5632 1ebe
000000c0: d999 03be 2a26 923d da2b 663d 0c88 5639
000000d0: 4ba1 923c 9b6a 973c 991e 4b3e ff17 40bc
000000e0: ff00 d93b 87d6 e1bc 9dbe e53c b1fd 853e
000000f0: e1db c2bb 6623 97bc de18 f3ba 2e03 99bb
00000100: 8dca ddbd 4048 d33b 5b96 8fbe 5f35 333d
00000110: 3807 683c 597c 193d 0d5b 2abd 3329 103c
00000120: 8ac7 773d cbfc 463d f585 943c d860 b4bc
00000130: b89a a73c 2752 16bd 34b9 0b3e d44e 293d
00000140: 7fca 83bd 6489 8ebc c063 6bbc da50 273b
00000150: d99f 55bd 4b7d b2bc 6213 5c3d a987 763c
00000160: 91b4 c6ba cbf1 f0bc 84da 8a3d 468f 80bd
00000170: 54df a93b a1b5 4a3b 6faa 433b 0525 aa3c
00000180: 8ddc afbd ae7d 1dbd 9e16 bd3c 9db8 adbc
00000190: 6459 8e3c 4ba5 273d a8a5 403d 4ed0 b93c
000001a0: 8e8a 82bb b89d 21bd 5e64 32bd 05b9 17bd
000001b0: 4ca4 703d 810e 38bd 7a14 18bc e395 a93d
000001c0: 4c58 d2bc cb8f 34bd bb1d a73c 3514 92ba
000001d0: 6933 763c 6c28 6b3d a121 2fbe 6e24 87bc
000001e0: 4b44 0a3d 8675 753c 781b b53d 2d4f 85bc
000001f0: 3178 86bd f9c0 533c f6cd 09bd f7c4 103e
00000200: 0fc6 303d 5c90 083e 8184 303e 936a 23bc
00000210: 4599 d3be 4b81 fabc 218e 073e 672c 703c
00000220: de0d 93bb 5854 7cbb 608b c8bd dc61 81bd
00000230: 54c8 babc 2c69 633e 2231 52be c3b7 703e
00000240: 7477 5ebd 3f38 813d f10a 19be 7812 e23d
00000250: 5411 563e 2279 42bc f9dd 243b 3a24 db3d
00000260: d56a 34ba 00a9 a0bc a916 553e 3d04 25be
00000270: 8a02 053f 85f8 c13e 9baf 0cbb ca0a 8b3d
00000280: 3d56 7a3e f75f e5bd 2d3f adbd 56bf e73d
00000290: 37a8 a2bd 7ed5 853e fe24 87bd ff40 353e
000002a0: 209c eabe 6b25 933e b727 2ebe 15f6 6f3d
000002b0: af69 833d 6781 733d 34bc f93c d5b7 c33d
000002c0: 8405 10bd 41f2 30be c940 b7bc f75a fd3b
000002d0: e756 9c3d bf2a 2abe 1b72 29bd 7f73 583d
000002e0: 266e 2e3c a5f9 663e ad9f adbc a123 e83d
000002f0: 08bd 8a3c ceb9 2d3e 2a5e 10bd 5560 873e
00000300: 5c76 24be 7f71 1ebe 8298 6dbd 7f5d c63c
00000310: 34d5 dabd bede 37bd 04ae 59bc c420 603e
00000320: 456b 973d 63a4 b0bc f0af 513e 5746 953d
00000330: cf5b 2abd ac34 143e 9d37 f73d bf18 68be
00000340: 5755 923d 36e7 debd adac 343e e39f bbbc
00000350: 8b7e c9be 23b6 ed3d 8c9d c23c 4663 d63d
00000360: 0c24 88bb be9d 1f3c ed3a 273a db7f 80bd
00000370: a679 42bd 45ce 013d 266c 48be 99fe a5bd
00000380: e28b 44be 42e3 98bd 562c 7fbe 35a6 b7bd
00000390: 4812 763b 1720 913b f9f0 c9be 296d 80bd
000003a0: 8e5e 5fbc a5ae f9bd 3e00 c0bd 2bf9 8abe
000003b0: 2572 1e3d bb79 8cb9 13db 9abe 49a5 ff3d
000003c0: d2c3 a8bc 0dd9 b5bc 3082 503c 3e4a 81bd
000003d0: d768 963e ac69 f23d 5e50 c2bb d467 43bd
000003e0: 3127 2dbc 4f4c ddbd e1c6 15be 8ddc f4bc
000003f0: e5d6 2e3d fc5e e1bc 6cf4 3b3e dedd 45be

network.12.bias f4 [5]
0.44594324 0.067990996 0.15255447 0.033807956 0.013182642
00000000: ac52 e43e dd3e 8b3d 3d37 1c3e 367a 0a3d
00000010: 02fc 573c
